weights/6-13-0_split_0.pt (torch, 473446 bytes, 26 tensors)

conv1.bias f4 [64]
-2.150426e-05 -1.5468437e-06 -2.1805897e-06 2.6454977e-06 2.2529426e-05 -1.2623805e-05 4.3410314e-06 -9.600901e-06
-3.526368e-06 -3.06309e-07 9.120718e-06 4.0703862e-06 -1.3272158e-06 -1.1944669e-05 -1.910225e-06 -7.013687e-06
4.3073865e-06 -2.9068794e-06 -4.842578e-06 -2.149962e-06 -1.5684905e-06 -1.0635971e-05 1.4865698e-05 -1.2387313e-05
-3.1876432e-06 -6.174426e-06 -2.6579914e-05 -2.1850321e-06 -2.1543708e-07 -6.2965596e-06 3.6650736e-06 -9.659227e-06
-6.92346e-06 -4.4832545e-06 4.533818e-06 -3.1314717e-05 -3.5685116e-05 -9.803504e-07 -1.4189553e-05 2.2774673e-06
-5.4973466e-08 -4.1130214e-08 2.2246624e-05 2.6530373e-07 2.2630995e-06 -4.775608e-07 -1.00148e-05 -5.564702e-07
-6.648924e-06 -2.7297494e-06 2.5520105e-06 3.8283765e-06 -2.2369437e-05 -8.172574e-06 1.4497358e-06 -8.569392e-07
-8.736266e-06 -3.1986456e-06 3.2453778e-07 3.1619653e-05 -1.4899787e-07 9.9954705e-06 -8.126086e-06 -1.16344745e-05
00000000: 0c64 b4b7 259d cfb5 3f56 12b6 4e89 3136
00000010: 93fd bc37 d4ca 53b7 2da9 9136 8e13 21b7
00000020: 8aa6 6cb6 ca72 a4b4 2f05 1937 5a94 8836
00000030: ca22 b2b5 f665 48b7 6a31 00b6 1d57 ebb6
00000040: 2b88 9036 cf13 43b6 6e7d a2b6 1148 10b6
00000050: ec84 d2b5 2671 32b7 b067 7937 1bd3 4fb7
00000060: 4beb 55b6 ea2d cfb6 eef7 deb7 91a2 12b6
00000070: e552 67b4 0947 d3b6 7cf5 7536 100e 22b7
00000080: 1250 e8b6 dd6e 96b6 3321 9836 ec57 03b8
00000090: 9aac 15b8 9594 83b5 ab0f 6eb7 97d6 1836
000000a0: f71b 6cb3 26a7 30b3 439e ba37 116f 8e34
000000b0: c1df 1736 ba31 00b5 3d05 28b7 5760 15b5
000000c0: d319 dfb6 bd30 37b6 3543 2b36 8175 8036
000000d0: 00a6 bbb7 f01c 09b7 8b94 c235 6a08 66b5
000000e0: fa91 12b7 50a8 56b6 223c ae34 589f 0438
000000f0: 39fc 1fb4 38b2 2737 4655 08b7 b031 43b7

conv1.lin.weight f4 [64, 2]
-0.34974024 -0.1007756 -0.0746664 0.2582585 0.19909452 0.0032009596 -0.29497522 -0.09430814
-0.17081949 -0.1780227 0.34939188 0.1445057 -0.07889882 0.30029893 -0.0630606 0.41476306
0.3764005 -0.003997994 0.048834465 0.23631391 -0.15619504 0.22607028 0.08551095 -0.42604733
0.18631423 -0.029031567 0.5855542 0.035429947 0.05634936 -0.3576759 0.13395002 0.35540605
-0.30457503 -0.1144622 0.08632425 -0.31079462 0.14406796 0.24650577 -0.086357415 0.37648296
0.66363025 -0.09459236 -0.4067983 0.12346259 -0.21679133 -0.26798463 0.44956535 -0.056547966
0.41871417 0.0788834 -0.2527789 -0.1549664 0.33257273 0.15128945 -0.32125354 -0.16244094
0.04747369 -0.36379528 0.11751668 -0.1650083 -0.21163875 -0.25761 -0.2959365 0.17725615
0.80734676 -0.019287003 0.47860754 -0.089643486 -0.22756891 0.28666916 0.30079135 0.14877369
-0.21122678 0.04487634 -0.13031207 -0.10257561 0.35295862 0.13254946 -0.18379769 0.4051067
-0.4224788 0.18001182 0.40347484 0.06751683 -0.31482834 -0.20669484 0.46628714 -0.05674111
-0.11667786 0.38991004 -0.20059748 0.38985726 0.75080705 0.016212968 -0.07964251 -0.20628522
-0.19933373 -0.045090146 -0.025572274 0.24557103 0.46007526 -0.057582933 0.47123936 -0.07877171
-0.3633336 0.117233165 0.10317195 0.19053236 0.40694287 -0.06261194 -0.13624126 -0.27847257
-0.3564299 0.1245626 -0.04280886 0.38601875 0.57492125 0.0341951 0.5043587 -0.084930316
-0.11100546 0.3497049 0.00960944 -0.41514048 0.20800577 -0.24923275 -0.563852 0.011593816
00000000: 2711 b3be 7063 cebd b3ea 98bd 753a 843e
00000010: 6fdf 4b3e 31c7 513b fe06 97be a024 c1bd
00000020: 4eeb 2ebe 954b 36be 7ee3 b23e 4df9 133e
00000030: b495 a1bd c8c0 993e ea25 81bd d35b d43e
00000040: 91b7 c03e 9b01 83bb a606 483d 46fc 713e
00000050: 98f1 1fbe f87e 673e 5d20 af3d e022 dabe
00000060: 28c9 3e3e 9cd3 edbc e1e6 153f fe1e 113d
00000070: 96ce 663d 4c21 b7be 322a 093e c8f7 b53e
00000080: 42f1 9bbe 286b eabd c5ca b03d 7920 9fbe
00000090: 8d86 133e 026c 7c3e 28dc b0bd 60c2 c03e
000000a0: ace3 293f a4b9 c1bd de47 d0be f4d9 fc3d
000000b0: 8cfe 5dbe 4835 89be 6e2d e63e d79e 67bd
000000c0: b461 d63e 9f8d a13d 3c6c 81be 83af 1ebe
000000d0: f946 aa3e 9feb 1a3e 587b a4be eb56 26be
000000e0: c673 423d 6043 babe 96ac f03d f0f7 28be
000000f0: d4b7 58be 75e5 83be fd84 97be a382 353e
00000100: 47ae 4e3f c7ff 9dbc 0c0c f53e 0197 b7bd
00000110: d307 69be 4dc6 923e 5301 9a3e 2158 183e
00000120: d54b 58be 41d0 373d 8770 05be 2913 d2bd
00000130: feb6 b43e 0cbb 073e 7635 3cbe 256a cf3e
00000140: 244f d8be 0555 383e 4194 ce3e 4446 8a3d
00000150: 2e31 a1be d0a7 53be 30bd ee3e 5e69 68bd
00000160: cdf4 eebd 4aa2 c73e 6d69 4dbe 5f9b c73e
00000170: e434 403f 0fd1 843c 9d1b a3bd 6f3c 53be
00000180: 241e 4cbe 72b0 38bd f27c d1bc f976 7b3e
00000190: fc8e eb3e 15dc 6bbd 4946 f13e 1053 a1bd
000001a0: dd06 babe f117 f03d d14b d33d ea1a 433e
000001b0: d15a d03e b03a 80bd d482 0bbe f593 8ebe
000001c0: fb7d b6be ad1a ff3d 5858 2fbd 40a4 c53e
000001d0: 0a2e 133f 2910 0c3d a71d 013f f2ef adbd
000001e0: d556 e3bd 850c b33e ea70 1d3c 4b8d d4be
000001f0: 77ff 543e df36 7fbe 9b58 10bf fdf3 3d3c

conv2.bias f4 [64]
-0.18114361 -0.24360286 -0.80228037 -0.3276759 -0.22960053 -0.5282889 -0.27860394 -0.41650292
-0.2166993 0.06799531 -0.6284006 -0.41285118 -0.6570576 -0.21656129 -0.3526256 0.25649756
-0.18510813 -0.37717515 -0.5328411 0.08088115 -0.54533494 -0.09880907 -0.26014543 -0.19267096
0.12935734 -0.24747162 -0.5107075 -0.8656995 -0.33688185 -0.08877836 -0.44618163 -0.6475207
-0.8282268 -0.34679857 -0.41451466 -0.27982807 -0.6386941 -0.2666958 0.083788976 -0.3243102
-0.43233106 -0.070388585 -0.57530934 -0.6167731 0.030367324 -0.14115365 -0.597763 0.11895435
0.1124754 -0.39784315 -0.25481802 -0.45284155 -0.44820476 -0.08326698 -0.18749334 0.21879734
-0.7644144 -0.25421926 -0.45270032 -0.34245923 -0.33214357 -0.6128066 -0.33193117 -0.26860324
00000000: b67d 39be 0773 79be 3f62 4dbf 23c5 a7be
00000010: 671c 6bbe f13d 07bf 2da5 8ebe df3f d5be
00000020: 6ce6 5dbe 2041 8b3d ddde 20bf 3b61 d3be
00000030: ed34 28bf 3ec2 5dbe 588b b4be a653 833e
00000040: fc8c 3dbe 1a1d c1be 4668 08bf 04a5 a53d
00000050: 129b 0bbf 695c cabd c831 85be 894b 45be
00000060: 4076 043e 3369 7dbe babd 02bf 7c9e 5dbf
00000070: c77b acbe 6ed1 b5bd eb71 e4be ebc3 25bf
00000080: ac06 54bf 958f b1be 443b d4be a045 8fbe
00000090: 7581 23bf 5a8c 88be 8e99 ab3d fd0b a6be
000000a0: 7f5a ddbe e427 90bd 7947 13bf d8e4 1dbf
000000b0: e5c4 f83c 958a 10be ff06 19bf 579e f33d
000000c0: 8159 e63d 19b2 cbbe 8277 82be d9da e7be
000000d0: 187b e5be e187 aabd 41fe 3fbe 690c 603e
000000e0: aab0 43bf 0729 82be 56c8 e7be d156 afbe
000000f0: b90e aabe e5e0 1cbf e2f2 a9be 5d86 89be

conv2.lin.weight f4 [64, 64]
-0.07328382 -0.23988208 0.09355234 -0.12273762 -0.3998068 0.13944316 -0.021726502 -0.36494943
-0.055817522 -0.042231433 -0.2956322 -0.68923044 -0.15158552 -0.03772333 -0.5754071 -0.15218687
-0.056489177 -0.39167133 0.03732572 -0.27794796 -0.14042555 0.05615741 -0.61887205 0.21802786
0.1857636 -0.4059432 -0.12371882 -0.3031677 -0.61195934 -0.46403852 -0.6095535 -0.23497163
-0.00846551 0.15356465 -0.32401633 0.058504805 0.035141036 -0.2739041 0.19849266 -0.23087364
0.041392695 0.014788454 -0.1561329 0.11956411 -0.18111916 -0.34625325 -0.049267538 -0.21037604
0.17067005 -0.15877627 0.14103568 0.16265401 -0.09539099 -0.0064964476 0.09978861 -0.48160255
-0.06980297 -0.24435666 0.106769234 0.22195435 -0.25550303 -0.37734345 -0.5731821 -0.11425858
-0.5890163 -0.08636744 -0.00017475204 -0.61613435 -0.140048 -0.66147685 -0.23017661 -0.31837228
-0.08198411 -0.21131615 0.04590968 0.14833997 0.15676183 -0.20464112 0.32087314 -0.51298136
-0.48032123 0.1422509 -0.38547844 0.015418461 -0.040986784 -0.20411927 -0.19528985 0.23291755
-0.47445047 -0.3240005 -0.39948067 -0.46243048 0.17012903 0.22328483 0.055787258 -0.083519116
-0.067715004 0.21987417 -0.07051063 -0.5413651 -0.24968353 0.007951551 -0.35624662 0.09954535
-0.26735127 -0.35249585 -0.38405126 0.022114621 -0.23383538 0.01854307 -0.25559577 0.08252367
-0.28885776 -0.14807566 0.23885046 -0.017854637 -0.2588092 -0.12938343 0.25624123 0.16221125
-0.16939336 -0.037593763 -0.37104678 0.21008441 -0.029616727 0.12118752 0.3778921 -0.9050323
0.18427798 0.0054903696 -0.016157247 0.15997876 0.10710844 -0.15435015 0.060459 -0.0065572504
-0.05699666 0.09142706 -0.11470118 0.02924348 -0.124073155 -0.25808153 0.011228191 0.0879574
0.10629806 -0.051489037 0.04700775 0.22890544 -0.45175064 0.014708023 -0.065913185 -0.12914976
-0.1300272 -0.1422794 -0.06924694 0.21780682 0.12285464 -0.12011144 -0.12939551 -0.08918537
-0.6319658 -0.00079108623 -0.12022951 -0.122136265 -0.10035545 0.020033699 -0.14803503 0.21004237
0.084437415 -0.1482415 0.062005658 -0.18238732 -0.022078438 0.14098012 -0.45762417 -0.10607002
0.17052561 0.13902031 -0.21794602 -0.16931613 0.16428964 -0.051770654 -0.12534629 -0.10920186
0.10166796 0.021480456 -0.3838095 -0.2390327 0.029892636 -0.13720015 -0.40876484 0.20062655
-0.059039548 0.034937188 -0.02597465 0.04977052 0.17800805 0.24354543 0.15888523 0.07244667
-0.10464033 0.16124626 -0.022219216 0.046802316 -0.18325259 0.058660813 0.111400224 0.15312634
-0.07117919 0.030845262 0.3042868 0.23532198 -0.24996908 -0.30261365 0.25435895 -0.27385217
0.18006527 -0.027944779 0.17482366 -0.08237337 0.013475328 -0.068827875 0.16322641 -0.33167794
0.074656755 -0.29700896 0.06413636 0.42063925 -0.42601883 0.1179972 0.33599907 0.11960497
-0.21472414 0.13210627 -0.15333426 -0.22277924 0.10285373 0.070088804 0.027709583 0.109179415
0.07106312 0.024079246 -0.36940724 -0.32357195 -0.22728474 0.29767695 -0.30052137 0.055860814
-0.24290213 0.31788802 0.0766449 -0.46933085 0.11170137 0.16864473 0.0243329 -0.38380024
00000000: d415 96bd a6a3 75be 5f98 bf3d dc5d fbbd
00000010: 7ab3 ccbe 30ca 0e3e c7fb b1bc a7da babe
00000020: eaa0 64bd defa 2cbd 1b5d 97be 6871 30bf
00000030: 3c39 1bbe c783 1abd e14d 13bf e0d6 1bbe
00000040: 3261 67bd 2589 c8be dbe2 183d 324f 8ebe
00000050: b7cb 0fbe 5005 663d 666e 1ebf b242 5f3e
00000060: d038 3e3e cad7 cfbe 4b60 fdbd cc38 9bbe
00000070: 5ea9 1cbf 7596 edbe b30b 1cbf 679c 70be
00000080: ecb2 0abc 0d40 1d3e 78e5 a5be bca2 6f3d
00000090: 0cf0 0f3d 283d 8cbe a941 4b3e 246a 6cbe
000000a0: 638b 293d 464b 723c 4ee1 1fbe 07de f43d
000000b0: 4d77 39be 1b48 b1be c2cc 49bd d16c 57be
000000c0: 21c4 2e3e 3f96 22be a86b 103e c68e 263e
000000d0: 5a5c c3bd 27e0 d4bb f95d cc3d 9c94 f6be
000000e0: dcf4 8ebd a238 7abe d4a9 da3d 0048 633e
000000f0: 4bd1 82be 2933 c1be 10bc 12bf 6700 eabd
00000100: c6c9 16bf 6ae1 b0bd a53d 37b9 fbba 1dbf
00000110: be68 0fbe 8c56 29bf 6bb3 6bbe b101 a3be
00000120: 49e7 a7bd 4363 58be ca0b 3c3d 6fe6 173e
00000130: 2c86 203e 718d 51be 7c49 a43e bf52 03bf
00000140: aaec f5be 38aa 113e 6e5d c5be b69d 7c3c
00000150: c2e1 27bd a404 51be 10fa 47be f081 6e3e
00000160: 2ceb f2be 65e3 a5be bb88 ccbe b0c3 ecbe
00000170: 4e36 2e3e c7a4 643e 2e81 643d 120c abbd
00000180: 2aae 8abd b226 613e e167 90bd e796 0abf
00000190: 0aad 7fbe 3947 023c f565 b6be 6fde cb3d
000001a0: 44e2 88be 567a b4be 5ea2 c4be b929 b53c
000001b0: 8b72 6fbe a3e7 973c 73dd 82be 2b02 a93d
000001c0: 2ae5 93be 25a1 17be 3795 743e e343 92bc
000001d0: a482 84be 177d 04be 0d32 833e b51a 263e
000001e0: 7475 2dbe ebfb 19bd d8f9 bdbe 5e20 573e
000001f0: c79e f2bc 2a31 f83d 137b c13e 32b0 67bf
00000200: 5eb3 3c3e 8fe8 b33b 345c 84bc 79d1 233e
00000210: ab5b db3d f70d 1ebe dba3 773d 34de d6bb
00000220: 5475 69bd 1c3e bb3d 74e8 eabd 0690 ef3c
00000230: 111a febd 4323 84be 72f6 373c 0223 b43d
00000240: ccb2 d93d 2be6 52bd 338b 403d 3066 6a3e
00000250: dc4b e7be ebf9 703c 7efd 86bd d63f 04be
00000260: da25 05be b1b1 11be 57d1 8dbd c008 5f3e
00000270: 379b fb3d fdfc f5bd 4280 04be d2a6 b6bd
00000280: 83c8 21bf e660 4fba e43a f6bd 9422 fabd
00000290: 2887 cdbd b61d a43c 7f96 17be 5915 573e
000002a0: 86ed ac3d 9fcc 17be a5f9 7d3d bec3 3abe
000002b0: d7dd b4bc 185d 103e b74d eabe 3d3b d9bd
000002c0: 449e 2e3e 575b 0e3e 3e2d 5fbe 3561 2dbe
000002d0: 8b3b 283e 770d 54bd c75a 00be 3aa5 dfbd
000002e0: 4b37 d03d c8f7 af3c ae82 c4be fdc4 74be
000002f0: 67e1 f43c 327e 0cbe a049 d1be 0c71 4d3e
00000300: 74d3 71bd 4c1a 0f3d cac8 d4bc 2cdc 4b3d
00000310: be47 363e f963 793e cfb2 223e eb5e 943d
00000320: ab4d d6bd bd1d 253e 1305 b6bc c9b3 3f3d
00000330: 91a6 3bbe 5246 703d cd25 e43d 27cd 1c3e
00000340: 65c6 91bd 34af fc3c 7bcb 9b3e 3ff8 703e
00000350: e5f7 7fbe 2df0 9abe 563b 823e 5a36 8cbe
00000360: 0863 383e 73ec e4bc f904 333e 5fb3 a8bd
00000370: 9fc7 5c3c a1f5 8cbd d324 273e b1d1 a9be
00000380: a4e5 983d 8f11 98be ed59 833d 075e d73e
00000390: 241f dabe 84a8 f13d 1208 ac3e 73f3 f43d
000003a0: a5e0 5bbe de46 073e a803 1dbe 3e20 64be
000003b0: faa4 d23d b88a 8f3d 35ff e23c 7599 df3d
000003c0: 8b89 913d d741 c53c f222 bdbe 39ab a5be
000003d0: 55bd 68be 1d69 983e f0dd 99be 4fce 643d
000003e0: 56bb 78be 38c2 a23e 00f8 9c3d 224c f0be
000003f0: b0c3 e43d 34b1 2c3e ca55 c73c 7781 c4be

conv3.bias f4 [128]
-1.1446482e-05 -1.52509365e-05 2.7752815e-06 3.3538813e-06 2.9900184e-05 -1.8319344e-05 -4.5129666e-05 -6.1570277e-06
5.744761e-06 -1.0065096e-06 -0.00011242996 9.607832e-06 -2.3957144e-05 3.228735e-05 0.00012300373 1.3329278e-05
1.1292544e-05 1.8678384e-05 -9.447863e-06 2.4095021e-05 -7.2046673e-06 -9.182316e-05 -1.7693432e-05 -2.1794706e-06
1.224561e-06 1.4165165e-05 8.71885e-06 2.1977012e-05 -2.188928e-05 8.094941e-06 -2.7564198e-05 -0.00010504329
-4.5434375e-05 -3.9109373e-06 6.6473517e-06 -2.8667343e-06 1.4607513e-05 -4.3040864e-06 7.5730795e-06 -1.957889e-05
-5.6300243e-05 -3.434696e-05 -2.7186297e-05 5.0979645e-05 2.6853577e-05 3.5353415e-07 -3.2488213e-05 -9.541908e-06
-2.1672271e-05 2.042033e-05 6.1657324e-06 -1.2921895e-06 1.4981158e-06 -2.5725943e-05 -2.4617435e-05 -1.365429e-05
-3.7259764e-05 2.7573857e-05 2.2153394e-05 -2.5128853e-05 2.2426695e-05 1.9813356e-06 8.497263e-06 -4.1321146e-06
-1.7119755e-05 1.3639436e-05 7.3836295e-06 -4.3162254e-05 2.4268158e-05 -6.8264817e-06 5.375077e-07 -3.0622425e-05
1.2186201e-05 -6.3675484e-06 3.1329124e-05 3.4881654e-05 4.267675e-06 3.4457145e-05 5.8321806e-05 -6.181909e-06
-1.8378827e-05 4.9373425e-06 1.8055262e-05 -1.0559127e-05 -7.1295512e-06 5.4894927e-06 -3.80543e-05 5.26696e-06
3.759427e-05 4.469597e-06 3.4190427e-05 -2.0498562e-06 1.41315995e-05 5.879597e-05 7.212487e-06 -3.0136356e-05
1.1244739e-05 -2.6079835e-05 1.1619348e-05 7.076515e-06 6.028369e-07 -6.766494e-06 -1.4859652e-05 1.4709373e-05
2.4662236e-06 0.00010947981 -4.6117555e-05 5.82228e-06 -2.6708427e-05 4.3843207e-05 5.5497962e-06 -6.6699526e-05
8.299615e-05 5.9741465e-06 1.5626916e-06 -7.078918e-06 1.8962842e-06 1.38913465e-05 1.5861653e-07 6.02094e-06
2.2189011e-05 5.0055176e-05 3.3660053e-05 -2.4814668e-07 1.0598038e-05 -0.00018766559 2.1538386e-05 6.2904214e-06
00000000: 440a 40b7 46de 7fb7 f93e 3a36 3e13 6136
00000010: 28d2 fa37 7eac 99b7 9c49 3db8 7798 ceb6
00000020: 1fc3 c036 6817 87b5 60c8 ebb8 5331 2137
00000030: 93f7 c8b7 476c 0738 90fa 0039 d0a0 5f37
00000040: 1b75 3d37 86af 9c37 4382 1eb7 aa1f ca37
00000050: 9fbf f1b6 2f91 c0b8 5b6c 94b7 0543 12b6
00000060: 985b a435 eca6 6d37 2d47 1237 465b b837
00000070: df9e b7b7 82cf 0737 aa39 e7b7 b04a dcb8
00000080: ca90 3eb8 b23a 83b6 510c df36 1f62 40b6
00000090: ca12 7537 d26b 90b6 421c fe36 593d a4b7
000000a0: ed23 6cb8 c40f 10b8 210e e4b7 fad2 5538
000000b0: 9e43 e137 5dcd bd34 f443 08b8 2f16 20b7
000000c0: d9cc b5b7 534c ab37 3de3 ce36 4b6f adb5
000000d0: de12 c935 0bce d7b7 8a81 ceb7 bb14 65b7
000000e0: 5e47 1cb8 684e e737 0dd6 b937 cdcb d2b7
000000f0: f620 bc37 16f7 0436 778f 0e37 98a6 8ab6
00000100: 659c 8fb7 eed4 6437 e5c0 f736 1e09 35b8
00000110: 7993 cb37 080f e5b6 3f49 1035 9470 00b8
00000120: 5673 4c37 d3a8 d5b6 6467 0338 e44d 1238
00000130: 0d33 8f36 1486 1038 909e 7438 326e cfb6
00000140: 3b2c 9ab7 73ab a536 6175 9737 1b27 31b7
00000150: 613a efb6 6232 b836 7e9c 1fb8 d8ba b036
00000160: 8aae 1d38 8cf9 9536 b167 0f38 4390 09b6
00000170: c216 6d37 b19b 7638 cb02 f236 55cd fcb7
00000180: c9a7 3c37 05c6 dab7 b8f0 4237 cd72 ed36
00000190: a3d2 2135 be0b e3b6 b84d 79b7 47c8 7637
000001a0: 6681 2536 8798 e538 596e 41b8 015d c336
000001b0: e90b e0b7 49e4 3738 6338 ba36 09e1 8bb8
000001c0: 380e ae38 8775 c836 adbd d135 7187 edb6
000001d0: d483 fe35 e10e 6937 2e50 2a34 7b07 ca36
000001e0: 8a22 ba37 56f2 5138 352e 0d38 0539 85b4
000001f0: 3ace 3137 19c8 44b9 55ad b437 4f12 d336

conv3.lin.weight f4 [128, 64]
-0.12950787 -0.0030359712 -0.10084965 -0.0506606 0.029644413 0.016926667 -0.013749178 -0.10123526
-0.19136055 0.017793974 0.01686865 -0.010413127 -0.045609206 0.002721353 -0.007192543 -0.1231871
0.08144961 0.050524097 0.00021858247 0.045212153 -0.10234472 0.06372536 -0.01243125 -0.0087876925
-0.0057576103 -0.20902054 0.080768436 0.013181816 0.02257228 0.0124644 -0.074777804 -0.08787647
-0.0113803735 -0.074907444 -0.02250204 -0.11627007 0.04676067 -0.045952026 -0.025520528 0.1025719
-0.03951686 -0.05620458 0.19665022 -0.0121099865 0.078320414 -0.07155667 -0.01614265 0.012628627
-0.0071117496 -0.17975879 0.032111906 -0.048955224 0.069069944 0.07318477 0.057040922 0.19050097
-0.15099971 -0.023727115 -0.020669768 -0.207071 -0.13254356 -0.026751367 0.017024003 -0.021328079
0.32052997 -0.05013173 -0.20279379 -0.12105276 -0.0723422 -0.26108915 -0.11368007 0.04277683
-0.15628415 0.2652732 -0.29187888 -0.22785428 -0.43582538 0.013054567 0.026647374 0.1479485
-0.16392729 -0.23904811 -0.14860564 0.0414996 0.20084156 -0.15067552 0.070807956 0.16849653
0.1508436 0.14197117 -0.18992668 -0.060223367 -0.021679994 0.007362586 0.09469902 -0.05762119
-0.16017891 0.088076726 -0.265571 -0.15502065 0.09196915 0.11349965 -0.05232235 0.11537813
-0.20533444 0.14381336 -0.27710414 -0.29406148 -0.033223886 -0.035973813 -0.11751635 -0.07787784
0.11740106 0.0790425 0.011333817 -0.0424743 -0.10783606 0.0201276 -0.0013615253 0.16674775
-0.18218681 -0.045852713 -0.45169026 -0.15079321 -0.06084075 -0.17726626 0.1421534 0.06081825
-0.14994195 0.026781654 0.091231175 -0.10216577 -0.15187836 0.04997945 -0.1057876 -0.08588407
-0.01724668 -0.120386876 -0.15524541 -0.03324535 0.13208377 0.1045393 -0.053284533 -0.003450496
-0.16176525 0.0031827341 -0.103316806 0.096877225 -0.18418224 -0.17031848 -0.1273989 0.11969689
-0.07352394 -0.11643774 0.12541865 -0.068150006 -0.011822792 -0.19424279 0.016414361 0.003936035
0.1365778 -0.022675289 0.18990523 -0.09600811 -0.2164085 -0.06928383 0.12606382 0.00075596763
0.06446207 0.033187162 0.12487096 0.10889856 0.17648761 -0.022587009 0.025312474 0.076683745
0.13958623 -0.17904375 -0.15643959 0.002331011 -0.058956202 -0.01039649 -0.0880829 0.14525306
-0.19648351 -0.074501224 -0.10855345 -0.12561016 0.41636693 -0.0055804932 -0.037442245 -0.043081187
-0.08395372 0.064848736 -0.08458436 0.03115798 0.11798381 0.076281175 0.017920962 -0.04112076
-0.156009 -0.27462444 0.04128938 -0.078477874 0.011230333 -0.10296439 -0.051621903 -0.19945653
0.061808232 0.06484825 -0.11864624 0.21503015 -0.3192743 0.1033825 -0.19941688 -0.21070668
-0.12872806 -0.14030495 0.06336736 -0.14663857 0.08552776 0.06351853 -0.31205717 -0.25500542
0.13640712 -0.008567478 0.08631843 -0.11395118 -0.06604457 -0.09424763 0.05278916 0.09860392
-0.032620862 0.0042667547 -0.09786616 0.106387205 -0.025753202 -0.05446023 -0.12650621 -0.23937166
0.016629266 -0.092727154 -0.08509027 -0.17010795 0.0854855 0.14865442 0.010657836 0.14192696
-0.2787258 0.07644287 -0.0330605 -0.13479319 0.21960528 -0.12305813 -0.2612336 0.011305212
00000000: b69d 04be 25f7 46bb 438a cebd 7d81 4fbd
00000010: d7d8 f23c cba9 8a3c 3b44 61bc 6f54 cfbd
00000020: 05f4 43be abc4 913c 2030 8a3c d29b 2abc
00000030: b8d0 3abd ba58 323b 6caf ebbb 8549 fcbd
00000040: 0ecf a63d 5bf2 4e3d 4933 6539 6130 393d
00000050: 1c9a d1bd 7182 823d 71ac 4bbc 41fa 0fbc
00000060: 56aa bcbb 7b09 56be ec69 a53d 8bf8 573c
00000070: 81e9 b83c 7c37 4c3c 1b25 99bd 94f8 b3bd
00000080: bf74 3abc 1369 99bd 3356 b8bc 011f eebd
00000090: 1e88 3f3d 3138 3cbd 6d10 d1bc 3711 d23d
000000a0: 6edc 21bd c636 66bd ad5e 493e f768 46bc
000000b0: 7466 a03d 4e8c 92bd 973d 84bc 4de8 4e3c
000000c0: ae09 e9bb b012 38be c687 033d 4685 48bd
000000d0: 8b74 8d3d e6e1 953d bea3 693d b012 433e
000000e0: ab9f 1abe 5e5f c2bc a553 a9bc 6c0a 54be
000000f0: 80b9 07be af25 dbbc ec75 8b3c 39b8 aebc
00000100: 811c a43e ee56 4dbd 2da9 4fbe 82ea f7bd
00000110: 2628 94bd 7aad 85be 19d1 e8bd c236 2f3d
00000120: f408 20be e4d1 873e 2671 95be a252 69be
00000130: 8124 dfbe d3e2 553c 984b da3c d07f 173e
00000140: 8edc 27be 07c9 74be 142c 18be 7cfb 293d
00000150: 69a9 4d3e af4a 1abe c303 913d 5b8a 2c3e
00000160: bf76 1a3e e460 113e 247c 42be c7ac 76bd
00000170: 3e9a b1bc d941 f13b 8ff1 c13d 3204 6cbd
00000180: f105 24be 9261 b43d ecf8 87be bcbd 1ebe
00000190: 525a bc3d 8172 e83d f64f 56bd 5e4b ec3d
000001a0: 3143 52be cf43 133e 98e0 8dbe 3a8f 96be
000001b0: c515 08bd 4759 13bd 69ac f0bd 6b7e 9fbd
000001c0: f86f f03d 09e1 a13d 79b1 393c 88f9 2dbd
000001d0: 27d9 dcbd a3e2 a43c 3575 b2ba ecbf 2a3e
000001e0: 2e8f 3abe 0ed0 3bbd f243 e7be 8969 1abe
000001f0: 2634 79bd 4985 35be a990 113e 8f1c 793d
00000200: 628a 19be 3365 db3c 69d7 ba3d 4a3c d1bd
00000210: 0086 1bbe 40b7 4c3d 2ba7 d8bd fde3 afbd
00000220: e948 8dbc 658d f6bd a7f8 1ebe 472c 08bd
00000230: f840 073e b318 d63d e240 5abd b721 62bb
00000240: caa5 25be 6b95 503b c397 d3bd 9167 c63d
00000250: 459a 3cbe f867 2ebe db74 02be a523 f53d
00000260: b893 96bd e976 eebd bf6d 003e 3b92 8bbd
00000270: 62b4 41bc 95e7 46be 6977 863c dbf9 803b
00000280: 0ddb 0b3e 87c1 b9bc 8476 423e e69f c4bd
00000290: 319a 5dbe aee4 8dbd e016 013e 212c 463a
000002a0: b104 843d 43ef 073d 59bc ff3d 3506 df3d
000002b0: 2bb9 343e 6408 b9bc 1b5c cf3c 5e0c 9d3d
000002c0: b1ef 0e3e 3f57 37be b331 20be e0c3 183b
000002d0: 0f7c 71bd 0a56 2abc cf64 b4bd 38bd 143e
000002e0: f932 49be 1994 98bd 4551 debd f39f 00be
000002f0: 0c2e d53e 92dc b6bb 0a5d 19bd e675 30bd
00000300: eeef abbd 6acf 843d 913a adbd 053f ff3c
00000310: 7fa1 f13d 4e39 9c3d fbce 923c 3e6e 28bd
00000320: d3c0 1fbe 939b 8cbe 0e1f 293d 02b9 a0bd
00000330: 6eff 373c fede d2bd 7d71 53bd 553e 4cbe
00000340: a12a 7d3d 29cf 843d cdfc f2bd dd30 5c3e
00000350: ec77 a3be 34ba d33d f033 4cbe 7ec3 57be
00000360: 4ad1 03be 1aac 0fbe bfc6 813d 6c28 16be
00000370: 2e29 af3d 0116 823d f5c5 9fbe 1290 82be
00000380: 4fae 0b3e 9b5e 0cbc b8c7 b03d 3c5f e9bd
00000390: 6042 87bd e704 c1bd 7239 583d daf0 c93d
000003a0: 749d 05bd 22d0 8b3b 0e6e c8bd 89e1 d93d
000003b0: 61f8 d2bc b111 5fbd d88a 01be d81d 75be
000003c0: 193a 883c bce7 bdbd cf43 aebd c730 2ebe
000003d0: 0613 af3d dd38 183e 349e 2e3c 4d55 113e
000003e0: 26b5 8ebe 148e 9c3d 726a 07bd 3a07 0abe
000003f0: 35e0 603e e705 fcbd 69c0 85be 7f39 393c

conv4.bias f4 [256]
0.66346955 0.21153736 -0.12710904 -0.10102872 -0.09868871 -0.08753958 -0.0102743115 -0.28383288
-0.08427558 0.051519644 -0.16666864 -0.015934626 -0.018955857 -0.025732549 0.07432952 -0.20736526
-0.0775003 -0.09428897 -0.06187842 -0.19752999 -0.04422416 -0.2158727 -0.109572954 -0.31595847
-0.25207964 -0.26120842 0.022285707 -0.20052578 -0.10940843 -0.41729265 -0.0706622 -0.100680925
-0.12733282 -0.12357427 -0.039256014 -0.031169541 -0.14802234 -0.06412715 0.095338054 -0.21410677
-0.38966298 -0.46636713 -0.06289477 -0.20936719 -0.089414716 -0.32333714 -0.026225505 -0.17987323
0.11678684 -0.41793385 -0.014591505 -0.04225279 -0.03245167 -0.11986128 0.0014366345 -0.07562463
-0.49443102 -0.032264903 -0.15375663 -0.11027779 -0.05441945 -0.053816244 -0.5581541 -0.51863647
-0.16733429 0.072804466 -0.103520624 -0.075219885 -0.19421503 0.02045549 -0.0626432 -0.38583544
-0.2868941 -0.07964722 -0.03532093 -0.25041765 0.29189143 0.027955208 -0.1459622 -0.03314175
-0.11057014 -0.014600114 -0.06944046 -0.024169184 -0.21726921 -0.1531507 -0.16334003 -0.081285074
-0.10275244 -0.13144064 -0.060626484 -0.14714952 -0.1701712 -0.19697481 0.02656992 -0.00048277
-0.3114406 -0.21460627 -0.2394566 -0.21490107 -0.08354503 -0.065279014 -0.06255416 -0.18012948
-0.079103455 -0.10186175 -0.076011345 -0.27353925 0.0067948774 0.341109 -0.061845988 -0.10661489
-0.070573896 -0.07174112 -0.10757006 -0.5063912 -0.37656885 -0.19681218 -0.046925247 -0.21907856
-0.009704036 -0.10460743 -0.31131282 -0.09416815 -0.3812638 -0.121448174 0.037866864 -0.16950843
0.0332737 -0.17280668 -0.05060327 -0.045557976 -0.19644079 -0.31604254 -0.16413704 -0.037938517
-0.2732506 -0.036925934 -0.14266567 0.05274594 -0.11270608 -0.07016453 -0.22501145 -0.16463408
-0.17260864 -0.07618888 -0.113002144 -0.2280357 -0.2623637 -0.3319446 -0.09696133 -0.028085057
-0.04705332 -0.16356032 0.5556535 -0.3842911 -0.098032825 -0.051827617 -0.121709496 -0.14281939
-0.19971436 -0.03578811 -0.06238619 -0.086041436 -0.03412125 -0.10394908 -0.105535954 -0.16775067
-0.078964636 -0.083654374 -0.0874494 -0.1875038 -0.32252446 -0.090969935 -0.03001711 -0.24831547
0.0005100295 -0.056633778 -0.118510425 -0.111260094 -0.09868324 -0.1911345 -0.011026178 -0.027325941
-0.15996319 -0.03306638 -0.07166201 -0.068029135 -0.1831584 -0.08080743 -0.08169607 -0.08564907
-0.33616146 0.58651793 -0.09907293 0.0082645435 -0.1081448 -0.1499019 -0.009162515 -0.2657594
-0.024453284 -0.075744055 -0.04422258 -0.3139316 0.1589476 -0.11717333 -0.057733495 -0.3114421
-0.102696285 -0.19963911 -0.43061528 -0.029122517 -0.051646806 -0.1924833 -0.058231413 -0.10744833
-0.22209702 -0.26460144 -0.3419271 -0.20516388 -0.13672355 -0.13496645 0.52880996 -0.06458337
-0.14277041 -0.62937164 -0.121469334 -0.22598907 -0.08789286 -0.029180983 -0.20677723 -0.096055746
0.006834218 -0.26651788 -0.0932177 -0.047813922 -0.068594106 0.039625235 -0.04141728 -0.11923739
-0.49231878 -0.08864761 -0.15749693 -0.118567355 -0.43924287 -0.05280076 -0.022249635 -0.4846902
-0.048868537 -0.15962361 0.009760471 0.32451302 0.12190418 -0.3565496 -0.12134356 -0.21744668
00000000: 24d9 293f 409d 583e df28 02be 25e8 cebd
00000010: 4e1d cabd f447 b3bd 9655 28bc 8b52 91be
00000020: ad98 acbd 4306 533d 2fab 2abe 5589 82bc
00000030: 5049 9bbc 11cd d2bc 133a 983d 8f57 54be
00000040: 7ab8 9ebd 931a c1bd 3a74 7dbd 4d45 4abe
00000050: 6524 35bd bc0d 5dbe c967 e0bd 4fc5 a1be
00000060: 9510 81be 1cbd 85be 8490 b63c a156 4dbe
00000070: 8711 e0bd 62a7 d5be 58b7 90bd cd31 cebd
00000080: 8963 02be 8214 fdbd eaca 20bd 4457 ffbc
00000090: 2b93 17be 1855 83bd 9940 c33d ce3e 5bbe
000000a0: e881 c7be acc7 eebe f9ce 80bd 5a64 56be
000000b0: 101f b7bd 728c a5be dfd6 d6bc b030 38be
000000c0: f02d ef3d 6dfb d5be 3511 6fbc 4311 2dbd
000000d0: 0bec 04bd d579 f5bd 744d bc3a 16e1 9abd
000000e0: 1026 fdbe 3428 04bd 6172 1dbe 52d9 e1bd
000000f0: eee6 5ebd 6c6e 5cbd 30e3 0ebf 5cc5 04bf
00000100: ae59 2bbe 821a 953d 9f02 d4bd e20c 9abd
00000110: 4ee0 46be 4692 a73c 144b 80bd 398c c5be
00000120: c9e3 92be 151e a3bd aeac 10bd be36 80be
00000130: cb72 953e 5202 e53c 1d77 15be a5bf 07bd
00000140: 9972 e2bd 5135 6fbc cd36 8ebd 74fe c5bc
00000150: d27b 5ebe 89d3 1cbe 9c42 27be ca78 a6bd
00000160: df6f d2bd 6098 06be 7a53 78bd 5dae 16be
00000170: 5c41 2ebe c4b3 49be 29a9 d93c 4b1c fdb9
00000180: 2475 9fbe bfc1 5bbe 1c34 75be 070f 5cbe
00000190: a819 abbd 01b1 85bd 651c 80bd dd73 38be
000001a0: fe00 a2bd e59c d0bd d6ab 9bbd 560d 8cbe
000001b0: 90a7 de3b d7a5 ae3e 3852 7dbd e858 dabd
000001c0: 0c89 90bd 02ed 92bd b14d dcbd dba2 01bf
000001d0: a2cd c0be 2289 49be b034 40bd 2156 60be
000001e0: adfd 1ebc 6c3c d6bd 6564 9fbe 3bdb c0bd
000001f0: 0235 c3be d2b9 f8bd 491a 1b3d 9e93 2dbe
00000200: 014a 083d 3cf4 30be 6045 4fbd 009b 3abd
00000210: c627 49be 54d0 a1be 8a13 28be 6b65 1bbd
00000220: 81e7 8bbe a63f 17bd f316 12be 200c 583d
00000230: 72d2 e6bd 6cb2 8fbd 6769 66be d695 28be
00000240: 52c0 30be ea08 9cbd ab6d e7bd 3182 69be
00000250: 8954 86be a5f4 a9be a993 c6bd a212 e6bc
00000260: fbba 40bd 5b7c 27be 4f3f 0e3f cec1 c4be
00000270: 6fc5 c8bd 3249 54bd d442 f9bd 3f3f 12be
00000280: ec81 4cbe 8e96 12bd a988 7fbd 7e36 b0bd
00000290: b9c2 0bbd 41e3 d4bd 3c23 d8bd d5c6 2bbe
000002a0: 36b8 a1bd fc52 abbd ac18 b3bd ff00 40be
000002b0: ed21 a5be 724e babd 71e6 f5bc 6946 7ebe
000002c0: 80b3 053a d2f8 67bd 98b5 f2bd 55dc e3bd
000002d0: 701a cabd c3b8 43be 24a7 34bc a7da dfbc
000002e0: 64cd 23be 9d70 07bd 88c3 92bd dc52 8bbd
000002f0: e08d 3bbe 5e7e a5bd 4550 a7bd c868 afbd
00000300: 5b1d acbe 0a26 163f c0e6 cabd 0268 073c
00000310: 057b ddbd e27f 19be 601e 16bc 9e11 88be
00000320: 4152 c8bc b31f 9bbd bc22 35bd a5bb a0be
00000330: 29c3 223e 92f8 efbd f579 6cbd 5775 9fbe
00000340: 6e52 d2bd 326e 4cbe 9b79 dcbe 5892 eebc
00000350: 9a8b 53bd 581a 45be 1084 6ebd df0d dcbd
00000360: 676d 63be d779 87be 1211 afbe 7b16 52be
00000370: 4201 0cbe a534 0abe 1760 073f 4944 84bd
00000380: 6832 12be 801e 21bf eac4 f8bd ae69 67be
00000390: 2c01 b4bd f50c efbc 69bd 53be e0b8 c4bd
000003a0: 93f1 df3b 0875 88be ece8 bebd 88d8 43bd
000003b0: 117b 8cbd 124e 223d 2aa5 29bd bc32 f4bd
000003c0: 3511 fcbe e18c b5bd e046 21be 71d3 f2bd
000003d0: 71e4 e0be 9c45 58bd de44 b6bc 5029 f8be
000003e0: 602a 48bd 5f74 23be 62ea 1f3c 9226 a63e
000003f0: e6a8 f93d ab8d b6be f982 f8bd 58aa 5ebe

conv4.lin.weight f4 [256, 128]
-0.1533426 -0.29696038 -0.22540908 1.4199045e-05 -0.100560576 -0.19479641 -0.18934433 -0.07192713
-0.1175555 -0.20315379 -0.34998238 -0.0103586735 -0.14462481 -0.19680546 -0.23631753 -0.004226109
-0.09641577 -0.017402291 -0.081425235 0.10177099 -0.16831008 -0.029475095 -0.15285246 -0.16479915
-0.16312946 -0.3044335 -0.031147046 -0.1456238 -0.0033175976 -0.1392179 -0.0746553 0.047237657
-0.1258052 -0.26451972 -0.1761643 -0.0710054 -0.15403455 -0.11776851 0.010984186 -0.09171103
-0.046467885 0.0063626943 -0.108720765 0.13162042 0.071492895 0.002838418 -0.1444559 -0.05188971
-0.023015887 -0.081064634 -0.010700175 -0.013394243 -0.063737154 -0.36704326 0.007801538 0.009287136
-0.07662189 -0.38106337 0.056991886 -0.14855458 0.0095591135 -0.23008984 -0.13453008 -0.10233249
-0.086359695 0.0108810505 0.015881369 -0.17182896 -0.060245354 -0.1793321 -0.19190677 -0.43521425
0.03656175 0.086487345 -0.26784286 -0.11824981 -0.17074455 -0.14789262 -0.07167817 -0.19102055
-0.0079725385 -0.055532936 0.046210986 -0.04290879 -0.21131101 -0.15344569 -0.06714982 -0.05867425
-0.26544937 0.021831015 0.232219 -0.43076795 -0.025213826 0.09460879 -0.2507119 0.15111504
-0.054251563 -0.21629788 0.01512519 -0.11814288 0.19386758 0.012911434 -0.22739875 -0.06818314
-0.22922245 -0.07829127 -0.15489239 -0.11596554 -0.08671742 -0.12652144 0.05899355 -0.022387076
-0.02125807 -0.07224431 -0.19712171 0.11859877 -0.13736112 -0.087223 -0.08561163 -0.052225966
-0.12429297 -0.22318755 -0.16760233 -0.008051882 -0.2581188 -0.15851344 -0.45571458 -0.22120586
0.012780827 -0.11736107 -0.13097356 -0.09597252 -0.030771306 -0.08348717 0.0016600174 -0.019380383
-0.09866388 -0.09598729 -0.34757033 0.114392415 -0.122703515 -0.19431365 -0.10122254 -0.06959168
-0.11141707 0.08670933 -0.0763396 0.036629744 -0.045361035 -0.045710277 -0.07981645 -0.0014103178
-0.025541276 -0.16061185 -0.13715948 -0.06266509 0.00732462 -0.12423061 -0.11406123 -0.0009498431
-0.15149738 -0.037856378 -0.026684739 -0.10439948 -0.059840858 -0.1587603 0.020637274 -0.13789994
-0.058233615 -0.11912691 -0.123794794 0.061847683 -0.024631206 0.03622095 -0.044261064 -0.03320773
0.11110739 0.003241805 -0.031686015 -0.027956497 -0.04594525 -0.1437801 -0.06865969 -0.011285252
-0.06404723 -0.1628251 -0.045036223 -0.0927174 0.07647838 0.0485548 -0.0699731 -0.09120107
-0.0807499 0.0017030907 0.05165827 -0.056191683 -0.084535055 -0.10772329 -0.04589497 -0.18032736
0.23457281 0.078734316 -0.06325652 -0.010289593 -0.115857035 -0.10173122 -0.14664894 -0.103025325
0.050225753 0.06384361 -0.06479 -0.007661058 -0.038242746 -0.11483765 -0.06871101 0.0042949244
-0.14540376 -0.009085218 0.013691159 -0.20607576 -0.025011366 -0.017706959 -0.10454346 0.018133858
0.07024089 -0.08515331 -0.023467679 0.07498216 0.016639743 0.028689936 -0.14151712 -0.05947518
-0.07282375 -0.05928598 -0.06675653 -0.010690839 0.06872088 -0.16483179 0.020499766 -0.019314505
-0.13016948 -0.0367735 -0.11607901 0.035623845 -0.029486716 0.0007880565 -0.11145419 -0.030352693
-0.13214272 -0.06612014 -0.10387794 -0.10999569 -0.106481604 -0.15842262 -0.09402372 -0.08254285
00000000: d805 1dbe 310b 98be a3d1 66be 6f38 6e37
00000010: b4f2 cdbd b678 47be 7be3 41be 884e 93bd
00000020: f0c0 f0bd 8c07 50be e430 b3be 6db7 29bc
00000030: 8718 14be 5f87 49be 39fd 71be 2c7b 8abb
00000040: a275 c5bd 408f 8ebc 46c2 a6bd 4f6d d03d
00000050: 7a59 2cbe c175 f1bc 5b85 1cbe 1cc1 28be
00000060: 690b 27be b5de 9bbe 1728 ffbc 681e 15be
00000070: 0d6c 59bb 238f 0ebe e1e4 98bd 467c 413d
00000080: 14d3 00be 216f 87be 6a64 34be 476b 91bd
00000090: 3cbb 1dbe 9e30 f1bd 04f7 333c fed2 bbbd
000000a0: 1c55 3ebd 267e d03b fea8 debd 81c7 063e
000000b0: de6a 923d c004 3a3b 3fec 13be 4e8a 54bd
000000c0: d08b bcbc 3705 a6bd c94f 2fbc 8773 5bbc
000000d0: a088 82bd 18ed bbbe 0ba4 ff3b 1229 183c
000000e0: f0eb 9cbd bd1a c3be 5370 693d b11e 18be
000000f0: d49d 1c3c ac9c 6bbe 41c2 09be b293 d1bd
00000100: 5add b0bd 6f46 323c a519 823c eef3 2fbe
00000110: d5c3 76bd d6a2 37be 3583 44be 67d4 debe
00000120: c6c1 153d 4720 b13d b322 89be f52c f2bd
00000130: a9d7 2ebe 2a71 17be 01cc 92bd e49a 43be
00000140: 409f 02bc 8176 63bd bb47 3d3d 21c1 2fbd
00000150: ea61 58be de20 1dbe d885 89bd 6954 70bd
00000160: fbe8 87be f5d6 b23c d1ca 6d3e 9e8d dcbe
00000170: 3a8d cebc 41c2 c13d 4f5d 80be e7bd 1a3e
00000180: e336 5ebd 317d 5dbe a5cf 773c e5f4 f1bd
00000190: 3985 463e 7b8a 533c 38db 68be 9aa3 8bbd
000001a0: 4ab9 6abe 2c57 a0bd 1c9c 1ebe 577f edbd
000001b0: e798 b1bd d68e 01be 38a3 713d 1a65 b7bc
000001c0: 6725 aebc d3f4 93bd 46da 49be e9e3 f23d
000001d0: 65a8 0cbe f9a1 b2bd 2655 afbd e5ea 55bd
000001e0: 508d febd 478b 64be f29f 2bbe 0aec 03bc
000001f0: 2628 84be 5951 22be 6c53 e9be ca83 62be
00000200: ac66 513c 005b f0bd ef1d 06be 3e8d c4bd
00000210: 1b14 fcbc 52fb aabd f194 d93a 9cc3 9ebc
00000220: 4a10 cabd fc94 c4bd bdf4 b1be 9246 ea3d
00000230: fb4b fbbd 28fa 46be c34d cfbd 1586 8ebd
00000240: a22e e4bd a994 b13d f057 9cbd 1209 163d
00000250: 7ecc 39bd b33a 3bbd cf76 a3bd 6ada b8ba
00000260: f03b d1bc 6f77 24be 8973 0cbe 8e56 80bd
00000270: 5e03 f03b 9e6c febd ef98 e9bd e4fe 78ba
00000280: 2122 1bbe 4a0f 1bbd f499 dabc 65cf d5bd
00000290: b01b 75bd 0f92 22be 800f a93c a435 0dbe
000002a0: 5f86 6ebd cff8 f3bd 2088 fdbd ff53 7d3d
000002b0: 62c7 c9bc 6b5c 143d 174b 35bd d404 08bd
000002c0: 458c e33d 7674 543b 32c9 01bd 0605 e5bc
000002d0: 1631 3cbd 173b 13be 749d 8cbd c7e5 38bc
000002e0: 322b 83bd 9fbb 26be e777 38bd 9fe2 bdbd
000002f0: b2a0 9c3d 66e1 463d 0f4e 8fbd a0c7 babd
00000300: 3460 a5bd 3e3a df3a 9f97 533d 4029 66bd
00000310: b720 adbd 079e dcbd 5dfc 3bbd bca7 38be
00000320: db33 703e 753f a13d a28c 81bd ae95 28bc
00000330: 7446 edbd 7558 d0bd 242b 16be f1fe d2bd
00000340: 85b9 4d3d 70c0 823d 9fb0 84bd 9d09 fbbb
00000350: 6da4 1cbd 0030 ebbd 5cb8 8cbd 70bc 8c3b
00000360: b9e4 14be 2bda 14bc e250 603c 8605 53be
00000370: a3e4 ccbc 2f0e 91bc e21a d6bd 758d 943c
00000380: 75da 8f3d dc64 aebd 4a3f c0bc 3f90 993d
00000390: 1250 883c 2807 eb3c dde9 10be 3f9c 73bd
000003a0: 9e24 95bd dbd5 72bd a6b7 88bd a128 2fbc
000003b0: 88bd 8c3d aac9 28be 20ef a73c 7439 9ebc
000003c0: 264b 05be cf9f 16bd d5ba edbd 4fea 113d
000003d0: 208e f1bc 9495 4e3a 1842 e4bd 36a6 f8bc
000003e0: 6c50 07be ff69 87bd f5bd d4bd 6c45 e1bd
000003f0: 0713 dabd 8a39 22be 828f c0bd 3a0c a9bd

conv5.bias f4 [256]
6.206109e-05 -3.346135e-05 3.124449e-05 8.081066e-05 -3.6660642e-06 -6.912121e-05 2.7072409e-05 -0.00012063014
0.00010235912 -0.00021414476 0.000109732886 4.4097727e-05 4.3445623e-05 -7.222095e-05 1.940016e-05 3.8376787e-05
4.052297e-05 1.4032222e-05 8.927511e-05 6.011517e-05 3.1163512e-05 -0.00023366611 3.2867836e-05 -3.4958415e-05
0.0001780135 0.00010935559 -5.9670067e-05 8.020768e-06 6.469128e-05 2.693597e-05 8.45987e-05 3.5501766e-05
1.5655729e-05 2.7403941e-05 3.2161643e-05 6.539164e-05 3.499962e-05 3.5612044e-05 2.6637854e-05 8.00928e-05
-4.9840895e-05 4.575316e-05 -8.626903e-05 -0.00012786376 8.109339e-05 9.319215e-07 5.2613268e-05 0.0001119709
-2.6720933e-05 -2.7254458e-05 8.614139e-05 -0.00013862934 5.840524e-05 -0.00022828432 -0.00022108761 5.7895984e-05
0.00015196386 1.0793932e-06 1.2928215e-05 6.7523375e-05 4.2966305e-05 -7.2399234e-05 -6.8039e-05 9.898765e-05
4.0433864e-05 -5.4520642e-05 1.171613e-05 2.3171368e-05 -5.4409616e-06 6.2894695e-05 -1.22179545e-05 1.6195856e-05
2.0520587e-05 -0.00015882768 0.00013637502 2.1694632e-05 -3.1242944e-05 7.243111e-05 9.344406e-05 1.0755616e-05
-4.74834e-05 -0.00014432096 -3.699533e-05 -0.00011366279 8.513891e-05 -0.00014111443 2.3066112e-05 -9.972486e-05
-8.960493e-06 -0.00018715615 5.809255e-05 2.610389e-06 3.8582322e-05 6.281757e-05 6.2112963e-06 5.2493342e-05
3.0239911e-05 -0.00019896413 -6.679808e-05 -1.7422406e-05 -0.00012230928 5.3292315e-05 2.203324e-05 -0.00010865629
-9.36175e-05 9.445289e-05 3.6290563e-05 -7.896342e-05 0.00010251611 9.237157e-05 9.0917456e-05 4.4577577e-05
5.1902363e-05 3.626779e-05 -0.00026693317 -8.9318935e-05 6.5744234e-06 2.3529363e-05 -0.00013746468 -0.0001386289
-9.722081e-07 3.0569176e-05 -0.000110764726 -1.7214445e-05 5.445787e-05 8.609777e-05 -0.000101056736 -0.00011143613
0.00017109641 5.3605938e-05 -2.6898095e-05 4.5892026e-05 9.517627e-05 8.153496e-05 -0.00023477548 -6.9284826e-05
2.3671528e-05 5.3305623e-05 7.3322895e-05 4.0491695e-06 -8.155514e-05 1.11322115e-05 -1.5873991e-05 4.3826814e-05
-0.000117847456 4.371744e-05 -0.00020976174 -8.0574624e-05 6.0729115e-05 -2.3626124e-05 2.698381e-05 7.6362136e-05
-8.810807e-05 -4.8895272e-05 -1.6038873e-06 6.689208e-05 7.313745e-05 0.00018299195 4.0844978e-05 0.0001864037
-6.815207e-05 5.8831884e-05 0.00011732555 6.746325e-05 -1.5009233e-05 -6.0149123e-05 -2.2581882e-05 6.491129e-05
-6.7751105e-05 -9.336872e-06 -3.972666e-05 4.3848704e-05 0.00012867221 -0.00024399911 5.682491e-05 0.00018006739
5.5372784e-05 -3.868504e-05 -5.2131683e-05 8.599252e-05 2.7551754e-05 -4.081841e-05 -9.530354e-05 -0.00021411052
0.00016675644 3.2975702e-05 0.00010942825 1.4457467e-05 4.9688955e-05 -8.7171e-05 -0.00010383997 -5.6447072e-05
-4.95525e-05 4.1122796e-05 -4.189487e-05 1.5166973e-05 4.927678e-05 -0.0001946793 -0.00012968286 -0.00012289704
4.262165e-05 -0.000119545475 2.3747021e-05 0.00011885575 -0.00010230095 5.1524486e-05 5.3133954e-05 0.00013460594
6.417296e-05 -2.7615171e-05 5.1529532e-05 9.361431e-06 -8.370736e-05 0.00013384815 -3.9695526e-05 0.00014112504
-1.2483066e-05 6.11123e-05 -0.00010276898 -8.582403e-05 -9.229256e-05 -0.00017781813 -2.2818182e-05 -0.00017622735
3.3963828e-05 2.8517197e-05 -4.0158444e-05 2.7855025e-05 2.5695117e-05 -6.956029e-06 -0.00012307869 7.832583e-05
6.4644846e-05 5.3924086e-05 -7.805665e-05 3.9207767e-05 -7.920991e-05 0.00010902638 3.5998994e-05 -0.00020488403
-1.8900342e-05 -9.092116e-05 -5.9603295e-05 2.7734204e-05 5.922081e-06 1.2522978e-05 8.129003e-05 6.856687e-05
9.039507e-05 -8.259274e-05 4.3076394e-05 9.016873e-05 4.276551e-05 -7.8798985e-05 -9.8890225e-05 -0.00016542568
00000000: cb26 8238 da58 0cb8 840c 0338 e578 a938
00000010: 8106 76b6 2bf5 90b8 8e19 e337 d0fa fcb8
00000020: a2a9 d638 0c8c 60b9 6520 e638 93f5 3838
00000030: 6239 3638 5475 97b8 87bd a237 c3f6 2038
00000040: 35f7 2938 ef6b 6b37 3639 bb38 2c24 7c38
00000050: 91b5 0238 4504 75b9 92db 0938 50a0 12b8
00000060: 23a9 3a39 d655 e538 3f46 7ab8 f090 0637
00000070: deaa 8738 8ef4 e137 956a b138 bbe7 1438
00000080: 6c54 8337 84e1 e537 4de5 0638 df22 8938
00000090: 8ecc 1238 245e 1538 5b74 df37 7ff7 a738
000000a0: 410c 51b8 15e7 3f38 55eb b4b8 2b13 06b9
000000b0: af10 aa38 2829 7a35 11ad 5c38 ebd1 ea38
000000c0: c426 e0b7 81a0 e4b7 cea6 b438 085d 11b9
000000d0: 26f8 7438 9b5f 6fb9 c1d3 67b9 57d5 7238
000000e0: 7d58 1f39 abdf 9035 43e6 5837 569b 8d38
000000f0: b836 3438 0bd5 97b8 29b0 8eb8 9797 cf38
00000100: 8897 2938 18ad 64b8 6590 4437 2260 c237
00000110: 8191 b6b6 55e6 8338 b7fb 4cb7 56dc 8737
00000120: a023 ac37 fb8a 26b9 e4ff 0e39 defc b537
00000130: db0a 03b8 28e6 9738 66f7 c338 0573 3437
00000140: ea28 47b8 dd54 17b9 6f2b 1bb8 3f5e eeb8
00000150: 9b8c b238 1ef8 13b9 197e c137 6023 d1b8
00000160: 0655 16b7 593f 44b9 67a8 7338 242e 2f36
00000170: 74d3 2138 edbc 8338 a16a d036 4c2c 5c38
00000180: b7ab fd37 07a1 50b9 f215 8cb8 5526 92b7
00000190: 2640 00b9 3086 5f38 06d4 b837 67de e3b8
000001a0: 8354 c4b8 0215 c638 b236 1838 2a99 a5b8
000001b0: ebfd d638 9cb7 c138 f0aa be38 cff8 3a38
000001c0: bdb1 5938 3e1e 1838 2af3 8bb9 bd50 bbb8
000001d0: de99 dc36 ec60 c537 6524 10b9 e95c 11b9
000001e0: d17c 82b5 6737 0038 5c4a e8b8 bd67 90b7
000001f0: b169 6438 638f b438 6cee d3b8 d1b2 e9b8
00000200: 5868 3339 f0d6 6038 38a3 e1b7 307c 4038
00000210: 5f99 c738 c0fd aa38 102e 76b9 024d 91b8
00000220: 3892 c637 7a94 5f38 eec4 9938 1ade 8736
00000230: 9508 abb8 7cc4 3a37 2329 85b7 afd2 3738
00000240: df24 f7b8 3e5d 3738 7df3 5bb9 2cfa a8b8
00000250: 64b7 7e38 b730 c6b7 4a5b e237 9c24 a038
00000260: a9c6 b8b8 e614 4db8 2645 d7b5 6948 8c38
00000270: 5f61 9938 87e1 3f39 f650 2b38 5d75 4339
00000280: ddec 8eb8 41c2 7638 ad0c f638 0e7b 8d38
00000290: 2ad0 7bb7 a148 7cb8 396e bdb7 fc20 8838
000002a0: 9915 8eb8 8fa5 1cb7 2da0 26b8 30ea 3738
000002b0: 2fec 0639 03da 7fb9 4857 6e38 79d0 3c39
000002c0: 1340 6838 bf41 22b8 f8a7 5ab8 e256 b438
000002d0: f11e e737 6f34 2bb8 b3dd c7b8 db82 60b9
000002e0: 57db 2e39 644f 0a38 d87c e538 598e 7237
000002f0: 1c69 5038 93cf b6b8 a9c4 d9b8 95c1 6cb8
00000300: 97d6 4fb8 447b 2c38 46b8 2fb8 a775 7e37
00000310: 8aae 4e38 d422 4cb9 7afb 07b9 ecdd 00b9
00000320: a6c4 3238 7db4 fab8 5734 c737 3242 f938
00000330: 688a d6b8 ff1b 5838 26dc 5e38 0225 0d39
00000340: 9894 8638 21a7 e7b7 6a21 5838 0a0f 1d37
00000350: 0c8c afb8 9759 0c39 bf7e 26b8 f7fa 1339
00000360: 5c6e 51b7 6b29 8038 ad85 d7b8 6dfc b3b8
00000370: 318d c1b8 b174 3ab9 ac69 bfb7 abc9 38b9
00000380: 6274 0e38 3738 ef37 cd6f 28b8 36aa e937
00000390: d88b d737 d667 e9b6 af0e 01b9 dc42 a438
000003a0: f091 8738 8c2c 6238 58b2 a3b8 0573 2438
000003b0: 7f1d a6b8 18a5 e438 a0fd 1638 23d6 56b9
000003c0: 2d8c 9eb7 edac beb8 8dfe 79b8 c0a6 e837
000003d0: 4ab6 c636 c819 5237 417a aa38 8fcb 8f38
000003e0: 7c92 bd38 a435 adb8 edac 3438 f818 bd38
000003f0: 1e5f 3338 e240 a5b8 4963 cfb8 1e76 2db9

conv5.lin.weight f4 [256, 256]
-0.104730114 -0.07554474 -0.014060319 0.000396172 0.04085243 -0.011284738 0.00670819 -0.063918196
0.07339815 0.025592076 -0.010810237 -0.027490182 -0.011843252 -0.0064077172 -0.0031980698 0.016728302
-0.0088608805 0.014581866 0.0065550935 0.05748437 0.090830095 0.051188093 0.124425255 -0.037381966
-0.030710163 -0.10104463 -0.036386646 0.014369062 0.0014388543 0.06673274 0.010733112 0.0670798
-0.037169658 -0.020840114 -0.018285539 0.021921525 -0.11883495 -0.008075614 0.0078561455 0.0053278753
-0.10970612 -0.004895697 0.04743983 -0.020945145 0.011544283 0.026175415 -0.012717999 -0.111937076
0.0963332 -0.08469313 -0.014772304 0.11105693 -0.022495281 -0.029903365 -0.06764624 -0.017832542
0.04125776 0.059967138 0.12237011 0.03259567 0.028410485 -0.023876091 -0.008693371 -0.1504571
-0.026270859 0.111580625 0.05933515 -0.01119946 -0.00547667 0.10776928 -0.0124444775 -0.020270025
0.026100531 -0.05037368 0.019284505 -0.055493668 0.10495034 0.029149026 0.020826848 0.015651762
0.01154112 0.04506597 -0.032049704 -0.015538698 -0.060845666 0.011929393 0.017947288 0.065891206
-0.03549193 0.020481661 0.014136578 0.07355618 0.06411272 0.05268621 0.049610257 0.0074086073
0.0035470214 0.036739174 0.13460384 -0.008153055 -0.051706396 0.05725677 -0.06428352 0.06639369
-0.018691346 0.0055710184 0.00084515713 0.010428902 0.12707113 0.047405835 0.0122914845 0.00016886939
0.09198007 -0.023564953 -0.038668588 -0.025640046 -0.021190664 0.13657533 -0.022826836 0.023365643
-0.018088317 0.11979297 0.008885376 -0.023155097 -0.04315251 0.02319525 -0.0158303 0.05052061
0.101561494 0.09947972 -0.020668043 -0.008621629 0.0053635286 0.017996347 0.034896225 0.023487829
-0.057312675 0.05388116 -0.0009796137 5.677576e-05 0.07155816 0.089383796 -0.04421507 -0.007076487
-0.0036479789 -0.011466036 -0.008294288 -0.02911044 -0.04521358 0.0031555425 0.023330245 -0.00085310714
0.11178692 0.07940083 -0.094363965 -0.10066834 0.03714146 -0.01977516 -0.016350318 -0.0803887
0.054941602 -0.015845764 -0.027644368 0.0031603114 -0.030721271 -0.039287377 0.08337955 -0.020275634
0.014255235 0.008497505 0.05465556 0.012661385 -0.09764008 -0.0049801427 0.0077915117 -0.061394334
0.006378969 -0.045922056 0.06061438 0.04955481 0.03581677 0.045408316 -0.003906851 0.03668446
0.031018542 0.032431263 0.0001614912 0.03410047 0.05373324 0.23892927 0.042526104 -0.06856815
-0.052690454 -0.096044265 0.014148022 0.05068928 0.036280014 0.032250766 -0.018628333 -0.023798939
-0.0142498305 -0.07142869 -0.018968534 0.015652526 -0.046545967 0.008135936 0.046597693 0.0040249797
-0.06620408 0.0035255963 -0.008642867 -0.022124793 0.08971403 0.04891658 0.028064292 0.013584598
-0.022462064 0.03751968 -0.066336654 0.08107709 0.04604959 -0.0075871064 0.037680704 -0.049775038
-0.022242691 -0.12753047 -0.075741656 0.008528562 0.01558898 0.05010894 0.024954796 -0.061449133
0.04907379 0.034775898 0.1014459 0.038166817 0.03148974 -0.06474287 0.024669463 -0.014454817
-0.00793939 0.029950175 -0.023077609 0.008254524 0.007799204 0.0055075632 0.03293544 -0.034262605
-0.014713294 -0.10180117 -0.013454897 -0.091357075 -0.09253239 0.015518521 0.0704602 0.12780912
00000000: be7c d6bd 33b7 9abd 415d 66bc 4eb5 cf39
00000010: e154 273d 9fe3 38bc 60d0 db3b 8be7 82bd
00000020: c551 963d 79a6 d13c 6c1d 31bc 1733 e1bc
00000030: 330a 42bc d4f7 d1bb b596 51bb cb09 893c
00000040: 3a2d 11bc c7e8 6e3c 1ccc d63b bb74 6b3d
00000050: 2105 ba3d 9baa 513d abd2 fe3d d51d 19bd
00000060: e193 fbbc 7df0 cebd 2a0a 15bd 376c 6b3c
00000070: f097 bc3a 2dab 883d efd9 2f3c 2261 893d
00000080: 363f 18bd e3b8 aabc 8ecb 95bc c594 b33c
00000090: bd5f f3bd 954f 04bc 10b7 003c 7595 ae3b
000000a0: 9aad e0bd 156c a0bb 4450 423d 2795 abbc
000000b0: 3b24 3d3c d36d d63c 275f 50bc 443f e5bd
000000c0: 574a c53d 9773 adbd 8907 72bc d171 e33d
000000d0: 0648 b8bc e7f7 f4bc 1d8a 8abd 8d15 92bc
000000e0: e6fd 283d 1aa0 753d 2e9d fa3d 0a83 053d
000000f0: 1bbd e83c cb97 c3bc a46e 0ebc 6d11 1abe
00000100: fc35 d7bc 6284 e43d 6a09 733d f17d 37bc
00000110: a375 b3bb 24b6 dc3d ece3 4bbc 530d a6bc
00000120: c8d0 d53c a254 4ebd 8afa 9d3c 544d 63bd
00000130: 34f0 d63d f0c9 ee3c 119d aa3c 2038 803c
00000140: f716 3d3c 1897 383d 8d46 03bd 0696 7ebc
00000150: 4e39 79bd 8073 433c 3106 933c f8f1 863d
00000160: fc5f 11bd 28c9 a73c 1b9d 673c 9fa4 963d
00000170: 884d 833d 7fcd 573d 2034 4b3d e7c3 f23b
00000180: 2575 683b d17b 163d 97d5 093e 6494 05bc
00000190: 16ca 53bd 1386 6a3d 14a7 83bd 6af9 873d
000001a0: 981e 99bc 178d b63b 898d 5d3a fcdd 2a3c
000001b0: ef1e 023e 9f2c 423d 3962 493c 8812 3139
000001c0: 0c60 bc3d 4a0b c1bc f462 1ebd 130b d2bc
000001d0: 0b98 adbc 67da 0b3e 58ff babc 4e69 bf3c
000001e0: f32d 94bc 0456 f53d f893 113c c2af bdbc
000001f0: b0c0 30bd f703 be3c 8cae 81bc b3ee 4e3d
00000200: 79ff cf3d 06bc cb3d 0750 a9bc bc41 0dbc
00000210: 8ac0 af3b 136d 933c 58ef 0e3d 8c69 c03c
00000220: b2c0 6abd 7eb2 5c3d 6266 80ba 8222 6e38
00000230: 168d 923d da0e b73d dc1a 35bd e0e1 e7bb
00000240: ee12 6fbb 0adc 3bbc c4e4 07bc 0479 eebc
00000250: e031 39bd 38cd 4e3b 121f bf3c 0da3 5fba
00000260: 8af0 e43d e79c a23d e541 c1bd 342b cebd
00000270: a521 183d 84ff a1bc 1af1 85bc d5a2 a4bd
00000280: 720a 613d face 81bc 7176 e2bc 3a1d 4f3b
00000290: 2dab fbbc cdeb 20bd e6c2 aa3d 1619 a6bc
000002a0: ca8e 693c 1f39 0b3c 82de 5f3d b371 4f3c
000002b0: 86f7 c7bd 7730 a3bb f04f ff3b a078 7bbd
000002c0: ac06 d13b c418 3cbd c946 783d fcf9 4a3d
000002d0: 9bb4 123d 12fe 393d 0b05 80bb 7242 163d
000002e0: 991a fe3c a5d6 043d f755 2939 efac 0b3d
000002f0: 6317 5c3d e0a9 743e da2f 2e3d 756d 8cbd
00000300: f2d1 57bd dbb2 c4bd 1bcd 673c 909f 4f3d
00000310: 5a9a 143d 6119 043d 729a 98bc fef5 c2bc
00000320: 1f78 69bc 3449 92bd e663 9bbc ba39 803c
00000330: fca6 3ebd 974c 053c 39dd 3e3d fae3 833b
00000340: 0196 87bd b10d 673b d09a 0dbc 0e3f b5bc
00000350: fdbb b73d c05c 483d 16e7 e53c ef91 5e3c
00000360: 5d02 b8bc 3cae 193d 83db 87bd bf0b a63d
00000370: 7f9e 3c3d 439d f8bb 1557 1a3d e9e0 4bbd
00000380: 4e36 b6bc 5997 02be 711e 9bbd 62bb 0b3c
00000390: ec68 7f3c 083f 4d3d 006e cc3c 16b2 7bbd
000003a0: 9901 493d 2c71 0e3d dec2 cf3d cf54 1c3d
000003b0: 63fb 003d e997 84bd 9d17 ca3c e6d3 6cbc
000003c0: 3714 02bc 125a f53c 410d bdbc fc3d 073c
000003d0: 7790 ff3b ca78 b43b 50e7 063d f256 0cbd
000003e0: 0710 71bc 227d d0bd ee71 5cbc 6b19 bbbd
000003f0: 9f81 bdbd 6541 7e3c 704d 903d 65e0 023e
