weights/6-18-0_split_3.pt (torch, 276326 bytes, 26 tensors)

conv1.bias f4 [64]
00000000: a959 ebb6 93d7 3ab7 d80e 72b7 e23c c136
00000010: f49c f336 5b16 54b7 f5c7 be36 d83e 77b7
00000020: 0270 ebb7 ba02 44b7 79bb 9ab8 9296 6437
00000030: c892 08b7 d9c1 3cb7 96f9 08b8 6c8c cab6
00000040: cb89 9637 2fa6 64b7 b945 b036 8bf0 f8b6
00000050: ee8b 3bb6 6320 20b8 4943 3137 0b3f 34b6
00000060: 1579 9937 e3de d3b7 d076 b936 1907 c2b7
00000070: d793 2cb7 6b15 1239 038e 5bb7 f076 eab2
00000080: 3453 d4b6 dc55 0936 da71 9b35 a82e 8f37
00000090: 6cf1 97b7 2129 82b6 ec88 d636 ea87 8cb7
000000a0: 5eed c436 07a4 94b6 01e0 d0b5 126d 8137
000000b0: c1af bbb7 ada0 eb35 97dc 8bb6 956d c736
000000c0: 2231 2fb7 d1a5 05b8 c2f3 ee36 1ffb fd37
000000d0: 9325 7cb7 bfdf 9137 f043 9336 1116 6337
000000e0: 1c9a 2eb7 bd26 90b7 9038 8136 4abe 5a37
000000f0: 25b1 b636 b0f6 83b7 fe1e e636 f899 24b7
-7.0139836e-06 -1.1136656e-05 -1.442778e-05 5.758936e-06 7.260236e-06 -1.264139e-05 5.6857193e-06 -1.4736979e-05
-2.806634e-05 -1.1683145e-05 -7.378212e-05 1.3624916e-05 -8.140407e-06 -1.1250807e-05 -3.265737e-05 -6.0364164e-06
1.7945558e-05 -1.3628552e-05 5.2533255e-06 -7.418979e-06 -2.7946621e-06 -3.8177135e-05 1.0565688e-05 -2.6858786e-06
1.8295405e-05 -2.525695e-05 5.5272612e-06 -2.3129907e-05 -1.0286421e-05 0.00013931624 -1.3086482e-05 -2.7295272e-08
-6.3277785e-06 2.0464568e-06 1.1581535e-06 1.7068654e-05 -1.8113024e-05 -3.87909e-06 6.393637e-06 -1.675259e-05
5.8688884e-06 -4.429839e-06 -1.5562401e-06 1.5428788e-05 -2.2373979e-05 1.7555627e-06 -4.168203e-06 5.943419e-06
-1.04422525e-05 -3.18641e-05 7.12133e-06 3.0276888e-05 -1.5029119e-05 1.7389537e-05 4.3888504e-06 1.3535392e-05
-1.040709e-05 -1.7184177e-05 3.8510843e-06 1.3038118e-05 5.444645e-06 -1.573129e-05 6.858142e-06 -9.81101e-06

conv1.lin.weight f4 [64, 2]
00000000: 21fe 80be 5ead 0dbd 2854 64bd 73ef 263e
00000010: 2f13 9b3d fee9 babc 772c efbd 4786 4fbc
00000020: d6cc 173c c3a9 2fbe 7c91 0a3e dedd 843e
00000030: 03bd e7bb 2502 513e e09c 6cbd cfef 723e
00000040: c626 ae3d 1c8e 87bd fe1b d03c d2c8 3b3e
00000050: 282d 18be 2310 533d 8c26 1e3b b1b9 80be
00000060: 73ca c7bb e250 c0bd 4377 2c3e bf9b d73c
00000070: 8360 08be c59b cbbd 025d 3b3e ad37 743e
00000080: 5064 46be ad5b d7bc 4a65 c13d 1fb9 65be
00000090: 7f13 783d dcb4 8c3e 58f7 54bd 395b 9e3e
000000a0: cc71 883e fce9 b83d 4553 9cbe 8aa4 5c3d
000000b0: 57cf 47be 4345 1cbe b4cf 593e 0278 b2bc
000000c0: 7ca8 853e 4c13 a43c 7504 adbd 62d4 0bbe
000000d0: 8abc 323e ef95 053e b1cd 5dbe c0b6 91bd
000000e0: a458 c03d 4380 79be abd2 203c 8028 3bbd
000000f0: 81cc cfbd 6d34 85be d21e 7abe 74ea 253e
00000100: 734f 583e 47f8 ae3d a7d4 953e 042b 05be
00000110: aac3 94be bf6d 233e 761a e53d 1a9a 493e
00000120: 1de9 76bc 8b88 8c3d 9dbc 103e b0c6 1abb
00000130: a9b6 043e b82c 883e efdc adbe 2f5c 5e3e
00000140: 7011 82be 9d14 8f3e c996 143e d562 833c
00000150: 4bce 36be 0ea3 4cbe a3d8 e43d 028e 2c3e
00000160: 2270 efbd 4ef7 873e 6423 8bbe 3b9e 6b3e
00000170: 793b a13e 5f18 993d 2d42 223c 05dd 68be
00000180: 4a00 d83c 900c 2d3d 4675 e43c c30b e43d
00000190: 9f76 603e f84c 1d3c e641 213e fb1c bc3c
000001a0: db8d 73be b59a 233e 0f6b 333d e771 023e
000001b0: 139d 663e 941d b2bd 4edf ad3c f5b7 1ebe
000001c0: c50f 44be 545f 323e 5358 9dbd c705 ab3e
000001d0: d33d 6c3e 300c 343d 3800 8f3e b435 2c3c
000001e0: 46c0 75bd 944a 5d3e 3a81 8cbd ee07 acbe
000001f0: 9953 343e daf9 1bbe 80bd 94be 04c6 0c3e
-0.25193885 -0.034589164 -0.05574432 0.1630228 0.07572018 -0.022816654 -0.11678403 -0.012666292
0.009265145 -0.17154603 0.1353206 0.2595052 -0.0070720925 0.20410974 -0.057766795 0.23724292
0.08503489 -0.06618902 0.025403973 0.18338326 -0.14860976 0.05152906 0.0024131862 -0.2514167
-0.006097132 -0.09390427 0.1684237 0.026319383 -0.13318066 -0.0994182 0.18297198 0.23849364
-0.19374204 -0.026288832 0.094431475 -0.224339 0.060565468 0.27481735 -0.051993698 0.30928972
0.2664932 0.09029004 -0.3053228 0.053867854 -0.19512688 -0.15260796 0.21270639 -0.02178574
0.26105106 0.020028733 -0.08448116 -0.13655236 0.17454734 0.13045476 -0.21660496 -0.07114935
0.09391907 -0.24365334 0.009815852 -0.04569292 -0.10146428 -0.2601656 -0.2442582 0.16202718
0.21124057 0.08543449 0.29263803 -0.1300469 -0.2905553 0.15959834 0.11186688 0.19687691
-0.015070227 0.06861981 0.1413445 -0.0023616962 0.12960304 0.26596618 -0.3395762 0.21714853
-0.2540393 0.27945414 0.14510645 0.016038338 -0.17852132 -0.19984075 0.11174133 0.16851047
-0.116913095 0.26555866 -0.27175438 0.23009579 0.31490687 0.074753515 0.009903473 -0.22740562
0.026367325 0.04224831 0.027887952 0.11135056 0.2192025 0.00960087 0.15747795 0.022963038
-0.23784582 0.15976985 0.04380327 0.12738763 0.22520857 -0.08697048 0.021224644 -0.15499862
-0.1914664 0.17419177 -0.07682862 0.33402845 0.23070459 0.043956935 0.27929854 0.010510851
-0.05999782 0.2161048 -0.068605855 -0.335998 0.17610015 -0.1523203 -0.29050827 0.13747412

conv2.bias f4 [64]
00000000: 0973 3bbd fbd2 03bc 352d c8bc adcd 2bbc
00000010: 1242 92bd a516 1d3d 5045 03be 0e3b 88bd
00000020: b5ea 35be dd42 5dbc c9ce 90bd 2401 473d
00000030: cb8e 903d 88af dbbd 6dff 05be 5097 09bd
00000040: f768 1dbe c8d0 383b b8aa bebd 94c4 10be
00000050: 6025 dfbd 914c 84bd d146 2e3d 0b01 d53d
00000060: e14c 753c ffb7 b7bd ffb0 6bbd 0f78 65bd
00000070: 4124 1a3d bba9 6ebd 79d7 dcbd b612 00bc
00000080: e0af 0abe a088 90bc 978e a4bc 6ac1 35be
00000090: 1618 5bbe dabc 0b3d ac5b 87bc a0e4 ebbd
000000a0: 833e 2b3b a28d 4a3d 492a aabd d6c4 00be
000000b0: f94b ddbd aaab 17be e17e c93b c27b aabc
000000c0: ac92 eabd cca2 8cbd 5904 2ebd 9d02 debd
000000d0: d6d9 34bd 9d78 723b 42eb bdbd f835 e4bd
000000e0: 903e c4bd b048 553c 414f 753d 7213 1f3c
000000f0: 25d1 31bc 146c 0cbd e041 c2bd 7c8a 9ebd
-0.045764003 -0.008045907 -0.024435619 -0.010486049 -0.07141508 0.038351674 -0.1281941 -0.06651889
-0.17765315 -0.013504711 -0.07070691 0.048585072 0.070584856 -0.10726839 -0.13085718 -0.03359157
-0.15372072 0.0028200615 -0.09309906 -0.14137489 -0.108958006 -0.064599164 0.042548005 0.104005896
0.014971943 -0.08970641 -0.057541844 -0.0560227 0.03763223 -0.058267336 -0.10783286 -0.007816961
-0.13543653 -0.017643273 -0.020087523 -0.17749563 -0.21395907 0.03411565 -0.016523205 -0.11518216
0.002612979 0.049451478 -0.083088465 -0.12575087 -0.10805506 -0.14811578 0.0061491583 -0.020810965
-0.11453757 -0.068669885 -0.042484615 -0.10840342 -0.044153057 0.003699816 -0.092733875 -0.11143106
-0.09582245 0.013017818 0.059890036 0.009709226 -0.010853087 -0.03428276 -0.09485221 -0.077412575

conv2.lin.weight f4 [64, 64]
00000000: 312d b03d 5597 233c 03f8 14be a14a 8ebc
00000010: 6fe8 f3bc 9517 6d3d 38b7 343e 2217 b5bc
00000020: 429f 44bd 4722 2fbd f14b 1fbd c2f1 d1bd
00000030: c20d 03be b032 91bc 6561 653d 3d86 3dbe
00000040: 25f0 493e 444d 523e 7819 353e b190 cfbc
00000050: 9f23 4bbe 737f de3d 5f1d 0ebe dc94 363e
00000060: dca6 5a3e 8e23 1dbe 1de5 06be c83c 1ebe
00000070: e83b 5bbd 00d8 e23a b6a9 c0bd ad53 b9bd
00000080: acd8 c93c c324 e63d 9345 6bbd 4210 8dbd
00000090: d777 963d 081e 42be 48ec 903d 31a3 e23d
000000a0: 6d81 b93d 847f 60bd e593 663e bffc 7cbc
000000b0: 7bb8 783e 2122 eabd e9c0 26bc 6843 143e
000000c0: 460b 573e 341d afbd 2211 d63d 2f7e cf3d
000000d0: b8b0 8bbd 9692 933d 26cb 123e 91bd 893d
000000e0: 3171 38be 7b0b 8ebd f53b 143e 2dcf 543e
000000f0: 9e8f 343d 4aad ff3d d73a 33be 71fc c9bd
00000100: 5961 1dbe f637 523d c024 463e e31d 6ebe
00000110: 0364 cdbd 362c 00be e732 e73d e472 38be
00000120: 39d1 43be 3842 b73d eb7a c4bd 6de5 33bd
00000130: 670a 9ebd 20fa 20bd 7cd7 6d3d ae8b b6bd
00000140: 4970 42be 1c26 c0bd c65e 97bd 6d76 053e
00000150: 9f27 03be 16ee 1a3e bddf 38be a69b 613e
00000160: b6e4 46be 99d6 2dbe ce65 ab3d ffec 70be
00000170: 2b0c c1bd b261 3abb 1a9a 343e 7381 1dbd
00000180: 9129 133e 30bf 903d 246d c6bd 86fb 373d
00000190: 8a22 2bbe 3f78 3f3e b943 1b3e 5998 2e3e
000001a0: 6418 a23d 9e2f 18be 5d9f 84be 6205 523d
000001b0: 289a 05bd 82ce 5cbd 12b1 883b 0b74 1d3e
000001c0: c47b 0f3d a809 533e 053e 423e 183e 2cbe
000001d0: 4591 cd3b 879f 473e 45a8 843d 1053 f43d
000001e0: 7ec2 69bd 94cf c83d 10af b9bd 723b ed3d
000001f0: 8fff 513e dd30 07bd 8ae0 e53d 7efe 53be
00000200: 1991 f53d 2f29 0dbe 7606 073e 82ad fb3d
00000210: 65c6 b43d 06cf 65be 9848 edbd d9ec 51be
00000220: f505 663e 314d abbd 92f7 14be 618b 403d
00000230: 0e6d 2cbe e085 423e 9c93 813d ae59 cd3d
00000240: 3d2b a83d 2155 93bd d6d3 1bbe 4b8b 9f3d
00000250: c0d6 c6bd d868 94bc 66f5 34bd 6cf8 123e
00000260: 3e89 683e 7335 6cbe ebad 193e 71f6 393e
00000270: 720a f53d ca5b a8bd 3971 12be 80a7 a4bd
00000280: 389a e5bd a653 1d3e a84c 0fbe ca4d d3bd
00000290: 6870 56be d865 1f3e 4738 90be aeba 533e
000002a0: 37f1 153d f0e3 3d3e 5f0b cb3c 4354 19be
000002b0: ae58 32be eef3 063e 5f64 753e e782 10be
000002c0: 7468 673d 74b9 79b9 c49d 00be 2e1b adbd
000002d0: 8313 163e 80e8 97be 35a3 ce3d e04f 0ebe
000002e0: 7e61 883d d81a 29be 4243 213d 259a 06be
000002f0: f4d5 1fbe e68e 31be 6122 2ebe bb23 113e
00000300: 88f6 763d 6024 39be a919 95be f9df 0a3e
00000310: a538 3dbb cee3 76bd 4ade 6f3d cd5c b7bd
00000320: 9d30 6fbe 3942 953d 8a2c b2bd 8941 85be
00000330: 0756 2ebe 98e0 e3bc f087 8dbd f730 263d
00000340: ee86 853b 9ed7 81be adab fc3d c0a7 eb3d
00000350: 673a 053d 59eb c4bd 5e09 063e 6454 efbd
00000360: e193 e1bc 15af e83b 1785 513e e5eb 0fbe
00000370: 7d5e 1abe 18bd 7dbe 2c16 f13d 45e4 82be
00000380: 1030 b73d c81c 80be f3d6 a83d 34eb 0c3e
00000390: 789f 78be d3ab 873c b1e0 353e e56d b63d
000003a0: 6a5d aa3d 2017 09bd ac61 7fbe ced7 94bc
000003b0: 6d1c c7bc 097a 69bd aae3 efbd e0c5 8ebe
000003c0: 1dfe 043e ef63 10be 2c7d 5fbe f443 8f3c
000003d0: 355f d83d d9e4 293e 2ca1 e1bd 312a 57be
000003e0: 1383 80bc 1ee4 223e 620f f0bd e6e0 42be
000003f0: 479f 81bd bc9b fbbc fbaa 86bc 8242 2abd
0.086023696 0.009984811 -0.14547734 -0.01736957 -0.029773919 0.057883818 0.17648017 -0.022105757
-0.048003443 -0.0427573 -0.038890783 -0.1025119 -0.12798217 -0.017724365 0.056001086 -0.18508239
0.19720514 0.20537287 0.17685497 -0.025337549 -0.19837807 0.10864153 -0.13878392 0.17830223
0.21352714 -0.15345594 -0.13173337 -0.15452874 -0.053523928 0.0017306805 -0.0940737 -0.09049163
0.02463945 0.112374805 -0.057439398 -0.068878666 0.073470764 -0.18956769 0.07076317 0.110662825
0.09057889 -0.05480911 0.22517355 -0.015441119 0.24289124 -0.11432291 -0.010177829 0.14478838
0.21000394 -0.08550492 0.104524866 0.101314895 -0.06820816 0.072056934 0.14335307 0.0672561
-0.18011929 -0.069357835 0.14475997 0.20782156 0.044082277 0.12484224 -0.17502914 -0.098626025
-0.15369166 0.0513229 0.19349957 -0.23253588 -0.10028841 -0.12516865 0.11289006 -0.18012577
-0.19122781 0.08948177 -0.09593757 -0.04391997 -0.07716828 -0.039301038 0.05806683 -0.089133605
-0.18988146 -0.09382269 -0.073911235 0.13033457 -0.12808083 0.15129885 -0.180541 0.22032031
-0.19423184 -0.16976394 0.08369027 -0.23527907 -0.09426149 -0.0028439579 0.1763691 -0.03845353
0.14371325 0.07067716 -0.09688786 0.044917606 -0.16712394 0.18698214 0.15162553 0.17050304
0.079148084 -0.14861915 -0.25902835 0.051274665 -0.032617718 -0.05390788 0.004171499 0.15376298
0.03503014 0.20609152 0.18968971 -0.16820562 0.006273421 0.19494449 0.06477407 0.119299054
-0.057070248 0.098052174 -0.09066594 0.11583604 0.20507644 -0.033005584 0.11224468 -0.2070255
0.11990566 -0.13785242 0.13186058 0.12288953 0.08826903 -0.22442254 -0.11586112 -0.20500506
0.2246321 -0.083643325 -0.14547566 0.047007922 -0.16838476 0.18996382 0.063269824 0.10026871
0.08211372 -0.071939714 -0.15217528 0.0779024 -0.09708929 -0.0181164 -0.044179343 0.14352578
0.22708604 -0.23067264 0.1500775 0.18160416 0.11964883 -0.082206324 -0.14301004 -0.080397606
-0.112110555 0.1536394 -0.13994086 -0.103175715 -0.20941317 0.15566194 -0.28167936 0.20676681
0.036606994 0.18543983 0.024785696 -0.1497355 -0.17416641 0.1317899 0.2396407 -0.14112435
0.0564961 -0.00023815577 -0.12560183 -0.0845245 0.1465588 -0.2966957 0.10089723 -0.13897657
0.0665922 -0.16514146 0.039370783 -0.13144739 -0.1560896 -0.17339668 -0.17005302 0.14173786
0.060293704 -0.18080282 -0.2912114 0.13562001 -0.0028872874 -0.060275845 0.0585616 -0.08953247
-0.23358388 0.072880216 -0.086999014 -0.26026562 -0.17025004 -0.027817056 -0.06910694 0.04057404
0.0040749228 -0.25359815 0.12337432 0.11506605 0.0325264 -0.096152015 0.13089511 -0.11686018
-0.027536334 0.0071009495 0.20460926 -0.1405483 -0.15075107 -0.24779165 0.11771807 -0.2556478
0.08944714 -0.25021958 0.08244123 0.13761598 -0.24279583 0.016561424 0.17761494 0.089076795
0.083185986 -0.03346932 -0.24939603 -0.01816931 -0.024305547 -0.057001147 -0.11713345 -0.27885342
0.12987562 -0.14100622 -0.21825093 0.017488457 0.10565034 0.16591205 -0.11017069 -0.21012188
-0.015687501 0.15907332 -0.11721684 -0.19031104 -0.06329208 -0.030713908 -0.016438952 -0.041567333

conv3.bias f4 [128]
00000000: f5af d3b8 cdf8 3939 5c5f 1838 a976 7037
00000010: 00ec 1c38 74e2 2f39 bf01 65b9 c121 09b9
00000020: 8c93 34b9 59cc d437 e5bf c137 7b05 a838
00000030: 6b4d fb38 4d6c 3a38 cc82 5d37 a717 af38
00000040: ffd4 3e38 a62b 0b37 920e be37 44f8 65b8
00000050: 22cc 3538 50f9 8938 2d83 b6b8 701a 3938
00000060: ad12 24b9 e1d2 b5b7 c44f 99b9 ffff f8b7
00000070: 6953 4937 11a1 f638 52e4 6138 58ee 3ab9
00000080: cb87 a4b8 b57f 3638 809c 0c39 8744 06b9
00000090: 612d 9eb8 cb5e 6f38 104b 09b9 02d2 b138
000000a0: 576a 3e39 b68e 12b9 e85a 7938 06ee e7b7
000000b0: 6a17 4fb8 309d 99b8 5af6 1039 7ed6 c6b8
000000c0: 307f 5cb8 870d 36b9 ca84 0f39 56f7 a1b8
000000d0: b64a a2b8 6b95 7839 38d8 63b9 14d1 70b7
000000e0: 4904 c537 405e 18b9 04e3 2cb9 f83d d0b8
000000f0: bdf3 0139 61c7 3cb8 7764 ec38 24bf 0e38
00000100: 0c23 a7b8 48b8 88b7 7280 9b37 e196 48b8
00000110: caac 5fb8 9f5c 8e38 b0b7 0239 4a7e a4b8
00000120: 9d90 02b9 7a1c 5f38 c731 40b8 bf91 9eb9
00000130: 11d7 90b9 6d4a 37b9 c696 f4b8 e651 d638
00000140: 2803 41b8 bf3d 27b9 cd04 35b8 008c fab8
00000150: ece5 a9b9 622d 20b9 5ae4 38b9 df9b 74b7
00000160: 06b8 ce38 7142 7539 0a5f bc38 7ef0 6137
00000170: 73b9 bcb6 3963 9b39 1a10 9638 69af 59b6
00000180: 8578 a0b6 f45c d537 6d23 2f37 dce4 5039
00000190: aace 82b6 5c59 8cb8 6dca 0339 e79f bc38
000001a0: a5e2 d0b7 4d39 5339 145f 97b8 3d84 f438
000001b0: cc08 b7b7 e2ea a3b6 e1bd 3c38 bc2d 2438
000001c0: a46e eb38 6566 b638 942e 98b8 07f5 0f38
000001d0: 2198 f0b8 023d 3cb9 ed4c b8b8 e774 2438
000001e0: e59f 92b7 1a89 0339 7039 4038 1803 2f39
000001f0: 93ab 2339 4ad6 0037 a4a5 9038 b737 0d37
-0.000100940386 0.0001773566 3.6328434e-05 1.43327425e-05 3.741309e-05 0.00016773661 -0.00021839792 -0.00013077912
-0.00017221103 2.5367526e-05 2.309675e-05 8.011885e-05 0.00011983033 4.444672e-05 1.320308e-05 8.349056e-05
4.5497898e-05 8.295208e-06 2.265655e-05 -5.482907e-05 4.3343876e-05 6.579107e-05 -8.70287e-05 4.413206e-05
-0.00015647216 -2.167508e-05 -0.00029241864 -2.9683111e-05 1.1999954e-05 0.00011760195 5.385682e-05 -0.00017827132
-7.845423e-05 4.3511118e-05 0.00013409741 -0.00012804764 -7.5424796e-05 5.7070323e-05 -0.00013093301 8.479135e-05
0.00018159427 -0.00013976809 5.945089e-05 -2.7648184e-05 -4.9374452e-05 -7.324887e-05 0.00013824683 -9.481328e-05
-5.257054e-05 -0.00017361912 0.0001368701 -7.723148e-05 -7.738678e-05 0.00023706786 -0.00021728955 -1.43537945e-05
2.3486225e-05 -0.0001453096 -0.00016487768 -9.9297555e-05 0.00012393198 -4.500838e-05 0.0001127207 3.403345e-05
-7.9697085e-05 -1.6298276e-05 1.8537252e-05 -4.7824233e-05 -5.3328265e-05 6.78834e-05 0.00012466195 -7.8436526e-05
-0.00012451639 5.3193864e-05 -4.5822726e-05 -0.00030244698 -0.00027626057 -0.00017479966 -0.000116629104 0.0001021957
-4.6017725e-05 -0.00015949363 -4.3158234e-05 -0.00011947006 -0.00032405497 -0.00015275695 -0.00017632675 -1.4579825e-05
9.8571225e-05 0.00023389772 8.982241e-05 1.3467039e-05 -5.6244257e-06 0.0002963783 7.1555565e-05 -3.2437622e-06
-4.782402e-06 2.5434863e-05 1.0439061e-05 0.00019921683 -3.898361e-06 -6.692365e-05 0.00012568543 8.994323e-05
-2.4901072e-05 0.00020143874 -7.217951e-05 0.00011659458 -2.1819396e-05 -4.8851225e-06 4.499953e-05 3.914324e-05
0.00011226282 8.697509e-05 -7.256601e-05 3.4322056e-05 -0.00011472428 -0.00017951804 -8.788132e-05 3.920952e-05
-1.7479013e-05 0.00012544208 4.582986e-05 0.00016690453 0.00015608808 7.679288e-06 6.897308e-05 8.417227e-06

conv3.lin.weight f4 [128, 64]
00000000: 1be6 a03b f826 c9bd 87a0 073d c6f2 46be
00000010: a0eb e0bc a0e5 f13d a727 f63d 9a8a f2bd
00000020: acc5 d0bd 3d17 9bbd 65ff c7bd 1c61 8bbd
00000030: 2a5f 323e 819a b43d 7026 94bd 83b6 2cbe
00000040: 883f ae3d 0476 773d b8cc 8d3b 84a9 8cbd
00000050: a9ae e53c c761 83bd 63c9 383d 5710 e73d
00000060: 30a8 ee3c a3b1 47be d318 843c 46de 95bc
00000070: 40df 4bbd f799 29be b2e0 0f3c 932b 473d
00000080: 3f03 cebd d6da 60bd ee52 6cbd 769b ea3a
00000090: fbeb 483e 1c87 aebd 1944 083e e26f a63d
000000a0: f801 603c d931 01be 8271 ea3d 7a85 6d3d
000000b0: e070 2b3e deba 47bc 681a 643c 13a8 493d
000000c0: 1454 9eba 006a 69be 726b b23d 9400 debc
000000d0: 7aac 2e3e cf25 b23c 1a58 e43c d4b2 1b3d
000000e0: 3850 77bd 931d edbd ab3c 2e3d 5cd6 24be
000000f0: a48d 1fbe d6a4 a4bd 0f2d 073e 6792 febc
00000100: 11e7 a0bd 9700 fbbd b5d8 183d 2b3e 4ebd
00000110: c7d1 723c bf70 a7bd 5b63 a8bd 88ff 563d
00000120: 3346 e0bd 4762 653d 5292 32be d3b1 38ba
00000130: b274 57bd e603 8b3c 403b 18bc 12d7 273e
00000140: 91a9 10bd c20e 41bd 7c80 0abe 05f0 37be
00000150: 234a 9a3d a5fb 89bd 4422 67bd 4c4d 9b3c
00000160: 383c 8e3d 4203 293e 13bd 3cbd 237e 45be
00000170: e7be a73d 0134 043d f62d 293d 0648 aebd
00000180: 3dcc c43d 7bda 0e3c e18c 803d 0bff eabd
00000190: 4822 5e3d a5cf 0f3e c24f 553c 41dc cc3d
000001a0: 1901 813d 5922 d43d 96fb 18bd 7b76 08bd
000001b0: 56e2 a9bc e4a6 b1bd 0aac 5fbe 8435 f9bc
000001c0: 21a9 173e 88f2 e43d ab85 c6bc 7a8f f2bd
000001d0: 66b7 9b3d 41f8 8b3d 3a43 68bd bd0a 1b3c
000001e0: 9b4b 15be 0d12 473e 7613 03be 45da 8fbd
000001f0: b136 03bd 4d23 c6bd f405 1b3e 3ab1 a339
00000200: 7e23 e3bb e74a 42bd 5024 393d d346 6cbd
00000210: b191 40bc 6283 bcbb 37e9 593d 0cfb 14bb
00000220: 4f73 6b3d 6624 1b3e d5ac ad3c 99ab 693c
00000230: 4e16 cdbd 0db2 0d3e 7b78 bb3d c62e a13d
00000240: 70f0 37be 2400 a53d edc9 fabd 12a8 c3bd
00000250: b604 95bd ed22 43bc 8b5c 16bd 7603 263d
00000260: a1b2 38be 2eca 743d 046c 833d 0bf7 57bd
00000270: d171 c6bd 44eb abbd da4a fb3d 26d8 2a3b
00000280: ca7f 323e 6afc 753c 9f41 f43c 8333 e03d
00000290: 22ad 41bd 1abe 3dbd 0c5b fc3c e534 163c
000002a0: ee15 5ebc a1cf 00be 3fc2 623e d84e a73d
000002b0: acc4 a63d d137 1b3e e1fc 05bd bbd9 6f3d
000002c0: 2ad5 033e 89fc 11bd 0c91 ef3c 5d44 0bbd
000002d0: e200 a4bd 5a58 70bc 69e8 28bc b73e 033e
000002e0: d348 16bd a0c5 17bd 443e 52be 4ca1 4bbd
000002f0: 535f 143e cf23 123d e2e8 a73d 1625 763d
00000300: f4f6 34bd 4d31 1dbd 6cfd a03c eb3a 09be
00000310: 3eca 5b3c 533b b53d 4393 3f3e cdbe b03c
00000320: 2888 313e 21ff a1bd 0b4f 9dbd a057 09be
00000330: bfb4 7abc 298b 713d b7c6 a9bd 5310 5cbd
00000340: fce4 683d 5afc 4e3d b57c 0bbe 8feb 0c3e
00000350: 9820 383e aa91 a3bd 7f27 edbd c707 b4bc
00000360: 2001 5b3b 1c7a 77bd d3f4 2d3c 5545 c3bd
00000370: 0417 813d e8c6 963d 1572 bcbd 05e6 87bd
00000380: c003 b13d 9b77 153e 2fcd 4fbb 872f 28bc
00000390: 1f80 363e 7034 f1bd 7958 c53d ee0d 4b3e
000003a0: 302c d43c af58 0ebe 9a47 13be 5fc6 c03d
000003b0: 091a 483e cd4e ba3d 33ca 2cbe e85e 25be
000003c0: 5bf2 63bd b855 3bbc 2ee8 a7bd 7cbd 4abd
000003d0: 79b3 0e3e 5fa2 8e3d 272a 403d 9dc4 663d
000003e0: dbf5 2fbd 7c31 b63c 863d aabd be3a bdbd
000003f0: c697 f83d 41b7 81bd 2852 56bd ce00 e8bd
0.004910243 -0.09821886 0.033112075 -0.19428548 -0.027456105 0.118113756 0.12019282 -0.118428424
-0.10193953 -0.07572792 -0.097655095 -0.068056315 0.17419115 0.08818532 -0.07233894 -0.16866498
0.085082114 0.060415283 0.004327383 -0.0686827 0.028037386 -0.06415134 0.045113932 0.112824135
0.029132932 -0.19501357 0.016125118 -0.018294465 -0.049773455 -0.16562639 0.008781599 0.04862554
-0.10059213 -0.0548962 -0.057696275 0.0017899114 0.1962127 -0.08521864 0.13307227 0.08126809
0.013672344 -0.12616672 0.11447431 0.05798862 0.16742277 -0.012190549 0.013922311 0.049232554
-0.0012079501 -0.22794342 0.087119 -0.027099885 0.17057982 0.021746544 0.027874041 0.03801234
-0.060379237 -0.115779065 0.042538326 -0.16097397 -0.15581375 -0.080392525 0.13200782 -0.03107567
-0.078565724 -0.12255972 0.037316043 -0.050352257 0.014820523 -0.081758015 -0.082220756 0.052489787
-0.109508894 0.056001928 -0.1743863 -0.0007045541 -0.052601524 0.016969632 -0.00929147 0.16390637
-0.03531796 -0.047133215 -0.13525575 -0.17962654 0.07533672 -0.067374505 -0.056429163 0.018957756
0.069450796 0.16505149 -0.046078753 -0.19286399 0.081907086 0.032276157 0.041303597 -0.08509831
0.09609268 0.008719082 0.062768705 -0.11474427 0.054231912 0.14044054 0.013019504 0.100029476
0.062990375 0.10358114 -0.037349306 -0.033316117 -0.020737808 -0.0867441 -0.21842971 -0.030421026
0.14810611 0.11179072 -0.02423366 -0.11843772 0.0760334 0.0683446 -0.056704737 0.009463009
-0.14579622 0.1944048 -0.12800393 -0.070240535 -0.03203458 -0.09674702 0.1513899 0.00031221827
-0.0069317212 -0.047434714 0.045200646 -0.05768473 -0.011753486 -0.0057529667 0.053200927 -0.0022732643
0.057483014 0.15150604 0.021200577 0.0142621035 -0.1001402 0.13837452 0.09153839 0.078702495
-0.17962813 0.080566674 -0.122455455 -0.09553541 -0.07276289 -0.011910182 -0.03670935 0.040530644
-0.18036892 0.059763126 0.06417087 -0.052725833 -0.096896775 -0.08394483 0.12270136 0.0026068776
0.1743156 0.0150137935 0.029816447 0.10947325 -0.047284253 -0.046323873 0.030805133 0.0091678845
-0.013555033 -0.12579204 0.22144412 0.08169335 0.08142981 0.15158011 -0.032711867 0.058557253
0.12874284 -0.035641227 0.029243968 -0.034000743 -0.08007981 -0.014669502 -0.010309317 0.12816893
-0.036690544 -0.037053704 -0.20531565 -0.04971437 0.14489488 0.03567868 0.08198716 0.06009396
-0.044180825 -0.038377095 0.019652091 -0.13401382 0.0134149175 0.08849206 0.1870852 0.021575356
0.17337096 -0.0790999 -0.07681092 -0.13412333 -0.015301882 0.058970604 -0.08289855 -0.053726505
0.056859 0.05053363 -0.1362179 0.13761733 0.17981184 -0.079867676 -0.11579799 -0.021976365
0.0033417419 -0.060419187 0.010617453 -0.095347084 0.06303218 0.07362157 -0.09201447 -0.066356696
0.086432934 0.14596407 -0.0031707992 -0.010265238 0.17822312 -0.1177758 0.096360154 0.19829533
0.025899976 -0.13901018 -0.14382783 0.09412836 0.19541182 0.09097061 -0.16874008 -0.16149485
-0.05565105 -0.011434011 -0.08198582 -0.049497113 0.13935651 0.069645636 0.0469152 0.05633985
-0.042959075 0.022240393 -0.08312516 -0.0923972 0.121383235 -0.06333781 -0.052324444 -0.113282785

conv4.bias f4 [128]
00000000: a8d7 babb ad79 3db9 2cee a1bd 981a 8abc
00000010: 98a5 d63b a052 17bd 3c2f 0abd d223 773c
00000020: cd0d 03bd f232 24bc c237 52bd 32f4 aabc
00000030: 2aa2 62bc e10c 2dbc 9c04 a1bc f191 d9bd
00000040: e0bc 83bd 4168 d8bd 98ea 5cbd d231 0b3c
00000050: 658a 81bd f3a5 97bd 590b 01bd 4fb6 01bc
00000060: 5c64 cabc 29aa f2bc b466 bdbb 3546 8bbd
00000070: 29e5 f0bc b693 89bd 350c 373c 4c70 e7bc
00000080: 682b 74bd c193 86bd 1ebf 17bd 9a55 aa3a
00000090: 4f45 45bd dc9d 85bd 7b57 8cbd 577e a3bd
000000a0: db5c 26bc a14c 5ebd d8eb 0a3d 0b5d 76bc
000000b0: 096e 45bd a730 87bd 378f 8d3b ccf3 a2bd
000000c0: 535b adbd 5451 0a3a c8f5 59bc 705a 0c3c
000000d0: 5b07 163d 9045 dfbd 3abd 52bc da97 02bc
000000e0: 8419 b2bc ffb0 8ebc 2294 9cbd f9ac bfbd
000000f0: e00f 3cbc ce19 36bd 61d5 13bd 2203 43bd
00000100: ced0 8fbd b283 81bd 2236 77bd 3ee1 76bd
00000110: a276 59bd 86e0 f9bc 3f47 473d 1c0e 37bd
00000120: f58e 0abd 482a 713c b551 bcbd 9a2f 64bd
00000130: 54ea ecbc 6117 bcbd be45 ecba 36b3 06bd
00000140: be7c 9abc d858 0cbc 8789 32be 72a0 b8bc
00000150: e419 35bd 922f 78bd 7f52 7cbd 1795 0bbc
00000160: a7d3 58bd 71f3 83bd f369 81bc 8f22 48bd
00000170: b2df 6e3d 2ae4 a0bb bf18 413d 50d0 8fbc
00000180: f6d3 87bd a3ae 58bd 4578 bf3c 26c4 3abc
00000190: 8baf 0cbe b310 72bd 1260 903b 9dc7 51bd
000001a0: 595e 65bc f837 d6bd 3e21 c5bc 3c2c a8bc
000001b0: 36a2 2fbc dac9 b6bb f2e1 2c3b 041c 27bc
000001c0: 44f8 753d 6eeb 08bb 836c c13b ac88 f1bc
000001d0: 32e2 5abd 0e6a 7d3a e383 40bd 6150 cd3c
000001e0: 8dc6 7f3b eb53 143b 4e6e 53bd 1458 61bb
000001f0: 2c8f b13c 7bfc 13be 436f b7bd cc38 3dbd
-0.0057019778 -0.00018069772 -0.07906756 -0.016858384 0.006550502 -0.03694403 -0.033736452 0.015084224
-0.031995583 -0.010021912 -0.051322706 -0.020868395 -0.013832608 -0.010562153 -0.019655518 -0.10623539
-0.064325094 -0.1056676 -0.053934664 0.008495765 -0.06325225 -0.07404699 -0.031504963 -0.007917001
-0.024706058 -0.029622154 -0.0057800654 -0.068005 -0.029406147 -0.06717627 0.011172344 -0.02825179
-0.059611708 -0.065711506 -0.037047498 0.0012995482 -0.0481618 -0.0652425 -0.06852623 -0.07983082
-0.010153974 -0.054272298 0.033916324 -0.015036832 -0.04820064 -0.066010766 0.004320051 -0.07956657
-0.08464684 0.0005276401 -0.013303228 0.008566484 0.03662811 -0.1090194 -0.012862498 -0.007970775
-0.021740682 -0.017418383 -0.076454416 -0.09359164 -0.011478394 -0.044458203 -0.036092166 -0.04761041
-0.07022248 -0.06323947 -0.06035436 -0.0602734 -0.053091653 -0.030502569 0.04865193 -0.04469119
-0.03382774 0.014719553 -0.09195272 -0.05570946 -0.02892033 -0.09184147 -0.0018026156 -0.032885753
-0.01885831 -0.008566104 -0.17435275 -0.022537444 -0.044214144 -0.06059224 -0.061602112 -0.0085194325
-0.052936222 -0.06442917 -0.01579759 -0.048861083 0.0583188 -0.004910012 0.04714274 -0.017555386
-0.06632225 -0.05290092 0.023372779 -0.0113993045 -0.1373884 -0.059097957 0.0044059837 -0.051215757
-0.013999545 -0.10459894 -0.024063703 -0.020528905 -0.010719826 -0.005578262 0.002637979 -0.010199551
0.060051218 -0.002089228 0.005902828 -0.029484116 -0.053438373 0.00096669875 -0.047000777 0.025062742
0.0039028258 0.0022633027 -0.051618867 -0.0034384774 0.021674715 -0.14451782 -0.08956768 -0.046196744

conv4.lin.weight f4 [128, 128]
00000000: 0c67 abbd f9ae 283d b47b c8bd f8c8 a83c
00000010: 8231 723c b4f9 0f3c 71e0 f93d 5188 1c3d
00000020: 7792 d7bd 8fe9 0abe b0a1 a33d 8f5a d63c
00000030: faf4 2e3e 55fe 133e 6237 03bd 4780 9b3d
00000040: 0758 06be d12b 0bbe e0c6 f43c 4955 683d
00000050: d1d1 d1bd 1770 d1bd 7aba c2bc 922d ff3d
00000060: 2d95 823d 51ec 26be bbb7 19be 89af a63d
00000070: cbf5 713d 815f b1bd e25d 83bd 9e2c de3d
00000080: 49b4 ce3d eab5 653c 7eb1 28bc d67a e83c
00000090: 6302 e13d f0dc cbbd f9ee 71bd 17af 65be
000000a0: 1067 ab3d 782f f23d 841f 35be ea7c dabc
000000b0: 6306 0dbe 3fe7 643d 4ee9 95bd d888 95bd
000000c0: 33e3 2bbe c58a fe3d 0b3d d43b 2465 b5bd
000000d0: dbba 173e de67 5fbe 04b8 d13d 0c79 9cbd
000000e0: d256 063d 171c 9f3d 07cc 21be 0236 013e
000000f0: 446a c5bd a75d 82bc 0fe6 6abc 2317 e7bc
00000100: 348a 163e 519e a5bd 1d2d f73d 0fd3 873d
00000110: 8f0b f2bd b283 7a3b f791 e93d a307 4abe
00000120: 99e1 173e 6ad5 37bd 1359 cabc f915 edbc
00000130: 1adb 0dbd 4e12 073e a6ee 80bd 09fa 56bd
00000140: 1ba1 e8bd c8b2 24bd 18be e7bd 2576 eabd
00000150: f43c 0dbe 8f50 7f3d 3967 c33d c24a 10be
00000160: 9f82 ce3d 2a06 27bd 4735 003e e4f3 58be
00000170: eec2 143e 4b0d aa3d 6bf9 04bd 1148 c9bd
00000180: 06b2 ca3b c161 e23d d6db 07be 0c55 a73c
00000190: a733 3dbc da51 bf3c 4cc6 d6bd 48d8 fa3c
000001a0: c726 253e 0c62 a83d 59f5 8ebd ed3c 193e
000001b0: 150f d73d 7332 6f3d bf31 69bd 28c0 133d
000001c0: 3307 68bd 0912 bdbd bc49 d1bc 2eec 8d3d
000001d0: 60e0 893c 7751 893d 8e90 253d f134 6ebd
000001e0: 0a2b d23c 5ba4 bc3d e21e 6c3d 41c5 eabc
000001f0: 571c 1e3e d056 063e fa46 9abc 1ccd e63d
00000200: bca4 c7bd b17c 81bd a02c 6ebd 98b1 7e3d
00000210: 0d65 5dbd 5d1d 2f3e 3cc6 8bbd 28a7 11be
00000220: dec0 3ebe a422 e43c c721 ecbc fe44 833d
00000230: 6b99 1c3e 8f89 93bd a284 01be 32c8 b73d
00000240: 6bd6 06be c5ae 1c3c a288 2ebe f2e4 22bd
00000250: a29b 8ebb beba 153d f6f0 19be 42c7 4ebc
00000260: 4b35 113d e1ab 633d 5142 e93d a538 d7bc
00000270: d69d 2fbe 881a 7a3c 9301 aabd f0d6 8d3d
00000280: d8a6 cfbc 99be 62bd 128d 29bd e686 513d
00000290: 6086 e0bd f7d0 f2bd a6c0 1f3b 26e9 d1bd
000002a0: a0ca 63bc a0ef dc3d 114d 963c e8f9 133a
000002b0: 4cb2 04bd 8cf1 a33c c296 3bbd 32bf 86bd
000002c0: bb87 903d fde9 0ebe 7609 debd ee8e 0b3d
000002d0: 488a cb3d 22f5 83bd 6eea 26be 6209 b53d
000002e0: f030 76bd d9f7 3a3d a27a 49bd e3d2 09bd
000002f0: 1059 593d 6b8d c4bc 393e 963d 00ad ee3c
00000300: f5d6 1b3d 4460 c8bd 7248 883d d799 cfbd
00000310: bda4 023e 240c 593c eb2c b1bb 6168 8fbd
00000320: 03c4 07bd c5d1 92bd 7261 57bc cada 023d
00000330: 6ca3 943c d483 003e 4f0e 46bd 5426 8e3d
00000340: 12ec 1bbe 931f 22bd 1b1b e83d 2b7c fc3d
00000350: bde3 6fbd 5184 f6ba 8df6 70bc 34da 20be
00000360: 63aa 0f3e 46b0 9fbc 85c4 b4bd b88a 2bbc
00000370: dd90 a73d b39d cf3d ad2a 5e3d 172e 84bc
00000380: 7f75 62bd 3b01 103e dcbc b2bd f33d a13b
00000390: e267 3fbe 3d3f 2bbd 1658 fb3d deac c9bc
000003a0: e3ac 88bd 9536 cc3c d96d 91bd 3787 f13c
000003b0: 181f ba3d cf64 9f3c 8346 c23c 4831 643d
000003c0: d610 123d c641 ee3d 6c20 d6bc 973a 02bd
000003d0: c296 123e 5518 fbbc f3a8 e8bc 6c95 833d
000003e0: 5394 e3bd 0dcc cebc c89f dcbc f0ab 2a3d
000003f0: 4d62 0fbe 48f7 013e 167c 87bd 7c0c ba3c
-0.08369264 0.041182492 -0.097892195 0.020603642 0.014782311 0.008787561 0.12201012 0.03821594
-0.10525983 -0.13565658 0.07989824 0.026166229 0.17085639 0.14452489 -0.03203524 0.07592826
-0.13119517 -0.13590933 0.029879987 0.05672196 -0.102450974 -0.102264576 -0.02377056 0.12459864
0.06376109 -0.16301085 -0.15011494 0.081389494 0.059072297 -0.08660794 -0.06414391 0.10848354
0.100929804 0.0140204225 -0.010296224 0.028378885 0.10986783 -0.0995425 -0.059065793 -0.22430073
0.08369267 0.1182546 -0.17687804 -0.026670892 -0.13771968 0.055884596 -0.0731989 -0.073014915
-0.16785888 0.12428812 0.0064770035 -0.08857182 0.14817373 -0.21816966 0.10240176 -0.07640275
0.032797642 0.077690296 -0.15800487 0.12618259 -0.09639409 -0.015913798 -0.014337077 -0.028209275
0.14701158 -0.08086837 0.120691516 0.06632053 -0.11818611 0.003822547 0.11404794 -0.19729476
0.14832152 -0.044881262 -0.024700677 -0.028941141 -0.03463278 0.13190576 -0.062955186 -0.052484546
-0.113588534 -0.04020956 -0.113155544 -0.114483155 -0.13792783 0.062332686 0.095411725 -0.14091018
0.10083508 -0.040777363 0.12520324 -0.21186787 0.14527485 0.08303317 -0.032464426 -0.09828199
0.006185773 0.11053801 -0.13267455 0.020426296 -0.011547959 0.02335446 -0.10487041 0.030620709
0.16128074 0.08221826 -0.0698039 0.14964648 0.105009235 0.05839772 -0.056932207 0.036071926
-0.05664749 -0.092319556 -0.025547855 0.06929813 0.016830623 0.06704991 0.04042106 -0.058155958
0.025655288 0.09211036 0.05764664 -0.028658511 0.15440498 0.13119054 -0.018832672 0.1126959
-0.097482175 -0.06322611 -0.058148026 0.062181085 -0.054051448 0.17101045 -0.068249196 -0.14223921
-0.1862826 0.02784855 -0.0288247 0.064096436 0.152929 -0.072039716 -0.12648252 0.08973731
-0.13167731 0.009563153 -0.17044309 -0.03976912 -0.004352049 0.036555044 -0.15033326 -0.012620749
0.035451215 0.05558384 0.11389602 -0.026272127 -0.17150053 0.015265115 -0.083010815 0.06925762
-0.025348112 -0.05535755 -0.0413943 0.05115404 -0.1096313 -0.11856263 0.0024376302 -0.10249548
-0.01390329 0.10787892 0.018347295 0.0005644844 -0.0323966 0.02001264 -0.04579807 -0.06579436
0.070571385 -0.13956447 -0.10841648 0.034071855 0.099384844 -0.0644324 -0.16300365 0.0883968
-0.060105264 0.045646522 -0.049189217 -0.033648383 0.053063452 -0.023993215 0.07336087 0.029135227
0.038046796 -0.09783986 0.06654443 -0.101367645 0.12758155 0.013247523 -0.005406966 -0.070023306
-0.033145916 -0.071689166 -0.013145791 0.031946935 0.018144332 0.12550288 -0.04835349 0.06940904
-0.15226772 -0.039580893 0.11333295 0.12328371 -0.058566798 -0.0018807744 -0.01470722 -0.15708238
0.14029841 -0.019493233 -0.088265456 -0.010470085 0.08181927 0.101375006 0.054239918 -0.016135259
-0.055287834 0.1406297 -0.08727428 0.004920715 -0.18691972 -0.041808356 0.122726604 -0.024618562
-0.066736005 0.02492837 -0.0710103 0.02948342 0.09087962 0.019457249 0.023715263 0.05571106
0.035660587 0.11633639 -0.026138507 -0.031794157 0.14315322 -0.03065125 -0.028400874 0.06424984
-0.11112275 -0.025243783 -0.026931658 0.04166788 -0.14002343 0.12691987 -0.066154644 0.022711031

conv5.bias f4 [256]
00000000: 748d 3636 fc82 ad37 7bf0 1f38 b872 f136
00000010: 8ba8 5d37 5339 08b7 ed3f 24b8 0c3e f037
00000020: 4575 25b8 956b 81b7 06ac 0ab8 2eac 46b8
00000030: dd7d 25b6 d3cf 57b7 ed3c 6136 9414 fdb7
00000040: 6910 38b8 40a8 9cb7 2ddd 1e38 e11f 4436
00000050: 9e08 2c38 78ba 83b8 1f3f 7cb7 c658 9fb7
00000060: 3c5c 0cb8 3de6 c436 6229 1038 80a5 83b7
00000070: f4ad 91b7 8caf e638 1eb8 41b7 a0a4 6fb7
00000080: 4732 17b8 9e92 70b7 c191 8637 6fe6 8135
00000090: e1e9 96b7 85ff dcb7 8f97 9db8 d875 aa37
000000a0: 3ebd bc35 9023 b8b7 9d99 f237 60ea 9cb7
000000b0: 8859 b937 a2c6 0c38 a23f 0db7 8836 81b7
000000c0: 2338 1635 c343 ddb7 5245 0338 0ecc 89b8
000000d0: 52a3 5cb8 43d7 0138 5983 1cb8 eb54 99b7
000000e0: 2ffd 70b6 1886 a338 4a4b 0cb8 e41f cfb8
000000f0: f24c 7537 4de0 9537 a2de ccb4 d2de d637
00000100: b61b 7037 9701 5338 8914 a338 e916 4337
00000110: 4822 3ab7 1d32 d4b7 3052 1a38 e29f b3b6
00000120: 6a64 6038 0e5b b9b8 2313 b138 2521 8536
00000130: 837d be37 3ba4 5937 4655 dbb7 5475 bcb6
00000140: d09c 6336 053e 0fb7 488e f937 3cba e3b7
00000150: 5f03 da38 19a6 5938 5d51 4db6 ac7c 35b7
00000160: 559d 2338 70da 3cb6 82f4 15b8 fc7b 3238
00000170: cddb 93b7 9218 42b8 34ae 2cb8 b5fe e4b7
00000180: 51be 7b37 e9a5 9737 019c 7f37 9455 b4b8
00000190: 9589 be36 3eb1 d6b7 6d64 3538 a2d9 8034
000001a0: 428f 15b9 cf84 8a38 29e6 1e38 3801 ef37
000001b0: e56a 4837 27ac feb7 60ba bab7 daf3 76b7
000001c0: 77db f4b7 d376 0938 3cc5 5d38 b3ff c3b7
000001d0: e91a adb8 56ad 03b8 72a0 22b8 6eaf 6138
000001e0: 98b3 a8b7 ba9b 5338 d148 2738 641c 04b8
000001f0: 23bb b437 300f 51b8 d73e 02b8 e5af d7b7
00000200: b502 8938 3618 b5b7 3f81 67b7 6955 4138
00000210: 62df e5b5 5838 b137 c716 d8b7 769f afb6
00000220: a689 4b38 ec50 11b8 4686 8eb6 ba7d 0038
00000230: 86e4 ae37 07c9 d7b7 61dd 74b2 1625 5d37
00000240: a773 5f36 38de 8238 3b79 b4b6 3abd e038
00000250: 22a0 b537 c0e9 78b7 5854 9337 f669 8e38
00000260: c4b4 e8b6 25c2 8037 48fd a338 42bf 06b8
00000270: 9784 bf35 ecbc 3236 6331 7a36 9647 9e37
00000280: d89b 0eb8 8490 b037 581f 4eb7 d972 d237
00000290: 1118 72b8 ac56 48b7 21c3 9036 db16 e437
000002a0: 636d e737 8703 1438 01ce 4fb6 395d 8337
000002b0: 30f9 8ab8 e433 13b8 88fe 1cb8 6e8d 23b8
000002c0: a0c6 a5b8 9ae6 7db8 5c84 a1b5 3f9b 17b7
000002d0: 6429 b437 88a5 cab5 a105 1238 e304 cfb7
000002e0: 2b21 3e36 14e6 5037 b52f 0b37 1b7a 9837
000002f0: 2cd1 cc37 ebf4 a235 6640 d3b6 7fe0 5fb7
00000300: faf2 a136 8475 e4b6 20d3 45b8 08e6 73b8
00000310: 90e8 0339 81cb 6d37 5138 6237 7604 ce36
00000320: 42a0 6438 ed6b ddb7 33de 7034 8f94 f6b6
00000330: 3deb 18b7 a1c5 1738 a980 d8b7 ec8b 91b7
00000340: 8b37 a3b7 854d dd37 aa11 a437 467d 0fb8
00000350: efd7 13b7 0ee3 1338 0588 84b7 06a5 6bb7
00000360: 409a 8cb6 5476 0cb7 3854 39b8 1e04 6f37
00000370: 4296 97b6 9e89 2038 da03 29b8 7624 bab7
00000380: 37e6 be38 8790 13b7 5d98 bc37 4441 1138
00000390: dd01 ce38 d07e adb7 db4e 1038 9511 e4b4
000003a0: 64ec 91b8 233c ffb7 61a9 6eb7 599f 33b6
000003b0: 3a0a 4d35 2cbf 7d36 4bfc 3937 1d72 0337
000003c0: 14a0 65b7 623a ebb7 bed6 5737 78d0 e7b7
000003d0: d04f 66b8 79d1 d1b7 13e0 01b7 a4ab 4bb6
000003e0: 9cb2 a2b6 2daa b837 76bd 3b37 865a dd37
000003f0: d337 0d38 3496 04b8 35ce 4e37 6923 99b7
2.720245e-06 2.0684201e-05 3.813252e-05 7.1957147e-06 1.32118685e-05 -8.1195785e-06 -3.9160182e-05 2.8639122e-05
-3.944828e-05 -1.5428095e-05 -3.3061973e-05 -4.7367233e-05 -2.4660178e-06 -1.28633865e-05 3.3563076e-06 -3.0169533e-05
-4.38843e-05 -1.8674997e-05 3.787612e-05 2.9224832e-06 4.101602e-05 -6.281299e-05 -1.5035067e-05 -1.8995615e-05
-3.34645e-05 5.8680585e-06 3.4370816e-05 -1.5693484e-05 -1.736635e-05 0.00010999953 -1.1546565e-05 -1.428384e-05
-3.604803e-05 -1.4339252e-05 1.6041917e-05 9.678314e-07 -1.7990302e-05 -2.634503e-05 -7.5145734e-05 2.0320454e-05
1.4062168e-06 -2.195107e-05 2.892018e-05 -1.8705789e-05 2.209541e-05 3.3563592e-05 -8.419071e-06 -1.5403391e-05
5.5961044e-07 -2.6376807e-05 3.1297393e-05 -6.570677e-05 -5.260419e-05 3.0956475e-05 -3.7315625e-05 -1.8278564e-05
-3.591016e-06 7.7974226e-05 -3.344872e-05 -9.876469e-05 1.4621053e-05 1.7866632e-05 -3.8159948e-07 2.5614547e-05
1.4311567e-05 5.03078e-05 7.776271e-05 1.162824e-05 -1.1094446e-05 -2.5295705e-05 3.6793004e-05 -5.3532285e-06
5.349928e-05 -8.838448e-05 8.443582e-05 3.9675674e-06 2.2708211e-05 1.2972446e-05 -2.6146543e-05 -5.6164954e-06
3.3916913e-06 -8.537904e-06 2.9749368e-05 -2.714723e-05 0.00010395678 5.1891522e-05 -3.059474e-06 -1.0817468e-05
3.9008755e-05 -2.814133e-06 -3.5752084e-05 4.2553977e-05 -1.7626118e-05 -4.6276087e-05 -4.1170235e-05 -2.7298325e-05
1.5005077e-05 1.807786e-05 1.5235507e-05 -8.599009e-05 5.678458e-06 -2.5593323e-05 4.324729e-05 2.4000207e-07
-0.00014263115 6.60509e-05 3.788449e-05 2.8491588e-05 1.1945817e-05 -3.0359324e-05 -2.2259715e-05 -1.4719519e-05
-2.9189263e-05 3.277401e-05 5.2874195e-05 -2.336488e-05 -8.254295e-05 -3.1394266e-05 -3.8773236e-05 5.3807562e-05
-2.011079e-05 5.0451352e-05 3.988372e-05 -3.1497693e-05 2.1544814e-05 -4.9843627e-05 -3.105294e-05 -2.5711905e-05
6.533173e-05 -2.1588156e-05 -1.3798765e-05 4.609433e-05 -1.7126843e-06 2.1126281e-05 -2.5759813e-05 -5.23397e-06
4.8527167e-05 -3.464606e-05 -4.2475613e-06 3.063467e-05 2.084883e-05 -2.5723608e-05 -1.4253005e-08 1.3181261e-05
3.3296908e-06 6.2402745e-05 -5.378531e-06 0.000107163985 2.1651449e-05 -1.4836376e-05 1.7563041e-05 6.7908244e-05
-6.9351827e-06 1.5349195e-05 7.819623e-05 -3.2126212e-05 1.4269198e-06 2.6634034e-06 3.728165e-06 1.8868403e-05
-3.400058e-05 2.104813e-05 -1.2285855e-05 2.5087431e-05 -5.771971e-05 -1.1941109e-05 4.3142504e-06 2.7190361e-05
2.7588283e-05 3.5289235e-05 -3.0965314e-06 1.5659827e-05 -6.6267676e-05 -3.5095858e-05 -3.743035e-05 -3.8993945e-05
-7.90481e-05 -6.0534665e-05 -1.2033956e-06 -9.036447e-06 2.1476946e-05 -1.5098349e-06 3.4814355e-05 -2.4678598e-05
2.8331513e-06 1.2451335e-05 8.296153e-06 1.8176672e-05 2.4416098e-05 1.2141221e-06 -6.295787e-06 -1.3344105e-05
4.82646e-06 -6.80861e-06 -4.7165086e-05 -5.8149948e-05 0.0001257977 1.4173683e-05 1.3483762e-05 6.1397977e-06
5.4508688e-05 -2.639551e-05 2.2432577e-07 -7.348666e-06 -9.114677e-06 3.618526e-05 -2.5809119e-05 -1.7350503e-05
-1.9456978e-05 2.638135e-05 1.9558549e-05 -3.4210527e-05 -8.812159e-06 3.5258992e-05 -1.5798965e-05 -1.4045514e-05
-4.190282e-06 -8.372201e-06 -4.4185872e-05 1.4246469e-05 -4.517643e-06 3.827514e-05 -4.0296327e-05 -2.2189906e-05
9.102787e-05 -8.795533e-06 2.2482296e-05 3.4631477e-05 9.8231925e-05 -2.0682259e-05 3.4405715e-05 -4.2481102e-07
-6.95817e-05 -3.0426372e-05 -1.4225342e-05 -2.676583e-06 7.638333e-07 3.7811214e-06 1.1085601e-05 7.8347775e-06
-1.3686735e-05 -2.804137e-05 1.2864997e-05 -2.7634422e-05 -5.4910604e-05 -2.5012285e-05 -7.7411705e-06 -3.0349265e-06
-4.848769e-06 2.2013754e-05 1.1190181e-05 2.6387406e-05 3.366901e-05 -3.161114e-05 1.2326568e-05 -1.825551e-05

conv5.lin.weight f4 [256, 128]
00000000: 72bb f43c 22ea 8bbd c4b4 8ebd dda2 1b3d
00000010: 135a eb3d 6349 d33d 1da9 133d 071e f6bd
00000020: c691 f2bc c735 903c 1a1b 64bc b0cf e93b
00000030: a84e 91bd b210 933d 04ca 50bd a3be 1c3d
00000040: f683 a9bd 7c42 8fbd ec35 c7bd 4486 813d
00000050: fa9b a23c ffcb 0d3e 6aa8 9f3d 783c cb3c
00000060: 2638 efbc 1492 b8bd 23dd 253b 6b0d 88bc
00000070: 0aa2 d53a c854 ffbd baa9 233d 536b 3bbd
00000080: 6253 a53d 2ab5 fb3c eed3 63bd 28aa f63d
00000090: b9a2 91bd 43b0 d33b 0c5d 8bbb 7b89 ba3d
000000a0: f393 1ebc 5468 eb3c 8755 253d cdda e3bd
000000b0: 3eab d53d 02ad 18bd a055 e43a d0ea c43b
000000c0: f6ba 0cbd 643b 7ebd a023 b9bc 7229 19be
000000d0: 36a6 44bd 729b 8cbc abdb e13d 0f4d 043e
000000e0: bb23 a93d 6410 37bd 3cb5 dfbd d480 d3bb
000000f0: 63b8 6c3c 8f7f ebbd a1a2 d83b b6a9 a1bd
00000100: e88c bfbd 5bbc d23d bebb 873d 195b e63d
00000110: e295 7c3c 60e9 05bd ae7f 1bbd 9b3c bcbd
00000120: eee3 853d 3ea5 f43d 8d2a f9bb 3f7c 8b3d
00000130: 0f0e 9a3d 06cc d5bc 8e2d 4abd 250f 65bd
00000140: 58fb b1bc a846 773c 2f15 28bc fd8e 813d
00000150: fd50 023e 2547 163d 567e de3c 0b7b 9b3d
00000160: 1171 ef3c cb4b 8ebc 2fae 6cbb 4782 a7bd
00000170: 8869 2a3c 55bd 7cbd 7cb5 8ebc 2df4 223d
00000180: ff58 49bd 9983 393d b872 243d 2d11 883c
00000190: 9562 643d 8070 74bd cd5d 6cbd ed72 15bd
000001a0: db7f a63d 8ea9 91bd 5d99 64bd d07a a43d
000001b0: a09d 6abc 2fc3 ad3d 2204 bfbd 38cf 37bd
000001c0: cd2c 213d 5222 af3c 81f2 1b3e 8521 8fbd
000001d0: 25db 5ebd 6ee2 af3d 8e24 223d 6d22 a4bc
000001e0: 6aee 1b3e ac57 053a 260c 023c c4be 593d
000001f0: dd8a 7d3d 3c7c 763d fced a23d 9a4e 61bd
00000200: fbc8 163d 6ecc 413a ef81 7bbd 40e7 3fbe
00000210: 999b 3cbe 61a7 8dbd 6ad7 423d 32f7 053e
00000220: 8bf9 e7bb e531 0a3d db90 73b9 5680 8cbd
00000230: 7962 b7bd 58e5 b4bd 96fb c63d f6a2 87bc
00000240: 8403 ebbc ac28 053e 0583 de3c e3dc a5bd
00000250: 289c 96bc 1b4a e3ba 2bef 143d fd31 3d3d
00000260: 464d 2ebd f24e 493c 2cb6 b0bc c15c a73d
00000270: 2abe a1bd 43da 89bd ad66 4bbd 1102 9f3c
00000280: ac1c 463c b736 1f3d 52bc 2fbd 270e 0dbd
00000290: 2299 8bbd 3027 613c 3170 ccbd 0c06 70bc
000002a0: 69af 443d 991a 48bd f209 b53d 33b0 8ebd
000002b0: 5dd1 b23c 6491 e439 d2da 973d 22d1 afbd
000002c0: 8545 95bd e39e 233d 9424 09bb 1550 753d
000002d0: e2f1 78bd 2665 cfbc c6fb b9bd 1981 babc
000002e0: c664 fb3c a956 1e3d 7b2e edbd ae70 073d
000002f0: f52c a2bc 5550 14be 410f 14be cec5 98bb
00000300: 5016 a8bd 984e a5bd e24e 873d 82ac 123d
00000310: 0d1b 11bc 77ed 913d 320a a0bd 6601 f03b
00000320: a931 14be 00d4 a7bd 3f41 38bd 4fe1 3bbd
00000330: 2632 b03d 012f 7a3d c439 81bd a075 40bd
00000340: dcea 0bbd 5e8d febc a12b 043d 9439 623d
00000350: 0ca6 903d a42a e5bd e08f bfbd de60 f5bc
00000360: 0de0 13bc 38c7 833d 9e54 2fbd cd99 4cb9
00000370: 3aed 003b af0b 133d 4dae faba 21ba a53d
00000380: 0e9f 323d 5c97 1cbd 4129 2ebe 02ec d33d
00000390: acb6 1e3d b324 9ebd 0286 7c3d a29a 633d
000003a0: 0ace 243c 2638 dfbc 7943 c6bd 74f9 793d
000003b0: 8ca2 ab3d 99a8 6bbd d7d0 383c 96d8 ef3c
000003c0: e937 aebd c00d c8bc 64ad 9d3b fdbe ea3c
000003d0: 98b0 16bd ee2c 703d 3f53 48bc e65a 813d
000003e0: b3f1 213c e047 d43b 21f3 463b 94a8 39bd
000003f0: 450f 1ebe 2f1e 2d3d ad28 713d b241 0b3c
0.029874537 -0.06831767 -0.06968072 0.037997115 0.1149179 0.10316732 0.03604995 -0.12017446
-0.029610526 0.017603768 -0.013922477 0.007135354 -0.070950806 0.07180919 -0.050973907 0.038267743
-0.08277123 -0.06995103 -0.09727082 0.06324437 0.019849766 0.1384735 0.07795794 0.024809107
-0.029201578 -0.09012237 0.002530881 -0.01660796 0.0016298902 -0.124673426 0.039956786 -0.04575665
0.08072545 0.030726034 -0.055622034 0.120441735 -0.07111115 0.006460221 -0.0042530354 0.091082536
-0.0096788285 0.028736271 0.04036477 -0.11125717 0.104330525 -0.037274368 0.0017420538 0.006009437
-0.034357987 -0.062068358 -0.022599995 -0.14957216 -0.048010074 -0.017163966 0.110282265 0.1292002
0.08258768 -0.044693366 -0.109232396 -0.0064545665 0.014448258 -0.11498939 0.0066111838 -0.07893698
-0.093530476 0.10289832 0.06627606 0.11247844 0.015416594 -0.032693267 -0.03796356 -0.09191247
0.06537615 0.1194558 -0.0076039494 0.068108074 0.07522213 -0.026098263 -0.04935985 -0.055922646
-0.021726295 0.015092529 -0.010258957 0.06326101 0.12726207 0.036688942 0.027159851 0.07591828
0.029228719 -0.017370125 -0.0036114564 -0.08179145 0.010401137 -0.061704 -0.017420523 0.039783645
-0.04915714 0.045291517 0.040148467 0.016609753 0.055758078 -0.0596776 -0.057706643 -0.036486555
0.08129855 -0.07112418 -0.05581032 0.08031237 -0.014319807 0.08484494 -0.0932696 -0.044875354
0.039349366 0.02137867 0.15229227 -0.06988815 -0.05440821 0.0858811 0.039585643 -0.020035947
0.15227666 0.00050866115 0.007937467 0.053160444 0.06190001 0.060177073 0.07955548 -0.0550066
0.036812764 0.0007392828 -0.06140321 -0.18740559 -0.18418731 -0.069166906 0.047568716 0.13082579
-0.0070793084 0.03373899 -0.00023228249 -0.06860416 -0.08954329 -0.08832806 0.09715955 -0.016557198
-0.0286882 0.13003796 0.027162084 -0.080987714 -0.018385008 -0.0017340811 0.0363609 0.04619025
-0.042554162 0.012286888 -0.021571241 0.08171988 -0.07897599 -0.06731083 -0.049658466 0.019410165
0.012091797 0.03887054 -0.042904206 -0.034437325 -0.06816317 0.013742253 -0.09982336 -0.014649879
0.048018847 -0.04885349 0.088397875 -0.06967201 0.021828348 0.00043595873 0.074147835 -0.08584811
-0.072886504 0.039946448 -0.0020926343 0.059890825 -0.060777552 -0.025316786 -0.09081225 -0.022766637
0.030687701 0.038656864 -0.11581131 0.033066444 -0.019796828 -0.14483769 -0.14458944 -0.004662252
-0.08207381 -0.08071631 0.066068426 0.035809048 -0.008856547 0.07125371 -0.078144446 0.0073243855
-0.14472069 -0.08194733 -0.0449841 -0.045869168 0.08603315 0.061079983 -0.06309846 -0.046987176
-0.034159526 -0.031073269 0.03226817 0.055230692 0.07062921 -0.11189774 -0.09353614 -0.029953416
-0.009025586 0.06434482 -0.042805307 -0.00019512251 0.0019672648 0.035899814 -0.0019125432 0.08092142
0.043608718 -0.038230285 -0.17007925 0.10347749 0.03874843 -0.077218436 0.061651237 0.05556739
0.010058889 -0.027248453 -0.09680838 0.061028913 0.08380613 -0.057533834 0.01128026 0.02927808
-0.08506758 -0.024420619 0.0048119295 0.028655523 -0.036789507 0.0586366 -0.012226879 0.063161656
0.009884286 0.0064782947 0.0030357318 -0.045326784 -0.15435512 0.042265113 0.058876682 0.00849955
