weights/6-18-0_split_2.pt (torch, 276326 bytes, 26 tensors)

conv1.bias f4 [64]
000000 aa cc c8 b6 d3 2b 91 37 d3 9c 93 b7 c2 0f 10 37
       -5.9842905e-06 1.7305754e-05 -1.7596793e-05 8.586738e-06
000010 dc f8 81 37 94 8f 8f 35 90 48 c6 b6 06 4c 1f 35
       1.5493883e-05 1.0696117e-06 -5.909307e-06 5.9342744e-07
000020 48 53 2b 37 08 df 90 b6 04 ec 41 37 5f 4d d8 36
       1.0211785e-05 -4.3174987e-06 1.1558648e-05 6.446309e-06
000030 b9 4f 79 b5 2a 44 18 37 5f 66 3b b8 f7 9d 8e 36
       -9.287574e-07 9.075777e-06 -4.4679615e-05 4.2503193e-06
000040 c7 04 9f b7 68 f9 ef b5 41 04 f9 36 16 29 98 36
       -1.8956502e-05 -1.7879474e-06 7.4212735e-06 4.534736e-06
000050 e8 a6 b8 36 38 98 0b b7 fe ec 6b b5 92 33 9f 36
       5.5030578e-06 -8.320487e-06 -8.788919e-07 4.744573e-06
000060 8c df 17 36 87 72 c5 36 15 c6 97 36 be 03 b2 b6
       2.2630875e-06 5.8843902e-06 4.5232105e-06 -5.305249e-06
000070 64 49 c9 b6 8f 86 96 b7 1a 9a c0 36 99 33 da 36
       -5.9988106e-06 -1.7944052e-05 5.7399857e-06 6.502913e-06
000080 95 ea fa b6 ab 57 fe b6 49 96 98 b6 d2 66 12 37
       -7.4778895e-06 -7.579996e-06 -4.5474485e-06 8.726218e-06
000090 e7 71 57 b7 cc 18 b9 36 3e c1 65 33 be 3d 85 b5
       -1.2841519e-05 5.5163164e-06 5.349397e-08 -9.927242e-07
0000a0 34 d9 b8 b6 d3 dc 57 36 26 00 f2 b5 0b 26 e5 36
       -5.508913e-06 3.2166033e-06 -1.8030448e-06 6.8291606e-06
0000b0 51 71 a4 b5 16 f7 db 34 ef a0 c3 b6 a1 2a b9 b4
       -1.2251932e-06 4.0971707e-07 -5.830188e-06 -3.4489952e-07
0000c0 d9 7e 8d b7 48 99 aa 36 18 87 5d 36 d1 77 14 36
       -1.6867578e-05 5.084239e-06 3.3010201e-06 2.212346e-06
0000d0 67 7b 06 b7 4b f2 7a b7 5f 94 2f 36 7f a5 69 37
       -8.015754e-06 -1.4957574e-05 2.6163395e-06 1.3926415e-05
0000e0 48 45 47 b6 36 51 2f b7 26 3c 85 36 31 bc b9 b5
       -2.9693638e-06 -1.0449721e-05 3.970711e-06 -1.3838345e-06
0000f0 f8 bc 1b b7 de 5e 79 36 da 2b ec 36 cb 63 85 36
       -9.282718e-06 3.7159111e-06 7.038453e-06 3.9753263e-06

conv1.lin.weight f4 [64, 2]
000000 90 c9 72 be 6c f5 5d bd 96 a7 9b bc dc 7a 4f 3e
       -0.23709702 -0.05418913 -0.01900081 0.20261711
000010 8e d6 3e 3d ab 6d dc bc 3e a2 b8 bd 4a be 0a bc
       0.046591334 -0.026907763 -0.0901532 -0.00846822
000020 8f 1c f6 bb de b9 06 be 42 fc 02 3e 52 a7 88 3e
       -0.0075107287 -0.1315684 0.12791541 0.26690155
000030 37 76 06 3d 09 5c 2c 3e 99 b9 bc bd 7b ac 4d 3e
       0.032827582 0.16831984 -0.092150874 0.20085327
000040 2b 41 99 3d 53 7a 95 bd 28 a1 aa 3d 78 ec fe 3d
       0.07483133 -0.07298722 0.08331519 0.124474466
000050 a2 13 2e be b3 ab 00 3d fb ce dd 3c af 15 3c be
       -0.16999677 0.031413745 0.027076235 -0.18367647
000060 ee 62 5d 3b 46 bc a4 bd 41 41 2f 3e 97 97 2a 3c
       0.003378089 -0.08043723 0.17114736 0.010412118
000070 ec 0f c6 bd 95 29 0b be 46 ca 61 3e 8e 5f 4d 3e
       -0.096710056 -0.13590081 0.22049817 0.20055982
000080 a4 a7 20 be 08 12 6a bd cb a1 b6 3d 6b b0 6a be
       -0.1568895 -0.057146102 0.08917578 -0.2291886
000090 39 c5 94 3d 02 af 85 3e e5 fb a5 bd ce 30 90 3e
       0.0726418 0.26110083 -0.08104686 0.28162235
0000a0 db 6b 85 3e e1 bc bf 3d 41 db a8 be c1 8e d8 3c
       0.2605885 0.09362198 -0.32979777 0.026435258
0000b0 0e 4c 52 be 7c 9d 0f be 52 e3 70 3e cb e1 42 bb
       -0.20536825 -0.1402492 0.23524216 -0.0029736634
0000c0 26 16 6c 3e 79 8a 40 3d 01 f8 94 bd 5f f6 12 be
       0.23055324 0.047007058 -0.072738655 -0.14351796
0000d0 8d 79 02 3e d3 4f 34 3e c1 af 59 be f9 ef 93 bd
       0.1274168 0.17608576 -0.21258451 -0.072235055
0000e0 4c ac b0 3d 3f bd 7f be d0 d1 37 3c 45 f8 08 bd
       0.08626613 -0.24974535 0.011219457 -0.033439893
0000f0 99 ba 88 bd 83 24 95 be cf 7b 74 be 92 fb 29 3e
       -0.06676216 -0.2912942 -0.23875354 0.16599873
000100 d9 ae 70 3e bb ee 4a 3d d5 30 92 3e 95 f3 0a be
       0.23504199 0.049544077 0.2855288 -0.13569482
000110 21 02 81 be 72 a9 4a 3e e2 bd b0 3d fc 3c 60 3e
       -0.25196937 0.19791201 0.08629967 0.21898264
000120 70 8a 40 bd 07 71 bd 3c dd e2 c7 3d ae df a6 3b
       -0.047007024 0.023125185 0.097600676 0.0050925827
000130 32 22 d0 3d 2c 63 96 3e 75 43 98 be a2 a7 84 3e
       0.10162772 0.29372537 -0.29738966 0.25909144
000140 43 bd 7b be b7 8c 93 3e 51 56 05 3e c9 36 bf 3c
       -0.24583916 0.28818294 0.13021208 0.023341553
000150 ac ca 49 be 4a 8b 37 be 43 59 d8 3d 31 cf 30 3e
       -0.1970622 -0.17924228 0.105639 0.17266537
000160 4a c4 15 be 8f bb 6e 3e 77 92 85 be 95 3b 76 3e
       -0.1462566 0.23313735 -0.26088306 0.24046166
000170 c7 ab 89 3e e1 32 f1 3d 93 3d 39 bc fa 1d 32 be
       0.26888868 0.117772825 -0.011306184 -0.17394248
000180 55 a0 6d 3c 3a 00 1c 3d c7 fc 92 3d 46 46 81 3d
       0.014503558 0.038086154 0.0717712 0.06312232
000190 6c b0 39 3e a8 e3 df 3c 2a e6 00 3e f9 c2 27 3d
       0.18133706 0.027330235 0.125878 0.040957425
0001a0 8d af 5b be 72 7e 3b 3e a7 57 d5 bc c7 76 02 3e
       -0.21453686 0.18309954 -0.026042772 0.12740622
0001b0 61 dc 68 3e 2b e0 a6 bd 52 e6 4b 3c ac 89 22 be
       0.22740318 -0.081482254 0.012445049 -0.1587283
0001c0 24 49 4e be 1c 70 28 3e ce a3 14 be 7b 2f 88 3e
       -0.20145088 0.16449016 -0.14515612 0.26598725
0001d0 14 2f 54 3e 5d 25 7c 3d 38 5b 8e 3e fb 2b a7 3a
       0.20721084 0.06155907 0.2780397 0.0012754196
0001e0 ff 1f 65 bd 33 83 67 3e 3c 15 43 bd 4b 9d b3 be
       -0.055938717 0.22608642 -0.047627673 -0.35080943
0001f0 35 c6 3b 3e 21 32 13 be 1b 50 9a be cf 96 00 3e
       0.18337329 -0.14374591 -0.3013924 0.12557529

conv2.bias f4 [64]
000000 40 42 60 3c 59 8b 93 3c 3e ee 90 3d ac 87 ca bd
       0.01368767 0.018010782 0.07076691 -0.098891586
000010 e0 4e 0b bc d9 6a 23 3d a8 84 bb bd 97 33 5d bc
       -0.008502692 0.03989682 -0.091561615 -0.0135010695
000020 5c 33 53 bd 1b 8c ff 3c 84 95 2c bd 05 3a 6b 3d
       -0.051562652 0.031194737 -0.042134777 0.05742838
000030 3d d3 85 3c 95 d6 ee bd 1b 7b 12 be e2 a2 8d bb
       0.016336078 -0.11662022 -0.14304774 -0.0043223957
000040 20 05 93 bd 6a 3d ac bd 1c 30 81 bc a8 e6 17 3d
       -0.07178712 -0.08410151 -0.01577001 0.037085205
000050 66 0c 95 bd 3f 0d 58 bc f9 43 5f 3d e3 68 43 3d
       -0.072777554 -0.013186752 0.054508183 0.04770745
000060 9c ce 9c 3c fb 83 5a bd 22 1f fa bd f3 84 76 bd
       0.019141488 -0.053348523 -0.12212969 -0.060185384
000070 51 54 4b 3d c0 32 0a be 77 d3 dd bd 26 61 69 3d
       0.049640957 -0.13495922 -0.10831349 0.056977414
000080 96 f0 05 be 80 3b 87 bd 5c a2 f4 bd 35 37 de bd
       -0.13080058 -0.066031456 -0.1194503 -0.10850374
000090 13 25 2f be 6c bc 2a bd 86 74 75 bd 10 f8 95 bd
       -0.17103986 -0.0416836 -0.05992558 -0.07322705
0000a0 1e 73 5a 3d 60 f0 dc bd 08 58 2c be 42 f3 1b bc
       0.05333244 -0.107880354 -0.16830456 -0.009518446
0000b0 e8 d6 a4 bd 21 cd 9a bd ac 7a 16 bb fc 28 36 bc
       -0.080488026 -0.075586565 -0.0022961302 -0.01111817
0000c0 29 c9 1d bd 87 16 57 be 6b a5 18 be 3d ba 10 be
       -0.03852192 -0.21004687 -0.14906852 -0.14133544
0000d0 11 7d 32 3d 41 ad 82 3d da a1 11 be 16 b9 1f 3b
       0.043576304 0.06380702 -0.14221898 0.0024371794
0000e0 54 81 ed bd aa e8 2a bd 3c 6f 4f bd 27 a4 95 3d
       -0.11596933 -0.041725792 -0.05064319 0.073067
0000f0 f2 32 2c 3b ff ea 01 be 04 36 e4 bd a6 b4 78 bd
       0.0026275483 -0.126873 -0.11143115 -0.060719155

conv2.lin.weight f4 [64, 64]
000000 51 98 ba 3d a4 e7 58 bd 64 b6 4b be ab dc e5 bc
       0.09111083 -0.052955285 -0.19893795 -0.028059324
000010 70 10 2d bd 7a e8 81 3d 73 7d 16 3e 48 5d 05 be
       -0.042252004 0.063431695 0.14696293 -0.13023865
000020 36 09 ba bd a5 00 40 bd 80 38 c8 bd d8 5e fc bd
       -0.09083788 -0.046875615 -0.097764015 -0.123227775
000030 35 90 13 be 7f 30 9d bd 10 ba 6a 3d e7 f8 31 be
       -0.1441048 -0.076752655 0.05730635 -0.17380105
000040 7f de 4a 3e 5c 65 3c 3e 8f 20 27 3e 26 62 f6 bd
       0.19811438 0.1839804 0.16321014 -0.12030439
000050 b1 44 6e be 42 f0 a8 3d 57 55 08 be 9a 72 eb 3d
       -0.23268391 0.082489505 -0.13313805 0.11496468
000060 66 4e 25 3e 04 82 1e be 93 ea eb bd 0f a5 1b be
       0.16143188 -0.15479285 -0.11519351 -0.15199684
000070 be 2c 9a bd 16 0c d6 bc ee 42 d0 bd ce 54 5e be
       -0.07528065 -0.02612881 -0.10169016 -0.21712038
000080 43 af 9b b9 8f 97 7d 3d f8 f1 44 be 93 eb 75 bd
       -0.00029694484 0.061912116 -0.19232929 -0.060039114
000090 37 f2 e6 bc 68 cc 7e be 4f 02 99 3d a6 fe d4 bc
       -0.028191669 -0.24882662 0.074711435 -0.026000332
0000a0 7d ac f0 bc 3d 39 e0 bd 05 e3 72 3e 8c 3e a2 bb
       -0.029379124 -0.10948417 0.23719414 -0.004951304
0000b0 61 3a f9 3d 4d d2 6a be 82 21 29 bd 61 ed 07 3e
       0.12169338 -0.22931786 -0.04129172 0.13274147
0000c0 3d 9a 5a 3e 2c 58 c6 bd 9e e7 46 3d 04 30 69 3d
       0.213479 -0.09684786 0.04856073 0.056930557
0000d0 1c ca 4a be 87 b9 59 3c 22 15 ad 3d 1f 60 3e 3d
       -0.19803661 0.013288862 0.084512964 0.046478387
0000e0 88 2b 96 be 1b ff 37 be 2b fc ca 3d 2c 39 17 3e
       -0.29330087 -0.17968409 0.099113785 0.14767903
0000f0 02 ad bc bc 74 f7 f5 3d da b9 5b be b3 73 3f be
       -0.023031715 0.120100886 -0.21457615 -0.1869648
000100 b5 2c 37 be 36 78 4f 3d 95 3a 3a 3e 7b b5 98 be
       -0.17888148 0.05065175 0.1818641 -0.2982596
000110 98 3f 00 be a1 af 09 be 60 5b c6 3d 92 db 3b be
       -0.12524259 -0.13445903 0.09685397 -0.18345478
000120 de 16 4c be e0 8b 95 3d 61 67 10 be a5 72 72 bd
       -0.19930598 0.0730207 -0.14101936 -0.059191365
000130 a6 08 d0 bd f7 7f 20 bd ca f7 a7 3d 86 1e c2 bd
       -0.101578996 -0.039184537 0.08201559 -0.09478478
000140 8c 52 6b be 4f 02 c7 bd 53 2d ad bd be d4 04 3e
       -0.22980708 -0.09717237 -0.084559105 0.1297178
000150 a0 91 e8 bd d8 14 c2 3d d6 00 35 be 46 10 56 3e
       -0.11355901 0.09476632 -0.176761 0.20904645
000160 b3 12 41 be 28 32 32 be d8 49 b6 3d fa 88 87 be
       -0.1885479 -0.17401946 0.08900803 -0.26471692
000170 6b 90 d2 bd 2f 4d 6b bc 20 7d 26 3e 71 74 45 bd
       -0.10281452 -0.014361664 0.16258669 -0.04820675
000180 f7 50 18 3e f2 ae 7c 3d a4 9d dc bd f9 4c 0e 3d
       0.14874636 0.06169028 -0.10772255 0.034741376
000190 5f 32 4d be 20 29 3d 3e f4 bb 0f 3e 92 e3 2c 3e
       -0.20038746 0.18472719 0.14036542 0.16883686
0001a0 1f 30 ab 3d c6 0c 0f be be d4 80 be f0 6a 39 3d
       0.08358788 -0.13969716 -0.2516231 0.045268
0001b0 5d 44 02 bd 5d bf 42 bd a4 cd 97 3c 7e 1e 09 3e
       -0.031803478 -0.04754578 0.018530674 0.13390538
0001c0 4c cf 38 3d 0f f3 39 3e 38 6f 40 3e 69 3b 24 be
       0.04511957 0.18159126 0.18792427 -0.16038288
0001d0 71 14 8e 3b 04 e1 44 3e 4c fc 50 3d c6 51 d8 3d
       0.004335933 0.19226462 0.05102186 0.10562472
0001e0 56 90 70 bd 7a a8 c7 3d 77 17 9c bd 96 88 ed 3d
       -0.0587314 0.09748931 -0.07621663 0.11598317
0001f0 1c 82 4b 3e 59 41 5b bd 0f b2 e6 3d 2e 00 72 be
       0.19873852 -0.053529117 0.11264431 -0.23632881
000200 78 b9 02 3e 14 8e 3c be 72 f3 8f 3d 8f 2a f2 3d
       0.12766063 -0.18413574 0.070288554 0.11824524
000210 4d 46 fc 3d 23 67 31 be 68 54 94 bd d2 3f 8e be
       0.12318096 -0.173245 -0.07242662 -0.27783066
000220 84 5e 30 3e 55 44 b8 3b f7 d1 41 be 46 86 a0 3d
       0.17223555 0.00562338 -0.18927751 0.078381106
000230 e0 62 0e be 68 5b 14 3e 06 d2 a5 3d 76 b2 29 3e
       -0.13904905 0.14487994 0.080966994 0.16571984
000240 1b 97 b1 3d fb 49 92 bd b0 51 d5 bd e5 5b c9 3c
       0.08671399 -0.07143017 -0.10415971 0.024579952
000250 2b 5f fa bd ce 26 27 bd b1 19 a9 bc 96 f1 bc 3d
       -0.12225183 -0.04080849 -0.020642133 0.09225766
000260 c8 99 3c 3e 5d 03 51 be b4 d3 30 3e 86 98 46 3e
       0.18418038 -0.20411439 0.17268258 0.1939412
000270 de 5e 09 3e 3e c9 98 bd 6c 04 e3 bd 87 e7 38 be
       0.13415095 -0.07460259 -0.11084828 -0.1805707
000280 67 e6 04 be 2f f0 c9 3d e1 4a 75 be 3f 2d 72 bd
       -0.12978517 0.098602645 -0.23954345 -0.05912518
000290 0c 5d 2f be 2c 2c e2 3d 7c 8c 78 be ae 70 bf 3d
       -0.17125338 0.11043581 -0.2427234 0.09347664
0002a0 ff 82 ac bd fa 00 17 3e 37 08 51 3d 14 5c d2 bd
       -0.08423423 0.14746466 0.051033225 -0.10271469
0002b0 3c 85 84 be 5a f8 07 3c ac a5 56 3e 6a 0f d8 bd
       -0.258829 0.008298958 0.20961636 -0.10549815
0002c0 78 0d 7c 3d 3c 91 b9 3d 24 50 35 be c3 b5 02 be
       0.061536282 0.090609044 -0.17706352 -0.12764649
0002d0 89 49 10 3d 69 a2 a1 be 3c c6 4f 3d 92 d9 e3 bd
       0.03522638 -0.31569222 0.05072616 -0.111254826
0002e0 8c f7 1f bd 01 cf 65 be 77 72 40 ba 61 f6 3a be
       -0.03905444 -0.22442247 -0.00073412753 -0.18258049
0002f0 c6 ca 4b be 2c 63 0d be fd 21 58 be 35 c6 9e 3d
       -0.1990157 -0.13807362 -0.21106716 0.07752649
000300 07 3e b8 3d a5 fa 12 be fe ec 21 be 97 60 2e 3e
       0.08996206 -0.14353426 -0.15813062 0.17029034
000310 a6 55 08 3d aa a1 d6 bd ad 73 7a 3d 65 48 06 bd
       0.033284806 -0.10480054 0.061145473 -0.032783885
000320 39 02 09 bd 4b 1e 32 3d a4 bd 19 bd ff c2 6a be
       -0.033449385 0.04348592 -0.03753437 -0.22925948
000330 e1 4a 15 be bb 2c 77 3c cf b6 90 bd d5 88 bd 3a
       -0.14579345 0.015086348 -0.07066118 0.0014460335
000340 7e 71 fb 3c 15 85 0d be 35 43 d3 3d fa 9d 28 3e
       0.030693766 -0.13820298 0.10315553 0.16466513
000350 ed ed d2 3c 4c 0e 5e bd 1d b8 10 3e 4d 4e 14 bd
       0.025748217 -0.054212853 0.14132734 -0.036207486
000360 90 20 0a 3b 3c 3a 24 3c c5 ec 2b 3e 80 5f ec bd
       0.0021076538 0.01002365 0.16789539 -0.11541653
000370 54 09 5f bd 4b 35 25 be 1d d1 fe 3d 2d 42 4a be
       -0.054452255 -0.16133611 0.12442229 -0.19751807
000380 d8 55 ac 3d 94 1b 76 bd dd 2a 14 3e 98 15 d0 3d
       0.08414811 -0.060084894 0.14469476 0.10160369
000390 4d dd 4d be 38 a6 ab 3d 6a f0 13 3e 73 e4 1c 3e
       -0.20103951 0.08381313 0.1444718 0.15321521
0003a0 e2 47 16 3e 38 44 25 bc 50 c9 80 be c0 a8 7c bd
       0.14675859 -0.010087065 -0.2515359 -0.06168437
0003b0 86 20 1e 3d 6e 3c 27 3b 55 15 f2 bd b2 13 7e be
       0.038605236 0.0025518197 -0.11820475 -0.248122
0003c0 3e 5a b5 3d 81 b7 27 be 2d da 38 be be 8f 38 3d
       0.08855103 -0.16378595 -0.18051977 0.04505896
0003d0 36 56 2a 3e 85 45 36 3e e0 47 94 3d 93 f0 2a be
       0.1663445 0.17799957 0.072402716 -0.16693334
0003e0 06 6c 23 3d c4 1f 57 3e 49 d1 d9 bd 75 5f 1f be
       0.03989794 0.21008211 -0.10635621 -0.15563758
0003f0 ca e0 cf bc 04 0d 71 bc 98 8a 44 3e ea 96 4d 3c
       -0.025375742 -0.014712576 0.19193494 0.012548188

conv3.bias f4 [128]
000000 49 ae cb 37 33 3a c5 b8 b7 34 25 39 85 73 24 38
       2.4280644e-05 -9.4045325e-05 0.00015755264 3.9208233e-05
000010 2a 94 f1 36 e0 ca 5e 38 dd 70 f6 b8 1b f6 b4 37
       7.1996083e-06 5.3117867e-05 -0.000117512165 2.1572274e-05
000020 61 3c ca 36 dd 17 f7 b7 6a b4 9e b7 61 2c ae 38
       6.027098e-06 -2.9455807e-05 -1.891908e-05 8.305233e-05
000030 e8 3b 8f b8 41 21 01 39 30 18 c2 b7 20 b9 80 b8
       -6.82993e-05 0.00012314787 -2.3137865e-05 -6.137998e-05
000040 dd 83 9c b7 6f ab 3f 37 09 5c 6d b7 83 13 e8 38
       -1.8658053e-05 1.1424402e-05 -1.4147729e-05 0.000110662564
000050 e4 26 11 37 04 a9 ae b7 34 6a db 37 63 e9 3a b9
       8.651728e-06 -2.082112e-05 2.615629e-05 -0.00017825286
000060 55 bc 07 b9 0e 5c fc b7 87 0d af b8 82 5c 69 b8
       -0.00012944762 -3.0083607e-05 -8.34717e-05 -5.5637684e-05
000070 16 c1 d7 36 ad da eb 38 bf 6c cb b8 76 64 87 38
       6.4299775e-06 0.00011246405 -9.70005e-05 6.456014e-05
000080 6a eb 26 b8 0d 40 a6 b8 48 a6 34 b8 5a b1 6a 37
       -3.979673e-05 -7.927427e-05 -4.3070206e-05 1.398878e-05
000090 1d c9 71 38 70 02 d4 b6 78 52 62 b7 aa f1 a7 37
       5.764618e-05 -6.318376e-06 -1.3489851e-05 2.0020485e-05
0000a0 48 ce d8 b7 5d 30 fb b6 35 46 68 37 ea d8 86 38
       -2.5845264e-05 -7.486013e-06 1.3844624e-05 6.430021e-05
0000b0 41 58 23 36 1c f4 06 b7 9d 1a b8 37 ba c6 8d b7
       2.4340263e-06 -8.0438585e-06 2.1946902e-05 -1.690105e-05
0000c0 50 d3 73 37 4b bb e5 36 fe 46 7d b3 65 62 62 38
       1.4533129e-05 6.8465356e-06 -5.897072e-08 5.3974236e-05
0000d0 7a 77 19 b8 5f 4c c1 38 07 15 e6 b8 18 e9 8c 34
       -3.6589314e-05 9.2171824e-05 -0.00010971171 2.624663e-07
0000e0 7f 50 2f b9 aa 5d 8f b8 6c cc 84 38 d7 18 41 38
       -0.00016719288 -6.836218e-05 6.332327e-05 4.603792e-05
0000f0 1d 76 9c 37 ea 8f 6c 37 f2 41 ed b7 c2 e6 33 39
       1.865165e-05 1.4100204e-05 -2.828331e-05 0.00017156734
000100 f9 ef 1d 38 a3 f8 6d b7 5e f9 c5 b8 18 1c 61 b8
       3.765521e-05 -1.4184191e-05 -9.44014e-05 -5.3670345e-05
000110 d2 13 65 38 05 ef 87 b8 f2 13 11 38 56 42 41 37
       5.4616314e-05 -6.4818225e-05 3.458927e-05 1.15191415e-05
000120 61 4f ac b8 59 a2 fe b7 14 62 33 38 51 32 06 39
       -8.2163846e-05 -3.0354759e-05 4.2768268e-05 0.0001279798
000130 11 f4 94 b8 30 1c b9 37 99 bb aa 38 a0 0e b9 b6
       -7.102651e-05 2.2066844e-05 8.1411745e-05 -5.515132e-06
000140 53 8a 6b 36 6e d3 91 b8 50 74 aa b8 0b 34 a7 38
       3.5098244e-06 -6.953521e-05 -8.1278966e-05 7.972874e-05
000150 76 2e 0f 38 e5 ef 2a 37 c2 4d 3b b8 fe 45 99 37
       3.4137127e-05 1.0188644e-05 -4.4656692e-05 1.8271614e-05
000160 5c 6a fc 37 4e 70 56 36 6a a6 fc b7 fe ec 19 b8
       3.0090268e-05 3.1953855e-06 -3.0118234e-05 -3.669876e-05
000170 66 fe b0 b6 6d e5 3c 38 5b 37 2f b8 70 95 18 38
       -5.2748246e-06 4.5036362e-05 -4.1774805e-05 3.63788e-05
000180 c8 70 b2 b7 8f 30 40 35 0b 69 ab b8 22 4a 0e 38
       -2.1271771e-05 7.1596236e-07 -8.173481e-05 3.392448e-05
000190 db 79 36 37 86 e3 08 b8 66 3f a2 38 a3 59 0a 38
       1.0876417e-05 -3.2636824e-05 7.736571e-05 3.2985245e-05
0001a0 5b 65 95 38 13 67 8c 37 52 a2 0c 38 c1 97 67 b8
       7.1237526e-05 1.6737298e-05 3.3529774e-05 -5.5216024e-05
0001b0 66 ec 0d b8 0a 2c 60 b7 a1 46 d0 34 b0 4b e5 37
       -3.3837183e-05 -1.3361694e-05 3.8794408e-07 2.7334172e-05
0001c0 ea 07 24 b8 ca 1b 29 38 f7 36 2c 36 16 a5 9b 37
       -3.9108018e-05 4.031862e-05 2.566199e-06 1.8554314e-05
0001d0 e2 16 ea 37 c6 bc af 38 42 8b 84 37 0b 17 2f b8
       2.790563e-05 8.379812e-05 1.5800473e-05 -4.174471e-05
0001e0 03 b7 57 b8 01 f8 5e 38 ef 5a e9 b8 78 9d 2f b8
       -5.1430437e-05 5.3159896e-05 -0.000111272435 -4.1869906e-05
0001f0 c0 6c b4 b8 4a d2 89 b8 d8 77 38 38 54 25 ba 37
       -8.603325e-05 -6.5718385e-05 4.398063e-05 2.219031e-05

conv3.lin.weight f4 [128, 64]
000000 63 7f b0 bd 95 a4 b9 bd fd a4 89 bd 66 f8 1c be
       -0.08618047 -0.09064595 -0.06720922 -0.15329131
000010 08 47 0b bd 47 04 33 3e e3 ef d0 3d fa 9f 07 be
       -0.034003288 0.174821 0.10202005 -0.1324462
000020 95 36 a8 bd 0f d2 e8 bd 59 2e 1b be 15 a3 2f bd
       -0.08213536 -0.113681905 -0.15154399 -0.042880137
000030 20 ee 9f 3d f4 ad ff 3d 80 c2 b6 bd fe 31 42 be
       0.078090906 0.12484351 -0.08923817 -0.18964383
000040 79 47 a5 3d 92 34 77 3d 98 ef f6 3b cb b5 9c bd
       0.08070273 0.06035287 0.007535886 -0.07651862
000050 2c 34 54 3c 07 78 a5 bd 9d b0 0e bd e4 47 48 3e
       0.012951892 -0.08079534 -0.0348364 0.19558674
000060 2a 71 c4 bc e0 20 68 be cf f0 fa 3c 26 1a 5d 3c
       -0.023979742 -0.22668791 0.030632405 0.013495004
000070 a1 89 e0 bd 66 7c 1f be a9 ce 48 3d 3f 77 b4 ba
       -0.10963751 -0.15574798 0.04902521 -0.0013768448
000080 0a f0 85 bd 9f dd 11 bd 71 56 92 bd be 90 1f bd
       -0.065399244 -0.035611745 -0.07145394 -0.038956396
000090 ff ac 0d 3e ea 42 a9 bd be b7 ea 3d a6 ee 84 3d
       0.13835524 -0.08264716 0.11460827 0.06490831
0000a0 4e aa f8 3c bb f6 42 be b8 99 00 3e 6f 63 39 3d
       0.030354645 -0.19039433 0.12558639 0.045260843
0000b0 8a cb c3 3d 29 12 3f bd 7a af 0c 3d 2b d2 86 3c
       0.09560306 -0.04664818 0.034347035 0.016457638
0000c0 d7 ee 2b bd 93 e3 5a be 73 a9 86 3d 4e 19 56 3c
       -0.041975822 -0.21375875 0.065752886 0.013067557
0000d0 39 fb 29 3e 2f 6c ac 3c 03 11 b0 3d be 8b b8 3d
       0.1659974 0.02104768 0.08596995 0.09011029
0000e0 64 65 8c bd df 6a 26 be f9 79 59 3c 02 3a 49 be
       -0.06855276 -0.16251706 0.013273709 -0.19651034
0000f0 3a 68 0b be 6a 28 8b bd 4f 1f 01 3e a6 c7 c4 b9
       -0.13613978 -0.06794818 0.126096 -0.00037532783
000100 10 4b fe bd 4a df 29 be ad 45 82 3c 95 58 f9 bc
       -0.12416661 -0.16589084 0.015902365 -0.030437747
000110 48 8b 90 3d e6 e3 de bd 04 20 82 bd f8 9c f2 3d
       0.07057816 -0.10883312 -0.06353763 0.11846346
000120 c3 84 c0 bd 8d f2 48 3d b5 44 1d be 16 ae a1 bc
       -0.09400322 0.04905944 -0.15358241 -0.019736331
000130 3c 5c 2f bd d9 4b 13 3d 99 f7 cc 3c a8 e7 39 3e
       -0.04281257 0.035961006 0.025020408 0.18154776
000140 2c 8c 06 bd 9d f7 0d bd df 8f 0b be d4 fa 4d be
       -0.032848522 -0.03465997 -0.13629101 -0.20115215
000150 58 84 b2 3d 11 8b f9 3b f0 91 c8 bd b1 2f 1d bd
       0.08716649 0.007615455 -0.0979346 -0.03837556
000160 f2 53 a3 3d b1 17 3b 3e 8d 54 39 bd ce ce 5d be
       0.07974996 0.18270756 -0.04524665 -0.21660921
000170 7f 21 9b 3d 51 5c 4c 3d 71 95 13 3d ff 0e db bd
       0.07574748 0.049892727 0.03603119 -0.1069622
000180 8a e6 c1 3d 08 e0 f6 3b 16 e9 e5 3d 1a 5c d9 bd
       0.094678 0.007534031 0.11226098 -0.1061327
000190 52 c3 75 3d 95 9b 31 3e 47 66 e4 3b df 52 e7 3d
       0.060000725 0.17344506 0.0069702 0.11295103
0001a0 e6 4d 54 3d 90 f2 d1 3d 7e 49 03 bd c6 21 20 bd
       0.051832102 0.10251343 -0.03205251 -0.03909471
0001b0 c3 f9 30 bc 63 d5 8b bd a1 95 42 be 5c 9c 5d bd
       -0.010801735 -0.0682781 -0.19002391 -0.054104194
0001c0 75 c5 b0 3d 59 0d 05 3e a5 8d b2 3b a2 b2 f4 bd
       0.08631412 0.12993373 0.0054490143 -0.11948134
0001d0 1a 99 78 3d 97 fb d2 3d 8d 19 6c bd fc 21 c3 bc
       0.060692884 0.10301893 -0.057641555 -0.023819916
0001e0 a2 49 03 be 94 f8 10 3e 17 40 11 be 39 83 be bd
       -0.12821057 0.14157325 -0.14184605 -0.093023725
0001f0 60 89 c6 bc 34 9a 9b bd 55 33 11 3e f1 c2 c3 3c
       -0.024235427 -0.07597771 0.14179738 0.023896666
000200 80 5f 88 3d aa bc 8c bc 22 0b 2b 3e 58 f2 e5 bd
       0.0665884 -0.017179806 0.16703466 -0.11227864
000210 ca e7 b3 bd 8e 70 24 3e d2 b0 86 3d dc 9c be 3c
       -0.08784445 0.16058561 0.065766945 0.023268156
000220 f5 b4 4e 3d 4c f8 06 3e 61 e4 5e 3d 98 3d 95 3d
       0.050465543 0.13180655 0.054417018 0.07287139
000230 6e 77 8c 3d e6 eb 09 3e 04 40 72 3d af c4 a5 3d
       0.06858717 0.13468894 0.05914308 0.08094155
000240 9f c6 2f be c4 84 40 3d 2e b8 20 be 2a f8 1c bd
       -0.17165612 0.047001615 -0.15695259 -0.038322605
000250 79 97 41 bd 2e 80 94 bd e2 69 98 bd a3 0f 10 3e
       -0.047263596 -0.07251011 -0.074420705 0.14068465
000260 88 07 63 be dc 27 24 3d e7 e1 9e 3d 62 a0 8d 3b
       -0.22170842 0.040077075 0.07757931 0.0043220976
000270 9e 3d 12 bc 23 87 54 bd 3d d1 9d 3d 92 04 cb 3d
       -0.0089258235 -0.05188669 0.07705925 0.09912981
000280 6e 41 80 3d 4c d6 49 3c 30 1c c2 3c 2c e7 f8 3c
       0.0626248 0.012319159 0.023695081 0.030383669
000290 34 70 5e bd 98 66 b2 bd 16 f7 22 bc 41 0a b4 bc
       -0.054306224 -0.087109745 -0.009946605 -0.021977546
0002a0 9a cf 40 3e 9d e7 51 bd 28 c7 04 3e 6c ea 82 3d
       0.18829194 -0.051246274 0.12966597 0.06392369
0002b0 9a 3b 2b 3e 0c 64 e4 3d fa 51 86 39 ee 2d 55 bc
       0.16721955 0.11151895 0.0002561955 -0.013011439
0002c0 d0 63 f9 3d b1 19 01 be dd d6 b7 bb 76 e8 82 3b
       0.12177241 -0.12607457 -0.0056103305 0.0039949967
0002d0 32 34 1d be 2a 57 7f bd b4 e4 cb bd a4 b4 09 3e
       -0.15351942 -0.062338986 -0.09955731 0.13447815
0002e0 c0 10 19 be 6d 1f 04 be dc b8 4b be 00 7e 9f bc
       -0.14947796 -0.12902613 -0.19894737 -0.019469261
0002f0 ea fa 47 3e 99 3e a0 3c ec 71 31 3d f0 a0 bd 3d
       0.1952931 0.019561099 0.043321535 0.09259212
000300 38 65 cd bd 02 b3 5d bd a8 94 4f bd 31 a6 63 bd
       -0.100290716 -0.054125793 -0.05067888 -0.055578414
000310 d7 d7 c3 3c 95 fe d1 3d 03 f0 2a 3e cd ed 14 3d
       0.023906631 0.10253636 0.1669312 0.036359597
000320 a7 14 fa 3d c3 fb c8 bd fe e8 99 bd 51 f1 08 be
       0.1221097 -0.09813645 -0.07515143 -0.13373305
000330 3b 20 6e bd b3 99 ce 3c b5 64 27 bd f2 75 4a bd
       -0.058136206 0.025219774 -0.040867526 -0.049428888
000340 6b 84 4e 3d ee e2 ce 3d 3c 19 43 be 56 fc 9f 3c
       0.050419252 0.10101877 -0.19052595 0.019529503
000350 c0 15 06 3e 83 d1 bf bc c9 1a 0b be 8b 8f d8 bd
       0.13094234 -0.023415333 -0.13584436 -0.10574254
000360 ab 31 58 3c bf 5d dd bd 28 09 b2 3d 0e a0 14 be
       0.0131954355 -0.10808896 0.08693153 -0.14514181
000370 ba 06 9d 3d e7 d9 f0 3d 93 68 22 be 40 d7 e6 bd
       0.076672986 0.117603116 -0.15860204 -0.112715244
000380 b8 38 1f 3e 67 54 81 3d 39 81 62 3c c2 ee b9 bc
       0.1554898 0.063149266 0.013824754 -0.022696856
000390 d4 b7 08 3e 1f e5 ed bd 7c cb a2 3d 76 fb c9 3d
       0.13351375 -0.11615967 0.07948968 0.098624155
0003a0 5a de 67 bc ec 0a e7 bd 9b d8 93 bd 35 fd a1 3d
       -0.014152134 -0.1128138 -0.072190486 0.079096235
0003b0 94 bc 33 3e 08 91 9e 3d c8 66 53 be 8c b0 1c be
       0.17552406 0.07742506 -0.20644677 -0.15301722
0003c0 4d 98 0b be cb 2a 94 3d a0 9c 83 bd 82 4c 5b bd
       -0.13632317 0.072347246 -0.06426358 -0.05353976
0003d0 18 df 28 bd 55 fc 2e 3d 29 24 d5 3d 20 60 a6 bd
       -0.041228384 0.04272111 0.104072876 -0.08123803
0003e0 f9 46 5f bb 70 18 a7 3c 1e f6 d4 bd 61 b5 03 be
       -0.0034069403 0.020397395 -0.10398506 -0.1286216
0003f0 14 91 f6 3d da c2 ea bc 67 00 b9 bc 76 ba af bd
       0.1203939 -0.028657366 -0.0225832 -0.085804865

conv4.bias f4 [128]
000000 32 f4 7a bd b5 33 b3 bc 01 82 8b bd 6b 4d bf bc
       -0.06126804 -0.021875242 -0.06811906 -0.023352345
000010 ec 97 49 bb 95 20 5b bd 7d 05 3c bd 43 df 56 bd
       -0.0030760719 -0.05349787 -0.04590367 -0.052459013
000020 66 b5 85 bc 64 ff 2a 3c e3 ce d2 bc b7 a6 83 bd
       -0.01632185 0.010436866 -0.025733417 -0.06428283
000030 0a a4 a8 bd 8f 3e a2 3c d5 b4 8e bd 94 79 1b bd
       -0.08234413 0.01980522 -0.06968085 -0.037957743
000040 71 48 d5 bc 34 bf 54 bc 4e 49 65 bd ab 5c 33 3b
       -0.02603552 -0.0129850395 -0.055978112 0.0027368467
000050 03 e5 c2 bd 19 df 85 bd 26 8f 84 bd 21 be 01 bd
       -0.09516337 -0.06536693 -0.06472616 -0.03167546
000060 98 8c 6d bd 58 a1 cf bb f7 09 ad bb 1a e6 a1 bd
       -0.05799541 -0.0063363723 -0.005280729 -0.079052165
000070 eb f1 4b bd 91 e0 a8 bd 63 d1 f8 bc 9e c9 1b bc
       -0.049791258 -0.08245958 -0.03037328 -0.0095085185
000080 4b b4 8c bd 75 79 6e bd 2b 17 fa 3c 8f 98 5a 3c
       -0.06870326 -0.0582213 0.030528625 0.013342037
000090 c8 4f 68 bd cd e2 7d bd 2f d8 16 3b 1b 5e cf bc
       -0.05671671 -0.061983872 0.002301704 -0.025313428
0000a0 e8 ef ec bc 30 a7 53 bd 9e b7 b5 bc 29 00 36 bd
       -0.02892299 -0.051673114 -0.022182282 -0.044433746
0000b0 b7 db 77 bd 99 86 ac 3c d3 bc 5a bd 3a ee 05 bd
       -0.06051227 0.021060275 -0.053402733 -0.032697894
0000c0 3a a4 99 bd db 6c 16 bd 5b 9e 3a bd d1 aa 01 3d
       -0.07502027 -0.036724906 -0.045561176 0.031657044
0000d0 6d ec 5b 3c 3b 24 51 3c 5a 31 5f bc 91 fc 1d bd
       0.0134230675 0.012764986 -0.013622606 -0.038570944
0000e0 39 eb 57 bd ec c8 fb 3a 20 d7 91 bc 53 39 2a bc
       -0.05271456 0.001920966 -0.017802775 -0.010389644
0000f0 e9 d3 91 bc 33 80 05 3d 54 12 97 3c 74 e5 04 3c
       -0.017801242 0.032592963 0.018441357 0.0081113465
000100 65 94 ff bc e1 6c c1 bc 18 71 3e 3b 14 d8 53 bd
       -0.03119869 -0.023611488 0.0029059108 -0.05171974
000110 97 c6 86 bd 8c e6 1b bd 4f 25 31 bd 46 2f cb bc
       -0.06580847 -0.038061664 -0.04324847 -0.024802815
000120 9c 06 20 3c 0f 7c d1 bc be 8a 43 bc 54 b2 3a bd
       0.009767201 -0.025571851 -0.011934934 -0.045580223
000130 b5 01 a8 bd e5 47 89 bd 07 79 0a bd 28 29 1b bb
       -0.082034506 -0.06703166 -0.033806827 -0.0023675654
000140 55 50 e7 bc 91 1f f6 bb ce c6 d4 bd a8 fe 93 bd
       -0.028236547 -0.007511087 -0.103894815 -0.07226306
000150 79 d9 71 bd f7 3a f7 bc f5 2d f1 bc 20 fb 5d bd
       -0.05904529 -0.030179484 -0.02944086 -0.05419457
000160 2b fb 9e bc e0 a1 ac bd 20 41 d7 bc 8d 21 00 bc
       -0.019406876 -0.08429313 -0.026276171 -0.007820499
000170 33 7b 94 bd f1 88 a2 bc 0b 0b 2b bd 0a 82 e4 bc
       -0.07250061 -0.01984069 -0.04175858 -0.027894039
000180 94 80 74 3c 77 f7 bd bd 02 5a a1 3c 97 e2 6f bd
       0.014923234 -0.09275716 0.01969624 -0.058565702
000190 36 f0 0f bd 80 c1 45 bd 8c ff 2e bd 5c 11 9c bc
       -0.035141192 -0.04828024 -0.042724177 -0.019051246
0001a0 ca 62 24 bc fa af 80 bc 93 f5 be bb ec 54 29 bd
       -0.010033319 -0.015708912 -0.0058276146 -0.041340753
0001b0 ff c2 d3 bc df 41 bf 3c 9d b4 84 bd 8a 31 17 bd
       -0.025849817 0.02334684 -0.06479762 -0.03691248
0001c0 a0 66 42 bc c4 9a 6f bd 39 f8 2c 3b 2f af c1 bd
       -0.011865288 -0.058497205 0.002639307 -0.09457242
0001d0 c3 6a 44 bd 48 16 8a bc fb cf fc bb 1d 9a f1 3a
       -0.04795338 -0.016856328 -0.007715223 0.001843277
0001e0 97 a5 78 3b a6 79 cb bd 2e ca 05 bd 0d b5 1d bd
       0.0037940496 -0.09935312 -0.032663517 -0.03850274
0001f0 41 30 04 bc 91 10 1d bd c9 28 d3 bd fc 9b 75 3a
       -0.008068145 -0.038345877 -0.103105135 0.0009369252

conv4.lin.weight f4 [128, 128]
000000 cb cb a1 bd 8c a9 ae 3d b6 77 d8 bd c2 16 0a bc
       -0.079001985 0.08528432 -0.10569708 -0.008428277
000010 a9 1a 01 bc 3f 06 35 3c 3b 26 05 3e 21 2a 48 3d
       -0.007879891 0.0110488525 0.13002865 0.048868302
000020 d0 c6 a7 bd f6 76 91 bd 43 75 6b 3d 3c 82 27 3b
       -0.08192217 -0.07102768 0.057484876 0.0025559803
000030 1e 73 f0 3d 65 c3 fc 3d e9 ad a7 bc c6 e7 4f 3c
       0.11740707 0.12341956 -0.020468669 0.012689536
000040 a0 fe 75 bd 7f a5 16 be b3 a0 58 3c b9 6e a2 3c
       -0.060057282 -0.14711569 0.013221907 0.019828187
000050 95 b9 c7 bd 53 8b 0a be 55 1a ae bc c4 26 f8 3d
       -0.09752194 -0.1352971 -0.02125279 0.12116769
000060 fb 1d d0 3d bd f2 3f be c7 2d 6f be 35 fb 0c 3d
       0.10161968 -0.18744941 -0.23357306 0.034419257
000070 86 3c a4 3c 59 a4 2b be 4e 82 07 be df de 1a 3e
       0.020048391 -0.16761912 -0.13233301 0.15124081
000080 fa f6 cf 3d cd e3 02 3c 46 61 02 bd e9 23 dd 3c
       0.10154529 0.007988882 -0.03183105 0.026994662
000090 c3 d5 e0 3d 1a 39 46 be a2 8d 40 3b 51 21 0d be
       0.10978272 -0.1935772 0.0029381295 -0.1378224
0000a0 85 53 a1 3d 66 62 dd 3d e4 5f 02 be 20 af ce bd
       0.07877258 0.10809784 -0.12731892 -0.10091996
0000b0 07 41 c3 bd 2d 88 b5 3d a6 7d cf bd f6 43 4d 3d
       -0.09533887 0.08863864 -0.101313874 0.05011364
0000c0 73 d8 31 be eb 97 0f 3e ba db 31 3d 09 2f d7 bd
       -0.17367725 0.14022796 0.04342244 -0.10507018
0000d0 83 fe d8 3d 52 87 67 be ec 04 f4 3c c9 7f b2 bd
       0.10595419 -0.22610214 0.029787503 -0.08715779
0000e0 6f cf 29 3d a7 4d bd 3d 44 40 ee bd 45 a6 a0 3d
       0.04145759 0.09243327 -0.116333514 0.078442134
0000f0 0f ca e3 bd 7b 73 09 bc 81 1e 61 bd ad 49 cd bd
       -0.11122524 -0.008389349 -0.05496073 -0.10023818
000100 b8 aa 2c 3d c9 c6 12 be 04 b6 e8 3d 71 fa 94 3c
       0.042154998 -0.14333643 0.11362842 0.018185826
000110 b9 ad 03 be 92 14 83 3c 16 93 d3 3d a6 6c 21 be
       -0.12859239 0.01600102 0.10330789 -0.15764102
000120 ef 05 0a 3e c5 f0 d0 bc 40 d7 b3 3c 92 94 7d bb
       0.13478826 -0.025505433 0.021953225 -0.003869329
000130 08 ee 89 3d 5e 1e f0 3d 72 66 df bd 74 b5 a5 bc
       0.06734854 0.11724542 -0.10908212 -0.020228125
000140 8e 87 c0 bd ce 63 65 bd b8 20 6c bc 45 57 f1 bd
       -0.09400855 -0.056003384 -0.014412098 -0.117842235
000150 ad f7 e9 bd d3 0f 30 3d de 7d ab 3d be 2e 0d be
       -0.114241935 0.04298384 0.08373617 -0.13787362
000160 9a 76 08 3e c4 62 15 bc 1e b7 c3 3d 58 f8 c5 bd
       0.13326493 -0.009117786 0.09556411 -0.096665084
000170 79 65 d7 3d 45 dc 9a 3d 01 69 67 bd 13 ce c0 bd
       0.10517401 0.07561544 -0.056496624 -0.094143055
000180 91 ea 2f bc 00 d6 c8 3d 97 64 a9 bd 39 1d 6f 3d
       -0.010737077 0.09806442 -0.08271139 0.05837748
000190 9a 96 e5 bc 25 18 c9 3b 67 63 de bd e6 cc 80 3d
       -0.028025914 0.0061369115 -0.10858803 0.06289081
0001a0 03 3b 5b 3d 24 04 63 3c 33 1a 0d bc 76 1b 11 3e
       0.053523075 0.013855968 -0.008612203 0.14170632
0001b0 d6 f4 d0 3d d9 1b 5f 3d ab b0 a3 bd bd 31 86 3c
       0.10202949 0.054469917 -0.07992681 0.016381139
0001c0 53 39 6e bd 9f db e8 bd 0f 5f 58 3c 05 14 c0 3d
       -0.058160137 -0.113700144 0.0132062575 0.093788184
0001d0 0e c5 8e 3c 80 04 a4 3d ce 60 34 3d a4 a9 ff bc
       0.017427947 0.08008671 0.044037633 -0.03120882
0001e0 0b 69 aa bd ac 8f d3 3d 4d 67 c4 3c 73 df 26 bd
       -0.083208166 0.103301376 0.023975039 -0.04074044
0001f0 4d 3d e2 3d 3a d3 04 3e ad bb 1e bd 52 03 17 3d
       0.110468484 0.12971202 -0.0387532 0.0368684
000200 7d ed cf bd 40 cd 58 bd 2b 97 ba bd f1 0e 95 3d
       -0.10152719 -0.052930117 -0.09110864 0.072782405
000210 f6 c5 88 bd b8 d4 fe 3d 9e e8 89 bd 63 5d e5 bd
       -0.06678383 0.12442917 -0.06733821 -0.11199453
000220 e5 4b e2 bd e1 5d 00 bd 46 4a 26 ba 2b 64 e9 3c
       -0.11049632 -0.03133953 -0.0006343465 0.028490147
000230 47 f4 f0 3d 7b 4b ae bd 41 51 23 be 5f 2d cb 3d
       0.11765342 -0.085104905 -0.15948965 0.09920763
000240 9a dd 9b bd da 6f b9 3c f1 57 c3 bd 9d 3a bc bd
       -0.076106265 0.022636343 -0.09538258 -0.09190867
000250 0e 26 23 bc 81 04 c8 bc 49 31 c6 bd a6 49 55 bd
       -0.009957803 -0.02441621 -0.09677369 -0.05207219
000260 f3 b4 3d bd 31 d3 2e 3d 3f 85 a2 3d de f6 98 bb
       -0.046315145 0.042681877 0.07935571 -0.0046681007
000270 10 a5 ec bd 22 4f 31 bd b1 ba ba bd 6b b9 8f 3d
       -0.11554921 -0.043288358 -0.0911764 0.070177875
000280 ff 90 33 bd 8d 16 90 bd 0e 36 81 bd 53 41 be bc
       -0.04383945 -0.07035551 -0.06309138 -0.023224508
000290 0a ed 00 be 3c fd ab bd a0 89 4a bb 52 bc 43 bd
       -0.12590423 -0.0839791 -0.0030904785 -0.047787018
0002a0 ba e1 b8 3c 7f 47 bc 3d 28 5b 4b 3b 08 33 63 3c
       0.022568572 0.09193324 0.0031029675 0.013867147
0002b0 dc 95 23 bd 86 0b 47 3c 76 a7 01 bd 24 de c8 bc
       -0.03993784 0.0121487435 -0.031653844 -0.024519987
0002c0 23 98 dc 3d 2f 41 1e be a0 d3 9d bd eb 9c 9b 3c
       0.10771205 -0.15454553 -0.0770638 0.018995723
0002d0 fb 64 be 3c 51 27 98 bd c3 6e 1e be 82 5f a3 3d
       0.02324151 -0.07429374 -0.1547194 0.07977201
0002e0 5c 5f 54 3c 59 3b 41 3b c1 e5 0e bd 40 b5 81 bd
       0.012962189 0.0029484837 -0.03488708 -0.06333399
0002f0 d0 f2 8a 3d 22 af 94 bc 21 e7 d6 3d 72 4d 19 bd
       0.06784594 -0.018149916 0.10493303 -0.037427373
000300 73 e4 42 3d fe 46 4c be f5 a5 90 3b 4c 39 dc bd
       0.047581147 -0.19948956 0.004414315 -0.10753116
000310 13 7d 04 3e ad 91 2c 3d 77 29 a0 3c b1 21 52 bd
       0.12938337 0.042131115 0.019551022 -0.051301662
000320 d0 63 ad bd e2 cd d9 bd 78 03 0c bd 6f 1d c6 bc
       -0.08466303 -0.10634972 -0.034182996 -0.024183957
000330 a4 55 37 3d ec d4 0d 3e ec 2f 10 be df 4c b1 3d
       0.044759408 0.13850754 -0.1408078 0.0865724
000340 8b a8 17 be 8d a1 31 bd c2 44 02 3e 26 18 8e 3d
       -0.14810388 -0.043366957 0.12721542 0.069382
000350 0c eb 93 bd 47 d2 64 bc 0b 88 c3 bd 5f 6b 37 be
       -0.07222566 -0.01396615 -0.095474325 -0.17912053
000360 67 3b eb 3d 6f ab 8e bd 46 d8 8b bd d6 09 bd 3c
       0.114859395 -0.06966292 -0.0682836 0.02307598
000370 cd 69 3a 3d 9a 78 a9 3d 99 4d 12 3b 61 0a 10 bd
       0.045511056 0.08274956 0.0022324084 -0.035166148
000380 b7 86 55 bd 37 a2 77 3d 46 c8 5e bd f4 a4 54 3c
       -0.052130427 0.060457435 -0.054390214 0.012978781
000390 26 03 2e be 27 cb 07 bd 0d 91 1e 3d 9d e6 3d bc
       -0.16993389 -0.033152726 0.03871255 -0.011590627
0003a0 e9 0e e7 bd 56 82 2b 3d 4c b3 85 bc 6a be 7d bc
       -0.11282141 0.041872345 -0.016320847 -0.015487293
0003b0 72 9b 4e 3d da 65 f0 bc dc a3 1a 3b ad e4 66 b9
       0.050441213 -0.029345442 0.0023596203 -0.00022019698
0003c0 da 61 a9 3d 82 ca 13 3e ff cf 93 bd 01 21 a7 bd
       0.08270617 0.1443272 -0.072174065 -0.08160592
0003d0 7c 4b fe 3d c1 af 5c bd 2a 71 40 bd 52 56 58 3c
       0.12416741 -0.05387855 -0.04698292 0.013204174
0003e0 67 41 1d be 3a 18 38 bd 39 f1 a0 bd 60 e2 57 bb
       -0.1535698 -0.04494498 -0.078585096 -0.0032941326
0003f0 c6 78 1c be a7 19 3a 3d 5e 8f c0 bd fd 3f d5 bb
       -0.15280446 0.04543462 -0.09402345 -0.006507872

conv5.bias f4 [256]
000000 30 29 dc b5 4e 9e ac b5 38 a8 7e 35 21 dd c3 37
       -1.6403264e-06 -1.2861071e-06 9.4867164e-07 2.3348783e-05
000010 78 4d 86 b6 11 c5 f0 36 95 29 a0 b6 a1 b9 6d 36
       -4.0025297e-06 7.175499e-06 -4.7732124e-06 3.5423802e-06
000020 8a 4f 59 36 55 ff 87 37 fa de 45 b5 b9 92 b7 36
       3.2381818e-06 1.6212152e-05 -7.371269e-07 5.4709058e-06
000030 80 aa 60 36 db 8c 72 b6 15 75 19 b7 42 19 24 b6
       3.3477845e-06 -3.6142799e-06 -9.146771e-06 -2.4452606e-06
000040 da 2e 32 36 c4 e4 09 b7 ea a0 0e b7 62 a4 2a 36
       2.6551338e-06 -8.2191e-06 -8.501325e-06 2.5427657e-06
000050 09 8a 1c 36 33 1e 25 36 83 58 b6 35 ed d7 06 b7
       2.3326158e-06 2.4604494e-06 1.3585817e-06 -8.0372965e-06
000060 67 08 35 35 48 b1 0d b5 76 2d 14 b7 af 91 d4 b6
       6.743998e-07 -5.278457e-07 -8.832072e-06 -6.335052e-06
000070 42 bb 98 b7 dc 6b 5c 36 cb 3c 1b 37 76 5f 8c b7
       -1.820701e-05 3.2845337e-06 9.252874e-06 -1.6733753e-05
000080 0d 3a c0 b6 77 e5 53 36 f7 33 0c b6 1f 24 21 b6
       -5.728804e-06 3.1575016e-06 -2.0891873e-06 -2.4011895e-06
000090 a3 95 8f b6 a1 dc 9c b6 c1 91 83 b7 83 d3 3e 36
       -4.279152e-06 -4.674847e-06 -1.5684289e-05 2.8435322e-06
0000a0 5f 24 e3 36 ab fc 62 b6 aa 82 27 37 f2 dc 03 b7
       6.7693613e-06 -3.3823696e-06 9.984398e-06 -7.859651e-06
0000b0 96 95 48 36 44 2a 07 b7 e6 5b 55 37 16 69 26 37
       2.9889393e-06 -8.056468e-06 1.2717186e-05 9.918838e-06
0000c0 a8 b7 7d b6 df 0e ea 35 51 59 83 b5 31 87 e4 36
       -3.780684e-06 1.7438687e-06 -9.786255e-07 6.810668e-06
0000d0 c0 b3 6b 36 9f 88 d5 36 6d 5f 45 b6 c7 af f5 34
       3.5122357e-06 6.3637995e-06 -2.9410833e-06 4.57627e-07
0000e0 51 79 96 36 3b 47 d9 b5 49 b9 f3 b5 aa 72 91 37
       4.4844714e-06 -1.6188491e-06 -1.8158836e-06 1.7338742e-05
0000f0 f1 94 0c 35 73 a6 6f 36 7b 03 37 b6 c7 c9 5d 36
       5.23708e-07 3.5710661e-06 -2.727115e-06 3.3049016e-06
000100 55 76 7d b7 d9 f7 1e b7 42 0d a9 b7 a2 40 5a 36
       -1.5107526e-05 -9.47524e-06 -2.0152544e-05 3.2522153e-06
000110 3f 3a 2a 33 a8 24 bc b6 87 99 c4 b6 6e e4 e4 b5
       3.9634184e-08 -5.607104e-06 -5.859128e-06 -1.7053806e-06
000120 f8 2c 72 b7 28 17 34 b6 41 94 38 37 73 63 65 b7
       -1.4434794e-05 -2.6835569e-06 1.1001773e-05 -1.36726185e-05
000130 67 00 a4 b5 0e 64 43 36 e7 d7 ec b6 80 2c 14 b6
       -1.2219069e-06 2.9115504e-06 -7.0584824e-06 -2.207962e-06
000140 27 56 73 b7 dc 02 83 36 2e ce 77 37 d6 fe 01 b8
       -1.4503988e-05 3.904437e-06 1.4770352e-05 -3.099333e-05
000150 0f 4d 04 37 87 5f c6 36 ec 0a 06 b7 3b 64 5f 36
       7.885755e-06 5.9119807e-06 -7.989565e-06 3.3287931e-06
000160 df fa 5d b7 19 e8 00 36 80 3f c6 b4 a2 16 71 b5
       -1.3231037e-05 1.9208585e-06 -3.6926576e-07 -8.981243e-07
000170 f1 6d 80 b6 95 75 13 b7 7e ff df 36 b7 8f 0c 37
       -3.827496e-06 -8.7892595e-06 6.675661e-06 8.3781115e-06
000180 3f 47 d6 b6 1c e9 1c b6 20 67 68 37 32 a6 83 b6
       -6.385991e-06 -2.33815e-06 1.3852288e-05 -3.923452e-06
000190 46 77 82 b7 92 fa 7e b7 68 ea 94 35 fc 1c f3 b6
       -1.5552749e-05 -1.519792e-05 1.109508e-06 -7.2453386e-06
0001a0 22 59 e6 b6 27 7d e7 b6 c0 0c 2b b7 b0 f1 4a b6
       -6.8649106e-06 -6.898906e-06 -1.0195363e-05 -3.0241026e-06
0001b0 5c 03 e5 36 ec ff b4 b6 75 cb 46 b6 66 69 32 36
       6.825123e-06 -5.3942113e-06 -2.9622727e-06 2.6585417e-06
0001c0 78 3e 1f b7 1c 91 69 b5 94 c6 56 36 d8 78 91 b7
       -9.491683e-06 -8.7010426e-07 3.2004073e-06 -1.734162e-05
0001d0 4b 64 87 b4 73 69 fa 36 8b 16 4a 36 97 d7 41 35
       -2.5218682e-07 7.4628565e-06 3.0113467e-06 7.221183e-07
0001e0 ab 1f f6 34 e8 53 ba 35 1e 9c 2a b7 ef 74 5b 35
       4.5844112e-07 1.38825e-06 -1.01691385e-05 8.175402e-07
0001f0 7f f5 44 37 c9 b4 33 35 64 0b 06 b7 4c 0c 1a 35
       1.1739669e-05 6.6945773e-07 -7.9896745e-06 5.7387365e-07
000200 f9 84 d9 36 00 d7 a0 b6 77 3c 92 b6 1f a0 93 37
       6.482584e-06 -4.793401e-06 -4.358178e-06 1.7598328e-05
000210 c9 4b cc 35 b2 9e 13 37 76 31 13 36 75 49 19 b6
       1.5221241e-06 8.798832e-06 2.1933497e-06 -2.2841534e-06
000220 cf a1 a6 b5 09 db a1 35 ae ef be 36 a6 62 ec 36
       -1.2415056e-06 1.2059182e-06 5.6903436e-06 7.0448323e-06
000230 2f 6f 80 36 8b ea 15 37 87 5a 62 36 2d a7 06 37
       3.8276407e-06 8.935701e-06 3.3729318e-06 8.025946e-06
000240 de cf a7 37 79 bc 97 36 79 af 49 b5 aa 56 37 b7
       2.0004747e-05 4.522092e-06 -7.513368e-07 -1.0927828e-05
000250 65 32 b8 36 db 20 95 36 e9 f5 f4 b6 d1 db 8e 36
       5.489494e-06 4.444371e-06 -7.3003944e-06 4.25752e-06
000260 08 6d b1 b5 3a 47 87 36 e1 72 33 b6 38 bf f8 b5
       -1.321926e-06 4.0316054e-06 -2.6739947e-06 -1.8533092e-06
000270 e2 6b de 35 13 ab 0b b7 e6 55 15 37 d2 ee 40 36
       1.6571687e-06 -8.324877e-06 8.901092e-06 2.8749241e-06
000280 d2 2e 15 33 82 be 19 b6 a1 e9 89 37 db d8 51 37
       3.473435e-08 -2.2909667e-06 1.6440465e-05 1.2507861e-05
000290 66 f0 45 b6 76 87 d9 b6 61 fa bb b7 30 bf 69 36
       -2.9495218e-06 -6.4828737e-06 -2.2408729e-05 3.4830991e-06
0002a0 b1 c3 ba b4 5c 15 12 b6 f5 e3 a0 b6 6b e3 7d 37
       -3.4787584e-07 -2.1768128e-06 -4.7949093e-06 1.5132925e-05
0002b0 38 4b f7 35 69 a6 1f 37 6f 26 2f b7 5e c8 03 b7
       1.8424826e-06 9.515884e-06 -1.0439761e-05 -7.85486e-06
0002c0 64 c2 1d 37 1d a9 4a b7 83 3a db 35 5c 1f c9 36
       9.403189e-06 -1.2079513e-05 1.6333801e-06 5.9939175e-06
0002d0 90 9e 23 37 f3 1b 94 b6 12 6c 02 37 da ab 9f b5
       9.752475e-06 -4.4139974e-06 7.773766e-06 -1.1896439e-06
0002e0 d7 ee 85 b6 ff ef 81 b6 93 db e3 35 df 85 0d b7
       -3.9915135e-06 -3.872439e-06 1.6976722e-06 -8.435424e-06
0002f0 f4 b6 50 36 13 1a 04 36 2e c1 8d b6 a6 e3 f7 b5
       3.1100908e-06 1.968471e-06 -4.2246165e-06 -1.8469188e-06
000300 f4 70 45 37 c5 6f 9d 36 33 80 f8 36 eb 7b 34 b6
       1.1768414e-05 4.6919763e-06 7.4059003e-06 -2.689422e-06
000310 b4 96 ec 36 e8 5c 2c 37 ac ba e7 b6 43 e3 97 36
       7.0508922e-06 1.027363e-05 -6.906068e-06 4.5266074e-06
000320 fb ed 1c b6 8f c2 33 36 1c 8a 99 b5 64 62 c2 b6
       -2.3384334e-06 2.6786327e-06 -1.1439583e-06 -5.7931047e-06
000330 15 ea 04 b6 65 46 8a b6 c2 f7 14 37 0f 1e 1f 37
       -1.9805786e-06 -4.1209155e-06 8.879173e-06 9.484137e-06
000340 c5 03 8b b5 e0 76 3a b6 57 16 c1 b6 30 7a 09 36
       -1.0357404e-06 -2.7785354e-06 -5.754449e-06 2.0485713e-06
000350 9b 08 8c b5 86 1f 72 b6 27 be ba 35 40 65 12 36
       -1.0433317e-06 -3.607916e-06 1.3913422e-06 2.181463e-06
000360 d3 d7 b5 36 0e 64 9b b7 58 7a 32 b6 fe f6 36 35
       5.4193456e-06 -1.8524031e-05 -2.659528e-06 6.8159704e-07
000370 88 8f 5c 37 0d 56 4c b6 60 0a cf b4 c8 96 8d 36
       1.314644e-05 -3.0448457e-06 -3.8564303e-07 4.2196807e-06
000380 41 6d 28 36 b5 4f 3c 37 2d 6c db 36 3a 86 81 35
       2.5097545e-06 1.12242315e-05 6.539302e-06 9.650314e-07
000390 19 ce b7 b6 60 76 44 b7 1d 29 b3 36 b4 fd bf b5
       -5.477818e-06 -1.1710072e-05 5.339402e-06 -1.4304446e-06
0003a0 16 c9 27 37 f5 2d c1 37 0f 77 57 b6 50 0d d2 36
       1.0000795e-05 2.3028793e-05 -3.2106798e-06 6.2600375e-06
0003b0 ae e3 72 36 26 30 a3 b6 d7 06 10 35 4e fe a5 b3
       3.6193337e-06 -4.8633838e-06 5.3654134e-07 -7.729669e-08
0003c0 b7 70 98 b6 42 3d bd b6 f4 a0 2d b3 bc 88 69 36
       -4.5430747e-06 -5.6397703e-06 -4.0426087e-08 3.4799295e-06
0003d0 84 a6 2f 37 50 c5 1f b5 ed 62 94 b6 d5 64 b3 37
       1.0469583e-05 -5.9519243e-07 -4.42226e-06 2.1385416e-05
0003e0 9b 33 f6 b5 00 d1 8c b4 9b 1f 2e b6 d6 1d 81 35
       -1.8343447e-06 -2.62291e-07 -2.5946417e-06 9.619932e-07
0003f0 87 53 c5 36 27 96 33 35 d3 81 1d 37 25 81 6c 37
       5.8807814e-06 6.6901197e-07 9.388156e-06 1.4096765e-05
