weights/6-18-0_split_1.pt (torch, 276326 bytes, 26 tensors)

conv1.bias f4 [64]
-9.778239e-06 -6.700538e-06 6.749299e-06 1.07768665e-05 1.8802879e-05 -2.8772063e-06 -9.468861e-06 3.4338598e-06
2.7744754e-05 -3.6362267e-06 -2.860792e-06 -1.298638e-05 3.6083227e-05 -8.4246585e-06 1.1422102e-05 -4.693628e-07
-9.603359e-06 -1.5105158e-05 5.6718613e-06 -4.861956e-06 -5.2423056e-06 9.97562e-06 -1.2975753e-06 1.3843102e-06
-5.423159e-07 -1.5146517e-06 -9.3076756e-07 -1.0667067e-06 2.4745761e-06 8.613647e-06 -4.1594562e-06 3.8694166e-06
1.7813238e-06 1.30212e-06 2.6272721e-06 -6.4155265e-06 3.4209428e-05 1.0724181e-05 -4.2607985e-06 -3.0578647e-06
-3.5817054e-06 3.565789e-06 -1.434005e-06 -8.871351e-06 -1.8640366e-06 3.478743e-06 8.70427e-06 -4.459271e-06
4.5966963e-06 -8.784279e-06 -3.1304724e-06 -1.7129817e-06 1.1598952e-06 3.8221697e-06 2.5609365e-06 1.6972485e-06
1.1485228e-05 -6.661598e-06 2.3654868e-06 5.1866305e-06 1.1712269e-06 -2.2410199e-05 3.412129e-06 -1.11039e-06
00000000: 370d 24b7 2fd5 e0b6 0978 e236 4ace 3437
00000010: e0ba 9d37 0716 41b6 73dc 1eb7 4371 6636
00000020: 68bd e837 e605 74b6 08fc 3fb6 14e0 59b7
00000030: 1258 1738 a257 0db7 8ea1 3f37 bbfc fbb4
00000040: 1d1e 21b7 296c 7db7 eb50 be36 e223 a3b6
00000050: 10e7 afb6 f65c 2737 5928 aeb5 89cc b935
00000060: aa93 11b5 094b cbb5 dcd9 79b5 c32b 8fb5
00000070: e510 2636 5583 1037 7591 8bb6 09d6 8136
00000080: d215 ef35 81c4 ae35 3150 3036 f444 d7b6
00000090: 187c 0f38 02ec 3337 fbf7 8eb6 b735 4db6
000000a0: 3b5d 70b6 ca4b 6f36 0978 c0b5 2ad6 14b7
000000b0: cf2f fab5 5a74 6936 8e08 1237 d9a0 95b6
000000c0: 523d 9a36 3160 13b7 1b15 52b6 9ae9 e5b5
000000d0: b2ad 9b35 3040 8036 8edc 2b36 04cd e335
000000e0: aeb0 4037 b186 dfb6 c1be 1e36 d108 ae36
000000f0: 0d33 9d35 89fd bbb7 eefb 6436 b608 95b5

conv1.lin.weight f4 [64, 2]
-0.24106854 -0.05072543 -0.0018132403 0.22407585 0.055662926 -0.024036461 -0.1377993 0.0016106106
-0.01852023 -0.13597181 0.13974653 0.25667217 0.03405122 0.16553663 -0.10519308 0.1877659
0.10594925 -0.04312583 0.060468115 0.14866988 -0.15363652 0.05066797 -0.0053728893 -0.2192525
-0.026594259 -0.04970438 0.1151916 0.05693054 -0.072954535 -0.16113594 0.21422301 0.2082009
-0.17585607 -0.042812455 0.067884095 -0.25134975 0.05020321 0.28339687 -0.07680473 0.28525114
0.24033724 0.11457946 -0.3100485 0.04790766 -0.16287981 -0.18545021 0.22050434 -0.012586406
0.24725133 0.031653848 -0.086114965 -0.13188618 0.11929084 0.18505342 -0.22180851 -0.061554212
0.090038046 -0.24643523 0.00052561745 -0.108575426 -0.07230902 -0.2871217 -0.18986754 0.21374808
0.1581126 0.13808785 0.3042034 -0.11672112 -0.28286988 0.16783498 0.08178963 0.22322652
-0.056659374 0.021442499 0.12817481 -0.004435371 0.11715995 0.27797735 -0.334983 0.22092435
-0.25585645 0.27706113 0.122669354 0.037011866 -0.16470185 -0.21305369 0.10809215 0.17130129
-0.16555685 0.2134335 -0.23918739 0.26139218 0.21574083 0.16969101 0.002775955 -0.239549
0.03267308 0.03354614 0.06328293 0.07110163 0.20122045 0.0149188135 0.107709885 0.058630783
-0.22720432 0.17083283 0.031519927 0.13162231 0.23009211 -0.079341285 -0.008638188 -0.18879442
-0.17675164 0.1880408 -0.09227687 0.31910828 0.20112632 0.067014754 0.29824507 -0.0029401937
0.002182559 0.29737929 -0.098803006 -0.3059485 0.17904656 -0.14966296 -0.32507265 0.10067373
00000000: acda 76be 78c5 4fbd 40aa edba 2474 653e
00000010: cffe 633d 1de8 c4bc 421b 0dbe 201b d33a
00000020: bdb7 97bc 323c 0bbe b719 0f3e 896a 833e
00000030: 4b79 0b3d 6f82 293e 786f d7bd b445 403e
00000040: ecfb d83d b6a4 30bd 6aad 773d eb3c 183e
00000050: e452 1dbe 3889 4f3d 100f b0bb ba83 60be
00000060: 34dc d9bc d296 4bbd 93e9 eb3d ff2f 693d
00000070: 3069 95bd d200 25be 475d 5b3e 9e32 553e
00000080: 9d13 34be 1d5c 2fbd d106 8b3d eab0 80be
00000090: e2a1 4d3d 6519 913e cc4b 9dbd 700c 923e
000000a0: f71a 763e a3a8 ea3d adbe 9ebe d33a 443d
000000b0: f7c9 26be a9e6 3dbe e4cb 613e 3737 4ebc
000000c0: 742f 7d3e 77a7 013d 0b5d b0bd 2c0d 07be
000000d0: c24e f43d a57e 3d3e c521 63be 4520 7cbd
000000e0: de65 b83d 8459 7cbe 97c9 093a cb5c debd
000000f0: c016 94bd 9e01 93be a36c 42be c7e0 5a3e
00000100: 45e8 213e e766 0d3e 8cc0 9b3e 7c0b efbd
00000110: 52d4 90be efdc 2b3e 5281 a73d 7e95 643e
00000120: a913 68bd 2ea8 af3c 4240 033e 9756 91bb
00000130: 8ef1 ef3d 0c53 8e3e e482 abbe fe39 623e
00000140: 9eff 82be f5da 8d3e 123a fb3d c199 173d
00000150: 9aa7 28be bf2a 5abe 6b5f dd3d 9b69 2f3e
00000160: bc87 29be 508e 5a3e 8aed 74be 32d5 853e
00000170: 2aeb 5c3e 7bc3 2d3e ccec 353b 554c 75be
00000180: 35d4 053d ad67 093d 7b9a 813d bb9d 913d
00000190: bc0c 4e3e 0a6e 743c 0097 dc3d d526 703d
000001a0: 40a8 68be cdee 2e3e 0a1b 013d 00c8 063e
000001b0: 449d 6b3e af7d a2bd 3087 0dbc 5353 41be
000001c0: 62fe 34be c48d 403e a8fb bcbd 2962 a33e
000001d0: 0ff4 4d3e 083f 893d 94b3 983e 44b0 40bb
000001e0: 4409 0f3b 1942 983e 3b59 cabd 48a5 9cbe
000001f0: fb57 373e 3f41 19be ec6f a6be 072e ce3d

conv2.bias f4 [64]
-0.012797635 0.09670437 -0.015411889 -0.076963514 -0.040386472 0.020620018 -0.08026291 -0.05912726
-0.12923375 0.024531275 -0.11075806 0.14832093 -0.054688074 -0.0786116 -0.06626255 -0.0028054812
-0.07550691 0.005853483 -0.12651424 0.0004346269 -0.052283663 -0.0937771 -0.011857091 0.002780674
-0.02522668 -0.07189011 -0.045947675 -0.08584582 0.059181448 -0.1165696 -0.10534084 0.06429853
-0.20439433 -0.035446554 -0.120050766 -0.12183436 -0.14332093 -0.05637708 -0.12865293 -0.09985634
0.06534048 -0.03210222 -0.17071566 0.016684659 0.008026666 -0.06849279 0.021995043 0.043410514
-0.05756708 -0.2184363 -0.08605285 -0.12219966 0.076771125 0.110577345 -0.0788284 0.08386969
-0.15727434 -0.050007056 -0.037412453 0.05105658 -0.014790387 -0.09802703 -0.13321672 -0.027617808
00000000: 2cad 51bc f10c c63d 2682 7cbc 0c9f 9dbd
00000010: 496c 25bd 50eb a83c e160 a4bd 6d2f 72bd
00000020: da55 04be d0f5 c83c 1fd5 e2bd 71e1 173e
00000030: 9a00 60bd 1eff a0bd a9b4 87bd 2adc 37bb
00000040: 5ea3 9abd 93ce bf3b f38c 01be a3de e339
00000050: 6527 56bd 350e c0bd 3f44 42bc f83b 363b
00000060: 2fa8 cebc 1f3b 93bd a133 3cbd efcf afbd
00000070: 3f68 723d 0bbc eebd f0bc d7bd f3ae 833d
00000080: bf4c 51be 6830 11bd 2ddd f5bd 4b84 f9bd
00000090: b9c2 12be a7eb 66bd 98bd 03be 7b81 ccbd
000000a0: 3bd1 853d 9e7d 03bd 16d0 2ebe 44ae 883c
000000b0: 4782 033c f345 8cbd f32e b43c 39cf 313d
000000c0: 75cb 6bbd c4ad 5fbe 7a3c b0bd d143 fabd
000000d0: 2e3a 9d3d 6076 e23d c970 a1bd dfc3 ab3d
000000e0: 860c 21be 33d4 4cbd cd3d 19bd b420 513d
000000f0: 6153 72bc 65c2 c8bd f769 08be be3e e2bc

conv2.lin.weight f4 [64, 64]
-0.010231177 -0.07596197 -0.14452262 -0.1259452 -0.06071393 -0.042214327 0.075630076 -0.090641096
-0.044667523 -0.14224172 -0.1455442 -0.12811871 -0.1722134 -0.055618305 0.006534718 -0.28067675
0.09512483 0.20211978 0.09381816 -0.09833961 -0.25783953 -0.0023442185 -0.20097454 0.15692987
0.17484488 -0.20946598 -0.21992746 -0.24825887 -0.06290613 -0.020647282 -0.13393664 -0.15743937
-0.06731691 0.11643788 -0.14123711 -0.1465556 -0.017364088 -0.21209763 -0.009024153 0.036392875
0.034670696 -0.10139665 0.16373885 -0.103916794 0.17799695 -0.17125732 -0.09580048 0.118594445
0.14383584 -0.19720124 0.08102829 0.051318068 -0.13749598 -0.011754976 0.1394552 0.045098547
-0.23903683 -0.14026137 0.101396 0.18441088 -0.040992882 0.0849142 -0.164621 -0.19991596
-0.1892935 0.054390546 0.18609264 -0.27178696 -0.13350779 -0.19817366 0.07103751 -0.16735992
-0.19040744 0.033341765 -0.10191116 -0.066633195 -0.13996723 -0.10460658 0.056218617 -0.18291126
-0.24096598 -0.0941852 -0.10974439 0.14657266 -0.1951521 0.12775849 -0.21006146 0.17098847
-0.24781227 -0.2134037 0.019634258 -0.28128457 -0.096707664 -0.034052465 0.14086992 -0.0031401045
0.06201455 0.060331184 -0.07513008 -0.01747475 -0.17577383 0.14593361 0.07829111 0.1971472
0.11201773 -0.20353757 -0.2874869 -0.024759093 -0.01209329 -0.010655908 -0.08546566 0.12565942
-0.009484036 0.100117825 0.1421163 -0.24550201 0.03259687 0.17741647 0.043971498 0.09128361
-0.02347188 0.11872251 -0.15804803 0.07819154 0.18891457 -0.07913692 0.12674704 -0.20764346
0.12186789 -0.16055629 0.080229014 0.12895222 0.11028338 -0.32764933 -0.16449256 -0.16266717
0.19517216 -0.14737771 -0.15385337 0.073616356 -0.14820842 0.114017524 0.05384501 0.03296631
0.085015416 -0.057255983 -0.19146046 0.12573998 -0.18660364 -0.018391699 -0.048781388 0.08329981
0.14859177 -0.22962654 0.011645056 0.18178922 0.14301823 -0.06860816 -0.13023828 -0.12565444
-0.2470194 0.11749938 -0.17110915 -0.19684847 -0.11032021 0.09645043 -0.36649 0.1707009
0.0069074077 0.109192125 0.023098188 -0.23926379 -0.14717712 0.08532967 0.11076958 -0.11595576
-6.4741136e-05 -0.02939636 -0.19503483 -0.17450155 0.11126976 -0.2961006 0.05897311 -0.11337359
0.028399255 -0.1355486 -0.04322447 -0.20178235 -0.1724051 -0.15901731 -0.1956447 0.12477835
0.08012521 -0.17221555 -0.16042106 0.1609911 0.031667966 -0.1296044 0.049188856 -0.07174186
-0.057222713 0.0338322 -0.050218917 -0.22657868 -0.15821639 -0.029767485 -0.07222105 -0.027837055
0.024581177 -0.15496328 0.09288253 0.12896402 -0.0069513055 -0.06497897 0.13230206 -0.052424967
-0.02422293 0.0019528378 0.14328372 -0.12641689 -0.05247661 -0.19105582 0.114545666 -0.21451806
0.036916543 -0.067595445 0.12582506 0.0816473 -0.22359367 0.06437004 0.12659976 0.12803796
0.12100196 -0.04683022 -0.25365475 -0.07257472 0.0051913974 -0.023979425 -0.15767595 -0.23946129
0.08106708 -0.17555572 -0.19942196 0.006915798 0.14158092 0.14692555 0.055716075 -0.15551606
0.021814877 0.17372443 -0.13687842 -0.17119965 -0.05304018 -0.019603163 0.18226404 -0.0017106119
00000000: aba0 27bc f391 9bbd bdfd 13be c7f7 00be
00000010: 2baf 78bd eee8 2cbd f1e3 9a3d 0aa2 b9bd
00000020: 4bf5 36bd d0a7 11be 8a09 15be 8d31 03be
00000030: b658 30be 05d0 63bd 3021 d63b ddb4 8fbe
00000040: cfd0 c23d 7df8 4e3e bc23 c03d 4766 c9bd
00000050: 8b03 84be 76a1 19bb 45cc 4dbe 39b2 203e
00000060: 890a 333e 407e 56be aa34 61be 9337 7ebe
00000070: eed4 80bd 7d24 a9bc b026 09be c937 21be
00000080: 73dd 89bd fc76 ee3d 76a0 10be ac12 16be
00000090: 223f 8ebc 1f30 59be 0bda 13bc b210 153d
000000a0: dc02 0e3d 0ca9 cfbd 28ab 273e 54d2 d4bd
000000b0: d544 363e 145e 2fbe 0b33 c4bd a5e1 f23d
000000c0: b449 133e 1fef 49be 29f2 a53d e532 523d
000000d0: bfcb 0cbe f197 40bc 58cd 0e3e 41b9 383d
000000e0: 12c6 74be ada0 0fbe b5a8 cf3d 35d6 3c3e
000000f0: 27e8 27bd 7fe7 ad3d 6892 28be c5b6 4cbe
00000100: 28d6 41be 9fc8 5e3d 128f 3e3e a927 8bbe
00000110: 44b6 08be 09ee 4abe 1d7c 913d 6660 2bbe
00000120: 2bfa 42be 6091 083d ccb6 d0bd fc76 88bd
00000130: 9253 0fbe fa3b d6bd 7e45 663d 174d 3bbe
00000140: c9bf 76be 2ce4 c0bd abc1 e0bd 2517 163e
00000150: f4d5 47be 1fd3 023e 5a1a 57be 9a17 2f3e
00000160: 80c2 7dbe 8086 5abe 06d8 a03c 8804 90be
00000170: ab0e c6bd 997a 0bbd 3440 103e 36ca 4dbb
00000180: f802 7e3d d51d 773d cddd 99bd 3527 8fbc
00000190: 0efe 33be 9f6f 153e 1757 a03d f5e0 493e
000001a0: 8d69 e53d 276c 50be 7c31 93be 95d3 cabc
000001b0: ef22 46bc 1e96 2ebc 9f08 afbd ddac 003e
000001c0: ee62 1bbc 930a cd3d ef86 113e e164 7bbe
000001d0: 4c84 053d aaac 353e 751b 343d e7f2 ba3d
000001e0: 1a48 c0bc ca24 f33d 58d7 21be e322 a03d
000001f0: d272 413e 8a12 a2bd fac9 013e 7da0 54be
00000200: df95 f93d de68 24be 1c4f a43d 0d0c 043e
00000210: 41dc e13d a7c1 a7be bd70 28be 3992 26be
00000220: 36db 473e 2fea 16be bd8b 1dbe 2cc4 963d
00000230: f3c3 17be 0582 e93d 968c 5c3d ae07 073d
00000240: 901c ae3d 4085 6abd 360e 44be fbc1 003e
00000250: 0615 3fbe 30aa 96bc fece 47bd 1799 aa3d
00000260: 7128 183e 3823 6bbe e8ca 3e3c f426 3a3e
00000270: 5f73 123e 6f82 8cbd 2f5d 05be 8fab 00be
00000280: a7f2 7cbe 84a3 f03d 3d37 2fbe a592 49be
00000290: 90ef e1bd ce87 c53d 94a4 bbbe 37cc 2e3e
000002a0: 8957 e23b 1fa0 df3d 6938 bd3c 9101 75be
000002b0: 99b5 16be 52c1 ae3d 29db e23d 377a edbd
000002c0: a2c5 87b8 a3d0 f0bc 36b7 47be 89b0 32be
000002d0: 66e1 e33d 7f9a 97be ca8d 713d 6a30 e8bd
000002e0: 8ea5 e83c 41cd 0abe 240c 31bd 08a0 4ebe
000002f0: f68a 30be 6fd5 22be 1657 48be cb8b ff3d
00000300: b018 a43d 4659 30be 6b45 24be dada 243e
00000310: 45b6 013d 04b7 04be 417a 493d 65ed 92bd
00000320: 5d62 6abd a293 0a3d 5ab2 4dbd 3e04 68be
00000330: 7a03 22be f1da f3bc a1e8 93bd 890a e4bc
00000340: 775e c93c b2ae 1ebe 3239 be3d 250f 043e
00000350: c7c7 e3bb b213 85bd 317a 073e 90bb 56bd
00000360: 2b6f c6bc 5df6 ff3a f8b8 123e 6e73 01be
00000370: b7f1 56bd 23a4 43be eb96 ea3d 9faa 5bbe
00000380: cd35 173d 7b6f 8abd 49d8 003e b336 a73d
00000390: bdf5 64be 71d4 833d 5ea3 013e 621c 033e
000003a0: e0cf f73d 0bd1 3fbd 09df 81be 0ea2 94bd
000003b0: 991c aa3b 8070 c4bc ce75 21be 5735 75be
000003c0: 7f06 a63d e1c4 33be 4535 4cbe eb9d e23b
000003d0: 97fa 103e a773 163e 8a36 643d 9a3f 1fbe
000003e0: 1db5 b23c d1e4 313e db29 0cbe f64e 2fbe
000003f0: a940 59bd d096 a0bc 6da3 3a3e 9c36 e0ba

conv3.bias f4 [128]
1.4598263e-05 -6.403587e-05 6.0731863e-06 0.0001446498 -0.00012287992 1.45555505e-05 -1.0331426e-05 9.60927e-05
9.091671e-06 -0.00030239185 -6.0817754e-05 1.1617265e-05 6.4415275e-05 1.6997225e-05 -1.5992226e-05 -4.7972157e-05
5.884624e-05 4.8471826e-05 -4.738253e-05 -0.00016479654 6.5185445e-06 -6.1761806e-05 1.8466246e-05 -3.9419203e-05
-9.168191e-05 0.00017029404 8.6895016e-05 -5.5865716e-05 -6.0858703e-05 2.021796e-05 6.299955e-05 1.8506056e-05
-3.198274e-05 6.9193724e-05 -0.000104138955 6.46155e-06 -4.709401e-05 7.0621e-05 2.2705373e-05 3.8096543e-05
2.0268746e-05 7.961425e-07 -4.50734e-05 -0.00016924112 8.8840075e-05 9.669685e-05 -9.12974e-05 4.415336e-05
4.4896777e-05 -2.6871185e-06 5.3518386e-05 0.00021817323 0.00012414051 2.7916216e-05 -0.00015092529 0.00017233039
-5.6125245e-05 1.4342403e-05 -0.0001534833 -9.935395e-05 8.697402e-05 0.00018230324 0.00013281564 -6.301052e-05
-4.6915153e-05 -8.419659e-06 4.7706944e-06 0.000115895506 -5.2065545e-05 5.3124084e-05 -0.00012342102 7.2055554e-05
8.872132e-05 -3.37664e-05 2.0317388e-05 -4.675569e-06 2.9001596e-05 -3.360745e-05 0.000103026985 4.062559e-06
-0.00014326142 0.00018871095 0.00012578219 -3.0762967e-05 -2.8481312e-05 -9.230404e-05 -0.0001895248 -7.3360876e-05
-3.6493584e-06 -8.756717e-05 0.00021945313 -4.596132e-05 -2.4024088e-05 -4.7171852e-05 0.00016223591 6.2694494e-06
-7.954234e-05 3.403408e-05 1.526727e-05 7.485357e-05 -3.8749854e-06 3.2729848e-05 -6.807718e-05 -4.4307457e-05
-2.2701624e-05 -0.0002538914 4.4611297e-06 -7.0835085e-06 -0.0001417253 -1.128204e-05 8.489617e-05 -7.463911e-05
0.00013940029 8.898542e-06 -4.0666808e-05 8.5873224e-05 -4.776688e-05 -5.914229e-05 -6.7363624e-05 9.078285e-06
-7.24827e-05 -4.1439063e-05 2.979623e-05 -0.00019451282 8.637038e-06 5.3882082e-05 7.373294e-05 5.2809926e-05
00000000: 10eb 7437 ff4a 86b8 46c8 cb36 23ad 1739
00000010: 54d9 00b9 9d33 7437 2355 2db7 6085 c938
00000020: 6e88 1837 598a 9eb9 9116 7fb8 c6e7 4237
00000030: b016 8738 4395 8e37 0b27 86b7 b635 49b8
00000040: abd1 7638 3a4e 4b38 9bbc 46b8 3ccd 2cb9
00000050: dfb9 da36 1e86 81b8 f6e7 9a37 0c56 25b8
00000060: 5a45 c0b8 f590 3239 683b b638 5b51 6ab8
00000070: 8942 7fb8 bd99 a937 a01e 8438 743d 9b37
00000080: 3525 06b8 191c 9138 2d65 dab8 4bd0 d836
00000090: cf86 45b8 5c1a 9438 6b77 be37 dac9 1f38
000000a0: cd06 aa37 7fb6 5535 320d 3db8 5176 31b9
000000b0: a74f ba38 bac9 ca38 eb76 bfb8 4f31 3938
000000c0: 8c4f 3c38 5854 34b6 ee78 6038 6ec5 6439
000000d0: b72b 0239 9e2d ea37 b341 1eb9 96b3 3439
000000e0: 0668 6bb8 27a0 7037 5cf0 20b9 3f5c d0b8
000000f0: d265 b638 a728 3f39 6d44 0b39 8424 84b8
00000100: c3c6 44b8 2942 0db7 f413 a036 ed0c f338
00000110: f460 5ab8 8dd1 5e38 946a 01b9 881c 9738
00000120: e50f ba38 65a0 0db8 426f aa37 d5e2 9cb6
00000130: 7448 f337 baf5 0cb8 3110 d838 1e51 8836
00000140: 7238 16b9 b6e0 4539 66e4 0339 7c07 01b8
00000150: 27eb eeb7 5b93 c1b8 2dbb 46b9 52d9 99b8
00000160: 80e7 74b6 44a4 b7b8 001d 6639 97c6 40b8
00000170: 5687 c9b7 64da 45b8 df1d 2a39 295e d236
00000180: f8cf a6b8 d1bf 0e38 3612 8037 b4fa 9c38
00000190: df05 82b6 6847 0938 a8c4 8eb8 c5d6 39b8
000001a0: 5e6f beb7 ba1c 85b9 d0b0 9536 e0ae edb6
000001b0: 189c 14b9 fe47 3db7 490a b238 9187 9cb8
000001c0: fb2b 1239 f24a 1537 a791 2ab8 d616 b438
000001d0: 4c59 48b8 8d0f 78b8 9245 8db8 f04e 1837
000001e0: da01 98b8 dbce 2db8 ebf2 f937 23f6 4bb9
000001f0: cce7 1037 72ff 6138 12a1 9a38 3a80 5d38

conv3.lin.weight f4 [128, 64]
-0.02643556 -0.15076438 -0.0385515 -0.14124775 -0.06469535 0.15873028 0.10944158 -0.17695785
-0.097839706 -0.1167233 -0.12174134 -0.06947103 0.13421607 0.110788405 -0.028340835 -0.18286626
0.08791041 0.070890635 0.0050874655 -0.08078268 -0.016188223 -0.14537902 0.036633063 0.048420303
0.033580508 -0.22236438 0.044037767 0.043906856 -0.05116707 -0.15670218 0.016524155 0.00027289218
-0.08010714 -0.04071946 -0.062070142 -0.014604443 0.15861495 -0.042073406 0.0766608 0.07148014
-0.047643922 -0.06980362 0.13134912 0.040881723 0.09830819 -0.032564994 0.010528332 0.031910174
0.020593029 -0.23123033 0.09155327 0.03517918 0.10909954 -0.008363413 0.08462305 0.009484345
-0.07767494 -0.11616166 0.08575588 -0.17921072 -0.13460623 -0.08688395 0.09985668 -0.022100504
-0.13498202 -0.1905194 -0.01722319 -0.019895844 0.04493453 -0.1266811 -0.06843132 0.13039291
-0.050462276 -0.011584318 -0.11884445 -0.057635773 -0.028730413 0.050811213 0.041467607 0.13160817
0.008411396 -0.02990781 -0.11436483 -0.16218783 0.123577304 0.0037515527 -0.11446669 0.0033155456
0.058344737 0.20005329 -0.04958839 -0.2273887 0.06715957 0.054888315 0.06311989 -0.1712372
0.10923382 0.036703944 0.15527222 -0.10187451 0.11952145 0.122753516 -0.0065302323 0.10946187
0.04633172 0.07718329 -0.022567468 -0.038064446 0.020065637 -0.04451341 -0.2741326 -0.05242737
0.13189825 0.14698833 0.038290095 -0.030166533 0.050232373 0.040554848 -0.047923706 -0.053358763
-0.11483033 0.11834076 -0.08051729 -0.13073985 -0.020339802 -0.07528041 0.1685528 0.0671031
0.024218895 -0.014882655 0.09928505 -0.08738058 -0.1313208 0.14336757 0.06457347 -0.086698666
0.020712081 0.13332985 0.01781869 0.038058683 -0.0076627713 0.10661493 0.029629892 0.113036685
-0.17391631 0.07601349 -0.18085311 -0.08610441 -0.08819269 -0.06737397 -0.04028796 0.107490756
-0.2097689 0.029875264 0.08871032 -0.0343932 -0.05141969 -0.10450517 0.07343734 0.0036245666
0.029977934 -0.030517243 -0.013379016 0.037659056 -0.09449294 -0.070529066 -0.050256163 -0.057818454
0.15854502 -0.07897197 0.09939594 0.08596266 0.15589061 0.099883236 -0.0023465063 -0.014961669
0.11621737 -0.15905324 0.008893754 -0.073404916 -0.10276668 -0.030358369 -0.17091314 0.15048617
-0.20115557 -0.07448314 -0.19342095 -0.012872892 0.15711674 0.0037092674 -0.028157718 0.00968191
-0.10839316 -0.15864563 -0.09559194 -0.08506762 -0.02664748 0.07166372 0.13225672 -0.055539265
0.12420397 -0.11437425 -0.11247261 -0.16169204 -0.14151876 0.037581943 -0.09104068 -0.10887818
0.04487302 0.039649554 -0.109031744 0.023882015 0.10132543 -0.0801364 -0.19575168 -0.048258677
-0.0042890236 -0.106321566 0.024381416 -0.19188376 0.023587795 0.06725218 -0.14838517 -0.18366933
0.10007137 0.07561192 -0.0010778937 -0.027437733 0.11998876 -0.14580108 0.05311764 0.078014135
-0.047945917 -0.13732845 -0.10956766 0.08499767 0.090461254 0.081407085 -0.30707392 -0.19805267
-0.106723025 0.020203447 -0.06259519 -0.03836014 0.0707383 -0.018309498 0.061164852 -0.03416599
-0.05575268 -0.060004767 -0.081660435 -0.13552637 0.13154486 -0.08662073 -0.07364655 -0.12026568
00000000: 638f d8bc fa61 1abe 2de8 1dbd 40a3 10be
00000010: ff7e 84bd 318a 223e e822 e03d 7034 35be
00000020: 2f60 c8bd a00c efbd 8653 f9bd d446 8ebd
00000030: f06f 093e 08e5 e23d 0a2b e8bc 4b41 3bbe
00000040: 5f0a b43d 1c2f 913d c1b4 a63b 6471 a5bd
00000050: 2a9d 84bc 3dde 14be 8d0c 163d 5e54 463d
00000060: b78b 093d 7db3 63be f260 343d add7 333d
00000070: 9094 51bd 8976 20be aa5d 873c f812 8f39
00000080: 360f a4bd 73c9 26bd 433d 7ebd 7947 6fbc
00000090: f56b 223e 2a55 2cbd 5600 9d3d 2e64 923d
000000a0: 4626 43bd 33f5 8ebd 6280 063e 9873 273d
000000b0: ce55 c93d df62 05bd 067f 2c3c 3eb4 023d
000000c0: b6b2 a83c a5c7 6cbe 4880 bb3d 0b18 103d
000000d0: 946f df3d b206 09bc da4e ad3d 3a64 1b3c
000000e0: 0a14 9fbd 2ae6 edbd c7a0 af3d 0483 37be
000000f0: 37d6 09be 36f0 b1bd a981 cc3d 1e0c b5bc
00000100: ba38 0abe 8517 43be a617 8dbc 9cfc a2bc
00000110: 450d 383d b1b8 01be b825 8cbd b885 053e
00000120: 88b1 4ebd 27cc 3dbc b864 f3bd 7d13 6cbd
00000130: 0b5c ebbc 6b1f 503d f0d9 293d 4bc4 063e
00000140: f4cf 093c 3901 f5bc 1c38 eabd 9114 26be
00000150: 1916 fd3d 9cdc 753b 836d eabd a049 593b
00000160: e4fa 6e3d c5da 4c3e 321d 4bbd 95d8 68be
00000170: f58a 893d 92d2 603d 0045 813d ce58 2fbe
00000180: fbb5 df3d e056 163d aeff 1e3e 95a3 d0bd
00000190: a9c7 f43d 3266 fb3d 8ffb d5bb 8b2d e03d
000001a0: 54c6 3d3d 4612 9e3d 69df b8bc 77e9 1bbd
000001b0: b160 a43c b253 36bd 1c5b 8cbe 15be 56bd
000001c0: 5610 073e 1c84 163e 13d6 1c3d ce1f f7bc
000001d0: 76c0 4d3d d71c 263d a64b 44bd b88e 5abd
000001e0: 2a2c ebbd a45c f23d 40e6 a4bd abe0 05be
000001f0: a89f a6bc 9e2c 9abd 1b99 2c3e 5a6d 893d
00000200: b466 c63c 61d6 73bc f655 cb3d 97f4 b2bd
00000210: f678 06be f3ce 123e 183f 843d 128f b1bd
00000220: 62ac a93c 9f87 083e 80f8 913c 6ce3 1b3d
00000230: fc17 fbbb ee58 da3d 63ba f23c c77f e73d
00000240: 1e17 32be f6ac 9b3d 8f31 39be 8257 b0bd
00000250: 5e9e b4bd 5dfb 89bd fd04 25bd 1d24 dc3d
00000260: a9cd 56be f8bc f43c c2ad b53d e2df 0cbd
00000270: 749d 52bd ce06 d6bd 5166 963d 238a 6d3b
00000280: 4994 f53c 4cff f9bc a933 5bbc 6240 1a3d
00000290: 8485 c1bd 8b71 90bd 68d9 4dbd 0bd3 6cbd
000002a0: a059 223e 0ebc a1bd 1990 cb3d 310d b03d
000002b0: caa1 1f3e 958f cc3d d8c7 19bb ca21 75bc
000002c0: 5f03 ee3d dade 22be 1cb7 113c 5155 96bd
000002d0: 5677 d2bd 1db2 f8bc db03 2fbe 0c19 1a3e
000002e0: bafb 4dbe 9e8a 98bd 2410 46be d3e8 52bc
000002f0: 36e3 203e 2e17 733b 04ab e6bc e0a0 1e3c
00000300: 3cfd ddbd 0074 22be b5c5 c3bd ef37 aebd
00000310: d14b dabc 6ec4 923d 4e6e 073e 247d 63bd
00000320: a75e fe3d 0c3d eabd 0a58 e6bd 9992 25be
00000330: 4bea 10be 86ef 193d 8973 babd 86fb debd
00000340: c6cc 373d 9267 223d 094c dfbd 37a4 c33c
00000350: b583 cf3d 8e1e a4bd 2173 48be e4aa 45bd
00000360: f08a 8cbb 1fbf d9bd 89bb c73c 2d7d 44be
00000370: 313b c13c 83bb 893d 48f2 17be d013 3cbe
00000380: 38f2 cc3d 6cda 9a3d 1c48 8dba 19c5 e0bc
00000390: abbc f53d e14c 15be e291 593d e0c5 9f3d
000003a0: f062 44bd d49f 0cbe 0265 e0bd 4213 ae3d
000003b0: c043 b93d c2b8 a63d cb38 9dbe 52ce 4abe
000003c0: 9a91 dabd b381 a53c e831 80bd 861f 1dbd
000003d0: 3edf 903d cdfd 95bc ff87 7a3d a3f1 0bbd
000003e0: ec5c 64bd 8fc7 75bd 963d a7bd 6dc7 0abe
000003f0: b2b3 063e 3666 b1bd 01d4 96bd da4d f6bd

conv4.bias f4 [128]
-0.07748831 -0.09256781 -0.021390116 -0.0011604782 -0.009516259 -0.054511014 -0.027857939 -0.027570136
-0.027050406 -0.0077565573 -0.03461956 -0.02247495 -0.08416911 -0.05715847 0.0021138445 0.022155672
0.034448713 -0.07598898 -0.05545142 -0.058816776 -0.065676905 -0.046463523 -0.10425605 -0.025033116
-0.05196374 -0.017476285 -0.0263686 -0.07025752 -0.015026083 -0.014996912 0.045208976 -0.03747415
-0.07243727 -0.042476486 0.019999493 0.0081928335 -0.07307457 -0.035144337 -0.009801171 -0.037351545
-0.095314406 -0.03007166 0.038346548 -0.037641108 -0.036635622 -0.08708123 -0.02738886 0.002130616
-0.07064463 0.0021152424 -0.047011588 0.03774773 0.010814079 0.017309958 -0.03765251 -0.055663794
-0.036478356 0.010536576 -0.09162767 -0.01580239 -0.018415553 0.018411532 -0.00094836636 0.016806524
-0.0634176 -0.0333095 -0.05127502 -0.049178515 -0.06594828 -0.06470202 -0.08464603 -0.0363802
-0.028579494 0.011069003 -0.036208283 -0.07529074 -0.12400496 0.0040460583 -0.028616278 -0.017765665
-0.034341063 0.03552297 -0.0786694 -0.03180669 -0.120475136 -0.043862663 -0.03178384 -0.038967203
-0.027602663 -0.02174931 -0.030202305 -0.01995422 -0.012714093 -0.001631168 -0.045504015 0.043188386
-0.015645495 -0.12226487 0.01799726 -0.043963872 -0.028069858 -0.04361328 -0.07762987 0.009249745
-0.03980402 -0.05718306 -0.015668755 -0.06829783 -0.071060345 -0.018408611 -0.09464635 -0.082980834
0.0032843868 -0.0604858 0.00022275858 -0.07324814 -0.05827121 -0.027616803 -0.056283604 0.0006132225
0.014526129 -0.06423547 -0.045675285 -0.06042043 0.03628078 -0.017125908 -0.036308352 -0.061723184
00000000: 31b2 9ebd 3194 bdbd 533a afbc 301b 98ba
00000010: 15ea 1bbc f146 5fbd 5536 e4bc c4da e1bc
00000020: d098 ddbc b82a febb 3dcd 0dbd 631d b8bc
00000030: db60 acbd 001f 6abd 6d88 0a3b d07f b53c
00000040: 181a 0d3d 1ca0 9bbd 0721 63bd dce9 70bd
00000050: 9d81 86bd 8950 3ebd 3284 d5bd 4012 cdbc
00000060: eed7 54bd 6d2a 8fbc f602 d8bc 2de3 8fbd
00000070: f62f 76bc 9cb5 75bc 0c2d 393d 7f7e 19bd
00000080: fe59 94bd d3fb 2dbd fad5 a33c 3c3b 063c
00000090: 1fa8 95bd 82f3 0fbd 1795 20bc effd 18bd
000000a0: 3334 c3bd d858 f6bc 4511 1d3d 902d 1abd
000000b0: 3c0f 16bd a557 b2bd 9a5e e0bc cea1 0b3b
000000c0: 22ae 90bd e19f 0a3b 398f 40bd 5d9d 1a3d
000000d0: 892d 313c 9dcd 8d3c 8539 1abd b8ff 63bd
000000e0: 546a 15bd 9aa1 2c3c 4aa7 bbbd 0474 81bc
000000f0: 37dc 96bc c8d3 963c ca9b 78ba d6ad 893c
00000100: 16e1 81bd 8b6f 08bd c105 52bd 696f 49bd
00000110: e40f 87bd 7e82 84bd e65a adbd 6803 15bd
00000120: 8b1f eabc c35a 353c 234f 14bd 0832 9abd
00000130: 50f6 fdbd cc94 843b af6c eabc 4d89 91bc
00000140: 37a9 0cbd 8980 113d 6c1d a1bd bb47 02bd
00000150: abbb f6bd 56a9 33bd c62f 02bd 139c 1fbd
00000160: fb1e e2bc 9c2b b2bc d36a f7bc 0877 a3bc
00000170: c54e 50bc eacc d5ba 6b62 3abd 4ee6 303d
00000180: fb2a 80bc 0166 fabd fd6e 933c 7613 34bd
00000190: c2f2 e5bc d7a3 32bd 69fc 9ebd 3e8c 173c
000001a0: 8a09 23bd c938 6abd c35b 80bc bcdf 8bbd
000001b0: 1688 91bd a8cd 96bc f2d5 c1bd dbf1 a9bd
000001c0: de3e 573b f5bf 77bd 4d94 6939 1f03 96bd
000001d0: cbad 6ebd a23c e2bc a389 66bd aac0 203a
000001e0: 00ff 6d3c e38d 83bd 0216 3bbd 6a7b 77bd
000001f0: 289b 143d a24b 8cbc 11b8 14bd 73d1 7cbd

conv4.lin.weight f4 [128, 128]
-0.03764849 0.120632775 -0.116735384 -0.028055485 -0.008679613 -0.025236648 0.10987402 0.006882994
-0.107873775 -0.09104508 0.07760385 -0.047666907 0.0845467 0.07391278 -0.036208056 0.05747053
-0.08151323 -0.1417944 0.042029742 0.01025613 -0.12929231 -0.13219573 0.011721204 0.06081702
0.066499025 -0.11029033 -0.16263272 0.061355487 0.067110434 -0.14501108 -0.08569065 0.12782414
0.05891298 -0.019534029 -0.020969259 -0.02099653 0.08218274 -0.15656231 0.02231502 -0.115608945
0.04663622 0.096642755 -0.13063155 -0.022593655 -0.1171813 0.06944713 -0.10018053 -0.02857937
-0.12593219 0.115508355 0.05720845 -0.13698798 0.085139945 -0.12869859 0.10153313 -0.10323924
-0.009392537 0.070161074 -0.13181815 0.068900354 -0.0896169 0.017924167 0.012607605 -0.016027186
0.10232622 -0.13785012 0.0755583 0.034204613 -0.13914832 -0.014724205 0.05299958 -0.12093396
0.08598637 -0.07285582 -0.020953653 -0.008997971 0.055786666 0.12467042 -0.032668136 -0.01923484
-0.105495796 -0.06688429 -0.1563952 -0.12437457 -0.14143774 0.035490423 0.07095891 -0.1481246
0.07536229 0.035237476 0.07990374 -0.07268558 0.097488515 0.07388305 -0.07573201 -0.090234384
-0.006146572 0.053487133 -0.05848074 0.052972663 -0.00010453013 -0.0055803545 -0.12742749 0.042639066
0.11261611 0.017248983 0.0236707 0.0911789 0.07760443 0.03212536 -0.045993865 -0.035225116
-0.05833167 -0.13806176 -0.029424496 0.07433457 0.03704987 0.053518027 0.03339347 -0.07956227
0.012099996 0.030229669 0.018175842 -0.029904671 0.06995268 0.1036234 -0.06254423 0.056442782
-0.12862974 -0.04407875 -0.09511751 0.05676585 -0.07532919 0.101688914 -0.045998625 -0.09686415
-0.11814495 0.0014998905 -0.011310194 -0.0012520825 0.10152585 -0.07499611 -0.13499257 0.11971462
-0.078188114 -0.0019266894 -0.073519446 -0.08299513 -0.03734755 0.00140193 -0.12279735 -0.058354136
-0.048648115 0.0009262444 0.074932046 0.00030722743 -0.12617525 -0.05659234 -0.0844341 0.06903145
-0.045376945 -0.037380032 -0.014724788 0.011026426 -0.1358026 -0.09325074 0.03276087 -0.054524597
0.014768621 0.062495578 0.020015288 0.057105076 -0.0013396818 0.0027266967 -0.07846981 -0.0142062735
0.11104554 -0.13659357 -0.07016021 -0.016942222 0.019076869 -0.058608327 -0.16628306 0.07066797
0.015104905 0.00046898832 -0.051995255 -0.08535772 0.04866701 -0.035038017 0.07603057 0.018386789
0.0323417 -0.110834606 0.0106676025 -0.09219945 0.13574153 0.0366878 0.02054633 -0.07962816
-0.06542112 -0.07655656 -0.043037213 -0.008310154 0.04057637 0.12022159 -0.14742237 0.057511818
-0.11928618 -0.04154447 0.11055051 0.043492675 -0.088790484 -0.04806213 -0.09697014 -0.15551476
0.052444052 -0.07759965 -0.09961591 -0.0077949916 0.041344497 0.07012297 0.004418352 -0.04751642
-0.04312574 0.014671334 -0.05496799 0.020070119 -0.09717265 -0.008479382 0.05749834 -0.045745473
-0.086685985 -0.0025787707 0.014304967 -0.010517609 0.01464045 -0.018179465 0.05458125 -0.021485059
0.031828437 0.102998346 -0.022454744 -0.09550937 0.09272635 -0.04221841 -0.0027821092 -0.027034584
-0.15313168 -0.07107948 -0.09476498 -0.012888334 -0.1251356 0.0052487613 -0.11719951 -0.02739976
00000000: 4e35 1abd 510e f73d f612 efbd 9ed4 e5bc
00000010: ef34 0ebc 16bd cebc a105 e13d bd8a e13b
00000020: edec dcbd d875 babd c4ee 9e3d 603e 43bd
00000030: d226 ad3d 955f 973d e64e 14bd 3866 6b3d
00000040: 69f0 a6bd 8d32 11be 6127 2c3d 5409 283c
00000050: 3465 04be 515e 07be 4b0a 403c 441b 793d
00000060: a430 883d e6df e1bd 3189 26be e44f 7b3d
00000070: 3271 893d c97d 14be 947e afbd 55e4 023e
00000080: bd4e 713d d405 a0bc b9c7 abbc ea00 acbc
00000090: 6d4f a83d df51 20be fdcd b63c 62c4 ecbd
000000a0: 9f05 3f3d a3ec c53d 47c4 05be 5416 b9bc
000000b0: c0fc efbd 4c3a 8e3d 732b cdbd 481f eabc
000000c0: 5ef4 00be a58f ec3d 6853 6a3d 9446 0cbe
000000d0: da5d ae3d 90c9 03be 9af0 cf3d 186f d3bd
000000e0: 28e3 19bc 9cb0 8f3d 56fb 06be a11b 8d3d
000000f0: 1189 b7bd b4d5 923c 2190 4e3c 724b 83bc
00000100: 6990 d13d 9528 0dbe 4fbe 9a3d 231a 0c3d
00000110: e67c 0ebe cb3d 71bc 1616 593d 39ac f7bd
00000120: 9f19 b03d 6f35 95bd ffa6 abbc 3a6c 13bc
00000130: 8f80 643d 3553 ff3d 06cf 05bd 6292 9dbc
00000140: 2e0e d8bd a1fa 88bd 1026 20be 18b8 febd
00000150: 0ed5 10be 685e 113d e852 913d faad 17be
00000160: 8b57 9a3d 2c55 103d 92a4 a33d 2ddc 94bd
00000170: 0fa8 c73d ff4f 973d 6219 9bbd cecc b8bd
00000180: 2f69 c9bb 5315 5b3d 8089 6fbd ddf9 583d
00000190: 3037 dbb8 68db b6bb 5a7c 02be 4da6 2e3d
000001a0: 46a3 e63d bd4d 8d3c 0ee9 c13c 01bc ba3d
000001b0: 12ef 9e3d e295 033d 1064 3cbd 3648 10bd
000001c0: 30ed 6ebd 1060 0dbe a40b f1bc b93c 983d
000001d0: 9bc1 173d b835 5b3d 97c7 083d 8bf1 a2bd
000001e0: 103f 463c 36a4 f73c 81e5 943c a4fa f4bc
000001f0: 5a43 8f3d 8138 d43d 3017 80bd 8c30 673d
00000200: 84b7 03be eb8b 34bd f8cc c2bd 4f83 683d
00000210: 3146 9abd 4742 d03d 0e69 3cbd b660 c6bd
00000220: fbf5 f1bd f997 c43a 644e 39bc eb1c a4ba
00000230: c9ec cf3d 8f97 99bd 7e3b 0abe f02c f53d
00000240: 1721 a0bd f888 fcba 5d91 96bd 5af9 a9bd
00000250: bff9 18bd f7c0 b73a 2d7d fbbd bf04 6fbd
00000260: 3f43 47bd 36cf 723a f975 993d 5e13 a139
00000270: 1634 01be 5fcd 67bd c9eb acbd 5c60 8d3d
00000280: 2ddd 39bd ce1b 19bd 3d40 71bc 2fa8 343c
00000290: d60f 0bbe 3efa bebd 4330 063d 2f55 5fbd
000002a0: 16f8 713c 5dfb 7f3d 1af7 a33c 03e7 693d
000002b0: 4398 afba 61b2 323b c8b4 a0bd 6ec1 68bc
000002c0: d86b e33d 2fdf 0bbe 28b0 8fbd 6aca 8abc
000002d0: 1847 9c3c 490f 70bd 1b46 2abe 5eba 903d
000002e0: 907a 773c 8ce2 f539 faf8 54bd 07d0 aebd
000002f0: 0f57 473d 0684 0fbd eab5 9b3d e49f 963c
00000300: bb78 043d 41fd e2bd 2bc7 2e3c 11d3 bcbd
00000310: d4ff 0a3e f245 163d c750 a83c 1714 a3bd
00000320: 82fb 85bd b0c9 9cbd ca47 30bd 5027 08bc
00000330: 6833 263d bd36 f63d e4f5 16be 8391 6b3d
00000340: 504c f4bd 892a 2abd 4e68 e23d 6025 323d
00000350: c9d7 b5bd ccdc 44bd 4898 c6bd 433f 1fbe
00000360: 93cf 563d 91ec 9ebd 6d03 ccbd 216d ffbb
00000370: d958 293d a29c 8f3d d3c7 903b 94a0 42bd
00000380: 9ea4 30bd 0960 703c 1d26 61bd 176a a43c
00000390: 7402 c7bd 1bed 0abc 6183 6b3d 9b5f 3bbd
000003a0: 6c88 b1bd 9800 29bb 615f 6a3c 0d52 2cbc
000003b0: 7fde 6f3c 1aed 94bc 9790 5f3d 6f01 b0bc
000003c0: 895e 023d ccf0 d23d 03f3 b7bc 6b9a c3bd
000003d0: 50e7 bd3d 36ed 2cbd 0c54 36bb a277 ddbc
000003e0: 8dce 1cbe 1e92 91bd 2414 c2bd 9729 53bc
000003f0: 8c23 00be cdfd ab3b 4c06 f0bd 7675 e0bc

conv5.bias f4 [256]
-1.2470652e-05 -6.5448556e-05 -2.7604288e-05 -4.743531e-05 -2.0059093e-05 -1.2251239e-05 -8.819094e-05 -1.44089345e-05
-0.000109046436 -2.1861529e-06 -3.7729475e-05 1.477774e-05 -0.00011170827 -6.383523e-05 -1.0145399e-05 -1.6541919e-05
-2.210914e-05 -6.652417e-05 -4.048814e-06 -2.1457246e-05 -5.5237764e-05 8.589487e-06 7.824937e-06 -9.105022e-06
-4.9365386e-05 -3.38621e-05 -8.008856e-06 -6.282464e-05 1.3647809e-05 -2.0442737e-06 -2.224155e-05 -3.793394e-05
-2.6726764e-05 -2.8416747e-05 1.4011819e-05 1.5336973e-05 2.3428944e-05 3.0717076e-06 -9.548036e-06 -0.0001072043
-7.1825256e-05 -1.7210928e-08 -5.051867e-05 -4.483096e-05 -1.91423e-05 -7.907463e-05 -2.8791685e-05 -5.8339083e-05
-2.0830736e-05 -8.995984e-06 -1.35824985e-05 1.0607034e-05 -9.416223e-06 -2.8326367e-05 -3.4611236e-05 -1.6709335e-05
-7.018671e-07 -1.138222e-05 -7.2261566e-05 -5.3003216e-05 -1.6328764e-05 -2.5085237e-06 6.50173e-06 1.8424984e-05
1.6432909e-05 -1.6477825e-05 2.2525051e-05 -5.791737e-06 -2.5360501e-05 -9.940167e-06 -1.6170736e-05 -3.2440916e-05
-1.5129898e-05 -1.668022e-05 -2.7242839e-05 -4.23526e-06 -1.0368216e-05 -3.059086e-06 -8.6372875e-06 -9.605293e-06
-1.8323079e-05 -1.6616492e-05 -1.7730345e-05 -1.1882108e-06 -1.10320325e-05 2.5424727e-06 7.055683e-06 -1.1301049e-05
-5.851497e-05 1.7793499e-06 5.6007784e-06 -3.0577983e-06 -1.3451271e-05 -5.35186e-06 -3.6339017e-05 -1.9899799e-05
2.0381665e-05 -4.925586e-05 2.5666038e-06 -2.2017688e-05 -7.871582e-05 1.2722954e-05 -2.1493901e-05 -4.0904135e-05
-2.6222366e-05 1.7438273e-07 6.1016567e-06 3.572313e-07 1.5997219e-05 -1.0629449e-06 6.184445e-06 2.2646268e-06
-3.9015562e-05 9.907476e-06 -3.9801516e-06 -8.784613e-07 -5.397034e-06 -8.152989e-06 -6.446898e-06 -5.3287863e-06
-4.0502737e-06 -3.714774e-05 1.8148618e-06 -2.3822424e-05 -7.348619e-06 -2.5281464e-05 -1.9972487e-05 1.0416688e-05
-1.2416053e-05 -2.2414382e-05 -7.449405e-06 -9.7832735e-06 7.6718e-06 -2.3244149e-05 -1.2785309e-05 -1.0886926e-05
4.7859094e-06 4.589263e-06 2.85606e-06 -1.2493507e-05 -2.3255798e-05 -3.6684148e-06 -3.878535e-05 -2.207324e-06
-5.297288e-06 -1.3158743e-05 1.6439819e-05 -3.425795e-05 1.8698269e-05 -1.3488278e-05 -4.08494e-06 3.6082492e-06
-0.00011448309 8.8188735e-06 5.746512e-07 -3.184393e-06 1.640536e-05 -4.875883e-06 7.0905066e-06 7.4101195e-06
-5.0425846e-05 -1.9779141e-05 1.3092145e-05 -8.973675e-06 -4.6023674e-06 5.7549295e-07 -3.8733513e-05 -5.7652665e-05
-1.0778854e-05 -7.681678e-06 -1.2796294e-05 -3.8084512e-05 -3.1999185e-05 -1.8608567e-05 -4.691195e-06 1.4252232e-05
-7.0734735e-05 -5.158715e-05 -2.5287449e-05 -1.33832755e-05 -9.707544e-07 1.7275744e-06 -3.767412e-05 -1.29114815e-05
-1.6934739e-05 -1.5549751e-05 1.2055655e-05 -3.5081328e-05 3.4819714e-06 -5.131994e-06 2.4383326e-05 -2.565608e-05
-2.5951409e-05 5.779346e-07 -1.5811478e-05 -1.9272604e-05 -1.6259011e-05 7.537498e-07 -2.9606603e-05 -1.13409415e-05
2.5472518e-05 -1.9493222e-05 9.929423e-06 -5.8098074e-05 1.3752609e-05 1.4460576e-05 1.5529275e-05 -3.0262112e-05
3.543975e-05 -4.76967e-08 1.6845837e-05 -4.342273e-05 9.358441e-06 -1.23464715e-05 -8.372185e-06 -1.4821735e-05
-1.1634192e-05 -1.05188965e-05 -1.5562548e-05 9.726538e-07 -2.3064444e-05 1.1954483e-05 -1.9726684e-05 -8.750461e-05
-3.5608534e-06 1.5892818e-05 -7.329789e-06 -1.9854135e-05 5.4123298e-06 -7.678073e-05 -3.7338275e-05 -2.8478141e-06
-2.6040592e-05 1.0845289e-05 1.5341056e-05 -3.7753347e-05 -0.0001108208 1.1694518e-05 -1.4901611e-05 -1.6442013e-06
7.922004e-06 -2.8909782e-05 -1.8089519e-05 -5.0347385e-06 -1.8738943e-05 -1.9122e-05 -1.63792e-06 -0.000110310284
-2.7447115e-05 -1.0358981e-05 -1.0256785e-05 -1.581311e-05 -1.3644938e-05 7.720559e-07 -1.7626573e-05 -2.261529e-05
00000000: 0b39 51b7 6d41 89b8 c28f e7b7 47f5 46b8
00000010: 9344 a8b7 ac8a 4db7 26f3 b8b8 e7bd 71b7
00000020: dcaf e4b8 d2b5 12b6 b73f 1eb8 e9ed 7737
00000030: ec44 eab8 47df 85b8 2836 2ab7 80c3 8ab7
00000040: 0477 b9b7 e482 8bb8 0cdb 87b6 16ff b3b7
00000050: 19af 67b8 911b 1037 d947 0337 c6c1 18b7
00000060: ae0d 4fb8 2707 0eb8 c65d 06b7 b9c0 83b8
00000070: e5f8 6437 5b30 09b6 5d93 bab7 421b 1fb8
00000080: 4a33 e0b7 8060 eeb7 4e14 6b37 e6a7 8037
00000090: 4689 c437 8923 4e36 8130 20b7 dfd2 e0b8
000000a0: e4a0 96b8 3bd7 93b2 02e4 53b8 e008 3cb8
000000b0: c793 a0b7 ded4 a5b8 ac85 f1b7 1db1 74b8
000000c0: aabd aeb7 75ed 16b7 63e0 63b7 ddf4 3137
000000d0: 5ffa 1db7 699e edb7 882b 11b8 062b 8cb7
000000e0: f167 3cb5 43f6 3eb7 228b 97b8 c54f 5eb8
000000f0: c1f9 88b7 1c58 28b6 6f29 da36 5a8f 9a37
00000100: 67d9 8937 dc39 8ab7 2ef4 bc37 a456 c2b6
00000110: 43bd d4b7 b1c4 26b7 64a6 87b7 2b11 08b8
00000120: 6bd6 7db7 80ec 8bb7 8d87 e4b7 9b1c 8eb6
00000130: 26f3 2db7 b34a 4db6 dee8 10b7 6b26 21b7
00000140: 83b4 99b7 a563 8bb7 a0bb 94b7 9d7a 9fb5
00000150: 3816 39b7 599f 2a36 dbbf ec36 a399 3db7
00000160: f86d 75b8 ffd1 ee35 52ee bb36 9334 4db6
00000170: c5ac 61b7 2194 b3b6 b96a 18b8 7eee a6b7
00000180: 4bf9 aa37 1498 4eb8 eb3d 2c36 a0b2 b8b7
00000190: 3c14 a5b8 ac74 5537 cd4d b4b7 7b90 2bb8
000001a0: 1af8 dbb7 f63d 3b34 d5bc cc36 7fc9 bf34
000001b0: c431 8637 82aa 8eb5 fa83 cf36 fef9 1736
000001c0: a4a4 23b8 4938 2637 3e8d 85b6 67cf 6bb5
000001d0: 2b18 b5b6 d2c8 08b7 6f52 d8b6 edcd b2b6
000001e0: 96e7 87b6 15cf 1bb8 2d96 f335 44d6 c7b7
000001f0: 2894 f6b6 8813 d4b7 978a a7b7 56c3 2e37
00000200: 8b4e 50b7 8506 bcb7 e7f5 f9b6 d722 24b7
00000210: 21b6 0037 6efc c2b7 7c80 56b7 fea6 36b7
00000220: a696 a036 78fd 9936 bdaa 3f36 349b 51b7
00000230: 7215 c3b7 e32e 76b6 74ad 22b8 8a21 14b6
00000240: 5cbf b1b6 5fc4 5cb7 3ee8 8937 32b0 0fb8
00000250: 3ada 9c37 b64b 62b7 5e11 89b6 4025 7236
00000260: a416 f0b8 c6f4 1337 bb41 1a35 75b3 55b6
00000270: 3e9e 8937 849b a3b6 fdea ed36 71a4 f836
00000280: 5780 53b8 62eb a5b7 56a6 5b37 a48d 16b7
00000290: 096e 9ab6 937b 1a35 cb75 22b8 14d0 71b8
000002a0: d3d6 34b7 8ee0 00b7 aaaf 56b7 efbc 1fb8
000002b0: dd36 06b8 9819 9cb7 0f69 9db6 df1c 6f37
000002c0: 6c57 94b8 485f 58b8 6220 d4b7 bb88 60b7
000002d0: de4a 82b5 01df e735 4704 1eb8 649e 58b7
000002e0: 130f 8eb7 d670 82b7 a542 4a37 4a24 13b8
000002f0: d0ab 6936 7e33 acb6 cb8a cc37 0338 d7b7
00000300: 3ab2 d9b7 5d23 1b35 e4a2 84b7 9aab a1b7
00000310: f663 88b7 4b55 4a35 b25b f8b7 f944 3eb7
00000320: d1ad d537 6085 a3b7 8c96 2637 55ae 73b8
00000330: 02bb 6637 b39b 7237 dd44 8237 64db fdb7
00000340: 24a5 1438 14db 4cb3 2950 8d37 cd20 36b8
00000350: 3302 1d37 b123 4fb7 4376 0cb7 deaa 78b7
00000360: 7930 43b7 517a 30b7 518c 82b7 218c 8235
00000370: 847a c1b7 1d90 4837 bb7a a5b7 ae82 b7b8
00000380: fff6 6eb6 9151 8537 68f2 f5b6 6e8c a6b7
00000390: 8f9b b536 5705 a1b8 ab9b 1cb8 131d 3fb6
000003a0: bf71 dab7 29f4 3537 abb0 8037 5959 1eb8
000003b0: 7768 e8b8 9333 4437 ef01 7ab7 54ae dcb5
000003c0: c0e8 0437 4983 f2b7 f2be 97b7 13f0 a8b6
000003d0: 9331 9db7 2f68 a0b7 81d6 dbb5 6256 e7b8
000003e0: 3b3e e6b7 7ccb 2db7 8e14 2cb7 65a6 84b7
000003f0: 90ec 64b7 473f 4f35 c7dc 93b7 f7b5 bdb7

conv5.lin.weight f4 [256, 128]
0.0006400054 -0.05453124 -0.090689376 0.055004936 0.028839458 0.05198427 0.06787946 -0.039421495
0.025428943 0.043247487 0.0150605 0.06579328 -0.0633391 0.017764373 -0.046539936 0.01749315
-0.014604415 0.040372618 0.014935905 0.07654261 -0.0074781817 0.09769848 0.035688046 -0.059492584
-0.048597597 0.05863373 0.047661584 0.0074422117 0.05118355 -0.06577886 0.048277244 0.0013634
0.035177547 0.04377344 -0.0035507057 0.10103932 -0.035342515 -0.0094967345 0.0010156353 0.051530596
0.08777342 0.026510037 0.039962374 -0.113733515 0.08491441 0.0062804655 0.07999253 0.008298256
-0.062975496 -0.020723509 0.036750134 -0.10400379 -0.004209267 -0.011915618 0.12810595 0.07249945
0.069199346 0.003618819 -0.022238975 -0.0211836 5.8090354e-05 0.039459825 -0.020544361 0.016583242
-0.068191916 0.053271253 0.07531583 0.12508248 -0.019605596 -0.0023098174 0.021138335 -0.07150231
0.118495576 0.10025777 -0.02275845 0.10594773 0.05412585 0.040394 -0.056653928 0.012121217
-0.029232154 0.037827734 0.01294282 0.097969696 0.14951311 0.04213579 0.08273066 0.08695993
0.045581102 0.048973624 -0.03378976 0.006499618 0.022010358 -0.06033668 -0.020944692 0.060763154
0.034731086 0.054459084 -0.09972909 -0.03481253 0.076841794 -0.03821608 -0.03885293 -0.046537656
0.047491293 0.020021394 -0.0023014667 0.0776952 -0.051231608 0.12311486 -0.050710004 -0.0031367862
0.005994947 0.024076309 0.14113267 -0.054771062 -0.056583114 0.086116776 0.06267397 -0.005824675
0.12666665 -0.02020541 -0.007804586 -0.013519288 0.072229765 0.044724755 0.06706484 -0.025085604
0.010159303 -0.022428596 -0.08478271 -0.053414583 1.08147815e-05 -0.077730216 0.09972666 0.059763968
0.001213816 0.07117254 -0.03324735 -0.047932096 -0.16132937 -0.23087728 0.16074556 0.044427946
0.014265157 0.054544244 -0.014055222 -0.09952417 -0.08865006 0.016215328 -0.020069556 0.03995849
0.024764376 -0.0053239977 -0.00040684108 0.100497074 -0.008486714 -0.079544894 -0.01628649 -0.03590698
0.020639753 -0.01934226 -0.072442226 -0.06528168 -0.07260843 0.012814662 -0.023136098 0.07737643
0.054233395 -0.0626185 0.013851694 -0.0541399 0.033100713 0.017189015 0.09221267 -0.11510278
-0.091792494 0.043265797 0.03751789 0.043888304 -0.0202998 0.10136577 -0.13092095 -0.08538082
0.06266019 0.10527804 -0.106518865 0.04045584 -0.04496981 0.06306852 0.048566833 0.016175719
-0.091009066 -0.06888246 0.059843387 0.0629244 -0.0003343891 0.12187461 -0.079539716 -0.0363697
-0.05735703 0.09498737 -0.035807457 0.015999654 0.0894963 0.09848747 0.021186547 -0.04540353
-0.015611537 0.15254389 0.04580505 0.10088776 0.04025084 -0.076876685 0.0028242313 -0.00046151338
-0.022861902 0.098502144 0.020432632 -0.03712248 -0.019483194 0.044318426 -0.093542546 0.037935894
0.09461362 0.008413349 -0.00855568 0.1104998 -0.050531376 -0.022396866 0.06515278 0.045867246
0.0134284925 -0.03248911 -0.103728056 0.039104935 0.054642074 -0.071880035 -0.044878863 -0.0006809755
-0.01771819 -0.03754247 0.021629583 0.046418723 -0.04859752 -0.03496055 -0.034674626 0.07184141
-0.003245151 0.037068304 0.059907928 -0.07043362 0.028722322 0.11620224 0.057262573 -0.0019628361
00000000: 09c6 273a 265c 5fbd 5abb b9bd db4c 613d
00000010: ba40 ec3c 75ed 543d 6304 8b3d 6f78 21bd
00000020: 5c50 d03c 4724 313d 51c0 763c a1be 863d
00000030: eeb7 81bd 9786 913c a9a0 3ebd cb4d 8f3c
00000040: 5b47 6fbc c25d 253d bab5 743c 5fc2 9c3d
00000050: 890b f5bb 2416 c83d a12d 123d 7fae 73bd
00000060: 460e 47bd ec29 703d cb38 433d ccdd f33b
00000070: d8a5 513d 11b7 86bd 5cbe 453d 1db4 b23a
00000080: 5516 103d c74b 333d f5b2 68bb b4ed ce3d
00000090: 50c3 10bd 3198 1bbc 111f 853a bf11 533d
000000a0: 8dc2 b33d 942b d93c 96af 233d 1eed e8bd
000000b0: 9be7 ad3d 5dcc cd3b 20d3 a33d 69f5 073c
000000c0: 4cf9 80bd 59c4 a9bc 4f87 163d f0ff d4bd
000000d0: e4ed 89bb b939 43bc 352e 033e 977a 943d
000000e0: 63b8 8d3d b529 6d3b 832e b6bc 3b89 adbc
000000f0: 0ba6 7338 a0a0 213d a64c a8bc 94d9 873c
00000100: 34a8 8bbd f532 5a3d 303f 9a3d 9f15 003e
00000110: ea9b a0bc 4e60 17bb 4d2a ad3c ce6f 92bd
00000120: cfad f23d f253 cd3d ee6f babc 20fb d83d
00000130: 11b3 5d3d 2e74 253d f30d 68bd 1298 463c
00000140: 4578 efbc 41f1 1a3d 1f0e 543c 56a4 c83d
00000150: f719 193e 9496 2c3d b16e a93d 0c18 b23d
00000160: 40b3 3a3d 9198 483d 2267 0abd bffa d43b
00000170: 114f b43c 9823 77bd 3494 abbc c9e2 783d
00000180: 2f42 0e3d 7d10 5f3d c43e ccbd 9597 0ebd
00000190: 3b5f 9d3d 7788 1cbd 4024 1fbd 459e 3ebd
000001a0: 3b86 423d e803 a43c 34d4 16bb a91e 9f3d
000001b0: 3cd8 51bd a523 fc3d 4bb5 4fbd 8a92 4dbb
000001c0: 4371 c43b ae3b c53c 1585 103e 9f57 60bd
000001d0: b2c3 67bd fe5d b03d 365b 803d eadc bebb
000001e0: e7b4 013e d185 a5bc 9dbd ffbb 0180 5dbc
000001f0: 33ed 933d 4e31 373d 4a59 893d 5380 cdbc
00000200: 3573 263c 2dbc b7bc 8fa2 adbd 40c9 5abd
00000210: 2271 3537 0531 9fbd 7e3d cc3d 10cb 743d
00000220: e818 9f3a e9c2 913d 602e 08bd 7254 44bd
00000230: 8733 25be 186b 6cbe 7c9a 243e 14fa 353d
00000240: 68b8 693c c969 5f3d e047 66bc 54d3 cbbd
00000250: 2a8e b5bd 02d6 843c e968 a4bc 83ab 233d
00000260: a9de ca3c ee74 aebb 494d d5b9 69d1 cd3d
00000270: dc0b 0bbc 6fe8 a2bd 3f6b 85bc 3313 13bd
00000280: b314 a93c a973 9ebc 975c 94bd 67b2 85bd
00000290: bbb3 94bd 97f4 513c ea87 bdbc 8977 9e3d
000002a0: d623 5e3d 213e 80bd 37f2 623c cdc1 5dbd
000002b0: 9d94 073d facf 8c3c ffd9 bc3d 02bb ebbd
000002c0: b4fd bbbd 7a37 313d 5cac 193d 39c4 333d
000002d0: c44b a6bc db98 cf3d 2410 06be 24dc aebd
000002e0: fc53 803d 039c d73d 9026 dabd 06b5 253d
000002f0: 4332 38bd 112a 813d 04ee 463d f182 843c
00000300: f662 babd 3f12 8dbd 571e 753d 82de 803d
00000310: f250 afb9 6599 f93d b8e5 a2bd 65f8 14bd
00000320: 35ef 6abd bd88 c23d d7aa 12bd b511 833c
00000330: d649 b73d ccb3 c93d 698f ad3c 0df9 39bd
00000340: 88c7 7fbc 7734 1c3e 139e 3b3d 3e9e ce3d
00000350: 11de 243d 8671 9dbd bd16 393b 47f7 f1b9
00000360: e248 bbbc 7ebb c93d 5662 a73c be0d 18bd
00000370: 389b 9fbc 3d87 353d 3c93 bfbd ab62 1b3d
00000380: c9c4 c13d 25d8 093c 1f2d 0cbc b84d e23d
00000390: fdf9 4ebd a279 b7bc d26e 853d 4bdf 3b3d
000003a0: 2e03 5c3c 4d13 05bd 606f d4bd 7f2c 203d
000003b0: 5ed0 5f3d d735 93bd e6d2 37bd 7e83 32ba
000003c0: bd25 91bc 22c6 19bd 8630 b13c 8f21 3e3d
000003d0: 310e 47bd cb32 0fbd fb06 0ebd 9721 933d
000003e0: 99ac 54bb efd4 173d 0462 753d 803f 90bd
000003f0: 134b eb3c 71fb ed3d 298c 6a3d eda2 00bb
