weights/6-18-0_split_4.pt (torch, 276326 bytes, 26 tensors)

conv1.bias f4 [64]
0	0x3704fd79	7.926829e-06
1	0x3749bcd6	1.20245e-05
2	0xb7885452	-1.6251728e-05
3	0x38b98005	8.845333e-05
4	0xb85a1c72	-5.2001742e-05
5	0xb6f340c1	-7.2495027e-06
6	0x36f57e86	7.3162983e-06
7	0x3709ecdf	8.220987e-06
8	0x383a55a4	4.4425615e-05
9	0xb7307824	-1.051839e-05
10	0x38a2b706	7.758853e-05
11	0xb7ea35fe	-2.7920116e-05
12	0xb7a92bb4	-2.016672e-05
13	0xb70075f6	-7.656859e-06
14	0x382952d3	4.0369876e-05
15	0xb687bd65	-4.045362e-06
16	0x38692080	5.5581797e-05
17	0xb5e42ff8	-1.7001285e-06
18	0x36b023dc	5.2493833e-06
19	0xb6d3a417	-6.3073926e-06
20	0x36da41c9	6.5045647e-06
21	0x37bf3344	2.2792847e-05
22	0x3757cc2f	1.2862539e-05
23	0x373a7473	1.1113577e-05
24	0xb60f55cb	-2.1358599e-06
25	0x370e051f	8.465052e-06
26	0x35b0df8c	1.3178083e-06
27	0xb76e73ff	-1.4212913e-05
28	0x37b88b50	2.1999382e-05
29	0xb8b21180	-8.490961e-05
30	0x37c84d52	2.3877863e-05
31	0xb76578a2	-1.3677551e-05
32	0x36bbb88d	5.594519e-06
33	0x358d49c6	1.052679e-06
34	0x370e5549	8.483717e-06
35	0x37e702eb	2.7538705e-05
36	0xb8103fd9	-3.4391738e-05
37	0xb8b286f7	-8.5128406e-05
38	0xb67412bb	-3.6369736e-06
39	0x37ab6fd2	2.0436859e-05
40	0xb5ca76fb	-1.5084801e-06
41	0x382a6352	4.0623658e-05
42	0x37dd7b61	2.6402706e-05
43	0x347724c1	2.3017039e-07
44	0xb801086b	-3.0763837e-05
45	0xb65c4fd5	-3.2829023e-06
46	0xb692a54a	-4.3703812e-06
47	0x38014c3d	3.0827e-05
48	0x373cfc16	1.1264367e-05
49	0xb6d9347c	-6.473214e-06
50	0x378e08bb	1.6931785e-05
51	0xb5cc66f7	-1.5229151e-06
52	0x368ef970	4.260968e-06
53	0x370d60b2	8.4267685e-06
54	0x368e1850	4.23476e-06
55	0xb8c87453	-9.55841e-05
56	0x37815464	1.5417296e-05
57	0x36d9ab33	6.487034e-06
58	0xb677ef51	-3.6945169e-06
59	0x34fb944d	4.6860296e-07
60	0x3492da84	2.735361e-07
61	0x368d7ad4	4.2164265e-06
62	0xb70cf55d	-8.401778e-06
63	0x37c6c545	2.36953e-05

conv1.lin.weight f4 [64, 2]
0	0xbe6feb06	-0.23429498
1	0xbd78aaae	-0.060709648
2	0xbd8a40c0	-0.06750631
3	0x3e18acda	0.14909688
4	0x3dab88d7	0.083757095
5	0xbcbe7554	-0.023249306
6	0xbe1a52c3	-0.15070634
7	0xbbd8aef9	-0.0066126552
8	0x3bca0a73	0.0061657964
9	0xbe4b91ef	-0.19879888
10	0x3e202faf	0.1564319
11	0x3e720ac7	0.23636924
12	0x3d05b259	0.03264079
13	0x3e2f672d	0.17129202
14	0xbe007f60	-0.1254859
15	0x3e2ed9a2	0.17075208
16	0x3da46263	0.08026578
17	0xbd94e463	-0.07270124
18	0x3d9a48a1	0.07533384
19	0x3e068cd5	0.1313966
20	0xbe12da89	-0.14341177
21	0x3d70e465	0.058811564
22	0x3d2c0254	0.041994408
23	0xbe305e82	-0.17223552
24	0xbae3dcda	-0.0017384544
25	0xbe071c02	-0.13194278
26	0x3e5fda00	0.21860504
27	0xbc7b798b	-0.015348802
28	0xbde871d5	-0.11349837
29	0xbdf9fe7d	-0.12206743
30	0x3e00ffd4	0.1259759
31	0x3e93a613	0.28837642
32	0xbe647b5e	-0.22312686
33	0xbbc9f276	-0.006162937
34	0x3dc375ba	0.09543939
35	0xbe6641ed	-0.22486086
36	0x3c0464d6	0.008080682
37	0x3ea3cd16	0.31992406
38	0xbd9662fd	-0.07343099
39	0x3e9562ef	0.29177043
40	0x3e5a1fae	0.21301147
41	0x3e0b60bf	0.13611124
42	0xbe983aa0	-0.29732227
43	0x3d8123e2	0.06305672
44	0xbe1d216e	-0.15344784
45	0xbe4a16c5	-0.19735248
46	0x3e466456	0.19374213
47	0xbd2cc13a	-0.042176463
48	0x3e8784b5	0.26468435
49	0xbcdf4d7b	-0.027258625
50	0xbdb00b00	-0.08595848
51	0xbe0911a2	-0.13385633
52	0x3e27c429	0.16383423
53	0x3e070009	0.13183607
54	0xbe5ebaaf	-0.21750902
55	0xbd941184	-0.07229903
56	0x3db969ec	0.09053406
57	0xbe7dba68	-0.2477814
58	0xbcae6f11	-0.021293195
59	0xbd18baa5	-0.037287373
60	0xbdca6e36	-0.09884302
61	0xbe85b183	-0.26111993
62	0xbe7b4a6c	-0.24540108
63	0x3e25589c	0.16147083
64	0x3e3ed6c4	0.18636614
65	0x3de5eea9	0.112271614
66	0x3e958f22	0.29210764
67	0xbe0816a4	-0.13289887
68	0xbe91f43b	-0.28506646
69	0x3e2a8926	0.1665388
70	0x3e129a80	0.1431675
71	0x3e1a74fd	0.1508369
72	0xbd4eccf1	-0.050488416
73	0x3cd41660	0.025889575
74	0x3da5a5fb	0.08088299
75	0x3c8d6f48	0.017264977
76	0x3e35444c	0.17701834
77	0x3e57a331	0.21058346
78	0xbeb181d0	-0.34669352
79	0x3e5719be	0.21005914
80	0xbe96a818	-0.2942512
81	0x3e75cc31	0.24003674
82	0x3da0a9c7	0.078448825
83	0x3d942a90	0.07234681
84	0xbe229427	-0.15876828
85	0xbe611075	-0.21978934
86	0x3da5218a	0.08063038
87	0x3e4bd5ec	0.19905823
88	0xbe47a20d	-0.19495411
89	0x3e3cf329	0.18452133
90	0xbe903709	-0.28166988
91	0x3e62668d	0.22109433
92	0x3eae7b5a	0.34078485
93	0x3d28525d	0.041094173
94	0x3c255df2	0.010093199
95	0xbe5ae473	-0.21376209
96	0x3c3e7799	0.011625194
97	0x3d3c5b7e	0.04598569
98	0xbc970243	-0.018433696
99	0x3e0e71c6	0.13910589
100	0x3e41d5c1	0.18929197
101	0xbd19f6fc	-0.03758906
102	0x3e27368e	0.16329405
103	0xbd01fe3e	-0.031736605
104	0xbe7ca184	-0.24670988
105	0x3e1b4970	0.15164733
106	0xbca2af0e	-0.019858863
107	0x3e1450d6	0.14483961
108	0x3e5b0905	0.2139016
109	0xbdce0e04	-0.10061267
110	0x3d0462c3	0.03232075
111	0xbe10dc72	-0.14146593
112	0xbe4c35df	-0.19942425
113	0x3e2bc068	0.16772616
114	0xbe299288	-0.16559803
115	0x3e7e7952	0.24850968
116	0x3e811cf6	0.25217408
117	0x3c8ed30c	0.01743462
118	0x3e4a9bf0	0.19786048
119	0xbd97d4b5	-0.074136175
120	0xbdb3e3f4	-0.08783713
121	0x3e494caf	0.19658159
122	0xbd1da1eb	-0.038484495
123	0xbeb96cf7	-0.36215946
124	0x3e330095	0.17480691
125	0xbe1e69bf	-0.15470026
126	0xbe9e31df	-0.30897424
127	0x3df5395c	0.11973831

conv2.bias f4 [64]
0	0xbd86de6a	-0.06585391
1	0xbd8c0d8c	-0.06838521
2	0xbd3f2fda	-0.046676494
3	0xbd2ca447	-0.042148855
4	0xbd974fbd	-0.07388256
5	0xbcc571ce	-0.024102118
6	0xbe05f4e6	-0.13081703
7	0xbdbc90be	-0.09207295
8	0xbe078eac	-0.13238019
9	0x3e1e66a9	0.15468849
10	0xbd94ffe4	-0.0727537
11	0x3d1fbabb	0.03899644
12	0xbbd4fc89	-0.006499831
13	0xbd317a1a	-0.043329336
14	0xbe1b9ef4	-0.15197355
15	0xbd0926c6	-0.033484243
16	0xbd3478d8	-0.044060558
17	0x3cd616a9	0.026133852
18	0xbdfc8bd5	-0.12331358
19	0xbe243267	-0.16034852
20	0xbe0bedf0	-0.13664985
21	0xbd7060a0	-0.0586859
22	0xbb626de0	-0.0034550354
23	0x3c38eb65	0.011286591
24	0xbce628d2	-0.028095637
25	0xbd7477e6	-0.059684657
26	0xbd97ba4d	-0.07408581
27	0xbd22e5ff	-0.039770123
28	0x3d9b5df9	0.07586283
29	0xbd9dfa4f	-0.07713758
30	0xbe02e027	-0.1278082
31	0x3b1150a1	0.0022173303
32	0xbe2c64f5	-0.16835387
33	0x3da7174b	0.0815874
34	0x3cf565de	0.0299558
35	0xbe18e94b	-0.14932744
36	0xbdbf764f	-0.093487374
37	0xbd5ebf8a	-0.054381885
38	0xbd236e2a	-0.039899983
39	0xbe0768d9	-0.1322359
40	0xbc5818ee	-0.013189537
41	0x3d6c1009	0.05763248
42	0xbdb8fbc3	-0.09032395
43	0xbdf06c4c	-0.11739406
44	0x3d58e6da	0.052954532
45	0xbdbf2ffe	-0.09335326
46	0x3cc3454b	0.023836752
47	0xbdb33245	-0.087498225
48	0xbdd90914	-0.10597435
49	0xbd98b40b	-0.074562155
50	0xbd03a0d5	-0.032135803
51	0xbd5395e0	-0.051656604
52	0x3dcdf07e	0.10055636
53	0x3dadaf98	0.084807575
54	0x3c2e096e	0.010622365
55	0xbd502449	-0.050815854
56	0xbda597e7	-0.08085614
57	0x3b5a967c	0.0033353856
58	0x3aa8bbc8	0.0012873346
59	0xbd099c19	-0.033596132
60	0x3ad64060	0.001634609
61	0x3cbfadd3	0.023398316
62	0xbdfbd98d	-0.12297354
63	0xbde91c65	-0.11382369

conv2.lin.weight f4 [64, 64]
0	0xbd6ee02c	-0.058319256
1	0xbcdbf394	-0.026849546
2	0xbde249fb	-0.11049267
3	0xbdbb85f0	-0.09156406
4	0xbdb28182	-0.08716108
5	0x3ca7a221	0.020463051
6	0x3e14e0e2	0.14538911
7	0xbd8e7b2c	-0.06957087
8	0xbd056ac8	-0.032572538
9	0xbd98541a	-0.07437916
10	0xbd027bed	-0.031856466
11	0xbe1e684a	-0.1546947
12	0xbe3df84a	-0.18551746
13	0xbb337f9f	-0.00273893
14	0xbdac4ad4	-0.0841271
15	0xbe48bc11	-0.19602992
16	0x3dc8bbd5	0.09801451
17	0x3e3e993d	0.18613143
18	0x3e294704	0.16530997
19	0xbd52dc63	-0.05147971
20	0xbe70ea31	-0.23526837
21	0x3da26bfa	0.07930751
22	0xbe8faa40	-0.28059578
23	0x3e4a9eb6	0.19787106
24	0x3e64f440	0.22358799
25	0xbe8c7679	-0.27434137
26	0xbe377d6b	-0.17918937
27	0xbea23c4d	-0.3168663
28	0xbda46a5c	-0.08028099
29	0xbda70145	-0.08154539
30	0xbe32155b	-0.17390959
31	0xbdb578c6	-0.08860926
32	0xbc4176cd	-0.0118081095
33	0x3e148c5c	0.14506668
34	0xbd5cfb6e	-0.05395072
35	0xbddd117e	-0.10794352
36	0x3da5ccce	0.08095704
37	0xbe449073	-0.19195728
38	0x3d01c8f0	0.03168577
39	0x3de31100	0.11087227
40	0x3da8c161	0.08240009
41	0xbdc0894d	-0.09401188
42	0x3d94f75c	0.072737426
43	0xbcde808b	-0.027160903
44	0x3e4120f3	0.18860225
45	0xbdf73a5c	-0.12071678
46	0xbc93811f	-0.018005906
47	0x3db62041	0.08892871
48	0x3e4dcafd	0.20096965
49	0xbdc68471	-0.0969323
50	0x3dff4452	0.12464203
51	0x3df00eb7	0.11721557
52	0xbd7b9a2a	-0.06142632
53	0x3d80f9ec	0.06297669
54	0x3e30bb71	0.17259003
55	0x3cb966f7	0.022632105
56	0xbe338835	-0.17532428
57	0xbded955d	-0.116007544
58	0x3e127d43	0.14305596
59	0x3e684f28	0.22686446
60	0x3bea163e	0.0071437648
61	0x3d3cd846	0.046104692
62	0xbe1f76d5	-0.15572675
63	0xbda34319	-0.07971782
64	0xbe9a8b3b	-0.3018435
65	0x3c791b18	0.015204214
66	0x3e865dad	0.26243344
67	0xbea02af3	-0.31282768
68	0xbe68369f	-0.22677086
69	0xbe4797b6	-0.19491467
70	0x3d71665c	0.058935508
71	0xbe54bdef	-0.20775579
72	0xbe0b23c3	-0.13587861
73	0x3cf4c06f	0.029876916
74	0xbdbc1ec0	-0.091855526
75	0xbe139b9b	-0.14414828
76	0xbe57008a	-0.209963
77	0x3c3e2757	0.011606059
78	0xbe4147de	-0.18875071
79	0xbe1ab60d	-0.1510851
80	0xbe8f88dc	-0.28034103
81	0xbde4b001	-0.111663826
82	0xbe0011d1	-0.12506796
83	0x3dc4f289	0.096165724
84	0xbe234182	-0.15942958
85	0x3dfcd80d	0.12345896
86	0xbedd6160	-0.43238354
87	0x3e8ab2d3	0.27089557
88	0xbe1c7d57	-0.15282188
89	0xbed465a8	-0.41483808
90	0x3d019606	0.031637214
91	0xbede544c	-0.43423688
92	0xbe074f0e	-0.1321375
93	0xbe899566	-0.26871794
94	0xbcb99eeb	-0.022658786
95	0xbd01a41a	-0.03165064
96	0x3df0770f	0.117414586
97	0x3e1899a3	0.14902358
98	0xbdbf2b8a	-0.09334476
99	0xbc99a8d6	-0.018757265
100	0xbe35e50b	-0.17763154
101	0x3e4a58e5	0.19760473
102	0x3db123be	0.086493954
103	0x3e34ddc9	0.1766273
104	0x3dae7f07	0.08520322
105	0xbe4d0b2d	-0.20023794
106	0xbf000e09	-0.50021416
107	0xbbc0d76f	-0.0058850567
108	0xbd5f2a4a	-0.05448369
109	0xbd5761d0	-0.052583516
110	0x3c8c8f97	0.017158313
111	0x3d073c7f	0.033016678
112	0xbc6753c3	-0.014119091
113	0x3e1cc613	0.15309934
114	0x3e7bc78c	0.2458784
115	0xbdec221d	-0.11529944
116	0x3c2bf451	0.010495261
117	0x3e217991	0.1576903
118	0x3e13d6b9	0.14437379
119	0x3d0ba88b	0.034096282
120	0xbd445975	-0.047936875
121	0x3d91fe23	0.07128551
122	0xbd84fc37	-0.06493419
123	0x3e33dfcd	0.17565842
124	0x3e2f1190	0.17096543
125	0xbe560c77	-0.20903192
126	0x3e2e24bb	0.17006199
127	0xbe4a9d31	-0.19786526
128	0x3e0a6f4d	0.1351902
129	0xbdd64a12	-0.104633465
130	0x3dcd1f29	0.10015709
131	0x3e0c9818	0.13729894
132	0x3df5587c	0.11979768
133	0xbdfc6e08	-0.12325674
134	0xbcbd8587	-0.02313496
135	0xbe40ab83	-0.18815427
136	0x3e231c3e	0.15928742
137	0x3cfd497d	0.030918831
138	0xbe128b83	-0.14311032
139	0x3d93d939	0.07219166
140	0xbe0e774a	-0.13912693
141	0x3e236b66	0.15958938
142	0x3dc3b276	0.09555523
143	0x3e3f5395	0.18684228
144	0x3dd0bd08	0.10192305
145	0xbdaa7932	-0.083238974
146	0xbd3b7322	-0.045764096
147	0x3df7ed8a	0.12105854
148	0xbdf5809d	-0.11987422
149	0xbbd23fae	-0.0064162826
150	0xbc93d14f	-0.018044142
151	0x3de48526	0.111582085
152	0x3e47228a	0.1944677
153	0xbe47ac28	-0.19499266
154	0x3e40f771	0.18844391
155	0x3e480d5a	0.19536343
156	0x3df2df02	0.118589416
157	0xbd141901	-0.036156658
158	0xbdc437b1	-0.09580935
159	0xbdea16b3	-0.11430111
160	0xbdf4e63e	-0.11957978
161	0x3de8c264	0.11365202
162	0xbe25fad5	-0.16208966
163	0xbc19e624	-0.009393249
164	0xbdd11b5a	-0.10210295
165	0x3dffe7cd	0.12495384
166	0xbe38c99d	-0.1804566
167	0x3e3380e4	0.17529637
168	0xbc319705	-0.0108392285
169	0x3e28ef5b	0.16497557
170	0x3d639a26	0.05556693
171	0xbd4bf64b	-0.04979543
172	0xbe3ae13f	-0.18249987
173	0x3dacc7b9	0.084365316
174	0x3e54b7fc	0.2077331
175	0xbdda7655	-0.10667101
176	0x3e09c8cb	0.13455503
177	0x3dad9b83	0.08476927
178	0xbe219c57	-0.15782295
179	0xbdf38a1c	-0.11891577
180	0x3df5dbcb	0.12004813
181	0xbe5692df	-0.20954464
182	0x3d54bd88	0.051938564
183	0xbdef74cf	-0.11692201
184	0x3c7fb631	0.015607403
185	0xbe24a7d6	-0.1607965
186	0x3c3a060e	0.011353983
187	0xbe2c915a	-0.16852322
188	0xbe006131	-0.12537076
189	0xbe0888d9	-0.13333453
190	0xbe685c6d	-0.22691508
191	0x3e0d51dd	0.1380076
192	0x3cfbead6	0.030751627
193	0xbe3057e4	-0.17221028
194	0xbe6e9cf0	-0.23302054
195	0x3de89c75	0.11357967
196	0x3ba0190e	0.0048857993
197	0xbdf5f468	-0.120095074
198	0x3d501071	0.05079693
199	0xbdb2b599	-0.08726043
200	0xbdaeb9e5	-0.0853155
201	0x3d261937	0.04055139
202	0xbdb43807	-0.08799749
203	0xbe803bb4	-0.2504555
204	0xbe3c2696	-0.18374094
205	0xbd46d0a8	-0.048538834
206	0xbde50008	-0.111816466
207	0xbc828cff	-0.015936373
208	0xbcc3f1a3	-0.023918932
209	0xbe3a70d4	-0.18207103
210	0x3dc130fc	0.09433171
211	0x3df64596	0.12024991
212	0xbcd7d12d	-0.02634486
213	0xbdd98694	-0.10621372
214	0x3dbc3325	0.091894425
215	0xbdd3e24a	-0.103458956
216	0xbd8290a8	-0.06375247
217	0xbcfddf7f	-0.03099036
218	0x3e1a2ed8	0.15056932
219	0xbe32fcfa	-0.17479315
220	0xbdaeccb2	-0.08535136
221	0xbe6570de	-0.22406337
222	0x3da479e3	0.080310605
223	0xbe7e5c0d	-0.24839802
224	0x3d07f226	0.033189915
225	0xbe03a573	-0.12856083
226	0x3db64ff2	0.08901967
227	0x3db75038	0.089508474
228	0xbe8376f8	-0.25676703
229	0x3c378dc7	0.011203236
230	0x3e071768	0.13192523
231	0x3dc16b7f	0.094443314
232	0x3dbe582b	0.092941605
233	0xbd9954b8	-0.07486862
234	0xbe960ef4	-0.29308283
235	0xbd8a0eef	-0.067411296
236	0xbc99cb87	-0.018773807
237	0xbd490c8a	-0.049084224
238	0xbe2ce93b	-0.16885845
239	0xbe89e79e	-0.26934522
240	0x3d902f81	0.07040311
241	0xbe2b5abd	-0.16733833
242	0xbe704eab	-0.2346751
243	0xbc939d02	-0.018019203
244	0x3de007aa	0.10938962
245	0x3e1408f3	0.14456539
246	0x3a9398ca	0.0011260745
247	0xbe3b31a1	-0.1828065
248	0xbbdab887	-0.0066748294
249	0x3e25e575	0.16200812
250	0xbe262559	-0.16225185
251	0xbe57279c	-0.21011204
252	0xbd721dc9	-0.059110437
253	0xbd41b2db	-0.04728971
254	0x3e06b53b	0.13155071
255	0xbd254b8d	-0.040355254

conv3.bias f4 [128]
0	0xb7ef3558	-2.851586e-05
1	0xb90b7bb7	-0.0001330216
2	0x38c5393e	9.404354e-05
3	0xb8860a63	-6.3915526e-05
4	0xb94e27a5	-0.0001966046
5	0x38a16fbe	7.697892e-05
6	0x3992bfe0	0.00027990248
7	0xb90dd8c8	-0.00013527565
8	0xb972927b	-0.00023133487
9	0x393615ca	0.0001736499
10	0xb9943f38	-0.0002827586
11	0xb97ccade	-0.00024108167
12	0x38ae9df4	8.3263876e-05
13	0xb8b80eff	-8.776597e-05
14	0x38045d32	3.1558047e-05
15	0x391c1761	0.00014886029
16	0x37b43eb2	2.1486867e-05
17	0x3913cf67	0.00014096276
18	0x38c0e0df	9.197159e-05
19	0x392bc29c	0.00016380328
20	0x37442bec	1.1692737e-05
21	0xb8788376	-5.925024e-05
22	0xb909d441	-0.00013144409
23	0xb999f234	-0.0002936289
24	0x39a2c7aa	0.0003104781
25	0xb8d09284	-9.9455036e-05
26	0x38fae75a	0.000119640215
27	0x3989fa27	0.00026317054
28	0xb73d0c43	-1.1268133e-05
29	0x397d544e	0.00024159366
30	0xb801cc5a	-3.0946314e-05
31	0x3889b619	6.5665874e-05
32	0x39010553	0.00012304382
33	0x39177efc	0.00014447788
34	0x3810c720	3.4517725e-05
35	0xb9725505	-0.0002311059
36	0x385d4950	5.2758784e-05
37	0x37ee0265	2.8372926e-05
38	0x3806f40b	3.2175372e-05
39	0xb7fcb4c7	-3.0124922e-05
40	0xb6104a4f	-2.1500925e-06
41	0xb7832b3c	-1.563655e-05
42	0xb83ef2f8	-4.5525812e-05
43	0x38f671bb	0.00011751378
44	0x37d86d65	2.5800147e-05
45	0xb88381ad	-6.270721e-05
46	0xb5b7c785	-1.369263e-06
47	0xb9390256	-0.00017643845
48	0xb90cd731	-0.00013431605
49	0x39261cf8	0.00015841785
50	0xb985b4f8	-0.0002550257
51	0x382ae301	4.0742572e-05
52	0x3867501e	5.5149307e-05
53	0x39f49c25	0.00046655643
54	0x395a2289	0.00020802965
55	0x39c6cffa	0.00037920458
56	0x383911a3	4.4123863e-05
57	0x378acd8d	1.6546599e-05
58	0xb810e8d9	-3.454913e-05
59	0x388a09f6	6.582208e-05
60	0x392d5b56	0.00016532591
61	0xb7c1ea5a	-2.3116521e-05
62	0xb89b2152	-7.397182e-05
63	0xb87c9af8	-6.0225808e-05
64	0xb9229d1b	-0.0001550805
65	0xb8b3c523	-8.572105e-05
66	0x38afa4d8	8.375355e-05
67	0xb876491d	-5.8719063e-05
68	0x391c57b2	0.00014909988
69	0xb8713c07	-5.7514782e-05
70	0x3a080515	0.00051887456
71	0x397ac169	0.00023913909
72	0xb823bd47	-3.9038507e-05
73	0x381e9ae8	3.7814403e-05
74	0x398680cc	0.00025654433
75	0xb90d0975	-0.00013450331
76	0xb89ee4f1	-7.576671e-05
77	0x38cbd3b3	9.7192264e-05
78	0x3958a87a	0.00020662128
79	0xb940ea45	-0.00018397819
80	0x39115f79	0.00013863844
81	0xb861c396	-5.3826334e-05
82	0xb8789a14	-5.9271304e-05
83	0x372728c8	9.963471e-06
84	0xb88f57cf	-6.835127e-05
85	0x382c96f5	4.1148585e-05
86	0x39841dc0	0.00025199167
87	0xb90357ea	-0.00012525884
88	0x39013fd1	0.00012326172
89	0xb8c1cdc8	-9.241287e-05
90	0xb94750a9	-0.00019008167
91	0xb7d939cf	-2.5895335e-05
92	0x38cf538f	9.886093e-05
93	0xb7b378ca	-2.139471e-05
94	0x3719b931	9.162629e-06
95	0x394a1028	0.0001927024
96	0xb90045ef	-0.00012233084
97	0x38dbeebe	0.00010487203
98	0x39db1da0	0.00041793007
99	0xb8a4b477	-7.8537436e-05
100	0xb95b5ab6	-0.0002091926
101	0x388ef634	6.8169466e-05
102	0xb80d34af	-3.3666085e-05
103	0x39732d0a	0.00023191064
104	0xb9216f4b	-0.00015395616
105	0xb9e4b655	-0.00043623397
106	0x39c690b5	0.00037873318
107	0x38cae6eb	9.6751224e-05
108	0x38e2da3a	0.00010817168
109	0xb894cf60	-7.0958165e-05
110	0x391591ee	0.0001426411
111	0xb9895a7e	-0.00026198098
112	0x38c9ad57	9.616714e-05
113	0x3807b5f9	3.2355983e-05
114	0xb9471cf2	-0.00018988902
115	0x39146f77	0.00014155904
116	0xb900bb2b	-0.00012276757
117	0x348150aa	2.4086813e-07
118	0xb8f5d8c5	-0.00011722887
119	0x3939157c	0.00017650978
120	0x390691ee	0.00012833599
121	0x38a5e6a1	7.910771e-05
122	0xb8812d9f	-6.159697e-05
123	0x37fed2ec	3.0377378e-05
124	0x38686135	5.540364e-05
125	0xb87eda4e	-6.076163e-05
126	0xb82f89d1	-4.1851603e-05
127	0xb69d9aa9	-4.6969694e-06

conv3.lin.weight f4 [128, 64]
0	0xbd6637e6	-0.056205653
1	0xbdf449b3	-0.119281195
2	0xbc8e2300	-0.017350674
3	0xbe2e535c	-0.17023987
4	0xbd9b3747	-0.07578903
5	0x3ddf5754	0.109053284
6	0x3d98ec75	0.074669756
7	0xbe4993f6	-0.19685349
8	0xbdf5ed05	-0.120080985
9	0xbe56d396	-0.20979151
10	0xbddc0fc3	-0.10745194
11	0xbd8be6d5	-0.06831137
12	0x3e0d3159	0.13788356
13	0x3e0aff0e	0.13573858
14	0xbd6d7a69	-0.057978068
15	0xbe5aa012	-0.21350124
16	0x3d820940	0.063494205
17	0x3ccb6d2b	0.024832329
18	0x3aee8e92	0.0018200448
19	0xbde77a37	-0.113026075
20	0x3ca2304a	0.019798417
21	0xbde41803	-0.11137392
22	0x3d0c58d9	0.03426442
23	0x3c3ecfdd	0.011646238
24	0x3ce5bd35	0.028044323
25	0xbe3fbf9b	-0.18725435
26	0x3d1e3ea6	0.038633965
27	0x3ba05d58	0.00489394
28	0xbd6d2c88	-0.057903796
29	0xbdd8d836	-0.10588114
30	0x3cdea416	0.027177852
31	0x3b571897	0.0032821053
32	0xbd931eae	-0.07183586
33	0x3c0b5765	0.008504723
34	0xbd0ab851	-0.033867184
35	0xbcdeef00	-0.027213573
36	0x3e1028ea	0.14078107
37	0xbd2fb0c6	-0.042893194
38	0x3d7d4c28	0.061840206
39	0x3d82712c	0.06369242
40	0xbd14569c	-0.03621541
41	0xbdc2168d	-0.094769575
42	0x3e158088	0.14599812
43	0x3bba43a7	0.0056843343
44	0x3e03b950	0.1286366
45	0xbd207486	-0.039173625
46	0x3cc20738	0.023685083
47	0x3ca0596f	0.019573895
48	0xbccdb4b9	-0.02511059
49	0xbe3a9717	-0.18221699
50	0x3e1d8671	0.15383317
51	0x3cd9b8bb	0.026577344
52	0x3e40cf2f	0.18829034
53	0xbd7458fa	-0.059655167
54	0x3de4e58d	0.11176596
55	0x3cb03685	0.021510372
56	0xbcd25a8f	-0.025677947
57	0xbdb8db30	-0.09026182
58	0x3d65fb51	0.056147877
59	0xbe55d461	-0.20881797
60	0xbe2f9b30	-0.17149043
61	0xbcc3ce73	-0.023902154
62	0x3df6aad9	0.12044305
63	0xbcc47bb3	-0.023984766
64	0xbdc76feb	-0.097381435
65	0xbdfb8949	-0.122820444
66	0xbd046703	-0.032324802
67	0xbd031918	-0.032006353
68	0x3d8c45f0	0.06849277
69	0xbdd992f8	-0.10623735
70	0xbd991548	-0.07474762
71	0x3df8d86e	0.12150656
72	0xbd92b388	-0.07163149
73	0x3ca63b22	0.020291869
74	0xbe15d474	-0.14631826
75	0x3d5ebe51	0.05438072
76	0x3cb8374e	0.022487309
77	0x3c812728	0.015765741
78	0x3956b80b	0.00020477192
79	0x3e4bfd0c	0.19920748
80	0xbcae5ae2	-0.02128357
81	0xbcaf1f7b	-0.021377316
82	0xbde0c710	-0.10975468
83	0xbe17cb04	-0.14823538
84	0x3dc42c31	0.09578741
85	0x3ca0efa4	0.01964552
86	0x3925a487	0.00015796917
87	0xbd27cbb2	-0.040965743
88	0x3db3aa82	0.08772756
89	0x3e33fd45	0.17577083
90	0xbd1b0e99	-0.03785572
91	0xbe22007b	-0.15820496
92	0x3ce30232	0.027711008
93	0x3cb0e90f	0.021595506
94	0x3c99df4c	0.018783234
95	0xbd9ed4e0	-0.077554464
96	0x3dd15e1e	0.102230296
97	0x3c6f0857	0.014589391
98	0x3e0a0924	0.1348005
99	0xbdb5a8dd	-0.08870099
100	0x3d8237be	0.06358288
101	0x3e16471d	0.14675565
102	0x3de6884b	0.112564646
103	0x3de09491	0.10965837
104	0x3c97ff5e	0.018554386
105	0x3dfa71e3	0.122287534
106	0xbccef48e	-0.025263097
107	0xbcc66bf3	-0.024221396
108	0x3d2d23e8	0.04227057
109	0xbdb5d446	-0.088783786
110	0xbe7c88bf	-0.2466154
111	0xbce14600	-0.027499199
112	0x3e38392e	0.17990562
113	0x3e0e9dfc	0.13927454
114	0xbd12ad03	-0.035809528
115	0xbd4d3661	-0.050100688
116	0xbcf0dd71	-0.029402466
117	0x3dbaf290	0.091282964
118	0xbb5b32c3	-0.0033447004
119	0xbbe539c2	-0.0069954107
120	0xbe1e0efc	-0.15435404
121	0x3dda438e	0.10657416
122	0xbde5fb60	-0.112295866
123	0xbcdf29d6	-0.027241629
124	0xba5da4ac	-0.0008455019
125	0xbdd13c3b	-0.10216566
126	0x3e1b7bd0	0.1518395
127	0x3d85679e	0.06513904
128	0x3d74438e	0.059634738
129	0x3d9bf0bf	0.07614278
130	0x3e095f36	0.13415226
131	0xbdac3cc5	-0.08410028
132	0xbde03f71	-0.109496005
133	0x3dd0d81b	0.10197469
134	0x3d6db4a5	0.058033604
135	0xbc1f4239	-0.009720379
136	0x3d9760bf	0.073915
137	0x3e245bf7	0.16050707
138	0x3cc54fac	0.024085842
139	0x3d301eb0	0.042998016
140	0xbc072f15	-0.008250971
141	0x3de6c736	0.11268465
142	0x3d1929ea	0.037393488
143	0x3df20b7a	0.11818595
144	0xbdd77bb9	-0.10521645
145	0x3cf7fc31	0.030271621
146	0xbda6b11f	-0.08139252
147	0xbd8a5e83	-0.06756308
148	0xbd4e4ea8	-0.05036798
149	0xbd5dd839	-0.054161284
150	0x3c72dd82	0.014823319
151	0x3df9573c	0.12174842
152	0xbe1072a1	-0.14106227
153	0x3cc19327	0.023629738
154	0x3d497a86	0.049189113
155	0xbc576037	-0.013145498
156	0x3b8e23c3	0.004337759
157	0xbe04babc	-0.12961859
158	0x3dcc228b	0.09967526
159	0xbbae503e	-0.005319624
160	0x3d8af4ed	0.06784997
161	0xbd4b638d	-0.049655486
162	0xbd09cd49	-0.03364304
163	0x3d13074f	0.035895642
164	0xbc80e4de	-0.015734132
165	0xbe1d2506	-0.15346155
166	0x3de437cd	0.11143456
167	0xbc9afa01	-0.01891804
168	0x3e1a449f	0.1506524
169	0xbd41329d	-0.04716741
170	0x3db2aa5c	0.087239
171	0x3d8d2dc6	0.06893496
172	0x3dd0ace5	0.10189227
173	0x3e021514	0.12703353
174	0xbe01e026	-0.12683162
175	0xbcaff948	-0.021481171
176	0x3e4449af	0.19168733
177	0xbe24e242	-0.16101936
178	0xbda933b0	-0.08261812
179	0xbb8cdea1	-0.0042990004
180	0xbe352aeb	-0.17692153
181	0x3d797d9f	0.060910817
182	0xbe11b3cb	-0.14228742
183	0x3de393e8	0.11112195
184	0xbe13ff00	-0.14452744
185	0xbe316c26	-0.17326412
186	0xbe17c07f	-0.14819525
187	0xbd343136	-0.043992244
188	0x3e2f7413	0.17134123
189	0xbe0814e3	-0.13289218
190	0x3d2716d4	0.040793255
191	0x3d744f4b	0.059645932
192	0xbd091d0b	-0.033474963
193	0x3a5b75ac	0.00083717215
194	0x3d5784a1	0.05261672
195	0xbdc18bb6	-0.09450476
196	0x3b8b6267	0.004253674
197	0x3e02ebbb	0.12785237
198	0x3e34c65e	0.17653796
199	0x3b9e0449	0.004822288
200	0x3e28a200	0.16468048
201	0xbdca5f1b	-0.09881421
202	0xbdb5e045	-0.08880667
203	0xbe33a94f	-0.17545055
204	0xbdb668c9	-0.08906705
205	0x39f90b31	0.0004750132
206	0xbd288419	-0.041141603
207	0xbd103297	-0.035204496
208	0x3db0c0ba	0.0863051
209	0x3c2a7157	0.010402999
210	0xbde88a04	-0.113544494
211	0x3e01420d	0.12622853
212	0x3e3dc10f	0.18530677
213	0xbda0f121	-0.07858492
214	0xbe237f89	-0.1596662
215	0x3b80c104	0.0039292593
216	0x3c170a23	0.009218725
217	0xbdaa736a	-0.08322795
218	0x3d7c8ce6	0.06165781
219	0xbddf190c	-0.10893449
220	0x3b955555	0.0045572915
221	0x3d06cdb7	0.03291103
222	0xbdbaf52e	-0.091287956
223	0xbe575278	-0.21027553
224	0x3e0b1a2c	0.13584203
225	0x3d905921	0.0704825
226	0xbdb929c7	-0.090411715
227	0x3c4acc3a	0.012377793
228	0x3e492b59	0.19645442
229	0xbe324f57	-0.17413078
230	0x3da60947	0.08107238
231	0x3e32ec46	0.17472944
232	0x3d858c91	0.065209515
233	0xbe1fcd8d	-0.15605755
234	0xbdf6cc24	-0.120506555
235	0x3dcef05b	0.10104438
236	0x3de72301	0.11285973
237	0x3d83be1f	0.06432747
238	0xbe34189f	-0.17587517
239	0xbdf8ad94	-0.121424824
240	0xbdc3788f	-0.09544479
241	0x3c5cfac3	0.013487521
242	0xbde25e8b	-0.11053189
243	0x3c5d11eb	0.0134930415
244	0x3d68cd74	0.05683656
245	0xb9ffcb3a	-0.00048788806
246	0x3d18db99	0.0373188
247	0x3daa438b	0.08313664
248	0xbd325467	-0.043537524
249	0xbd859a12	-0.06523527
250	0xbd3256fb	-0.043539982
251	0xbd87e206	-0.066349074
252	0x3da5f414	0.08103195
253	0xbd9377ed	-0.072006084
254	0xbce280b7	-0.027649267
255	0xbdcb6ebb	-0.099332295

conv4.bias f4 [128]
0	0xbd02d8b9	-0.031944964
1	0xbd46e6b5	-0.048559863
2	0x3c07514a	0.008259127
3	0xbd0671c5	-0.032823343
4	0xbd222a53	-0.039591145
5	0xbd99f639	-0.07517666
6	0xbd097535	-0.033559043
7	0xbc18dd98	-0.009330176
8	0x3c67c864	0.014146898
9	0xbd336636	-0.043798648
10	0xbdbf765e	-0.093487486
11	0x3caec363	0.021333402
12	0xbdbc2df6	-0.09188454
13	0xbd6230cd	-0.05522232
14	0xbca27f5e	-0.019836124
15	0xbd05a8e2	-0.032631762
16	0xbd3aeeb8	-0.045637816
17	0xbd22676b	-0.03964941
18	0xbdc72b77	-0.09725087
19	0xbccc1ac8	-0.024915114
20	0xbd61b5db	-0.05510507
21	0xbdf6bd8b	-0.12047871
22	0xbd906041	-0.07049609
23	0xbd67572a	-0.05647961
24	0xbcafd0ea	-0.021461923
25	0xbc5c10b7	-0.0134317195
26	0xbbe45aa6	-0.006968814
27	0xbd6cdefc	-0.057829842
28	0xbd5a36af	-0.053274807
29	0xbcfb7693	-0.030696189
30	0xbd7b94ac	-0.06142108
31	0xbd74ee94	-0.05979784
32	0xbe07ad73	-0.1324976
33	0xbd68c4e8	-0.05682841
34	0x3cc7c3d4	0.02438537
35	0xbcf10115	-0.029419461
36	0x3a8c6a48	0.0010712827
37	0xbdb135ec	-0.08652863
38	0xbd8321c7	-0.06402927
39	0x3d375190	0.04475552
40	0xbcea22dd	-0.028581077
41	0xbda62f1d	-0.08114455
42	0x3d0e5142	0.034745462
43	0xbd1de1af	-0.038545307
44	0xbc9e8941	-0.019352557
45	0x3c1432c8	0.00904531
46	0x3c22cbad	0.009936255
47	0xbd8c0c93	-0.06838336
48	0xbd66b49c	-0.056324586
49	0x3c1e3af8	0.009657614
50	0xbdcb3558	-0.09922284
51	0x3cc7cdaa	0.02439006
52	0xbcdf4f74	-0.027259566
53	0xbd66823d	-0.05627655
54	0x39cb0f41	0.00038730542
55	0xbd819d3c	-0.06328818
56	0xbd64fd5f	-0.055905696
57	0xbc76a75d	-0.015054551
58	0xbc974da6	-0.018469643
59	0xbd8e0261	-0.069340475
60	0x3d16defb	0.036833744
61	0xbc888271	-0.016663762
62	0xbce6e438	-0.028184995
63	0x3c8f5748	0.017497674
64	0xbd500336	-0.050784312
65	0xbcaa9a76	-0.020825606
66	0xbd032169	-0.032014284
67	0xbdcd2569	-0.10016901
68	0xbd071054	-0.032974556
69	0xbda0e404	-0.078559905
70	0xbc85689a	-0.01628523
71	0xbd280adf	-0.041025992
72	0xbd6e8418	-0.058231443
73	0xbd2f5f72	-0.042815633
74	0xbc4f1084	-0.012638215
75	0xbd918ef0	-0.07107341
76	0xbddf75f5	-0.109111704
77	0xbd436314	-0.04770191
78	0xbc85e97b	-0.016346684
79	0x3cc66ee3	0.024222797
80	0xbdcb3f47	-0.099241786
81	0xbc721a1c	-0.014776733
82	0xbda100ae	-0.07861458
83	0xbd2995ca	-0.041402616
84	0xbd550a9c	-0.05201207
85	0xbd78e1b8	-0.060762137
86	0xbd374b75	-0.044749696
87	0xbd8070c1	-0.06271506
88	0xbd387fb3	-0.04504366
89	0xbdce6ae5	-0.10078982
90	0xbcf62f91	-0.030051978
91	0xbd20aa5f	-0.03922498
92	0xbbdea4eb	-0.006794562
93	0xbd67cb03	-0.05659009
94	0xbc999053	-0.018745577
95	0x3cfaf4e4	0.030634351
96	0x3a8f4a69	0.001093221
97	0x3c0b26c5	0.00849313
98	0x3b4d8302	0.0031358604
99	0xbd348a05	-0.04407694
100	0xbd908c1b	-0.07057973
101	0xbbe2b41a	-0.0069184424
102	0xbcda42c0	-0.026643157
103	0xbd5a14e5	-0.053242583
104	0xbd85d3f4	-0.065345675
105	0xbd889efc	-0.06670949
106	0x3bd688e5	0.006547081
107	0xbd378d73	-0.04481263
108	0xbc296644	-0.010339323
109	0xbdc83bc4	-0.097770244
110	0xbd5ae3e3	-0.053439986
111	0xbce0530e	-0.027383354
112	0xbce9a221	-0.028519692
113	0x3c7bb796	0.0153635945
114	0x3d11f3d6	0.03563293
115	0xbdcb7026	-0.099335
116	0xbd445e54	-0.04794152
117	0xbd6f2f76	-0.05839487
118	0xbd905a37	-0.07048457
119	0xbd61ae94	-0.05509813
120	0xbbabf04d	-0.005247152
121	0xbe16ccf5	-0.14726622
122	0xbd7c540f	-0.061603602
123	0xbcdfc2db	-0.027314594
124	0xbd1d8d48	-0.038464814
125	0xbdd7d8bf	-0.10539388
126	0x3b951115	0.0045491555
127	0xbd093393	-0.03349645

conv4.lin.weight f4 [128, 128]
0	0xbd6ece7d	-0.05830239
1	0x3df779ac	0.12083754
2	0xbdea06ad	-0.114270546
3	0x3ca569a1	0.02019197
4	0xbd0e1759	-0.034690235
5	0xbd06a83a	-0.032875277
6	0x3dd53e53	0.10412278
7	0xbdba10ab	-0.090852104
8	0xbd504c95	-0.050854284
9	0xbddf489c	-0.10902521
10	0x3d252fce	0.040328793
11	0xbd5ee862	-0.054420836
12	0x3da051f3	0.078281306
13	0x3cbb4c6e	0.022863593
14	0xbce40fa2	-0.027839486
15	0x3cf7afe4	0.030235238
16	0xbe0556da	-0.13021412
17	0xbe255fe8	-0.16149867
18	0x3d32e0c9	0.043671403
19	0x3d15532d	0.036456276
20	0xbe1bb4cc	-0.15205687
21	0xbdbfc944	-0.0936456
22	0xbc464014	-0.012100238
23	0x3dec85fc	0.11548993
24	0x3d6583ad	0.05603378
25	0xbdcb24fb	-0.09919163
26	0xbe330e9c	-0.17486042
27	0x3c9236ca	0.017848391
28	0x3c9c0b47	0.019048346
29	0xbe46f61a	-0.19429818
30	0xbda4caaf	-0.08046471
31	0x3ddc11ea	0.10745604
32	0x3d01db79	0.031703446
33	0x3cca9c15	0.024732629
34	0xbd21952f	-0.039448913
35	0x3b960e6f	0.0045793573
36	0x3dccce8c	0.10000333
37	0xbe2d3359	-0.16914119
38	0x3c86c219	0.016449975
39	0xbe15521c	-0.14582103
40	0x3d31b09c	0.04338132
41	0x3daf2681	0.08552266
42	0xbe3425a6	-0.17592487
43	0xbd26f123	-0.04075731
44	0xbd94eba8	-0.0727151
45	0x3dbfe72d	0.09370265
46	0xbddb9963	-0.107226156
47	0xbde54631	-0.111950286
48	0xbe3050b4	-0.17218286
49	0x3de57f80	0.11205959
50	0x3d5d885e	0.054085128
51	0xbe267b94	-0.16258079
52	0x3e03aa7a	0.12858
53	0xbe19f526	-0.15034923
54	0x3dc36670	0.09541023
55	0xbdabee36	-0.083950445
56	0xbc70b291	-0.014691011
57	0x3da1247a	0.078682855
58	0xbe082e2e	-0.13298866
59	0x3e00e74c	0.12588233
60	0xbdb802df	-0.089849226
61	0xbcd1f079	-0.025627362
62	0x3cc01fe2	0.023452703
63	0xbd59f902	-0.053215988
64	0x3d222e15	0.03959473
65	0xbdf90934	-0.121599585
66	0x3dac2019	0.0840456
67	0x3d4642fd	0.04840373
68	0xbe47ce66	-0.19512329
69	0xbcdd7ca8	-0.02703698
70	0x3d95643f	0.07294511
71	0xbe49e9ab	-0.19718044
72	0x3e05031b	0.12989466
73	0xbd16301b	-0.03666697
74	0xbc51b381	-0.012799145
75	0x3b025c2d	0.0019891367
76	0x3d522210	0.051302016
77	0x3d85a6eb	0.06525978
78	0xbd5d580a	-0.05403904
79	0xbc3f001d	-0.011657742
80	0xbdb74fa1	-0.08950735
81	0xbd660183	-0.056153785
82	0xbe3941f7	-0.1809157
83	0xbe0de6d7	-0.1385759
84	0xbe27ed3b	-0.1639909
85	0x3d1c4a66	0.03815689
86	0x3da28fe3	0.079376005
87	0xbe16099d	-0.14652105
88	0x3d6bc091	0.057556693
89	0x3d14c629	0.036321793
90	0x3bcd518c	0.0062658247
91	0xbdc4b9fe	-0.09605788
92	0x3e100ae3	0.14066653
93	0x3dab4c84	0.083642036
94	0xbd1d07cc	-0.038337514
95	0xbdce8fa9	-0.10085995
96	0xbdb8d971	-0.09025849
97	0x3e016df0	0.12639594
98	0xbdd8acfb	-0.105798684
99	0x3d6c031b	0.05762015
100	0xbd00f49a	-0.03148327
101	0x3c6fb547	0.014630622
102	0xbdb528a9	-0.08845646
103	0xba9908cd	-0.0011675596
104	0x3dc402a2	0.09570815
105	0xbe442b0e	-0.19157049
106	0xbb93a151	-0.0045053144
107	0x3d920248	0.07129341
108	0x3d8e96c7	0.06962352
109	0x3cbc27d0	0.022968203
110	0xbd844260	-0.064579725
111	0x3c04fd61	0.008117051
112	0x3be8eba8	0.0071081705
113	0xbe1633f6	-0.14668259
114	0xbc15f83f	-0.009153425
115	0x3d6ad50a	0.057332076
116	0xbcbf187f	-0.02332711
117	0x3d0d3c43	0.0344813
118	0x3c94ae46	0.018149506
119	0xbd8a0282	-0.067387596
120	0x3d32336d	0.043506075
121	0x3d28f5ba	0.041249968
122	0x3d67dcea	0.056607164
123	0xbbea092d	-0.007142207
124	0x3dd8c828	0.10585052
125	0x3d802d08	0.06258589
126	0xbd06175b	-0.032737117
127	0x3dc28977	0.094988756
128	0xbdcd2a8a	-0.10017879
129	0xbd727bd6	-0.05920013
130	0xbc9162ea	-0.017747361
131	0x3d52bc83	0.05144931
132	0xbcac504e	-0.021034386
133	0x3e094130	0.13403773
134	0xbd8fcf3d	-0.070219494
135	0xbc0734cf	-0.008252337
136	0xbd9ac71f	-0.075575106
137	0x3c7d84ad	0.015473527
138	0x3beedb7e	0.007289349
139	0x3d1bf9c4	0.038079992
140	0x3ddb69ac	0.10713515
141	0xbce3c5dc	-0.027804308
142	0xbdb0ea6d	-0.08638463
143	0x3dda3989	0.10655505
144	0xbd9c7038	-0.076385915
145	0x3d4e35be	0.05034422
146	0xbd68a82d	-0.05680101
147	0xbcfd6720	-0.030932963
148	0x3ce6a78c	0.028156064
149	0x3ca8f268	0.0206234
150	0xbdc662d6	-0.0968682
151	0xbd6197fe	-0.05507659
152	0x3a66b6df	0.00088010536
153	0x3d81ff35	0.06347505
154	0x3dcd578b	0.10026463
155	0xbd09e76c	-0.033667967
156	0xbdc94057	-0.09826725
157	0x388a448a	6.593119e-05
158	0xbd8fd4d9	-0.07023019
159	0x3dc5c7a2	0.096572176
160	0x3c8ad136	0.016945463
161	0xbba8de0d	-0.0051534236
162	0x3c37966f	0.0112053
163	0x3cf57932	0.029965017
164	0xbd9326f5	-0.07185165
165	0xbd76ef5d	-0.06028687
166	0x3c5c71cb	0.013454865
167	0xbca7628f	-0.020432739
168	0x3d105d64	0.035245314
169	0x3dc11f9b	0.094298564
170	0x3d0e4303	0.034731876
171	0x3d503498	0.050831407
172	0xbaf5e281	-0.001875952
173	0xbb900a5a	-0.0043957653
174	0xbc8111c0	-0.015755534
175	0x3c90ea87	0.017689956
176	0x3daf0447	0.08545738
177	0xbe05801e	-0.13037154
178	0xbd9964da	-0.07489939
179	0x3c1985ba	0.009370262
180	0x3d3bc035	0.0458376
181	0xbd369bb0	-0.04458207
182	0xbdda06a8	-0.10645801
183	0x3dbc3238	0.09189266
184	0x3b38d2b4	0.002820176
185	0x3d98ffdb	0.074706756
186	0xbd063fdc	-0.032775745
187	0xbadcf2fb	-0.0016857082
188	0x3d39822f	0.04529017
189	0xbcca94c7	-0.024729146
190	0x3debe2d2	0.11517872
191	0x3c4b8fd7	0.012424431
192	0x3d9ed31d	0.077551104
193	0xbddce22b	-0.107853256
194	0x3d1e9aa2	0.038721688
195	0xbd9c02ed	-0.076177455
196	0x3e24a79a	0.1607956
197	0x3ba14ea5	0.0049227052
198	0x3d885cf0	0.066583514
199	0xbda6845e	-0.08130716
200	0xbd45ab7b	-0.04825924
201	0xbd30779e	-0.043082826
202	0xbd3dee19	-0.046369646
203	0x3d11754a	0.035512246
204	0x3d0c5421	0.03425992
205	0x3e04bab2	0.12961844
206	0xbde5851b	-0.112070285
207	0x3dc6e20a	0.09711082
208	0xbd83d807	-0.06437688
209	0xbcf6e605	-0.030138979
210	0x3e122082	0.14270213
211	0x3dcd1439	0.10013623
212	0xbd41f883	-0.04735614
213	0x3b83a08a	0.0040169405
214	0xbc7b84be	-0.015351472
215	0xbdc99ebc	-0.09844729
216	0x3e06fdb6	0.1318272
217	0xbd61262d	-0.054968048
218	0xbd9fb0ec	-0.07797417
219	0x3d39c551	0.04535419
220	0x3dd75e96	0.10516088
221	0x3dc51a12	0.09624113
222	0x3d17faeb	0.03710453
223	0x3b013cd9	0.0019720106
224	0xbd862b9a	-0.06551285
225	0x3df277b1	0.118392356
226	0xbd8d0e92	-0.06887545
227	0x3b0c1f2e	0.002138089
228	0xbe030c4f	-0.12797664
229	0xba8624c0	-0.0010234341
230	0x3deadf90	0.114684224
231	0xbc92f5ab	-0.01793941
232	0xbdc956fe	-0.098310456
233	0x3dc4eb26	0.096151635
234	0x3be3674b	0.0069398037
235	0x3ab7a142	0.001400985
236	0x3cf1176d	0.029430116
237	0xbc23f425	-0.010006939
238	0x3d410b47	0.047129896
239	0x3b673bc0	0.0035283417
240	0x3dacd8ee	0.084398136
241	0x3e18faa8	0.14939368
242	0x3c079bd1	0.008276896
243	0xbcc026b2	-0.023455951
244	0x3dd6e122	0.104921594
245	0xbd78814d	-0.060670186
246	0xbc3a868a	-0.011384616
247	0x3d156f00	0.03648281
248	0xbdbf0fe1	-0.093292005
249	0xbcc5ae6a	-0.024131019
250	0xbd928045	-0.07153372
251	0x3cf6d001	0.03012848
252	0xbdda53c2	-0.10660507
253	0x3d577cb5	0.052609164
254	0xbdb589a5	-0.08864144
255	0x3bd71301	0.0065635447

conv5.bias f4 [256]
0	0x37942558	1.7660364e-05
1	0x3853d631	5.05058e-05
2	0x3899e90b	7.339016e-05
3	0x3883567b	6.262675e-05
4	0x38c7f12c	9.533981e-05
5	0x38f58a86	0.000117083124
6	0x37b57754	2.1632448e-05
7	0x386b0275	5.6030654e-05
8	0x37a0fad0	1.919028e-05
9	0x37e0a822	2.6781174e-05
10	0x37d9efc1	2.598006e-05
11	0x393524c2	0.00017275198
12	0x38efa560	0.000114272116
13	0x38cdc2c0	9.811437e-05
14	0x39376033	0.00017488077
15	0x38994184	7.307812e-05
16	0x37a0ebaa	1.9183226e-05
17	0xb851f3af	-5.005643e-05
18	0xb751d862	-1.2507751e-05
19	0x390ab686	0.00013228701
20	0xb8459dc3	-4.7115387e-05
21	0xb85ef476	-5.3156597e-05
22	0xb8a6dc94	-7.956583e-05
23	0x38a5532f	7.883307e-05
24	0x395bf60b	0.00020977126
25	0xb6d2520f	-6.2680406e-06
26	0x3897bb41	7.23512e-05
27	0x39675417	0.00022061203
28	0xb8a99891	-8.086966e-05
29	0xb80a1c91	-3.292837e-05
30	0xb88c3c7a	-6.686985e-05
31	0x388913c5	6.5363514e-05
32	0x390985ed	0.0001311523
33	0x389d78e0	7.508858e-05
34	0x38c107e2	9.2044254e-05
35	0x388db127	6.756401e-05
36	0x38869dbf	6.4190004e-05
37	0x37aa9832	2.033645e-05
38	0x383640dd	4.345259e-05
39	0xb7cccd46	-2.4414283e-05
40	0x39e04b9e	0.0004278095
41	0xb8730240	-5.793781e-05
42	0x387803ef	5.913147e-05
43	0xb8a33599	-7.782429e-05
44	0x36460eab	2.9512837e-06
45	0x3905e0fe	0.00012767685
46	0x391ef707	0.00015160079
47	0x381f8070	3.802817e-05
48	0x37d5a479	2.5468167e-05
49	0x3689961c	4.100393e-06
50	0x3998d32c	0.00029149035
51	0xb7e9d773	-2.787609e-05
52	0x3938beb7	0.00017618654
53	0xb7bb8f94	-2.2358996e-05
54	0x38693ada	5.560634e-05
55	0x3948ecdc	0.00019161723
56	0xb6f35fc2	-7.253112e-06
57	0x367a1a41	3.7268185e-06
58	0x38d82c1a	0.00010307897
59	0x382bae7f	4.093209e-05
60	0xb7248733	-9.80664e-06
61	0x3932af26	0.0001704065
62	0x37fc8a73	3.0105211e-05
63	0x38151fe3	3.5554065e-05
64	0xb8878488	-6.4619875e-05
65	0x3874b3b7	5.8341506e-05
66	0xb80a4b5e	-3.2971955e-05
67	0x38607036	5.3510266e-05
68	0x38e47083	0.00010892844
69	0x3897b873	7.2345974e-05
70	0x3904c048	0.00012660131
71	0xb7a82249	-2.0043126e-05
72	0x384eaa4c	4.927283e-05
73	0x37f50bf4	2.9211842e-05
74	0x39101eef	0.00013744434
75	0x38e0e131	0.000107230975
76	0x37b7ccb3	2.191062e-05
77	0xb8888bfc	-6.5110595e-05
78	0xb7ad7d3d	-2.0681526e-05
79	0xb8b40c55	-8.585366e-05
80	0x3835a7fb	4.3310207e-05
81	0x36d67af5	6.392011e-06
82	0x35f5d6c4	1.8316427e-06
83	0xb8061abc	-3.1972988e-05
84	0x37dda787	2.6423264e-05
85	0xb8fdc6e2	-0.00012101025
86	0xb7797e10	-1.4870908e-05
87	0x387118a2	5.748182e-05
88	0x3892b32f	6.995198e-05
89	0xb7b169b4	-2.1149266e-05
90	0x38ff16c1	0.00012163586
91	0x3908ef3f	0.00013059097
92	0x385c46da	5.2518073e-05
93	0x38c66b59	9.461371e-05
94	0xb8476cb6	-4.7546542e-05
95	0x39bd62d5	0.00036122525
96	0xb8e133e0	-0.000107384985
97	0x394c4cda	0.00019483585
98	0x38619280	5.378062e-05
99	0x399d969d	0.0003005759
100	0x38f738ed	0.00011788481
101	0x38a95384	8.074104e-05
102	0x370df13e	8.4604235e-06
103	0x38c38734	9.323508e-05
104	0xb918fcf3	-0.0001459008
105	0x387f93b2	6.093429e-05
106	0xb74f3411	-1.2350284e-05
107	0x387635cc	5.8701073e-05
108	0x3999d213	0.00029338952
109	0x39215347	0.0001538518
110	0xb881128c	-6.154654e-05
111	0x3897b33b	7.2336254e-05
112	0x38b719e4	8.7309425e-05
113	0xb781b152	-1.546057e-05
114	0x3805a609	3.1864303e-05
115	0x396999fd	0.00022277977
116	0x37a1b44c	1.9276653e-05
117	0x38720fdf	5.7712077e-05
118	0x388304d5	6.247467e-05
119	0x38ee7f38	0.00011372421
120	0x392065f8	0.00015296775
121	0xb91300a6	-0.00014019254
122	0x388d621d	6.741679e-05
123	0x39002902	0.00012222308
124	0x38b4ba11	8.6177264e-05
125	0x38b5defa	8.672285e-05
126	0xb7b76d60	-2.1866232e-05
127	0x38838219	6.270799e-05
128	0xb7f2a8b0	-2.89272e-05
129	0x38116f1a	3.4674165e-05
130	0xb824c24a	-3.9281593e-05
131	0x390470c6	0.00012630512
132	0x38541db1	5.057239e-05
133	0xb850cb9a	-4.9780683e-05
134	0x38149d67	3.5432542e-05
135	0xb793df67	-1.7627795e-05
136	0x38165fcd	3.585201e-05
137	0xb8a8beed	-8.046427e-05
138	0xb7c6b7b5	-2.3688985e-05
139	0x3779c3d3	1.488715e-05
140	0xb8ad14b6	-8.2531405e-05
141	0x37298852	1.01049245e-05
142	0x392d4926	0.00016525816
143	0xb8835960	-6.263214e-05
144	0x37b271a1	2.1272166e-05
145	0xb8cafd56	-9.679298e-05
146	0x370cda8f	8.395537e-06
147	0xb8037c37	-3.1348518e-05
148	0x3897066c	7.201437e-05
149	0x37f263d7	2.889514e-05
150	0x38f55b9e	0.000116995754
151	0x38535249	5.0382954e-05
152	0xb794b91c	-1.7729173e-05
153	0xb7fe4cb3	-3.0314875e-05
154	0x369b3cf7	4.626457e-06
155	0xb708e141	-8.158678e-06
156	0x3878b2f8	5.9294485e-05
157	0xb883d5ce	-6.286391e-05
158	0xb7c1122e	-2.3015858e-05
159	0x380b5304	3.3217497e-05
160	0x38f733f8	0.00011787558
161	0x38a8e538	8.0535596e-05
162	0x38df6795	0.00010652762
163	0x38b3bf2f	8.570996e-05
164	0x388fb376	6.8521986e-05
165	0xb827809d	-3.9935683e-05
166	0x39662255	0.00021947299
167	0x39aeba14	0.00033326505
168	0xb8dd4818	-0.0001055153
169	0xb87546e3	-5.847857e-05
170	0xb65c3f70	-3.281948e-06
171	0x36017a5c	1.929372e-06
172	0x376a76e4	1.3975168e-05
173	0xb7cbb00e	-2.4281468e-05
174	0x38640cd4	5.4371383e-05
175	0x392fdff4	0.0001677273
176	0x36b9758a	5.527113e-06
177	0xb89f9065	-7.6086064e-05
178	0xb7fc0484	-3.0042844e-05
179	0x3892f455	7.007333e-05
180	0x38cfda5a	9.9112e-05
181	0x393de524	0.00018109806
182	0x3755edc1	1.2751146e-05
183	0x39836c42	0.00025066925
184	0x38f1f579	0.00011537498
185	0x37a223cb	1.9328572e-05
186	0xb8826101	-6.2169514e-05
187	0x387e3f67	6.0617367e-05
188	0x390413a6	0.0001259582
189	0x38986516	7.2667535e-05
190	0x383d87f6	4.5187735e-05
191	0xb6e94032	-6.9514144e-06
192	0x353cd55f	7.0345953e-07
193	0xb8fa9030	-0.00011947786
194	0xb7818434	-1.543956e-05
195	0x3890c857	6.903771e-05
196	0x37fd0b28	3.0165145e-05
197	0x38faeb30	0.00011964736
198	0xb793d98d	-1.762507e-05
199	0x38c499b0	9.374635e-05
200	0x387ff31f	6.1023162e-05
201	0xb7a1b0ef	-1.9275087e-05
202	0x3905c0c3	0.00012755678
203	0x365d5ef5	3.2986839e-06
204	0x37ede4d7	2.8359163e-05
205	0x3880ac33	6.13559e-05
206	0x379d7b00	1.8773135e-05
207	0xb800870c	-3.064335e-05
208	0xb803f478	-3.1460513e-05
209	0xb89607b5	-7.153993e-05
210	0x3707ac38	8.086725e-06
211	0xb684f8a0	-3.9628503e-06
212	0xb7e9ae08	-2.7856804e-05
213	0x37231664	9.72077e-06
214	0x37e225f5	2.6958975e-05
215	0x390dbdc5	0.00013517503
216	0x378a22a1	1.6467007e-05
217	0xb8836b90	-6.266602e-05
218	0x378f1f8f	1.7061624e-05
219	0xb7d29fa1	-2.5108284e-05
220	0x37f81a75	2.9576224e-05
221	0x380ee7f0	3.4071447e-05
222	0xb7ccd0f6	-2.4416e-05
223	0xb7b09d24	-2.105401e-05
224	0xb83066d8	-4.205745e-05
225	0x38dfef9b	0.000106780986
226	0x38951a59	7.109781e-05
227	0x390f2db8	0.00013654574
228	0xb81d8132	-3.755204e-05
229	0x38439370	4.6628935e-05
230	0x391f24bb	0.00015177105
231	0x38cf5347	9.886041e-05
232	0x38bc8001	8.988381e-05
233	0x38a9b7fc	8.092818e-05
234	0xb62bbe8e	-2.5591903e-06
235	0x382e71e3	4.1590898e-05
236	0x38b3259d	8.542391e-05
237	0x38391167	4.4123644e-05
238	0x3883d33a	6.285911e-05
239	0xb6c69c69	-5.9190684e-06
240	0x37842b7d	1.5755877e-05
241	0xb8bf72da	-9.1289825e-05
242	0xb872343c	-5.7745943e-05
243	0x37e57ed3	2.7357984e-05
244	0x394b927c	0.00019414158
245	0x3935f176	0.00017351456
246	0x37bb9401	2.2361057e-05
247	0x3735e3e8	1.0841504e-05
248	0x3963a7ff	0.0002171099
249	0xb788075a	-1.6215887e-05
250	0x388f3470	6.8285386e-05
251	0x387ab514	5.9773287e-05
252	0xb82128dd	-3.8423448e-05
253	0xb6d20e08	-6.260121e-06
254	0xb5a3a76b	-1.2193171e-06
255	0xb7a0e07c	-1.917802e-05

conv5.lin.weight f4 [256, 128]
0	0x3d37eec5	0.044905443
1	0xbd9c4c55	-0.07631747
2	0xbdec6f6a	-0.11544688
3	0x3c81234a	0.015763897
4	0x3d8ff5ba	0.070292905
5	0x3d6434af	0.055714305
6	0x3d119491	0.035542075
7	0xbd968a4b	-0.07350596
8	0x3a8ae48e	0.0010596679
9	0xb998d8af	-0.0002915314
10	0x3bf88618	0.0075843446
11	0x3d5e3036	0.054245196
12	0xbc3d557c	-0.011556026
13	0xbd216fe5	-0.03941335
14	0xbc2e08d0	-0.010622218
15	0x3d7a9b05	0.061182994
16	0xbbb73ba0	-0.0055918247
17	0xbcf181f2	-0.029480908
18	0x3a92065b	0.001114081
19	0x3c863b38	0.01638566
20	0x3b1d7a4f	0.00240292
21	0x3da1154a	0.07865389
22	0x3d5343b5	0.051578242
23	0xbd588891	-0.052864615
24	0xbcbbb2f6	-0.022912484
25	0x3ba816d7	0.005129676
26	0x3c78776c	0.015165191
27	0xbcfe4de5	-0.031043002
28	0x3d025928	0.031823307
29	0xbd3e0f6f	-0.046401437
30	0x3c0a0d4c	0.008426022
31	0x3c3e4c06	0.011614805
32	0x3d6c3e6f	0.05767673
33	0x3d1cb904	0.038262382
34	0xbd71d33d	-0.059039343
35	0x3d6e8071	0.05822796
36	0xbd9ec57e	-0.077525124
37	0xbcebf8a6	-0.028805088
38	0xbd2618db	-0.040551048
39	0x3dcde273	0.100529574
40	0xb8947f9a	-7.0809576e-05
41	0x3cc519b0	0.0240601
42	0xbc91d0d1	-0.017799767
43	0x3abd1e2f	0.0014428551
44	0x3dde0c0b	0.10842141
45	0xbc7dccc1	-0.015490712
46	0x3c80a923	0.01570565
47	0x3d689993	0.056787085
48	0xbdc12bac	-0.09432158
49	0x3c8babde	0.017049726
50	0x3b7a70bd	0.003821417
51	0x3e04004c	0.12890738
52	0x3d2925c6	0.04129579
53	0xbd6459ae	-0.055749588
54	0x3dd701a4	0.1049836
55	0x3d8fe5a4	0.07026222
56	0x3da672c6	0.0812736
57	0x3d905150	0.07046759
58	0xbdd643d1	-0.10462154
59	0xb9fe6c4b	-0.0004852734
60	0x3c8955a0	0.016764462
61	0xbc07b7af	-0.00828354
62	0x3db3e7cb	0.087844454
63	0xbe332244	-0.1749354
64	0xbd4c3b7c	-0.049861416
65	0x3d8dcf82	0.069243446
66	0x3d9b27e1	0.07575966
67	0x3c3ca17e	0.011513112
68	0x3c2398b4	0.009985138
69	0xbbcca7a9	-0.0062455726
70	0x3bd938ee	0.006629101
71	0xbd8b214e	-0.06793462
72	0x3dffabf8	0.12483972
73	0x3e01ac1d	0.12663312
74	0xbc021a3c	-0.007940825
75	0x3d423344	0.047412172
76	0x3d9ad86e	0.07560812
77	0xbcacd599	-0.021097945
78	0xbc7edb47	-0.0155552095
79	0x3b930039	0.0044861105
80	0xbaf23a99	-0.0018480598
81	0x3d39ca92	0.0453592
82	0x3c644a8f	0.013933792
83	0x3cf29d93	0.029616153
84	0x3d616668	0.055029303
85	0x3c15d06c	0.00914393
86	0x3d339ea7	0.043852475
87	0x3d0e6647	0.034765508
88	0x3dd46b82	0.10372068
89	0x3c8368c2	0.016041163
90	0x3c466cd5	0.0121109085
91	0xbcffde92	-0.03123406
92	0xbcf91875	-0.03040717
93	0xbd9c3cfe	-0.07628821
94	0xbccf3f99	-0.02529888
95	0x3ba710a5	0.0050984197
96	0x3d86a975	0.0657529
97	0x3df12418	0.117744625
98	0x3ce760eb	0.028244456
99	0x3c493b1c	0.012282159
100	0x3d220259	0.03955302
101	0xbcd1ef20	-0.025626719
102	0x3b730487	0.0037081556
103	0x3c5accc7	0.013354487
104	0x3d32f0d8	0.043686718
105	0xbca9bae1	-0.020718994
106	0xbd439994	-0.047753885
107	0x3da8d57b	0.08243843
108	0xbd23e3c9	-0.040012155
109	0x3dd04768	0.1016987
110	0xbdb65e3c	-0.089046925
111	0x3d24c03e	0.0402224
112	0xbd04e277	-0.032442536
113	0x3d87e96c	0.066363186
114	0x3e03b964	0.1286369
115	0xbd8dc09b	-0.06921502
116	0xbd68ed48	-0.056866914
117	0x3d27d15f	0.040971156
118	0x3d14d4e2	0.036335833
119	0x3cfcc66e	0.030856337
120	0x3e0dc441	0.13844396
121	0xbbf2cf55	-0.00740997
122	0xbb9e7787	-0.004836026
123	0x3c8e6ef9	0.0173869
124	0x3de21ad8	0.11040276
125	0x3d4b7f3e	0.049681894
126	0x3dc2c893	0.09510913
127	0x3ba09f04	0.0049017686
128	0xbc1c38d3	-0.009535032
129	0xbc3b65ef	-0.011437877
130	0xbd24a241	-0.0401938
131	0xbd579428	-0.052631527
132	0xbdf42dac	-0.11922774
133	0xbd97b910	-0.07408345
134	0x3d4dc869	0.050239954
135	0x3d83a132	0.0642723
136	0x3dc84b62	0.09780003
137	0x3c3c585e	0.011495678
138	0xbc7c72e5	-0.015408252
139	0x3c7a2256	0.015266975
140	0xbe1e2447	-0.15443526
141	0xbc3521de	-0.011055438
142	0x3d7c98be	0.061669104
143	0x3d040e0a	0.03223995
144	0xbdeb93f5	-0.1150283
145	0x3c960d6e	0.01831695
146	0xbce3ef44	-0.027824052
147	0xbcbad7a4	-0.022807904
148	0xbdce4ad9	-0.1007287
149	0x3c56e2f2	0.013115631
150	0xbbc4922b	-0.00599887
151	0xbcfffc96	-0.031248372
152	0xbceb96b3	-0.028758382
153	0xbd597b8b	-0.053096335
154	0x3c6d190c	0.014471304
155	0x3e0c9419	0.1372837
156	0xbd1b38a6	-0.03789582
157	0xbdfe2c1d	-0.12410758
158	0xbd8d12e1	-0.068883665
159	0xbcfcb465	-0.030847738
160	0x3d21dfcb	0.039520066
161	0xbd10443d	-0.035221327
162	0xbdb78a7d	-0.089619614
163	0xbdeb0bed	-0.11476884
164	0xbcbca5e6	-0.023028325
165	0x3b9085d7	0.004410486
166	0xbcfe8f24	-0.031074114
167	0xbd9aff6f	-0.07568251
168	0x3ca20bad	0.019780958
169	0xbd909974	-0.07060519
170	0x3d3f248f	0.046665724
171	0xbd22a5c0	-0.039708853
172	0x3d856737	0.06513827
173	0xbdd97173	-0.10617342
174	0x3ddceeb9	0.1078772
175	0xbd1bff29	-0.038085137
176	0xbd7b2291	-0.061312262
177	0x3ce30b10	0.027715236
178	0xbcf58978	-0.029972777
179	0xbcd773c0	-0.026300311
180	0xbb970d65	-0.004609751
181	0x3c28218d	0.010261905
182	0x3c05d0ee	0.0081674885
183	0xbdb93a85	-0.09044365
184	0xbc98319f	-0.018578349
185	0xbd15b521	-0.03654969
186	0xbd680908	-0.056649238
187	0xbb10c18c	-0.002208802
188	0x3d05aa5d	0.032633174
189	0xbdb2393c	-0.08702323
190	0xbda3757d	-0.079813935
191	0xbbcb1d17	-0.006198536
192	0xbda1e1bb	-0.07904383
193	0xbd445b3d	-0.047938574
194	0x3d82ef97	0.063933544
195	0x3c5f54ad	0.013631028
196	0x3c830732	0.015994642
197	0xbd30926c	-0.04310839
198	0xbc70b171	-0.014690743
199	0x3c15c093	0.009140152
200	0xbdbaf828	-0.09129363
201	0xbcbdfa11	-0.02319053
202	0x3ccc07ea	0.024906117
203	0xbc7d2138	-0.0154498145
204	0x3dd5e36f	0.1044377
205	0x3d2a9fb5	0.041656215
206	0xbde22972	-0.11043061
207	0x3c550234	0.013001014
208	0xbd1f48ac	-0.038887665
209	0x3ca21644	0.019786008
210	0x3d9b77d3	0.07591214
211	0x3db17e9b	0.08666726
212	0x3d3c27a6	0.04593625
213	0xbda8bac5	-0.082387485
214	0x3ca6cc0c	0.020360969
215	0xbd0ac592	-0.033879824
216	0x3b317bfa	0.0027081952
217	0x3da308f6	0.079606935
218	0xbdad647b	-0.08466431
219	0xbd915e01	-0.07098008
220	0xbc548d94	-0.012973208
221	0x3b8ae4ba	0.004238692
222	0xbcaacd41	-0.020849826
223	0x3e0838bb	0.13302891
224	0x3da55db6	0.080745146
225	0x3d452dc5	0.048139352
226	0xbdb915fc	-0.09037396
227	0x3def6fb6	0.11691229
228	0x3d07e578	0.033177823
229	0xbd2b7868	-0.041862875
230	0x3d92434e	0.071417436
231	0xbd851ad6	-0.06499259
232	0x3bb5364b	0.005530154
233	0xbcb1aefa	-0.02168988
234	0xbdc7036d	-0.0971745
235	0x3b11cc43	0.0022246994
236	0x3d44ade0	0.048017383
237	0xbddc251b	-0.10749265
238	0x3cb84e63	0.022498315
239	0x3b042b4e	0.0020167413
240	0xbd38bc51	-0.045101468
241	0x3bd1c099	0.0064011333
242	0x3d8f9e49	0.070126124
243	0xbc0385c0	-0.008027494
244	0x3d20e96f	0.03928512
245	0xbd14d2ea	-0.036333956
246	0xbb8a5a08	-0.0042221583
247	0xbc0aa11f	-0.008461266
248	0xbc4d6749	-0.012536832
249	0xbbbe935b	-0.005815906
250	0x3d590967	0.052987482
251	0x3bea8d11	0.0071579297
252	0xbd842bb6	-0.0645365
253	0x3db915c2	0.09037353
254	0xba837d74	-0.0010031895
255	0x3cd21a4c	0.025647305
