weights/6-18-0_split_0.pt (torch, 276326 bytes, 26 tensors)

conv1.bias f4 [64]
-1.5280173e-05 6.31698e-06 -1.1223085e-05 7.242256e-05 -3.237352e-05 1.6965861e-06 -3.5184119e-06 8.7724175e-06
-1.1591344e-05 1.2411325e-05 -3.619955e-05 1.3032086e-05 3.842557e-05 7.29404e-06 -2.2259048e-05 5.8252186e-07
-6.6156476e-06 8.1664376e-07 7.1052555e-06 1.5723823e-05 -6.3154052e-06 2.4870422e-05 1.1741243e-05 -1.2665377e-05
-6.548582e-06 -3.295908e-05 1.0503234e-05 4.5264856e-06 -7.24563e-07 -6.6213404e-05 1.3035366e-05 5.4517095e-06
-7.2184497e-07 8.30695e-06 -5.8935693e-06 2.037096e-05 -2.6598702e-05 1.1213525e-05 5.31218e-06 1.9153248e-07
-1.5321963e-06 1.1644477e-05 2.9582618e-05 -7.9115335e-07 -7.7190356e-07 1.2816612e-05 6.8690065e-06 3.8448346e-05
3.865551e-06 1.4912234e-05 -6.5753375e-06 -1.7377286e-06 -2.1260817e-06 -1.7066802e-06 1.4609674e-05 2.1006094e-06
8.305398e-06 2.0142028e-05 -2.744416e-06 -1.2814013e-05 1.5403605e-06 1.351599e-05 -3.495412e-05 -1.1999855e-05
00000000: ec2d 80b7 72f6 d336 c84a 3cb7 91e1 9738
00000010: cdc8 07b8 41b6 e335 db1d 6cb6 3f2d 1337
00000020: 7278 42b7 3c3a 5037 f9d4 17b8 62a4 5a37
00000030: 242b 2138 54bf f436 f1b8 bab7 995e 1c35
00000040: fbfb ddb6 5537 5b35 ae69 ee36 a7e6 8337
00000050: ebe8 d3b6 d3a0 d037 41fc 4437 617d 54b7
00000060: e4bb dbb6 8b3d 0ab8 0c37 3037 37e2 9736
00000070: 977f 42b5 0ddc 8ab8 78b2 5a37 d4ed b636
00000080: cfc4 41b5 145e 0b37 60c1 c5b6 4ee2 aa37
00000090: 4720 dfb7 b921 3c37 473f b236 0ca8 4d34
000000a0: dda5 cdb5 a65c 4337 3028 f837 a55f 54b5
000000b0: cf34 4fb5 ee06 5737 517c e636 9943 2138
000000c0: d5b4 8136 8f2f 7a37 b8a1 dcb6 e63b e9b5
000000d0: cead 0eb6 1611 e5b5 121c 7537 32f8 0c36
000000e0: 6a57 0b37 adf6 a837 b52c 38b6 c4fb 56b7
000000f0: 62be ce35 bcc2 6237 b39b 12b8 fc52 49b7

conv1.lin.weight f4 [64, 2]
-0.24316272 -0.04762992 -0.023137873 0.19561602 0.04139973 -0.039647486 -0.21268465 0.0023362946
0.015571512 -0.15311874 0.12397973 0.26342553 0.0018453754 0.20255291 -0.14756855 0.14425476
0.07260543 -0.07753956 0.07915663 0.13205977 -0.15185453 0.049062274 0.03458522 -0.17911062
-0.0047945767 -0.1074716 0.19167416 -0.01666057 -0.11420629 -0.11922158 0.26483354 0.15331854
-0.23530468 0.003196953 0.10339405 -0.21598254 0.027078288 0.30335504 -0.037696548 0.32372066
0.2870879 0.06616491 -0.30056298 0.05884324 -0.135448 -0.21369646 0.23364389 -0.007565544
0.29230392 -0.011081874 -0.08924158 -0.13111247 0.13038261 0.17409468 -0.23790051 -0.040289715
0.09429182 -0.24230377 -0.03288641 -0.01614145 -0.0735676 -0.28455034 -0.21360111 0.19159162
0.092910826 0.19310334 0.31769878 -0.1046691 -0.30238822 0.14780357 0.11736308 0.18858264
-0.027934546 0.04263168 0.09193401 -0.0057176896 0.13414897 0.26034817 -0.32696033 0.2301347
-0.26974913 0.26468483 0.1291072 0.03299374 -0.20192583 -0.17550647 0.104604825 0.17533892
-0.1921051 0.1871903 -0.26884222 0.23362716 0.21229933 0.16915242 0.0015930043 -0.20916851
-0.0040763547 0.049987767 -0.01502073 0.14203937 0.20346898 -0.023828482 0.17230408 -0.01540542
-0.25333694 0.14460087 0.026804483 0.12980953 0.2417882 -0.06985228 0.012766992 -0.16924769
-0.1692746 0.1966296 -0.11749337 0.29547742 0.19186659 0.07568068 0.2645108 -0.026088588
-0.008328989 0.27942097 -0.063419 -0.33720422 0.15839784 -0.1699791 -0.32750458 0.09980559
00000000: a6ff 78be 9717 43bd a38b bdbc 914f 483e
00000010: c392 293d 6765 22bd 01ca 59be 851c 193b
00000020: a81f 7f3c 29cb 1cbe 16e9 fd3d b6df 863e
00000030: 86e0 f13a 086a 4f3e 361c 17be 85b7 133e
00000040: 28b2 943d 10cd 9ebd df1c a23d ad3a 073e
00000050: c17f 1bbe 86f5 483d 3ba9 0d3d c668 37be
00000060: d31b 9dbb 121a dcbd 3b46 443e bf7b 88bc
00000070: fde4 e9bd 722a f4bd 4398 873e 89ff 1c3e
00000080: b6f3 70be f983 513b 42c0 d33d 872a 5dbe
00000090: 49d3 dd3c 5a51 9b3e b267 1abd b7be a53e
000000a0: 2ffd 923e 7881 873d 64e3 99be 9c05 713d
000000b0: e1b2 0abe 3fd3 5abe 5840 6f3e 62e8 f7bb
000000c0: dca8 953e c090 35bc 4ac4 b6bd 5942 06be
000000d0: 0583 053e e045 323e 319c 73be d406 25bd
000000e0: 121c c13d 7b1e 78be e6b3 06bd 133b 84bc
000000f0: 9caa 96bd 95b0 91be 40ba 5abe 9830 443e
00000100: 0848 be3d e2bc 453e 6aa9 a23e c15c d6bd
00000110: a1d2 9abe d259 173e 0e5c f03d cf1b 413e
00000120: fdd6 e4bc 8e9e 2e3d e647 bc3d 755b bbbb
00000130: 595e 093e 5b4c 853e 5867 a7be 6ea8 6b3e
00000140: 8f1c 8abe c584 873e ae34 043e 7224 073d
00000150: a5c5 4ebe f8b7 33be 0e3b d63d 0c8c 333e
00000160: 33b7 44be d0ae 3f3e b0a5 89be f53b 6f3e
00000170: ff64 593e 4b36 2d3e 5bcc d03a 4530 56be
00000180: f192 85bb f9bf 4c3d 8219 76bc c572 113e
00000190: 2c5a 503e f333 c3bc 7b70 303e 0467 7cbc
000001a0: 61b5 81be 4012 143e 1395 db3c caec 043e
000001b0: 5397 773e b60e 8fbd a52c 513c 444f 2dbe
000001c0: 5256 2dbe 4559 493e 5da0 f0bd d148 973e
000001d0: ad78 443e 79fe 9a3d f66d 873e bcb7 d5bc
000001e0: 5076 08bc 4410 8f3e d2e1 81bd 08a6 acbe
000001f0: 0b33 223e 000f 2ebe aeae a7be e066 cc3d

conv2.bias f4 [64]
0.07480705 0.053017523 0.01653884 0.017155329 -0.07035256 0.09263834 -0.05447636 -0.09145536
-0.14555505 0.115925215 -0.09593523 0.19385427 0.01576648 -0.095479704 -0.04755293 0.010917191
-0.066637516 0.05968276 -0.07300529 -0.08005455 -0.08376837 -0.096239395 -0.03002993 -0.07374264
0.0055365292 -0.019753853 -0.051026534 -0.029993339 -0.020437973 -0.0778144 -0.10747007 -0.04288592
-0.06925151 -0.05766357 -0.091179915 -0.16673003 -0.026141068 -0.025723157 0.045122843 -0.065050654
0.01316783 0.035387255 -0.101183206 0.041760784 0.019336512 -0.064094976 0.024284711 -0.024320584
-0.03404644 -0.08238023 -0.03137644 -0.08250072 0.034728557 0.13233414 0.007942424 0.038526386
-0.12345831 -0.04826887 0.026069615 0.09282135 -0.028468706 -0.13608049 -0.09715154 -0.036247496
00000000: 7034 993d e728 593d 767c 873c 5589 8c3c
00000010: 0115 90bd 2cb9 bd3d 9b22 5fbd f34c bbbd
00000020: 620c 15be 336a ed3d b179 c4bd bc81 463e
00000030: b428 813c dd8a c3bd dcc6 42bd 05de 323c
00000040: 4079 88bd e975 743d cc83 95bd a4f3 a3bd
00000050: c08e abbd 2919 c5bd 5401 f6bc 6206 97bd
00000060: c66b b53b d5d2 a1bc 3301 51bd 97b4 f5bc
00000070: 896d a7bc 285d 9fbd 4519 dcbd 25a9 2fbd
00000080: bcd3 8dbd a330 6cbd 89bc babd 47bb 2abe
00000090: cb25 d6bc 5fb9 d2bc bbd2 383d 4739 85bd
000000a0: e2bd 573c 3af2 103d 2439 cfbd 5b0d 2b3d
000000b0: 9b67 9e3c 3a44 83bd bbf0 c63c f63b c7bc
000000c0: 4874 0bbd f7b6 a8bd 9584 00bd 23f6 a8bd
000000d0: 883f 0e3d 9a82 073e f120 023c d8cd 1d3d
000000e0: b6d7 fcbd 94b5 45bd f28f d53c 1f19 be3d
000000f0: 3437 e9bc af58 0bbe 63f7 c6bd 4178 14bd

conv2.lin.weight f4 [64, 64]
-0.0070466334 -0.10097597 -0.15119322 -0.1501764 -0.06644619 0.0030781776 0.068556875 -0.17686675
-0.052255776 -0.10370397 -0.20974478 -0.13064188 -0.16328694 -0.04838618 0.007322779 -0.20848502
0.06170909 0.19144693 0.085685104 -0.1341442 -0.21710819 -0.057907157 -0.18889943 0.14173326
0.1729902 -0.20494227 -0.16160183 -0.23819906 -0.06980813 -0.03430418 -0.13760957 -0.22354716
0.0014909338 0.09724592 -0.205203 -0.11443345 -0.06576963 -0.21738462 0.016074251 -0.026805881
-0.030040903 -0.08859226 0.1730375 -0.06088246 0.093105465 -0.23808314 -0.027531406 0.11086374
0.13100076 -0.18240151 0.07872404 0.06456212 -0.20650797 -0.0063781575 0.124737605 0.04262411
-0.2927401 -0.18950337 0.12632194 0.17418991 -0.068622366 0.08715885 -0.16932783 -0.26050994
-0.26559782 0.07034882 0.17750989 -0.3747167 -0.17515689 -0.11804588 0.11759778 -0.18440877
-0.1983246 0.0929324 -0.18495376 -0.10561577 -0.17297642 -0.06523691 -0.03342617 -0.08473661
-0.3175391 -0.11776066 -0.06418448 0.14904408 -0.12388977 0.029505158 -0.25821817 0.16864966
-0.22013037 -0.2779935 0.10420041 -0.35114378 -0.12784624 -0.18408103 0.0691778 -0.04224849
0.17393036 0.024810147 -0.14113143 0.051989622 -0.17608231 0.14330518 0.15695992 0.15837358
0.08580328 -0.16250224 -0.35780984 0.062021066 -0.035592314 -0.048341904 0.017246298 0.06553301
0.06909587 0.20841962 0.15900075 -0.18808046 -0.019812576 0.2092814 0.017978895 0.044134587
-0.04658333 0.11551877 -0.092228815 0.08190566 0.21654323 -0.13713564 0.111004 -0.29188156
0.10906733 -0.13429973 0.092004 0.12059871 0.11187012 -0.23901245 -0.10778418 -0.13656467
0.2039563 -0.07159983 -0.1451845 0.07117109 -0.14688076 0.12758407 0.06914006 0.097495496
0.076549076 -0.06012144 -0.14103678 0.10693886 -0.16736397 -0.017537156 -0.043162957 0.087265566
0.15956038 -0.21790881 0.09173889 0.17113121 0.13832845 -0.04810676 -0.12280982 -0.10932526
-0.22339602 0.12780996 -0.15375529 -0.11474256 -0.12037876 0.10030024 -0.29411298 0.18204054
0.013926103 0.11397118 0.03445363 -0.16375498 -0.12957421 0.10020236 0.1472239 -0.114824735
0.057051685 0.008067827 -0.18614751 -0.15142418 0.12621126 -0.262249 0.06746689 -0.11382776
0.03256674 -0.12504861 -0.038102895 -0.1927921 -0.15262023 -0.14811371 -0.18557099 0.13377333
0.05387812 -0.1611153 -0.22702485 0.12461377 0.038591363 -0.067588404 0.07357157 -0.09629272
-0.11712224 0.082562365 -0.09293309 -0.21757051 -0.13425687 -0.024307594 -0.08251337 0.039604016
-0.008327633 -0.17831369 0.12046669 0.12798706 0.037199248 -0.10281509 0.12592757 -0.083497085
-0.03397584 0.0026722022 0.211071 -0.15050961 -0.06970513 -0.20552078 0.106250174 -0.25385812
0.11525966 -0.13892199 0.08316125 0.13962835 -0.25548232 0.039567355 0.17896585 0.088337354
0.08453947 -0.028040601 -0.26219568 -0.016130703 -0.027885336 -0.05637372 -0.07981452 -0.22763528
0.0854151 -0.1541103 -0.20835568 0.016998053 0.10119437 0.16889267 0.0005106977 -0.1451911
-0.014626277 0.16338995 -0.10026164 -0.19153017 -0.04158404 -0.007305909 0.120940946 -0.04628272
00000000: 72e7 e6bb 7dcc cebd 65d2 1abe d8c7 19be
00000010: f114 88bd 40bb 493b 8c67 8c3d 8f1c 35be
00000020: 270a 56bd bf62 d4bd 56c7 56be fcc6 05be
00000030: b134 27be 9630 46bd ecf3 ef3b 197d 55be
00000040: acc2 7c3d aa0a 443e ac7b af3d 195d 09be
00000050: 9c51 5ebe 0e30 6dbd da6e 41be 8622 113e
00000060: 5824 313e 63dc 51be f37a 25be 74ea 73be
00000070: 91f7 8ebd 8a82 0cbd 86e9 0cbe 8ce9 64be
00000080: 706b c33a de28 c73d bc20 52be 165c eabd
00000090: 3ab2 86bd 139a 5ebe 26ae 833c 0298 dbbc
000000a0: 5718 f6bc dc6f b5bd be30 313e e35f 79bd
000000b0: 14ae be3d 11cc 73be 8b89 e1bc 870c e33d
000000c0: 1025 063e 76c7 3abe 123a a13d 2539 843d
000000d0: d376 53be ddff d0bb 6e76 ff3d 9e96 2e3d
000000e0: 08e2 95be 2c0d 42be 8a5a 013e d75e 323e
000000f0: e289 8cbd 5780 b23d 4664 2dbe 8f61 85be
00000100: 70fc 87be 0b13 903d 27c5 353e deda bfbe
00000110: 545c 33be 0ac2 f1bd 1bd7 f03d a7d5 3cbe
00000120: 9b15 4bbe 5853 be3d 8564 3dbe 154d d8bd
00000130: bb20 31be ee9a 85bd e1e9 08bd 638a adbd
00000140: 7c94 a2be 802c f1bd 2773 83bd 039f 183e
00000150: ebb9 fdbd cdb4 f13c 2c35 84be 7fb2 2c3e
00000160: db69 61be 2a55 8ebe 0667 d53d 1ec9 b3be
00000170: 20ea 02be bd7f 3cbe 17ad 8d3d c10c 2dbd
00000180: cd1a 323e a63e cb3c c284 10be 12f3 543d
00000190: ec4e 34be 98be 123e 1aba 203e af2c 223e
000001a0: a1b9 af3d fd66 26be da32 b7be cd09 7e3d
000001b0: 3fc9 11bd 2902 46bd 1c48 8d3c 2c36 863d
000001c0: 2382 8d3d f46b 553e 18d1 223e 2a98 40be
000001d0: fc4d a2bc dd4d 563e 7a48 933c 78c6 343d
000001e0: 29ce 3ebd 1b95 ec3d 76e2 bcbd 28be a73d
000001f0: 82bd 5d3e 496d 0cbe 1156 e33d 8071 95be
00000200: b15e df3d de85 09be 986c bc3d 75fc f63d
00000210: 291c e53d aebf 74be f4bd dcbd 9cd7 0bbe
00000220: ecd9 503e efa2 92bd 3fab 14be 26c2 913d
00000230: e967 16be 66a5 023e 4e99 8d3d b8ab c73d
00000240: c3c5 9c3d e641 76bd f26b 10be c302 db3d
00000250: 7661 2bbe 15aa 8fbc a4cb 30bd 4ab8 b23d
00000260: cc63 233e 7d23 5fbe 99e1 bb3d 053d 2f3e
00000270: f9a5 0d3e 980b 45bd b783 fbbd ece5 dfbd
00000280: edc1 64be 9de0 023e 0772 1dbe 26fe eabd
00000290: 2489 f6bd 366a cd3d fa95 96be d668 3a3e
000002a0: 4f2a 643c b969 e93d 401f 0d3d 63af 27be
000002b0: 1aaf 04be e536 cd3d ddc1 163e 3b29 ebbd
000002c0: 07af 693d eb2e 043c 749d 3ebe f10e 1bbe
000002d0: 863d 013e 8045 86be 152c 8a3d 871e e9bd
000002e0: b464 053d be0c 00be c811 1cbd 4b6b 45be
000002f0: 7a48 1cbe 1fab 17be 5206 3ebe e0fb 083e
00000300: 4eaf 5c3d 69fb 24be 3479 68be 8135 ff3d
00000310: fa11 1e3d ca6b 8abd b1ac 963d 1e35 c5bd
00000320: c9dd efbd 7516 a93d b453 bebd ceca 5ebe
00000330: a27a 09be b820 c7bc c5fc a8bd d237 223d
00000340: a070 08bc dd97 36be 3db7 f63d 0a0f 033e
00000350: 3d5e 183d b890 d2bd 28f3 003e 8500 abbd
00000360: 402a 0bbd 1d20 2f3b ff22 583e 311f 1abe
00000370: 90c1 8ebd 0a74 52be b199 d93d b1f9 81be
00000380: 420d ec3d 9141 0ebe 7250 aa3d bcfa 0e3e
00000390: 94ce 82be 6111 223d d342 373e 37ea b43d
000003a0: 0823 ad3d 67b5 e5bc 833e 86be 8924 84bc
000003b0: ca6f e4bc 21e8 66bd cc75 a3bd 3919 69be
000003c0: 1dee ae3d 17cf 1dbe 315b 55be 803f 8b3c
000003d0: fe3e cf3d 33f2 2c3e 58e0 053a faac 14be
000003e0: 0da3 6fbc b24f 273e fa55 cdbd 7c20 44be
000003f0: 0754 2abd 6866 efbb e3af f73d f392 3dbd

conv3.bias f4 [128]
9.3113755e-05 0.00017374598 -6.0558836e-05 -7.354035e-05 -0.0001550915 0.00014183456 -0.00017689053 -0.00027200766
-0.00010314845 6.9206326e-05 -0.0001111479 0.00015796517 -0.00024029502 4.4084507e-05 0.00026133194 -8.1152626e-05
-0.0001148796 7.6888115e-05 -3.2244763e-05 -0.00024989425 6.2313693e-06 -0.00011244067 0.00028802757 -5.2290154e-05
-0.000148041 4.685546e-06 0.00016715217 0.00012000629 5.6445868e-05 -0.00024031938 -0.0001433801 8.016797e-05
0.00017967813 0.00031643303 -0.00012307848 -6.107273e-05 4.020206e-05 0.00017490154 -0.00023504345 -5.118179e-05
-2.3608945e-05 4.1504765e-05 -0.0001872899 0.0002211688 -4.7980103e-07 1.5670588e-05 9.3383765e-05 -0.00014818218
0.00021355285 4.4110286e-05 5.972925e-05 0.00022812409 2.225593e-05 9.4733245e-05 -0.0002759021 -0.00010028505
-2.0533449e-05 -0.00028381933 -2.1414293e-05 9.8391145e-05 2.5421201e-05 9.952851e-05 -0.00016833286 -2.2156551e-05
0.00010075682 3.3016742e-05 0.00015779512 4.7513466e-05 -2.3532823e-05 -1.3033475e-05 -0.00011900095 0.0002592499
-0.000106145366 -0.00018795689 -2.927831e-05 -8.384523e-05 -3.1156203e-05 -0.00010865069 0.0001605222 0.00032068553
-0.0001436578 -9.0766065e-05 5.9190275e-05 7.064127e-05 -4.9713413e-05 2.4260386e-05 0.00012603059 -5.56938e-05
-8.983526e-05 -0.00019359586 8.968822e-06 4.8195438e-05 -0.00021273749 0.00010371369 -4.5452703e-05 -0.00011440727
-4.1346848e-05 0.00017075326 0.00016252027 0.00020343409 0.00036401922 -3.7437447e-05 1.788667e-05 -4.7526366e-05
-7.916768e-05 -0.0001624025 9.5856914e-05 0.00020091663 -7.357729e-05 1.0150808e-05 4.6363584e-05 -0.00010864545
0.00024233623 3.1598218e-05 2.9310098e-05 -0.00013473109 1.1707075e-05 5.6123703e-05 -5.2917396e-05 -6.964278e-05
9.1811424e-05 -0.00018027515 -9.613686e-05 -0.0002573204 -4.297687e-06 2.7132146e-05 5.0774433e-05 0.00018349293
00000000: 1146 c338 952f 3639 8e00 7eb8 ad39 9ab8
00000010: 0fa0 22b9 6db9 1439 b17b 39b9 409c 8eb9
00000020: 6751 d8b8 dd22 9138 1318 e9b8 74a3 2539
00000030: b4f7 7bb9 61e7 3838 6103 8939 7c30 aab8
00000040: 84eb f0b8 fe3e a138 8d3e 07b8 3d04 83b9
00000050: 0e17 d136 20ce ebb8 6802 9739 2052 5bb8
00000060: 743b 1bb9 8938 9d36 9245 2f39 e3ab fb38
00000070: 4ac0 6c38 3efe 7bb9 4d58 16b9 da1f a838
00000080: fb67 3c39 ece6 a539 a10e 01b9 2c14 80b8
00000090: a29e 2838 c665 3739 ff75 76b9 07ac 56b8
000000a0: d30b c6b7 6715 2e38 4063 44b9 8ce9 6739
000000b0: adcb 00b5 5574 8337 07d7 c338 5a61 1bb9
000000c0: 28ed 5f39 0f03 3938 cb85 7a38 9834 6f39
000000d0: 3fb2 ba37 86ab c638 f4a6 90b9 2050 d2b8
000000e0: 3f3f acb7 96cd 94b9 d8a2 b3b7 5857 ce38
000000f0: 9d3f d537 f6b9 d038 8282 30b9 d5dc b9b7
00000100: 684d d338 757b 0a38 ce75 2539 3249 4738
00000110: 5a68 c5b7 59aa 5ab7 2690 f9b8 efeb 8739
00000120: 5c9a deb8 4b16 45b9 b19a f5b7 11d6 afb8
00000130: b8ad 02b8 65db e3b8 da51 2839 af21 a839
00000140: d9a2 16b9 a959 beb8 1343 7838 3e25 9438
00000150: 5f83 50b8 c882 cb37 1427 0439 c398 69b8
00000160: f065 bcb8 feff 4ab9 cc78 1637 7525 4a38
00000170: 4912 5fb9 dd80 d938 78a4 3eb8 efed efb8
00000180: d76b 2db8 3b0c 3339 346a 2a39 ec50 5539
00000190: d5d9 be39 2706 1db8 550b 9637 0c57 47b8
000001a0: d306 a6b8 974a 2ab9 ca06 c938 26ad 5239
000001b0: 824d 9ab8 634d 2a37 8576 4238 95d8 e3b8
000001c0: a31b 7e39 5488 0438 f5de f537 9a46 0db9
000001d0: 8169 4437 5e66 6b38 9ff3 5db8 2f0d 92b8
000001e0: e28a c038 3e08 3db9 159d c9b8 f6e8 86b9
000001f0: da34 90b6 d799 e337 a2f6 5438 0268 4039

conv3.lin.weight f4 [128, 64]
-0.01986188 -0.14124274 -0.04274634 -0.20350674 -0.04593745 0.089454345 0.114410646 -0.16362913
-0.081564784 -0.090552874 -0.10647196 -0.09581702 0.070155844 0.12290734 -0.0023471608 -0.14229447
0.06939848 0.041268118 0.004906824 -0.07181464 0.007757941 -0.14519517 0.019828822 -0.0029166162
0.018063944 -0.18720047 0.06073581 0.054647446 -0.11765864 -0.15436095 0.039328855 0.009888798
-0.05669313 -0.023034472 -0.034524243 -0.02154791 0.16983998 -0.10447204 0.043112952 0.08716307
-0.050625935 -0.110598065 0.1612917 0.072992474 0.17072682 0.027569264 0.013706475 -0.021344954
0.023538461 -0.2340472 0.06164921 0.060483877 0.09104107 -0.036587533 0.11684614 0.05752798
-0.038734056 -0.12280965 0.09892732 -0.13029495 -0.1700355 -0.023391435 0.15001091 -0.00032673756
-0.15583418 -0.13100624 0.031180665 -0.042719536 0.03692779 -0.08917206 -0.07320281 0.14014998
-0.06946726 -0.029742746 -0.13943796 0.02225875 -0.016940735 0.051494293 -0.03767476 0.13819896
-0.03333184 -0.058273226 -0.14575604 -0.1972497 0.10589787 -0.029733242 -0.07703849 0.04799183
0.062204577 0.20451374 -0.063989066 -0.14193793 0.11679936 0.024195781 0.04898461 -0.077469796
0.08786221 0.055439316 0.14977166 -0.10293085 0.09981102 0.16731079 0.059491847 0.09101879
0.052852515 0.09584135 -0.02539136 -0.05539687 -0.012744843 -0.0884612 -0.14372553 -0.036164638
0.11503704 0.13442668 0.031763285 -0.08083908 0.05802633 0.08360439 -0.069278605 -0.04628598
-0.13516583 0.11945358 -0.13798878 -0.16419038 -0.0013986485 -0.05607173 0.16194999 0.063330285
0.016840925 0.0390088 0.17430411 -0.1642672 -0.060740173 -0.07288661 0.062380083 -0.038344625
0.06051387 0.008320934 0.05010424 -0.020708943 -0.052089866 0.14687276 0.12050232 0.11279248
-0.098978475 -1.25103115e-05 -0.098136455 -0.024651878 -0.020961773 -0.043123957 -0.09927123 0.1778021
-0.19883761 0.039968006 0.04504652 0.017439317 0.05529206 -0.011691529 0.10513367 0.09906121
0.091456994 0.06794853 0.0030661148 0.011695513 0.042087723 -0.12706695 -0.0674691 0.042240128
0.11803002 -0.017929057 0.10000077 0.10454058 0.15758023 0.152302 0.015844185 -0.006610705
0.08236137 -0.18066399 0.051786568 -0.027453069 -0.10266947 -0.059857767 -0.060878184 0.13910568
-0.11779997 -0.093470305 -0.16528507 0.008999827 0.17457287 0.047675915 0.08522729 0.06040998
-0.09648204 -0.034864042 -0.03971692 -0.06521261 0.0030414793 0.13565253 0.115426585 -0.015524518
0.12872352 -0.075126484 -0.06546995 -0.111248404 -0.080432996 0.039467596 -0.09933073 -0.100892834
0.045213465 0.06505038 -0.092765555 0.030942855 0.14630623 -0.080669805 -0.2171885 -0.057389878
-0.07823271 -0.17850058 -0.013080329 -0.09057253 0.08751766 0.078886196 -0.16477795 -0.16226664
0.10070285 0.05523291 -0.063307 -0.050239 0.12331098 -0.21588823 0.070004515 0.12541117
0.042085566 -0.09837561 -0.16020092 0.07706294 0.16499598 0.042725183 -0.15216503 -0.11317829
-0.14764732 -0.0077324524 -0.09737874 -0.032326397 0.108390495 0.0595449 0.03027026 0.016758267
-0.01845412 -0.059168525 -0.15048085 -0.14012392 0.12910563 -0.06380445 -0.10252363 -0.079059556
00000000: 62b5 a2bc f0a1 10be c916 2fbd 1264 50be
00000010: e828 3cbd d733 b73d 2150 ea3d 658e 27be
00000020: 700b a7bd c973 b9bd f90d dabd b73b c4bd
00000030: dead 8f3d d8b6 fb3d d3d2 19bb a4b5 11be
00000040: ca20 8e3d c208 293d 6cc9 a03b 8e13 93bd
00000050: 5336 fe3b 0bae 14be 0e70 a23c b324 3fbb
00000060: d6fa 933c 7bb1 3fbe 1dc6 783d 00d6 5f3d
00000070: 03f7 f0bd cc10 1ebe 4b17 213d a004 223c
00000080: 0e37 68bd cab2 bcbc 4b69 0dbd 3e85 b0bc
00000090: 88ea 2d3e 70f5 d5bd 3597 303d 8d82 b23d
000000a0: 245d 4fbd 3d81 e2bd a729 253e 147d 953d
000000b0: 03d3 2e3e f0d8 e13c 1f91 603c 9ddb aebc
000000c0: bbd3 c03c 12aa 6fbe e283 7c3d f1bd 773d
000000d0: be73 ba3d cfdc 15bd 074d ef3d 76a2 6b3d
000000e0: 9aa7 1ebd a083 fbbd 689a ca3d 0a6c 05be
000000f0: c91d 2ebe 659f bfbc 769c 193e f94d abb9
00000100: ff92 1fbe 8026 06be 986e ff3c aefa 2ebd
00000110: 9841 173d d79f b6bd 5beb 95bd 7a83 0f3e
00000120: da44 8ebd 0fa7 f3bc d3c8 0ebe fb57 b63c
00000130: 4cc7 8abc aeeb 523d d950 1abd 0784 0d3e
00000140: f886 08bd e8af 6ebd 1241 15be d3fb 49be
00000150: fce0 d83d 2193 f3bc 5bc6 9dbd 1593 443d
00000160: 3aca 7e3d 0d6c 513e b30c 83bd 2d58 11be
00000170: 8134 ef3d 3b36 c63c 16a4 483d 7ca8 9ebd
00000180: 1af1 b33d 5614 633d be5d 193e 69cd d2bd
00000190: b869 cc3d 8553 2b3e b9ad 733d 0f68 ba3d
000001a0: e17b 583d 7848 c43d 8b01 d0bc d4e7 62bd
000001b0: bfcf 50bc 252b b5bd c92c 13be 5f21 14bd
000001c0: 8a98 eb3d 26a7 093e 381a 023d f68e a5bd
000001d0: 04ad 6d3d c738 ab3d f1e1 8dbd 5e96 3dbd
000001e0: e968 0abe 14a4 f43d ee4c 0dbe 8621 28be
000001f0: db52 b7ba 78ab 65bd 38d6 253e 4fb3 813d
00000200: fbf5 893c b1c7 1f3d c77c 323e a935 28be
00000210: b0ca 78bd 9345 95bd 4282 7f3d 410f 1dbd
00000220: 64dd 773d 8754 083c 1b3a 4d3d cda5 a9bc
00000230: 2f5c 55bd d065 163e ecc9 f63d beff e63d
00000240: 3ab5 cabd 61e3 51b7 c4fb c8bd bcf2 c9bc
00000250: 06b8 abbc bfa2 30bd b74e cbbd c111 363e
00000260: 169c 4bbe 7eb5 233d b382 383d e6dc 8e3c
00000270: ed79 623d d48d 3fbc 5250 d73d 9be0 ca3d
00000280: ce4d bb3d 9928 8b3d dff0 483b 899e 3f3c
00000290: 2d64 2c3d d71d 02be 3d2d 8abd fc03 2d3d
000002a0: b9b9 f13d f5df 92bc 34cd cc3d 5f19 d63d
000002b0: b65c 213e 0ef5 1b3e aacb 813c 9d9e d8bb
000002c0: 14ad a83d fbff 38be 271e 543d 42e5 e0bc
000002d0: 5f44 d2bd 6b2d 75bd 675b 79bd b871 0e3e
000002e0: 1c41 f1bd 5c6d bfbd 7d40 29be 0374 133c
000002f0: 3bc3 323e d247 433d a58b ae3d 7570 773d
00000300: 6098 c5bd 99cd 0ebd 36ae 22bd 308e 85bd
00000310: 8e53 473b 7fe8 0a3e c664 ec3d 8c5a 7ebc
00000320: 19d0 033e eadb 99bd 1c15 86bd 34d6 e3bd
00000330: 0eba a4bd c6a8 213d e96d cbbd e7a0 cebd
00000340: c131 393d 2239 853d defb bdbd df7b fd3c
00000350: 4dd1 153e 3636 a5bd aa66 5ebe a611 6bbd
00000360: 7938 a0bd dbc8 36be e04e 56bc 177e b9bd
00000370: 753c b33d 168f a13d 8dbb 28be 3a29 26be
00000380: 4c3d ce3d e73b 623d 1aa7 81bd 69c7 4dbd
00000390: 788a fc3d ce11 5dbe 875e 8f3d c96b 003e
000003a0: ea61 2c3d 2779 c9bd b60b 24be 2dd3 9d3d
000003b0: b5f4 283e 9a00 2f3d 26d1 1bbe 05ca e7bd
000003c0: dc30 17be 8360 fdbb 816e c7bd af68 04bd
000003d0: d6fb dd3d 5ae5 733d 56f9 f73c a248 893c
000003e0: 182d 97bc b25a 72bd a717 1abe a57c 0fbe
000003f0: 4434 043e e8ab 82bd e9f7 d1bd fae9 a1bd

conv4.bias f4 [128]
-0.015971217 -0.03900719 -0.0012999601 -0.07181962 -0.087530255 -0.060217004 -0.057171244 -0.064943686
-0.0054232776 -0.002412755 -0.105680004 -0.03498567 -0.09600969 -0.011321572 -0.009831583 0.010959515
-0.03474773 -0.088355094 -0.05945391 -0.022841692 -0.070348874 -0.056400526 -0.06891023 -0.018710816
0.0054752184 -0.016483698 -0.059862718 -0.09252796 -0.0027091787 -0.098626584 0.0018338969 -0.050943576
-0.05927052 -0.053761028 -0.04194843 -0.006991943 -0.018126642 -0.048445594 -0.059523404 -0.07520383
-0.11307597 -0.029077852 0.021988079 -0.031216078 -0.03428502 -0.03770674 -0.016223172 -0.017096842
-0.06483363 -0.05951554 -0.118733555 0.03422239 -0.0014667517 -0.070958264 0.039105456 -0.08422498
-0.054148674 0.00603321 -0.03485223 0.031840675 0.030520631 0.02136697 0.002593305 0.0113252755
-0.08030772 -0.042962067 -0.0067986394 -0.12853912 -0.07525547 -0.038763285 -0.0617365 -0.021110263
-0.07282841 -0.030439451 0.0011932746 -0.10176039 -0.044809334 -0.032571282 -0.009848433 -0.04624397
-0.029601958 0.0046066004 9.2531525e-05 -0.014600324 -0.08911951 0.008552004 0.005419411 -0.083463244
0.03869638 -0.021366574 -0.004496482 -0.025031673 0.015763145 -0.0979878 -0.08493228 0.0024710663
-0.02686688 -0.064793944 -0.013586162 -0.09605538 -0.08214381 -0.050339308 -0.08595073 -0.009233553
-0.0008612526 -0.05255318 -0.08974217 -0.0036654396 -0.05671789 -0.07453906 -0.08186035 -0.067644835
-0.03548139 -0.035367403 -0.0527526 -0.07163927 -0.04107445 -0.07906717 -0.16093113 -0.05350202
0.01741838 -0.102687955 -0.074083924 -0.10070841 -0.031611994 -0.07080408 -0.055187482 -0.05797614
00000000: 12d6 82bc 01c6 1fbd 6c63 aaba 2a16 93bd
00000010: 1043 b3bd 1ba6 76bd 652c 6abd 3201 85bd
00000020: c0b5 b1bb 501f 1ebb c26e d8bd 224d 0fbd
00000030: baa0 c4bd 1d7e 39bc a614 21bc 8a8f 333c
00000040: a353 0ebd 84f3 b4bd f185 73bd 801e bbbc
00000050: 1213 90bd 3d04 67bd cf20 8dbd 6d47 99bc
00000060: 7669 b33b d208 87bc 9c32 75bd 4d7f bdbd
00000070: 7a8c 31bb bcfc c9bd 5e5f f03a 36aa 50bd
00000080: a5c5 72bd 8634 5cbd 1ed2 2bbd ab1c e5bb
00000090: 537e 94bc e36e 46bd d0ce 73bd 7704 9abd
000000a0: 6094 e7bd ad34 eebc 5820 b43c dcb8 ffbc
000000b0: 736e 0cbd 6272 1abd 75e6 84bc ad0e 8cbc
000000c0: 7fc7 84bd 91c6 73bd 942a f3bd c72c 0c3d
000000d0: 0540 c0ba 9152 91bd 0b2d 203d 257e acbd
000000e0: 00cb 5dbd 3cb2 c53b 36c1 0ebd 5e6b 023d
000000f0: 6706 fa3c c909 af3c 70f4 293b a68d 393c
00000100: 6078 a4bd fef8 2fbd 1fc7 debb c29f 03be
00000110: 8a1f 9abd 40c6 1ebd 6adf 7cbd 6eef acbc
00000120: 1027 95bd 285c f9bc a767 9c3a c067 d0bd
00000130: fe89 37bd 7769 05bd 525b 21bc 516a 3dbd
00000140: ce7f f2bc f7f2 963b 7c0d c238 3336 6fbc
00000150: 4a84 b6bd b41d 0c3c 5195 b13b c7ee aabd
00000160: 1880 1e3d f408 afbc 3a57 93bb 390f cdbc
00000170: b621 813c d4ad c8bd faf0 adbd 9df1 213b
00000180: ee17 dcbc b0b2 84bd 7e98 5ebc afb8 c4bd
00000190: 043b a8bd 9730 4ebd f006 b0bd 5448 17bc
000001a0: afc5 61ba 0142 57bd beca b7bd df37 70bb
000001b0: 0551 68bd efa7 98bd 66a6 a7bd 6089 8abd
000001c0: ef54 11bd 69dd 10bd 1c13 58bd 9cb7 92bd
000001d0: af3d 28bd f8ed a1bd 21cb 24be ef24 5bbd
000001e0: feb0 8e3c 104e d2bd 50b9 97bd 3640 cebd
000001f0: 947b 01bd bb01 91bd 450c 62bd 6478 6dbd

conv4.lin.weight f4 [128, 128]
-0.02587083 0.15101816 -0.10776789 0.0031580247 0.0071061086 -0.021759812 0.13362654 -0.005911498
-0.08210017 -0.09658419 0.0644612 -0.040113486 0.14836146 0.059354212 0.012218002 0.041327726
-0.013622057 -0.19549014 0.064216286 0.0652999 -0.13681802 -0.115873285 0.050080895 0.099872336
0.10963233 -0.10286612 -0.16798702 0.08472652 0.08154004 -0.07817087 -0.07586238 0.13707894
0.09776348 0.06819792 0.0305607 0.009244097 0.09234607 -0.109850526 0.053439014 -0.09662311
0.04762884 0.1459525 -0.11554085 -0.039386533 -0.10046877 0.07834506 -0.10041533 0.03556044
-0.14959408 0.14539889 0.04748365 -0.11460444 0.11633169 -0.13845792 0.10115745 -0.079462364
0.046596136 0.09534412 -0.13462853 0.13094364 -0.08135539 -0.0090556415 0.028922401 -0.023503557
0.12472092 -0.096353725 0.09994968 0.063300826 -0.12760678 0.016372 0.06530656 -0.120382614
0.1198351 -0.036620032 0.011687643 -0.0073570157 0.08668729 0.13043717 -0.030730003 -0.026138715
-0.11338986 -0.010207889 -0.04167605 -0.15078138 -0.093801804 0.03424198 0.08123284 -0.109448574
0.09913109 0.07664661 0.08291347 -0.056625832 0.1354046 0.10209079 -0.059651144 -0.069308065
-0.03775893 0.12291772 -0.07418283 0.09239759 -0.0033946177 0.02815289 -0.11812578 0.050004415
0.117681175 0.021682113 0.074573115 0.13777567 0.06100081 0.049449906 9.697319e-05 -0.008121972
-0.05272285 -0.0981186 0.017543597 0.1037597 0.03769148 0.058571715 0.070921086 -0.037180368
0.028731305 0.028652854 0.03651315 -0.007426446 0.10140601 0.12933844 -0.045806713 0.07702691
-0.088458635 -0.029097138 -0.055838965 0.043071054 -0.046373848 0.084484324 -0.05358902 -0.12930004
-0.105849214 -0.03152907 0.014038525 -0.055906117 0.10657679 -0.08384738 -0.07452369 0.096301876
-0.070376284 0.021106692 -0.07819007 -0.1383896 -0.07456813 -0.011468333 -0.080561824 -0.097745754
0.02657283 0.030017056 0.08946398 0.016665589 -0.12922817 -0.028025813 -0.07663814 0.09264805
-0.026242713 -0.017929772 -0.030638648 0.020441204 -0.11468741 -0.08290319 0.04720472 -0.04233814
0.007642229 0.075514436 0.042431243 -0.007906986 -0.023230815 0.02354702 -0.035665207 -0.010527513
0.13769265 -0.16657005 -0.07330602 -0.03277583 0.056410287 -0.025773423 -0.15120451 0.09089507
0.014697188 0.027182594 -0.006237565 -0.019441018 0.07076181 -0.024891932 0.12652512 0.052357517
0.03045947 -0.1378608 0.02106476 -0.064275116 0.13560109 0.012551192 0.027667282 -0.05001898
-0.08422438 -0.0915493 -0.10374381 0.040630396 0.06291666 0.12708822 -0.10057255 0.10030337
-0.21961913 -0.06365557 0.13679875 0.086290546 -0.027046796 -0.019367946 -0.043435194 -0.15270768
0.114233494 -0.01428424 -0.093048416 0.029365838 0.08994597 0.1140893 -0.0022617325 -0.04367923
-0.044148374 0.113273166 -0.069055796 -0.022575142 -0.12638035 -0.03962221 0.081084974 -0.036490407
-0.066321515 -0.032675225 0.03547374 -0.04268642 0.06715302 -0.06810734 0.05477775 -0.10134287
0.038359206 0.120165616 -0.029007636 -0.04664379 0.09424365 -0.098934874 0.002512717 0.0639189
-0.13814189 -0.093189426 -0.06538751 0.06614865 -0.18688656 0.073025495 -0.15333323 -0.018881118
00000000: 10ef d3bc 81a4 1a3e 69b5 dcbd ddf6 4e3b
00000010: 5cda e83b a241 b2bc 65d5 083e 3db5 c1bb
00000020: 2224 a8bd efcd c5bd 3c04 843d 0a4e 24bd
00000030: 11ec 173e 671d 733d 042e 483c 4347 293d
00000040: 0c2f 5fbc 912e 48be d483 833d f4bb 853d
00000050: 061a 0cbe f94e edbd a021 4d3d de89 cc3d
00000060: ea86 e03d 79ab d2bd ca04 2cbe 1985 ad3d
00000070: 77fe a63d 0d18 a0bd bc5d 9bbd 6c5e 0c3e
00000080: 3838 c83d 5aab 8b3d 6f5a fa3c 8e74 173c
00000090: f01f bd3d 50f9 e0bd dee2 5a3d 56e2 c5bd
000000a0: 7516 433d 9274 153e aea0 ecbd c653 21bd
000000b0: 92c2 cdbd 6073 a03d 8da6 cdbd d3a7 113d
000000c0: 312f 19be 72e3 143e 377e 423d bcb5 eabd
000000d0: 4f3f ee3d eac7 0dbe a32b cf3d 2abd a2bd
000000e0: 97db 3e3d c743 c33d 10dc 09be 1716 063e
000000f0: a89d a6bd 1d5e 14bc acee ec3c 888a c0bc
00000100: af6d ff3d 1a55 c5bd 6bb2 cc3d dda3 813d
00000110: 5aab 02be 931e 863c 72bf 853d 298b f6bd
00000120: 1b6c f53d e3fe 15bd 877d 3f3c 1f13 f1bb
00000130: 1b89 b13d 5291 053e 7dbd fbbc dc20 d6bc
00000140: f138 e8bd fd3e 27bc 81b4 2abd 6f66 1abe
00000150: 291b c0bd 5241 0c3d 675d a63d 9326 e0bd
00000160: 3e05 cb3d e6f8 9c3d 8ace a93d 7df0 67bd
00000170: 81a7 0a3e fa14 d13d c254 74bd 63f1 8dbd
00000180: 1ca9 1abd 49bc fb3d 2bed 97bd f33a bd3d
00000190: 3c78 5ebb e4a0 e63c eeeb f1bd 6ed1 4c3d
000001a0: d402 f13d b09e b13c cab9 983d 1115 0d3e
000001b0: fcdb 793d fc8b 4a3d 165e cb38 0512 05bc
000001c0: eaf3 57bd 68f2 c8bd 97b7 8f3c f77f d43d
000001d0: 6262 1a3d e5e8 6f3d 133f 913d 714a 18bd
000001e0: ea5d eb3c 64b9 ea3c d08e 153d 8b59 f3bb
000001f0: f4ad cf3d 4c71 043e d29f 3bbd 49c0 9d3d
00000200: cd29 b5bd 1f5d eebc 66b7 64bd 466b 303d
00000210: 81f2 3dbd 1e06 ad3d 2980 5bbd 3b67 04be
00000220: 79c7 d8bd a024 01bd d701 663c d0fd 64bd
00000230: ef44 da3d 2db8 abbd e09f 98bd eb39 c53d
00000240: 7121 90bd f1e7 ac3c 1e22 a0bd 01b6 0dbe
00000250: 2db7 98bd ade5 3bbc 99fd a4bd ed2e c8bd
00000260: 43af d93c 54e6 f53c e438 b73d 4686 883c
00000270: 6454 04be 6496 e5bc 75f4 9cbd 43be bd3d
00000280: f5fa d6bc 75e1 92bc e7fd fabc 5074 a73c
00000290: 3ce1 eabd 26c9 a9bd bd59 413d c26a 2dbd
000002a0: aa6b fa3b 50a7 9a3d 62cc 2d3d 4e8c 01bc
000002b0: 8d4e bebc aee5 c03c ae15 12bd 977b 2cbc
000002c0: 4dff 0c3e 5791 2abe 7721 96bd f33f 06bd
000002d0: 790e 673d c922 d3bc 5bd5 1abe 3227 ba3d
000002e0: 79cc 703c 08ae de3c 7d64 ccbb c542 9fbc
000002f0: 91eb 903d 2aea cbbc cd8f 013e d674 563d
00000300: 2386 f93c 622b 0dbe 0190 ac3c aca2 83bd
00000310: 03db 0a3e 84a3 4d3c 7fa6 e23c b4e0 4cbd
00000320: d57d acbd 337e bbbd a277 d4bd 0f6c 263d
00000330: 73da 803d 6a23 023e fbf8 cdbd da6b cd3d
00000340: d6e3 60be da5d 82bd f914 0c3e 19b9 b03d
00000350: 3e91 ddbc 87a9 9ebc 1ae9 31bd 675f 1cbe
00000360: 40f3 e93d 7208 6abc 2b90 bebd a090 f03c
00000370: 9835 b83d a7a7 e93d 9339 14bb fee8 32bd
00000380: edd4 34bd c3fb e73d 206d 8dbd 81ef b8bc
00000390: da69 01be e64a 22bd e10f a63d f776 15bd
000003a0: 93d3 87bd 75d6 05bd ea4c 113d f5d7 2ebd
000003b0: 8687 893d dc7b 8bbd a25e 603d da8c cfbd
000003c0: 8b1e 1d3d 6419 f63d 6ca1 edbc 8f0d 3fbd
000003d0: d102 c13d 5e9e cabd 65ac 243b eae7 823d
000003e0: 1175 0dbe 19da bebd e3e9 85bd f278 873d
000003f0: 315f 3fbe 648e 953d 6303 1dbe 93ac 9abc

conv5.bias f4 [256]
2.9758126e-05 -0.00020057605 -3.349562e-05 -6.172262e-05 -0.00021791975 -7.357911e-05 2.932285e-05 5.6108365e-06
-5.8372927e-05 -9.118422e-05 -2.8851873e-05 -0.00015684025 -9.679624e-05 -9.8908284e-05 -0.00010461419 -6.97911e-05
-0.00030472578 -0.00025289378 -1.2039149e-05 -0.00016179119 1.4652658e-05 -4.981626e-05 2.9745952e-05 -0.00034215394
-8.656689e-05 -8.083094e-05 -2.1190295e-05 -4.670568e-05 -0.00019091506 1.4578262e-07 -0.0002490042 -8.080518e-05
-0.0002762646 4.2205116e-05 -1.0281615e-06 -0.00025413014 -9.889062e-06 -6.6430207e-06 -7.5208413e-06 -0.00012789383
-5.5748635e-05 -1.2914441e-05 -9.0986374e-05 -0.00024865428 4.5475943e-05 -0.0003294931 -1.5360882e-05 -0.00013221487
2.2448094e-05 -7.788319e-05 -0.00029449875 -0.00017606736 -0.00031315285 -1.4698038e-05 -9.8330405e-05 3.5771558e-05
3.3682336e-06 -1.209673e-05 -7.550438e-05 -6.0045328e-05 -3.0632837e-05 -8.145657e-05 7.673569e-06 -4.3766373e-05
-4.0703508e-05 1.3064515e-05 -9.1770264e-05 1.9002946e-05 -0.00029478432 -4.3410684e-05 -5.1319534e-05 -0.00022272908
-1.2456344e-05 -9.729788e-05 1.8588e-05 -3.915422e-05 -1.2079786e-05 5.403428e-06 2.3745517e-05 3.5780162e-05
-5.73577e-05 -8.030206e-05 -2.181086e-05 -0.00010343757 -0.000117561714 2.99467e-05 1.2304315e-05 -3.749657e-05
-0.00018945844 2.4497134e-05 -1.1731483e-05 -1.5180533e-06 -0.0004586528 -0.00010749511 -0.00010620635 -0.00010012293
-8.7797176e-05 -9.5112715e-05 -5.723298e-05 -0.00023466405 -4.470003e-05 -1.3610368e-06 -1.965611e-06 -1.4302317e-05
-0.00018575432 5.767647e-05 -8.696351e-05 3.497421e-05 -7.10637e-05 4.998571e-05 -8.739433e-05 -1.9488863e-05
-2.3399247e-05 6.754693e-06 1.0952266e-05 -0.00014043649 5.8016005e-05 -0.00019803467 3.4461773e-05 -2.6951733e-05
5.3518906e-05 -9.221895e-06 -7.1365714e-05 1.1666395e-05 -5.3296526e-07 -9.754432e-05 -0.00022917571 -3.982035e-05
-3.3981116e-05 -4.5965535e-05 1.2703281e-05 -0.00012043903 -3.280085e-05 -6.319315e-05 -1.556618e-05 3.5261004e-05
-9.9375866e-05 -5.2311247e-05 -1.370635e-05 -4.4370827e-05 3.954776e-06 -6.781317e-06 3.0213652e-05 2.5485942e-05
-2.194948e-05 5.2364652e-05 -4.0358864e-05 -3.0946485e-05 -0.00023962115 -6.549863e-05 -0.00013252541 -2.6743817e-05
-8.456683e-05 -2.5354908e-05 4.889099e-05 -0.0001574658 -3.78251e-05 2.5653992e-05 -1.1078678e-05 -6.5152315e-05
-0.0002671669 2.4523211e-05 -9.473349e-06 -5.9669324e-05 2.1358099e-05 3.0169096e-05 -9.59206e-05 -0.00019201907
1.1171047e-05 2.9296787e-05 1.5603919e-05 -4.3269632e-05 -0.00013556302 -8.170653e-05 -2.6211697e-05 -4.0823954e-05
-4.0213607e-05 -0.00010217279 -8.782372e-05 -0.00011969774 1.2727189e-05 -2.4854917e-06 -6.0607283e-05 -6.2864005e-05
-4.699811e-05 -6.928388e-05 6.031715e-07 -1.3103957e-05 -6.305137e-05 -9.9682125e-05 -4.11431e-05 5.4548924e-05
-3.2327618e-05 1.9915626e-05 -7.83218e-05 -9.276427e-05 3.4510642e-05 -4.5025787e-05 -3.7114696e-05 3.2782205e-05
-7.664387e-05 -2.97952e-06 -9.7185446e-05 -3.357799e-05 3.835672e-06 -0.00011889686 -0.00015841618 4.107844e-05
9.413576e-06 1.6538128e-05 -6.951419e-05 9.656889e-06 -4.74963e-05 -1.8312984e-06 3.2468558e-06 -3.9171402e-05
-0.00017276214 -9.650022e-06 4.2666765e-05 9.901738e-06 -7.5732074e-05 -5.065515e-06 1.3644133e-06 -3.5893743e-05
8.4466556e-05 -3.9277915e-05 -7.341021e-05 -0.00010672213 1.3429316e-05 -6.0789374e-05 -6.593273e-05 -9.482945e-05
-5.233833e-05 -0.00012583051 2.2994265e-05 -6.9351845e-05 -0.00018090692 -0.00019722649 -8.643559e-05 -8.191352e-05
4.7168072e-05 -6.63802e-05 -1.037279e-06 5.1114916e-05 -1.1396504e-05 -7.891665e-05 -2.6859076e-05 -4.625089e-05
-0.00015745137 -2.1687356e-05 -3.51431e-05 -0.00016139317 -1.29014925e-05 9.599223e-06 7.458174e-06 5.149208e-06
00000000: 17a1 f937 b951 52b9 a67d 0cb8 1471 81b8
00000010: 6381 64b9 7c4e 9ab8 57fa f537 b844 bc36
00000020: 74d5 74b8 283a bfb8 ed06 f2b7 7c75 24b9
00000030: 16ff cab8 fb6c cfb8 5164 dbb8 d05c 92b8
00000040: 9ac3 9fb9 d496 84b9 c0fb 49b7 7ea6 29b9
00000050: b0d4 7537 cdf1 50b8 f286 f937 2063 b3b9
00000060: 3f8b b5b8 c883 a9b8 d0c1 b1b7 d8e5 43b8
00000070: 5f30 48b9 6c88 1c34 c78c 82b9 f375 a9b8
00000080: 9bd7 90b9 6605 3138 5cff 89b5 c53c 85b9
00000090: 33e9 25b7 1de7 deb6 895b fcb6 3d1b 06b9
000000a0: a4d3 69b8 1aab 58b7 f0cf beb8 d05d 82b9
000000b0: 6cbd 3e38 d1bf acb9 3edb 80b7 29a3 0ab9
000000c0: ea4e bc37 3855 a3b8 f466 9ab9 b99e 38b9
000000d0: aa2e a4b9 9897 76b7 bc36 ceb8 6b09 1638
000000e0: d009 6236 0ff3 4ab7 1b58 9eb8 2ed9 7bb8
000000f0: c27b 00b8 aad3 aab8 babd 0037 c991 37b8
00000100: 0fb9 2ab8 aa2f 5b37 c974 c0b8 8468 9f37
00000110: 488d 9ab9 de13 36b8 ee3f 57b8 628c 69b9
00000120: 97fb 50b7 670c ccb8 6ded 9b37 8639 24b8
00000130: 49aa 4ab7 184f b536 1c31 c737 a812 1638
00000140: 5d93 70b8 d767 a8b8 77f6 b6b7 9fec d8b8
00000150: 778b f6b8 0c36 fb37 a16e 4e37 a345 1db8
00000160: 5da9 46b9 327f cd37 56d2 44b7 eabf cbb5
00000170: 5677 f0b9 ff6e e1b8 1abb deb8 17f9 d1b8
00000180: c01f b8b8 4077 c7b8 720d 70b8 2710 76b9
00000190: 4b7c 3bb8 deac b6b5 f1e8 03b6 fcf3 6fb7
000001a0: 0cc7 42b9 a3e9 7138 2e60 b6b8 46b1 1238
000001b0: 0908 95b8 bfa7 5138 7947 b7b8 047c a3b7
000001c0: 8049 c4b7 5fa6 e236 a0bf 3737 2242 13b9
000001d0: 3656 7338 87a7 4fb9 0c8b 1038 6816 e2b7
000001e0: 7d79 6038 bdb7 1ab7 2daa 95b8 c9ba 4337
000001f0: 1811 0fb5 b590 ccb8 e34e 70b9 c604 27b8
00000200: f286 0eb8 1ecb 40b8 2d20 5537 3694 fcb8
00000210: a593 09b8 9086 84b8 1e94 82b7 37e5 1338
00000220: 0368 d0b8 c668 5bb8 53f4 65b7 d01a 3ab8
00000230: 44b3 8436 128b e3b6 5373 fd37 a5ca d537
00000240: 2620 b8b7 1ea2 5b38 0047 29b8 89cc 01b8
00000250: d042 7bb9 4f5c 89b8 85f6 0ab9 e957 e0b7
00000260: 7959 b1b8 40b1 d4b7 4d10 4d38 671d 25b9
00000270: 64a6 1eb8 8733 d737 8fde 39b7 62a2 88b8
00000280: 8912 8cb9 32b7 cd37 b9ef 1eb7 7345 7ab8
00000290: 2b2a b337 a413 fd37 fb28 c9b8 ba58 49b9
000002a0: 486b 3b37 5fc2 f537 29e5 8237 6a7c 35b8
000002b0: ec25 0eb9 dc59 abb8 31e1 dbb7 633a 2bb8
000002c0: 08ab 28b8 9945 d6b8 002e b8b8 3c06 fbb8
000002d0: dc86 5537 6ccc 26b6 9334 7eb8 dbd5 83b8
000002e0: d61f 45b8 804c 91b8 a1e9 2135 11d9 5bb7
000002f0: 723a 84b8 6f0c d1b8 1191 2cb8 76cb 6438
00000300: 8497 07b8 7b10 a737 b240 a4b8 708a c2b8
00000310: 85bf 1038 12da 3cb8 9aab 1bb8 a07f 0938
00000320: ddbb a0b8 c4f3 47b6 0ad0 cbb8 18d6 0cb8
00000330: 2cb4 8036 4458 f9b8 851c 26b9 a44b 2c38
00000340: 00ef 1d37 5cbb 8a37 26c8 91b8 0604 2237
00000350: c436 47b8 efca f5b5 8fe4 5936 f94b 24b8
00000360: 7c27 35b9 87e6 21b7 17f5 3238 a41f 2637
00000370: 59d2 9eb8 71f8 a9b6 e220 b735 9d8c 16b8
00000380: a323 b138 57be 24b8 cef3 99b8 02d0 dfb8
00000390: 794e 6137 18f8 7eb8 5d45 8ab8 2cdf c6b8
000003a0: db85 5bb8 5ff1 03b9 cfe3 c037 fd70 91b8
000003b0: d5b1 3db9 95ce 4eb9 c144 b5b8 fcc8 abb8
000003c0: 55d6 4538 9935 8bb8 a338 8bb5 3964 5638
000003d0: 9d33 3fb7 0e80 a5b8 6d4f e1b7 84fd 41b8
000003e0: 8819 25b9 3eed b5b7 9e66 13b8 a63b 29b9
000003f0: 7d73 58b7 590c 2137 3a41 fa36 5cc7 ac36

conv5.lin.weight f4 [256, 128]
0.013941937 0.015321127 -0.099190325 0.0123376865 0.041476164 0.033707343 0.10285362 -0.016713874
0.029557426 0.030000798 0.0022135396 0.054955233 -0.019705914 0.060407046 -0.066112556 0.0035457767
-0.026977578 0.077827066 -0.016221667 0.060022578 -0.0017046165 0.084084876 0.045318063 0.019576903
-0.0040757344 0.0176519 0.052851353 -0.0060807895 0.05075404 -0.079563364 -0.038199995 0.09170661
0.052059855 0.045842167 0.010454288 0.066687934 -0.101082444 -0.0008607224 0.065026626 0.06413843
0.10830497 0.053623695 0.04408843 -0.098433696 0.04904155 -0.025251206 0.0831299 0.06459189
-0.037347816 0.026353411 -0.008696877 -0.11954294 -0.045436013 0.04368933 0.07548571 0.12870376
0.069828436 -0.122892104 -0.0011337796 -0.03279098 0.05287801 -0.02606 -0.04123467 -0.021922484
0.012423565 0.0696256 0.061803777 0.08058118 0.01943114 -0.020601464 -0.005842354 -0.0068836105
0.09476651 0.117982544 -0.030394686 0.059991844 0.059962187 0.022429246 -0.10457372 0.0002825541
-0.029964333 -0.035437558 0.014174342 0.070677675 0.13031787 0.014279409 0.08233453 0.05467823
0.052932143 0.023340577 -0.013764662 -0.017675333 -0.025704348 -0.023570178 -0.015435848 0.025240479
-0.0033070375 0.032571953 -0.01880675 0.026522748 0.12761548 -0.014087113 0.014681804 -0.034126807
0.05310902 -0.03407788 -0.047756262 0.08737254 -0.041602142 0.16253123 -0.05653642 0.008736434
0.033461485 0.00036485185 0.1631573 -0.076303884 -0.02591803 0.08156248 0.056751817 0.013513137
0.14876121 0.06429921 0.01462256 0.049376383 0.07923714 0.06339644 0.07871267 -0.02560891
0.04421573 0.009996859 -0.055046696 -0.09484881 -0.084627315 -0.08260152 0.036628556 -0.029473053
0.008937876 0.06801123 0.018317716 -0.122213066 -0.14978477 -0.17841487 0.091921784 0.08860773
-0.043948084 -0.0123071475 -0.021923466 -0.16537675 -0.0548997 -0.0020119434 0.039617307 0.09284176
-0.11827553 -0.056451026 -0.03346149 0.085280225 0.018919393 -0.13988793 -0.06910668 -0.099329695
0.05809133 0.03239018 -0.12720129 -0.15668616 -0.034695413 0.010960695 -0.04593626 0.06971318
-0.01887061 -0.05184463 0.056273036 -0.06414966 0.038046807 -0.030264528 0.07577683 -0.06538704
-0.036857788 -0.051072795 0.013749614 0.10363811 -0.033451445 -0.006526282 0.029076291 -0.06516258
0.061247826 0.06517279 -0.11781252 0.018626545 0.0682528 -0.04050084 0.07853018 -0.04039477
-0.10881414 -0.13047527 -2.4850724e-06 0.06827569 -0.07557331 0.100564495 -0.12381015 0.009314855
-0.04238645 0.021830285 0.03015951 0.022627188 0.12924618 0.08267635 -0.14235547 -0.018846009
0.032809246 0.13996033 0.08851535 0.094309166 0.03910071 -0.084785305 0.04547872 -0.040401023
0.08598501 0.10981501 0.004512729 0.048781604 -0.0030908256 -0.018774644 -0.011131381 0.07940068
0.049739197 0.04943773 0.020932563 -0.009444033 -0.05169789 -0.01615645 0.033530828 0.011127086
0.05165619 -0.13876157 -0.1057756 0.027996624 0.057905123 -0.08780786 0.010056617 0.021672182
-0.03417566 -0.028327987 -0.043762967 0.01728778 -0.031070752 0.026772058 -0.0037519073 -0.017944204
-0.041700035 0.03091511 0.017845027 -0.065966934 -0.0095935175 0.080185644 0.074490435 -0.034933485
00000000: b96c 643c 7705 7b3c 4c24 cbbd 0224 4a3c
00000010: e9e2 293d b610 0a3d eba4 d23d 89eb 88bc
00000020: 6a22 f23c 3cc4 f53c 0811 113b bd18 613d
00000030: 4c6e a1bc 616d 773d 0566 87bd 4360 683b
00000040: 1500 ddbc cc63 9f3d 4de3 84bc 3cda 753d
00000050: 706d dfba b134 ac3d 6f9f 393d be5f a03c
00000060: bd8d 85bb b89a 903c a97a 583d 5c41 c7bb
00000070: 78e3 4f3d 1ef2 a2bd 9977 1cbd add0 bb3d
00000080: b73c 553d ffc4 3b3d 7648 2b3c af93 883d
00000090: 5004 cfbd 1aa2 61ba ae2c 853d 025b 833d
000000a0: ffce dd3d 85a4 5b3d 1296 343d 9b97 c9bd
000000b0: cbdf 483d 9edb cebc 0240 aa3d c148 843d
000000c0: 06fa 18bd 1ce3 d73c 597d 0ebc eed2 f4bd
000000d0: 1d1b 3abd 95f3 323d 4098 9a3d ebca 033e
000000e0: 3602 8f3d dbae fbbd 559b 94ba d64f 06bd
000000f0: 9d96 583d c87b d5bc afe5 28bd c896 b3bc
00000100: 358c 4b3c de97 8e3d f525 7d3d bf07 a53d
00000110: 0e2e 9f3c 67c4 a8bc 3871 bfbb e98f e1bb
00000120: f214 c23d d5a0 f13d 47fe f8bc 02ba 753d
00000130: e99a 753d 8abd b73c bf2a d6bd c523 9439
00000140: c377 f5bc f926 11bd 803b 683c 75bf 903d
00000150: 0c72 053e 2ff4 693c 029f a83d 48f6 5f3d
00000160: 60cf 583d bd34 bf3c 2d85 61bc dccb 90bc
00000170: ed91 d2bc 3f16 c1bc a4e6 7cbc 1fc5 ce3c
00000180: e2ba 58bb 2b6a 053d 9d10 9abc 3c46 d93c
00000190: a2ad 023e a2cd 66bc f38b 703c 8dc8 0bbd
000001a0: d888 593d 3f95 0bbd 129c 43bd 60f0 b23d
000001b0: 0267 2abd 966e 263e bc92 67bd 4323 0f3c
000001c0: e90e 093d 9649 bf39 b512 273e 3645 9cbd
000001d0: 0c52 d4bc 3b0a a73d 9874 683d 3466 5d3c
000001e0: dc54 183e 4eaf 833d 7693 6f3c e43e 4a3d
000001f0: 1547 a23d fed5 813d 1c34 a13d c7c9 d1bc
00000200: 8e1b 353d dec9 233c a578 61bd 1840 c2bd
00000210: 1651 adbd fc2a a9bd d307 163d 7971 f1bc
00000220: 2b70 123c 7949 8b3d 090f 963c d84a fabd
00000230: 2e61 19be 63b2 36be 7d41 bc3d f877 b53d
00000240: e802 34bd eba3 49bc d798 b3bc 8658 29be
00000250: 82de 60bd cfda 03bb c245 223d d223 be3d
00000260: 713a f2bd 3139 67bd ea0e 09bd 66a7 ae3d
00000270: d8fc 9a3c c83e 0fbe ce87 8dbd 5e6d cbbd
00000280: 2df1 6d3d 91ab 043d 0e41 02be 5672 20be
00000290: c71c 0ebd 7d94 333c a927 3cbd c9c5 8e3d
000002a0: 8a96 9abc 095b 54bd 8e7e 663d e660 83bd
000002b0: f8d6 1b3d 51ed f7bc e230 9b3d a4e9 85bd
000002c0: 31f8 16bd b531 51bd 1046 613c 3840 d43d
000002d0: 6204 09bd 6cda d5bb 6731 ee3c f573 85bd
000002e0: 00df 7a3d 5079 853d b147 f1bd b296 983c
000002f0: 20c8 8b3d 35e4 25bd 6ed4 a03d fd74 25bd
00000300: f3d9 debd 4f9b 05be 38c5 26b6 20d4 8b3d
00000310: 2ec6 9abd c2f4 cd3d 2d90 fdbd 559d 183c
00000320: 6a9d 2dbd 6dd5 b23c 1411 f73c a75c b93c
00000330: 1c59 043e 3852 a93d a2c5 11be f262 9abc
00000340: fd62 063d c351 0f3e 8947 b53d 2a25 c13d
00000350: 1128 203d eba3 adbd e547 3a3d 8b7b 25bd
00000360: e918 b03d b1e6 e03d 84df 933b 38cf 473d
00000370: 738f 4abb 48cd 99bc 6560 36bc d39c a23d
00000380: 54bb 4b3d 387f 4a3d c47a ab3c 25bb 1abc
00000390: 2bc1 53bd 885a 84bc 9f57 093d 624e 363c
000003a0: 7195 533d 8317 0ebe e1a0 d8bd 2d59 e53c
000003b0: ec2d 6d3d 9bd4 b3bd 82c4 243c dc89 b13c
000003c0: c7fb 0bbd 1810 e8bc cc40 33bd 1a9f 8d3c
000003d0: 1788 febc 1351 db3c 8fe2 75bb b9ff 92bc
000003e0: a8cd 2abd af41 fd3c bc2f 923c ac19 87bd
000003f0: 212e 1dbc 5f38 a43d 718e 983d 6a16 0fbd
