weights/6-5-0_split_1.pt (torch, 473413 bytes, 26 tensors)

conv1.bias f4 [64]
4.403196e-06 -5.299067e-06 -1.9202762e-05 8.761868e-06 3.0105275e-05 -3.1306947e-06 -4.8812485e-06 -6.2945937e-06
-2.2332862e-05 -2.6218286e-06 -4.714994e-06 1.0567487e-05 2.5039662e-05 -8.337217e-06 1.0757604e-05 4.795155e-06
1.5747246e-05 1.1462233e-05 2.539045e-06 -2.9542186e-06 7.808554e-06 1.49114e-05 1.8952862e-05 -6.8264308e-06
-6.352883e-06 2.8899467e-05 -1.4796527e-06 6.061396e-07 -1.5386096e-06 1.1144091e-05 1.9712426e-05 -4.820308e-06
-1.8557537e-05 -1.1970223e-05 7.737543e-06 6.533618e-06 6.417183e-06 -9.247086e-06 1.47708015e-05 1.1529597e-06
-3.2046678e-06 -1.4854631e-05 7.687199e-06 1.697047e-05 -7.08261e-06 -8.49726e-07 -3.2592504e-06 5.4266266e-06
2.6778655e-06 1.2367567e-06 -7.2693615e-06 -4.321345e-06 -3.1355282e-06 -2.602919e-06 -1.8346196e-05 2.1551401e-05
6.596018e-07 -3.973103e-07 -9.075585e-06 -6.5435967e-07 -1.9193087e-06 2.1352462e-05 7.685867e-06 -7.318264e-06
00000000: 2abf 9336 a4ce b1b6 9e15 a1b7 f0ff 1237
00000010: 968a fc37 ed18 52b6 9bc9 a3b6 2636 d3b6
00000020: 7557 bbb7 acf2 2fb6 7d35 9eb6 034b 3137
00000030: 440c d237 13e0 0bb7 8f7b 3437 11e6 a036
00000040: f418 8437 ea4d 4037 7664 2a36 1741 46b6
00000050: 7c01 0337 fa2b 7a37 f6fc 9e37 980e e5b6
00000060: d92a d5b6 226d f237 7b98 c6b5 99b5 2235
00000070: 3982 ceb5 82f7 3a37 1d5c a537 21be a1b6
00000080: 02ac 9bb7 b7d3 48b7 7ed0 0137 5a3b db36
00000090: 2f53 d736 ef23 1bb7 1cd0 7737 65bf 9a35
000000a0: c60f 57b6 2838 79b7 45f8 0037 cf5b 8e37
000000b0: 28a7 edb6 ba18 64b5 7fb9 5ab6 5e16 b636
000000c0: 61b5 3336 a3fe a535 57eb f3b6 1200 91b6
000000d0: f76b 52b6 cfad 2eb6 28e6 99b7 48c9 b437
000000e0: 7e0f 3135 e94d d5b4 5743 18b7 41a7 2fb5
000000f0: 79cd 00b6 101e b337 8cf2 0037 698f f5b6

conv1.lin.weight f4 [64, 2]
-0.199107 -0.20653178 0.0040810914 0.38892764 0.3065559 0.018478926 -0.15246516 -0.15667851
-0.12027323 -0.2589113 0.23420982 0.32046667 0.015039448 0.47010848 -0.099182695 0.37764856
0.40445095 0.023860518 0.008233236 0.5241834 -0.22459102 0.13626742 -0.036289714 -0.6175711
-0.12886864 -0.13403551 0.01834543 0.26295128 -0.15697174 -0.20591722 0.26531127 0.23590004
-0.158311 -0.19612983 -0.12148268 -0.37320143 0.22644815 0.22834644 -0.107564 0.4108354
0.24613793 0.28313738 -0.39693052 -0.05895169 -0.2019706 -0.24724463 0.6013917 0.010613914
0.39239863 0.09257333 -0.12440962 -0.24614464 0.20060879 0.24836063 -0.20853992 -0.22142166
0.43357822 -0.016641436 -0.111734234 -0.15065806 -0.16843186 -0.30306423 -0.14741454 0.31850296
0.427563 0.07154088 0.6630621 0.01761437 -0.20797332 0.3270843 0.23002526 0.30048028
0.09648605 0.09883191 0.41152996 0.029440574 0.24610154 0.29097158 -0.1602383 0.45689306
-0.28585705 0.32058227 0.64556605 0.0022420473 -0.19302605 -0.29784405 0.22625941 0.21033818
-0.06529168 0.5422495 -0.03418847 0.4525369 0.31467235 0.15100399 -0.16421998 -0.22553086
0.09951457 0.09375981 -0.02993027 0.43899274 0.30246848 0.13392396 0.5017112 0.062186405
-0.25711468 0.26943693 0.1432904 0.19225286 0.44287193 0.004252005 -0.09422107 -0.29320332
-0.2634495 0.23791206 0.016001584 0.54613334 0.4588218 0.07234919 0.23250684 0.18520793
-0.007043838 0.6358684 -0.20874482 -0.2959652 0.05178482 -0.33555755 -0.3331963 0.18904603
00000000: b5e2 4bbe 117d 53be adba 853b 8621 c73e
00000010: e5f4 9c3e 1e61 973c d41f 1cbe 5570 20be
00000020: d051 f6bd 0690 84be b3d4 6f3e 3514 a43e
00000030: 0468 763c 0fb2 f03e 4c20 cbbd 275b c13e
00000040: 3214 cf3e 2277 c33c b2e4 063c e230 063f
00000050: 30fb 65be b089 0b3e 86a4 14bd 2419 1ebf
00000060: 24f6 03be 9b40 09be 2849 963c 8da1 863e
00000070: 33bd 20be f7db 52be e1d6 873e c88f 713e
00000080: 471c 22be 42d6 48be e9cb f8bd 4214 bfbe
00000090: 06e2 673e a6d3 693e 844a dcbd 0459 d23e
000000a0: 950b 7c3e 62f7 903e 7a3a cbbe 5477 71bd
000000b0: 62d1 4ebe b22d 7dbe cef4 193f fbe5 2d3c
000000c0: 79e8 c83e 1697 bd3d 79ca febd 570d 7cbe
000000d0: 646c 4d3e 4052 7e3e 7d8b 55be 5cbc 62be
000000e0: f7fd dd3e 9f53 88bc ebd4 e4bd 1b46 1abe
000000f0: 6779 2cbe 3c2b 9bbe d6f3 16be d212 a33e
00000100: 8ae9 da3e 0684 923d 70be 293f 034c 903c
00000110: f5f6 54be 9877 a73e be8b 6b3e 8dd8 993e
00000120: 7a9a c53d 6268 ca3d 0eb4 d23e 5c2d f13c
00000130: 0b02 7c3e 3afa 943e 8215 24be e3ed e93e
00000140: db5b 92be 5c23 a43e d143 253f 50ef 123b
00000150: 9fa8 45be 047f 98be 8cb0 673e e462 573e
00000160: a5b7 85bd ddd0 0a3f 3609 0cbd ebb2 e73e
00000170: bc1c a13e caa0 1a3e 4829 28be 90f1 66be
00000180: 4bce cb3d 2505 c03d 5330 f5bc a8c3 e03e
00000190: 26dd 9a3e 5d23 093e 2570 003f 2cb7 7e3d
000001a0: 89a4 83be a3f3 893e b8ba 123e efdd 443e
000001b0: 1cc0 e23e 6754 8b3b faf6 c0bd bf1e 96be
000001c0: dae2 86be 389f 733e c115 833c 65cf 0b3f
000001d0: b1ea ea3e d02b 943d 4616 6e3e 26a7 3d3e
000001e0: ffcf e6bb 45c8 223f 34c1 55be c088 97be
000001f0: 521c 543d 33ce abbe b598 aabe 4895 413e

conv2.bias f4 [64]
-0.07006969 -0.3583639 -0.093826 -0.042769022 -0.623997 -0.35949358 -0.20644343 -0.64393693
-0.33943868 0.047308575 -0.75271195 -0.28935513 0.07761694 -0.85910636 -0.63105553 -0.009801015
-0.81917465 0.10603332 -0.18117602 -0.29005653 -0.19021906 -0.5262575 -0.5805259 0.044227425
-0.40787098 -0.42688942 0.055936076 -0.039914567 0.022751527 -0.5503856 -0.43956482 -0.31756252
-0.33255684 -0.48968434 -0.6700079 -0.4121425 -0.72579414 -0.5132254 0.02760562 -0.5041158
-0.05343822 -0.50899655 -0.70071024 -0.029959595 0.09176145 -0.46358806 -0.0620914 -0.43068153
-0.030418588 -0.539394 0.11164255 -0.45021385 -0.21306147 -0.26918057 0.048223365 -0.18839711
-0.9467099 -0.57153547 -0.06781653 -0.5437047 -0.1405421 0.11075069 0.07534534 -0.5036188
00000000: b380 8fbd 797b b7be d927 c0bd 922e 2fbd
00000010: 44be 1fbf 8b0f b8be e865 53be 0dd9 24bf
00000020: e8ca adbe a3c6 413d bbb1 40bf 5b26 94be
00000030: a1f5 9e3d 65ee 5bbf db8c 21bf 7094 20bc
00000040: 6eb5 51bf ff27 d93d 3586 39be 4a82 94be
00000050: c9c8 42be d0b8 06bf 589d 14bf d127 353d
00000060: 77d4 d0be 4091 dabe 3a1d 653d 757d 23bd
00000070: 6961 ba3c 12e6 0cbf a40e e1be 8e97 a2be
00000080: e444 aabe e8b7 fabe a385 2bbf 5704 d3be
00000090: a5cd 39bf bd62 03bf 2e25 e23c bc0d 01bf
000000a0: 09e2 5abd 994d 02bf bf61 33bf d36d f5bc
000000b0: 6ded bb3d 6a5b edbe 8d53 7ebd 4a82 dcbe
000000c0: 6730 f9bc ba15 0abf d9a4 e43d 6e82 e6be
000000d0: c92c 5abe 09d2 89be dd85 453d 2ceb 40be
000000e0: 945b 72bf 2650 12bf 65e3 8abd 3b30 0bbf
000000f0: 45ea 0fbe 42d1 e23d a84e 9a3d 29ed 00bf

conv2.lin.weight f4 [64, 64]
-0.167127 -0.29280892 -0.08841879 -0.27493405 -0.11734599 -0.044124026 -0.3033214 -0.20845105
-0.027119234 -0.4413791 -0.20017987 -0.18514234 -0.16150731 -0.16062433 -0.052842803 -0.08702346
-0.10611308 0.131347 0.055202495 -0.15681845 -0.19118701 -0.084813215 -0.34183347 0.15585594
0.20908096 -0.27185282 -0.063952774 -0.35422465 -0.040596195 -0.09250082 -0.20717862 -0.20770904
0.20699012 0.11032242 -0.16682567 -0.11234461 -0.044974107 -0.067766726 0.011526562 -0.066379026
-0.15571162 -0.032329135 0.031925257 -0.043191835 -0.1355128 -0.22268341 0.089546606 0.03501003
0.2185376 -0.21047133 0.12869021 0.14585452 -0.17609884 -0.11790298 0.15959918 -0.014347891
-0.2398842 -0.3713259 0.17457192 0.19508529 -0.41758662 -0.073167175 -0.18925485 -0.36405015
-0.065660775 0.23159955 -0.16413653 -0.27055106 0.005622748 -0.103067264 0.34147674 -0.15456185
-0.3581913 0.30515546 -0.5125959 0.10588798 -0.048511412 0.30149835 0.23303719 -0.23003331
-0.09614798 0.041587476 -0.04570555 0.10918424 -0.16985835 -0.21624707 -0.0076382076 -0.19001995
-0.6321705 0.0027683957 0.007849566 -0.14066772 -0.15213317 0.084711835 0.27117288 -0.1151902
-0.18461509 -0.24539967 -0.20810194 0.018670963 0.060054127 -0.24047707 0.03533734 0.107850716
-0.2568424 -0.47029254 -0.0635708 -0.078874744 0.074450485 0.08092577 -0.2325648 0.23628606
0.010607542 0.29133588 -0.13335052 -0.5151946 -0.25912791 0.32310396 -0.17674585 0.2629735
-0.39109862 0.26151985 -0.48668012 -0.1147207 0.36010817 0.06169855 0.071795985 -0.6479716
-0.22304077 -0.09176038 0.09594307 -0.18803935 -0.028189389 -0.8232687 -0.055131156 0.04059644
0.21955901 0.038936093 -0.19470465 0.09367976 -0.48485866 -0.12482011 -0.24336113 -0.0659495
-0.33491835 -0.0335856 -0.35375458 0.18788496 -0.67118955 -0.15204957 -0.47349846 0.036994774
0.1060153 -0.32084492 -0.35633814 -0.19834256 0.22483835 -0.2632154 -0.2660952 -0.036604896
-0.036799137 0.15243188 -0.035101958 -0.7351993 -0.4659478 0.168401 -0.8018473 0.19738194
0.034991734 0.1560766 -0.1619215 -0.27505717 0.039767366 0.06991422 0.019503 -0.2639552
-0.012803927 0.14647424 -0.20531526 -0.06320863 0.13830523 -0.581225 0.125829 -0.1585532
0.0060656024 -0.08173279 0.0130617805 -0.25510997 0.022253502 -0.55331755 -0.094105065 0.08387304
0.07520535 -0.4108866 -0.14011598 0.0701707 -0.07971811 0.09525147 -0.21091789 -0.5424884
-0.07675081 -0.25676858 -0.24529012 -0.37901127 -0.06998393 -0.13501622 -0.045740318 0.047981516
0.008454724 -0.31517506 0.0791833 -0.2686633 0.07256834 -0.16484858 0.10225191 0.044436082
0.022279277 -0.065998904 0.24817802 -0.10193294 -0.105930924 -0.1993384 -0.014986854 -0.42400172
0.13331316 -0.09257461 -0.21613927 0.25224608 -0.17481643 0.07903181 0.25287548 -0.19381474
-0.19715318 -0.00523907 -0.2696115 -0.042074118 -0.5258527 -0.22953473 0.0038843234 -0.18380432
0.13410293 -0.28054 -0.07112806 0.043272704 -0.18805505 0.108005576 0.030298611 -0.22690728
-0.18387832 -0.25682467 -0.055553026 -0.063013874 -0.4221558 -0.031401057 0.069283746 -0.3303178
00000000: 5723 2bbe 0deb 95be e914 b5bd 28c4 8cbe
00000010: 1853 f0bd 65bb 34bd f14c 9bbe 3174 55be
00000020: 2829 debc 71fc e1be f4fb 4cbe f495 3dbe
00000030: 2c62 25be b47a 24be b271 58bd 5b39 b2bd
00000040: d151 d9bd d47f 063e 031c 623d 0495 20be
00000050: 87c6 43be 8db2 adbd cc04 afbe b398 1f3e
00000060: 5219 563e 4b30 8bbe acf9 82bd ef5c b5be
00000070: 3248 26bd 1271 bdbd a226 54be aeb1 54be
00000080: 38f5 533e b9f0 e13d 59d4 2abe ee14 e6bd
00000090: c536 38bd 48c9 8abd e8d9 3c3c baf1 87bd
000000a0: de72 1fbe 8e6b 04bd 0fc4 023d ece9 30bd
000000b0: dec3 0abe 1f07 64be 3664 b73d ad66 0f3d
000000c0: 52c8 5f3e cc85 57be 5ec7 033e e35a 153e
000000d0: 4153 34be 1e77 f1bd f86d 233e 6b13 6bbc
000000e0: 34a4 75be 6e1e bebe fbc2 323e 70c4 473e
000000f0: eacd d5be acd8 95bd 06cc 41be c864 babe
00000100: 2879 86bd 6f28 6d3e 6813 28be ab85 8abe
00000110: 073f b83b ee14 d3bd 0ad6 ae3e 7645 1ebe
00000120: da64 b7be 563d 9c3e 7c39 03bf ccdb d83d
00000130: e7b3 46bd fe5d 9a3e 4da1 6e3e da8d 6bbe
00000140: 3be9 c4bd a157 2a3d be35 3bbd fd9b df3d
00000150: 59ef 2dbe df6f 5dbe ee49 fabb 9794 42be
00000160: edd5 21bf f96d 353b 779b 003c 330b 10be
00000170: ccc8 1bbe 667d ad3d 2cd7 8a3e d7e8 ebbd
00000180: bd0b 3dbe 0d4a 7bbe ad18 55be d9f3 983c
00000190: 51fb 753d 9f3f 76be e3bd 103d d6e0 dc3d
000001a0: d980 83be 2fca f0be 6831 82bd 1589 a1bd
000001b0: 7f79 983d 69bc a53d 7825 6ebe f9f4 713e
000001c0: 41cb 2d3c fa29 953e 0a8d 08be cbe3 03bf
000001d0: 6aac 84be e26d a53e ddfc 34be 76a4 863e
000001e0: 143e c8be eee5 853e 232e f9be b0f2 eabd
000001f0: 1960 b83e 9eb7 7c3d c609 933d 77e1 25bf
00000200: cd64 64be deec bbbd cd7d c43d 638d 40be
00000210: 6fed e6bc bdc1 52bf 35d1 61bd 7448 263d
00000220: 14d4 603e 747b 1f3d a860 47be 2ddb bf3d
00000230: 653f f8be b0a1 ffbd a933 79be 8810 87bd
00000240: 6b7a abbe 0e91 09bd 521f b5be ea64 403e
00000250: 14d3 2bbf e2b2 1bbe 646e f2be d587 173d
00000260: 8d1e d93d c945 a4be f471 b6be 501a 4bbe
00000270: 063c 663e 2bc4 86be a13d 88be 04ef 15bd
00000280: b1ba 16bd 1a17 1c3e 12c7 0fbd 0536 3cbf
00000290: b690 eebe 5071 2c3e dd45 4dbf 7e1e 4a3e
000002a0: 7e53 0f3d 8bd2 1f3e c0ce 25be 4bd4 8cbe
000002b0: 1be3 223d 302f 8f3d c1c4 9f3c 2325 87be
000002c0: 90c7 51bc 58fd 153e 2a3e 52be 8773 81bd
000002d0: e39f 0d3e 29cb 14bf 51d9 003e c55b 22be
000002e0: f6c1 c63b 8563 a7bd 1401 563c c69d 82be
000002f0: fa4c b63c 38a6 0dbf 28ba c0bd a1c5 ab3d
00000300: 4305 9a3d ba5f d2be 907a 0fbe a8b5 8f3d
00000310: 4043 a3bd 3413 c33d dcfa 57be 85e0 0abf
00000320: 872f 9dbd 2c77 83be 552d 7bbe c40d c2be
00000330: bc53 8fbd b141 0abe 335a 3bbd 4488 443d
00000340: af85 0a3c a05e a1be db2a a23d 3c8e 89be
00000350: b69e 943d 11ce 28be 7369 d13d 9c02 363d
00000360: 0883 b63c 6f2a 87bd 6122 7e3e 38c2 d0bd
00000370: 50f2 d8bd 5e1f 4cbe 6c8b 75bc c116 d9be
00000380: 3f83 083e c297 bdbd 9d53 5dbe 6626 813e
00000390: 1403 33be 6edb a13d e578 813e 5f77 46be
000003a0: 86e2 49be 81ac abbb 850a 8abe e955 2cbd
000003b0: 489e 06bf 270b 6bbe 2290 7e3b 3337 3cbe
000003c0: 4752 093e f0a2 8fbe 97ab 91bd b83e 313d
000003d0: 8191 40be 0732 dd3d cb34 f83c 625a 68be
000003e0: 994a 3cbe 867e 83be 928b 63bd 6b0d 81bd
000003f0: ce24 d8be 659e 00bd a3e4 8d3d 6a1f a9be

conv3.bias f4 [128]
-9.085506e-06 1.6449459e-06 2.578621e-05 -1.06176685e-05 -6.7234882e-06 -1.0305412e-05 8.85604e-05 -1.3885294e-05
7.5037664e-05 1.2796651e-06 1.191275e-05 -7.262624e-05 3.9953145e-05 -1.0280193e-05 3.233687e-06 -3.1694668e-05
-1.506519e-05 2.0037996e-05 1.3657364e-05 -4.40491e-06 1.34204365e-05 1.1706938e-05 1.26890045e-05 -3.7821737e-05
1.8245386e-05 1.7094975e-05 -5.5673064e-07 -3.7859587e-05 -1.978593e-05 -3.4214267e-07 1.2453581e-05 -5.488949e-07
-4.2983433e-05 1.1107755e-05 -3.5915516e-05 -4.448515e-06 4.9492314e-06 -7.4508275e-06 -3.7487127e-05 5.8938534e-05
2.0756153e-05 4.650711e-05 1.01576225e-05 5.947107e-05 1.1733181e-05 -0.00013195034 3.388078e-05 -3.4300604e-06
3.9241797e-07 -3.4879788e-05 6.5156537e-06 -2.7906717e-05 -3.8727383e-05 -2.998948e-05 -2.1002885e-05 2.5451462e-05
2.2939992e-06 -4.83358e-06 2.9202072e-05 3.0284216e-06 6.5275155e-05 -8.5325155e-05 -9.717935e-06 -7.684469e-05
-2.1160575e-05 1.1049736e-05 1.0520348e-05 -0.0001286892 -5.307519e-05 7.0862307e-06 3.1007116e-06 6.4318247e-06
-2.984427e-06 4.0434597e-06 4.682952e-05 -2.72034e-05 -1.3471626e-05 -4.1781077e-05 5.0384744e-05 7.156625e-06
-5.4745333e-06 -1.9268959e-05 2.8061024e-06 3.7293632e-06 2.4809327e-05 -1.5239521e-05 -4.3034273e-05 -6.911266e-05
-6.6530847e-06 -7.693366e-05 -0.00026468534 -9.36098e-06 -5.0174916e-05 8.014769e-06 -1.6174462e-06 8.153681e-06
-7.446029e-05 0.00017449122 -7.8543135e-06 -2.472846e-05 -9.13516e-05 -3.431888e-05 4.2858837e-06 -1.1646371e-05
4.087098e-06 2.4403651e-05 -4.2470137e-06 1.8794477e-05 -1.4448589e-05 1.569116e-05 1.0640463e-05 -1.2598911e-05
2.8291994e-05 2.0710128e-05 3.0585275e-06 1.5363765e-05 1.2067283e-05 7.3139317e-06 -3.2235697e-05 6.790415e-07
-3.0444618e-05 -5.658356e-06 2.6337973e-05 1.7779721e-05 -4.7713056e-06 7.133991e-05 -3.4541715e-06 -1.2855445e-05
00000000: f36d 18b7 e9c7 dc35 774f d837 8a22 32b7
00000010: 539a e1b6 68e5 2cb7 81b9 b938 e2f4 68b7
00000020: 8a5d 9d38 f5c0 ab35 dfdc 4737 ea4e 98b8
00000030: 5d93 2738 1879 2cb7 5202 5936 e4ef 04b8
00000040: 80c0 7cb7 4517 a837 ef21 6537 e4cd 93b6
00000050: 5628 6137 ea68 4437 dce2 5437 c8a2 1eb8
00000060: ab0d 9937 2e67 8f37 3d72 15b5 6ccb 1eb8
00000070: f6f9 a5b7 bbaf b7b4 b9ef 5037 c557 13b5
00000080: 1c49 34b8 725b 3a37 fea3 16b8 7444 95b6
00000090: 9311 a636 1f02 fab6 7f3b 1db8 c534 7738
000000a0: 801d ae37 a110 4338 a86a 2a37 9370 7938
000000b0: a1d9 4437 265c 0ab9 361b 0e38 fd2f 66b6
000000c0: 84ad d234 e34b 12b8 0aa1 da36 3819 eab7
000000d0: 366f 22b8 eb91 fbb7 5a2f b0b7 9980 d537
000000e0: 9bf2 1936 2330 a2b6 f9f6 f437 e33b 4b36
000000f0: 55e4 8838 98f0 b2b8 370a 23b7 ae27 a1b8
00000100: fd81 b1b7 4162 3937 8d80 3037 bef0 06b9
00000110: 0d9d 5eb8 42c6 ed36 d215 5036 f4d0 d736
00000120: 1148 48b6 0ead 8736 d06a 4438 db32 e4b7
00000130: 3104 62b7 173e 2fb8 3554 5338 f122 f036
00000140: e2b1 b7b6 c6a3 a1b7 7950 3c36 f945 7a36
00000150: a01d d037 3fad 7fb7 b37f 34b8 94f0 90b8
00000160: 903d dfb6 7257 a1b8 77c5 8ab9 1a0d 1db7
00000170: e872 52b8 2c77 0637 0717 d9b5 cbcb 0837
00000180: 9027 9cb8 a1f7 3639 05c6 03b7 f76f cfb7
00000190: 0494 bfb8 9ef1 0fb8 76cf 8f36 c864 43b7
000001a0: e823 8936 71b6 cc37 9281 8eb6 d5a8 9d37
000001b0: 3868 72b7 82a0 8337 7184 3237 e95f 53b7
000001c0: 9854 ed37 a9ba ad37 1a41 4d36 6fe1 8037
000001d0: 9674 4a37 326a f536 d134 07b8 6047 3635
000001e0: 5263 ffb7 e8dc bdb6 5ef0 dc37 a925 9537
000001f0: 3419 a0b6 539c 9538 37ce 67b6 b7ad 57b7

conv3.lin.weight f4 [128, 64]
0.09603802 -0.14106593 0.36434457 -0.015313281 -0.0051562907 -0.14065774 0.08377871 -0.14574435
-0.07738593 -0.0089107985 -0.050360292 -0.3707922 0.3230348 0.20533334 -0.1629225 -0.013256842
-0.06463632 0.1826071 -0.008965185 -0.26445422 0.018294325 -0.09397706 -0.14930283 0.08571611
0.114564255 -0.12524514 0.118412726 0.31111532 0.08300525 -0.16842027 0.03824293 0.0830532
-0.28343707 0.06401717 0.13938825 0.021293143 0.0826915 -0.001704034 0.10560562 0.018373381
0.07075237 -0.15521234 0.16139884 0.13519248 0.2655792 0.0012247692 0.054559212 0.021387434
0.06202716 0.004482346 0.043868743 0.06489019 -0.00767541 -0.14451128 0.14208686 0.085267276
-0.003844414 -0.10534917 -0.1397553 -0.18814448 -0.07498877 0.20159353 0.19597775 0.0019220992
-0.11300432 -0.07371463 -0.13323055 0.004822515 -0.14063534 -0.24321619 -0.070951514 -0.121041246
-0.009545992 -0.15696399 -0.23380286 -0.21777524 -0.095333055 -0.085726194 -0.09092809 0.087711416
-0.08552009 -0.050872095 -0.15221187 -0.2639944 0.016845288 -0.20633653 0.032729603 0.07189143
-0.12970194 0.13212848 0.0030565078 -0.26223266 0.055683546 -0.10414473 -0.030126138 -0.11582534
-0.17709318 0.006565617 -0.09729425 -0.14070374 -0.0816064 0.0545036 -0.06915121 0.0013458173
-0.12511429 0.1501567 -0.1990027 -0.17639832 -0.20890875 -0.053340524 -0.073587894 -0.111383416
0.02741394 -0.008882634 -0.0018502229 -0.037821274 -0.12432485 -0.20454885 -0.32015416 -0.088827506
-0.2980719 0.063683994 -0.21326979 0.05941226 -0.101006866 -0.116286695 0.10393843 -0.15881355
0.23094156 -0.20345029 0.3364676 0.091277815 -0.11541444 0.09103442 0.24974762 0.019623173
-0.12602706 0.1911293 -0.16336258 0.13890323 -0.10135282 -0.2786632 0.016478429 0.00077435875
-0.3527657 -0.15821013 0.046951246 0.13093273 -4.3443193e-05 -0.15291953 -0.0939102 0.20967396
-0.07252585 -0.105147466 0.089055516 -0.117436066 0.2813655 -0.15682173 -0.039216436 -0.04883652
0.15804473 0.16883056 0.25391227 -0.07499112 -0.13024405 0.00052801013 0.15591855 0.015226577
0.2863775 -0.008474358 -0.14672029 0.15023246 -0.028840167 -0.042631283 -0.09397773 -0.040674843
0.1555622 -0.12569937 0.10586618 -0.202054 -0.06260226 0.082918964 -0.23886858 0.33981913
-0.072472535 0.15915385 -0.20371316 0.036080237 0.075538255 -0.0876718 -0.00061557494 -0.0794014
-0.003230479 0.12933968 -0.09543671 0.090002775 0.1552657 0.14195704 0.1121855 0.22664642
0.08172453 -0.00884092 -0.046530623 0.11698432 -0.376195 0.07503005 0.20980553 0.04298797
-0.0027642883 -0.22264619 -0.023940193 0.17090376 0.07749005 0.058002636 0.22529355 -0.076669395
0.10568719 -0.030515917 0.005394505 -0.2647544 -0.0930914 0.077597916 -0.13660516 -0.065053225
0.38483238 0.25931147 0.14963587 0.05024536 0.17765917 0.12603477 0.4123496 0.091367
-0.08950781 -0.055208933 -0.076313816 0.13891493 -0.19565514 0.0016263316 -0.14300181 -0.055807848
0.01519587 -0.038231265 -0.028371645 -0.09795113 0.1640952 0.1501087 0.0655152 -0.1501679
0.23913854 0.048052732 -0.02733735 -0.059284195 0.1978059 -0.2965787 -0.099153735 0.09130394
00000000: 95af c43d 9673 10be 5f8b ba3e 8ee4 7abc
00000010: 1af6 a8bb 9508 10be 2c94 ab3d 023e 15be
00000020: 847c 9ebd 99fe 11bc 9846 4ebd 7ad8 bdbe
00000030: d164 a53e e742 523e 28d5 26be 3a33 59bc
00000040: 0c60 84bd 5bfd 3a3e b6e2 12bc 8b66 87be
00000050: fbdd 953c 0b77 c0bd d7e2 18be ee8b af3d
00000060: aaa0 ea3d 4340 00be 5f82 f23d 824a 9f3e
00000070: a8fe a93d 5d76 2cbe 9ea4 1c3d cc17 aa3d
00000080: aa1e 91be 6f1b 833d cbbb 0e3e f56e ae3c
00000090: 295a a93d e559 dfba c247 d83d c683 963c
000000a0: 9ee6 903d fcef 1ebe bd45 253e e66f 0a3e
000000b0: fff9 873e 6f88 a03a 7b79 5f3d b334 af3c
000000c0: 3110 7e3d a5e0 923b b6af 333d 26e5 843d
000000d0: 0182 fbbb c4fa 13be 387f 113e 9ca0 ae3d
000000e0: 90f2 7bbb 4ec1 d7bd 031c 0fbe f2a8 40be
000000f0: b693 99bd 896e 4e3e 64ae 483e f2ee fb3a
00000100: cf6e e7bd b2f7 96bd 976d 08be 3006 9e3b
00000110: b602 10be aa0d 79be 074f 91bd 79e4 f7bd
00000120: cb66 1cbc 2bbb 20be 046a 6fbe 7900 5fbe
00000130: fa3d c3bd 3791 afbd 8238 babd 0ba2 b33d
00000140: 2825 afbd 425f 50bd 6edd 1bbe 462a 87be
00000150: 21ff 893c e249 53be 7a0f 063d d03b 933d
00000160: 96d0 04be b04c 073e b14f 483b 5c43 86be
00000170: 6e14 643d d549 d5bd 17cb f6bc d635 edbd
00000180: ea57 35be 6324 d73b 3542 c7bd a414 10be
00000190: 4221 a7bd 2b3f 5f3d 269f 8dbd 2366 b03a
000001a0: f61d 00be aec2 193e 5dc7 4bbe c3a1 34be
000001b0: 2dec 55be 987b 5abd 40b5 96bd fd1c e4bd
000001c0: 3393 e03c 7888 11bc 2e83 f2ba 7bea 1abd
000001d0: 079e febd 4175 51be 3feb a3be 32eb b5bd
000001e0: e19c 98be c16c 823d 6563 5abe 455a 733d
000001f0: b0dc cebd b827 eebd acdd d43d 05a0 22be
00000200: f27b 6c3e 4655 50be 7b45 ac3e ddef ba3d
00000210: 685e ecbd 4170 ba3d d7bd 7f3e c7c0 a03c
00000220: 3d0d 01be 66b7 433e 8548 27be a63c 0e3e
00000230: 1192 cfbd f1ac 8ebe c5fd 863c 56fe 4a3a
00000240: b59d b4be d601 22be f34f 403d 3b13 063e
00000250: c636 36b8 f096 1cbe fe53 c0bd c5b4 563e
00000260: 6f88 94bd 8e57 d7bd bd62 b63d 5282 f0bd
00000270: 240f 903e e095 20be 6aa1 20bd ce08 48bd
00000280: 7ad6 213e ebe1 2c3e ca00 823e f294 99bd
00000290: b25e 05be 296a 0a3a 1da9 1f3e e578 793c
000002a0: 12a0 923e 09d8 0abc d83d 16be 8ad6 193e
000002b0: 3742 ecbc 249e 2ebd 6577 c0bd aa9a 26bd
000002c0: b34b 1f3e 56b7 00be 5ed0 d83d 3ee7 4ebe
000002d0: 9d35 80bd 6bd1 a93d f799 74be c6fc ad3e
000002e0: 7b6c 94bd 3af9 223e 2f9a 50be dfc8 133d
000002f0: cdb3 9a3d 468d b3bd 895e 21ba 349d a2bd
00000300: 72b6 53bb 9f71 043e 5274 c3bd 6053 b83d
00000310: f9fd 1e3e 305d 113e 83c1 e53d 0016 683e
00000320: 315f a73d 82d9 10bc e596 3ebd 7a95 ef3d
00000330: a29c c0be 5ba9 993d 43d7 563e 2714 303d
00000340: 1029 35bb 5dfd 63be 391e c4bc 6501 2f3e
00000350: 1ab3 9e3d 2c94 6d3d 5ab3 663e d804 9dbd
00000360: 8772 d83d 84fc f9bc 63c4 b03b e48d 87be
00000370: b4a6 bebd a8eb 9e3d 39e2 0bbe a03a 85bd
00000380: c008 c53e 79c4 843e 253a 193e 14ce 4d3d
00000390: 49ec 353e 420f 013e 7d1f d33e 9f1e bb3d
000003a0: df4f b7bd c322 62bd 6b4a 9cbd b73f 0e3e
000003b0: d259 48be a22a d53a 116f 12be c596 64bd
000003c0: 19f8 783c 6398 1cbd a76b e8bc 9a9a c8bd
000003d0: 9208 283e 18b6 193e d52c 863d 9dc5 19be
000003e0: bce0 743e f1d2 443d 94f2 dfbc fcd3 72bd
000003f0: a18d 4a3e 2ad9 97be 1d11 cbbd 8ffd ba3d

conv4.bias f4 [256]
-0.016247924 -0.07029984 -0.11630717 -0.0014315897 -0.008901262 -0.12844086 -0.062496517 0.17068271
-0.18528461 -0.047104117 -0.09260382 -0.22315212 -0.064160414 -0.2211554 -0.038869195 -0.0063694157
-0.036620084 -0.21306802 -0.052438796 -0.24112485 -0.25224525 -0.086522095 -0.17849566 -0.03385893
0.6945371 0.07865298 -0.052681893 -0.15132667 0.0042183194 -0.03901839 -0.11076076 -0.14500892
-0.06880371 -0.0070278645 -0.33268625 -0.063136436 -0.052844588 0.06635578 0.0015478132 -0.16387938
-0.31107497 0.04532105 -0.17880318 0.8347619 -0.24850719 -0.014315859 0.08892066 -0.026483826
-0.21160609 -0.08586423 -0.27250308 -0.10244408 -0.19031745 -0.025380751 -0.06596267 0.0054987515
0.2843681 -0.18678828 -0.1989129 -0.066163525 0.007732367 -0.04493034 -0.025033528 0.65520656
-0.20979501 -0.011898992 -0.035184022 -0.11188602 -0.1341569 -0.109953396 -0.34328634 -0.032664552
0.0073100408 0.028257469 -0.2919755 -0.013247837 -0.05899847 -0.02493679 -0.08638356 -0.029368382
-0.033372622 -0.043514676 -0.06707477 -0.13130358 0.09564909 -0.06974708 -0.009111977 -0.10827297
-0.41189474 -0.03142917 -0.03171275 -0.13309747 -0.047009587 -0.30548835 -0.046279237 -0.06617836
-0.054327276 -0.047023114 -0.111135095 -0.1268092 -0.13230741 -0.1567356 -0.20236929 -0.058375396
0.087858655 -0.071387395 -0.021148019 -0.050849665 -0.16418944 0.87482005 -0.103667974 -0.13249272
-0.16430372 -0.033280417 -0.14227183 0.75817513 -0.045174453 -0.16122928 -0.11548195 -0.09565497
-0.08192659 -0.07168733 0.020374479 -0.09784453 -0.4439357 -0.039111733 -0.056301903 -0.057581622
0.07455587 -0.03113077 -0.05979723 -0.11119592 -0.29356232 -0.30580232 0.23392951 -0.14191861
0.016374096 -0.034265667 -0.02462145 -0.03643448 -0.083880104 -0.09850139 -0.18909977 -0.054441642
-0.02192658 -0.0155358305 -0.205607 -0.042831298 -0.0487555 0.04410302 -0.074380115 -0.051698644
-0.07225382 -0.047049634 -0.017284326 0.045399033 -0.017733894 -0.11186815 -0.25483784 -0.0007094222
-0.08903392 -0.068664744 -0.041194744 -0.1620098 -0.057840023 -0.14037369 0.07922447 -0.12235681
0.06092641 -0.20378971 -0.03048184 -0.10622097 -0.12354417 -0.413554 -0.044156943 -0.08308352
-0.008802832 0.022111934 -0.045038026 -0.045777984 -0.04602708 -0.1097983 -0.32366946 -0.31077483
-0.0106180515 -0.09177262 -0.02414639 -0.080230646 0.06854599 -0.24212968 -0.0075163255 -0.0580305
-0.054412432 -0.17997167 -0.10169984 -0.04000653 -0.20483553 -0.40113506 -0.1281192 -0.14822163
-0.047156125 -0.10396088 -0.041927185 -0.46293294 -0.116211444 -0.0766611 -0.07187896 -0.018836662
-0.021880802 -0.13255547 -0.16849516 -0.27709734 -0.07126148 -0.0014752698 -0.025216075 -0.24009626
-0.1171405 -0.19755445 -0.07565596 -0.08680052 -0.114781566 -0.1532063 -0.0008155335 -0.14462951
-0.081013896 -0.14183262 -0.008975787 -0.011368452 -0.09709468 -0.12153624 0.014372896 -0.17285189
-0.18536784 -0.10311911 -0.012723854 -0.02643131 -0.18302403 -0.18120037 -0.18872547 -0.039026678
0.2705631 -0.027190773 -0.011140408 -0.04067326 -0.29202822 -0.100082286 -0.118633784 0.04544909
-0.091714375 0.056860548 -0.069697976 -0.055769563 0.048912983 0.247682 -0.19272454 -0.05425803
00000000: 5e1a 85bc 5df9 8fbd 7432 eebd 2ea4 bbba
00000010: 99d6 11bc 0086 03be 59fc 7fbd 73c7 2e3e
00000020: 40bb 3dbe 3ff0 40bd 12a7 bdbd fd81 64be
00000030: 8966 83bd 9076 62be 4e35 1fbd 88b6 d0bb
00000040: f1fe 15bd 812e 5abe 10ca 56bd 6fe9 76be
00000050: 4a26 81be 7f32 b1bd 91c7 36be a9af 0abd
00000060: 2fcd 313f d014 a13d f8c8 57bd 61f5 1abe
00000070: d439 8a3b bfd1 1fbd 8ad6 e2bd 387d 14be
00000080: f6e8 8cbd 004a e6bb da55 aabe ad4d 81bd
00000090: 9173 58bd 8ae5 873d fedf ca3a ffcf 27be
000000a0: 3845 9fbe 91a2 393d 2e18 37be f5b2 553f
000000b0: ab78 7ebe 118d 6abc 091c b63d 9cf4 d8bc
000000c0: 44af 58be 96d9 afbd 8685 8bbe 34ce d1bd
000000d0: 94e2 42be 4beb cfbc 7017 87bd df2e b43b
000000e0: b298 913e 6d45 3fbe d3af 4bbe be80 87bd
000000f0: cc5f fd3b e008 38bd 1d13 cdbc 9ebb 273f
00000100: 81d4 56be fdf3 42bc 1f1d 10bd 7f24 e5bd
00000110: 6d60 09be 3f2f e1bd 3ac3 afbe 44cb 05bd
00000120: 1189 ef3b 357c e73c d07d 95be 750d 59bc
00000130: 61a8 71bd 3d48 ccbc dde9 b0bd f695 f0bc
00000140: bbb1 08bd 723c 32bd 7f5e 89bd 7274 06be
00000150: ace3 c33d 8fd7 8ebd 674a 15bc 38be ddbd
00000160: dee3 d2be e0bb 00bd 3be5 01bd b44a 08be
00000170: 208d 40bd f868 9cbe 4c8f 3dbd 8588 87bd
00000180: 4786 5ebd 4f9b 40bd cc9a e3bd 45da 01be
00000190: 987b 07be 4c7f 20be e539 4fbe 0a1b 6fbd
000001a0: 3def b33d 8e33 92bd 9c3e adbc bd47 50bd
000001b0: 4721 28be 35f4 5f3f e04f d4bd 2cac 07be
000001c0: 3c3f 28be 0c51 08bd b5af 11be c417 423f
000001d0: d908 39bd 4a19 25be cd81 ecbd c1e6 c3bd
000001e0: 21c9 a7bd cfd0 92bd 61e8 a63c b762 c8bd
000001f0: 8a4b e3be a033 20bd d39c 66bd b5da 6bbd
00000200: bfb0 983d f505 ffbc f1ed 74bd b0ba e3bd
00000210: cd4d 96be 1f92 9cbe 388b 6f3e 1d53 11be
00000220: f822 863c 285a 0cbd ecb2 c9bc 523c 15bd
00000230: 55c9 abbd 19bb c9bd 5fa3 41be 33fe 5ebd
00000240: 5f9f b3bc ff89 7ebc a48a 52be df6f 2fbd
00000250: d9b3 47bd 5ea5 343d 9a54 98bd f5c1 53bd
00000260: d0f9 93bd 1eb7 40bd dc97 8dbc 56f4 393d
00000270: ac46 91bc 211b e5bd 1b7a 82be 85f8 39ba
00000280: 6a57 b6bd 1aa0 8cbd d2bb 28bd e6e5 25be
00000290: a9e9 6cbd 1fbe 0fbe 7040 a23d 3596 fabd
000002a0: f98d 793d 40ae 50be 0db5 f9bc 618a d9bd
000002b0: ba04 fdbd 5abd d3be e9dd 34bd b127 aabd
000002c0: c139 10bc 1624 b53c cb79 38bd b281 3bbd
000002d0: e486 3cbd eedd e0bd 01b8 a5be e11d 9fbe
000002e0: 56f7 2dbc 49f3 bbbd a6ce c5bc f74f a4bd
000002f0: d761 8c3d d8f0 77be 824b f6bb 64b1 6dbd
00000300: 92df 5ebd 7e4a 38be 0148 d0bd e3dd 23bd
00000310: 68c0 51be 9361 cdbe ae31 03be 69c7 17be
00000320: c826 41bd 71e9 d4bd d7bb 2bbd 8c05 edbe
00000330: 4400 eebd 7f00 9dbd 4735 93bd 584f 9abc
00000340: 5e3f b3bc 9fbc 07be ff89 2cbe b4df 8dbe
00000350: 8af1 91bd d75d c1ba f191 cebc cbdb 75be
00000360: 5ce7 efbd b74b 4abe 83f1 9abd 79c4 b1bd
00000370: 9912 ebbd 1de2 1cbe 87c9 55ba c219 14be
00000380: 9dea a5bd 923c 11be 2e0f 13bc be42 3abc
00000390: 93d9 c6bd fee7 f8bd 4c7c 6b3c 1600 31be
000003a0: 11d1 3dbe 1d30 d3bd b677 50bc 7a86 d8bc
000003b0: a76a 3bbe 978c 39be 4041 41be 70da 1fbd
000003c0: 3f87 8a3e 2fbf debc 4286 36bc 0199 26bd
000003d0: b984 95be f1f7 ccbd 45f6 f2bd d328 3a3d
000003e0: bfd4 bbbd 9be6 683d d0bd 8ebd a06e 64bd
000003f0: fb58 483d 5aa0 7d3e 9559 45be ab3d 5ebd

conv4.lin.weight f4 [256, 128]
-0.046321664 -0.040172897 -0.03698181 0.0095947245 0.025192069 -0.010381895 0.021838512 -0.10912549
-0.055855345 -0.010556416 0.010493939 -0.052414738 -0.06155192 -0.0016133866 0.004402855 0.006732015
-0.041438762 -0.04148439 -0.035796177 -0.015293244 0.068305194 -0.026958631 -0.004542894 -0.019482939
-0.03895461 -0.023393989 -0.0094193565 -0.090703845 0.02837558 0.03046008 -0.028353415 -0.014052281
-0.031307165 -0.08623057 -0.011230519 0.00688637 -0.025978241 -0.029424366 -0.07182823 0.015338913
-0.03780447 0.03814194 -0.048854206 -0.12026669 0.0033393349 -0.05352383 -0.039974596 0.031545117
-0.04411613 -0.008902898 -0.048272192 -0.07806502 -0.05003597 -0.0577893 0.009218612 0.023541981
-0.022923902 -0.024212848 -0.0924161 -0.019171441 -0.031168636 -0.15084906 -0.019831197 -0.063226104
0.021467693 -0.051543128 -0.0074811284 0.031811357 -0.00849428 -0.07811589 -0.016146345 -0.015306384
0.0071452586 -0.06817564 -0.029964043 -0.06575577 -0.055928893 -0.011440536 0.022169938 -0.024061872
0.010220778 -0.0348999 0.023967896 -0.00790366 -0.05595489 -0.0032062659 -0.0815402 -0.01790297
0.0072136857 -0.044004112 -0.073346555 -0.015624185 -0.06491665 -0.048024442 -0.03932796 0.013650293
0.004592895 -0.031996205 -0.06109667 -0.041443184 0.00789255 -0.035778914 -0.04143988 -0.043440014
-0.047123846 -0.04329171 -0.044852167 -0.0860222 -0.07404038 -0.03060559 -0.0084316665 -0.010305302
0.064247206 0.016213788 -0.00025208626 0.026685622 -0.035189413 -0.03553822 -0.056734692 0.017260455
-0.043583103 0.016491514 -0.01925086 -0.03520482 -0.058103226 -0.046577144 -0.008900553 -0.06018479
-0.017142791 -0.14744279 -0.09493623 -0.025487062 0.07145345 0.0063286265 -0.044357322 -0.1050747
-0.051600512 -0.11623146 -0.10852634 0.042210843 0.116173744 -0.042013593 -0.001763082 -0.06969754
-0.008450979 0.06935759 -0.038084026 -0.026214 0.087943405 0.020181535 -0.085092016 -0.0027802575
-0.014245723 -0.016430873 0.10054393 -0.1632657 0.03667408 -0.008239636 0.026136333 0.033969354
-0.1138286 -0.03638383 -0.01636486 -0.052930348 -0.09522849 0.106526576 0.012709803 0.14155543
-0.05209944 0.16306496 -0.053620156 -0.050233368 -0.07101212 -0.012499265 -0.016980115 0.023661226
-0.017913206 0.121413685 -0.069197424 -0.036990535 -5.386997e-05 -0.11387604 -0.013336979 0.02811127
0.023232456 -0.07422439 -0.14436327 -0.06606672 0.09978804 0.06914215 -0.043841414 -0.08795084
0.10300292 -0.032070667 0.012621418 -0.010175882 0.01601398 -0.05467647 -0.032677796 -0.060189094
-0.14478107 -0.054011416 -0.053225763 -0.1737697 -0.26706293 -0.06012097 0.0052025164 -0.0888004
-0.07631993 0.021821428 0.025833763 -0.069508426 -0.07532086 -0.05995256 -0.14747208 -0.07639689
0.0056497566 -0.15292165 -0.040254712 -0.109835654 -0.19105838 -0.08250847 -0.06619492 -0.08073144
-0.10004105 -0.04423055 0.019181335 -0.0037533331 -0.06267722 -0.045477655 -0.08752059 -0.06238027
-0.08768674 -0.0058142454 0.0027778887 -0.0014590891 0.0007276621 -0.04897316 -0.10177164 -0.05621151
0.059137262 0.09311163 -0.10939611 0.20141076 -0.052497778 0.008321861 -0.12813216 0.040501997
-0.009438974 0.14169714 -0.059760004 -0.16523466 -0.06172279 0.13557379 -0.02483977 -0.026959086
00000000: c9bb 3dbd 568c 24bd 3d7a 17bd 3133 1d3c
00000010: 995f ce3c d318 2abc aee6 b23c 2f7d dfbd
00000020: 93c8 64bd d1f4 2cbc c5ee 2b3c d6b0 56bd
00000030: de1d 7cbd 4578 d3ba d345 903b 3c98 dc3b
00000040: b1bb 29bd 89eb 29bd 039f 12bd 8490 7abc
00000050: 98e3 8b3d 59d8 dcbc 8fdc 94bb af9a 9fbc
00000060: de8e 1fbd c0a4 bfbc a553 1abc f0c2 b9bd
00000070: e873 e83c 6b87 f93c 6c45 e8bc 8a3b 66bc
00000080: f13b 00bd a799 b0bd 3600 38bc 0fa7 e13b
00000090: 52d0 d4bc 5e0b f1bc ae1a 93bd 1050 7b3c
000000a0: dcd8 1abd b93a 1c3d 591b 48bd 624e f6bd
000000b0: bed8 5a3b ce3b 5bbd 67bc 23bd 7435 013d
000000c0: 1db3 34bd 76dd 11bc 10b9 45bd 8ee0 9fbd
000000d0: 84f2 4cbd 79b4 6cbd a909 173c 1ddb c03c
000000e0: e8ca bbbc 065a c6bc a744 bdbd 6d0d 9dbc
000000f0: 5e55 ffbc 2d78 1abe 0975 a2bc b07c 81bd
00000100: 04dd af3c e31e 53bd 4124 f5bb a04c 023d
00000110: 982b 0bbc 39fb 9fbd 5745 84bc a1c7 7abc
00000120: c622 ea3b ac9f 8bbd 2777 f5bc f6aa 86bd
00000130: b215 65bd 1671 3bbc bb9d b53c 671d c5bc
00000140: 0d75 273c 33f3 0ebd 5258 c43c 5a7e 01bc
00000150: f430 65bd 3720 52bb 8cfe a6bd 40a9 92bc
00000160: c860 ec3b a83d 34bd b836 96bd 95fc 7fbc
00000170: 05f3 84bd 47b5 44bd 5b16 21bd 7ba5 5f3c
00000180: ff7f 963b 740e 03bd 8040 7abd 54c0 29bd
00000190: c14f 013c e98c 12bd ddbc 29bd 28ee 31bd
000001a0: ef04 41bd a652 31bd e8b6 37bd 682c b0bd
000001b0: 7ca2 97bd 93b8 fabc f924 0abc 92d7 28bc
000001c0: 0a94 833d c7d2 843c 722a 84b9 ce9b da3c
000001d0: c622 10bd 8690 11bd a362 68bd cc65 8d3c
000001e0: 3284 32bd 3619 873c fbb3 9dbc ee32 10bd
000001f0: a6fd 6dbd adc7 3ebd a0d3 11bc 5484 76bd
00000200: 0a6f 8cbc 3efb 16be ed6d c2bd 3eca d0bc
00000210: 3056 923d 5e60 cf3b 06b0 35bd 6831 d7bd
00000220: 0f5b 53bd c20a eebd 0f43 debd 47e5 2c3d
00000230: 80ec ed3d 7216 2cbd 3717 e7ba 95bd 8ebd
00000240: fa75 0abc 5a0b 8e3d fffd 1bbd bebe d6bc
00000250: ac1b b43d bf53 a53c b944 aebd fb34 36bb
00000260: e566 69bc 0a9a 86bc fae9 cd3d 202f 27be
00000270: 8f37 163d 8aff 06bc dd1b d63c 7323 0b3d
00000280: f81e e9bd 3607 15bd 990f 86bc 7ecd 58bd
00000290: 2807 c3bd 9b2a da3d c73c 503c e8f3 103e
000002a0: 3966 55bd 80fa 263e cfa0 5bbd 81c1 4dbd
000002b0: cd6e 91bd b8c9 4cbc e219 8bbc 30d5 c13c
000002c0: b7be 92bc bda7 f83d 61b7 8dbd 6383 17bd
000002d0: 71f2 61b8 d737 e9bd 5883 5abc 9b49 e63c
000002e0: fe51 be3c f502 98bd f7d3 13be fd4d 87bd
000002f0: ac5d cc3d 669a 8d3d 0e93 33bd 921f b4bd
00000300: 32f3 d23d 885c 03bd 10ca 4e3c beb8 26bc
00000310: c02f 833c 6ff4 5fbd 27d9 05bd d788 76bd
00000320: 7d41 14be 133b 5dbd 4203 5abd aff0 31be
00000330: 79bc 88be 6841 76bd df79 aa3b fcdc b5bd
00000340: a04d 9cbd dac2 b23c 54a1 d33c 6f5a 8ebd
00000350: d341 9abd d190 75bd ec02 17be f975 9cbd
00000360: 9821 b93b 7e97 1cbe 20e2 24bd 84f1 e0bd
00000370: cfa4 43be 33fa a8bd 3491 87bd 8656 a5bd
00000380: 52e2 ccbd 182b 35bd 2d22 9d3c 7bfa 75bb
00000390: ea5c 80bd c746 3abd ff3d b3bd 7482 7fbd
000003a0: 1b95 b3bd 6d85 bebb 3d0d 363b e83e bfba
000003b0: 94c0 3e3a 1598 48bd a66d d0bd 0a3e 66bd
000003c0: ea39 723d 4fb1 be3d 110b e0bd 9f3e 4e3e
000003d0: e907 57bd 6a58 083c 1435 03be 6ce5 253d
000003e0: eda5 1abc 0e19 113e e8c6 74bd 4633 29be
000003f0: 09d1 7cbd dbd3 0a3e c67c cbbc 4dd9 dcbc

conv5.bias f4 [256]
-3.642511e-05 0.00018919402 -7.3834517e-06 -5.2583833e-05 0.00013160007 0.00011387687 -6.804393e-05 8.5635394e-05
-7.890785e-05 1.5396585e-05 -0.00010689872 -0.0002791441 8.242271e-05 -0.00010380433 -5.5233348e-05 -7.508859e-05
-7.1380464e-06 -0.00010312406 -1.2253555e-05 2.867588e-05 5.2486805e-05 9.7566444e-05 -1.4872124e-05 0.00012327521
0.00011403348 -7.298195e-05 -3.185718e-05 2.2084734e-07 9.07298e-05 -2.9340043e-07 -8.430075e-05 -5.480077e-05
-6.565559e-05 -6.9226694e-06 -1.3443702e-05 -4.272641e-05 -0.00012040819 -1.546544e-05 -5.5044067e-05 -0.00012683202
8.729465e-05 -6.6991604e-05 0.00010421244 8.772927e-05 -7.652882e-06 3.2527165e-05 -3.47356e-05 1.2554532e-05
5.8892303e-05 0.00011752317 8.9569796e-05 0.00010456223 9.126597e-05 6.481424e-05 0.00018084109 -0.00013133998
-5.18988e-06 9.136548e-05 2.276135e-06 -0.00010653204 -1.9723957e-05 5.044067e-05 0.00010503242 3.2081003e-05
0.00018985065 3.4768742e-05 0.00012013824 2.978581e-05 5.999542e-05 6.081062e-05 -0.000106445106 5.9278544e-05
0.0001411957 -7.268239e-05 -8.738887e-05 5.4848195e-05 9.756867e-05 -8.8158864e-05 -5.9399197e-05 0.00012921577
0.00015041538 0.00010015171 8.717116e-05 6.197925e-05 -3.3604472e-05 0.000108453845 -0.00010317554 0.00021315391
9.208952e-05 9.7772965e-05 8.494069e-05 -0.00013700024 -3.3570606e-05 -2.3011133e-05 -1.9537018e-05 0.00014061072
-7.3687647e-06 6.652484e-05 4.2894564e-05 0.00011630994 0.00010342114 0.000108668995 7.461453e-06 0.00012281975
8.800066e-05 7.257789e-05 1.3079973e-05 -7.899396e-05 -2.6794629e-05 -4.555599e-05 -9.697475e-05 -6.176543e-05
-1.5332547e-05 3.1132317e-05 6.519779e-05 6.524447e-06 0.00011332855 -7.230295e-05 0.00012177848 0.00016503246
7.234947e-05 -2.991463e-05 0.0001254989 8.6786655e-05 -2.958414e-05 5.2500982e-05 -2.6099647e-06 7.7353914e-05
8.04696e-05 -0.00012634385 0.00010883272 8.18276e-05 -1.2911113e-05 -5.8841444e-05 9.936048e-05 -0.00011187922
-1.6188587e-05 7.518767e-05 -1.713596e-05 4.9612954e-05 9.779772e-06 8.819208e-05 1.9219635e-05 -7.8547106e-05
3.3232805e-05 -5.4492725e-06 -0.00013605312 -2.0292093e-05 -3.3145658e-05 8.660463e-05 2.6203532e-05 3.0863954e-05
-6.710412e-05 5.8269443e-06 -5.1984443e-05 -2.7297308e-05 -1.146041e-05 0.00018800698 -2.8825949e-05 7.6362534e-07
9.669683e-05 -0.00010197324 6.7908564e-05 2.1916821e-06 0.00012766768 -5.5051107e-05 -4.1965004e-06 0.00010128082
0.00011219938 0.000112503185 -4.3793087e-05 0.00016608964 0.0001531236 0.00014838396 -7.8849334e-05 -2.3907435e-06
-6.999354e-05 0.00014737475 9.590356e-05 -1.4808318e-06 -1.985963e-05 -1.3888296e-05 3.4365996e-05 0.00010199708
-0.00015174056 0.00010244161 -4.515279e-05 0.00014778116 -0.00012845552 4.9189814e-05 8.560103e-05 6.0904575e-05
-1.4080692e-06 4.038179e-05 -1.8320678e-05 -8.5538363e-07 7.875652e-05 0.00016245752 -0.00020248805 0.00011327391
-3.4680932e-06 -7.418053e-05 -0.00012595608 2.5985602e-05 0.000116422256 4.6881946e-06 6.6710636e-06 4.7946894e-05
-2.459983e-06 7.230908e-05 -7.37811e-05 0.00014530268 9.873105e-05 -2.95137e-05 -2.0150022e-05 -0.00013138157
-4.272153e-06 -4.6597354e-05 0.00014900278 5.36098e-05 -2.8797987e-05 8.5966894e-05 1.397902e-05 -3.8630583e-06
-4.900472e-06 9.1670394e-05 2.1355263e-05 5.9211006e-06 7.584633e-05 8.876772e-05 0.00012058505 0.00012811483
-7.860364e-05 -4.1891624e-05 4.4073255e-05 8.336043e-05 5.4312455e-05 6.65008e-05 -3.7693433e-05 -1.2258725e-05
-6.979208e-05 0.00015564518 -2.0380026e-05 2.1009773e-06 -1.4427471e-05 -0.00011812256 3.8516115e-05 5.1298484e-05
-6.908193e-05 8.1655984e-05 4.017036e-05 -9.261323e-06 -1.2875028e-05 7.4626274e-05 0.00021579361 -1.9940628e-05
00000000: 2ac7 18b8 6262 4639 5ebf f7b6 768d 5cb8
00000010: 20fe 0939 2ed1 ee38 cfb2 8eb8 2797 b338
00000020: 547b a5b8 ea27 8137 d02e e0b8 165a 92b9
00000030: 5bda ac38 86b1 d9b8 5baa 67b8 e178 9db8
00000040: 5a83 efb6 4f44 d8b8 9e94 4db7 fc8c f037
00000050: 4725 5c38 969c cc38 4983 79b7 7043 0139
00000060: 4225 ef38 e30d 99b8 639e 05b8 0e22 6d34
00000070: 3146 be38 a684 9db4 9fca b0b8 e1d9 65b8
00000080: 94b0 89b8 4749 e8b6 438c 61b7 2235 33b8
00000090: a883 fcb8 c8bb 81b7 1edf 66b8 36fe 04b9
000000a0: f511 b738 d87d 8cb8 a18c da38 4bfb b738
000000b0: e164 00b7 c76d 0838 11b1 11b8 4ea1 5237
000000c0: 2103 7738 c576 f638 6bd7 bb38 6b48 db38
000000d0: 0b66 bf38 e1ec 8738 29a0 3d39 4fb8 09b9
000000e0: bb24 aeb6 789b bf38 b4bf 1836 f469 dfb8
000000f0: e074 a5b7 4290 5338 da44 dc38 b78e 0638
00000100: a512 4739 a7d4 1138 baf2 fb38 8adc f937
00000110: 97a3 7b38 e80e 7f38 483b dfb8 daa1 7838
00000120: ef0d 1439 106d 98b8 8b44 b7b8 cd0c 6638
00000130: c89d cc38 eee1 b8b8 6723 79b8 187e 0739
00000140: d2b8 1d39 8a08 d238 a9cf b638 dbfa 8138
00000150: 87f2 0cb8 b771 e338 f25f d8b8 1182 5f39
00000160: 2f20 c138 760b cd38 3022 b238 b9a7 0fb9
00000170: 2ace 0cb8 0808 c1b7 6de3 a3b7 e770 1339
00000180: 3541 f7b6 4083 8b38 b0e9 3338 6ceb f338
00000190: cde3 d838 39e5 e338 655d fa36 2dc9 0039
000001a0: ff8c b838 f534 9838 0e72 5b37 8fa9 a5b8
000001b0: 07c5 e0b7 5f13 3fb8 ec5e cbb8 1088 81b8
000001c0: 659e 80b7 1294 0238 ccba 8838 93ec da36
000001d0: cdaa ed38 5aa1 97b8 5363 ff38 900c 2d39
000001e0: 53ba 9738 2ef1 fab7 5b98 0339 3b01 b638
000001f0: 752b f8b7 8034 5c38 da26 2fb6 1139 a238
00000200: cac1 a838 2b7b 04b9 1f3d e438 dc9a ab38
00000210: cf9c 58b7 85cc 76b8 c05f d038 b3a0 eab8
00000220: bacc 87b7 13ae 9d38 32bf 8fb7 8117 5038
00000230: cd13 2437 c3f3 b838 da39 a137 a8b9 a4b8
00000240: 7463 0b38 e5d8 b6b6 7ba9 0eb9 f038 aab7
00000250: e105 0bb8 829f b538 a8cf db37 eb73 0138
00000260: 40ba 8cb8 1285 c336 df09 5ab8 86fc e4b7
00000270: 1646 40b7 bd23 4539 41cf f1b7 effb 4c35
00000280: b7c9 ca38 77da d5b8 226a 8e38 d014 1336
00000290: 88de 0539 ade6 66b8 aacf 8cb6 ba66 d438
000002a0: 954c eb38 b0ef eb38 78ae 37b8 5928 2e39
000002b0: ce8f 2039 8497 1b39 ea5b a5b8 a970 20b6
000002c0: 7fc9 92b8 9c88 1a39 d51f c938 fec0 c6b5
000002d0: 3b98 a6b7 c701 69b7 3524 1038 44e7 d538
000002e0: 8c1c 1fb9 ecd5 d638 7062 3db8 b4f5 1a39
000002f0: 04b2 06b9 2951 4e38 b484 b338 ca73 7f38
00000300: e4fc bcb5 9e5f 2938 5baf 99b7 849d 65b5
00000310: 162a a538 5c59 2a39 f952 54b9 788d ed38
00000320: 63bd 68b6 5e91 9bb8 1413 04b9 a8fb d937
00000330: b927 f438 494f 9d36 00d8 df36 961a 4938
00000340: 3016 25b6 a4a4 9738 edba 9ab8 645c 1839
00000350: d40d cf38 3094 f7b7 d807 a9b7 79c3 09b9
00000360: 8459 8fb6 8771 43b8 a13d 1c39 16db 6038
00000370: 3593 f1b7 2049 b438 6f87 6a37 6b9f 81b6
00000380: bc6e a4b6 2b3f c038 1424 b337 dead c636
00000390: b00f 9f38 cf28 ba38 9be2 fc38 9056 0639
000003a0: 02d8 a4b8 cab4 2fb8 4cdb 3838 cad1 ae38
000003b0: 8ecd 6338 5876 8b38 0419 1eb8 d3aa 4db7
000003c0: 565d 92b8 af34 2339 c6f5 aab7 84fe 0c36
000003d0: 840d 72b7 91b8 f7b8 5d8c 2138 5429 5738
000003e0: 14e0 90b8 b93e ab38 987c 2838 1461 1bb7
000003f0: d301 58b7 ad80 9c38 a846 6239 2c46 a7b7

conv5.lin.weight f4 [256, 256]
0.041501187 0.10648548 -0.056122247 -0.03273563 0.122484446 0.09075397 -0.024640061 -0.04389742
-0.053240363 -0.011445459 -0.080005184 -0.18635786 0.003287666 -0.00686862 0.021104535 -8.161409e-05
0.018204618 -0.0722471 0.024667406 -0.209714 -0.05325536 -0.008954715 0.14514421 0.043569718
-0.013651746 0.024785245 -0.022800405 0.17674482 0.041972566 -0.12715489 0.10973462 -0.0010570422
0.017966336 -0.02712561 0.48018658 -0.051192462 0.01611588 -0.013500263 -0.03230694 -0.01808947
-0.046878528 -0.055211015 -0.06425174 0.036674675 -0.06844801 -0.004865722 0.026790248 -0.07574251
-0.054232854 -0.069865316 0.1468375 -0.10428578 -0.042907026 -0.0041045495 -0.06324644 0.002841993
0.037339304 -0.09877726 0.06300621 -0.00031445894 0.09232053 0.0024713012 -0.0133769475 0.0023141904
-0.106399626 0.13365173 -0.05714589 -0.06598758 -0.021490416 0.056804996 0.21787147 -0.015401622
0.028803697 -0.09591535 -0.046772964 -0.04332422 0.061740607 -0.085208714 -0.0139747085 -0.009026867
-0.07528317 0.021787692 -0.061476596 -0.05391801 0.02317505 -0.014325949 -0.0015738689 0.0393515
0.27694005 -0.007658708 0.018595241 0.085522376 -0.053049408 0.31128433 -0.04887886 0.058632106
-0.012495361 0.078496836 0.041419126 0.04990218 0.023243185 0.00067796424 -0.2053575 0.020584425
0.009114568 -0.050436698 0.0896508 -0.049494874 -0.0101496475 0.06120326 0.024509678 -0.015749363
-0.052194543 -0.04228273 -0.22921996 -0.019626964 -0.014652146 -0.061486095 -0.0075030583 0.06457079
-0.042299002 0.010304568 -0.061958555 0.09020049 -0.059811953 0.033639394 -0.01505488 0.006908892
-0.021245863 0.0018042495 0.04201272 -0.05227292 -0.13355026 -0.06462345 0.025638517 -0.03484807
-0.048150506 -0.006183812 -0.033186328 -0.06351989 0.0015877536 0.0736943 0.00068161276 -0.030161548
0.07860771 -0.0032902854 -0.11394374 0.050210506 0.080029696 0.028611144 -0.02822923 -0.026941238
0.07491185 0.016818289 -0.022150567 -0.014584439 0.05433059 0.029637093 -0.048856404 -0.015956564
-0.08441398 -0.07979006 0.17570801 -0.011388197 -0.05131916 -0.019856103 0.12780905 -0.005336706
0.0451704 -0.08064276 -0.015885023 0.0057236585 0.0053720735 0.09502351 0.116558164 0.054843258
0.02893709 -0.007905422 -0.028844383 0.05779844 -0.04044359 -0.0018418601 -0.09694301 -0.056245655
-0.02718479 0.13972475 0.048060983 -0.012367123 0.008994116 0.11884329 -0.024870876 -0.09038774
-0.0213861 0.16815655 -0.08759285 0.17966439 0.023405127 0.044827927 0.14500026 0.010628371
-0.010490948 -0.12248195 -0.0012699751 -0.055120625 -0.0017119381 -0.27066758 -0.090190426 -0.005021819
-0.0033344177 0.013492066 -0.019437086 0.053693537 0.01080958 0.15697363 0.04725701 -0.00090574916
0.01317809 0.014983504 -0.22204502 -0.009354363 0.13579856 -0.065764636 -0.21515365 -0.06991591
0.031001318 -0.08972201 0.06241242 0.0020062581 0.021247042 0.023375306 -0.006208596 -0.051642172
0.063740045 0.079771675 0.025873562 0.03262841 -0.0836169 0.12771122 -0.10101616 0.01283644
0.043104846 -0.04480219 -0.046710774 -0.07272693 -0.016427485 -0.030840069 -0.0070910617 -0.034449592
-0.007941872 0.012491674 -0.020115731 -0.062019873 0.09526837 0.074608445 -0.056128874 0.001429842
00000000: 26fd 293d 0f15 da3d 71e0 65bd cc15 06bd
00000010: 20d9 fa3d 38dd b93d f4d9 c9bc c8cd 33bd
00000020: 9112 5abd bc85 3bbc c2d9 a3bd 98d4 3ebe
00000030: e275 573b 2912 e1bb 6be3 ac3c 3b28 abb8
00000040: da21 953c 4af6 93bd 4d13 ca3c 44bf 56be
00000050: 4b22 5abd ccb6 12bc afa0 143e 2976 323d
00000060: 93ab 5fbc 6d0a cb3c eac7 babc 98fc 343e
00000070: 6deb 2b3d e434 02be 8bbc e03d 738c 8aba
00000080: 232e 933c 8736 debc 04db f53e 30af 51bd
00000090: 7305 843c 3530 5dbc 4854 04bd 5e30 94bc
000000a0: b303 40bd f224 62bd 6b96 83bd 2f38 163d
000000b0: 782e 8cbd a270 9fbb 3977 db3c e41e 9bbd
000000c0: 4523 5ebd 8c15 8fbd 925c 163e c893 d5bd
000000d0: 47bf 2fbd 757f 86bb 5987 81bd bb40 3a3b
000000e0: 19f1 183d bb4b cabd 6609 813d f7dd a4b9
000000f0: 8c12 bd3d 8ef5 213b fc2a 5bbc aca9 173b
00000100: 0ce8 d9bd 00dc 083e cf11 6abd 7f24 87bd
00000110: ab0c b0bc 5bac 683d b319 5f3e 1657 7cbc
00000120: bbf5 eb3c 446f c4bd 0295 3fbd bd74 31bd
00000130: b8e3 7c3d e881 aebd 2df6 64bc 6de5 13bc
00000140: 102e 9abd 1a7c b23c e2ce 7bbd 22d9 5cbd
00000150: 9ad9 bd3c 63b7 6abc 474a ceba 0a2f 213d
00000160: 16cb 8d3e e6f5 fabb 0c55 983c 5b26 af3d
00000170: 564a 59bd a960 9f3e 3335 48bd 3828 703d
00000180: 58b9 4cbc f3c2 a03d 1aa7 293d 3a66 4c3d
00000190: 7e68 be3c 69b9 313a 3d49 52be aba0 a83c
000001a0: 4555 153c b696 4ebd d79a b73d 23bb 4abd
000001b0: b54a 26bc 45b0 7a3d 85c8 c83c cf04 81bc
000001c0: f2c9 55bd a830 2dbd a3b8 6abe bac8 a0bc
000001d0: 8e0f 70bc d8d8 7bbd 37dc f5bb b13d 843d
000001e0: b841 2dbd 7ed4 283c 41c8 7dbd 09bb b83d
000001f0: 61fd 74bd 76c9 093d bea8 76bc fd63 e23b
00000200: ce0b aebc 917c ec3a 8815 2c3d 211c 56bd
00000210: 66c1 08be 4d59 84bd de07 d23c dabc 0ebd
00000220: 7739 45bd 93a1 cabb 63ee 07bd b716 82bd
00000230: 2c1c d03a 0aed 963d 42ae 323a 5a15 f7bc
00000240: 14fd a03d d4a1 57bb 565b e9bd 88a9 4d3d
00000250: 9ce6 a33d eb61 ea3c fc40 e7bc dfb3 dcbc
00000260: 626b 993d 82c6 893c 1b75 b5bc 92f3 6ebc
00000270: c189 5e3d 7dc9 f23c a71d 48bd 57b7 82bc
00000280: 3de1 acbd f968 a3bd cdec 333e 8f95 3abc
00000290: 0a34 52bd 44a9 a2bc 60e0 023e 89df aebb
000002a0: 9904 393d 0828 a5bd 4f21 82bc 878d bb3b
000002b0: 3808 b03b b09b c23d 0cb6 ee3d 53a3 603d
000002c0: 7a0d ed3c be85 01bc 0e4b ecbc 0fbe 6c3d
000002d0: 2ea8 25bd 926a f1ba 0f8a c6bd d861 66bd
000002e0: a3b2 debc 0114 0f3e 98db 443d 799f 4abc
000002f0: 0f5c 133c 1c64 f33d 02be cbbc 351d b9bd
00000300: e731 afbc 3b31 2c3e e163 b3bd f1f9 373e
00000310: 1cbc bf3c 7d9d 373d f37a 143e 9e22 2e3c
00000320: 3ae2 2bbc d1d7 fabd 4b75 a6ba 2ac6 61bd
00000330: 1c63 e0ba f194 8abe c2b5 b8bd 128e a4bb
00000340: 3f86 5abb d40d 5d3c 863a 9fbc c1ed 5b3d
00000350: aa1a 313c b2bd 203e 9190 413d cc6f 6dba
00000360: eae8 573c 5f7d 753c c55f 63be 0b43 19bc
00000370: c70e 0b3e 9caf 86bd 3d51 5cbe 1330 8fbd
00000380: 7af6 fd3c 2cc0 b7bd 2aa4 7f3d 6d7b 033b
00000390: 470e ae3c 927d bf3c 7a71 cbbb be86 53bd
000003a0: 248a 823d 555f a33d cbf4 d33c 5ea5 053d
000003b0: 563f abbd bbc6 023e 8fe1 cebd ee4f 523c
000003c0: b58e 303d 8082 37bd cc53 3fbd dbf1 94bd
000003d0: ef92 86bc 50a4 fcbc 235c e8bb 041b 0dbd
000003e0: a01e 02bc e1a9 4c3c bfc9 a4bc 8d08 7ebd
000003f0: 101c c33d 50cc 983d 64e7 65bd 8969 bb3a
