weights/6-5-0_split_2.pt (torch, 473413 bytes, 26 tensors)

conv1.bias f4 [64]
0	0x35da2bce	1.6255015e-06
1	0x360f1aee	2.1324336e-06
2	0xb771b698	-1.4407233e-05
3	0xb70835aa	-8.118726e-06
4	0xb76ebcb5	-1.4229842e-05
5	0xb718dd72	-9.111465e-06
6	0x372a81c5	1.0163004e-05
7	0x36a8b3bd	5.0277145e-06
8	0xb60a826f	-2.0639525e-06
9	0x37494cc7	1.199841e-05
10	0xb5cbae96	-1.517549e-06
11	0xb7570637	-1.2816446e-05
12	0x36d65557	6.387632e-06
13	0xb7083d1c	-8.12046e-06
14	0xb70bbaff	-8.328584e-06
15	0xb65b8808	-3.2712724e-06
16	0xb768ec0d	-1.3883237e-05
17	0xb763c161	-1.3575279e-05
18	0xb614b88e	-2.2161144e-06
19	0x37118963	8.674661e-06
20	0xb75c523d	-1.3132169e-05
21	0x36bde35f	5.6591084e-06
22	0xb6fe9eb6	-7.5882663e-06
23	0xb6caec50	-6.0475795e-06
24	0xb6d2b1ae	-6.2791723e-06
25	0xb71e083a	-9.419449e-06
26	0xb68625b9	-3.9979027e-06
27	0xb70d3d04	-8.418461e-06
28	0xb7488511	-1.1951911e-05
29	0xb7d348c0	-2.5187037e-05
30	0xb794f0d9	-1.7755128e-05
31	0xb6fe8e37	-7.586346e-06
32	0xb74e3e27	-1.2293028e-05
33	0xb5fb8eb3	-1.8742488e-06
34	0xb58db579	-1.0558134e-06
35	0xb70eceab	-8.511978e-06
36	0x36378aea	2.7349984e-06
37	0x3783695b	1.5665477e-05
38	0xb6cf2bbc	-6.174172e-06
39	0x35773df9	9.210485e-07
40	0x35adb665	1.2942588e-06
41	0xb6c10b16	-5.753139e-06
42	0xb6a9e160	-5.0628296e-06
43	0xb6d46c31	-6.3306875e-06
44	0x3700bf3b	7.673919e-06
45	0x35911f33	1.0812422e-06
46	0xb266ae61	-1.3427411e-08
47	0xb704fab9	-7.926189e-06
48	0xb737b2d8	-1.094929e-05
49	0x374819da	1.1926948e-05
50	0xb6f131fb	-7.188178e-06
51	0x356d4e4f	8.8403334e-07
52	0x354f74ff	7.728376e-07
53	0xb52c33c7	-6.415034e-07
54	0x377599b9	1.4638929e-05
55	0xb797d580	-1.8100021e-05
56	0xb58e206f	-1.0589264e-06
57	0xb6107543	-2.1525927e-06
58	0xb75fc027	-1.3336575e-05
59	0xb6b4d1bc	-5.3888343e-06
60	0x36f6f74c	7.3601605e-06
61	0xb755f23b	-1.2752188e-05
62	0xb8152696	-3.5560304e-05
63	0xb5c4a4f7	-1.4651149e-06

conv1.lin.weight f4 [64, 2]
0	0xbecb3a92	-0.39693123
1	0x3bc34a33	0.005959773
2	0xbbe0ceba	-0.006860581
3	0x3eb06250	0.34450006
4	0xbc4f4f9c	-0.012653258
5	0xbe77d6f0	-0.24203086
6	0xbea27ac3	-0.31734285
7	0xbd8f9caf	-0.07012307
8	0xbe6a7a78	-0.2289828
9	0xbe0e4f8a	-0.13897529
10	0x3ea3476f	0.31890437
11	0x3e766f5a	0.24065915
12	0x3b891e38	0.0041845106
13	0x3eb3d0f1	0.35120347
14	0xbb766031	-0.0037593956
15	0x3edcfa50	0.43159723
16	0x3eb5ab36	0.35482186
17	0x3dae17c4	0.08500627
18	0xbc4a11da	-0.012333358
19	0x3eb90509	0.36136654
20	0xbea073d9	-0.31338385
21	0x3e1afb10	0.15134835
22	0xbb617a8a	-0.0034405314
23	0xbf5f0b18	-0.871263
24	0xbd28f6c9	-0.041250978
25	0x3e3bd7a6	0.18343982
26	0x3e85c5ae	0.2612738
27	0x3dc30cba	0.09523912
28	0xbe09ac4b	-0.13444631
29	0xbe8c8c15	-0.27450624
30	0x3e8a18fb	0.26972184
31	0x3ea01331	0.31264642
32	0xbe4a68f6	-0.19766602
33	0xbe27fde6	-0.16405448
34	0x3c8eb16c	0.017418586
35	0xbf13f663	-0.5779783
36	0x3e915911	0.28388265
37	0x3e40c074	0.18823415
38	0x3b4c8797	0.0031208748
39	0x3ed39377	0.41323444
40	0x3ea15553	0.3151041
41	0x3e7a049f	0.24415825
42	0xbf1fd477	-0.6243357
43	0x3d3ff160	0.046861053
44	0xbe69c2bf	-0.22828196
45	0xbe7fdd4b	-0.2498676
46	0x3f323615	0.6961377
47	0x3d1f3921	0.03887284
48	0x3ef20a0c	0.4727329
49	0x3df628a3	0.120194696
50	0xbe31ea44	-0.17374521
51	0xbe4d1acf	-0.20029758
52	0x3e9db6fe	0.30803674
53	0x3e4e66a2	0.20156339
54	0xbe43af66	-0.19109878
55	0xbe534635	-0.2063225
56	0x3ca7213b	0.020401588
57	0xbf0a8cfc	-0.54121375
58	0xbc6cc870	-0.014452085
59	0xbeac48a0	-0.33649158
60	0xbe1cf848	-0.15329087
61	0xbea4e5da	-0.32206613
62	0xbea4ff41	-0.32225993
63	0x3e3aa0e4	0.18225437
64	0x3eda2a3c	0.42610347
65	0x3dfd599b	0.123706065
66	0x3f026d45	0.5094798
67	0x3dcb260f	0.099193685
68	0xbe9aecee	-0.30258888
69	0x3e8e198c	0.27753866
70	0x3e9cbef6	0.30614442
71	0x3e490cea	0.19633833
72	0x3c61187b	0.013738747
73	0x3e85528b	0.26039538
74	0x3cc201dd	0.02368253
75	0x3e8b0b75	0.2715718
76	0x3e8d2af5	0.27571836
77	0x3e95df39	0.29271868
78	0xbeb394ca	-0.35074455
79	0x3ea3cb23	0.3199092
80	0xbebf5ebb	-0.3737696
81	0x3e822e56	0.25425977
82	0x3ebe9cb6	0.37228936
83	0x3dd5603c	0.10418746
84	0xbe6efff6	-0.23339829
85	0xbe7bbc29	-0.24583496
86	0x3e9eac1e	0.3099069
87	0x3e209b53	0.15684251
88	0xbcf2d451	-0.029642256
89	0x3ed19899	0.40936735
90	0xbec47c93	-0.38376293
91	0x3e8567f9	0.26055887
92	0x3f26a34d	0.6509293
93	0x3d948176	0.07251255
94	0xbdc09b5a	-0.09404631
95	0xbe9e5966	-0.3092758
96	0x3d96ecf7	0.07369416
97	0x3e2b79b9	0.16745652
98	0xbc1f417f	-0.009720205
99	0x3eb13f19	0.34618452
100	0x3eec9e3f	0.46214482
101	0x3e1175cc	0.14205092
102	0x3f2e04b4	0.67975926
103	0xbd3fe096	-0.04684504
104	0xbe97eb50	-0.29671717
105	0x3e631e95	0.22179635
106	0x3db803e3	0.08985116
107	0x3e790a55	0.24320348
108	0x3eae6772	0.34063298
109	0xbe414309	-0.18873228
110	0xbda92092	-0.082581654
111	0xbeba3542	-0.36368757
112	0xbe88a581	-0.2668877
113	0x3e3c4b35	0.18388064
114	0xbea22952	-0.3167215
115	0x3e57abbb	0.21061604
116	0x3ec9299c	0.39289558
117	0x3e1af5ef	0.15132879
118	0x3f09173a	0.53551066
119	0x3dedb354	0.1160647
120	0xbc5918c9	-0.013250538
121	0x3eb2fda6	0.34959143
122	0xbe307fd1	-0.17236258
123	0xbeb268ec	-0.34845674
124	0x3d2a51c2	0.041581877
125	0xbed21226	-0.4102947
126	0xbeb37d50	-0.35056543
127	0x3e544fba	0.20733538

conv2.bias f4 [64]
0	0xbe2711b2	-0.16315344
1	0xbe3b5393	-0.182936
2	0xbf191a14	-0.5980542
3	0xbea06ac4	-0.31331456
4	0xbefefad5	-0.49800745
5	0xbea07a49	-0.31343296
6	0xbcfa78cc	-0.030575179
7	0xbf095693	-0.53647727
8	0xbf0a0f3e	-0.5392951
9	0x3d7366bc	0.059424147
10	0xbf1b469f	-0.60654634
11	0xbe0d9f31	-0.13830258
12	0x3e43692b	0.19083087
13	0xbea4615e	-0.32105535
14	0xbf575faf	-0.84130377
15	0xbe0b301f	-0.13592575
16	0xbf9ba5af	-1.2159938
17	0xbe01f0fc	-0.12689584
18	0xbe039cf1	-0.12852837
19	0xbe250d13	-0.16118269
20	0xbf5f6c92	-0.8727504
21	0x3ce96b91	0.028493674
22	0xbe4efa60	-0.20212698
23	0xbdd0beae	-0.10192619
24	0xbc578be5	-0.013155912
25	0xbeaa9309	-0.33315304
26	0xbf6e232b	-0.9302241
27	0xbe480b51	-0.19535567
28	0xbdc67968	-0.09691125
29	0xbf20ee07	-0.628632
30	0xbe7f6459	-0.24940623
31	0xbe8b20c6	-0.27173442
32	0xbe1efc7c	-0.15526003
33	0x3e90628a	0.2820018
34	0xbd24e6dd	-0.04025923
35	0xbf5f5b6a	-0.8724886
36	0xbf60ede6	-0.87863004
37	0xbdc46aff	-0.095907204
38	0x3d574381	0.05255461
39	0xbe7e9fcb	-0.24865644
40	0xbe606f0a	-0.21917358
41	0xbdbc5b3c	-0.09197089
42	0xbf9fdf36	-1.2489994
43	0xbf6fb821	-0.93640333
44	0x3e1b0962	0.15140298
45	0xbebeb49a	-0.37247163
46	0xbe0c0ec8	-0.13677514
47	0x3d97747a	0.07395263
48	0x3b9310eb	0.0044881008
49	0xbf4b439f	-0.79400057
50	0xbf4d4641	-0.80185324
51	0xbeecc8fd	-0.46247092
52	0xbe568452	-0.20948914
53	0xbb41e37f	-0.002958506
54	0x3e02507e	0.12726018
55	0xbdf15303	-0.11783411
56	0xbf471b92	-0.77776444
57	0xbf185046	-0.5949749
58	0xbf4c9e64	-0.79929185
59	0xbea18e48	-0.31553864
60	0xbe4c84eb	-0.19972579
61	0xbe104f17	-0.1409267
62	0xbe69f2b5	-0.22846492
63	0xbeea99fe	-0.45820612

conv2.lin.weight f4 [64, 64]
0	0xbd8aa956	-0.067705795
1	0xbea0b6c2	-0.31389433
2	0xbe4491e8	-0.19196284
3	0xbe80f3b0	-0.2518592
4	0xbe89ab52	-0.2688852
5	0xbea1dd00	-0.31613922
6	0xbe0ba442	-0.13636878
7	0xbead0b3c	-0.33797634
8	0x3bb3a99a	0.0054828646
9	0xbe7f7982	-0.24948695
10	0xbe3a0dd0	-0.18169332
11	0xbe9546f6	-0.291557
12	0xbe64337a	-0.22285262
13	0xbd9436eb	-0.07237037
14	0xbeb397ac	-0.35076654
15	0xbecd1e1e	-0.4006204
16	0xbe86d9f4	-0.2633816
17	0x3daf3b4f	0.08556234
18	0xbe1690d4	-0.14703685
19	0xbe7d6c4c	-0.24748343
20	0xbe93246b	-0.28738722
21	0xbc77560a	-0.015096197
22	0xbf101f3f	-0.5629768
23	0x3e4d9bcd	0.20078965
24	0x3e4054dc	0.18782371
25	0xbf193d67	-0.5985932
26	0xbe8dcd86	-0.27695864
27	0xbf0ec26f	-0.5576543
28	0xbe0bee1f	-0.13665055
29	0xbe05a9df	-0.13053082
30	0xbee9de21	-0.45677283
31	0xbe2d2b7a	-0.16911116
32	0x3d499a33	0.04921932
33	0x3e3ed001	0.18634035
34	0xbe924a9e	-0.28572553
35	0xbeabb895	-0.33539262
36	0xbe9f7adc	-0.31148422
37	0xbe9864da	-0.29764444
38	0xbea01bfd	-0.31271353
39	0xbe1373af	-0.14399599
40	0xbe259072	-0.16168383
41	0xbd490e42	-0.049085863
42	0xbeb9cf98	-0.36291194
43	0xbe35bf58	-0.17748773
44	0xbe47fa67	-0.19529115
45	0xbe86b312	-0.26308495
46	0x3d1b1c9d	0.037869085
47	0xbdae72fb	-0.085180245
48	0xbe8197df	-0.2531118
49	0xbe7d4649	-0.24733843
50	0x3ddef962	0.1088741
51	0x3df3bd76	0.11901371
52	0xbe7ee03c	-0.24890226
53	0xbe08c079	-0.13354672
54	0x3ddea1f6	0.10870735
55	0xbe0b1625	-0.13582666
56	0xbe6242d3	-0.22095804
57	0xbe2c63ca	-0.16834942
58	0x3e06f8d0	0.13180852
59	0x3e610cc0	0.2197752
60	0xbe6a56a1	-0.22884609
61	0xbeab4897	-0.3345382
62	0xbe54e56a	-0.2079064
63	0xbe71f7f9	-0.2362975
64	0xbe89e0a4	-0.269292
65	0x3d9ad731	0.07560576
66	0x3e30a0a6	0.17248783
67	0xbecebcb9	-0.4037836
68	0xbead7dda	-0.3388508
69	0xbede65d9	-0.4343708
70	0x3e20e669	0.15712894
71	0xbd7d97ea	-0.061912455
72	0xbf39dfa5	-0.7260688
73	0x3dec596a	0.11540492
74	0xbe07a403	-0.1324616
75	0x3db6ecac	0.0893186
76	0x3d2cf973	0.04223008
77	0xbebb6160	-0.3659773
78	0xbe3fc241	-0.18726446
79	0xbea8fd63	-0.3300582
80	0xbed715b8	-0.42008758
81	0x3df1109d	0.11770747
82	0xbecb3698	-0.3969009
83	0x3e416be5	0.18888815
84	0xbf2133e1	-0.62969786
85	0x3c2a228e	0.010384215
86	0xbee30104	-0.44336712
87	0xbeab1243	-0.3341237
88	0xbf567ea2	-0.83786976
89	0xbeda097f	-0.4258537
90	0xbeb98a73	-0.3623844
91	0xbeea7ffa	-0.45800763
92	0x3dabe3b5	0.08393041
93	0x3e0c574b	0.13705175
94	0xbe3b8c02	-0.18315127
95	0x3cd3a97a	0.025837649
96	0xbf1ae024	-0.6049826
97	0xbee7bf97	-0.4526336
98	0xbcc892cb	-0.024484059
99	0xbeed9588	-0.46403146
100	0xbdd663d5	-0.1046826
101	0x3e5715f2	0.21004465
102	0xbe2fd801	-0.17172243
103	0x3e4ad0c6	0.19806203
104	0x3da5c609	0.08094413
105	0xbf3f5db3	-0.7475235
106	0xbefac243	-0.48976335
107	0xbec4cd0b	-0.38437685
108	0x3dce0088	0.10058695
109	0xbcbc0272	-0.022950385
110	0xbec42d3c	-0.3831576
111	0x3cee3275	0.029076794
112	0xbdb583f3	-0.08863058
113	0x3e61046f	0.21974348
114	0xbf1ec023	-0.6201193
115	0xbed83b47	-0.42232725
116	0x3ccf900d	0.025337243
117	0x3e232984	0.15933806
118	0x3e1acc20	0.1511693
119	0x3da7ec6b	0.0819939
120	0xbd0f3c20	-0.03496945
121	0x3dc04aee	0.09389292
122	0xbf67b1c4	-0.90505624
123	0xbee1fa6f	-0.44136378
124	0x3e621405	0.2207795
125	0xbe91653b	-0.28397545
126	0x3e8ad8b0	0.27118444
127	0xbe433bcd	-0.19065781
128	0x3dfee53c	0.12446067
129	0x3d828bb4	0.063743025
130	0x3e286a28	0.16446745
131	0x3e1b2574	0.15151006
132	0x3e2085af	0.15675996
133	0xbe62a5fb	-0.22133629
134	0x3d8f2f8c	0.06991491
135	0x3d0f1e03	0.03494073
136	0x3e7c8ead	0.24663801
137	0x3dacf4b2	0.084451094
138	0xbde171ba	-0.1100802
139	0x3e524787	0.20535098
140	0xbdb839fe	-0.08995436
141	0x3cbc6ae8	0.023000196
142	0x3d3933b7	0.045215335
143	0xbe444a47	-0.1916896
144	0x3d5d8fa0	0.05409205
145	0x3de0d3e9	0.10977919
146	0xbdc0a1e6	-0.0940588
147	0x3e6479c0	0.22312069
148	0xbe866c90	-0.26254702
149	0x3cf8f8f7	0.030392153
150	0xbcb5c608	-0.022189155
151	0x3e0d70d1	0.13812567
152	0x3e5135c2	0.20430663
153	0xbe408d71	-0.18803956
154	0xbd857964	-0.06517294
155	0x3de8d240	0.11368227
156	0x3e92f986	0.28705996
157	0x3d850804	0.064956695
158	0xbdc2ab91	-0.0950538
159	0xbc1e5909	-0.009664782
160	0x3c1ffec3	0.00976533
161	0x3e816401	0.2527161
162	0xbdc7bb62	-0.09752537
163	0xbe019cf0	-0.12657523
164	0xbd349988	-0.04409173
165	0x3d8fbd53	0.070185326
166	0xbea6853b	-0.32523522
167	0x3e43501f	0.19073533
168	0x3d881ff1	0.06646717
169	0x3e3e79ce	0.18601152
170	0x3bc7c9db	0.006097061
171	0xbdb4323c	-0.08798644
172	0x3c94b982	0.018154863
173	0x3e26c674	0.16286641
174	0x3e68878e	0.2270796
175	0xbcc1722b	-0.02361401
176	0xbd86e30c	-0.065862745
177	0x3e066961	0.13126136
178	0xbdb3320e	-0.087497815
179	0xbc465ef5	-0.0121076
180	0x3e1b75bc	0.15181631
181	0xbe11cf59	-0.14239253
182	0x3e3d5f0e	0.18493292
183	0xbc41655f	-0.011803954
184	0x3dbc3a65	0.091908254
185	0x3cf3aa3f	0.029744266
186	0x3d0020dc	0.031281337
187	0xbb3f87ba	-0.0029225186
188	0x3d6bdfab	0.057586353
189	0xbdf4cc0e	-0.11952983
190	0x3b2b0e62	0.0026101102
191	0x3dd4384b	0.103622995
192	0xbc8eb628	-0.017420843
193	0xbe074083	-0.13208203
194	0xbe08b2b7	-0.13349424
195	0x3d11f8e5	0.035637755
196	0xbd2a10ee	-0.04152005
197	0xbe4d551e	-0.20052001
198	0x3ddcf970	0.10789764
199	0xbdd5decf	-0.10442888
200	0xbef34a57	-0.47517654
201	0x3da1927a	0.07889266
202	0xbdc0c00a	-0.094116285
203	0xbe1712f9	-0.14753331
204	0xbb565e50	-0.0032710023
205	0xbe2d6e7c	-0.16936678
206	0xbe1d4bbb	-0.1536092
207	0xbe39d073	-0.18145923
208	0xbdab68ba	-0.083695844
209	0xbdf4698f	-0.11934196
210	0xbdae3e4d	-0.08507977
211	0x3dfcc43c	0.12342116
212	0xbeb5d050	-0.35510492
213	0xbe230a3e	-0.15921876
214	0xbc6d2be0	-0.014475793
215	0xbedf3329	-0.4359372
216	0xbef74c71	-0.48300508
217	0xbd9b683d	-0.07588241
218	0xbde17cd7	-0.110101394
219	0xbe5a6679	-0.21328153
220	0xbdb9748a	-0.09055431
221	0xbe0e705f	-0.13910054
222	0xbd14b7df	-0.036308166
223	0xbe2971b1	-0.16547276
224	0xbea45601	-0.32096866
225	0xbebf4f4e	-0.37365192
226	0x3e0070f3	0.12543087
227	0xbe2a43b4	-0.16627389
228	0xbe93359e	-0.28751844
229	0x3da79fb6	0.08184759
230	0xbcaededc	-0.021346502
231	0x3e09f055	0.13470586
232	0x3dd46184	0.10370162
233	0xbed0ed79	-0.40806177
234	0xbea24cc0	-0.3169918
235	0xbe6de1b8	-0.23230636
236	0x3c0342fa	0.008011574
237	0x39a57c6f	0.00031563963
238	0xbe9144a6	-0.28372687
239	0xbe5d832a	-0.21632066
240	0xbd8cbe6a	-0.06872256
241	0xbd2d8909	-0.042367015
242	0xbf0f9aad	-0.5609539
243	0xbebf23d8	-0.37332034
244	0x3df6c9bd	0.12050197
245	0x3e2b19a9	0.16709007
246	0x3e1dc508	0.15407193
247	0xbded224a	-0.11578806
248	0x3d7df156	0.061997734
249	0x3e801ca3	0.25021848
250	0xbf1827fd	-0.5943602
251	0xbec505aa	-0.38480884
252	0x3cdf2909	0.027241247
253	0xbdda6f11	-0.106657155
254	0x3d81cae6	0.06337528
255	0xbce540d6	-0.027985018

conv3.bias f4 [128]
0	0xb7fe6043	-3.0323985e-05
1	0x3757c91a	1.2861821e-05
2	0x36141b20	2.2069507e-06
3	0xb6918c1f	-4.337649e-06
4	0x341a53a6	1.4372799e-07
5	0xb78f9539	-1.7116416e-05
6	0xb5cddac3	-1.5337358e-06
7	0xb75d35ea	-1.3185179e-05
8	0xb80ebd9b	-3.4032022e-05
9	0xb77ecbfc	-1.5187074e-05
10	0xb6ca77a9	-6.0339994e-06
11	0x365195b8	3.1230575e-06
12	0x3786cbf8	1.6069025e-05
13	0x368d6c19	4.2147117e-06
14	0xb7b11ba6	-2.1112919e-05
15	0x379592e3	1.7830584e-05
16	0xb7742252	-1.4551524e-05
17	0xb7dca9d0	-2.6305119e-05
18	0xb852e49a	-5.0280803e-05
19	0x36b13bd6	5.281977e-06
20	0xb72351c8	-9.734598e-06
21	0xb7db9895	-2.6177886e-05
22	0xb80ace58	-3.3093937e-05
23	0xb881a8f0	-6.1826664e-05
24	0xb76e68a9	-1.4210274e-05
25	0x37179b1d	9.0364165e-06
26	0xb5bc8eb8	-1.4048628e-06
27	0xb8168b47	-3.58925e-05
28	0x348443f0	2.4636347e-07
29	0xb540ef3c	-7.1873706e-07
30	0xb73d1fed	-1.1272711e-05
31	0xb881ff6c	-6.1987754e-05
32	0xb7ed2793	-2.827103e-05
33	0x37b44590	2.1490065e-05
34	0x3851e210	5.004002e-05
35	0xb7d65a6c	-2.5552894e-05
36	0x38256efe	3.9442435e-05
37	0xb79562b3	-1.7808145e-05
38	0x376ff3ad	1.4302245e-05
39	0x360bef0d	2.085176e-06
40	0x385524bd	5.0817373e-05
41	0xb7921e80	-1.7418759e-05
42	0xb7972764	-1.8018945e-05
43	0x3812409b	3.486928e-05
44	0xb7782efa	-1.47928895e-05
45	0xb85c3ff0	-5.2511634e-05
46	0x354fadae	7.7366246e-07
47	0x371c8a19	9.330478e-06
48	0xb690e68c	-4.3183736e-06
49	0x37df43a9	2.6615178e-05
50	0xb69b0d16	-4.6208834e-06
51	0x36b49bef	5.382571e-06
52	0x36de5438	6.62592e-06
53	0xb77791ca	-1.4756291e-05
54	0xb782420d	-1.5527965e-05
55	0x354ca107	7.623025e-07
56	0xb743116a	-1.162696e-05
57	0xb7ddae8e	-2.6426536e-05
58	0x35e75966	1.723686e-06
59	0xb69afdec	-4.619118e-06
60	0x35968973	1.1215874e-06
61	0xb7611115	-1.3415022e-05
62	0xb6e1853a	-6.721032e-06
63	0x36fd7dd1	7.5546345e-06
64	0xb63ad4f1	-2.7840108e-06
65	0x3791de45	1.738885e-05
66	0x37794c83	1.4859371e-05
67	0xb760c486	-1.3397197e-05
68	0x370858c3	8.126898e-06
69	0x3786a87a	1.6052498e-05
70	0x3729b883	1.0116145e-05
71	0x380afc01	3.313646e-05
72	0x37a4fec7	1.9668963e-05
73	0xb4df7493	-4.1621806e-07
74	0x381d961b	3.7571514e-05
75	0x37422d15	1.1573798e-05
76	0x38368d36	4.3523694e-05
77	0x382d258d	4.1281386e-05
78	0xb73c6731	-1.1229699e-05
79	0xb668c5b6	-3.4685777e-06
80	0x3814c7eb	3.5472138e-05
81	0xb73332cc	-1.06810585e-05
82	0xb5aec8d8	-1.3022463e-06
83	0x3828c08d	4.0233648e-05
84	0x3711478f	8.6593345e-06
85	0xb73b10ca	-1.1149978e-05
86	0xb779c1aa	-1.48866475e-05
87	0xb6968c2f	-4.486668e-06
88	0xb80b0958	-3.3148885e-05
89	0xb8318481	-4.2323492e-05
90	0xb787e8f1	-1.6201726e-05
91	0xb7e482eb	-2.7240681e-05
92	0x378d3843	1.6834709e-05
93	0xb75522f1	-1.2703925e-05
94	0x370dc1a2	8.449339e-06
95	0x37b21ed6	2.1233613e-05
96	0x3630edf4	2.636455e-06
97	0xb800de68	-3.072471e-05
98	0xb688bbcf	-4.0749796e-06
99	0xb7d1afec	-2.4996662e-05
100	0xb5d93d8e	-1.6185675e-06
101	0x3729ee88	1.0128722e-05
102	0x36a193b2	4.815368e-06
103	0x37554219	1.2711179e-05
104	0xb706a8ce	-8.026325e-06
105	0xb738ea30	-1.1021781e-05
106	0xb8c009a1	-9.157067e-05
107	0x37f78a9f	2.9509245e-05
108	0xb5ec1c01	-1.759152e-06
109	0xb78bc5f5	-1.6662272e-05
110	0x385dd43b	5.288816e-05
111	0x3765bafb	1.3692998e-05
112	0x3772d051	1.44728265e-05
113	0x36ff3820	7.606126e-06
114	0xb7889754	-1.6282931e-05
115	0xb827ec59	-4.003602e-05
116	0xb8084317	-3.248741e-05
117	0x37d4116b	2.528048e-05
118	0xb7253b55	-9.848581e-06
119	0x36911894	4.324198e-06
120	0x37b4dc7e	2.1560347e-05
121	0xb8973c57	-7.21148e-05
122	0xb7bcd605	-2.2511007e-05
123	0xb7ebc22d	-2.8104603e-05
124	0xb72418af	-9.780909e-06
125	0xb79a5b9a	-1.8400886e-05
126	0xb7b12526	-2.1117343e-05
127	0x3788d4c3	1.6311538e-05

conv3.lin.weight f4 [128, 64]
0	0x3e376997	0.17911373
1	0xbeee957d	-0.46598426
2	0x3d9a1723	0.07523944
3	0xbd11f79b	-0.035636526
4	0x3e0173a1	0.12641765
5	0x3de9ede8	0.1142233
6	0xbe256074	-0.16150075
7	0xbdc77984	-0.09739974
8	0xbdd448ab	-0.10365423
9	0xbddb11a5	-0.10696725
10	0xbd44e235	-0.04806729
11	0x3c5f9d75	0.0136483805
12	0x3e83c7b9	0.25738314
13	0x3df936bc	0.12168643
14	0xbda5300a	-0.08065803
15	0xbe0216dc	-0.12704033
16	0x3ae94cf3	0.0017799422
17	0xba1ce43a	-0.0005984936
18	0xbdd68ae9	-0.10475714
19	0xbe1b6586	-0.15175447
20	0x3de53655	0.11192004
21	0x3d058a64	0.032602683
22	0x3d8eed4b	0.06978854
23	0xbe00234b	-0.12513463
24	0xbe3869f3	-0.18009166
25	0xbe7fc360	-0.24976873
26	0xbe5b61f1	-0.2142408
27	0x3c9227ca	0.017841239
28	0xbe19b530	-0.15010524
29	0xbcb5d194	-0.022194661
30	0x3b2a6e91	0.0026005844
31	0x3dde487c	0.10853669
32	0xbe2715e6	-0.16316947
33	0x3df67737	0.12034457
34	0xbbf774ed	-0.0075517804
35	0xbd39f2fd	-0.045397747
36	0x3e819145	0.25306144
37	0x3d8bf589	0.068339415
38	0x3e1ad9ed	0.15122195
39	0x3cdb69e0	0.026783884
40	0x3c6195a5	0.013768588
41	0xbd5e4b63	-0.054271113
42	0x3e120457	0.14259468
43	0x3ea228f7	0.3167188
44	0x3e2052d6	0.156566
45	0xbe5506f5	-0.20803435
46	0x3e5ad88c	0.21371669
47	0x3e0293ad	0.12751646
48	0x3d23e8e3	0.04001702
49	0xbea16f54	-0.3153025
50	0xbd8f8ed1	-0.07009662
51	0xbc638fe0	-0.013889283
52	0x3e0cb4ea	0.13740888
53	0x3dafe7db	0.08589145
54	0x3e9b266a	0.30302745
55	0x3bf0f4aa	0.007353385
56	0x3d2bf06d	0.041977335
57	0xbe16adc4	-0.14714724
58	0xbdc252b2	-0.09488429
59	0xbeb22a94	-0.3479811
60	0xbdfc2379	-0.12311453
61	0xbe48de79	-0.19616117
62	0x3e4200da	0.18945637
63	0xbc91758d	-0.017756248
64	0x3e6644f0	0.22487235
65	0xbe2a2fd2	-0.16619805
66	0x3d78c630	0.06073588
67	0x3e011133	0.12604217
68	0x3c365411	0.011128441
69	0x3d6bad1c	0.057538137
70	0xbe02c8bc	-0.12771887
71	0x3e84ae51	0.25914243
72	0xbdfd0ad2	-0.123555794
73	0xbea82ab0	-0.32845068
74	0xbe6a8967	-0.22903977
75	0x3ebcb267	0.3685486
76	0xbc1971ce	-0.009365512
77	0x3dd8e09a	0.10589714
78	0xbdfe9a13	-0.12431731
79	0x3e6672b4	0.22504693
80	0xbe351473	-0.17683582
81	0xbce60010	-0.028076202
82	0xbdcbdd47	-0.09954315
83	0xbdb49e03	-0.08819201
84	0xbc04ba8e	-0.008101119
85	0x3eba4047	0.36377165
86	0xbda119ed	-0.07866273
87	0x3e15e579	0.14638318
88	0x3e83c73f	0.2573795
89	0x3e382052	0.17981079
90	0xbead93ba	-0.3390177
91	0x3e0f3db9	0.13988389
92	0x3e47a76f	0.19497465
93	0x3e3f6f8b	0.18694894
94	0x3d71ef67	0.059066202
95	0xbd487e93	-0.048948836
96	0xbdca490e	-0.09877215
97	0xbc1b6dfd	-0.0094866725
98	0x3e7615b7	0.24031721
99	0xbe5802ea	-0.21094862
100	0x3dc1fff8	0.0947265
101	0x3db5a8df	0.088701
102	0x3e09fd18	0.13475454
103	0x3db09992	0.08623041
104	0x3deccf5b	0.115629874
105	0x3df3a18d	0.11896048
106	0xbe156181	-0.14587976
107	0x3d337675	0.04381414
108	0x3d45eada	0.048319675
109	0xbe2612c1	-0.16218092
110	0xbed4dc8e	-0.4157452
111	0xbe16ce67	-0.14727174
112	0x3de3815f	0.1110866
113	0xbde266ae	-0.11054741
114	0xbe19ea82	-0.15030864
115	0xbe1d84de	-0.15382716
116	0x3e6762a8	0.22596228
117	0xbd8d4258	-0.0689742
118	0xbdd00d59	-0.10158796
119	0xbd511c33	-0.051052283
120	0xbe279bb7	-0.16367994
121	0x3e187348	0.14887726
122	0xbcef63d2	-0.029222403
123	0x3d9944ad	0.07483802
124	0xbcd938a1	-0.02651626
125	0xbe81b138	-0.2533052
126	0x3e403cbf	0.18773173
127	0xbd9f0502	-0.07764627
128	0xbe527493	-0.20552282
129	0x3ed0e678	0.40800834
130	0x3e70467c	0.23464388
131	0x3e2c1a0d	0.16806813
132	0xbe77b58f	-0.24190353
133	0x3e9e8bf5	0.30966154
134	0x3e86a443	0.26297197
135	0xbdc5e36c	-0.09662518
136	0xbdd8c33a	-0.105841115
137	0x3e83c383	0.257351
138	0xbe8b6327	-0.27224085
139	0x3d9819b8	0.074267805
140	0xbe0f8cf5	-0.14018615
141	0xbd4a3e41	-0.049375776
142	0xb903ab21	-0.00012556884
143	0x3d3964f2	0.045262285
144	0xbe19cd58	-0.15019739
145	0x3ec1ea02	0.37873846
146	0xbdb55d7c	-0.08855721
147	0xbdf82bda	-0.12117739
148	0xbe06faba	-0.13181582
149	0xbdc3d878	-0.095627725
150	0x3e0dfcd7	0.13865982
151	0x3e6e7ed2	0.23290566
152	0x3d02aceb	0.03190319
153	0xbc95e31b	-0.018296769
154	0x3da2c27a	0.0794725
155	0xbc788b82	-0.01516998
156	0x3e25c069	0.1618668
157	0xbe5fe798	-0.2186569
158	0x3c06b1d3	0.008221108
159	0xbe49708d	-0.19671841
160	0x3e5c3a91	0.21506716
161	0xbe7a41b4	-0.24439126
162	0xbb3d7efd	-0.0028914802
163	0xbd06c6b1	-0.03290433
164	0xbd68d3a8	-0.056842476
165	0xbd142bed	-0.036174703
166	0x3bd2e773	0.0064362823
167	0x3dbb8cd7	0.091577224
168	0x3e9aedfa	0.30259687
169	0x3e2618b0	0.16220355
170	0x3e1fadb4	0.15593606
171	0x3e43f276	0.1913546
172	0x3c6ebf8c	0.0145720355
173	0xbd6394d6	-0.055561863
174	0xbe681818	-0.22665441
175	0x3d01a017	0.031646814
176	0x3d2bb640	0.041921854
177	0xbc506c1c	-0.012721088
178	0x3c1cf558	0.009579979
179	0xb94a8bf0	-0.00019316352
180	0x3d08b181	0.033372406
181	0x3e91207f	0.28345105
182	0xbe2eb3b7	-0.17060743
183	0x3e15e8c9	0.14639582
184	0xbea92009	-0.33032253
185	0x3d8c4c79	0.068505235
186	0xbcec6265	-0.028855512
187	0x3d2b321a	0.041795827
188	0x3d00cc87	0.031445052
189	0x3e2b1bc6	0.16709813
190	0xbddd0bc4	-0.1079326
191	0xbe4c7723	-0.19967322
192	0x3d948eb3	0.0725378
193	0x3ddd7b71	0.1081456
194	0xbc7cfe74	-0.015441526
195	0x3c9846c9	0.01858844
196	0x3df99cae	0.121880874
197	0x3e0ec110	0.13940835
198	0x3d9283df	0.07154059
199	0x3cbd771b	0.023128083
200	0x3e60caca	0.21952358
201	0x3e093c42	0.13401893
202	0x3dff9e4e	0.12481366
203	0x3dc36198	0.09540099
204	0x3e2872bc	0.16450018
205	0xbc296ed0	-0.010341361
206	0x3d95ba9a	0.07310982
207	0xbe137d05	-0.1440316
208	0x3dd63b79	0.10460562
209	0x3e014027	0.12622128
210	0x3e3bcc19	0.18339576
211	0x3ea278d9	0.31732824
212	0x3d6170e6	0.05503931
213	0x3d1d7323	0.03843988
214	0xbd9ff780	-0.07810879
215	0xbe4da06d	-0.20080729
216	0xbe132b81	-0.14372064
217	0x3d4887f4	0.04895778
218	0x3e3ccf9d	0.18438573
219	0x3d061a62	0.032740004
220	0xbe929256	-0.2862727
221	0x3e8671da	0.26258737
222	0xbcc3b0f3	-0.023888087
223	0xbe06c6e9	-0.13161816
224	0x3e4d2463	0.20033412
225	0x3e866282	0.2624703
226	0x3de0439d	0.10950396
227	0x3e5522ce	0.20814058
228	0x3dae86ae	0.08521782
229	0x3e4fba29	0.20285858
230	0x3c893f7b	0.016753903
231	0x3dcffbaa	0.10155423
232	0x3d99308a	0.07479961
233	0xbddf3442	-0.10898639
234	0x3dcad16d	0.09903226
235	0x3d984245	0.07434515
236	0x3da5e616	0.08100526
237	0x3db1d7b4	0.0868372
238	0x3d4e4f7c	0.05036877
239	0x3e1c06ba	0.15236941
240	0x3e867339	0.26259783
241	0x3bb6ed5e	0.0055824956
242	0x3d75bbbf	0.0599935
243	0x3e31405c	0.17309707
244	0x3d66e3e2	0.05636967
245	0x3e69750f	0.2279856
246	0x3e7134f0	0.2355535
247	0x3e2fc2e8	0.17164195
248	0x3e9a1a0b	0.30097994
249	0xbd244f2e	-0.040114574
250	0xbd72c28e	-0.059267573
251	0x3d84c8a9	0.064835854
252	0x3e4dacaa	0.20085397
253	0x3ccc35e3	0.024928039
254	0xbbf749a6	-0.0075466214
255	0x3df5423f	0.11975526

conv4.bias f4 [256]
0	0xbd510208	-0.051027328
1	0xbdc052f1	-0.0939082
2	0xbc796a09	-0.015223035
3	0x3f87e0c8	1.0615473
4	0xbd581676	-0.052755795
5	0x3ce9f2f0	0.028558224
6	0x3d4be66f	0.049780305
7	0xbd39b4f1	-0.045338575
8	0xbe051484	-0.12996107
9	0xbde7746f	-0.11301505
10	0xbe18b6fe	-0.14913556
11	0x3e9b344d	0.3031334
12	0xbe182bf7	-0.14860521
13	0xbeccdcc0	-0.4001217
14	0x3e4faab7	0.20279966
15	0x3e043f13	0.12914686
16	0xbe150d7c	-0.14555925
17	0xbeb2879b	-0.34869084
18	0xbea70b37	-0.32625744
19	0xbe902cbc	-0.2815913
20	0xbe13f821	-0.14450122
21	0x3d75b792	0.05998952
22	0xbe39009c	-0.18066639
23	0xbedc568b	-0.43034777
24	0xbdc4be36	-0.09606592
25	0xbdc6dae1	-0.097097166
26	0xbcc97703	-0.024592882
27	0xbe2dccde	-0.16972682
28	0xbeae771c	-0.34075248
29	0x3b530e4c	0.0032204567
30	0xbe59002f	-0.21191476
31	0xbe175c8e	-0.147814
32	0x3c1ce117	0.00957515
33	0x3d521bbe	0.05129599
34	0xbd612b40	-0.054972887
35	0xbe130635	-0.14357837
36	0xbe37d249	-0.17951311
37	0xbe64ed53	-0.22356157
38	0xbe61eebd	-0.22063728
39	0xbb93dd9d	-0.0045125023
40	0xbe6bfe89	-0.23046316
41	0x3f860d38	1.0472784
42	0xbe16a7f0	-0.147125
43	0x3e7e134b	0.24812047
44	0xbd2f0eb9	-0.04273865
45	0xbe3c6825	-0.18399103
46	0xbdd0a15a	-0.10187025
47	0x3c160ef7	0.009158841
48	0x3e3949f0	0.18094611
49	0xbd84be27	-0.06481581
50	0x3e377de1	0.17919113
51	0xbdb98a1b	-0.09059545
52	0xbe5e4ee9	-0.2170979
53	0xbe7109c0	-0.23538876
54	0xbe76f049	-0.24115099
55	0xbc39a1b9	-0.011330062
56	0xbf0e0be9	-0.55486923
57	0x3dcfb071	0.101410754
58	0xbe1c17b8	-0.15243423
59	0xbe43445f	-0.1906905
60	0xbf105242	-0.56375515
61	0xbeb74cf9	-0.35800913
62	0xbeb5c7ee	-0.35504097
63	0x3ecf7552	0.40519196
64	0xbe455cf5	-0.19273742
65	0xbd03f299	-0.03221378
66	0x3ce32baa	0.027730782
67	0xbd0242db	-0.03180204
68	0xbe516f07	-0.2045251
69	0xbdf38d7d	-0.11892221
70	0xbdb002a9	-0.085942574
71	0xbe9356d6	-0.28777188
72	0xbe68b32c	-0.22724599
73	0xbedf10f3	-0.4356762
74	0x3c234441	0.0099650035
75	0xbd8a506c	-0.067536205
76	0xbe30656d	-0.17226191
77	0xbe19b419	-0.15010108
78	0xbe976df4	-0.29576075
79	0xbbea9c71	-0.0071597626
80	0xbd6f8bdd	-0.058482993
81	0xbe692609	-0.22768416
82	0x3dd08d99	0.101832576
83	0xbe00104e	-0.1250622
84	0x3eb671a7	0.35633585
85	0xbba020a7	-0.004886705
86	0x3dd1afea	0.10238631
87	0xbef6260d	-0.48075905
88	0xbdd7eb06	-0.10542874
89	0x3e80c0c3	0.25147066
90	0xbd5fabc3	-0.054607164
91	0xbc7212e4	-0.014775012
92	0x3df7decf	0.12103044
93	0xbd6c1d28	-0.057644993
94	0xbeca5466	-0.39517516
95	0xbd392d43	-0.04520918
96	0xbe8e9136	-0.27845162
97	0xbe9c8c4f	-0.30575797
98	0xbd12ba87	-0.035822418
99	0xbe336543	-0.17519097
100	0xbe3894dc	-0.18025535
101	0xbe1f9978	-0.15585887
102	0xbe9caa6e	-0.30598778
103	0xbed8fb91	-0.4237943
104	0xbe0cf995	-0.13767083
105	0xbeab4269	-0.33449104
106	0xbdbaa9d8	-0.091144264
107	0x3d896bc8	0.06710011
108	0xbc075872	-0.008260833
109	0x3ee17182	0.44031912
110	0xbd76f482	-0.060291775
111	0xbe894237	-0.2680833
112	0xbe085f7a	-0.13317671
113	0x3c91907a	0.017769087
114	0xbe1dd94f	-0.15414928
115	0x3f89578a	1.072984
116	0xbec3599b	-0.381543
117	0xbdf8a416	-0.12140672
118	0xbef57939	-0.47944048
119	0xbdcf3c36	-0.10118906
120	0xbeb88a36	-0.36042947
121	0xbe0f6489	-0.14003195
122	0x3ccdd87b	0.02512764
123	0xba6eb9a3	-0.00091066415
124	0xbe665009	-0.22491468
125	0x3d0d5d79	0.03451297
126	0x3d109d4f	0.03530627
127	0xbbe5fee2	-0.00701891
128	0xbd8392bf	-0.06424474
129	0x3e948a22	0.29011637
130	0x3da0c569	0.07850153
131	0xbdf6a445	-0.12043051
132	0xbf8d27c0	-1.1027756
133	0xbefe5d8a	-0.4968074
134	0xbeb6b16e	-0.35682243
135	0xbda81d68	-0.08208734
136	0xbdca0c9e	-0.09865688
137	0x3d75aa66	0.059976958
138	0xbd9918dc	-0.07475445
139	0x3dcdf9e8	0.100574315
140	0xbd59511b	-0.053055864
141	0x3c6fe260	0.014641374
142	0xbee9af60	-0.45641613
143	0xbe9fba0e	-0.31196636
144	0x3c3a9d14	0.011389989
145	0x3d47541d	0.0486642
146	0xbe8c6cb8	-0.27426696
147	0x3edeb803	0.43499765
148	0x3d2d2d02	0.04227925
149	0x3f792a99	0.97330624
150	0x3d77dc08	0.060512573
151	0x3e5a688c	0.21328944
152	0x3e1173b4	0.14204293
153	0xbdb0ae25	-0.086269654
154	0xbe426e69	-0.1898743
155	0xbddf7fb6	-0.10913031
156	0xbea6bf84	-0.3256799
157	0xbf1a8eaa	-0.6037394
158	0xbdeb36db	-0.11485072
159	0xbd9fcc5d	-0.07802651
160	0xbe67f0fc	-0.22650522
161	0x3c0bb473	0.008526909
162	0xbdf328b5	-0.118729986
163	0x3f608852	0.8770801
164	0x3da3ce69	0.07998354
165	0xbe591216	-0.21198305
166	0xbed8d5cc	-0.42350614
167	0xbddcdf28	-0.10784751
168	0xbc935dcb	-0.01798906
169	0xbd93b02b	-0.07211336
170	0xbe693887	-0.2277547
171	0x3d26f26a	0.040758528
172	0x3e4c1d63	0.19933085
173	0xbe3a0a3c	-0.18167967
174	0xbeed2a69	-0.4632142
175	0xbc49cdfc	-0.012317177
176	0x3e02b00f	0.12762474
177	0xbd9f1027	-0.07766753
178	0xbe20f1dd	-0.15717264
179	0x3c1bc7bd	0.009508071
180	0x3de5428d	0.11194334
181	0x3e48b252	0.19599274
182	0xbd1dccf1	-0.038525525
183	0xbeb8ad3a	-0.3606966
184	0xbd11abe8	-0.035564333
185	0xbe0d0909	-0.13772978
186	0xbe93e75b	-0.28887448
187	0xbecc6dc2	-0.3992749
188	0xbe387e78	-0.18016994
189	0x3de81e6a	0.11333926
190	0xbd2c59e4	-0.042077914
191	0xbea502e7	-0.32228777
192	0x3e78a517	0.24281727
193	0xbd7c2a64	-0.061563864
194	0xbdb2a69c	-0.087231845
195	0xbc8b22c5	-0.016984353
196	0xbe1ac7c4	-0.15115267
197	0x3e21e89a	0.15811387
198	0x3e13f99f	0.14450692
199	0xbde6db69	-0.11272318
200	0x3e1448e7	0.14480935
201	0xbeb889d7	-0.36042663
202	0x3d9c716c	0.07638821
203	0xbd55b24f	-0.052172
204	0xbd1f50d3	-0.03889544
205	0x3e5120e1	0.20422699
206	0xbd845f81	-0.064635284
207	0xbf815ab5	-1.0105807
208	0xbf470980	-0.7774887
209	0xbf8a2cf9	-1.0794975
210	0x3d38b68f	0.045095976
211	0x3d2e487d	0.0425496
212	0xbe06ce70	-0.13164687
213	0xbe07412f	-0.1320846
214	0xbf4bc045	-0.79590255
215	0x3cca699c	0.024708562
216	0xbf151647	-0.5823712
217	0xbd9e8374	-0.077399164
218	0xbe13ea98	-0.14444959
219	0x3db64184	0.08899215
220	0xbe64427a	-0.22290984
221	0xbe338884	-0.17532545
222	0xbe1ca369	-0.15296711
223	0xbeafb8cc	-0.34320676
224	0x3d2bbd1e	0.041928403
225	0xbd89d76a	-0.0673054
226	0xbe4db556	-0.20088705
227	0xbe201c6b	-0.1563584
228	0x3db6804f	0.08911192
229	0x3e32db50	0.17466474
230	0xbe942136	-0.28931588
231	0xbebdac86	-0.37045687
232	0xbc994416	-0.018709224
233	0xbeb41521	-0.3517237
234	0xbeb64ee6	-0.3560707
235	0xbc674935	-0.014116575
236	0xbb2e3103	-0.0026579506
237	0xbd9d59a9	-0.07683117
238	0xbe31045b	-0.17286818
239	0xbea7ca81	-0.32771686
240	0x3dcb0825	0.09913663
241	0x3dc47f0c	0.09594545
242	0xbf048101	-0.51759344
243	0x3e126090	0.14294648
244	0xbec47d3e	-0.38376802
245	0x3da5a9de	0.0808904
246	0x3cd2134b	0.025643965
247	0xbe9ba3e5	-0.3039848
248	0xbd9fe59d	-0.07807467
249	0xbf06ac3e	-0.5260657
250	0xbd631a07	-0.055444743
251	0xbe22df43	-0.1590548
252	0x3eed2997	0.46320793
253	0x3e8329b8	0.25617766
254	0xbe9aa61b	-0.30204853
255	0x3e980cf3	0.2969738

conv4.lin.weight f4 [256, 128]
0	0xbddb191b	-0.10698148
1	0x3dc3dc49	0.095635004
2	0xbe9d06ac	-0.30669153
3	0xbe1c5a65	-0.15268858
4	0xbd65596f	-0.055993494
5	0xbe821789	-0.2540858
6	0xbe25e829	-0.16201843
7	0xbd67d7f7	-0.056602444
8	0xbf2593c1	-0.6467858
9	0xbdf38c7d	-0.118920304
10	0x3e48145e	0.1953902
11	0x3d9db231	0.07700003
12	0xbe065259	-0.1311735
13	0xbe1068a7	-0.14102422
14	0x3c823930	0.01589641
15	0xbea73acb	-0.32662043
16	0xbdb04fb8	-0.08608955
17	0xbd50466c	-0.05084841
18	0xbe0b560f	-0.13607047
19	0xbdca01a2	-0.09863593
20	0xbe79a556	-0.24379477
21	0xbe1b3463	-0.15156703
22	0xbf2131d6	-0.6296667
23	0xbd3a8fd9	-0.04554734
24	0xbf02a82a	-0.5103785
25	0xbed9f49a	-0.4256943
26	0x3ca20c11	0.019781144
27	0xbe283f37	-0.16430365
28	0xbc636658	-0.013879381
29	0xbcd4b4dc	-0.025965147
30	0x3bcb0829	0.006196041
31	0xbd46bf6c	-0.048522398
32	0xbd736692	-0.05942399
33	0xbe850b14	-0.25985014
34	0xbd528000	-0.0513916
35	0x3e01fc19	0.12693824
36	0xbeecba81	-0.4623604
37	0x3e7e3664	0.24825436
38	0xbe46a84d	-0.19400139
39	0x3dd06063	0.10174634
40	0xbdf807bc	-0.1211085
41	0xbd167ba5	-0.03673901
42	0xbdd887d4	-0.10572782
43	0xbe61fea3	-0.22069792
44	0xbe9c8220	-0.30568027
45	0x3d0eecfd	0.03489398
46	0x3c54995c	0.012976017
47	0xbd9c7c1c	-0.076408595
48	0x3d646243	0.055757772
49	0xbdb6f5ea	-0.08933623
50	0xbdc600ae	-0.096680984
51	0x3dd513df	0.10404181
52	0xbed7ddec	-0.421615
53	0xbec250a2	-0.37952143
54	0xbdbafd1c	-0.09130308
55	0xbc843a7d	-0.01614117
56	0xbe8284c0	-0.25491905
57	0xbd456d19	-0.048199747
58	0x3d42c678	0.047552556
59	0xbd21647c	-0.03940247
60	0x3ca92270	0.020646304
61	0x3d23fe74	0.040037587
62	0xbce47bab	-0.027891
63	0xbdf88a4a	-0.121357515
64	0x3d3487c4	0.04407479
65	0xbd60bb26	-0.05486598
66	0xbe2e03b8	-0.16993606
67	0xbe02c99d	-0.12772222
68	0xba7d95f2	-0.00096735277
69	0xbcaed47a	-0.021341551
70	0xbd897ff7	-0.067138605
71	0xbd758d37	-0.059949126
72	0xbc8d666f	-0.017260758
73	0xbd9a4567	-0.07532769
74	0xbf09ef83	-0.5388109
75	0xbece9fb6	-0.40356225
76	0xbee9711e	-0.45594114
77	0xbeb80fc8	-0.3594954
78	0xbda3b181	-0.079928406
79	0x3e6efc55	0.23338445
80	0xbcc8238a	-0.024431009
81	0xbe6b3973	-0.22971134
82	0xbba4b91c	-0.0050269496
83	0x3e35e0d9	0.17761554
84	0x3e01bd73	0.12669925
85	0xbc3172ea	-0.01083062
86	0x3dde7776	0.10862629
87	0xbd0f7de5	-0.03503217
88	0xbd37764f	-0.044790562
89	0xbea66923	-0.32502088
90	0x3cfc09bf	0.030766366
91	0xbe111d98	-0.14171445
92	0x3cd9ca5e	0.026585754
93	0x3e2ef2a8	0.17084754
94	0xbd0608e6	-0.03272333
95	0x3ded79c0	0.115954876
96	0xbe2fe8ac	-0.17178601
97	0xbe1d6333	-0.15369873
98	0xbe06cee9	-0.13164867
99	0xbd532082	-0.051544674
100	0x3d763b2f	0.060115036
101	0x3dc75525	0.09733037
102	0xbdbbbf73	-0.091673754
103	0xbded5b42	-0.11589672
104	0xbf2e5afc	-0.6810758
105	0x3d8632c7	0.06552654
106	0x3e6cd5c7	0.23128425
107	0xbec695a4	-0.38786042
108	0xbe96be7f	-0.29442212
109	0x3dcc5fcd	0.0997921
110	0xbd0eb658	-0.034841865
111	0x3e39a191	0.18128039
112	0xbd84e6b2	-0.06489314
113	0xbe98a6ce	-0.29814762
114	0xbdf8d79b	-0.121504985
115	0x3cbb6380	0.022874594
116	0xbea38964	-0.31940758
117	0xbe80a02e	-0.25122207
118	0xbeaf09ce	-0.34187168
119	0x3d86ba4a	0.065785006
120	0x3c295111	0.010334269
121	0xbe0d92b2	-0.13825491
122	0xbc5251b5	-0.012836863
123	0x3e8cf79d	0.27532664
124	0xbe834471	-0.25638154
125	0xbe12c668	-0.14333498
126	0xbdaeeef7	-0.08541673
127	0xbd108507	-0.035283115
128	0x3cd5a19b	0.026078036
129	0xbda59084	-0.08084205
130	0xbd9b24d3	-0.07575383
131	0xbd668b97	-0.056285467
132	0x3bf2740f	0.007399089
133	0xbc6f1e01	-0.014594556
134	0xbd4ff314	-0.050768927
135	0xbc39d700	-0.011342764
136	0x3d3fce93	0.046827864
137	0xbd843cc2	-0.06456901
138	0xbd62d30c	-0.05537705
139	0x3d4c1228	0.049822003
140	0x3ccf4163	0.025299734
141	0xbd962f11	-0.07333196
142	0xbab3927b	-0.0013700271
143	0xbd36ff19	-0.044676874
144	0xbbf0c03e	-0.007347136
145	0x3d8178f1	0.06321896
146	0xbd8866dd	-0.066602446
147	0x3ae92491	0.0017787387
148	0xbd596d9d	-0.05308305
149	0x3b3ef75e	0.0029139142
150	0xbd01b7c5	-0.031669397
151	0xbc619eb0	-0.013770744
152	0x3c32e814	0.01091959
153	0xbc585414	-0.01320364
154	0xbd236efc	-0.039900765
155	0xbd977230	-0.073948264
156	0x3d0136dd	0.031546462
157	0xbbb30fc4	-0.005464526
158	0xbd4f7656	-0.050649963
159	0xbc7be3e5	-0.0153741585
160	0xbda3ebc6	-0.080039546
161	0xbc6d99c9	-0.014501997
162	0xbcde48ff	-0.027134417
163	0xbc881323	-0.016610688
164	0xbd1dfdce	-0.038572125
165	0xbe3745f2	-0.17897776
166	0x3bdf1f67	0.0068091634
167	0x3c8c8a4e	0.017155793
168	0x3ca781dc	0.020447664
169	0x3c102273	0.008797276
170	0xbbc6b27e	-0.0060637584
171	0xbe000c9b	-0.12504809
172	0xbd869b81	-0.06572629
173	0x3d1d0726	0.038336895
174	0x3cc72dd0	0.024313837
175	0xbb252cf9	-0.0025203808
176	0x3cc097db	0.02350991
177	0x3d7de18e	0.061982684
178	0x3bf431ff	0.007452249
179	0x3d3ce534	0.046117023
180	0x3c17818f	0.009247198
181	0xbd5de909	-0.054177318
182	0x3b9dca64	0.0048153866
183	0xbd0611a4	-0.032731667
184	0xbcb7fc85	-0.022459278
185	0xbd18a222	-0.037263997
186	0xbd975925	-0.0739005
187	0xbdd183b2	-0.10230197
188	0x3d7a6eb6	0.06114074
189	0x3dbcd8cd	0.09221039
190	0xbc12de12	-0.0089640785
191	0xbb6812b1	-0.0035411532
192	0x3c203023	0.009777102
193	0x3cf14d68	0.029455855
194	0x3d024da6	0.031812333
195	0xbca4be2c	-0.020110212
196	0x3cc02703	0.023456102
197	0xbda3d54a	-0.07999666
198	0xbc8c0aa3	-0.017094916
199	0xbadae801	-0.0016701223
200	0xbcc1a68d	-0.023638988
201	0x3c0ffcbb	0.008788283
202	0xbc9f162a	-0.019419748
203	0xbcfc55b7	-0.03080259
204	0xbdb6d575	-0.089274324
205	0xbb5b7aba	-0.0033489899
206	0x3cf24021	0.029571595
207	0x3c774261	0.01509151
208	0xbd82a22e	-0.063785896
209	0xbb55ec4a	-0.003264206
210	0xbbcf98df	-0.0063353623
211	0x3b3efd86	0.002914281
212	0xbd028e25	-0.03187384
213	0xbc3e0515	-0.011597891
214	0x3c6cb6f0	0.014447913
215	0xbc1e6740	-0.009668171
216	0xbdf9d3e5	-0.12198619
217	0xbd8305d3	-0.06397595
218	0x3c73f9cc	0.014891099
219	0xba63b2d0	-0.0008686008
220	0x3c6873f3	0.014187801
221	0xbd990678	-0.07471937
222	0xbd009f73	-0.031402063
223	0xbc709cb5	-0.014685799
224	0xbba78af5	-0.0051130005
225	0xbd752f1e	-0.059859388
226	0xbd0ad4a4	-0.033894196
227	0x3d6bb930	0.057549655
228	0xbd2e687c	-0.042580113
229	0x3d416991	0.047219817
230	0xbda893ec	-0.08231339
231	0xbd61015f	-0.05493295
232	0xbd58a0c5	-0.052887697
233	0xbc484f99	-0.012226009
234	0x3daa7eac	0.08324942
235	0x3b022bb9	0.0019862487
236	0xbca8c7cd	-0.020603085
237	0xbdb1d7e0	-0.08683753
238	0xbd4cc55f	-0.049992915
239	0xbdc77e7e	-0.09740923
240	0x3b73e0e4	0.0037212903
241	0x3d24ef90	0.040267527
242	0xbccdd9cb	-0.025128266
243	0xbc1308e2	-0.008974286
244	0x3cdc8b1e	0.026921805
245	0xbb553d00	-0.003253758
246	0xbdae2dfa	-0.08504863
247	0xbb99db8e	-0.0046953624
248	0x3bf4b570	0.007467918
249	0xbdb1e895	-0.086869396
250	0xbc5d2974	-0.013498653
251	0x3d6f7e41	0.058470014
252	0xbbe68490	-0.0070348457
253	0x3bb39db5	0.0054814466
254	0x3ac6176d	0.0015113183
255	0xbc8aac64	-0.016927905

conv5.bias f4 [256]
0	0xb815f838	-3.575554e-05
1	0x3715da73	8.931954e-06
2	0x361e437f	2.3583123e-06
3	0xb7ecab83	-2.8213259e-05
4	0x38224ad7	3.869351e-05
5	0x358a3164	1.0296176e-06
6	0xb65a7fb0	-3.2558855e-06
7	0x38168d82	3.5894576e-05
8	0xb7dcd9a8	-2.6327398e-05
9	0xb796693c	-1.7930397e-05
10	0xb77f44a0	-1.5215162e-05
11	0x37af9085	2.0928923e-05
12	0xb82f3037	-4.1768155e-05
13	0xb77565cb	-1.46268385e-05
14	0xb7b20667	-2.1222235e-05
15	0xb84214d4	-4.6272602e-05
16	0xb844b2f6	-4.6896712e-05
17	0xb81695f7	-3.5902453e-05
18	0xb86c62b8	-5.6358724e-05
19	0x38349c7f	4.3061093e-05
20	0xb7b1cb71	-2.1194779e-05
21	0x365b75f7	3.2702208e-06
22	0x37986045	1.8164641e-05
23	0x388ae219	6.622467e-05
24	0x37fcee87	3.0151814e-05
25	0xb8245890	-3.9183127e-05
26	0xb8072eac	-3.2229975e-05
27	0xb7b642ae	-2.172714e-05
28	0x37f1061e	2.8732287e-05
29	0xb67ce28f	-3.76828e-06
30	0x387391fb	5.807167e-05
31	0x37aabb71	2.0352863e-05
32	0x379c7f07	1.86558e-05
33	0x36c252d2	5.791292e-06
34	0xb7b87eb8	-2.1993517e-05
35	0xb6337855	-2.674312e-06
36	0x3809d33d	3.2860076e-05
37	0xb723a3e3	-9.753715e-06
38	0xb8255dd7	-3.942646e-05
39	0xb81142e4	-3.463299e-05
40	0xb8039b1f	-3.13773e-05
41	0xb6abbdf0	-5.1183088e-06
42	0xb79ba91f	-1.8556193e-05
43	0xb8092724	-3.2699798e-05
44	0xb748b464	-1.1962929e-05
45	0x3830fec5	4.2198943e-05
46	0xb78c8099	-1.6749183e-05
47	0xb76153b3	-1.3430533e-05
48	0x382efefc	4.1722305e-05
49	0x388307d4	6.248025e-05
50	0x355d715c	8.2493875e-07
51	0xb7b62936	-2.1715281e-05
52	0x3933846d	0.00017120103
53	0xb806ed6f	-3.2169217e-05
54	0xb524a9da	-6.134193e-07
55	0xb76017c2	-1.3356972e-05
56	0xb82d40e9	-4.1306866e-05
57	0xb88c2dce	-6.684252e-05
58	0xb61f1791	-2.3706564e-06
59	0x37a20cd3	1.9317877e-05
60	0x381970db	3.6583147e-05
61	0x37b89855	2.2005444e-05
62	0xb7ce237c	-2.4573637e-05
63	0xb7abf726	-2.0499876e-05
64	0x37afa3fd	2.0937989e-05
65	0xb78e4652	-1.6960465e-05
66	0x37f84cb6	2.9599625e-05
67	0x37ba7192	2.2225813e-05
68	0xb79bf474	-1.8591272e-05
69	0x36264d37	2.4780873e-06
70	0xb8889285	-6.512277e-05
71	0x37cc971e	2.4389064e-05
72	0x38e81f46	0.00011068447
73	0x352c6a67	6.422983e-07
74	0xb7c7db9d	-2.3824914e-05
75	0xb72ff746	-1.0488386e-05
76	0xb7ab74b2	-2.0439129e-05
77	0x380520a5	3.1740074e-05
78	0x38243f8b	3.9159826e-05
79	0xb7a0a359	-1.9149551e-05
80	0xb8233de5	-3.8919872e-05
81	0xb82b7b08	-4.088416e-05
82	0x372f647e	1.04542105e-05
83	0x38211efe	3.8414255e-05
84	0xb809d2d3	-3.285969e-05
85	0x36bb5530	5.5829514e-06
86	0xb6519940	-3.123263e-06
87	0x378976ec	1.638705e-05
88	0x391a7b39	0.00014732488
89	0x37836308	1.5662532e-05
90	0xb7ce0a51	-2.4561918e-05
91	0x3822cf64	3.8816957e-05
92	0xb8520659	-5.0073813e-05
93	0xb8ecf702	-0.00011299366
94	0xb7d5026e	-2.539271e-05
95	0x37e25ff1	2.6985976e-05
96	0xb82fb34d	-4.189024e-05
97	0x386f4a7b	5.7051406e-05
98	0x375a2285	1.300185e-05
99	0x38e8ef83	0.000111072346
100	0x38094b61	3.2733547e-05
101	0x375d8dfc	1.3205685e-05
102	0x37595022	1.2952865e-05
103	0xb82c9a2b	-4.1151576e-05
104	0xb7333e6c	-1.0683765e-05
105	0x3787b085	1.6175452e-05
106	0xb82cab49	-4.1167517e-05
107	0xb7ec3b25	-2.8160934e-05
108	0xb72b7bad	-1.022119e-05
109	0xb6df8fc3	-6.662654e-06
110	0xb849b747	-4.8092825e-05
111	0x37808819	1.5322164e-05
112	0xb819ac68	-3.663861e-05
113	0xb7c04da7	-2.2924343e-05
114	0x37770783	1.4724096e-05
115	0xb833d035	-4.2870834e-05
116	0x36aa09e7	5.0675476e-06
117	0xb744ed18	-1.1737713e-05
118	0x3816ed9b	3.5984074e-05
119	0xb716ceea	-8.988873e-06
120	0x3781411d	1.5408319e-05
121	0xb83291c9	-4.257428e-05
122	0xb7059c0d	-7.963751e-06
123	0xb75f1b24	-1.3298155e-05
124	0x3887cd92	6.475592e-05
125	0xb8d7f944	-0.00010298428
126	0xb7a1706e	-1.924505e-05
127	0x37409500	1.1478784e-05
128	0xb7f0f6b9	-2.8725119e-05
129	0x377a210e	1.4908857e-05
130	0x37b0f41a	2.1094504e-05
131	0x37fda57c	3.023701e-05
132	0xb85c59b5	-5.2535634e-05
133	0x36ceba36	6.160956e-06
134	0x38c6911a	9.468403e-05
135	0x3918eb05	0.00014583401
136	0xb796fb37	-1.7998374e-05
137	0x383e714d	4.540505e-05
138	0xb88e0985	-6.772861e-05
139	0xb8910cea	-6.916544e-05
140	0xb65e9d0c	-3.3171991e-06
141	0x37cdfc8b	2.4555504e-05
142	0x377332be	1.4495743e-05
143	0xb809bed3	-3.2841064e-05
144	0x3882b4c2	6.232552e-05
145	0x378abdc9	1.6539258e-05
146	0xb815937a	-3.5661717e-05
147	0x389224c6	6.968672e-05
148	0xb8137092	-3.515237e-05
149	0x36d93dbb	6.4742903e-06
150	0x3893c1b3	7.0455855e-05
151	0xb90562a9	-0.00012720622
152	0xb79de440	-1.8822146e-05
153	0xb8fcabe3	-0.00012048313
154	0x3801a952	3.091369e-05
155	0xb6ae9168	-5.2025316e-06
156	0xb8199f26	-3.662626e-05
157	0x3819372e	3.6529433e-05
158	0xb8185d8c	-3.6326746e-05
159	0xb78004f5	-1.5261097e-05
160	0xb7d76906	-2.5678903e-05
161	0xb887f0fb	-6.482188e-05
162	0xb81f45a0	-3.7973397e-05
163	0xb78906d7	-1.6334858e-05
164	0xb8b04932	-8.405968e-05
165	0xb708a53d	-8.144704e-06
166	0x388c3222	6.685058e-05
167	0x37103a09	8.596581e-06
168	0xb671462a	-3.595264e-06
169	0xb5d22101	-1.5655825e-06
170	0xb7a2b929	-1.9398127e-05
171	0x389c420a	7.4509604e-05
172	0xb7b868ef	-2.1983373e-05
173	0x38bc6f4d	8.98527e-05
174	0x379aa5a0	1.8435356e-05
175	0xb83ddaa8	-4.526475e-05
176	0xb7206ea4	-9.562504e-06
177	0x3671fd3b	3.6059198e-06
178	0xb6523802	-3.132504e-06
179	0x38c2e4ba	9.2932445e-05
180	0xb79089dd	-1.7230335e-05
181	0xb7e07518	-2.6757407e-05
182	0xb88ceb88	-6.719591e-05
183	0x372492c7	9.809336e-06
184	0xb7f48744	-2.9150055e-05
185	0x378d4d04	1.6844373e-05
186	0xb781cc7a	-1.5473215e-05
187	0x38b9c087	8.8573484e-05
188	0xb6debafa	-6.6378825e-06
189	0x3784404b	1.5765565e-05
190	0x37836580	1.5663682e-05
191	0x368026c8	3.819212e-06
192	0x388f7a22	6.8415204e-05
193	0x379bddf8	1.8580802e-05
194	0xb70a1d07	-8.232199e-06
195	0xb74ed47e	-1.23280315e-05
196	0xb873618d	-5.8026566e-05
197	0xb73dc564	-1.1311236e-05
198	0x381c9cc8	3.7339312e-05
199	0xb738a50c	-1.1005683e-05
200	0xb7158dec	-8.914136e-06
201	0xb7823e88	-1.5526326e-05
202	0xb8221571	-3.864378e-05
203	0xb82c9960	-4.1150837e-05
204	0x34e311dd	4.2295042e-07
205	0x387d6dae	6.0422048e-05
206	0xb8207768	-3.825818e-05
207	0x3834d023	4.3109187e-05
208	0xb8a44e03	-7.83466e-05
209	0xb72e806d	-1.040111e-05
210	0xb793b302	-1.7607123e-05
211	0x36b3de11	5.3604676e-06
212	0x363132a9	2.6404543e-06
213	0xb8499ec6	-4.8070004e-05
214	0x3565aa3b	8.5556866e-07
215	0xb7e8f77d	-2.77718e-05
216	0xb8861a9d	-6.394575e-05
217	0xb799e73a	-1.8346695e-05
218	0xb72ee304	-1.0424064e-05
219	0x3711a537	8.681141e-06
220	0x372e5d94	1.0392996e-05
221	0xb726eed5	-9.949978e-06
222	0x363720f9	2.7288318e-06
223	0x391d705e	0.00015014547
224	0xb60a0fa9	-2.0572718e-06
225	0x375c3bf2	1.3126979e-05
226	0x383df717	4.529123e-05
227	0x38b97ba1	8.844515e-05
228	0xb87c09f5	-6.0090755e-05
229	0xb7199268	-9.1535985e-06
230	0xb70b5ffd	-8.307395e-06
231	0xb8010807	-3.0763473e-05
232	0x3868e441	5.552569e-05
233	0xb831bb81	-4.2374715e-05
234	0x372fcc7a	1.0478421e-05
235	0xb8115824	-3.465278e-05
236	0xb6fe542c	-7.579589e-06
237	0x39094ea8	0.0001309464
238	0x370adec8	8.277311e-06
239	0xb81f2e02	-3.7951402e-05
240	0xb808da9b	-3.262852e-05
241	0xb818ded4	-3.644715e-05
242	0x37155933	8.90186e-06
243	0x38fb601d	0.00011986515
244	0xb893eaf0	-7.053267e-05
245	0xb824b1ad	-3.926612e-05
246	0x391f284d	0.00015178435
247	0xb768c4e3	-1.3874119e-05
248	0x37c33192	2.3268894e-05
249	0x35a80436	1.2518201e-06
250	0x3787823d	1.6153901e-05
251	0xb84ef4a2	-4.934206e-05
252	0xb84075bc	-4.5886016e-05
253	0x3734473e	1.0745423e-05
254	0x38663c67	5.4892527e-05
255	0x385682c0	5.1143346e-05
