weights/6-5-0_split_4.pt (torch, 473413 bytes, 26 tensors)

conv1.bias f4 [64]
000000 22 06 f3 37 39 1e 7b 36 8b 72 2b 37 1b 0b 5c 37
       2.8970713e-05 3.7419506e-06 1.0219063e-05 1.31156075e-05
000010 e6 e1 3a 37 fe 3e 3d 37 a4 fe e8 36 80 eb 87 33
       1.113906e-05 1.1279944e-05 6.943783e-06 6.3292646e-08
000020 f6 c3 36 b5 19 31 3f 36 58 c8 a9 37 36 7f 09 37
       -6.8085444e-07 2.8489796e-06 2.0239662e-05 8.195455e-06
000030 fa bb 22 b6 f5 a0 5f 37 cf c6 58 37 2c a0 5d 36
       -2.4249298e-06 1.33293115e-05 1.2920892e-05 3.3024799e-06
000040 e2 8f 81 37 4d 60 9b 37 82 d2 99 35 c4 12 f5 35
       1.5444999e-05 1.8522283e-05 1.1460654e-06 1.8259384e-06
000050 2b aa b2 36 76 4f 07 37 48 1e 8a 37 e5 a9 a7 35
       5.3246235e-06 8.065128e-06 1.6464983e-05 1.2491915e-06
000060 c6 f3 06 37 04 aa 35 38 2d 65 ff 36 49 c3 c3 37
       8.04378e-06 4.3312102e-05 7.6113706e-06 2.3336748e-05
000070 59 65 7c 37 d0 e9 a6 37 09 72 52 37 77 97 2e b6
       1.5043967e-05 1.989762e-05 1.2543526e-05 -2.6016185e-06
000080 96 77 9a 36 cf be 11 36 78 bc 89 b5 5a 10 29 b6
       4.6034793e-06 2.171775e-06 -1.0262147e-06 -2.519248e-06
000090 82 9f 83 b6 6a fd a0 36 92 43 8e 36 ba 7b a2 36
       -3.9226734e-06 4.797873e-06 4.239796e-06 4.84238e-06
0000a0 94 60 85 35 f6 87 09 36 26 e9 13 38 0f 8c 06 37
       9.93738e-07 2.049373e-06 3.5264668e-05 8.019632e-06
0000b0 27 b5 cd b4 e5 e2 0c 36 af c1 c4 b5 f0 92 f0 37
       -3.831603e-07 2.0993696e-06 -1.4659507e-06 2.8678653e-05
0000c0 15 c2 6c 36 7e ab c5 36 3c f0 95 36 66 d2 02 37
       3.527971e-06 5.891022e-06 4.468513e-06 7.797591e-06
0000d0 f8 59 df b4 4c 61 32 35 7e c1 50 37 55 ed 7c 37
       -4.1602448e-07 6.6451753e-07 1.2442817e-05 1.5075629e-05
0000e0 05 e0 06 b4 54 b0 62 b5 9c a7 8e 36 43 84 2b 37
       -1.256122e-07 -8.444815e-07 4.251442e-06 1.0223189e-05
0000f0 50 0f 8c 35 a2 42 0e 37 b0 4f 45 36 6b d8 c0 36
       1.0435269e-06 8.479374e-06 2.9401672e-06 5.7472403e-06

conv1.lin.weight f4 [64, 2]
000000 dd 65 d1 be c2 9d 0a bd 31 5b ba bc a8 07 e5 3e
       -0.40898028 -0.033841856 -0.022748562 0.44732404
000010 ff e7 91 3e 85 1c 91 bb 31 0d 09 bf 4a 13 8d bb
       0.2849731 -0.0044284486 -0.53535753 -0.004305278
000020 d5 f6 2e bb b1 be f9 be ed ba 28 3e 35 3a bb 3e
       -0.0026697416 -0.48778298 0.16477557 0.36567846
000030 61 cf 9a bd 79 86 9d 3e b1 fd 84 bd c9 f4 0b 3f
       -0.07559086 0.30766657 -0.064937 0.5467039
000040 06 ac 8f 3e 0e 85 fb ba a1 e8 23 bd f6 39 cf 3e
       0.2806093 -0.0019189434 -0.040016774 0.40473908
000050 0e 0d ab be d1 ed 89 3d 01 84 66 3d 54 7c fe be
       -0.33408397 0.06734813 0.056278232 -0.4970423
000060 e4 61 7b bc b9 6e 64 3e 9a 65 39 3e ff 55 25 3e
       -0.015343163 0.22307862 0.18105164 0.16146086
000070 8d f0 da 3c ba f2 b2 be 98 9c 95 3e 56 3c 8a 3e
       0.026726032 -0.3495081 0.29221034 0.26999158
000080 00 6c 09 bf 86 18 d5 3c 3a d8 59 3d b3 79 f6 be
       -0.5368042 0.02601267 0.053184725 -0.48139724
000090 67 da 6a 3c f1 b2 06 3f a1 3a 34 be 86 4e 8c 3e
       0.014334298 0.5261679 -0.1760049 0.2740366
0000a0 5d 07 83 3e a2 fa 69 3e f4 8f cb be dc 21 ba 3d
       0.25591555 0.22849515 -0.39758265 0.090884894
0000b0 4d 84 5e be 2f 39 89 be f6 fa f7 3e a5 0c bb 3c
       -0.21730156 -0.2680144 0.48433656 0.022833178
0000c0 7c 0e 50 3e 60 32 4d 3e 2b c7 14 be 3e 3b 62 be
       0.20318025 0.20038748 -0.14529102 -0.22092912
0000d0 e4 be 31 3e c6 2c 97 3e ac 77 6b be b3 f9 4f be
       0.17357975 0.29526347 -0.2299487 -0.20310096
0000e0 f5 64 99 3d 3e cd f4 be 60 a9 80 3c b3 cd 8c be
       0.07489959 -0.47812837 0.015705764 -0.27500686
0000f0 46 56 f6 bc 1d 67 04 bf 87 03 6c be 53 ee 83 3e
       -0.030070435 -0.5171984 -0.2304822 0.25767764
000100 a4 96 d7 3e 2e 5b d7 bd 87 79 d0 3e cb 6b 16 be
       0.42107117 -0.10515438 0.40717718 -0.14689557
000110 26 22 97 be 27 15 8b 3e f0 61 5d 3e 51 68 5c 3e
       -0.2951824 0.27164575 0.21619391 0.21524169
000120 07 42 78 bc f3 02 0b 3e 5c b9 6d bc 32 e0 a3 3e
       -0.015152461 0.13575344 -0.014509525 0.32006985
000130 e2 11 8f 3e d3 55 8b 3e b6 13 a8 be 49 d6 a7 3e
       0.2794333 0.27213916 -0.32827538 0.32780674
000140 ed 64 b9 be 2a 93 82 3e 7b 28 ff 3e 50 41 ed 3c
       -0.36209813 0.25502902 0.49835572 0.028961807
000150 b9 3a 62 be 51 79 92 be 02 83 ed 3e 0d 45 90 bd
       -0.22092713 -0.28608182 0.46389014 -0.070444204
000160 e8 b5 9d bd 3c f9 f1 3e d5 cc 91 be ce 0e a3 3e
       -0.077007115 0.47260463 -0.28476587 0.31847233
000170 c3 13 a2 3e 74 3f 45 3e 9a b2 ff bd 32 04 6c be
       0.31655702 0.19262487 -0.124852374 -0.23048475
000180 68 ff 8c bc db 8c c8 3e 4b 93 07 3e 40 d7 74 3e
       -0.017211631 0.39169964 0.13239782 0.23910236
000190 b0 e6 05 3f b1 ba 66 bd ca 9f a8 3e 1e 2c 1f be
       0.52305126 -0.056330387 0.3293441 -0.15544173
0001a0 b8 6a 8f be 35 62 60 3e f1 12 16 3d 0e 31 d8 3e
       -0.28011107 0.21912463 0.036639158 0.42224926
0001b0 33 c7 b5 3e 26 ae 40 be 08 79 0b bc 3c 45 e1 be
       0.3550354 -0.18816432 -0.008512743 -0.43998134
0001c0 d8 ad 5d be a4 f6 82 3e 9f 20 62 be 14 4a 8f 3e
       -0.21648347 0.25578797 -0.22082756 0.27986205
0001d0 f7 37 53 3e dd 5b 2b 3e 4c 2d 68 3e 3d 70 54 3e
       0.20626818 0.16734262 0.2267353 0.2074594
0001e0 38 8b 24 be de 90 5c 3e 3c 9a 28 3c b4 91 0c bf
       -0.16068733 0.21539637 0.010290679 -0.54909825
0001f0 89 5c b3 3e bf a1 13 be ce ac df be 97 7d d7 3d
       0.35031536 -0.1441717 -0.43686527 0.10522001

conv2.bias f4 [64]
000000 31 de ab be 48 41 fa 3d 2a a9 a4 be 64 1e 1a be
       -0.33567956 0.12219483 -0.32160312 -0.15050656
000010 19 e2 b0 be 56 08 3f bf 55 83 cb bd 7c 5b 5c bf
       -0.345475 -0.74622095 -0.09937159 -0.86077094
000020 f7 5d 67 be 04 3d 31 3d 58 3f 3c bf fb 5f 53 be
       -0.22594438 0.04327108 -0.73534155 -0.20642082
000030 bb 4f 10 be 7d 10 7c bd 9f 59 2d 3e 86 36 3a 3d
       -0.14092915 -0.061539162 0.16928719 0.045462154
000040 52 2e 4d bf ff f2 3c be a8 9d 9f 3c 27 88 21 bf
       -0.80148804 -0.1845207 0.019484356 -0.63098377
000050 ca a7 46 bf 09 d0 cb be 9f 08 00 be e3 86 f5 bc
       -0.77599776 -0.39807156 -0.12503289 -0.029971546
000060 9e 4a a0 bd 7f 55 8c be ca f9 c2 be be 21 41 be
       -0.07826732 -0.27408978 -0.380812 -0.18860528
000070 a0 29 59 3e 96 90 2e bf 50 5f 8e be dc f5 8a bd
       0.21207285 -0.6818937 -0.27807093 -0.06785175
000080 c9 91 4f bf 3c 4c 4e be a0 27 e5 be 66 b4 a8 bc
       -0.81081825 -0.20146269 -0.44756794 -0.020593833
000090 82 01 7d bf e7 69 41 bd 79 6d d8 3b 97 46 cb be
       -0.98830426 -0.047220137 0.006604847 -0.39702293
0000a0 bf 0b 7b be 9b ab 8c be db d6 69 bf fb f2 d1 be
       -0.245162 -0.27474675 -0.9134347 -0.41005692
0000b0 c2 0b 3c 3c 92 f4 42 be b8 a6 53 be 77 2f af 3d
       0.011477413 -0.19038609 -0.20669067 0.08553975
0000c0 87 d7 11 be 63 41 4e bf 8d b0 04 bd 06 e5 89 be
       -0.14242373 -0.8056852 -0.032394934 -0.26932544
0000d0 54 e0 55 be 66 cb 7c be f2 3d bf bc e1 c7 c1 be
       -0.20886356 -0.24686965 -0.023344968 -0.37847808
0000e0 12 eb 92 bf b4 2f 38 bd 11 04 bc be 3c 06 8b be
       -1.1477988 -0.04496737 -0.36721852 -0.27153194
0000f0 b5 4e 21 be 7c c4 f4 be d7 a9 85 be 01 c2 1d bf
       -0.1575268 -0.47806156 -0.2610614 -0.6162415

conv2.lin.weight f4 [64, 64]
000000 f9 a8 78 bd 35 2b 32 3e 8f b1 b0 be d8 78 59 be
       -0.06070802 0.17399295 -0.34510466 -0.21237504
000010 dd 5f 55 3e 67 a7 66 3e 34 15 88 bd 4f 0c f4 3d
       0.2083735 0.22524796 -0.06644669 0.1191641
000020 13 35 79 be 2e 70 a1 3d 6f e0 80 be 5b 9f 3f 3e
       -0.24336652 0.07882725 -0.2517123 0.18713133
000030 15 03 b8 bd 20 c1 a7 3d 6a 0a 8f 3e be 77 ce bd
       -0.08984963 0.081911325 0.27937633 -0.10081433
000040 1d b4 df 3c 87 96 d7 3e 8d 44 bb 3e ee 70 88 be
       0.027307564 0.4210703 0.36575738 -0.2664866
000050 8c 01 fd bd 05 a1 40 be 88 3f 78 bc fc 7f ac bd
       -0.12353811 -0.18811424 -0.015151866 -0.084228486
000060 32 8f 88 3e 06 81 5d bd f4 26 1d 3c df 31 50 be
       0.2667175 -0.054078124 0.009591807 -0.20331524
000070 da 46 28 3e a8 bc 7e 3e b0 e5 05 3e 05 bc b8 be
       0.16433278 0.24876654 0.130759 -0.36080948
000080 22 7c a5 bd 16 de d5 bd e0 71 b2 be 18 0e 38 be
       -0.08080317 -0.1044275 -0.34852505 -0.17974126
000090 c1 d1 37 3e 37 2c e0 bb d4 ae b4 3d ea 9e 95 be
       0.17951109 -0.0068412083 0.08822408 -0.29222804
0000a0 c4 3f 67 be 19 f0 88 be 0c 84 79 3e af 7d 54 be
       -0.22582918 -0.2674568 0.24366778 -0.2075107
0000b0 ae fb 90 3e 50 d2 f0 be 6a 50 41 be e0 b1 93 3e
       0.28317016 -0.47035456 -0.18878332 0.28846645
0000c0 10 e7 b5 3e f4 d8 d0 3d 82 05 ec bd 03 ee e7 bd
       0.3552785 0.101976305 -0.11524488 -0.11324694
0000d0 ef 78 a6 be 4f 23 90 3e 57 4b cf bd 1b 16 ce 3e
       -0.3251414 0.28151938 -0.10121792 0.4025124
0000e0 3b df 81 be ff 78 9f be 7b 9a 8e 3c 97 1e 3f 3e
       -0.25365624 -0.31147 0.017407646 0.18664013
0000f0 77 49 94 be 2d 6d d3 3e e9 35 66 be d2 37 b7 be
       -0.289623 0.41294232 -0.22481503 -0.35784775
000100 18 0e 1c be d7 a6 29 be 39 7a 33 3e 3d ef 3c be
       -0.15239751 -0.1656755 0.17527093 -0.18450637
000110 3d 0e 6d be b9 1c 8e be 48 de 5d bd 62 34 b4 be
       -0.23149963 -0.2775629 -0.054167062 -0.35196215
000120 7e fa 86 bd af f6 25 be f9 84 6e bd db 71 23 be
       -0.06590746 -0.16207384 -0.05823228 -0.15961401
000130 1d 98 0a be 26 8c 8b be a7 92 83 bc c2 10 ed be
       -0.13534589 -0.27255362 -0.01606114 -0.46301848
000140 ac 60 d7 bd 4c e3 55 be 4d 2f 46 be 56 3d bc bb
       -0.105164856 -0.20887488 -0.19353981 -0.0057446165
000150 dd 56 b6 be 11 17 7c 3d bf fb 04 bf bd 88 5e 3e
       -0.35613146 0.061545435 -0.51946634 0.21731849
000160 5a 50 af be 54 1e c2 be a6 c0 30 be 48 24 00 bf
       -0.3424099 -0.37913764 -0.1726099 -0.5005536
000170 9a 85 59 be 30 d2 17 be b0 8c 91 bc 6b 6f d7 bd
       -0.21242371 -0.14826274 -0.01776728 -0.10519298
000180 27 05 18 3e 58 d6 b6 3d 3c cb 19 be fa 56 b6 be
       0.14845715 0.089276016 -0.15018934 -0.35613233
000190 48 55 7f be 47 4d d0 bb 84 23 cb be 6a 5e 86 3c
       -0.24934876 -0.0063568684 -0.39675534 0.016402442
0001a0 e8 f4 c7 ba d7 d9 55 bd 04 85 0a bf 47 43 c3 3c
       -0.0015255483 -0.0522097 -0.54109216 0.023835791
0001b0 a9 d9 54 be e2 35 1e be bb 0b 16 be b5 35 54 be
       -0.20786156 -0.15450242 -0.14652912 -0.20723613
0001c0 b9 0b 46 be 5d 16 10 be 4c f9 43 3e f6 90 06 be
       -0.1934041 -0.14071031 0.19138068 -0.13141236
0001d0 6d 07 bf bc 48 9e 30 bc bd bd 2a 3d 9f 82 bf bd
       -0.02331897 -0.010779925 0.041684855 -0.09351086
0001e0 82 61 68 bd b8 fc 92 bc ea 7e 0e be d9 e2 42 be
       -0.056733616 -0.017942771 -0.13915601 -0.19031848
0001f0 c8 a3 55 bb 56 f8 12 be 01 ef 99 3d 76 70 f2 bd
       -0.0032598842 -0.14352545 0.075162895 -0.118378565
000200 5d 3d b1 3c 4f e2 41 3d d4 7c c7 bd 07 5a 12 3d
       0.021635706 0.047334965 -0.09740606 0.035730388
000210 d4 5e f7 3c 4b 9d a4 be e4 7b 17 3d 36 46 88 3d
       0.030196585 -0.32151255 0.036983386 0.06654017
000220 54 b4 83 3d f2 58 15 3e 48 f6 0e be c4 42 32 3d
       0.06430879 0.14584711 -0.13961136 0.043520704
000230 db be b9 bd fa 96 2f be a8 7a 01 3d a6 58 aa bd
       -0.09069606 -0.17147437 0.031611115 -0.083176896
000240 b8 4f 89 3b 97 5d 9c bd 5d de 30 3d 52 26 4d 3e
       0.0041904114 -0.07635038 0.043180812 0.2003415
000250 23 b4 90 be 95 ae 69 bd b8 e2 5b be 2f c8 26 be
       -0.28262433 -0.05705126 -0.21473205 -0.16287301
000260 3d 46 28 be 86 d2 c6 be 15 ea a8 bd fa 4f 40 3b
       -0.16433044 -0.38832492 -0.082477726 0.0029344545
000270 4b ba 86 3d a2 2d a4 bd a5 ff 52 be 15 c6 66 bd
       0.06578501 -0.08016516 -0.20605333 -0.05634125
000280 3d ff 20 be 91 df ee 3b b4 24 c2 bd e1 56 74 be
       -0.15722366 0.007289835 -0.09479657 -0.23861267
000290 56 77 7d 3d 4c 4d f7 3d cc c6 b6 be 0f e0 4b 3e
       0.061881386 0.1207529 -0.35698545 0.1990969
0002a0 35 d5 b7 3d da df 07 be b3 76 40 be 66 2b 86 be
       0.08976213 -0.13268986 -0.1879528 -0.26204985
0002b0 06 cb b4 3d 28 3e 1c 3e 13 df fe bd 0a a7 56 be
       0.08827786 0.15258086 -0.12444892 -0.20962158
0002c0 3c 47 22 3e e5 94 58 bd f2 b2 25 be 4c e5 8f be
       0.15847486 -0.052876372 -0.16181543 -0.28104627
0002d0 fd 0e 40 3e d0 06 61 bd c8 79 57 bd 01 b2 e0 bd
       0.18755718 -0.054938138 -0.052606374 -0.109714516
0002e0 0c cd 25 3e af 53 19 3c f9 4f 91 bd fb f9 a6 be
       0.161915 0.009358331 -0.07095332 -0.32612595
0002f0 5a 79 aa bb d2 08 0a be b1 ac 4c be dc b2 bf 3d
       -0.0052024545 -0.13479927 -0.19987752 0.093602866
000300 78 a6 c2 bb 20 09 b1 bd 40 28 e6 be ff 82 91 3d
       -0.005940255 -0.086443186 -0.44952583 0.07105064
000310 f1 ab e0 bc 4b 01 bd be 74 93 38 3d d1 14 cd 3b
       -0.027425738 -0.3691505 0.045062497 0.006258585
000320 2e 14 ac be bc 23 b5 3d 02 50 98 bd f9 1f 13 be
       -0.33609146 0.088447064 -0.07437135 -0.14367665
000330 8b 42 f2 bc 47 a0 89 be 0f c1 eb bc 2e fe 9b be
       -0.029572746 -0.26880094 -0.028778581 -0.3046736
000340 9e 81 0e bd fd c5 e9 bd 45 e8 96 3d 9e df ec 3d
       -0.03479158 -0.114147164 0.07368521 0.11566089
000350 25 37 76 be 35 a1 a5 bd 76 98 a3 bd e8 4a b9 be
       -0.24044473 -0.080873884 -0.07988064 -0.3618996
000360 c4 42 81 be 7e d6 36 be da ba 22 be c4 4d 7d be
       -0.2524625 -0.1785526 -0.1589159 -0.24736696
000370 6d c9 92 bd ef 64 0b be 35 86 fd bb 04 79 2b be
       -0.07167325 -0.13612722 -0.007736946 -0.16745383
000380 91 ac 0a be c3 8a 2e be 5f 65 07 3e 6c aa 7f be
       -0.13542391 -0.17045121 0.13222264 -0.24967355
000390 71 f1 ba bd ca 21 c4 3d 33 a5 64 be 87 ec f4 3d
       -0.091280825 0.09576757 -0.22328644 0.119591765
0003a0 40 dd 00 3e bd bc 98 be a2 7c da be 59 7b ba be
       0.125844 -0.29831496 -0.42673212 -0.36422232
0003b0 a4 49 b5 3d 12 5d 77 3b 8d e1 b2 be 5c d1 ab be
       0.088519365 0.0037744683 -0.34937707 -0.33558166
0003c0 fd 23 6a 3d aa f0 80 be 1d af 66 be 8c 30 9f bd
       0.057163227 -0.25183612 -0.22527738 -0.077729315
0003d0 aa fd 17 3e da d7 a8 3d c7 1d 8c bc a2 22 e9 bd
       0.14842859 0.082442954 -0.017104043 -0.11383559
0003e0 a7 5b d2 3d 85 d0 29 3e 42 c2 0f be 1e 02 a7 be
       0.102713875 0.1658345 -0.14038947 -0.32618803
0003f0 13 cc 92 bc 90 00 93 ba 73 fe f7 bc 54 eb 0a bd
       -0.017919576 -0.0011215378 -0.030272698 -0.033915833

conv3.bias f4 [128]
000000 a1 c4 1d 36 d9 a4 fb b5 4a 08 24 37 7a 7d 8b 36
       2.3509276e-06 -1.8748934e-06 9.777092e-06 4.15713e-06
000010 39 76 4f 36 55 27 a3 b6 32 7c a9 b7 71 2c 0b b7
       3.0914218e-06 -4.8623574e-06 -2.0204203e-05 -8.295393e-06
000020 01 0b f8 35 06 2f 10 b6 6f 60 6a 38 36 d4 39 b7
       1.8480642e-06 -2.1485043e-06 5.587976e-05 -1.10762685e-05
000030 84 f1 a6 b6 70 69 d4 b7 1d 6e af 38 a2 ed 68 b7
       -4.9753016e-06 -2.5321468e-05 8.3651605e-05 -1.3883606e-05
000040 22 a4 a5 36 6f 4d e5 b6 c0 3f 74 b6 ac 6c 45 b7
       4.9364908e-06 -6.8337463e-06 -3.639594e-06 -1.1767417e-05
000050 c2 9c 9e 36 8d bf 24 38 85 a8 18 b7 d0 d6 f5 37
       4.727016e-06 3.9279043e-05 -9.0991425e-06 2.9306306e-05
000060 b3 cc 5d b7 1b 58 27 b7 13 42 05 b7 75 17 92 b7
       -1.3220287e-05 -9.974489e-06 -7.942802e-06 -1.741548e-05
000070 30 d2 8f b7 26 bc 1e 37 f5 d6 4d b7 48 60 c3 37
       -1.7144805e-05 9.461341e-06 -1.2269001e-05 2.3290646e-05
000080 61 7a 1b 37 83 02 2a 38 25 46 c3 34 13 87 ad b6
       9.2672135e-06 4.0533498e-05 3.6372617e-07 -5.1715265e-06
000090 be 55 a2 b7 97 fa 66 35 e7 c8 a9 b7 b3 b5 83 b6
       -1.9351832e-05 8.6046333e-07 -2.0239922e-05 -3.925257e-06
0000a0 5b 61 81 b7 26 b4 03 b8 d0 9e df b6 33 fb 07 b7
       -1.5423333e-05 -3.140061e-05 -6.664406e-06 -8.105114e-06
0000b0 74 ba 0b b6 84 b9 84 b7 c3 63 75 38 b8 9a 11 b7
       -2.0821144e-06 -1.5822014e-05 5.8505462e-05 -8.678697e-06
0000c0 42 0d 95 37 7f 4c 24 37 ca 58 4b b5 5e 85 fe b6
       1.7768358e-05 9.792972e-06 -7.57526e-07 -7.585316e-06
0000d0 cb c1 4d b7 d6 c0 13 b7 98 ea 05 37 48 c5 a1 36
       -1.2264073e-05 -8.806781e-06 7.982038e-06 4.8211405e-06
0000e0 bc b4 77 b6 50 8d 1d 37 fb 2d ea 37 38 39 31 37
       -3.691107e-06 9.390831e-06 2.7916385e-05 1.0563344e-05
0000f0 b3 06 d1 36 7c 3a 21 b7 86 6f b5 b6 31 52 15 b6
       6.2294653e-06 -9.609965e-06 -5.4072034e-06 -2.2250572e-06
000100 58 b2 12 37 4d 48 d6 b4 4b f6 e0 37 9d 30 a9 b6
       8.743802e-06 -3.9913212e-07 2.681757e-05 -5.042252e-06
000110 ed 89 b5 b6 3e 8c b5 37 ca d5 25 37 3a fe 16 36
       -5.410277e-06 2.1642187e-05 9.884543e-06 2.249972e-06
000120 36 31 41 b8 52 10 68 36 4d 24 c8 b7 11 82 1a 38
       -4.6060617e-05 3.4580194e-06 -2.3858762e-05 3.6837595e-05
000130 42 8a 1c b7 95 49 69 b6 e3 8d e2 b7 26 d6 34 b5
       -9.330515e-06 -3.4762536e-06 -2.700737e-05 -6.736685e-07
000140 a8 70 b2 36 17 c0 96 37 8d f8 e6 b6 c7 18 0e 37
       5.3179283e-06 1.7970842e-05 -6.8834693e-06 8.4696285e-06
000150 6b b2 57 b7 4a 24 d5 b6 99 27 f1 b7 ec aa 35 b7
       -1.285654e-05 -6.3521193e-06 -2.8747878e-05 -1.0828237e-05
000160 02 25 a8 b7 42 9d 8d b6 80 96 2f b7 c2 6b 02 b7
       -2.0044394e-05 -4.2204347e-06 -1.0465854e-05 -7.773693e-06
000170 25 8a 28 37 5f 51 7a b5 fd f5 fa 36 28 c9 1d b5
       1.0045745e-05 -9.325067e-07 7.4792174e-06 -5.877978e-07
000180 89 2a 18 b7 9b 53 f0 37 c3 7c 87 b7 15 8e 36 b7
       -9.0698095e-06 2.8649161e-05 -1.615135e-05 -1.0881126e-05
000190 7b 18 39 35 a4 d6 23 36 b3 d0 87 b6 0b 93 82 35
       6.8953494e-07 2.441383e-06 -4.0476093e-06 9.72855e-07
0001a0 3c 8d e6 36 41 96 2c 37 a4 8c b9 37 c0 35 d5 37
       6.870976e-06 1.0286983e-05 2.211921e-05 2.5416608e-05
0001b0 5c 5c bf 36 9b c5 2f b7 a0 9a ae 37 1f 4a 2a b8
       5.7029956e-06 -1.0476821e-05 2.081442e-05 -4.060019e-05
0001c0 74 a1 5b 37 93 d9 73 b6 56 d9 a0 36 12 2e c8 36
       1.3091008e-05 -3.6336467e-06 4.793673e-06 5.9658278e-06
0001d0 97 bf f1 36 8c 68 72 b7 63 ff cd 37 fb 1e 80 37
       7.2046637e-06 -1.4448666e-05 2.4556828e-05 1.5273215e-05
0001e0 3c 00 0a 37 f0 7d 06 b7 be d5 1c b7 f5 15 29 b8
       8.225496e-06 -8.0163445e-06 -9.34809e-06 -4.031319e-05
0001f0 d2 61 87 b7 c4 2d 0b 36 cd 33 1e b8 16 75 aa b6
       -1.6138805e-05 2.0739253e-06 -3.771838e-05 -5.0800254e-06

conv3.lin.weight f4 [128, 64]
000000 05 86 8e be 83 1c 44 3e 90 91 c7 be f0 d2 f9 be
       -0.27836624 0.19151501 -0.38978243 -0.48793745
000010 48 fa 04 3d bb ad 6d 3e 55 93 01 3e 14 37 60 bd
       0.03246525 0.23210804 0.12653859 -0.054740027
000020 c6 1d 55 be 11 d5 d6 be 4c 5b 7a bd eb 0c df be
       -0.20812139 -0.41959432 -0.061122224 -0.43564543
000030 e2 97 58 3e 59 fb 43 3e 83 d3 66 3e cb d3 07 be
       0.21151689 0.1913885 0.22541623 -0.13264386
000040 aa c3 e7 3d 7e a9 3d be 7b a1 42 bc 80 1b a9 bd
       0.11316617 -0.18521687 -0.01187932 -0.08257198
000050 1e 5d 31 3c 66 66 96 be d2 92 c7 3d 9d 87 75 bd
       0.0108254235 -0.29375 0.097448006 -0.059943784
000060 a6 d8 bf bb 84 86 81 be 2f 49 5b 3e 82 da 88 bc
       -0.005854684 -0.2529794 0.21414636 -0.016705755
000070 aa 5d 9d 3d f9 df d1 bc a7 2f d7 3d 43 3b 07 bd
       0.076838806 -0.025619494 0.10507136 -0.0330155
000080 5c 9f 37 3e ad 75 1c 3d 61 4c f9 3b 4c 09 a3 3d
       0.17931885 0.038198162 0.007607982 0.079607576
000090 ad f2 7b 3d 02 e6 2b 3e 9a 7d 49 3e 7d 11 2b 3e
       0.06151073 0.1678696 0.1967682 0.1670589
0000a0 eb db b3 be 7a 2b 8b be 8f 6e 97 3c fc be 60 3d
       -0.35128722 -0.27181607 0.018485336 0.054869637
0000b0 5e a7 a0 3e 6d 5d 0c be ab 2c 12 3d 1e c8 31 3d
       0.3137769 -0.13707514 0.03568713 0.043403737
0000c0 9d 93 af 3d 94 d8 6c bc b9 e0 e1 3d ae 92 3d be
       0.08573077 -0.014455933 0.110291906 -0.18512985
0000d0 23 e6 78 3e 18 53 d9 3d 27 4a bd 3d b7 8f 8a 3d
       0.2430654 0.10611552 0.09242659 0.06765693
0000e0 22 b8 82 3c c9 5b 1b 3d cb c8 e4 3c 5a dc 48 be
       0.015956942 0.03792933 0.027927777 -0.19615307
0000f0 8a 89 29 be 79 48 1c bb 3b df 30 3e a3 b6 26 3d
       -0.16556373 -0.0023846908 0.17272656 0.04070152
000100 f3 f7 e6 bc cf d1 80 3d 82 54 c3 bc a6 49 19 be
       -0.028194403 0.06290018 -0.023844007 -0.14969501
000110 b1 7f aa bd 3e 42 88 bd 13 41 2f be 64 5f 60 3d
       -0.083251365 -0.0665326 -0.17114668 0.05477847
000120 58 d5 d5 bd be 99 98 bc bd 90 18 be d0 37 10 be
       -0.10441083 -0.018627997 -0.14898963 -0.14083791
000130 f8 82 1b bc 38 9d bd 3b 93 6e f8 3c 6c 5f c7 3d
       -0.009491675 0.005786564 0.030326163 0.09734997
000140 84 0c 05 be 9f 68 17 be d3 9c 26 bd 2a 49 1f be
       -0.12993056 -0.14786004 -0.040676903 -0.15555254
000150 6d df 89 3d 0a 49 36 be 22 02 cf bd 17 8c ad bd
       0.06732068 -0.178013 -0.10107829 -0.08473986
000160 44 ed cb bc d3 d0 01 3e fa f0 43 3d 8a a7 4c be
       -0.02489341 0.12677316 0.047837235 -0.19985786
000170 20 fc 57 3e ab 05 ea bd c0 a6 5f bb 1a 38 ad bc
       0.21092272 -0.11426862 -0.003412649 -0.021144915
000180 1d dd 46 bb 97 14 5e 3d 49 ce 81 3d fd f0 3e be
       -0.0030344196 0.054218855 0.06338174 -0.18646617
000190 5f af 30 3c b6 33 b0 bd 4d a7 2a 3e cc 59 ef 3c
       0.010783999 -0.08603613 0.16665383 0.029217623
0001a0 4b ee 4f be 70 63 33 bc 28 ae ec bd 8d 46 d2 bd
       -0.20305745 -0.010949001 -0.11556655 -0.10267363
0001b0 30 e4 16 3e c7 c9 c9 bd de a9 2d be 6a 0c 0c be
       0.14735484 -0.09852939 -0.1695933 -0.1367661
0001c0 24 66 c9 3c bd f0 18 bc 4a a1 94 be 68 09 78 bd
       0.024584837 -0.00933474 -0.29029304 -0.060555845
0001d0 ba 3a 85 3d cc f6 a5 bd 22 2a 98 be 4a fb 79 bd
       0.06505342 -0.081037134 -0.29719645 -0.061030664
0001e0 b7 15 10 be b9 46 ee 3d 95 33 03 be f0 76 42 bd
       -0.14070784 0.11634583 -0.12812646 -0.04747671
0001f0 99 28 1b be 4f 66 c9 bd 2e 7f b0 3d 24 db 60 3d
       -0.15152206 -0.09833967 0.086180076 0.05489649
000200 d9 cb d3 3d 85 cf 10 bd 2f ba b1 bb 02 70 90 bc
       0.10341615 -0.035354156 -0.005423806 -0.017631534
000210 02 8e 9e be e1 9a 75 be 65 e0 45 3d f5 06 e0 bd
       -0.30967718 -0.23984863 0.048309702 -0.10938827
000220 8d 18 12 bd 6e ed 44 3e 9e 12 94 3d b5 c7 7a 3d
       -0.035667945 0.19231197 0.072301134 0.06122561
000230 b3 82 c3 bd c0 74 e4 bd 19 2a aa 3c 9c aa f6 3d
       -0.09546413 -0.11155081 0.020772027 0.1204426
000240 d3 cd d9 bd 0b d1 5e 3d 3c a0 fd bd 95 be f6 bd
       -0.10634961 0.054398578 -0.12384078 -0.120480694
000250 40 e7 dd bd 2d 91 dc bd 0d 6e 0c bb 7c 8b 1e 3e
       -0.10835123 -0.107698776 -0.00214279 0.15482897
000260 b2 bc 1d be be 81 56 bd 16 92 0d 3e e2 92 6d be
       -0.15404013 -0.052369826 0.13825259 -0.23200563
000270 c3 c1 42 bd a0 c5 60 3c 07 4a c7 bd b4 f9 5f bd
       -0.047548067 0.0137189925 -0.097309165 -0.054681495
000280 c1 3c c0 bd c0 42 10 be de f3 a8 bd cc 10 1d 3e
       -0.09386588 -0.14087963 -0.08249639 0.15338439
000290 9d f7 09 bd 75 78 1a 3e 14 00 15 bc 51 43 cc bc
       -0.033683408 0.15085013 -0.009094257 -0.024934443
0002a0 ea 33 0a 3d f1 c7 ed 3c 4b a2 bc 3d c1 e6 de 3c
       0.033740915 0.029026004 0.092106424 0.027209641
0002b0 e7 9b 7e 3b b0 ae 82 bb 61 5b c5 be ad 38 4c 3d
       0.003885025 -0.0039881095 -0.3854628 0.049858738
0002c0 a0 2c aa 3d 55 24 a0 be a0 89 22 be c5 52 6e bc
       0.08309293 -0.3127772 -0.15872812 -0.014546101
0002d0 46 59 8f be a4 42 e1 be 38 18 86 be de d2 aa be
       -0.27997798 -0.43996155 -0.26190352 -0.33364004
0002e0 8e 24 e8 bd a5 36 52 be 4a 40 38 be b9 82 67 bc
       -0.11335097 -0.20528658 -0.17993274 -0.014130288
0002f0 6b 55 99 3d e8 98 d9 bd d2 5d 56 be 0e e7 93 bd
       0.07486995 -0.10624868 -0.20934227 -0.072218046
000300 76 37 44 bd ce 23 a7 3c 3a c9 ae 3d f7 a1 9c 3d
       -0.047904454 0.020402815 0.08534475 0.0764808
000310 fd 30 7b 3c fe 24 6a 3e a0 b4 0a 3c dd 9a 1d 3e
       0.015331504 0.22865674 0.008465916 0.15391107
000320 82 39 84 3d 96 a7 8d 3e 00 e8 08 be 4f 46 1c 3e
       0.06456281 0.2766692 -0.13369751 0.15261196
000330 b3 d5 00 3e ab 23 ed bd bb 3d 7a bd 26 cf d5 bd
       0.1258152 -0.11579069 -0.061094027 -0.10439901
000340 27 dc 16 3e 0b e7 e6 3d a2 41 95 bd a6 d3 3d 3e
       0.14732419 0.11274537 -0.07287909 0.18537769
000350 a7 15 63 bd 80 dd 81 3d a7 d7 f0 bd 7e f6 41 3e
       -0.05544057 0.06341076 -0.117598824 0.18941686
000360 c0 b9 8e bd 29 ce b5 bd 82 40 a0 3d 5a 51 c4 bd
       -0.06969023 -0.088772126 0.07824804 -0.09585829
000370 22 97 b8 3c 8b 97 12 3e e4 c9 1b be 11 1b 8f bc
       0.022533003 0.14315622 -0.15213734 -0.017468961
000380 54 cf 4e 3e 95 2a ad bd 0b 64 cd bd 0a b8 61 be
       0.20196277 -0.084553875 -0.10028847 -0.22042862
000390 c2 c6 f4 3d 91 e0 6c be b4 f0 15 3e 99 03 38 3d
       0.119519725 -0.2313254 0.14642602 0.044925306
0003a0 cf bb d8 3d 09 4b 22 be ff f9 b8 bc c7 69 7c 3d
       0.10582697 -0.15848936 -0.022580145 0.061624315
0003b0 75 af b4 3d 4f 64 63 bd 63 64 0c be fe dc 2e be
       0.08822528 -0.055515584 -0.1371017 -0.1707649
0003c0 e5 79 2b be 54 32 69 bc c7 11 5d bd c0 4f 45 bd
       -0.16745718 -0.014233191 -0.053972032 -0.04817176
0003d0 b3 e5 cb bd 95 c0 b1 bc 02 88 99 3c f6 79 7d be
       -0.09955921 -0.021698276 0.018741611 -0.24753556
0003e0 ed 89 4f 3e 25 f8 2b 3d 52 db 12 3e cd 99 9a bd
       0.20267458 0.041984696 0.14341477 -0.075488664
0003f0 14 43 d0 3d b6 62 55 bd b2 d1 71 be 7f 17 5e be
       0.10169044 -0.05209609 -0.23615149 -0.2168865

conv4.bias f4 [256]
000000 93 12 5c bd 31 1f 2e be 38 e8 41 3c fc ec ca bd
       -0.05372865 -0.17004086 0.01183515 -0.099084824
000010 e9 37 9f 3d b5 9d bf bd b2 f9 26 bd 77 27 f7 bd
       0.07774336 -0.09356252 -0.04076547 -0.12068074
000020 17 21 65 3d 48 db ca bd 55 a4 05 3f fe 1b fe bb
       0.05593976 -0.09905106 0.52203876 -0.007754802
000030 1b c1 02 bc fe f5 4e be 5b 9a 29 be 4d 56 05 be
       -0.00798061 -0.20211026 -0.16562788 -0.13021202
000040 81 2d 92 bd 6b 54 37 bc 63 a3 82 3c 0f 72 1e 3d
       -0.071375854 -0.01118956 0.01594705 0.038682994
000050 7a 39 10 be a5 ce 70 bd cb be 30 bd 2d 5f 95 3d
       -0.14084426 -0.05879082 -0.043150704 0.07293544
000060 0e d3 14 bd f1 14 83 3c 6a 7a b1 bc 66 44 d3 bd
       -0.03633409 0.016001197 -0.021664817 -0.1031578
000070 ca 67 7e 3c 49 cf 93 bc ae eb fa bd 83 18 d1 bc
       0.015527675 -0.018043177 -0.122519836 -0.025524383
000080 ef 80 d7 be ae 5f 02 39 8e 9c 51 be 1d a1 cd bd
       -0.42090556 0.0001243341 -0.20469877 -0.100404955
000090 75 55 43 be 08 2a 8a be d3 3d 1a be 10 28 73 bc
       -0.19075568 -0.26985192 -0.15062647 -0.014841095
0000a0 2b f0 38 be 46 3e 02 bd 19 60 cf be 1e 91 39 be
       -0.18060367 -0.03179767 -0.40503004 -0.18121764
0000b0 c2 9d a7 3c c9 84 62 bc 2e ab c1 bc df bc 1f be
       0.020460967 -0.013825604 -0.023641195 -0.15599392
0000c0 1d f4 7e bd 19 86 82 3d 08 3f 69 3d 75 5b 53 3b
       -0.062244523 0.06373233 0.056944877 0.0032250558
0000d0 8d 54 69 bc 23 6a d5 bd 28 46 00 be 53 31 46 bc
       -0.01424135 -0.104206346 -0.12526762 -0.012096721
0000e0 ee da 5a be 53 8f 56 3c fd 16 70 bd 01 d0 74 3b
       -0.21372578 0.013095695 -0.058615673 0.0037355425
0000f0 1d 05 e9 bd ec 5a 55 bc 98 14 77 be 2e f7 b5 bc
       -0.113779284 -0.013022166 -0.2412895 -0.022212591
000100 cd 95 ad bb df 87 35 bd 68 7d 4d be 41 75 25 be
       -0.0052973987 -0.04431903 -0.2006737 -0.1615801
000110 4e 66 59 be f4 62 7c bd dd 6b 92 3c d9 64 f9 3c
       -0.21230432 -0.061617807 0.017873699 0.030443596
000120 b6 c5 9d 3d 5e 53 8c bd e0 b6 02 bd 87 a2 9f 3b
       0.07703726 -0.068518385 -0.031912684 0.0048716697
000130 ba 06 6b bd d8 1a c6 bc de ff aa bd 0d 15 ff bc
       -0.05737946 -0.024182722 -0.08349584 -0.031137967
000140 18 1b bf bd bb b6 af bc 39 4d 4a bd 46 e6 44 3e
       -0.093313396 -0.021449437 -0.04939005 0.19228467
000150 35 df 81 bd 36 f2 b1 3c 8f e7 77 be 5a f7 86 bd
       -0.063414015 0.02172194 -0.24209426 -0.06590147
000160 f0 48 00 be 79 62 17 be 8d 1e 6a 3d 61 c8 50 bd
       -0.12527823 -0.14783658 0.05715804 -0.050972346
000170 2f ac 09 be c0 6f dc 3d 15 08 05 be 0c 7b 8d 3d
       -0.13444589 0.10763502 -0.12991364 0.06908235
000180 3e ab 22 bd c0 e0 26 bd 3e f0 ec bd 12 e8 25 be
       -0.03971409 -0.040741682 -0.1156926 -0.16201809
000190 a5 39 28 3d a8 e9 0a bd 9b ce a6 bd 34 41 8b 3d
       0.0410706 -0.03391424 -0.081448756 0.06799546
0001a0 77 73 b1 be 69 c1 c4 bd 9e dd 1c bc 35 44 0b bd
       -0.34658405 -0.096072026 -0.009574322 -0.034000594
0001b0 09 fe 1c bd fb b0 88 3e 35 b2 77 be 80 4a 15 be
       -0.038328204 0.26697525 -0.24189074 -0.145792
0001c0 44 e5 03 3c fd 70 8e be ac 1e ee 3c 62 25 5a be
       0.008050267 -0.27820578 0.02906736 -0.21303323
0001d0 4d 1a 4b 3e 02 dc 1f 3d 0e 8d 26 bd c3 3c 40 bd
       0.19834252 0.039028175 -0.040661864 -0.046932947
0001e0 78 a5 42 bd 59 51 b4 bd 66 75 95 bd a1 ca 36 be
       -0.047521085 -0.08804578 -0.072977826 -0.17850734
0001f0 5a dd 36 be d0 0b bf be 25 10 e4 ba 3a 73 90 bd
       -0.17857876 -0.373137 -0.0017399831 -0.07053228
000200 ea 1b 7c bb 88 89 0e be d5 1d 35 bf c9 44 d5 be
       -0.0038468787 -0.13919652 -0.70748645 -0.4165404
000210 a7 1d 41 be a0 cc 08 be f0 9d 3e bb 90 f0 39 bd
       -0.18858968 -0.13359308 -0.0029085837 -0.045395434
000220 7c 95 10 be d7 1e 08 be d6 f9 f5 3d a5 96 09 3d
       -0.14119524 -0.13293014 0.12010543 0.03359093
000230 40 c3 a2 bd 12 0d 25 3e c1 e4 0b be 78 14 b7 bd
       -0.07947397 0.16118267 -0.13661481 -0.08939451
000240 b7 81 42 bd bf 90 bb 3d a3 a4 1a 3a f0 cd 86 3e
       -0.047486987 0.091584675 0.00058991666 0.26328993
000250 50 d9 e9 3d 57 9e 52 bb 73 d5 93 bd 95 4b 32 be
       0.11418402 -0.0032137835 -0.072184466 -0.17411645
000260 7f 5d c2 bc 39 5e 79 be ad 90 d3 3d 60 bf ef bd
       -0.023726223 -0.2435235 0.10330329 -0.11706424
000270 64 d7 a1 3d 58 16 1e 3c b3 6c 8a bb 0b 30 2d be
       0.079024106 0.009648882 -0.0042243837 -0.16912858
000280 79 f3 9a bc 60 49 86 3d af 35 fa bc 78 ff 9c be
       -0.018914925 0.06556964 -0.030543176 -0.30663657
000290 91 91 02 bd 0d 68 c3 be 77 0e cf bb c6 5e 61 3c
       -0.031877104 -0.38165322 -0.006318863 0.013755506
0002a0 fe c1 92 3d d1 bd 1e bc 4e d2 55 bd 46 c3 88 be
       0.07165907 -0.00968881 -0.052202515 -0.26711482
0002b0 42 d5 8b 3d cc 1b 7e be d3 74 35 be 3e 00 36 bc
       0.06827785 -0.24815291 -0.17720346 -0.011108456
0002c0 35 13 05 be f9 30 f0 3d 5a c3 34 3c 07 74 fe bc
       -0.12995608 0.11728091 0.011032904 -0.031061186
0002d0 4d 0a 82 bc 1e e6 63 bc 65 18 34 bd 81 df 4c bc
       -0.015874052 -0.013909845 -0.043968577 -0.012504459
0002e0 8a 13 a0 3d 24 ee 1d 3c 2b 02 48 3e a9 73 10 be
       0.07816227 0.009639297 0.19532077 -0.14106621
0002f0 50 06 23 3d 3d 17 d5 3c a7 3d 2c bb f1 d4 70 bc
       0.039800942 0.026012057 -0.0026281865 -0.014699207
000300 03 df 03 be 03 ac 4c be 87 1c 82 3d 5c c6 01 3d
       -0.12878041 -0.19987492 0.063530974 0.03168331
000310 b6 ee 05 bf 83 65 90 bc cf 0a 02 bc 15 40 c5 bd
       -0.5231737 -0.01762653 -0.007937147 -0.09631363
000320 91 db bd 3a 3f af 3c bc 09 53 23 bd 97 e2 e1 3c
       0.0014484992 -0.011516391 -0.03987411 0.027573867
000330 81 04 1b 3d ab b0 e5 3b 47 f8 a5 bd 15 f7 a0 be
       0.037846092 0.007009586 -0.08103996 -0.3143851
000340 4a 70 19 3e 43 7f e1 bd 27 71 8e bd 4c fc 73 bd
       0.14984241 -0.11010601 -0.06955176 -0.05956678
000350 05 78 2c 3d 81 81 a4 bd 02 39 04 bf e8 a3 32 3e
       0.042106647 -0.080325134 -0.51649487 0.17445338
000360 15 18 5b bd 04 4a ce bb 49 f0 0b be 3b 67 93 3b
       -0.053489763 -0.0062954444 -0.1366588 0.00449839
000370 7a b8 f8 bc b3 9e 92 3c 8f 6b 68 bd 85 6b 37 3d
       -0.030361403 0.01789794 -0.0567432 0.044780273
000380 fd ba c9 bd 74 ed f1 bd 6b a4 9f be 14 f8 ea bc
       -0.09850118 -0.11812869 -0.31180128 -0.028682746
000390 29 c5 87 bc 77 df 63 bd 57 e9 d4 bd 0d 30 90 3c
       -0.016573505 -0.055633035 -0.103960685 0.017601037
0003a0 a7 52 a0 be 04 6c 8c be 8d ac dd 3d 9c ac 6a bd
       -0.3131306 -0.2742616 0.10823927 -0.05729352
0003b0 0a 5c 26 be 08 96 23 be 94 55 d5 bd 06 35 98 be
       -0.16246048 -0.15975201 -0.10416713 -0.29727954
0003c0 f3 ca 63 bc 4c 1f 44 bc 6f f4 66 be b3 a8 64 3d
       -0.013903367 -0.011970352 -0.22554182 0.055824947
0003d0 34 79 83 be 9a e7 12 be 33 55 20 bd ca 44 80 be
       -0.25678408 -0.14346161 -0.039143752 -0.25052482
0003e0 4b 67 6e bc 2c 84 1f be d1 05 55 be 87 07 2c bd
       -0.014550994 -0.15577763 -0.20803 -0.041999366
0003f0 01 66 d7 bd 62 c0 91 3e b3 39 4f bd 01 07 4f 3c
       -0.105175026 0.2846709 -0.050592136 0.012635947

conv4.lin.weight f4 [256, 128]
000000 50 1b 7b be f8 04 b0 bb d3 5a 39 3e 3e ac 9e bd
       -0.24522138 -0.005371686 0.18101053 -0.07747696
000010 9e 72 f3 3d 1f ef 27 bd cf 83 76 be eb 04 fd bd
       0.11887096 -0.040999528 -0.24073718 -0.12354454
000020 23 45 4b bd a7 ef b8 bd 04 86 20 be d7 3e 1e be
       -0.04962648 -0.09030085 -0.15676123 -0.15453659
000030 8d be 48 3e e1 e0 e6 bd dd 2a 38 3d 33 61 05 be
       0.1960394 -0.11273361 0.044962753 -0.1302536
000040 9c 2b f7 3d ff c0 5d be d9 c4 00 be 3e a8 95 3e
       0.12068865 -0.21655653 -0.12575091 0.2922992
000050 07 d6 af bd 08 da 74 be 4e e0 e1 3c 80 48 97 bc
       -0.08585744 -0.23911297 0.027572777 -0.018467188
000060 e5 2d 3e be c5 fb 86 3c 0b 09 2a 3e 6e ee 34 be
       -0.18572195 0.016477475 0.16605012 -0.17669079
000070 a6 5d dd 3d 26 fa f9 3d 6f cb 5e 3c a2 c7 de be
       0.10808878 0.12205915 0.013598307 -0.43511683
000080 91 c1 a0 be ba 3f ea bd 61 58 87 be c6 4a 1d bf
       -0.3139768 -0.11437936 -0.26434615 -0.6144222
000090 cc fb 97 be f8 5b d1 bd f1 f4 17 3d 71 18 8c bd
       -0.29684293 -0.1022262 0.03709883 -0.06840599
0000a0 2b 25 84 be f6 b7 35 3e 78 ae 2a be 29 14 91 be
       -0.25809607 0.17745957 -0.16668117 -0.28335693
0000b0 db 68 35 be bc 35 ba be 93 89 15 bf cc df 10 bd
       -0.1771578 -0.3636912 -0.58413047 -0.03536968
0000c0 ea 3d 2b be 32 50 3e 3e f8 52 38 be 0a 45 74 bd
       -0.16722837 0.1858528 -0.180004 -0.059636153
0000d0 81 2d 41 bd 7b 97 b9 3d cb a6 c8 3d 30 ea e1 be
       -0.047162537 0.09062096 0.09797438 -0.44123983
0000e0 63 88 06 be d1 0b 73 be 22 77 34 bc 84 59 22 bd
       -0.13137965 -0.23734976 -0.011014732 -0.03963615
0000f0 1e fd a0 be ce 0e 0a be a4 67 d2 bd c6 6b 3c be
       -0.31443113 -0.1348221 -0.10273674 -0.18400487
000100 d1 81 a3 3d 78 92 f7 be 99 21 60 be fe 70 83 be
       0.07983745 -0.48353934 -0.21887816 -0.25672144
000110 0b b6 2d 3e 40 f3 f9 be 25 a2 08 bf 52 33 40 bf
       0.16963975 -0.48818398 -0.5337241 -0.7507831
000120 6b 10 ad be 23 e2 4f be 18 e3 bc be 95 ab 08 bd
       -0.33801588 -0.20301108 -0.3689201 -0.03336676
000130 f8 6a 7b bd df 85 da be 6d 5d 3f 3c c1 f1 94 be
       -0.06138131 -0.4268026 0.011679989 -0.29090694
000140 10 9b a3 be 2a 57 02 bf ce fa f0 3d 95 62 44 be
       -0.3195424 -0.5091425 0.11766587 -0.19178231
000150 25 14 61 b9 0a 25 17 3c b8 eb 8b be ea 0c bf bd
       -0.00021465177 0.009225139 -0.27328277 -0.09328635
000160 7d c7 4a be d3 4e 58 bd ef 24 30 be 50 61 88 bd
       -0.19802661 -0.052809548 -0.17201589 -0.06659186
000170 5a d8 47 be f8 e2 9f bd 2a 68 10 bd 29 d9 fd bd
       -0.19516125 -0.07806963 -0.03525559 -0.12394936
000180 4a 07 e9 be c1 f5 2a bc b0 3b 9b be fc 5f 16 be
       -0.45513374 -0.010434569 -0.30318975 -0.14685053
000190 58 f8 83 bd 87 eb 94 be 4a 09 73 3d 39 e1 89 be
       -0.06443852 -0.29085943 0.05933503 -0.26929644
0001a0 c1 fe 14 be db 6f a2 bd d5 de 38 be 25 c9 c6 be
       -0.14550306 -0.07931491 -0.18053754 -0.38825336
0001b0 1f 55 d7 be 7a 4d f2 bc 46 a4 ed be 23 01 17 3d
       -0.4205713 -0.02957796 -0.46414393 0.03686632
0001c0 3c 53 43 3d c1 45 2f be 6a 5a 56 3e 17 53 a4 3d
       0.0476868 -0.17116453 0.20932928 0.08023661
0001d0 cd 33 71 be 02 91 36 bf 34 c9 e4 be 1d 1e 02 bd
       -0.23554917 -0.71315014 -0.44684756 -0.031767
0001e0 5a 29 03 3e fe 9a 9f 3d 17 c2 e1 3c c7 83 13 be
       0.12808743 0.07793234 0.02755837 -0.14405738
0001f0 6c e1 af bd ed cb 4d 3e 30 87 5e bd e9 b5 d1 bd
       -0.08587918 0.20097323 -0.054328144 -0.10239775
000200 0f 00 1d 3e 6d de 93 3d 31 eb af bd 97 90 23 bc
       0.15332054 0.07220159 -0.08589781 -0.009983203
000210 ad cd 8a 3c 5e 92 dd bc 67 f2 a8 bd 0c 34 a0 bd
       0.016943777 -0.027047332 -0.082493596 -0.07822427
000220 fa cb a4 bd 5b e6 3f bc 70 bb 14 be 87 e3 07 3d
       -0.08046718 -0.011712636 -0.14524627 0.03317597
000230 4b 2b cf bc 37 22 d5 bd 9e 79 88 bc ec b1 ae bb
       -0.025289198 -0.104069166 -0.016659554 -0.0053312685
000240 84 08 e3 bd 96 7c 09 3e e8 de f4 bd 23 04 ea bd
       -0.110856086 0.13426432 -0.119565785 -0.1142657
000250 5a 7d 72 bd 9f e7 cf bb 52 81 ac bd 1e 43 3a bb
       -0.059201576 -0.00634475 -0.084231034 -0.0028421353
000260 4a 8d 76 bd 7f 73 19 be d6 17 59 be 2f 80 ee bd
       -0.060193338 -0.14985465 -0.21200499 -0.11645543
000270 0b 86 81 3d d7 a9 39 bd 2c 49 26 be a7 24 37 bc
       0.06324395 -0.045327988 -0.1623885 -0.011178172
000280 5f 84 fe bd 19 83 d7 bb 4e bb 13 be d6 01 45 bc
       -0.124275915 -0.0065769074 -0.1442692 -0.0120243635
000290 8e 1c 79 bd 41 55 18 be 62 34 8e 3d 5d b0 96 bd
       -0.060818247 -0.14876272 0.06943585 -0.073578574
0002a0 e3 7d a3 bd 29 09 02 be 3e de c8 bc 06 e1 8e bd
       -0.07982995 -0.12698807 -0.024520036 -0.069765136
0002b0 50 86 20 be 39 18 89 3c 89 cb d6 bc d4 7e a3 3c
       -0.15676236 0.016735183 -0.0262201 0.019957937
0002c0 6d 92 2d 3d 8d 57 0b bc fb c7 27 bd 14 4c a2 3c
       0.04237597 -0.00850476 -0.0409622 0.019811668
0002d0 ac 55 f3 bd 43 95 15 be 77 28 1b be b0 45 0f 39
       -0.11881575 -0.1460772 -0.15152155 0.00013663503
0002e0 8c 9e 16 bd 41 05 fe 3d c9 67 a7 bd c7 dc e8 bd
       -0.036772296 0.12403346 -0.08174092 -0.11370235
0002f0 46 fc 77 3d 87 b5 a5 3d 1d 08 f9 3b a5 cd ab 3b
       0.06054332 0.08091264 0.007599844 0.0052430206
000300 ca a5 a6 3c e1 9e 37 bd 19 87 e9 3d cf df 3b 3d
       0.020342726 -0.044829253 0.11402721 0.045867737
000310 ed 2a 98 3b 27 4d dc 3d 4a eb aa bd 1a 4d 76 bc
       0.004643789 0.10756903 -0.08345659 -0.015033031
000320 78 4f 20 3a 2b af a0 3d 4b 1f 9c 3b 44 cc d7 bc
       0.00061153574 0.07845911 0.0047644726 -0.026342519
000330 42 80 d8 bd 1e c3 bd bc 3c 2d 41 be ce 14 0f 3b
       -0.10571338 -0.023164328 -0.18864912 0.002183247
000340 ae 0c 6f bd 53 fc 07 3c 9e 83 ae bd ba 41 06 3e
       -0.0583617 0.008299905 -0.08521198 0.1311101
000350 9a 2f b9 3d 6e c1 7b bc d3 75 22 bd b9 8c 4c 3d
       0.090422824 -0.015365941 -0.039663147 0.04993889
000360 90 5f 49 3c 5b c0 d6 bc e3 2c 0d 3d 47 31 8c bd
       0.01229085 -0.02621477 0.034466635 -0.068453364
000370 ce 66 66 bd 8f e2 1c bd 9d 38 5e be 3c 7b b8 3c
       -0.056250386 -0.038302 -0.21701284 0.0225197
000380 03 b1 26 3d 5a ce 44 bd e5 99 87 bd 1e 3b e3 3d
       0.040696155 -0.048048355 -0.0662115 0.1109526
000390 6f 89 48 3d 4f 50 17 3d b6 cf 46 be af c8 fe 3c
       0.048959192 0.036941823 -0.19415173 0.031101553
0003a0 27 68 f7 bb f7 1a 78 bd ed 31 a7 3d 33 88 80 bd
       -0.0075502577 -0.06057259 0.081638195 -0.06275978
0003b0 14 f3 ad bb 55 c9 09 be 0b d9 1a 3b f0 46 fe bc
       -0.005308518 -0.13455708 0.0023627903 -0.031039685
0003c0 25 df 65 be 79 cd 8d bd d8 87 06 be 1c 4a ce 3c
       -0.22448404 -0.069239564 -0.13137758 0.025181822
0003d0 98 bd 15 3d db 72 17 3d b5 97 0c 3b 47 82 08 be
       0.036557764 0.03697477 0.002145273 -0.13330947
0003e0 44 8e a2 bd d1 48 d7 bc 51 8f a0 bd 3d f2 7d bd
       -0.07937291 -0.026279839 -0.078398354 -0.061998595
0003f0 8f 5f 17 be 61 02 b7 3b f6 98 c2 3c e9 c1 84 bd
       -0.14782546 0.0055850004 0.023754578 -0.06482298

conv5.bias f4 [256]
000000 ed c9 b2 37 07 f2 2a 36 44 15 7b b7 0d f1 c0 34
       2.1313283e-05 2.5472852e-06 -1.4965717e-05 3.5938174e-07
000010 dd 6c 61 b7 ac ef 5b b7 c9 4b 30 37 7f e1 1f 36
       -1.3436392e-05 -1.310922e-05 1.0508063e-05 2.3824102e-06
000020 9d 73 b0 35 b6 8a 8e b7 0e 43 2f b8 65 37 38 37
       1.314667e-06 -1.6992311e-05 -4.17857e-05 1.0980152e-05
000030 e4 9e 93 b5 4b 1a a8 b6 ea bc bd 37 62 19 1e 37
       -1.0998597e-06 -5.009851e-06 2.2618526e-05 9.423444e-06
000040 36 09 bc b7 75 52 b0 36 97 73 5a 37 d9 79 c2 b3
       -2.2415636e-05 5.254808e-06 1.3020725e-05 -9.055993e-08
000050 45 cb 87 b5 7d 2e 3b 36 df 58 69 37 1e 7c 87 36
       -1.0117443e-06 2.7892231e-06 1.3908574e-05 4.0377627e-06
000060 43 7f fe b6 64 04 ae b7 5e e4 af b7 40 57 90 b7
       -7.584605e-06 -2.0744461e-05 -2.0967967e-05 -1.7206767e-05
000070 fb 4c 2f 38 b2 81 3e 36 3e 07 88 36 28 d1 bc b7
       4.1794945e-05 2.83877e-06 4.053959e-06 -2.2508742e-05
000080 65 07 ba 36 8a ff 22 b7 7e 34 e2 b5 32 da 36 36
       5.544093e-06 -9.71545e-06 -1.6853589e-06 2.724712e-06
000090 df 22 ba b7 da 67 14 b6 e0 b0 87 37 13 bf 53 37
       -2.2189166e-05 -2.2114168e-06 1.6175618e-05 1.2621068e-05
0000a0 ca 09 72 b7 93 e9 2c b7 2b e7 f4 b7 ac c6 44 37
       -1.4426603e-05 -1.0306382e-05 -2.9194713e-05 1.1728767e-05
0000b0 ff 32 89 b7 de d7 58 34 ff ea 66 b6 70 37 25 b6
       -1.635542e-05 2.01951e-07 -3.4409456e-06 -2.4619185e-06
0000c0 42 d1 d8 35 5f d7 eb b7 2f 9b 5a b7 01 ab 15 38
       1.6154156e-06 -2.8114473e-05 -1.3029944e-05 3.5683628e-05
0000d0 50 52 df 36 53 24 3d b5 97 43 03 37 cd d4 41 37
       6.6555003e-06 -7.0460845e-07 7.823945e-06 1.1553243e-05
0000e0 98 e1 99 b6 ec 29 55 b6 13 2f 62 37 d3 2e 45 b7
       -4.586018e-06 -3.1763875e-06 1.348161e-05 -1.1753017e-05
0000f0 c8 78 35 37 ae 7b d8 b7 3c 63 b9 b6 e5 51 86 37
       1.0816562e-05 -2.58068e-05 -5.524982e-06 1.601218e-05
000100 a6 df 00 38 bb 4b e9 35 78 6e a4 b8 0e fb 19 b6
       3.0725867e-05 1.7381893e-06 -7.840706e-05 -2.294491e-06
000110 71 cf 16 37 74 3b 99 b6 c5 d3 ba 36 b3 15 1e 36
       8.988995e-06 -4.5666766e-06 5.567885e-06 2.3556465e-06
000120 a4 0b e1 b4 42 6a fe 37 21 28 56 36 ed 77 f8 b5
       -4.1917986e-07 3.032864e-05 3.1911843e-06 -1.8512343e-06
000130 28 66 69 35 69 8b 44 35 47 65 b6 b7 0e cc ad 37
       8.694792e-07 7.321856e-07 -2.1743252e-05 2.0718227e-05
000140 9f aa 13 37 a9 e5 24 37 0a d6 92 b7 70 39 e0 37
       8.801609e-06 9.828634e-06 -1.7504226e-05 2.6729627e-05
000150 d7 a9 c5 36 06 42 35 b6 5b 0f 8b 36 04 22 65 b5
       5.8908295e-06 -2.7009532e-06 4.1443104e-06 -8.5358647e-07
000160 f5 4b de 35 30 a3 3b 36 77 e8 99 b5 e3 26 c9 b7
       1.6562395e-06 2.796016e-06 -1.1467044e-06 -2.3979175e-05
000170 ce 50 d4 37 c3 78 76 35 1d 29 90 b4 fe 4b a0 37
       2.5309997e-05 9.181787e-07 -2.6852004e-07 1.9108873e-05
000180 20 d4 10 b6 2f cb 8a b6 2e a3 36 b7 62 49 ff b5
       -2.1581145e-06 -4.136374e-06 -1.0886039e-05 -1.9020338e-06
000190 be e0 d3 36 ad ba 19 37 2d 55 44 37 d7 34 b4 36
       6.3144535e-06 9.1629745e-06 1.1702342e-05 5.3705694e-06
0001a0 23 82 be b7 cd 05 7c b7 9b 78 fb 35 b9 5b 5b 38
       -2.2710365e-05 -1.5021721e-05 1.8736058e-06 5.2299092e-05
0001b0 d8 68 5c 35 80 2c f7 36 63 bc e5 37 45 f6 75 b6
       8.2108954e-07 7.366354e-06 2.7386652e-05 -3.6651193e-06
0001c0 fb fd a4 36 65 13 83 b5 83 e4 35 37 b2 e6 27 36
       4.917148e-06 -9.765905e-07 1.0841645e-05 2.5019222e-06
0001d0 ff 92 85 b5 40 94 17 b8 a1 c9 06 38 ad e6 45 b7
       -9.952054e-07 -3.6139274e-05 3.213587e-05 -1.1795823e-05
0001e0 a7 db ed 36 d1 24 87 b5 94 be bf 37 21 c6 f3 b7
       7.0887213e-06 -1.0068999e-06 2.285772e-05 -2.9060118e-05
0001f0 08 83 06 b8 41 28 5c 38 f1 d8 27 b7 9d db 50 b5
       -3.2070122e-05 5.2489577e-05 -1.0004486e-05 -7.780562e-07
000200 43 ea 33 37 56 41 34 36 fb 6b 64 b7 28 ac 3d b6
       1.0723775e-05 2.686012e-06 -1.3615e-05 -2.8263403e-06
000210 d9 01 a8 37 46 7c db 36 c0 0b 83 35 d1 10 64 b6
       2.0028021e-05 6.541176e-06 9.76368e-07 -3.3984436e-06
000220 08 29 44 b5 42 61 99 b7 66 58 a4 b7 72 05 c7 b6
       -7.30754e-07 -1.828431e-05 -1.9591487e-05 -5.931296e-06
000230 22 0c 0b 38 f3 10 c8 35 ff 2a 01 37 fa 40 95 37
       3.3151482e-05 1.4906094e-06 7.69901e-06 1.7792441e-05
000240 87 f8 25 35 6d 0a 0c b6 34 8e b8 b6 60 f5 9f b7
       6.1828945e-07 -2.0867694e-06 -5.500182e-06 -1.9068539e-05
000250 92 a5 12 b7 45 0c 18 35 fa 92 c6 b6 b5 82 98 b5
       -8.740828e-06 5.6642267e-07 -5.91797e-06 -1.1362923e-06
000260 13 4e e4 35 3c d8 88 b6 95 56 8d b6 98 89 b1 36
       1.7010046e-06 -4.078289e-06 -4.212207e-06 5.291029e-06
000270 c1 0c 92 36 00 ca 74 b6 33 93 a7 37 10 e4 ad 37
       4.352624e-06 -3.6476413e-06 1.9976496e-05 2.0729407e-05
000280 93 cd e7 36 e1 5e 3b b7 78 48 8a b7 63 25 9d b7
       6.9082685e-06 -1.1168159e-05 -1.6484628e-05 -1.8733268e-05
000290 c3 b8 a9 35 af e7 9a 37 fc 02 19 b8 7e e4 3e b6
       1.2645254e-06 1.8466117e-05 -3.6480822e-05 -2.8445206e-06
0002a0 23 99 3e 38 0b ab 17 b7 71 3d cb b5 51 33 ee 37
       4.544215e-05 -9.040125e-06 -1.514256e-06 2.8395707e-05
0002b0 27 e4 6b 37 de 5d ba b6 51 ce 2e 37 c2 33 14 37
       1.4060212e-05 -5.5541595e-06 1.0419245e-05 8.833538e-06
0002c0 87 cd a6 35 44 ec a3 36 e5 b5 09 37 54 d4 89 b7
       1.242778e-06 4.8852835e-06 8.208187e-06 -1.6430546e-05
0002d0 96 7b 14 36 44 c6 52 37 de c2 e1 b6 2d a6 2e b7
       2.2125655e-06 1.2563138e-05 -6.728208e-06 -1.0409899e-05
0002e0 14 ac de 35 3d b4 75 b6 7d 26 84 37 93 68 96 37
       1.659037e-06 -3.6612757e-06 1.5753549e-05 1.793009e-05
0002f0 80 b2 be b6 d3 a3 a7 b7 58 92 98 37 9d 9f a3 37
       -5.6832214e-06 -1.9984238e-05 1.8187959e-05 1.950544e-05
000300 91 11 96 b6 3c 14 2e b6 8c f2 0e 36 e4 08 a9 37
       -4.4723934e-06 -2.5939798e-06 2.130083e-06 2.015051e-05
000310 01 3a 41 b8 fc 5e 81 b7 fa d8 6e 36 df 0e 57 36
       -4.6068806e-05 -1.5422229e-05 3.559106e-06 3.2046153e-06
000320 96 eb c5 34 01 36 cb 37 f1 29 b3 37 6b 17 62 b7
       3.686552e-07 2.4224633e-05 2.1357993e-05 -1.3476102e-05
000330 fa 36 00 b8 db ee f4 b6 23 9a b2 36 ae 28 9f 37
       -3.056878e-05 -7.299573e-06 5.3227573e-06 1.897322e-05
000340 be d9 b0 b6 5c 8a 66 b7 e2 6f db 36 3b 2e a4 b5
       -5.2705573e-06 -1.3741283e-05 6.5397335e-06 -1.2232407e-06
000350 bd b5 81 b7 48 02 54 b6 95 0e 5e 36 8c 60 c9 36
       -1.5462627e-05 -3.159179e-06 3.3089066e-06 6.0015063e-06
000360 e2 87 67 37 2d e5 9c 36 08 d5 c7 b5 c4 07 e6 b6
       1.3800311e-05 4.675842e-06 -1.4888656e-06 -6.855438e-06
000370 d2 ce a1 b4 5f f0 96 b7 50 0e 0c b5 ba b9 bc 35
       -3.0139068e-07 -1.7993325e-05 -5.217489e-07 1.4061145e-06
000380 fa 87 19 38 ac 63 bc 37 8f 07 10 b7 3f 97 ad b6
       3.660468e-05 2.245776e-05 -8.584829e-06 -5.173409e-06
000390 fc 1c f6 b6 b9 59 30 b6 78 9a 25 b8 6f 86 d2 b6
       -7.3347455e-06 -2.627827e-06 -3.9482926e-05 -6.274138e-06
0003a0 61 15 e3 34 83 74 f0 b6 eb 7f 22 b7 40 72 63 35
       4.22976e-07 -7.166121e-06 -9.685736e-06 8.4730345e-07
0003b0 58 41 f6 b6 c0 eb 76 b7 0f b4 87 37 cb 7a 0f 37
       -7.3389783e-06 -1.4717632e-05 1.61771e-05 8.552054e-06
0003c0 ea 5e db 37 b0 84 ed 35 e4 64 13 b7 43 2c 12 38
       2.6151032e-05 1.7696493e-06 -8.785373e-06 3.4850334e-05
0003d0 6e a5 54 38 30 42 90 37 af 23 89 36 ef 5d 86 37
       5.0698807e-05 1.7196959e-05 4.0870723e-06 1.6017786e-05
0003e0 88 9c 24 b7 7c 13 ed b7 5a 61 0a b8 7d 98 46 35
       -9.811607e-06 -2.8261675e-05 -3.299243e-05 7.398265e-07
0003f0 2e 2c a2 b6 e6 2b 73 36 90 7c af 37 b9 c6 e7 b6
       -4.8331194e-06 3.6235374e-06 2.091963e-05 -6.907471e-06
