weights/6-5-0_split_3.pt (torch, 473413 bytes, 26 tensors)

conv1.bias f4 [64]
000000 44 50 49 b7 16 43 19 b7 8e 10 37 b6 20 30 0e b8
       -1.1999222e-05 -9.13513e-06 -2.727876e-06 -3.3900258e-05
000010 f2 17 82 36 cc 20 3c 35 3b 84 00 36 ce 19 bb 36
       3.8770895e-06 7.0083183e-07 1.9150455e-06 5.5760383e-06
000020 6f 0f 3e b6 a2 70 ca 36 12 3a ba b7 6f 6b df 36
       -2.832119e-06 6.0331813e-06 -2.2199969e-05 6.658425e-06
000030 79 62 64 b5 c6 d1 94 36 19 13 0c b8 79 27 5a 36
       -8.5079915e-07 4.4351646e-06 -3.3396387e-05 3.2507508e-06
000040 97 0b 9b b7 84 34 97 37 3e c2 e8 35 82 89 43 36
       -1.8482837e-05 1.8025057e-05 1.7341879e-06 2.9137304e-06
000050 69 29 83 31 46 b3 70 36 d1 51 6a b7 30 b0 02 b5
       3.8173096e-09 3.5867138e-06 -1.3966536e-05 -4.868516e-07
000060 4f 13 3e 37 a2 16 89 b7 15 26 83 36 35 d6 17 b8
       1.1329378e-05 -1.6342212e-05 3.9085376e-06 -3.62007e-05
000070 bf 0f 16 37 d4 57 84 37 17 a3 4d b4 16 e9 0f 36
       8.944363e-06 1.5776524e-05 -1.9151445e-07 2.1444334e-06
000080 26 7b 50 36 28 5f ea b5 f1 df 46 36 43 e3 37 34
       3.1066097e-06 -1.7462053e-06 2.963465e-06 1.712588e-07
000090 a3 76 1a b8 a1 6e 48 36 9f 8c 6b 35 13 f7 8f 36
       -3.682695e-05 2.9866717e-06 8.774895e-07 4.2904953e-06
0000a0 e0 38 b3 35 15 2a 17 35 3a 72 2c b7 6b 32 fc 35
       1.3353092e-06 5.631312e-07 -1.0278594e-05 1.8790137e-06
0000b0 11 30 2d 36 ad b2 51 b4 9e fc da 36 12 9a 33 37
       2.5806987e-06 -1.9529644e-07 6.526315e-06 1.0705104e-05
0000c0 e3 5f 1f 37 ba 23 2c 36 95 28 99 37 de d7 85 36
       9.499464e-06 2.5650793e-06 1.8257919e-05 3.988839e-06
0000d0 b3 21 e1 35 53 84 a8 37 20 20 b6 36 1f d4 fc 36
       1.6773614e-06 2.0088779e-05 5.4277625e-06 7.5348794e-06
0000e0 49 37 f4 36 1a a0 f3 36 20 2f b6 36 66 e4 e0 37
       7.2782027e-06 7.2606026e-06 5.4295087e-06 2.6809237e-05
0000f0 36 f6 b1 36 c0 ab 68 b5 4d 6e a3 b6 41 61 65 b5
       5.303674e-06 -8.6676664e-07 -4.8706193e-06 -8.545067e-07

conv1.lin.weight f4 [64, 2]
000000 8f 19 96 be fd 48 17 be 5c b1 9b be aa b8 30 be
       -0.29316375 -0.14773937 -0.30408752 -0.17257944
000010 90 e4 d8 3b 67 c0 62 be 2f 21 8a be 4b 62 fd bd
       0.0066190436 -0.22143708 -0.26978442 -0.123722635
000020 6b e6 38 bc e2 d1 fb be 5f 40 0f 3e b0 57 b2 3e
       -0.011285405 -0.49183565 0.139894 0.34832525
000030 90 9d 9a 3d aa cf d3 3e 06 9f b0 3d 4e 9d fc 3e
       0.07549584 0.41369373 0.08624081 0.49338764
000040 92 c8 8d 3e 89 b1 80 3d ae ea 6e 3d d6 6b c8 3e
       0.27692086 0.06283862 0.058329277 0.39144772
000050 e2 e0 c9 be 91 6c b3 3c 04 34 0f ba ce 47 0c bf
       -0.39429384 0.021902354 -0.0005462768 -0.54797065
000060 1f 23 21 3e 93 22 15 be b5 8b 84 3e 2f 68 ef 3d
       0.15736054 -0.1456397 0.25887838 0.11689793
000070 8c 4a 85 be 45 19 1a be bb b1 ee 3d 9e bc ed 3e
       -0.26033437 -0.15048702 0.11654993 0.46432966
000080 c3 af 81 be 2d a9 2f be 6e f4 96 3c 47 3c da be
       -0.25329408 -0.17154379 0.0184271 -0.42624113
000090 93 d2 39 3e 4f da ae 3e 8a e0 fe 3c 12 63 fd 3e
       0.18146734 0.3415093 0.031112928 0.49489647
0000a0 86 3b 11 3e b5 99 a4 3e 05 5a 3e be 84 a2 8e 3e
       0.14182863 0.3214852 -0.18589027 0.27858365
0000b0 47 d7 87 be ec 32 4d be 7e 9b 33 3f 02 08 f0 3b
       -0.2653143 -0.20038956 0.7015914 0.0073251734
0000c0 a3 e5 a0 3e 1f 8c 13 3e a9 35 79 be 9b b2 17 be
       0.314252 0.1440892 -0.24336876 -0.14814226
0000d0 d5 76 20 3e d9 5d 84 3e a9 bd 82 be 76 56 2b be
       0.15670331 0.2585285 -0.25535324 -0.16732201
0000e0 64 87 10 3c f1 80 e4 be fc 0d 73 bb 03 ea 8a be
       0.008821342 -0.44629624 -0.0037087193 -0.27131662
0000f0 2c 26 7b be f4 3d 3f be 5d 7c 4b be 5a f4 99 3e
       -0.2452628 -0.18675977 -0.1987166 0.30069238
000100 37 a9 fc 3e 9f 01 83 bb 89 e9 e3 3e e4 ca 97 bd
       0.4934785 -0.003997996 0.4451411 -0.07411745
000110 8e fa 81 be 05 7c a9 3e de 6e aa 3e 13 d6 ae 3d
       -0.2538647 0.33102432 0.3328771 0.08536925
000120 da 01 73 be 31 59 a2 bd 10 e1 a1 3d c3 0d 79 3e
       -0.23731175 -0.07927168 0.079042554 0.24321656
000130 52 cb 9b 3d e3 41 e0 3e 5f 32 94 be 43 02 b9 3e
       0.0760714 0.43800268 -0.2894468 0.36134538
000140 27 96 a0 be d1 78 9a 3e 44 72 4d 3d f2 91 05 3e
       -0.31364557 0.301703 0.0501578 0.13043955
000150 93 7d 9b be b0 f8 40 be ef 19 39 3e 6a 4e 51 3e
       -0.30369243 -0.18844867 0.18076299 0.20440069
000160 e1 23 0a be a7 e9 a9 3e 8b a5 85 be 80 c3 b8 3e
       -0.13490249 0.33186075 -0.26102862 0.36086655
000170 ac 52 be 3e e5 83 15 3e b1 5c 3a bd 30 89 b5 be
       0.3717245 0.14601095 -0.045498554 -0.35456228
000180 ea 07 b5 3d 78 1d bc 3e b0 7c da 3c 07 da e1 3e
       0.088394 0.36741233 0.026670784 0.44111654
000190 58 ee a8 bc 4c 3d ad be bb 67 11 3f 4d 3c a5 bc
       -0.020621464 -0.33835828 0.56798905 -0.020170355
0001a0 19 f5 46 be b2 9a 9a 3e 80 4a c0 3d bb aa a6 3e
       -0.19429435 0.30196148 0.0938921 0.32552132
0001b0 a3 75 86 3e a7 a9 10 be cd 7d ad 3c 06 8e af be
       0.26261625 -0.14127217 0.02117815 -0.34288043
0001c0 cb 09 3a be de 71 88 3e c7 56 dc bc 99 df fa 3e
       -0.18167798 0.26649374 -0.026896847 0.48998716
0001d0 98 69 9a 3e 13 d5 10 3e 03 94 8b 3e a0 8e 00 3e
       0.30158687 0.14143781 0.2726136 0.12554407
0001e0 7b e9 19 3d a1 5a ff 3e e8 4c 06 be 75 3d b0 be
       0.03757618 0.49873832 -0.13115275 -0.34421888
0001f0 4d 9d 9e 3e 9f 00 14 be 0c e1 83 be b6 86 7d 3e
       0.30979386 -0.14453362 -0.25757635 0.2475842

conv2.bias f4 [64]
000000 90 32 95 be c7 92 01 bf b3 1b d1 be 5f 70 d3 3e
       -0.2914014 -0.5061459 -0.40841445 0.4129667
000010 2f ef dd be d0 fe 2c bf c2 a2 90 be 33 a5 88 be
       -0.43346545 -0.67576313 -0.28249174 -0.26688537
000020 a3 04 e1 be 87 92 bc 3d b7 2d b5 be a2 7a 57 be
       -0.4394885 0.092076354 -0.3538644 -0.21042874
000030 75 a7 3b bf 4e c8 28 be 75 b8 27 3c 9b 45 54 3d
       -0.73302394 -0.1648266 0.010236849 0.051824193
000040 a5 73 ef 3a fb 3a 31 bd 16 bb 05 3e 9e 8c 8b 3c
       0.0018268718 -0.04326914 0.13059649 0.017034825
000050 53 4c d8 be 65 07 3b bf aa eb 2b bd 97 6b 04 bf
       -0.4224573 -0.7305816 -0.041972794 -0.5172667
000060 35 8f d3 be 3b ac 97 be 30 d2 ae 3e 62 53 ba be
       -0.41320196 -0.2962359 0.34144735 -0.3639174
000070 24 37 0d bf 53 44 55 3d cb 99 5b be 00 b5 f8 be
       -0.5516226 0.052067112 -0.21445386 -0.48575592
000080 5a 9c 81 3e 0e 6f 1c be 72 7a 05 3e 68 c6 f6 be
       0.253146 -0.15276739 0.1303499 -0.48198247
000090 65 9e 0d bf d3 aa 73 3c 96 cc 92 3c 26 9d 70 3e
       -0.55319816 0.014872271 0.01791982 0.23497447
0000a0 9e 3e 52 3e bf a8 af bc 98 96 01 bf 03 e1 d0 be
       0.20531699 -0.02144277 -0.5062041 -0.4079667
0000b0 94 23 9a 3b 83 46 6b 3e 01 e6 f0 3d 66 23 7f bd
       0.0047039483 0.22976117 0.1176262 -0.062289618
0000c0 bf 79 29 be 0d ed 53 bf f2 46 45 bf 0b fc 06 bf
       -0.16550349 -0.82783586 -0.7706138 -0.5272834
0000d0 3f 69 fc bc af 71 03 bf 70 ed 28 be 87 f0 83 3e
       -0.030811904 -0.5134534 -0.16496825 0.25769445
0000e0 ce 01 89 be ec 9a c2 be 6a 53 cd be 7b d6 94 be
       -0.2675919 -0.3800882 -0.40102702 -0.29069886
0000f0 53 d3 83 3e a3 f8 fc be 37 3b 84 be 9f c6 31 be
       0.25747165 -0.49408445 -0.25826427 -0.17360924

conv2.lin.weight f4 [64, 64]
000000 0a ac 99 3d 2d 3b f6 3a 8d 1e 83 be d8 02 32 bd
       0.07503517 0.0018785946 -0.25609246 -0.043459743
000010 2b f3 ec bc d3 00 82 3e 6d e4 54 3e 0f 30 19 3d
       -0.028924545 0.25391254 0.20790263 0.037399348
000020 d9 a8 bd bd ec f5 ac 3d ec 9e 5a be 6c 19 b4 bd
       -0.09260721 0.084453434 -0.21349686 -0.08793911
000030 f6 6e ad be 74 1f c0 3d 96 36 5e 3d e4 bd 42 3d
       -0.3387372 0.09380999 0.054251276 0.047544375
000040 39 9b 59 3e d9 dd 14 3e 89 69 89 3e 1a 15 f2 3b
       0.21250619 0.14537753 0.2683833 0.0073877694
000050 eb b7 b1 bb 49 53 10 bf 2a 04 4a bd 33 42 24 bd
       -0.005423536 -0.56377083 -0.049320377 -0.040102195
000060 b9 f4 52 3e 2a 2e ea bd db 92 53 3d ee e2 cb bd
       0.20601167 -0.11434586 0.051653724 -0.09955393
000070 2c 3c b2 bd df b6 80 bd ab 83 99 bd 24 a8 5f bf
       -0.08702883 -0.0628488 -0.07495817 -0.8736594
000080 c4 05 3b be f3 20 39 be 1b 99 79 bf 15 08 34 3d
       -0.18263918 -0.18078975 -0.97499245 0.04395302
000090 ee b7 0c bd 6c e9 05 3d 45 e6 cb 3d 38 aa 0e bf
       -0.034355097 0.03269331 0.0995603 -0.55728483
0000a0 e1 86 c8 be 11 0a 4f bd 13 fe 6a 3e c3 a9 34 3e
       -0.39165404 -0.05054671 0.22948484 0.17642884
0000b0 96 ae 91 bd a4 1e 73 bf bd d0 7c 3d fe b7 0a 3e
       -0.07113378 -0.9496863 0.061722506 0.1354675
0000c0 b1 64 69 3e 68 cb b3 3c 2c 4f fb bc b3 c5 5e be
       0.22792317 0.021947578 -0.0306774 -0.21755104
0000d0 1e 91 36 bf c1 85 a3 3d 5c e6 5b be 16 78 4a bc
       -0.7131518 0.07984496 -0.21474594 -0.012357732
0000e0 d7 f6 05 bf 12 7e 0e be 5b 0d 66 3e aa 14 97 3e
       -0.5232977 -0.1391528 0.22466032 0.29507953
0000f0 98 64 4b 3d 29 39 48 3e 7e ca d2 be 73 51 cc be
       0.04965648 0.19553055 -0.41170114 -0.3990589
000100 13 46 5f bf c0 48 bb be 25 15 85 3e b2 b0 5f bf
       -0.872163 -0.3657894 0.25992694 -0.8737899
000110 ad c1 4d bd b1 a3 9f be b1 93 5e bd 97 e3 98 be
       -0.05023353 -0.31179574 -0.05434007 -0.29861137
000120 c8 5b 3f be 2c 2b 8f bd 78 f9 26 be 15 4a ba bb
       -0.18687356 -0.06990656 -0.16306102 -0.005685101
000130 10 2b a4 3d 21 4d ff be ed 26 1f bf 03 ee 67 be
       0.08016026 -0.49863532 -0.6216877 -0.22649388
000140 97 83 1b bf 45 51 97 bc f9 bf c0 be a5 bd 08 ba
       -0.60747665 -0.01847137 -0.37646464 -0.00052162475
000150 45 9b b3 be 2c cc 42 3e 78 71 e3 be 4f fb 5c 3e
       -0.350794 0.19023198 -0.44422507 0.21580242
000160 0b 8b 07 bf e3 14 2a bf 82 e9 a4 be 6c ad 2b bf
       -0.5294654 -0.6643812 -0.32209402 -0.67061496
000170 08 9c ce bc 88 ad 40 3d 8c 7b 49 be 8c 9e aa 3c
       -0.025220886 0.047040492 -0.19676036 0.020827554
000180 6c 83 09 3e 3d 6d 6b 3e c2 44 35 3c ef e8 d2 be
       0.1342904 0.2299089 0.011063756 -0.4119334
000190 7f d5 23 bf f6 d7 07 bc 68 cf 82 be 8e 94 29 3e
       -0.63997644 -0.008291235 -0.25548863 0.16560575
0001a0 5b 27 8e 3d 3f a0 53 bd 8e aa 1e bf e6 87 af be
       0.069411 -0.051666494 -0.61978996 -0.3428337
0001b0 9b ed 78 bd fc 6d aa 3c a0 2e b4 be 11 e2 dc 3d
       -0.060773473 0.020804398 -0.35191822 0.10785306
0001c0 68 ff f7 bd 92 f0 04 3d 88 d1 52 3e 5a cb e3 bc
       -0.12109262 0.03245599 0.20587742 -0.027806927
0001d0 de 34 fc 3c 55 50 8a 3b c7 c5 53 3e 30 01 38 3e
       0.030786928 0.004221002 0.20680915 0.17969203
0001e0 d6 57 45 bd 92 93 9f 3c 93 5b 6a bf 8d 69 09 bf
       -0.04817947 0.019479547 -0.9154598 -0.5367668
0001f0 08 2b 41 3d d6 1f 1b be d8 ae 97 3e b9 b4 31 be
       0.04716018 -0.15148863 0.29625583 -0.17354096
000200 35 50 8d bb 25 e0 4d be 5a a3 b6 3d 10 c7 aa bd
       -0.00431254 -0.20105036 0.089178756 -0.083387494
000210 4f 39 83 3e 18 07 eb bd 96 bd 75 3d 1c 0f 2f bd
       0.2562966 -0.114759624 0.059995256 -0.04273902
000220 3f 0a 04 be 44 c2 94 3d 32 ee b8 be 16 38 72 3e
       -0.12894534 0.07263616 -0.3611923 0.23654208
000230 c2 1c 6a bd 70 19 68 be c7 ad a9 3d 4a 51 fe 3d
       -0.05715633 -0.22665954 0.082850985 0.124178484
000240 cf 66 fb 3c 27 27 d6 3d 2a e4 db bc ae 5a 17 3e
       0.030688671 0.104566865 -0.026842196 0.14780685
000250 95 be a1 be 5a 69 d3 be 70 2b 1d 3d 1d a5 ed be
       -0.31590715 -0.41291314 0.038371503 -0.46415034
000260 86 1e c3 be 70 17 2b be 8a 5d b6 bd a7 64 0c 3e
       -0.38109225 -0.1670816 -0.0890456 0.13710271
000270 51 2d 8c 3e 9d 63 9b 3d 8b 07 6d bb 00 d1 0d bf
       0.27378324 0.07587359 -0.0036167826 -0.55397034
000280 a9 71 0a bf 41 e5 97 bd 22 a2 2e bf 5b de 21 bf
       -0.5407968 -0.074167736 -0.68216145 -0.6322991
000290 b7 7d 86 be 14 45 e5 3d 5c fc d4 be da 30 8c be
       -0.26267788 0.11194816 -0.41598785 -0.2738102
0002a0 d9 c6 87 be 29 c2 c4 bd 4e 8a 96 3d 36 45 35 be
       -0.26518896 -0.096073456 0.07350598 -0.17702183
0002b0 7a d3 70 be 80 c5 e0 be 6d 6a 8b be 1b be 5a 3d
       -0.23518172 -0.4390068 -0.27229634 0.053403955
0002c0 f4 63 cf 3d 09 e9 ce 3d 03 4b 25 be 7f f4 03 bf
       0.101264864 0.10103042 -0.16141896 -0.51544946
0002d0 6c 14 a6 be 27 89 cc bd f2 10 76 bd 1e 53 07 3d
       -0.32437456 -0.09987097 -0.060074754 0.03303825
0002e0 91 26 7f be 7c ab 89 bd 09 22 a0 be d3 62 88 be
       -0.24917056 -0.06722161 -0.31275967 -0.26637897
0002f0 c9 d8 80 3c 31 de 21 bc a3 a5 55 be 01 ae e8 bd
       0.015728371 -0.009879635 -0.20863967 -0.113613136
000300 82 b8 96 3d 12 b2 18 be e3 90 bf bc 15 16 e9 3d
       0.07359411 -0.14911678 -0.023384517 0.11381165
000310 fe 86 a9 3d d3 e0 88 bd 23 0f 3d 3d fe aa cc bd
       0.08277701 -0.06683507 0.046157014 -0.09993552
000320 cd 54 f8 bd b9 22 61 3d de 4c 9a bd 69 1f 05 be
       -0.121255495 0.054964755 -0.075341925 -0.13000263
000330 17 61 1c be ff 0d aa bc 30 28 36 bc 0b 4d 8f 3d
       -0.15271412 -0.020758627 -0.01111798 0.06997117
000340 77 ef b3 bb 50 47 79 bd 5a 63 72 3c c7 36 0a 3d
       -0.005491193 -0.060859025 0.014794195 0.033743646
000350 69 71 70 3d 24 cb cc bd 9a a7 a6 3d a4 2b 9d bd
       0.058701906 -0.099996835 0.08137436 -0.076743394
000360 0a 67 d2 bc 81 c0 07 3c a0 29 1d 3e 18 28 f3 bd
       -0.025683898 0.008285643 0.1534791 -0.11872882
000370 a0 f0 92 3c e6 f4 a9 bd bd b6 05 3e a4 41 74 be
       0.017937005 -0.08298664 0.1305799 -0.23853165
000380 55 30 ce 3a fd 14 06 be fd 39 a6 3d cb e3 c1 3b
       0.0015730957 -0.13093944 0.08116529 0.0059170476
000390 fc 8a 5a be 08 fc a3 3d 08 7e 3d 3e 15 89 39 3d
       -0.21342081 0.080070555 0.18505108 0.045296747
0003a0 d0 8e 01 3d 7d a7 fd 3c d7 3a 3f be a6 0b 75 bd
       0.031630337 0.030963654 -0.1867479 -0.059825562
0003b0 0e c8 76 bd 59 cc 3a bd b9 34 e3 bd 2f 85 09 be
       -0.06024938 -0.045605037 -0.110940404 -0.13429712
0003c0 0d cc 98 3c a5 dd 5c bd d1 48 4e bd 9f 4a 38 3c
       0.018651986 -0.053922314 -0.050362412 0.01124826
0003d0 1c 0c 78 3d 30 e0 77 3d ab 42 a1 3c 61 6b bc bd
       0.060558423 0.060516536 0.01968511 -0.092001684
0003e0 2d 00 2f bd ed ba c4 3d 7d 23 9d bd 03 a9 fb bd
       -0.042724777 0.09605966 -0.076727845 -0.12288096
0003f0 41 df ff bc 6e 0a fc bc ee a0 aa 3d 78 d0 89 bd
       -0.031234385 -0.030766692 0.08331476 -0.067292154

conv3.bias f4 [128]
000000 bc b8 02 b7 ec 13 06 38 24 9f 7d 38 b2 93 23 b6
       -7.791616e-06 3.1966643e-05 6.046811e-05 -2.4374863e-06
000010 ae c2 51 b7 b8 88 73 b6 08 9c 91 38 f9 82 04 36
       -1.2502698e-05 -3.6289402e-06 6.943202e-05 1.974577e-06
000020 67 d6 ad b7 64 f5 34 b7 b1 f6 0a 38 98 72 49 b7
       -2.0723046e-05 -1.07859705e-05 3.3131513e-05 -1.20072145e-05
000030 88 d6 9a 37 8b 9f be 37 7f c2 fa 37 eb ec 5a b7
       1.845813e-05 2.2724058e-05 2.9892892e-05 -1.3048974e-05
000040 23 9d 9d 36 7c 5c 31 38 6f db f1 38 84 8e c9 35
       4.6972577e-06 4.228622e-05 0.00011532648 1.5017145e-06
000050 37 b4 79 37 a3 b5 17 37 d7 33 59 37 61 1a 28 37
       1.4883516e-05 9.042592e-06 1.2946278e-05 1.0019722e-05
000060 6a 56 cc 37 64 d5 b7 37 82 8c 7e b7 5f 9a 2b 37
       2.4358935e-05 2.1914668e-05 -1.5172294e-05 1.0228337e-05
000070 65 b9 be b7 05 bd a8 b7 cf fa 97 b8 44 c6 c9 b4
       -2.2736096e-05 -2.011518e-05 -7.246958e-05 -3.7583425e-07
000080 e3 93 9a b7 22 4f 0b 38 96 70 d6 b7 32 11 bc b6
       -1.8427096e-05 3.321388e-05 -2.5563215e-05 -5.6048384e-06
000090 90 cf ca 37 5e ed f1 35 00 a5 4e 38 e7 84 ca b7
       2.417693e-05 1.8024982e-06 4.9267896e-05 -2.4142164e-05
0000a0 d3 f0 03 38 40 26 eb 36 7a 0d 9d 36 98 fb 27 38
       3.145712e-05 7.0079986e-06 4.6805335e-06 4.0050218e-05
0000b0 84 18 46 b6 ec fd 4e b7 29 3f 19 b8 f2 25 04 38
       -2.951857e-06 -1.2337678e-05 -3.6536865e-05 3.150659e-05
0000c0 bb 52 ca b7 09 b4 8f 36 88 3d 05 36 12 78 07 38
       -2.41188e-05 4.282691e-06 1.985436e-06 3.2298332e-05
0000d0 38 43 18 38 6b 04 f2 b6 fb fd 58 b7 9f 2c af 38
       3.6302226e-05 -7.2126763e-06 -1.2933738e-05 8.3529616e-05
0000e0 73 38 80 36 4c 14 10 b9 71 1b bf 37 00 06 29 37
       3.821269e-06 -0.00013740471 2.2781753e-05 1.0074582e-05
0000f0 99 6b 8a b8 79 78 3a 38 10 b2 62 b8 c9 af b1 b7
       -6.6003944e-05 4.4458055e-05 -5.4048433e-05 -2.11819e-05
000100 08 a8 10 b8 78 c1 c4 b6 d8 14 bf 36 fd 19 a5 37
       -3.4488767e-05 -5.863778e-06 5.69467e-06 1.9681635e-05
000110 2f 3d 82 b6 67 3e 72 38 fb 8d a0 37 d4 ec 78 38
       -3.8814246e-06 5.7755413e-05 1.9139601e-05 5.934837e-05
000120 8f 79 6e 37 e8 fa 97 b7 5e 62 ba b7 b1 c4 9b 37
       1.4214208e-05 -1.811744e-05 -2.2218734e-05 1.8569031e-05
000130 44 c2 3c b8 ac 63 90 b7 6f b2 44 37 d8 f9 0a 38
       -4.5003617e-05 -1.7212551e-05 1.1724055e-05 3.313445e-05
000140 36 69 6b b6 9a 9f bc 38 ce 95 8f 36 e9 c5 c3 b6
       -3.507897e-06 8.994267e-05 4.2791717e-06 -5.8344926e-06
000150 ca af b5 36 29 79 f0 b6 08 59 b5 b7 b4 6a bd b7
       5.414685e-06 -7.1666623e-06 -2.161834e-05 -2.2580243e-05
000160 90 aa 54 b7 e3 8f 1a b7 27 32 87 37 3b cf 0c 37
       -1.2675897e-05 -9.2126165e-06 1.6116608e-05 8.3929e-06
000170 b4 6c 3e b7 77 c4 71 37 cf 81 37 b8 25 73 47 b8
       -1.1350192e-05 1.4410462e-05 -4.3751494e-05 -4.7552534e-05
000180 5d 47 bc b7 5f ac 0a 37 9f dc 7b b8 06 2b a0 b7
       -2.2444578e-05 8.265574e-06 -6.0048533e-05 -1.909352e-05
000190 a1 aa 80 36 bd 19 a9 b7 5f 09 db 36 2e be 10 b7
       3.834561e-06 -2.0158355e-05 6.5277995e-06 -8.6273485e-06
0001a0 7f a8 d1 35 42 db 0d 36 3c 33 7c 38 17 f6 d8 35
       1.5620752e-06 2.1138262e-06 6.0129198e-05 1.6164876e-06
0001b0 dd c5 3b b8 fb 7f 0d 37 b5 84 87 b7 95 c8 79 37
       -4.476855e-05 8.434053e-06 -1.615505e-05 1.4888258e-05
0001c0 0c bb 8a b7 22 53 a6 b6 b6 7d 06 36 a5 e8 95 36
       -1.6537982e-05 -4.9568634e-06 2.004073e-06 4.4676294e-06
0001d0 e0 dd 9a 37 67 9c 20 36 5e a8 a3 37 ac f2 b7 37
       1.846155e-05 2.3932896e-06 1.9509516e-05 2.1928303e-05
0001e0 61 70 e6 b7 1d e8 2d 38 fb c6 a9 38 49 99 19 38
       -2.7470467e-05 4.1462587e-05 8.095611e-05 3.66208e-05
0001f0 fb a5 ee b6 fd dd 42 b7 93 5b 0e 38 ff b7 99 37
       -7.1122754e-06 -1.1614987e-05 3.3940723e-05 1.8324701e-05

conv3.lin.weight f4 [128, 64]
000000 a0 f3 95 bd 80 f6 ea bd cd 78 31 be 8d 1d 87 bd
       -0.073218584 -0.114727974 -0.17331238 -0.06597433
000010 ff 60 1d bd 1f 44 d4 bc aa 4d da bb 13 0f 62 be
       -0.03842258 -0.025911389 -0.0066620903 -0.22076063
000020 15 f5 5d be 65 bf 57 3b 38 68 3c be 16 62 64 bd
       -0.21675523 0.0032920477 -0.18399131 -0.055757605
000030 b3 00 d7 bc 36 2f e3 3c 15 59 53 3e 74 a6 c6 3d
       -0.02624545 0.027732473 0.20639451 0.09699717
000040 c3 be 39 3e d6 17 a6 3d 60 6b 81 3d 74 53 9d 3d
       0.18139176 0.08110015 0.06319308 0.07681933
000050 bc 3b ca 3c 1d 70 c6 3d f5 ce c6 bd ab d7 ea bc
       0.024686687 0.09689353 -0.09707443 -0.028667292
000060 76 3c b0 bd 3c d9 0b be 0a 13 cf 3c 96 38 83 bd
       -0.08605282 -0.13657087 0.025277633 -0.06407277
000070 d0 bb f7 bc b4 5a 4b bd 29 9e b5 ba 9b e5 dd bc
       -0.030240923 -0.049647048 -0.001385634 -0.027087023
000080 6d bc cf 3c 50 b4 02 be 2f 23 3e 3d a7 90 41 bd
       0.025358403 -0.12764096 0.046420272 -0.04725709
000090 e6 1a 54 3e c8 a0 4e be 9c 56 6f bd fc 16 6b 3c
       0.20713386 -0.2017852 -0.058432207 0.014348742
0000a0 aa d4 5c 3d 75 52 77 3d 44 4b 8f 3e 5b 3b 19 3d
       0.05391375 0.06038137 0.2798711 0.03741012
0000b0 1f 1f 45 3d 4e 79 7c bd 63 66 81 bd 62 53 41 3e
       0.048125383 -0.061639123 -0.06318357 0.18879464
0000c0 74 33 a8 bd fa c2 0d bd 99 b6 28 3e c8 aa af 3c
       -0.08212939 -0.034609772 0.16475905 0.02144374
0000d0 e8 8d 03 bd 19 3b 37 bd 32 c4 1b 3e c1 7f a3 bd
       -0.032117754 -0.044734094 0.15211561 -0.079833515
0000e0 7e 9b 16 be b5 ff 53 be 60 45 f6 3d 13 77 64 bd
       -0.14707753 -0.20703013 0.12024951 -0.05577762
0000f0 42 ee ee bd 6f 44 4a bc 8a 76 6a 3d 01 e6 a3 bd
       -0.11666538 -0.012345417 0.057241954 -0.08002854
000100 bc c2 7b 3e 9b e9 1c 3e d5 51 42 3e 62 83 0e 3b
       0.24586004 0.15323488 0.18976529 0.002174579
000110 7c ce 09 3c c1 11 5c 3e 96 10 b9 bc 10 29 05 3e
       0.008411046 0.21491148 -0.022590917 0.13003945
000120 79 20 55 bd d1 aa 8f 3e 5c c8 1b be 55 8a 41 3e
       -0.05203292 0.2806001 -0.1521315 0.18900426
000130 66 fa 81 3e 48 b1 79 3d 3c ff f1 3b 89 1a 86 3d
       0.2538635 0.060960084 0.0073851626 0.0654803
000140 37 2b 42 3c 95 1f 39 3d b0 49 04 bd 58 9a b0 bd
       0.0118511235 0.045196135 -0.032296836 -0.08623189
000150 ea d1 32 3e 11 f2 2e 3d bf 1f 1a bc b1 60 35 3e
       0.17462888 0.04271132 -0.009406983 0.17712666
000160 bc d8 7b 3e b9 68 3e 3e eb 29 44 bd 48 72 19 bd
       0.24594396 0.18594636 -0.04789154 -0.037462503
000170 dd f0 8d 3e 9c c7 35 bd 6e ee 6d 3d cc 73 8a 3e
       0.27722827 -0.044379815 0.058088712 0.2704147
000180 d4 b8 cf 3c 5a eb b7 3d 4f 2e 79 3e 0c b1 af bd
       0.025356688 0.089804366 0.24334072 -0.08578691
000190 0e 6a a8 3d b5 fc fe 3d 29 62 02 3e 8a ec 84 3d
       0.08223353 0.12450544 0.12732758 0.06490429
0001a0 8d f3 83 3d b5 49 ad bb 88 4e c2 3c cf 19 67 bd
       0.06442938 -0.0052883276 0.023719087 -0.056421097
0001b0 84 fe 31 3e 7e 78 35 be cc 8e 10 bc 4a 6b 34 bd
       0.17382246 -0.17721745 -0.008823108 -0.04404763
0001c0 77 39 11 3e 2a a6 1b 3e af 8b 91 3e 1e d3 a2 3d
       0.14182077 0.15200105 0.28426883 0.07950424
0001d0 a8 a8 43 3e 65 19 90 bd a6 a1 a0 3d d7 55 a7 3d
       0.19107306 -0.070360936 0.07843332 0.081706695
0001e0 75 42 5a be 61 2c 84 3e ca a2 10 bd b8 8d 9c 3c
       -0.21314414 0.25815108 -0.035311498 0.019110546
0001f0 ae 77 40 3e 2e 59 16 be 4a 98 52 3e 53 9f 4a 3e
       0.18795654 -0.14682457 0.20565906 0.1978734
000200 c4 cf b3 3d 32 dd 17 3e 95 0f d5 3d 31 b3 47 3c
       0.087798625 0.14830473 0.10403363 0.012188719
000210 c9 ea 09 be a1 2f 33 3d 02 93 e6 3c 52 b3 d4 bd
       -0.1346847 0.043746594 0.02814627 -0.10385765
000220 17 7a 0c 3e 98 c6 00 bd d7 e0 a0 3d b4 0c 1a 3d
       0.13718449 -0.031439394 0.07855385 0.03760977
000230 f2 96 58 3e 5c 16 79 3e 86 35 63 be 02 c3 34 be
       0.21151331 0.24324936 -0.22188386 -0.17652515
000240 63 7c 89 be f7 c0 77 be c3 0d 61 3b fc 1a e4 be
       -0.26852712 -0.24194704 0.0034340478 -0.44551837
000250 85 18 fc bd 63 35 18 be e2 8f 09 3e 0a 99 aa bc
       -0.12309364 -0.14864115 0.13433793 -0.020824928
000260 a5 24 49 bd 15 c4 01 be bd f7 20 3e f5 b6 f1 bd
       -0.049107213 -0.12672456 0.15719505 -0.118024744
000270 78 df d8 3d 2e 99 3a bd 01 42 c0 3d 25 8f 0e 3d
       0.10589498 -0.04555624 0.09387589 0.034804482
000280 9b 32 bf 3d 6e 82 51 bd 6a ba 5a be 22 ae c7 bb
       0.09335824 -0.051149778 -0.21360174 -0.0060937563
000290 02 50 15 be c4 d4 2c 3e 38 28 b7 3c 0c 06 da 3d
       -0.14581302 0.16878039 0.022358045 0.106456846
0002a0 98 a2 10 bd c7 4e ce be db bf 91 3c 1e 42 72 3e
       -0.03531131 -0.40294477 0.01779168 0.23658034
0002b0 7c 65 fd 3e fb 11 30 3e 34 5a 9f bd bd 5e 23 bf
       0.4949149 0.17194359 -0.07780877 -0.63816434
0002c0 4c da 0a 3e 5f 19 0e be 95 e5 48 3e 00 77 6b 3d
       0.13559836 -0.13876866 0.19618829 0.057486534
0002d0 52 c2 72 bc e3 a0 4b 3d 34 08 90 bd 74 13 b5 3e
       -0.014816837 0.04971398 -0.070328146 0.35366404
0002e0 ea b7 f4 bd 5f 08 2f 3e 30 a6 1d be d8 97 2f bd
       -0.11949141 0.17093037 -0.15395427 -0.04286942
0002f0 94 d9 a9 3e ce 5b ef 3c 73 bf a5 bb 1b 8a 26 3e
       0.3317381 0.02921858 -0.005058223 0.1626362
000300 a7 63 52 bd 19 43 c7 3d 45 cc 4d 3e 77 56 c8 bd
       -0.051364567 0.09729595 0.20097454 -0.09782117
000310 8e 34 b1 bd 58 13 79 3e de 5b aa 3e 02 fe ef 3c
       -0.08652602 0.24323785 0.33273214 0.029295925
000320 59 15 c8 3d 4b 13 23 3d ed 6b a9 bd 07 75 15 be
       0.09769697 0.03981332 -0.08272538 -0.14595424
000330 45 7a 98 3d 9b 2f c8 3d 16 71 2c be 15 dd b3 bd
       0.07445196 0.09774705 -0.16840014 -0.087824024
000340 a6 07 22 3d c9 a8 cd bd c3 1c 99 3d 72 90 03 3e
       0.039558075 -0.10041959 0.07476189 0.1284807
000350 df b4 72 3e 07 fe 3c 3c 08 a9 ca bc 61 7d a2 be
       0.2370181 0.011535174 -0.024738804 -0.31736282
000360 83 b3 2d 3e 87 c4 e4 3d 3b 27 70 3d 75 7d 61 be
       0.1696301 0.11170297 0.058631163 -0.22020514
000370 8f 49 f2 bd 7c 67 44 3d c7 0b ab bd 6b 7c ea 3c
       -0.118304364 0.047950253 -0.08351856 0.02862378
000380 47 a2 bf 3c c1 70 02 bd e1 56 38 3d 55 f8 95 3d
       0.02339281 -0.03184581 0.04500473 0.07322756
000390 4c 7e b8 3d 46 e4 8d 3d 34 94 00 3e a9 b2 9c 3d
       0.09008464 0.06928305 0.12556535 0.07651264
0003a0 06 67 7c 3d 74 df 1d bc d3 56 0a be 98 d9 08 3e
       0.06162169 -0.009635795 -0.13509683 0.13364255
0003b0 32 0f 76 3d ac cf 60 3e 47 99 09 be ea 1d da bc
       0.060073085 0.2195422 -0.13437377 -0.026625592
0003c0 ce c4 56 bd b5 e8 35 bc 79 7b 9b bd 54 40 11 be
       -0.05243378 -0.011102845 -0.0759191 -0.14184695
0003d0 78 c4 32 bd 9f 93 51 be 35 62 a9 3b 60 29 a6 3d
       -0.0436444 -0.20466469 0.005169178 0.081133604
0003e0 05 ce 9d bb 5b 2a 5d bb 14 33 fe bc ba c1 86 3e
       -0.004815819 -0.003374717 -0.031030215 0.26319677
0003f0 da b2 db 3d e2 6e 0a bd 58 c6 71 bd 07 95 b4 3d
       0.107274726 -0.033797152 -0.059027046 0.08817487

conv4.bias f4 [256]
000000 ef 0f ba 3d 4e 40 4b bf 92 87 7b bf 54 cb 18 bf
       0.0908507 -0.79394996 -0.9825374 -0.59685254
000010 57 22 5c be 4a 2f 54 bd 61 e4 c2 bd f7 89 3f bb
       -0.21497475 -0.05180291 -0.09516216 -0.002922652
000020 fb 8f 67 bd 91 88 dd be 86 a2 c9 be 36 44 2d 3c
       -0.056533795 -0.43268254 -0.39381808 0.010575345
000030 cf b9 0e be 59 8e 5a be 62 3a db 3c 48 5c 89 bd
       -0.13938068 -0.21343364 0.026761238 -0.067070544
000040 84 61 81 bc 22 05 92 be 7c 31 ad 3d 5b b3 15 be
       -0.01579357 -0.2851954 0.08456704 -0.146192
000050 8b 01 f2 be e7 59 0e 3c 3b 5a ce bd c6 90 a8 bc
       -0.47266802 0.008688427 -0.10075804 -0.020576846
000060 db 94 2b be b7 00 7a bf 94 ca 95 bd e2 b6 fb 3c
       -0.16756003 -0.9765734 -0.07314029 0.030726854
000070 85 2b 8b be 6c 55 a8 bc b4 c4 37 be 76 23 b9 bd
       -0.2718164 -0.020548545 -0.1794613 -0.09039967
000080 79 11 62 bb d5 dc b8 bd fd e6 fd be ae d2 27 bf
       -0.0034495278 -0.09026495 -0.49590293 -0.65555847
000090 c5 f2 73 be f6 a8 19 be 84 e1 57 3d b5 63 83 be
       -0.23823078 -0.1500586 0.052705303 -0.25662008
0000a0 e2 1b 3f bd 31 8a 5a be f7 61 27 bd da ec e2 bb
       -0.04665745 -0.21341778 -0.04086491 -0.0069252076
0000b0 f1 30 0d 3c fc b7 c5 bd 49 94 90 3d ff 39 65 be
       0.008617626 -0.09654233 0.07059533 -0.22385405
0000c0 66 fd 61 3d 2c aa 85 3d 21 cf 15 bf 3a c0 0e 3e
       0.0551733 0.06526598 -0.5851918 0.13940516
0000d0 64 d3 f9 3c b7 54 84 3d 14 df af 3c 5a e6 8f be
       0.030496307 0.064614706 0.021468677 -0.28105432
0000e0 12 4a 05 bf c2 2d 90 bd e4 0e a2 be c4 0a eb bc
       -0.5206615 -0.070399776 -0.31651986 -0.028691657
0000f0 b1 7e 72 be 05 02 14 be 3c 45 be bd 58 9e 2d 3c
       -0.23681141 -0.14453895 -0.09290549 0.010596834
000100 81 b1 d0 be 1d d7 a0 bd 4d 34 68 be 24 68 04 be
       -0.40760425 -0.078535296 -0.22676201 -0.12930351
000110 68 41 44 3c ac b0 a9 3d 76 da 56 bd b9 34 a9 bd
       0.011978485 0.082856506 -0.052454434 -0.08262009
000120 c5 43 bb be 49 de be be 01 a0 8f be 20 af 9f 3d
       -0.36575142 -0.37278965 -0.2805176 0.07797074
000130 47 75 a6 bd f0 3b 3c be b6 29 02 be c5 bb 5e be
       -0.08127838 -0.1838224 -0.12711224 -0.21751316
000140 45 34 00 3e 4d 0a 73 3b 3a 54 9b 3d 1e a6 a5 be
       0.12519939 0.0037084997 0.07584424 -0.323533
000150 00 ec d6 be 30 7c d9 bd 51 7a f3 3d 8d 80 07 bf
       -0.4197693 -0.1061939 0.118885644 -0.5293053
000160 4e 24 48 3d 5f 44 bb bd e5 1c 46 bd 94 ee 7e be
       0.048862748 -0.091439 -0.0483674 -0.24895698
000170 42 d9 96 be 4a 2c 1c 3c e7 f6 d2 3c a4 d1 35 be
       -0.2946263 0.009532044 0.025752498 -0.17755753
000180 93 c7 f2 be 39 12 3c bb 09 91 19 3e 91 d6 d3 bd
       -0.47417888 -0.0028697385 0.14996733 -0.1034366
000190 d8 3b f3 be cc 8e 01 be cb 54 ca 3c 86 9f db bc
       -0.47506595 -0.12652129 0.024698636 -0.026809465
0001a0 87 1f 84 3b cd c0 e3 bd 9d 3f 90 bd ad 2a 88 be
       0.0040320787 -0.11120758 -0.07043383 -0.2659506
0001b0 de ed 49 3d d8 6c 1f 3e 10 e8 3b 3d 29 40 16 3d
       0.049299113 0.15568864 0.04587561 0.03668228
0001c0 bb 51 8a be d8 94 4d bf e8 50 31 bf 22 80 54 be
       -0.2701548 -0.8030524 -0.6926408 -0.20752004
0001d0 57 2b 53 bd db e5 32 bf f9 d0 2e be e0 6d 7b bd
       -0.051555004 -0.6988198 -0.17071904 -0.06138408
0001e0 24 f7 1c be a2 69 42 bd ad bb 5b 3d f4 da 12 bd
       -0.15328652 -0.04746402 0.05364578 -0.03585334
0001f0 f9 60 38 bf ce 82 1d bd e6 d6 ef 3c fb 11 62 be
       -0.7202297 -0.038454823 0.029277276 -0.22077172
000200 b1 92 92 be 67 e9 fc bb b0 ab 32 bc 95 2a 19 be
       -0.28627542 -0.0077182534 -0.010905191 -0.1495765
000210 35 da 48 be d7 57 22 bf 05 01 19 be 3d bf c1 be
       -0.1961449 -0.6341528 -0.14941795 -0.37841216
000220 55 6a 28 be db ee 3d 3d 31 80 73 3e 4c 14 b4 3d
       -0.16446812 0.04637037 0.2377937 0.08792934
000230 fc b9 0d be 37 fd be 3d 62 c3 b6 be b0 5f 8e be
       -0.13840479 0.09325641 -0.3569594 -0.2780738
000240 c7 ed 9d bd 8a 88 cf 3c f9 e5 c6 bd c9 9d 6c 3b
       -0.07711368 0.025333662 -0.097118326 0.003610479
000250 be ab 03 3e 49 ee 1a be 27 5e 65 bc cb c4 83 be
       0.12858483 -0.15129961 -0.013999498 -0.2573608
000260 1f 83 61 be ba b5 44 bd a8 af 88 3e 6e a9 c2 bd
       -0.22022675 -0.04802487 0.26696515 -0.095049724
000270 c8 b6 e8 bd 0a 6b f3 bd 4e 51 fb bd 37 13 5f be
       -0.11362988 -0.118856505 -0.12271367 -0.21784674
000280 83 6b ba bd 70 fc 56 bd 7a 5e 08 be ce 81 9b 3d
       -0.091025375 -0.052486837 -0.1331729 0.07593118
000290 b7 8e fe bd 50 f4 49 be 6d 05 40 3d d5 1e ad bd
       -0.124295644 -0.19722104 0.046880174 -0.08453146
0002a0 b2 7b 72 be 17 90 69 be f5 85 a1 be 45 e2 83 bc
       -0.23679999 -0.22808872 -0.31547514 -0.016099105
0002b0 9b 79 77 bd 3f f1 4a 3d 46 7c a2 3c 08 ee 17 be
       -0.060418706 0.049546476 0.019834649 -0.14836895
0002c0 16 67 77 be d1 8f 9c be 39 3d eb bd 2a 81 d1 bb
       -0.24160418 -0.30578473 -0.11486287 -0.0063935714
0002d0 5d db 0d bf 12 d9 1c bf 07 c7 1b be e6 fe a9 3d
       -0.55412847 -0.61268723 -0.15212642 0.08300571
0002e0 ae a3 d5 3c 4e 81 f2 bd 8d 93 5e 3c 05 36 b2 bd
       0.026079025 -0.11841069 0.013584984 -0.0870171
0002f0 e0 f0 dd be d3 56 9b 3d ee cc 19 bd 3e e0 43 3d
       -0.43347836 0.0758492 -0.03754895 0.047821276
000300 8c dc b5 bd b6 e9 4d 3d 74 22 89 bc c9 e8 c1 3e
       -0.088799566 0.050271712 -0.016740061 0.37872913
000310 86 29 0e bf ca d2 e9 3d ff e3 bf 3d c3 88 fa be
       -0.5553211 0.11417158 0.09369659 -0.48932466
000320 ef 6a fa 3d 9d 8c 1f 3d 9c b7 89 3b eb 20 02 3e
       0.12227427 0.03895246 0.004202796 0.1270787
000330 df 1a 44 be 2c c6 2e 3d f5 88 48 bc 2f d2 eb 3d
       -0.19150876 0.04266946 -0.012239684 0.11514699
000340 38 82 12 bf 9f 1c c1 3c 8e 19 1f 3d 57 d1 34 be
       -0.5722995 0.023573218 0.03884273 -0.17657982
000350 75 0e b2 bd cc 69 a6 bd b7 bd 59 be 9e 4f dc 3d
       -0.08694164 -0.08125648 -0.21263777 0.10757373
000360 29 49 4d bf b6 c8 9b 3d 53 26 ad be b0 d6 b4 bc
       -0.8018976 0.07606642 -0.33818302 -0.022075027
000370 60 50 09 bf 86 74 48 bf c2 78 ea 3b b0 9a 87 be
       -0.5363827 -0.783028 0.0071555087 -0.26485205
000380 c7 2f a8 3e 05 4b b3 3d bd 0c cc 3c 79 7c bc 3c
       0.3284895 0.08754543 0.024908418 0.023008572
000390 01 51 1d 3d 74 7e ec be 39 2a 75 be 1c 48 ba bd
       0.03840733 -0.46190226 -0.23941888 -0.09095785
0003a0 1a 46 d6 3d dd 2a 69 be d6 4c e4 bc 79 0e 00 bd
       0.104625896 -0.22770257 -0.02786867 -0.031263802
0003b0 92 bc d7 bd 38 56 84 3d e7 4f cd bd 3a e6 ac be
       -0.10534014 0.064617574 -0.10025006 -0.337694
0003c0 43 2c 62 bd 7c 22 2d 3d 82 7a 9d bc f2 b2 0e 3e
       -0.055217993 0.042269215 -0.019223455 0.1393545
0003d0 a8 a4 ea be 0f 72 f1 3d d2 aa 8d 3c 26 65 05 be
       -0.45828748 0.11789333 0.017293368 -0.13026866
0003e0 b9 99 bf be fd 8d e4 bd b7 65 0e bc e4 d0 42 bd
       -0.3742197 -0.111598946 -0.008691243 -0.047562495
0003f0 16 51 39 bc 3e 64 52 be a3 6a 00 bf 74 3c 5d 3d
       -0.011310836 -0.20546052 -0.50162715 0.05401273

conv4.lin.weight f4 [256, 128]
000000 28 c3 51 bd 3f 86 38 be 95 6c cf 3c 17 9e 9a 3d
       -0.051211506 -0.18019961 0.02532033 0.075496845
000010 f8 ec bd 3c 48 90 34 bc b1 f5 fc 3b b7 57 8e bd
       0.023184285 -0.011020727 0.0077197184 -0.06950324
000020 69 d0 08 3d 4f 2f 9f bc 52 62 b4 bd 23 fc 8d bd
       0.03340188 -0.019431738 -0.088078156 -0.06932857
000030 19 3e 55 3b c2 5c e9 bd 4c 58 ef bd 5a c9 dc bc
       0.0032538234 -0.11394645 -0.11686763 -0.02695148
000040 50 40 b3 be 85 1e 34 be cd c6 5c bc 94 35 da bc
       -0.35010004 -0.17589767 -0.013475132 -0.026636876
000050 a3 3f b7 3c c2 0d 26 bd 58 fc 2e bd 03 37 a2 bd
       0.022369212 -0.040540464 -0.042721123 -0.07920649
000060 c1 8f ca bd 86 3f 7d be ce c0 22 bd 92 15 57 bd
       -0.098907 -0.24731264 -0.039734654 -0.052510805
000070 df 13 18 3c eb d8 cd bc 1a a5 ba bd fd a0 89 bd
       0.009282081 -0.025127849 -0.09113522 -0.06720159
000080 be ec 45 bb c2 f6 bc bd b8 61 97 bd 58 af ab be
       -0.0030200924 -0.09226753 -0.07391685 -0.33532214
000090 d1 48 b3 bd 60 c0 8d ba 45 8c 16 be 2b 5b 96 bd
       -0.08754123 -0.0010814779 -0.14701946 -0.07341608
0000a0 62 aa e8 bd 00 36 dc bc be 0e 81 be 8e 3f d8 bd
       -0.11360623 -0.026881218 -0.2520656 -0.10558997
0000b0 67 8b 03 bb 16 57 85 bd ad 55 8d bd bb e7 8b 3d
       -0.0020072104 -0.06510751 -0.06901107 0.068313085
0000c0 b7 3a 22 3c 35 f4 4c 3d bc 23 13 3c 96 b7 56 be
       0.009901694 0.05003758 0.008980688 -0.2096847
0000d0 dc 91 ce 39 8d c2 5a bc 04 82 0c be 3d db d2 bd
       0.00039400056 -0.013352049 -0.13721472 -0.10295723
0000e0 1f a1 7d bd 74 d7 19 be 96 e8 15 be bb 39 0b be
       -0.061921235 -0.15023595 -0.14639506 -0.13596241
0000f0 cd d5 81 bc 10 1c 30 be d1 95 8c be e7 16 82 bd
       -0.015849018 -0.17198205 -0.2745805 -0.063520245
000100 51 18 a5 bd 05 03 27 bc b9 27 37 be 84 64 05 bd
       -0.080612786 -0.010193591 -0.17886247 -0.032566562
000110 7d 30 65 bd ff fe e9 bc 2b 38 51 bd 38 11 3a be
       -0.055954445 -0.028563974 -0.051078957 -0.18170631
000120 d8 e3 72 bd 74 c6 71 bc 50 9d ef bd f2 62 d9 3b
       -0.05929932 -0.014756788 -0.11699927 0.0066341097
000130 a6 11 16 be 6e c9 8d bd a5 14 b2 be a3 8f 95 bd
       -0.1465517 -0.06923185 -0.34781376 -0.07302787
000140 b5 47 25 bc 2b c1 c7 be f7 c7 56 bd 16 77 41 be
       -0.010087897 -0.39014563 -0.052436795 -0.18893084
000150 25 77 63 bc 75 27 e6 bd 21 5d fc bd c3 25 85 3c
       -0.013883387 -0.112379946 -0.123224504 0.016253358
000160 34 94 25 bd 3e f4 13 be 82 b8 81 bd f6 f4 4c be
       -0.04042454 -0.1444864 -0.0633402 -0.2001532
000170 7e 9b 16 be 89 61 75 bd b8 43 16 be 4e 55 22 bd
       -0.14707753 -0.05990747 -0.1467427 -0.039632134
000180 85 57 32 be 86 92 d9 bd 51 c6 ad bd 13 c9 5e be
       -0.17416199 -0.1062365 -0.084850915 -0.21756391
000190 a4 85 79 3c 1f b5 f7 bd 42 ad f0 bd fb 64 ad bd
       0.015229616 -0.12095093 -0.11751796 -0.08466526
0001a0 35 7e 31 bd 24 b3 55 3c 6f 42 d4 bd ec bf 7e be
       -0.04333325 0.013043199 -0.10364234 -0.248779
0001b0 e4 af e4 bd b8 e8 97 3b b5 f5 7e bd 39 3d 0b be
       -0.11166361 0.0046358965 -0.062246043 -0.13597573
0001c0 c9 4c ff bc 6a 5d 21 be a0 61 af bd 63 26 9c bd
       -0.031164544 -0.15758291 -0.08563542 -0.07624509
0001d0 bb 79 a1 be 59 24 8b 3d 31 16 da bc 43 62 a1 bc
       -0.31538185 0.06794042 -0.02662191 -0.019700175
0001e0 85 74 42 bc 02 d9 4c bd d6 8f a6 bd ff aa 5b be
       -0.011868601 -0.050011642 -0.08132903 -0.21451949
0001f0 9f 97 2a bd 59 1a c0 bd 08 b3 31 be 10 c1 ba bd
       -0.041648503 -0.093800254 -0.17353451 -0.09118855
000200 73 c5 1e 3e 07 43 90 3b e1 4e 21 be 34 9b 7e 3c
       0.15505008 0.0044025215 -0.15752746 0.015539933
000210 a3 ef 01 be 2e e0 86 3b 3e 16 b8 bd c7 2b d4 bd
       -0.1268907 0.00411608 -0.08988617 -0.10359912
000220 95 9b 05 be 2c 90 f0 bd a5 cc 27 3c 7e 11 6a 3c
       -0.13047631 -0.117462486 0.010241662 0.014286397
000230 b6 98 09 3e 6b 1d 31 be 43 3e 31 bd 63 c0 91 bd
       0.13437161 -0.17296378 -0.043272268 -0.07116773
000240 fd a5 9a be 69 e7 94 bc 81 7e 12 3c 70 13 92 3c
       -0.30204764 -0.018176751 0.008941294 0.017831534
000250 de 85 b1 bd f6 98 91 3c c7 4f 08 be 84 ba 11 3e
       -0.08668111 0.017773133 -0.13311683 0.14231306
000260 65 eb cd 3c b9 db e9 be 53 f4 5f be 7e 62 27 be
       0.025136659 -0.45675448 -0.21870546 -0.16346166
000270 26 0a 8f bd f3 17 86 be 45 62 74 be f6 70 da 3c
       -0.069843575 -0.26190147 -0.23865612 0.026665192
000280 22 86 df bd cb 90 0c 3c a7 e7 ac 3d 3f b2 47 be
       -0.10914256 0.008579443 0.08442622 -0.19501589
000290 6a 19 3c bd 6c 8c 55 be 0d fe 88 bd 7c ab 17 be
       -0.045922674 -0.20854348 -0.06689081 -0.1481151
0002a0 44 df b1 bb fa c7 57 be f8 ae 33 3d 9c 56 f3 3d
       -0.0054282267 -0.21072379 0.043868035 0.11881754
0002b0 4c c0 11 bd 96 29 29 3d ca f5 d0 be 78 7c ae 3d
       -0.03558378 0.041299425 -0.40812522 0.08519834
0002c0 86 7f b1 bd 46 59 8b 3d 5c d1 9f bd 1b 7d 8f 3d
       -0.08666901 0.06804137 -0.07803604 0.07006284
0002d0 23 73 ba bd 36 11 30 be 16 31 81 be db 10 2c 3e
       -0.09103992 -0.17194065 -0.25232762 0.16803305
0002e0 c4 7b 87 bd ed c0 0e be a4 2f bc bc a3 5c 10 be
       -0.06615403 -0.13940783 -0.022971936 -0.14097838
0002f0 78 1a fc bb e9 9e be 3d f2 8a 0a 3e b7 75 f1 bd
       -0.007693585 0.093076535 0.13529566 -0.117900304
000300 3a 72 b0 3e d3 60 c4 3c 9c 87 b0 3d e7 4a 8a 3c
       0.34462148 0.02397195 0.086196154 0.01688142
000310 17 9f a9 bd 2f 67 6c bd 84 34 53 3b ec 85 85 bd
       -0.08282297 -0.05771559 0.0032227347 -0.06519684
000320 b2 04 90 bd 20 94 19 3d 61 05 d6 bc 28 9f ca 3c
       -0.070321456 0.03749478 -0.026125612 0.024734095
000330 32 0a 61 be 11 a8 e4 bc b5 d3 18 be fb 18 74 3d
       -0.21976545 -0.027912172 -0.1492451 0.059594136
000340 f0 19 16 be 06 03 dc 3d dc aa 60 bd b0 8d cc 3c
       -0.14658332 0.10742764 -0.054850444 0.024969906
000350 76 a9 79 3d 89 07 9b be a5 32 5d bd 11 a3 d6 3c
       0.060952626 -0.30279186 -0.054003377 0.026200803
000360 51 d2 cb 3d 71 53 9e bd d8 ea 37 3d 42 0f 34 be
       0.09952224 -0.07730759 0.0449017 -0.17583945
000370 cd ed b1 bd 87 c2 bb bd e7 b4 01 bd e2 16 1d be
       -0.08687935 -0.091679625 -0.031666663 -0.1534076
000380 52 80 d0 3c 2e 7d c9 3a 50 67 c1 bd cd 87 c4 3d
       0.025451813 0.001537239 -0.094435334 0.095962144
000390 c4 be ad bd 6c 81 d1 bc e5 a4 4f be 7b dd f5 bd
       -0.08483651 -0.025574408 -0.20277746 -0.12005135
0003a0 37 5a 35 bc 6f 80 19 be e0 ce ae bd a9 49 4f be
       -0.011068872 -0.149904 -0.08535552 -0.20242943
0003b0 33 7f 5a 3d ac c6 7d bd fd 9a 1b be fd d0 e4 3d
       0.053343963 -0.061957046 -0.15195842 0.11172674
0003c0 e8 ff 96 be 36 06 82 3c 66 a4 b5 bd 77 ee fe bd
       -0.29492116 0.015872102 -0.08869247 -0.12447827
0003d0 5c 0b 12 3d e9 82 71 3c 71 58 49 bc 14 51 10 bc
       0.035655364 0.014740684 -0.0122891525 -0.008808393
0003e0 bc 8a 35 be 8f 10 0c be 9f 7b 10 bd 56 7f 7e 3c
       -0.17728704 -0.13678192 -0.035274144 0.015533289
0003f0 97 29 51 3c 03 93 75 3d 0a b4 7e 3d f4 18 19 be
       0.012766263 0.059954654 0.062183417 -0.14950925

conv5.bias f4 [256]
000000 2e b7 fc b8 86 a7 a1 37 f2 4c e2 b6 de d5 72 b7
       -0.00012050416 1.9270705e-05 -6.7442825e-06 -1.4474119e-05
000010 66 b1 e4 b8 a8 21 f0 37 38 25 08 b8 df c3 b3 36
       -0.0001090493 2.8625902e-05 -3.245959e-05 5.357418e-06
000020 3b 38 17 37 8c ff ed b7 c3 21 bb b7 15 75 b5 36
       9.0133935e-06 -2.83716e-05 -2.2307859e-05 5.4078505e-06
000030 23 14 5f 36 bd 97 30 38 ec 85 bc b7 f7 74 20 b8
       3.324131e-06 4.2102987e-05 -2.2473709e-05 -3.8255905e-05
000040 95 f3 b5 b6 c6 a9 cf 35 14 be f4 b7 7c 2a cc b6
       -5.422577e-06 1.5472112e-06 -2.9175579e-05 -6.0846196e-06
000050 ec a0 a6 b7 ce 4f f5 b6 02 76 83 b6 02 22 75 36
       -1.9863677e-05 -7.3108595e-06 -3.917842e-06 3.652764e-06
000060 a6 c1 d4 37 23 dc 0d 37 06 c2 3c 35 04 97 9b b8
       2.5362544e-05 8.4555095e-06 7.03178e-07 -7.419105e-05
000070 d9 ca de b6 93 1d e2 b6 34 01 52 36 6e 0b 1a b8
       -6.63973e-06 -6.7387678e-06 3.1293139e-06 -3.6727106e-05
000080 0c 00 06 b7 08 1c ff b7 03 f2 04 b8 35 23 e3 b5
       -7.987033e-06 -3.0411422e-05 -3.1696643e-05 -1.6923065e-06
000090 c6 6a 56 b7 2d af 73 b8 b7 2e 80 b7 fa 33 b2 b8
       -1.2780254e-05 -5.809886e-05 -1.5280542e-05 -8.497383e-05
0000a0 47 39 7a 37 57 b1 92 36 16 17 50 37 ec b4 db b6
       1.4914497e-05 4.371784e-06 1.2403141e-05 -6.5477707e-06
0000b0 9c 42 42 b8 f1 f8 2b b8 69 0b c6 b8 54 d4 21 b7
       -4.631524e-05 -4.100142e-05 -9.443501e-05 -9.645784e-06
0000c0 0e d9 8e 36 f1 91 7c 36 1b 10 2e b7 0e 83 e6 b7
       4.2571983e-06 3.7635875e-06 -1.0374958e-05 -2.7479164e-05
0000d0 ce 6e a6 37 77 6b 12 38 85 f4 ef 37 86 56 8a 36
       1.984034e-05 3.4909197e-05 2.8604883e-05 4.122793e-06
0000e0 07 3a 09 b8 5a 25 b0 37 af 00 a6 37 b0 9c 3d b6
       -3.2717388e-05 2.0998228e-05 1.978906e-05 -2.8254399e-06
0000f0 bf 10 bd b7 6d 45 eb 37 90 a9 07 37 fc 7b df b0
       -2.2538354e-05 2.8046512e-05 8.086106e-06 -1.6260624e-09
000100 6d 9b 12 b7 6e 9a f1 37 82 12 45 37 79 b2 04 b7
       -8.738466e-06 2.880135e-05 1.1746424e-05 -7.909367e-06
000110 a8 3c d9 36 21 fc 10 b8 de 25 05 b7 d5 df e2 b7
       6.4741653e-06 -3.456709e-05 -7.936234e-06 -2.704553e-05
000120 20 85 79 36 0a 1a d9 36 ea a0 bb b7 24 16 b2 b6
       3.718138e-06 6.4701353e-06 -2.2367069e-05 -5.307391e-06
000130 c4 1c 09 38 23 72 43 38 bd ed b4 b6 5a 79 bd 37
       3.2690135e-05 4.659792e-05 -5.3920944e-06 2.2587064e-05
000140 c4 9b 29 33 df 2d e6 37 77 4c 73 36 35 80 82 36
       3.9490047e-08 2.7439497e-05 3.625433e-06 3.889227e-06
000150 e1 24 d3 b6 e5 54 fb 36 1d ca 80 36 9b 55 f2 b6
       -6.2925833e-06 7.490266e-06 3.8382263e-06 -7.222128e-06
000160 cf 70 05 b6 36 56 b5 b6 8c 30 15 38 87 a1 2e 34
       -1.9884208e-06 -5.4042566e-06 3.556958e-05 1.6263776e-07
000170 2f e4 24 b7 41 83 b3 b7 b8 7d ed 37 8b 25 3e 37
       -9.82829e-06 -2.1399583e-05 2.8311144e-05 1.1333624e-05
000180 93 78 81 b5 60 eb 0e 37 fe 49 b6 37 8d 4a 45 37
       -9.646341e-07 8.518662e-06 2.1730546e-05 1.1759473e-05
000190 7c 17 1f b7 d5 c3 26 b7 37 b2 0f b7 e8 b3 a5 36
       -9.482606e-06 -9.939967e-06 -8.564958e-06 4.938327e-06
0001a0 29 82 fb 36 3b ab ca b6 5d ff fb 37 0a e1 57 b7
       7.4955356e-06 -6.040003e-06 3.0040444e-05 -1.2867395e-05
0001b0 3a ca 87 35 e9 56 92 b7 9d 05 59 b6 70 c3 07 37
       1.011714e-06 -1.7445027e-05 -3.2338787e-06 8.092131e-06
0001c0 28 bf 0a 37 e6 4a 20 b7 90 9a dd 37 77 87 b4 37
       8.269948e-06 -9.554182e-06 2.6417227e-05 2.1520753e-05
0001d0 18 dc 9a b6 df d1 9e b7 0f 9e 0a 38 9f 13 d3 37
       -4.61518e-06 -1.8932797e-05 3.3048967e-05 2.5162297e-05
0001e0 81 ba e8 37 02 26 e4 35 70 be 0d 36 ee e5 54 36
       2.7743403e-05 1.6998385e-06 2.1121486e-06 3.1724298e-06
0001f0 e0 cf 01 38 33 c2 31 b5 da 54 c1 37 99 7b 1e b7
       3.0949595e-05 -6.6220235e-07 2.3046905e-05 -9.446311e-06
000200 99 ac bb b7 7c b3 94 b7 54 46 53 b5 55 cb 3b 36
       -2.237251e-05 -1.7726554e-05 -7.8705966e-07 2.7983526e-06
000210 8d a8 21 b8 cd d9 4d b8 e2 4b 8d 37 39 c2 58 37
       -3.8542366e-05 -4.907865e-05 1.6843846e-05 1.2919824e-05
000220 65 d0 02 37 79 6a ff 37 53 6a 68 37 37 80 bf 36
       7.797124e-06 3.0447949e-05 1.3853033e-05 5.7071697e-06
000230 75 aa 0d 38 7a 1e 32 37 bb 8d 4e 37 da cb 84 b8
       3.377577e-05 1.0616723e-05 1.2311556e-05 -6.332221e-05
000240 23 89 20 37 42 32 b1 b7 38 61 ec b7 49 5c bd 37
       9.568673e-06 -2.1123447e-05 -2.8178663e-05 2.257353e-05
000250 96 44 48 b7 e0 8d c2 37 4c 1c 8f b8 0c 73 ef b7
       -1.1936898e-05 2.3192668e-05 -6.824042e-05 -2.8544593e-05
000260 3e db e5 36 ea e7 76 36 90 b2 1d b7 e0 fa a3 b6
       6.850255e-06 3.6791848e-06 -9.399504e-06 -4.8869842e-06
000270 f7 3b 29 b6 e3 1d 4b 37 22 67 8d 36 b8 5d a4 b8
       -2.5217867e-06 1.2106701e-05 4.2141337e-06 -7.837586e-05
000280 43 67 8a 36 91 3c 27 38 25 c0 d6 b7 4e a9 af b7
       4.1247417e-06 3.987231e-05 -2.5600262e-05 -2.0940464e-05
000290 a9 43 01 38 79 94 da 36 7e 68 24 b8 dc 3d 85 34
       3.081901e-05 6.5141908e-06 -3.9197963e-05 2.481819e-07
0002a0 78 4c 5d 35 e3 2a 3a 38 85 b7 8a 38 26 36 bb b5
       8.244019e-07 4.4385797e-05 6.614536e-05 -1.3948345e-06
0002b0 9c ce 78 36 e0 53 8d 36 0d fb 1f b5 22 c1 bf b5
       3.7075142e-06 4.211892e-06 -5.959744e-07 -1.4286818e-06
0002c0 1d 40 fc 36 83 d7 54 b5 b1 f4 35 38 3f 51 98 b8
       7.517649e-06 -7.9289765e-07 4.338165e-05 -7.263058e-05
0002d0 7d b6 88 b7 69 e3 32 37 c3 7e b2 37 60 5b 8b b7
       -1.6297441e-05 1.0662575e-05 2.1278282e-05 -1.6612641e-05
0002e0 8f 58 b1 b7 62 d2 2b 37 04 43 5a b8 95 67 bb b7
       -2.1141283e-05 1.0241378e-05 -5.2037663e-05 -2.2340371e-05
0002f0 92 38 9d b8 02 bf be 36 b0 7f f7 b6 a5 89 f1 36
       -7.4968804e-05 5.6846775e-06 -7.3760384e-06 7.1983836e-06
000300 c7 50 ff 36 a8 bc ba b7 8a 5a 8a b7 c4 cb 37 b8
       7.608996e-06 -2.2260778e-05 -1.6493042e-05 -4.382037e-05
000310 44 5e 49 37 ce be 02 b8 bf 5b 80 37 19 25 50 37
       1.20024815e-05 -3.1172116e-05 1.5301512e-05 1.2406404e-05
000320 06 30 10 b7 ed 62 9f b7 f7 d0 f3 37 a8 ea b4 b7
       -8.59425e-06 -1.9000343e-05 2.9065164e-05 -2.1566942e-05
000330 32 1a 8f 36 e5 4a 8e 35 7e 44 ac b6 74 3b 4b b8
       4.2647816e-06 1.0601622e-06 -5.133973e-06 -4.845434e-05
000340 b7 67 18 b6 4b 7f b4 37 ab 0c 74 b8 5f bd 01 b7
       -2.2710135e-06 2.1516948e-05 -5.818593e-05 -7.733091e-06
000350 63 1a c0 36 7f bc 80 b8 b0 45 15 37 b2 79 fc 34
       5.7251177e-06 -6.138626e-05 8.8973175e-06 4.7027203e-07
000360 05 cf 1a b7 9f c9 04 b5 3f a1 2b 37 7b 03 9c 37
       -9.227316e-06 -4.946723e-07 1.0229937e-05 1.859827e-05
000370 62 c0 a5 37 2d 46 d7 b6 e3 07 20 38 f5 45 7d 37
       1.9759118e-05 -6.415669e-06 3.8154318e-05 1.5096263e-05
000380 f9 3f 81 36 1f d5 52 35 f4 65 73 37 bc 04 7a b8
       3.851947e-06 7.854123e-07 1.45076665e-05 -5.9609054e-05
000390 c1 11 2a b7 50 de ed b7 82 e5 29 b7 a4 10 a3 36
       -1.0136923e-05 -2.8356124e-05 -1.0126621e-05 4.859716e-06
0003a0 bd 74 99 b7 18 37 56 b7 ba 7a d2 37 af e8 88 b7
       -1.8293382e-05 -1.27682215e-05 2.50911e-05 -1.6320815e-05
0003b0 73 0e 7e 37 aa 8c a4 37 a4 8d 59 b7 53 e5 2d b5
       1.5142944e-05 1.9615825e-05 -1.2967186e-05 -6.478123e-07
0003c0 e7 17 e2 b6 ea 06 2f 38 ac 35 58 b7 26 97 47 38
       -6.7381075e-06 4.172969e-05 -1.28871e-05 4.7586065e-05
0003d0 4f a0 29 b7 11 c7 ca 36 6d 7c 5e b8 1d 73 c8 37
       -1.011051e-05 6.0432435e-06 -5.3044805e-05 2.3895462e-05
0003e0 13 f2 28 37 d7 e4 bf 36 49 3d 86 37 0c cb 2c b7
       1.0069943e-05 5.718884e-06 1.6002583e-05 -1.0299274e-05
0003f0 01 ed d9 b7 77 9d d4 b6 71 6b cc 36 ca 99 ad 37
       -2.597878e-05 -6.3364237e-06 6.0921816e-06 2.069482e-05
