weights/6-5-0_split_0.pt (torch, 473413 bytes, 26 tensors)

conv1.bias f4 [64]
8.317811e-07 -3.8190552e-05 -4.95228e-07 1.4722043e-05 -5.536669e-07 3.8019625e-06 -2.6638565e-07 -6.318984e-06
-8.155576e-06 1.0336428e-06 1.0669349e-06 -2.4969618e-06 7.6042675e-06 -2.4380724e-06 -1.1056138e-06 -2.8897375e-06
3.2675944e-05 -4.557393e-06 8.646438e-06 5.437163e-06 -2.5286545e-06 1.0950135e-05 7.795025e-06 -2.605469e-06
1.8051479e-06 6.178009e-06 -4.3071886e-06 1.0081269e-05 -1.2576539e-05 4.438118e-06 8.1151774e-07 2.670992e-06
-3.2911344e-06 -9.430651e-06 1.5045375e-06 -2.2388663e-06 1.2101485e-06 -3.2394992e-06 2.237916e-06 -1.4520913e-07
4.1224093e-06 -3.0980464e-06 2.9615546e-06 -5.4934094e-06 4.444526e-06 2.774191e-07 -5.8879987e-06 -2.679289e-07
-2.870724e-06 1.0041957e-05 2.5031627e-06 -1.101453e-05 4.5790416e-06 -1.36395865e-05 -8.712686e-06 -5.071154e-07
4.0010464e-06 -7.4357024e-07 -3.2450325e-06 -1.692532e-06 1.1972561e-06 -2.4966519e-06 -9.953287e-06 9.034119e-06
00000000: 9047 5f35 cb2e 20b8 cfef 04b5 b1fe 7637
00000010: b39f 14b5 3825 7f36 c403 8fb4 a907 d4b6
00000020: efd3 08b7 b2bb 8a35 9b33 8f35 7a91 27b6
00000030: 2928 ff36 c49d 23b6 9a64 94b5 50ed 41b6
00000040: 870d 0938 b5eb 98b6 2b10 1137 e070 b636
00000050: f4b1 29b6 79b6 3737 61c7 0237 9ed9 2eb6
00000060: 6948 f235 b14c cf36 7886 90b6 b822 2937
00000070: d3ff 52b7 25eb 9436 13d7 5935 4b3f 3336
00000080: 42dd 5cb6 5638 1eb7 84ef c935 6e3f 16b6
00000090: 636c a235 2c66 59b6 1b2f 1636 c8ea 1bb4
000000a0: 3a53 8a36 08e8 4fb6 1fbf 4636 0754 b8b6
000000b0: 3022 9536 31f0 9434 8691 c5b6 ded7 8fb4
000000c0: aaa6 40b6 e079 2837 02fc 2736 0ccb 38b7
000000d0: aba5 9936 94d5 64b7 b42c 12b7 b420 08b5
000000e0: ba40 8636 c299 47b5 3cc5 59b6 f52a e3b5
000000f0: 68b1 a035 278c 27b6 0bfd 26b7 3f91 1737

conv1.lin.weight f4 [64, 2]
-0.35581657 -0.089728445 0.25318623 0.36651963 0.25519696 0.0155172665 -0.4642865 -0.031070871
0.0048352582 -0.570277 0.37204072 0.106201164 -0.045845006 0.44219103 0.10266015 0.559717
0.07965366 -0.35210246 0.013643288 0.46608743 -0.27799764 0.16535103 -0.0023493266 -0.7296388
-0.07120423 -0.4063167 0.5884934 -0.011592331 -0.14873579 -0.36113557 0.5507057 0.029578727
-0.4584105 0.05957916 0.104729675 -0.51474667 -0.0584102 0.6671023 -0.045595124 0.4864276
0.5583467 0.031221226 -0.49359185 0.08388869 -0.28159714 -0.28298548 0.63248014 -0.011471648
0.48878312 0.023795204 -0.13493185 -0.33534288 0.6560335 -0.07041689 -0.27339137 -0.17346448
0.2195825 -0.33502352 0.052099954 -0.30378437 -0.097699694 -0.44027355 -0.21426912 0.2873556
0.5472257 -0.0054101497 0.52774596 -0.08760419 -0.33215564 0.28718624 0.53339636 -0.0026141368
-0.026570095 0.380351 0.14305055 -0.2084356 0.44576317 0.075862326 -0.3838924 0.3692945
-0.44290173 0.22848971 0.60147667 -0.033972975 -0.1505437 -0.4188624 0.66322154 -0.03649564
-0.06697457 0.5204938 -0.15862882 0.4381453 0.6697847 -0.09318829 0.047311097 -0.58480066
0.06326608 0.3582639 -0.058062237 0.7206092 0.40366563 0.08199912 0.50832725 -0.09257728
-0.33249366 0.24436 0.462975 -0.048787434 0.52663827 -0.05290877 -0.06269649 -0.50137657
-0.37022004 0.12345569 -0.23017563 0.3278002 0.6578698 -0.019869553 0.53204876 0.040192656
0.0057349666 0.51259977 -0.16892001 -0.46517605 0.24377565 -0.34763706 -0.46133855 0.14782216
00000000: 972d b6be 8cc3 b7bd a0a1 813e 76a8 bb3e
00000010: 2da9 823e 223c 7e3c f6b6 edbe 5788 febc
00000020: 1671 9e3b acfd 11bf 1f7c be3e ff7f d93d
00000030: f9c7 3bbd dd66 e23e 7c3f d23d 9d49 0f3f
00000040: 7521 a33d c646 b4be 1988 5f3c 03a3 ee3e
00000050: b555 8ebe c851 293e 29f7 19bb 9cc9 3abf
00000060: 86d3 91bd be08 d0be 81a7 163f c3ed 3dbc
00000070: 324e 18be c3e6 b8be 0cfb 0c3f 164f f23c
00000080: c8b4 eabe 4709 743d 837c d63d 70c6 03bf
00000090: 893f 6fbd 37c7 2a3f f4c1 3abd 0a0d f93e
000000a0: cfef 0e3f a8c3 ff3c 12b8 fcbe d5cd ab3d
000000b0: 802d 90be 79e3 90be 38ea 213f 94f3 3bbc
000000c0: c841 fa3e 29ee c23c 932b 0abe 10b2 abbe
000000d0: d0f1 273f bb36 90bd f4f9 8bbe aca0 31be
000000e0: 3cda 603e 3488 abbe c366 553d a089 9bbe
000000f0: c716 c8bd 896b e1be 5d69 5bbe 4620 933e
00000100: fc16 0c3f a047 b1bb 5c1a 073f d369 b3bd
00000110: 4e10 aabe 130a 933e aa8c 083f f051 2bbb
00000120: 87a9 d9bc 5ebd c23e d87b 123e 2470 55be
00000130: 123b e43e b55d 9b3d 8b8d c4be 2b14 bd3e
00000140: 04c4 e2be 35f9 693e 60fa 193f 3f27 0bbd
00000150: 2128 1abe 2275 d6be e3c8 293f 747c 15bd
00000160: f729 89bd 153f 053f 986f 22be 9554 e03e
00000170: 0377 2b3f 81d9 bebd 48c9 413d 7fb5 15bf
00000180: a691 813d 5e6e b73e abd2 6dbd d879 383f
00000190: 43ad ce3e 28ef a73d bc21 023f 2899 bdbd
000001a0: 9c3c aabe 8239 7a3e 0f0b ed3e 55d5 47bd
000001b0: c4d1 063f deb6 58bd 0467 80bd 375a 00bf
000001c0: 7b8d bdbe 56d6 fc3d 29b3 6bbe 6ed5 a73e
000001d0: 286a 283f 79c5 a2bc 5934 083f 0ea1 243d
000001e0: 63ec bb3b bd39 033f 5ef9 2cbe 8e2b eebe
000001f0: 53a0 793e 7cfd b1be 9134 ecbe b15e 173e

conv2.bias f4 [64]
-0.063188076 -0.10894307 -0.15632705 -0.24087416 -0.2147596 0.17404428 -0.037299916 -0.51959145
-0.3589547 -0.024125924 -0.448668 0.21212125 -0.4222843 -0.14826395 -0.95563793 0.10468742
-0.4609908 -0.9621487 -0.9446218 -0.7052849 -1.0992715 -0.43011284 0.37619326 -0.029658332
0.058993235 -0.08546061 -0.6979671 -0.53934014 -0.012816719 -0.26439232 -0.33958519 -0.26358303
-0.093378924 -0.32798925 -0.30728248 -0.4681105 -0.5044905 -0.14573984 0.1305469 -0.18851256
-0.25700015 -0.582462 -0.1253237 -0.49841338 -0.20285212 -0.20667495 -0.07491111 -0.16372149
-0.13207658 -0.3375828 0.012935257 -0.24117957 -0.012280807 -0.020680185 0.0522691 -0.20829223
-0.9825573 -1.1068567 -0.18860096 -0.21723045 -0.14896092 -0.59264857 -0.17705663 -0.6261904
00000000: c068 81bd 8b1d dfbd 3314 20be b7a7 76be
00000010: f1e9 5bbe aa38 323e ccc7 18bd f203 05bf
00000020: e9c8 b7be bba3 c5bc d0b7 e5be 5036 593e
00000030: a635 d8be 81d2 17be b0a4 74bf 5c66 d63d
00000040: fc06 ecbe 614f 76bf bcd2 71bf 8d8d 34bf
00000050: eeb4 8cbf c037 dcbe 679c c03e 08f6 f2bc
00000060: e4a2 713d f905 afbd f9ad 32bf 3212 0abf
00000070: 37fd 51bc 6e5e 87be 1cde adbe 5bf4 86be
00000080: 733d bfbd 35ee a7be 2154 9dbe 2eac efbe
00000090: 4a26 01bf d33c 15be 16ae 053e 7009 41be
000000a0: 8695 83be 3b1c 15bf db54 00be 0a30 ffbe
000000b0: 77b8 4fbe 99a2 53be ff6a 99bd 9ba6 27be
000000c0: 153f 07be a7d7 acbe 66ee 533c c7f7 76be
000000d0: 7035 49bc 7e69 a9bc 2018 563d 8f4a 55be
000000e0: e088 7bbf 7bad 8dbf 9c20 41be a971 5ebe
000000f0: 3689 18be d1b7 17bf 554e 35be 044e 20bf

conv2.lin.weight f4 [64, 64]
-0.23271914 -0.24753986 -0.087250724 -0.27570152 -0.07337891 -0.025826734 0.044977248 -0.1823392
-0.012595106 -0.0948308 -0.09050561 -0.13587607 -0.23565413 0.046386782 -0.19392388 -0.08960508
0.004435312 0.1984662 0.14172293 -0.0726568 -0.08959958 -0.040625446 -0.7438645 0.18323457
0.12243432 -0.37837362 0.10527437 -0.5439776 0.041682508 0.006223835 -0.19484727 -0.085099764
0.07360619 0.22966188 -0.13547085 0.044289816 -0.009896745 -0.10782118 -0.0014265807 -0.18070917
-0.05730052 0.06920177 -0.064866595 0.15793929 0.10467821 -0.06413136 0.16566516 0.08599952
-0.0143386135 -0.012646708 -0.009830711 0.24088937 -0.16485617 0.16081813 0.23843014 -0.082273036
-0.13254996 -0.08102703 0.17535895 0.09727631 -0.05896491 -0.23993029 -0.095941775 -0.15822144
-0.15298101 -0.14030759 -0.026823888 -0.29879165 -0.3098892 -0.12578194 -0.042240616 -0.134296
-0.34447762 -0.019112011 -0.18188067 -0.28847805 -0.20780565 -0.078033395 -0.1307786 -0.1034088
-0.25886783 -0.32860592 -0.29184434 -0.03700479 -0.11687197 -0.16763367 -0.2500175 -0.00942278
-0.13202007 -0.24579486 -0.06678394 -0.20244336 -0.2429462 -0.19648544 -0.13107996 -0.07974696
-0.005869835 -0.1134805 -0.18276559 -0.049981494 -0.16192716 -0.109460875 0.004930096 -0.20878613
-0.23341921 -0.13542062 -0.31715503 -0.084239 -0.14447688 -0.044340946 -0.12786888 -0.13283972
-0.004540283 -0.23497492 -0.011822847 -0.20660453 -0.21311863 -0.040277854 -0.13720094 -0.13922957
-0.14626354 -0.058385134 -0.10957273 -0.039781604 -0.037886113 -0.18309285 -0.15385756 -0.2914923
-0.06746442 -0.19344544 0.09696344 0.033333648 -0.023216186 -0.04144208 0.023746682 -0.14605942
0.14682181 -0.014989332 -0.05312175 -0.06672618 -0.29049033 0.2056837 -0.20770833 0.20910122
0.060566682 -0.07626211 -0.04710908 0.20131673 0.015160341 0.01977315 -0.5367731 0.20426181
0.18470022 -0.46989012 0.32667395 -0.25103924 0.21201356 -0.09123584 -0.30665508 -0.004717856
0.023966366 0.31132922 -0.059664685 0.16862291 -0.04582058 0.15027334 -0.035680346 0.1912018
0.093156666 0.23283331 -0.26969823 0.24959397 -0.012630046 0.18371487 0.34898683 -0.17720819
-0.020321025 0.008225477 -0.08505122 0.14602292 0.16711311 0.20910223 0.2876045 -0.2521308
0.1067848 0.023924986 0.15268685 -0.050115958 -0.0344123 -0.4125686 -0.06854625 0.17641488
-0.051870797 -0.2767941 0.024732323 0.075597726 -0.04197716 -5.634344e-06 0.11977882 -0.102470055
-0.018548518 0.050163522 0.013771745 -0.28502372 -0.24829638 0.18744636 -0.27037942 0.11727996
0.04523977 -0.15448187 0.10043645 0.16250107 0.18030256 -0.008201994 -0.34252888 0.19632229
0.14171241 -0.22777963 0.35847905 -0.3583763 0.015599267 -0.16824815 -0.08266517 -0.12621737
0.23116145 0.20208293 0.13282889 0.22797848 -0.14510627 0.14720607 0.1668826 0.10105091
0.15213676 0.2174184 -0.42034727 0.139086 0.06530646 0.041825622 0.22629476 -0.24576627
-0.046948865 -0.011790647 -0.053003278 0.3050511 0.1569129 0.20637824 0.27102816 -0.26387024
0.0846175 0.17773074 0.14740571 0.014959738 -0.004680715 -0.27920404 0.21047005 0.058078803
00000000: ed4d 6ebe 177b 7dbe 82b0 b2bd c028 8dbe
00000010: af47 96bd 9692 d3bc 103a 383d 21b7 3abe
00000020: b45b 4ebc a736 c2bd 015b b9bd 1923 0bbe
00000030: 514f 71be 1100 3e3d fb93 46be de82 b7bd
00000040: 1856 913b b93a 4b3e d11f 113e 17cd 94bd
00000050: fc7f b7bd de66 26bd e76d 3ebf d8a1 3b3e
00000060: d8be fa3d 30ba c1be 179a d73d 1e42 0bbf
00000070: 47bb 2a3d 50f1 cb3b 0b86 47be c948 aebd
00000080: d8be 963d 7c2c 6b3e dfb8 0abe 3d69 353d
00000090: f525 22bc 5ad1 dcbd 1bfc baba d30b 39be
000000a0: f3b3 6abd a8b9 8d3d c7d8 84bd d6ba 213e
000000b0: 8861 d63d 4d57 83bd 21a4 293e 8420 b03d
000000c0: 81ec 6abc 2334 4fbc fe10 21bc b4ab 763e
000000d0: 0ed0 28be 82ad 243e 0827 743e c47e a8bd
000000e0: 2dbb 07be 80f1 a5bd 4c91 333e cd38 c73d
000000f0: 3185 71bd 49b0 75be 1f7d c4bd cd04 22be
00000100: 0ea7 1cbe cbac 0fbe c5bd dbbc 38fb 98be
00000110: cca9 9ebe fbcc 00be 7f04 2dbd e484 09be
00000120: 5f5f b0be cb90 9cbc ed3e 3abe 65b3 93be
00000130: 01cb 54be f9cf 9fbd d3ea 05be fec7 d3bd
00000140: 538a 84be 093f a8be 9f6c 95be 5692 17bd
00000150: 925a efbd 29a8 2bbe 4b02 80be 0162 1abc
00000160: 4530 07be a6b1 7bbe 05c6 88bd 504d 4fbe
00000170: e3c6 78be 7b33 49be d339 06be 6052 a3bd
00000180: bf57 c0bb 7768 e8bd e726 3bbe 65b9 4cbd
00000190: 3cd0 25be 062d e0bd a58c a13b 08cc 55be
000001a0: 7205 6fbe b4ab 0abe 2562 a2be 7f85 acbd
000001b0: bff1 13be da9e 35bd 0ff0 02be 2307 08be
000001c0: a7c6 94bb 449d 70be 9db4 41bc 2390 53be
000001d0: c53b 5abe 64fa 24bd 677e 0cbe 3292 0ebe
000001e0: 1cc6 15be 4025 6fbd ab67 e0bd 09f2 22bd
000001f0: 782e 1bbd b17c 3bbe d68c 1dbe 7b3e 95be
00000200: c92a 8abd 9016 46be c594 c63d dd88 083d
00000210: df2f bebc 2cbf 29bd 6788 c23c 9a90 15be
00000220: 7558 163e d195 75bc 3196 59bd bca7 88bd
00000230: 26bb 94be bf9e 523e 7eb1 54be a11e 563e
00000240: c514 783d 4f2f 9cbd 73f5 40bd f925 4e3e
00000250: 1463 783c 4dfb a13c f669 09bf 022a 513e
00000260: 0e22 3d3e 7095 f0be cf41 a73e 3788 80be
00000270: 151a 593e dbd9 babd e501 9dbe 3f98 9abb
00000280: 1d55 c43c 8b66 9f3e f562 74bd 7cab 2c3e
00000290: 5cae 3bbd 41e1 193e 8e25 12bd 68ca 433e
000002a0: ecc8 be3d db6b 6e3e e315 8abe 9095 7f3e
000002b0: 41ee 4ebc c01f 3c3e 67ae b23e 1076 35be
000002c0: 4778 a6bc 27c4 063c 562f aebd 0887 153e
000002d0: b31f 2b3e e51e 563e e640 933e 4a17 81be
000002e0: fdb1 da3d 55fe c33c f159 1c3e 6446 4dbd
000002f0: e9f3 0cbd 313c d3be fa61 8cbd 1aa6 343e
00000300: 7976 54bd f5b7 8dbe 719b ca3c fbd2 9a3d
00000310: 3ef0 2bbd a50e bdb6 994e f53d d2db d1bd
00000320: 10f3 97bc 4478 4d3d e3a2 613c a1ee 91be
00000330: 6841 7ebe f0f1 3f3e 2c6f 8abe 7a30 f03d
00000340: 564d 393d 7f30 1ebe a0b1 cd3d ae66 263e
00000350: 3ca1 383e a861 06bc f25f afbe b608 493e
00000360: 0f1d 113e 103f 69be 918a b73e 197d b7be
00000370: 1194 7f3c 3e49 2cbe 5b4c a9bd 203f 01be
00000380: 96b5 6c3e d4ee 4e3e 4c04 083e 3173 693e
00000390: bd96 14be 30bd 163e 46e3 2a3e c8f3 ce3d
000003a0: bdc9 1b3e eea2 5e3e c237 d7be 8f6c 0e3e
000003b0: 65bf 853d 5851 2b3d d0b9 673e 27aa 7bbe
000003c0: 744d 40bd 8f2d 41bc f719 59bd a82f 9c3e
000003d0: c6ad 203e d154 533e 34c4 8a3e 001a 87be
000003e0: f14b ad3d 0cff 353e 86f1 163e b019 753c
000003f0: af60 99bb d5f3 8ebe 7685 573e 0ae4 6d3d

conv3.bias f4 [128]
-4.399657e-05 -1.5429054e-06 7.5000185e-06 -9.115005e-06 1.3854947e-06 -5.025593e-06 -3.434147e-05 -1.8991586e-06
3.3484834e-05 2.2795903e-06 3.5944442e-05 -1.4042847e-05 7.1076242e-06 -9.915373e-06 -6.532098e-05 -2.9240777e-05
-4.1340554e-05 1.7820781e-05 7.1184904e-06 -1.9047544e-05 -0.00024077583 6.463708e-06 -1.555212e-05 2.1964474e-06
6.9653624e-06 -1.9119569e-05 -2.1033024e-08 -3.325615e-05 1.7461247e-05 5.60136e-06 -3.2833734e-05 1.6049878e-05
8.127036e-06 -1.838322e-05 9.467432e-06 1.6340466e-05 8.976359e-05 2.8696451e-05 1.5152333e-05 1.2791203e-05
2.040904e-06 -3.32546e-06 2.8567583e-06 -2.0084562e-05 -1.9097632e-05 1.1662362e-05 -3.8318753e-06 7.3951796e-06
2.5352798e-05 -5.2176885e-05 -7.237813e-06 2.9691011e-05 -1.0705703e-05 3.7805503e-07 -4.521068e-06 4.4566757e-05
5.3574286e-06 2.6193773e-05 1.3999053e-05 1.7502422e-05 -5.996879e-05 -5.2187715e-05 5.2897336e-05 4.2098804e-06
-5.9404e-05 -3.032235e-05 2.5109935e-05 3.6892074e-05 5.2975436e-05 -3.5022942e-05 -1.4746427e-05 5.498347e-05
-4.6696685e-05 2.9185494e-05 -0.00023479109 2.2065758e-05 4.743564e-05 1.593063e-05 -3.6359543e-06 -1.6797097e-05
-2.2043823e-06 -2.2462316e-06 -8.133492e-06 5.538844e-06 2.5155393e-06 -5.4108612e-05 1.4718959e-06 1.0479968e-05
3.997382e-05 1.5142587e-05 3.9175943e-06 -3.958063e-06 5.396814e-06 2.2678223e-05 -3.2434706e-05 2.2092732e-05
1.8642237e-05 -5.5845526e-06 7.584609e-06 7.364135e-06 -3.1860378e-05 2.1490865e-05 -1.8875784e-05 -1.2339877e-05
3.1244936e-06 -1.9518244e-05 -0.0003631169 1.6139944e-05 1.50817095e-05 4.2122563e-05 3.0155396e-05 -1.8891029e-06
-0.00028080598 -2.806498e-05 -1.5873291e-05 1.1670886e-05 2.7255016e-06 -1.0007642e-05 4.9311093e-06 6.425025e-05
1.5398164e-05 -3.0722564e-05 -1.4285146e-06 8.868158e-06 -1.0414463e-05 9.042383e-05 -2.4770496e-05 -3.233083e-05
00000000: f588 38b8 d315 cfb5 aba8 fb36 a6ec 18b7
00000010: 3cf5 b935 84a1 a8b6 df09 10b8 98e6 feb5
00000020: 1172 0c38 10fb 1836 0dc3 1638 9299 6bb7
00000030: 077e ee36 345a 26b7 effc 88b8 174a f5b7
00000040: 1565 2db8 d67d 9537 5edb ee36 4ac8 9fb7
00000050: c578 7cb9 d4e2 d836 ec75 82b7 ae66 1336
00000060: 02b8 e936 f662 a0b7 1cac b4b2 857c 0bb8
00000070: be79 9237 51f3 bb36 f4b6 09b8 daa2 8637
00000080: 5b59 0837 aa35 9ab7 50d6 1e37 e212 8937
00000090: 763f bc38 29b9 f037 c636 7e37 cc99 5637
000000a0: 77f6 0836 f82a 5fb6 bcb6 3f36 457b a8b7
000000b0: da33 a0b7 77a9 4337 8f93 80b6 1c24 f836
000000c0: b8ac d437 81d8 5ab8 57dc f2b6 f610 f937
000000d0: a59c 33b7 7df7 ca34 aeb3 97b6 31ed 3a38
000000e0: f6c3 b336 b3ba db37 7add 6a37 2ad2 9237
000000f0: ff86 7bb8 22e4 5ab8 15de 5d38 9942 8d36
00000100: 8f28 79b8 c05c feb7 2da3 d237 90bc 1a38
00000110: f131 5e38 99e5 12b8 6c67 77b7 0d9e 6638
00000120: 2fdc 43b8 5fd3 f437 4132 76b9 db19 b937
00000130: a1f5 4638 c4a2 8537 3801 74b6 7ee7 8cb7
00000140: 00ef 13b6 f7bd 16b6 1575 08b7 4fda b936
00000150: a3d0 2836 aef2 62b8 f58d c535 1fd3 2f37
00000160: 90a9 2738 ea0c 7e37 e173 8336 81cf 84b6
00000170: 4716 b536 1d3d be37 800a 08b8 c853 b937
00000180: e661 9c37 f162 bbb6 4c7f fe36 7019 f736
00000190: d2a1 05b8 4847 b437 7057 9eb7 5e07 4fb7
000001a0: 64ae 5136 1cbb a3b7 ba60 beb9 4464 8737
000001b0: 7307 7d37 c2ac 3038 38f6 fc37 158d fdb5
000001c0: 2439 93b9 166d ebb7 a227 85b7 13ce 4337
000001d0: c3e7 3636 7fe6 27b7 e875 a536 17be 8638
000001e0: 4e2b 8137 1adc 00b8 63bb bfb5 73c8 1437
000001f0: c7b9 2eb7 eda1 bd38 3cca cfb7 f79a 07b8

conv3.lin.weight f4 [128, 64]
-0.10503027 -0.057005156 -0.06772992 -0.24587041 -0.084988564 -0.41094288 -0.23476431 -0.025406536
-0.07793726 -0.633118 -0.1572527 -0.5572652 0.028398188 0.07865091 -0.05330956 -0.1406795
0.042109173 0.19509937 -0.03586453 -0.05489439 -0.041727055 -0.03587048 -0.078565046 -0.07749457
2.4574112e-05 -0.40506518 0.12236218 0.04470304 -0.55873114 -0.015599047 -0.044170264 -0.055840448
-0.24587826 -0.27857292 -0.090046875 -0.078807935 0.097840436 -0.21993133 -0.029592585 0.009115245
0.105957225 0.023942962 0.12770034 0.08928929 -0.020595815 -0.20282492 -0.053364 -0.0717933
-0.27320665 -0.16426787 -0.0533693 0.012456082 0.0061703725 -0.51083386 -0.5479968 -0.02653258
-0.057271197 -0.079021506 -0.11584263 -0.44848043 -0.11421276 -0.04439415 -0.019064164 0.004594688
0.0583624 -0.028570037 0.06931369 0.013531806 -0.075185396 -0.0075723603 -0.14792621 -0.01814713
-0.17375648 -0.092773095 -0.21132645 -0.0692604 -0.029572017 -0.034308508 -0.0027198936 0.31283683
-0.112154424 0.048400868 -0.051544197 -0.09223581 0.12585574 -0.15700695 -0.095844075 0.18179858
0.44365013 0.10649951 -0.0044762 -0.13898763 -0.04886188 -0.090626545 -0.020272493 -0.09987384
-0.07204403 0.01865729 -0.065618716 -0.1759746 -0.02529856 0.00488196 -0.04472995 -0.07449038
-0.018608829 0.02596503 -0.11226779 -0.21009912 -0.014953148 -0.1367726 -0.16336295 -0.0254346
-0.013263068 -0.056771956 -0.051744014 -0.15291283 -0.103076704 -0.056394707 -0.25108013 -0.09207347
-0.14889371 0.09706282 -0.057952326 0.018810265 -0.058041696 -0.04283845 0.07157716 -0.033596266
0.015385212 -0.007782924 0.031190116 -0.048811603 -0.24180308 -0.05783203 -0.012732904 -0.099870436
-0.083672225 -0.1356684 -0.100941315 -0.08082077 0.09192279 -0.05521227 -0.039641134 0.08158995
-0.13019396 0.0275507 -0.10041217 -0.084511936 -0.02914989 -0.0510747 -0.026526326 0.11769328
0.027760422 0.016920902 0.010733191 0.03269258 -0.23729077 -0.015468583 0.0011277889 -0.04938916
-0.07776616 0.017942188 -0.14388531 -0.010083303 -0.06379741 0.006982122 -0.017508117 -0.092017785
0.1004172 -0.07573205 -0.12121709 -0.081336856 0.022790214 0.027409034 -0.19227746 0.019509315
0.028123548 -0.12931696 -0.13192698 -0.10942287 -0.21849999 -0.0661591 -0.13583174 -0.29166296
-0.0854846 -0.06484039 -0.041970737 0.0020770656 -0.16001089 0.02581269 -0.053664427 -0.18428504
-0.34186432 -0.031300534 -0.3060333 -0.24124046 -0.11644625 -0.017159088 0.19444214 0.07886435
0.26123133 0.08524713 -0.07823051 0.08348565 0.14244181 -0.03656737 0.047754653 -0.21435879
-0.1575006 0.41338834 0.064440966 -0.19859736 0.12118841 -0.04920609 -0.076523066 -0.3773368
-0.5454439 -0.113410965 0.26826313 0.0078097503 0.05771444 -0.27896413 -0.24330352 -0.0879747
0.0798149 -0.15007405 -0.14693162 0.009821816 0.21418127 -0.3061188 -0.09623636 -0.1839152
-0.06044874 -0.07155822 -0.17919765 0.34079498 0.05376114 0.03393978 0.09058651 -0.37803861
-0.057984155 0.07725754 0.04747528 -0.16775262 0.17135519 0.074383095 0.18615115 0.028294586
0.13875842 0.05725464 -0.053679585 0.023503093 -0.006361858 0.02016112 -0.22041158 0.011407139
00000000: 1c1a d7bd 3d7e 69bd fcb5 8abd 74c5 7bbe
00000010: 7c0e aebd 1b67 d2be 0e66 70be 5e21 d0bc
00000020: 929d 9fbd 0514 22bf da06 21be efa8 0ebf
00000030: 51a3 e83c ba13 a13d 205b 5abd 490e 10be
00000040: ab7a 2c3d 21c8 473e afe6 12bd f1d8 60bd
00000050: fde9 2abd edec 12bd b6e6 a0bd 79b5 9ebd
00000060: 8124 ce37 b464 cfbe 0699 fa3d 891a 373d
00000070: 0109 0fbf 2593 7fbc e1eb 34bd f4b8 64bd
00000080: 83c7 7bbe 1ca1 8ebe 7f6a b8bd 0e66 a1bd
00000090: 9160 c83d ae35 61be 266c f2bc 1c58 153c
000000a0: 1a00 d93d 0824 c43c e1c3 023e 4edd b63d
000000b0: 8eb8 a8bc 56b1 4fbe 3694 5abd 5e08 93bd
000000c0: bee1 8bbe d635 28be c499 5abd 9814 4c3c
000000d0: d630 ca3b 02c6 02bf 8549 0cbf da5a d9bc
000000e0: 3495 6abd 07d6 a1bd e73e edbd 3a9f e5be
000000f0: 61e8 e9bd a4d6 35bd 732c 9cbc 098f 963b
00000100: 690d 6f3d b60b eabc 56f4 8d3d 82b4 5d3c
00000110: cdfa 99bd 9021 f8bb f879 17be 4aa9 94bc
00000120: 38ed 31be d2ff bdbd f665 58be 66d8 8dbd
00000130: 0441 f2bc 1487 0cbd 3e40 32bb 262c a03e
00000140: 38b1 e5bd fd3f 463d 0220 53bd 21e6 bcbd
00000150: 54e0 003e 6ec6 20be e649 c4bd 6829 3a3e
00000160: 1c26 e33e 6a1c da3d 16ad 92bb c652 0ebe
00000170: 6523 48bd 699a b9bd 8012 a6bc a88a ccbd
00000180: d28b 93bd 2cd7 983c 1b63 86bd af32 34be
00000190: ed3e cfbc d9f8 9f3b c136 37bd 6a8e 98bd
000001a0: 8b71 98bc 9db4 d43c a8ec e5bd 3924 57be
000001b0: 0cfe 74bc 1e0e 0cbe 9e48 27be 395c d0bc
000001c0: 574d 59bc b689 68bd 88f1 53bd 2e95 1cbe
000001d0: e119 d3bd 23fe 66bd 938d 80be 0491 bcbd
000001e0: 9877 18be dfc8 c63d 6b5f 6dbd fc17 9a3c
000001f0: 21bd 6dbd 5f77 2fbd 0c97 923d 3d9c 09bd
00000200: 4212 7c3c e607 ffbb 6a82 ff3c adee 47bd
00000210: 3a9b 77be 47e1 6cbd ac9d 50bc df88 ccbd
00000220: 585c abbd a8ec 0abe 52ba cebd 5c85 a5bd
00000230: 0442 bc3d 4326 62bd be5e 22bd a218 a73d
00000240: 9151 05be 01b2 e13c e5a4 cdbd 9814 adbd
00000250: c0cb eebc b433 51bd bd4d d9bc 2d09 f13d
00000260: d369 e33c b49d 8a3c 44da 2f3c a8e8 053d
00000270: 5afc 72be f16f 7dbc 51d2 933a 4a4c 4abd
00000280: dd43 9fbd 7ffb 923c ac56 13be 7034 25bc
00000290: 37a8 82bd 49ca e43b 2f6d 8fbc d273 bcbd
000002a0: 88a7 cd3d 6819 9bbd aa40 f8bd f093 a6bd
000002b0: 8bb2 ba3c e988 e03c 62e4 44be 00d2 9f3c
000002c0: 5b63 e63c aa6b 04be de17 07be 1919 e0bd
000002d0: 76be 5fbe 6c7e 87bd 7a17 0bbe d954 95be
000002e0: 8d12 afbd 0acb 84bd 82e9 2bbd 611f 083b
000002f0: e5d9 23be 2275 d33c 3bcf 5bbd 38b5 3cbe
00000300: d708 afbe fd34 00bd 66b0 9cbe bd07 77be
00000310: 5f7b eebd 3791 8cbc d71b 473e a283 a13d
00000320: 1dc0 853e 0c96 ae3d 5137 a0bd 86fa aa3d
00000330: 44dc 113e abc7 15bd 629a 433d df80 5bbe
00000340: d647 21be a3a7 d33e a0f9 833d 1b5d 4bbe
00000350: a131 f83d 538c 49bd 20b8 9cbd 4a32 c1be
00000360: 36a2 0bbf 0244 e8bd c959 893e efe8 ff3b
00000370: fa65 6c3d 63d4 8ebe 8f24 79be 142c b4bd
00000380: ff75 a33d 03ad 19be 3e75 16be afeb 203c
00000390: 5652 5b3e 9abb 9cbe 9217 c5bd 4454 3cbe
000003a0: 1999 77bd 1e8d 92bd 977f 37be ae7c ae3e
000003b0: a434 5c3d 7004 0b3d 6c85 b93d 478e c1be
000003c0: cb80 6dbd 3339 9e3d 7075 423d 58c7 2bbe
000003d0: bc77 2f3e 2a56 983d 689e 3e3e 0cca e73c
000003e0: b016 0e3e d783 6a3d 20df 5bbd 8f89 c03c
000003f0: 2277 d0bb ef28 a53c 93b3 61be 02e5 3a3c

conv4.bias f4 [256]
0.07161726 -0.26018625 -0.17734453 0.2647056 0.17721042 -0.0024033897 -0.06626884 -0.003793041
-0.14217487 -0.10491414 -0.10721413 -0.10863426 0.0058542113 -0.18600969 -0.053546697 0.015422495
-0.096502334 -0.12547117 -0.34724534 -0.10235126 -0.18855621 0.0154311685 -0.008965021 -0.24337858
-0.24806783 -0.08480828 -0.21905477 -0.020130385 -0.029697878 -0.015370116 0.03411358 -0.11133479
-0.11642172 -0.38736838 -0.09347876 -0.40015203 0.00040747775 -0.08675503 -0.06303753 0.044165388
-0.06760187 0.0045633367 0.08382102 0.5637502 -3.363354e-05 -0.03270539 -0.051121593 -0.050854277
-0.036373094 -0.21173492 -0.08435068 -0.1709832 -0.05376009 0.025510881 -0.28357285 -0.12527125
0.03477142 -0.07509644 -0.07602674 -0.02794955 -0.036488347 -0.20874353 -0.07120889 -0.18225609
-0.02503733 -0.036910173 -0.010809693 -0.10937128 -0.2932176 -0.10523097 0.0038986881 -0.03058897
-0.07893942 -0.068205304 -0.11594561 -0.09676292 -0.0045543816 0.038675558 -0.09748725 0.058058754
0.029049624 -0.020995773 -0.098580144 -0.34427345 -0.19022462 0.03559966 0.00023804148 0.041807707
-0.25270155 -0.40088338 -0.06285848 -0.11161264 -0.26142672 -0.18009244 -0.39191076 0.006202728
-0.22220203 -0.2851615 -0.21008153 -0.13740867 -0.15208812 -0.1504464 -0.04854832 -0.061896943
-0.08373697 0.12517828 0.24005285 -0.017478457 -0.02292197 0.06654695 -0.09922793 -0.0684759
0.036475908 -0.09945955 -0.23695084 -0.18231365 -0.03541075 -0.24389464 -0.033291154 -0.08848877
-0.36729196 0.05733366 -0.038434964 -0.041195996 -0.02755908 0.05608502 -0.05781747 -0.05123737
-0.004004409 -0.115154564 0.79665065 -0.028782202 -0.07630344 -0.023277478 -0.24599594 -0.28018227
-0.1672015 0.058733165 -0.09189908 -0.017996581 -0.02245396 -0.106719285 -0.1530698 -0.03153013
0.11981691 -0.19695605 -0.1627543 -0.0885885 -0.031636026 -0.13653038 0.0030723922 -0.08199807
0.038826138 -0.08148162 0.16700177 -0.32455134 0.06772795 -0.21702594 0.02449427 -0.0037270384
-0.01394667 -0.10116752 -0.21948275 -0.080181554 -0.24438356 -0.17045562 -0.011521161 -0.06049914
-0.08702013 -0.33252335 -0.096356966 0.06714754 -0.27402437 0.04766718 -0.034645524 -0.16607367
-0.1191241 -0.04215013 -0.01909421 -0.07555362 -0.1920108 -0.11581465 -0.27907804 -0.25823864
-0.16651985 0.2698908 -0.3072059 -0.19325843 -0.10541143 -0.111560985 0.13334675 -0.032304417
-0.15792124 -0.13846862 0.059715293 -0.098917745 -0.08099084 0.04696206 -0.092369415 -0.095451765
-0.013191347 -0.029277796 0.1832869 -0.0045749247 -0.25442633 -0.053784784 0.05518782 -0.014184682
-0.074313596 -0.052587494 -0.0838143 -0.11992154 -0.17382275 -0.30486187 -0.25554344 -0.11613923
-0.7404812 -0.12597704 -0.16480511 -0.27702153 -0.06912031 -0.10341077 -0.14087147 0.106128536
-0.078363046 -0.17494176 -0.1445169 -0.03310136 -0.033479873 -0.20423692 -0.10292819 -0.35341483
-0.14690451 -0.15749861 -0.08956472 0.039598938 -0.19393957 -0.08600605 -0.068417944 -0.0764324
-0.06672159 -0.013582999 -0.2367678 -0.015338021 -0.03254948 -0.054155473 0.060398117 0.4981918
-0.0013607657 -0.2505244 -0.22880568 0.014291224 -0.030048491 -0.16860974 -0.07806894 -0.09718382
00000000: 12ac 923d 2237 85be ce99 35be 7e87 873e
00000010: a676 353e 3082 1dbb f5b7 87bd ab94 78bb
00000020: 4a96 11be 3add d6bd 1593 dbbd a47b debd
00000030: afd4 bf3b 5379 3ebe c853 5bbd a2ae 7c3c
00000040: 04a3 c5bd 847b 00be 24ca b1be 8a9d d1bd
00000050: e114 41be 03d3 7c3c 06e2 12bc 3c38 79be
00000060: 7e05 7ebe f7af adbd e54f 60be 7ae8 a4bc
00000070: f748 f3bc f0d2 7bbc aeba 0b3d 7f03 e4bd
00000080: 836e eebd 2655 c6be cb71 bfbd bae0 ccbe
00000090: bda2 d539 9fac b1bd d219 81bd c4e6 343d
000000a0: d972 8abd 0b88 953b 5baa ab3d ef51 103f
000000b0: bd11 0db8 16f6 05bd e064 51bd 934c 50bd
000000c0: f4fb 14bd 0ad1 58be 0dc0 acbd 3816 2fbe
000000d0: 8a33 5cbd 32fc d03c 7630 91be 1b47 00be
000000e0: 7a6c 0e3d 2acc 99bd e8b3 9bbd 74f6 e4bc
000000f0: ce74 15bd ddc0 55be f7d5 91bd 57a1 3abe
00000100: 161b cdbc 1f2f 17bd 231b 31bc 0dfe dfbd
00000110: 9e20 96be 5683 d7bd 2281 7f3b b895 fabc
00000120: feaa a1bd 39af 8bbd e474 edbd a32b c6bd
00000130: ec3c 95bb 436a 1e3d 65a7 c7bd 04cf 6d3d
00000140: 7af9 ed3c 54ff abbc 63e4 c9bd 9c44 b0be
00000150: 3eca 42be f3d0 113d c69a 7939 8f3e 2b3d
00000160: 1962 81be 9640 cdbe f2bb 80bd 2b95 e4bd
00000170: b9d9 85be 276a 38be 87a8 c8be 4140 cb3b
00000180: ee88 63be b000 92be 9d1f 57be dcb4 0cbe
00000190: fdbc 1bbe 9f0e 1abe 9ada 46bd a687 7dbd
000001a0: 4a7e abbd bc2e 003e 6ad0 753e fb2e 8fbc
000001b0: dbc6 bbbc c449 883d 0338 cbbd 183d 8cbd
000001c0: c367 153d 73b1 cbbd 3ea3 72be 6eb0 3abe
000001d0: dd0a 11bd 84bf 79be 4e5c 08bd 9a39 b5bd
000001e0: b10d bcbe b3d6 6a3d fb6d 1dbd 22bd 28bd
000001f0: 94c3 e1bc 68b9 653d 03d2 6cbd 47de 51bd
00000200: 6b37 83bb 28d6 ebbd 4cf1 4b3f a7c8 ebbc
00000210: fa44 9cbd 69b0 bebc 5ce6 7bbe 0d74 8fbe
00000220: df36 2bbe 3092 703d 9635 bcbd 916d 93bc
00000230: 5ef1 b7bc a48f dabd 54be 1cbe bd25 01bd
00000240: 9162 f53d d9ae 49be 10a9 26be e36d b5bd
00000250: c794 01bd 9fce 0bbe 305a 493b 9bee a7bd
00000260: 2808 1f3d d6df a6bd 8302 2b3e 982b a6be
00000270: f4b4 8a3d 0c3c 5ebe 35a8 c83c 5441 74bb
00000280: 9380 64bc eb30 cfbd 16c0 60be 3a36 a4bd
00000290: af3f 7abe eb8b 2ebe 40c3 3cbc f2cd 77bd
000002a0: 9c37 b2bd 8040 aabe cd56 c5bd a684 893d
000002b0: ec4c 8cbe a93e 433d 77e8 0dbd 370f 2abe
000002c0: 56f7 f3bd 9da5 2cbd 766b 9cbc dbbb 9abd
000002d0: 7b9e 44be 3b30 edbd 51e3 8ebe db37 84be
000002e0: 2e84 2abe 202f 8a3e 174a 9dbe 8ae5 45be
000002f0: f3e1 d7bd 167a e4bd 0d8c 083e a351 04bd
00000300: 1bb6 21be b8ca 0dbe 0698 743d 6395 cabd
00000310: 87de a5bd 4a5b 403d 2d2c bdbd 377c c3bd
00000320: 8520 58bc fdd7 efbc 90af 3b3e 40e9 95bb
00000330: 2b44 82be 6f4d 5cbd a00c 623d de66 68bc
00000340: ba31 98bd fc65 57bd d5a6 abbd 6d99 f5bd
00000350: 97fe 31be db16 9cbe 97d6 82be 68da edbd
00000360: 2d90 3dbf 2000 01be acc2 28be c4d5 8dbe
00000370: f38e 8dbd 07c9 d3bd 9c40 10be eb59 d93d
00000380: ce7c a0bd ef23 33be 3dfc 13be 4b95 07bd
00000390: 3122 09bd 7c23 51be 04cc d2bd caf2 b4be
000003a0: 236e 16be 5147 21be b56d b7bd 7f32 223d
000003b0: 1898 46be f123 b0bd b51e 8cbd 9788 9cbd
000003c0: 54a5 88bd 3a8b 5ebc 4273 72be 534c 7bbc
000003d0: 9b52 05bd 21d2 5dbd 0464 773d ff12 ff3e
000003e0: b85b b2ba bc44 80be 094c 6abe bd25 6a3c
000003f0: 4128 f6bc 08a8 2cbe 9ce2 9fbd 5008 c7bd

conv4.lin.weight f4 [256, 128]
0.033582743 -0.098692246 -0.053187095 0.11918181 -0.043009803 -0.03283316 -0.10141405 -0.061605066
-0.14016303 -0.0010154966 -0.17147772 0.039649118 -0.042713735 0.034130454 -0.12287619 -0.021186342
0.04395621 -0.009000915 0.04480054 -0.0493451 0.13429447 -0.09545981 0.019995246 0.005485631
-0.1365593 -0.054631747 0.09757969 0.08951828 -0.007919657 -0.004897969 0.033472028 -0.07970235
0.09314421 -0.017184922 -0.13067693 0.021847986 -0.16012394 0.16583546 -0.008539443 0.03972316
-0.16251153 0.08430609 -0.020683909 0.06364875 0.09790473 -0.0070906268 -0.04896617 0.07674928
-0.037528913 0.12148441 -0.06041391 -0.010109814 -0.15625207 0.00024026292 0.009135447 -0.13206528
0.011224718 -0.012329978 -0.46889028 -0.06769988 0.07810791 -0.11878611 -0.16456996 0.001983278
-0.09795819 -0.10055272 -0.04986856 0.06857716 0.052577373 0.006930865 -0.08868311 -0.27359402
-0.11540864 0.07018136 -0.047041412 -0.02304587 -0.16540751 0.064553306 0.041339375 -0.013685992
0.21031243 0.03475426 0.008088943 -0.027853424 -0.065924406 -0.006934138 -0.22282034 0.020777423
-0.21847883 -0.18535936 0.002145038 -0.0074467524 -0.037175827 0.06898293 -0.038359713 -0.0030863935
-0.0492638 0.026303962 0.07885311 -0.030800553 -0.11724258 0.0131795695 0.043989 0.08827909
0.0061322604 0.032402948 0.014542136 0.023079792 0.0050330507 -0.10064485 -0.013321539 0.053539515
0.11892433 0.026817 -0.23667438 0.08384597 -0.04179614 -0.14989914 -0.22648336 -0.057094365
-0.028772773 0.028771443 0.028457278 -0.017562836 -0.09605514 -0.2732569 -0.1857784 0.08653631
0.18883523 -0.12129778 -0.08871603 0.0039737495 -0.0042344006 0.0037212437 -0.09330955 -0.07993957
-0.11117432 -0.05199729 -0.018932642 -0.0174329 0.025410002 -0.09251782 0.061341744 -0.14156264
-0.0084776 0.060292844 -0.099326134 0.0012226305 0.0132994 -0.061623335 -0.08272791 -0.011645253
-0.20797853 -0.11330148 -0.08146032 -0.058590855 0.04780548 0.10833074 -0.0027858063 -0.0023165324
-0.09417678 -0.10044556 -0.1323947 -0.29215315 -0.45166427 0.054838747 -0.016441658 0.017718837
-0.093486115 0.06638871 -0.007532612 -0.058294393 -0.103279345 -0.06650375 -0.026872668 0.0095193
0.04320743 0.11698793 -0.04340139 -0.07919915 0.0582931 -0.080190055 0.06604659 0.046817966
0.008603736 -0.10306496 -0.4955347 -0.26400343 0.1288016 -0.03201147 0.08656464 0.04248639
-0.021954935 -0.058856037 0.0071245786 -0.037239175 0.011109839 -0.087597705 -0.14799206 -0.30657545
-0.28628916 -0.066253155 -0.048642207 -0.087279215 -0.18792011 0.044981536 0.052730948 -0.05593587
-0.19769438 0.013810222 0.07467386 0.07077221 -0.10011591 -0.049663197 -0.084418684 -0.07504493
-0.01987371 -0.17579713 -0.048187193 -0.18071637 -0.009857012 -0.09291086 -0.030562134 -0.09239147
-0.04114881 -0.15079063 -0.1502643 0.089719966 -0.30960009 0.100804314 -0.044177823 -0.13443631
-0.06806321 0.029682785 0.0814606 0.0408622 -0.003059924 -0.15245335 -0.11317974 -0.027061928
-0.051909734 0.014638197 -0.22501503 0.047469977 0.022138814 -0.08861416 -0.09396372 -0.089444235
-0.051226296 0.0042073475 0.04942188 -0.01755494 -0.03020862 -0.8609865 -0.5107919 -0.03358564
00000000: 0f8e 093d 291f cabd b6da 59bd 9815 f43d
00000010: 0c2b 30bd 107c 06bd 2bb2 cfbd 9855 7cbd
00000020: e686 0fbe 691a 85ba db97 2fbe 1d67 223d
00000030: 99f4 2ebd 60cc 0b3d 83a6 fbbd fb8e adbc
00000040: 6d0b 343d 9378 13bc c580 373d 161e 4abd
00000050: 7d84 093e 6f80 c3bd 12cd a33c cfc0 b33b
00000060: 33d6 0bbe 8ac5 5fbd dcd7 c73d 5c55 b73d
00000070: 73c1 01bc 247f a0bb f719 093d fc3a a3bd
00000080: 64c2 be3d 65c7 8cbc 2cd0 05be 8cfa b23c
00000090: 88f7 23be c5d0 293e 05e9 0bbc c1b4 223d
000000a0: 6c69 26be aca8 ac3d 4d71 a9bc 475a 823d
000000b0: 4682 c83d 7d58 e8bb c090 48bd ba2e 9d3d
000000c0: ebb7 19bd d1cc f83d 9374 77bd a2a3 25bc
000000d0: 8b00 20be 16ef 7b39 d8ac 153c 1f3c 07be
000000e0: e1e7 373c ad03 4abc 6312 f0be 3ca6 8abd
000000f0: 0af7 9f3d 2246 f3bd 0785 28be e2f9 013b
00000100: 4e9e c8bd 96ee cdbd fa42 4cbd 2f72 8c3d
00000110: 5f5b 573d 4f1c e33b 7e9f b5bd 8414 8cbe
00000120: 5d5b ecbd 3fbb 8f3d 7fae 40bd b1ca bcbc
00000130: 9660 29be 8634 843d 7a53 293d 363b 60bc
00000140: 245c 573e 7c5a 0e3d 7c87 043c dd2c e4bc
00000150: 6003 87bd c437 e3bb 042b 64be 6a35 aa3c
00000160: eab8 5fbe d8ce 3dbe c493 0c3b e303 f4bb
00000170: ae45 18bd ec46 8d3d 131f 1dbd 1745 4abb
00000180: d7c8 49bd 687b d73c bd7d a13d 7151 fcbc
00000190: e11c f0bd 1fef 573c cf2d 343d abcb b43d
000001a0: 21f1 c83b f4b8 043d 2442 6e3c d511 bd3c
000001b0: 4aec a43b e31e cebd 9642 5abc 404c 5b3d
000001c0: 998e f33d 53af db3c c55a 72be 70b7 ab3d
000001d0: 6e32 2bbd 297f 19be 41eb 67be c8db 69bd
000001e0: e1b4 ebbc 17b2 eb3c 3d1f e93c f0df 8fbc
000001f0: 8fb8 c4bd 54e8 8bbe b13c 3ebe f339 b13d
00000200: 065e 413e f86a f8bd c0b0 b5bd 3a36 823b
00000210: bac0 8abb 1ce0 733b 1419 bfbd 5bb7 a3bd
00000220: 5daf e3bd 1cfb 54bd a118 9bbc 71cf 8ebc
00000230: a328 d03c fc79 bdbd 7b41 7b3d ccf5 10be
00000240: a2e5 0abc a1f5 763d 806b cbbd ac40 a03a
00000250: bae5 593c c068 7cbd 406d a9bd bbcb 3ebc
00000260: 53f8 54be 9b0a e8bd abd4 a6bd f7fc 6fbd
00000270: aecf 433d 82dc dd3d 1392 36bb f7d0 17bb
00000280: c1df c0bd 67b6 cdbd 7a92 07be 1995 95be
00000290: 8a40 e7be 989e 603d a8b0 86bc 1827 913c
000002a0: a675 bfbd cef6 873d 21d4 f6bb 1ac6 6ebd
000002b0: 1f84 d3bd 1e33 88bd 1224 dcbc d7f6 1b3c
000002c0: 46fa 303d 5e97 ef3d a8c5 31bd 2a33 a2bd
000002d0: bfc4 6e3d af3a a4bd 6f43 873d 32c4 3f3d
000002e0: aff6 0c3c b913 d3bd b9b6 fdbe 752b 87be
000002f0: 91e4 033e 761e 03bd cd48 b13d 3506 2e3d
00000300: d6da b3bc 0713 71bd 4c75 e93b 1b88 18bd
00000310: 0b06 363c 6d66 b3bd 3b8b 17be 75f7 9cbe
00000320: 7e94 92be bcaf 87bd 0d3d 47bd 72bf b2bd
00000330: 216e 40be 8f3e 383d 68fc 573d 031d 65bd
00000340: 6570 4abe 4544 623c 9cee 983d 05f1 903d
00000350: 9209 cdbd a36b 4bbd b4e3 acbd 28b1 99bd
00000360: 31ce a2bc 2a04 34be ef5f 45bd b60d 39be
00000370: 4e7f 21bc 0d48 bebd 715d fabc bd37 bdbd
00000380: a88b 28bd dc68 1abe e2de 19be 1abf b73d
00000390: e783 9ebe 7e72 ce3d cef3 34bd aca9 09be
000003a0: b964 8bbd 5029 f33c d1d4 a63d 1f5f 273d
000003b0: 0289 48bb bb1c 1cbe c8ca e7bd fab0 ddbc
000003c0: 4d9f 54bd 0cd5 6f3c 576a 66be e16f 423d
000003d0: 755c b53c 577b b5bd 0d70 c0bd 8a2e b7bd
000003e0: aad2 51bd cadd 893b 996e 4a3d 61cf 8fbc
000003f0: 1178 f7bc 9c69 5cbf 42c3 02bf 1991 09bd

conv5.bias f4 [256]
-0.00011138013 9.0942456e-05 -0.00014691759 -0.00010215471 -1.8566616e-05 8.831462e-05 -4.7818838e-05 4.4347366e-06
-0.00026808053 1.21819585e-05 -7.0624425e-05 9.0482456e-05 -8.40504e-05 1.6923093e-06 -8.228211e-05 -8.07821e-06
-0.00020586206 -0.00018933619 0.00013027227 -0.0002243968 -4.373885e-06 -2.1223734e-07 -4.7540736e-05 4.0930012e-05
7.248804e-05 5.8116573e-05 1.194745e-05 -0.00015630414 -9.683843e-06 -5.5197226e-05 -2.0615733e-05 -4.7510188e-05
-6.8905334e-05 -0.00016886691 -0.00012834012 -8.194547e-05 8.198045e-06 -8.248824e-05 -0.00010723759 -0.000103023754
5.366512e-06 -0.00017418984 6.791746e-06 8.6746986e-05 -9.727476e-05 -6.9443086e-05 -0.00024451438 -0.00011357419
3.2624426e-05 0.00018150781 -0.00011853269 7.0175665e-06 0.00019635465 0.000101131795 0.00020940922 -0.0001519767
-6.003924e-07 -0.00020808377 7.735142e-05 -1.9062916e-05 -1.1123316e-05 0.00021226263 0.000152009 -5.7117442e-05
0.00016693611 1.6276908e-05 8.944886e-06 -0.00018560964 -8.690492e-05 -4.213827e-06 0.00014291142 -2.4307483e-06
1.638108e-05 2.905969e-06 -0.00016701919 -3.2478856e-05 5.2332107e-05 0.00027580414 -0.00022861564 -0.00012840204
6.684791e-05 6.0202787e-05 0.00016734 0.00017599294 -0.00016047806 3.0535353e-05 -6.968118e-05 0.000115089824
-2.8950257e-05 -7.9412916e-05 -0.00018162688 -9.243723e-05 -0.00020442047 -3.5440794e-06 5.423516e-05 -0.00020277727
-0.00013917279 0.00015967606 5.5492328e-05 8.624179e-05 9.683346e-05 0.0001553511 4.3922055e-06 -4.3907414e-05
0.0001038222 -7.476501e-05 2.6886713e-05 8.3934543e-07 0.00012652013 -6.371858e-05 -2.8483155e-05 2.3597338e-05
-0.00022710385 1.1362076e-05 6.195376e-05 -1.2133278e-05 4.8095735e-06 -0.00017055373 1.2610365e-05 0.00019870087
-0.00026487757 -6.618121e-05 0.00015178829 0.00018325659 -0.00014571504 -0.00019178886 0.00012119508 0.00010707651
-0.00012684634 -8.9166955e-05 1.5139282e-05 5.8214584e-05 -8.9528805e-07 -4.185991e-05 0.00018824752 5.5379232e-06
-2.8778022e-06 -2.1515304e-07 -0.00015239006 0.00023692432 5.4244547e-06 1.9444915e-05 0.00023603527 -0.000109921144
4.668582e-05 6.8524605e-07 0.00017767005 2.067968e-05 -5.625731e-05 0.00010982349 -2.5627214e-05 -7.7495024e-05
2.1964894e-05 0.00011898851 -2.7006949e-05 6.4500405e-06 -0.00012676482 9.761224e-05 -2.2947135e-05 4.731626e-05
-3.5845085e-06 0.00015068598 0.00024046062 -8.675808e-06 -0.00023725847 9.884034e-05 -0.0002055313 -9.3559254e-05
2.2767763e-05 0.00011988176 0.00017119346 8.616388e-06 -2.1352987e-06 0.00013683047 7.2764975e-05 -0.00011795715
-9.350076e-05 -7.850887e-06 0.00017710985 -9.7506745e-05 -0.00025656066 0.00012916973 5.3574975e-05 0.00017363901
-1.8687559e-06 0.00026736036 -6.092314e-05 -1.676878e-05 3.1553495e-06 6.795028e-05 5.751932e-05 8.2621475e-05
8.589574e-05 1.8304448e-06 6.113169e-05 -0.00025643976 0.00015274149 2.4426476e-05 1.9841487e-05 2.6298846e-06
-0.00013861946 -3.4893033e-05 -0.00011920051 -7.868277e-05 6.373147e-06 -4.8974573e-05 1.0728658e-06 -0.0001424786
-0.0003435086 9.205013e-05 1.2157364e-05 1.5639292e-06 4.5293498e-07 -0.00021379077 0.00011366247 -0.00021605677
-0.00010556945 -1.4152752e-05 0.0002400257 6.940843e-05 -4.160112e-06 1.36288645e-05 0.0001048572 4.7753136e-05
-8.187802e-05 0.00022447266 6.604593e-05 -3.7596936e-05 1.0768419e-05 8.646592e-06 -6.566321e-05 7.448245e-05
-0.0002413166 0.00014051571 0.00021292349 2.3790599e-05 -5.227086e-06 -7.981324e-05 -2.136635e-06 0.00019122788
-6.108016e-05 0.00014739642 -3.1622512e-05 -0.00021911814 -0.00014279723 0.00024253273 -0.00016484103 2.102085e-06
-6.692751e-05 1.9294805e-05 -9.371852e-05 0.00010276732 -0.00013642144 0.0001454323 6.41079e-06 9.579785e-05
00000000: c194 e9b8 5cb8 be38 e40d 1ab9 e43b d6b8
00000010: 81bf 9bb7 8d35 b938 1691 48b8 19ce 9436
00000020: 298d 8cb9 1d61 4c37 331c 94b8 66c1 bd38
00000030: 3744 b0b8 4e23 e335 df8e acb8 a687 07b7
00000040: addc 57b9 8c88 46b9 b299 0839 0f4c 6bb9
00000050: 63c3 92b6 5be3 63b4 7a66 47b8 44ac 2b38
00000060: b804 9838 32c2 7338 e871 4837 93e5 23b9
00000070: ca77 22b7 9283 67b8 f3ef acb7 ad45 47b8
00000080: 4581 90b8 de11 31b9 0a93 06b9 24da abb8
00000090: 568a 0937 89fd acb8 bee4 e0b8 750e d8b8
000000a0: fd11 b436 bba6 36b9 a7e4 e336 efeb b538
000000b0: fdff cbb8 f9a1 91b8 2a32 80b9 ae2e eeb8
000000c0: 36d6 0838 2253 3e39 c194 f8b8 7078 eb36
000000d0: 8de4 4d39 b816 d438 dc94 5b39 ef5b 1fb9
000000e0: a72a 21b5 1031 5ab9 ba37 a238 4de9 9fb7
000000f0: 479e 3ab7 d192 5e39 9b64 1f39 6391 6fb8
00000100: 920b 2f39 658a 8837 fe11 1637 35a0 42b9
00000110: b940 b6b8 8064 8db6 7eda 1539 f01f 23b6
00000120: 1a6a 8937 2b04 4336 df21 2fb9 e839 08b8
00000130: 2c7f 5b38 ce99 9039 8bb8 6fb9 a9a3 06b9
00000140: b330 8c38 4082 7c38 fd77 2f39 bf8a 3839
00000150: 0046 28b9 1613 0038 cc21 92b8 615c f138
00000160: 34da f2b7 7c8a a6b8 1873 3eb9 dcda c1b8
00000170: b459 56b9 d2d6 6db6 8f7a 6338 9ca0 54b9
00000180: e9ee 11b9 b76e 2739 6fc0 6838 b5dc b438
00000190: 1113 cb38 bee5 2239 c260 9336 3a29 38b8
000001a0: 1fbb d938 29cb 9cb8 c78a e137 614f 6135
000001b0: 7daa 0439 a7a0 85b8 1cef eeb7 e6f2 c537
000001c0: ba22 6eb9 bf9f 3e37 2ced 8138 0890 4bb7
000001d0: ec61 a136 abd6 32b9 1b91 5337 5c5a 5039
000001e0: 44df 8ab9 c4ca 8ab8 5c29 1f39 9128 4039
000001f0: 15cb 18b9 ee1a 49b9 1d2a fe38 438e e038
00000200: 0e02 05b9 25ff bab8 b9fe 7d37 6f2b 7438
00000210: ba53 70b5 bc92 2fb8 4f64 4539 66d2 b936
00000220: 4420 41b6 d104 67b4 e5ca 1fb9 e36e 7839
00000230: b603 b636 a31d a337 3c80 7739 7785 e6b8
00000240: 84d0 4338 c0f1 3735 f14c 3a39 4679 ad37
00000250: d4f5 6bb8 0a51 e638 06fa d6b7 d384 a2b8
00000260: 4041 b837 7889 f938 fb8c e2b7 6d6d d836
00000270: 2cec 04b9 2cb5 cc38 997e c0b7 7375 4638
00000280: 638d 70b6 7601 1e39 2824 7c39 508e 11b7
00000290: 96c8 78b9 8148 cf38 e383 57b9 3e35 c4b8
000002a0: 66fd be37 0869 fb38 6582 3339 1b8f 1037
000002b0: 274c 0fb6 267a 0f39 6699 9838 c35f f7b8
000002c0: d715 c4b8 4eb7 03b7 90b6 3939 897c ccb8
000002d0: fd82 86b9 bc71 0739 b1b5 6038 de12 3639
000002e0: f7d1 fab5 802c 8c39 b987 7fb8 aeaa 8cb7
000002f0: 7ec0 5336 8780 8e38 e640 7138 1145 ad38
00000300: ed22 b438 9bad f535 d333 8038 c372 86b9
00000310: 3b29 2039 75e7 cc37 4571 a637 137d 3036
00000320: 615a 11b9 1c5a 12b8 49fb f9b8 7e02 a5b8
00000330: ead8 d536 0c6a 4db8 63ff 8f35 4f66 15b9
00000340: f218 b4b9 0a0b c138 7bf7 4b37 33e8 d135
00000350: e92a f334 062d 60b9 135e ee38 4c8d 62b9
00000360: 2b65 ddb8 9b71 6db7 69af 7b39 5e8f 9138
00000370: 1797 8bb6 87a7 6437 c8e6 db38 8a4a 4838
00000380: edb5 abb8 6c60 6b39 2482 8a38 67b1 1db8
00000390: 02aa 3437 d410 1137 abb4 89b8 7633 9c38
000003a0: ee09 7db9 6657 1339 3744 5f39 ec91 c737
000003b0: 5464 afb6 6861 a7b8 1c63 0fb6 5884 4839
000003c0: 2918 80b8 6d8e 1a39 6aa2 04b8 14c3 65b9
000003d0: d7bb 15b9 6250 7e39 2dd9 2cb9 8c11 0d36
000003e0: 6f5b 8cb8 47db a137 bf8a c4b8 c984 d738
000003f0: 5a0c 0fb9 307f 1839 441c d736 14e7 c838

conv5.lin.weight f4 [256, 256]
-0.012605597 0.14448613 0.016971279 -0.07758429 -0.02727747 -0.09826984 -0.001958671 0.0062252837
-0.04815339 -0.034253627 -0.02114331 -0.028025752 -0.048061803 0.082566276 -0.024254238 -0.05646919
0.037791077 -0.057070594 0.12473332 -0.023490516 0.1635048 -0.024144977 0.002581689 -0.062227957
-0.03952075 -0.017307421 0.18063486 -0.07049968 -0.06949208 -0.08026454 -0.07607658 -0.008924138
-0.024129 -0.084003195 0.0058782077 0.03372599 -0.0051603033 -0.03383585 0.0006533447 0.046847895
0.04652829 0.22927104 -0.067694664 0.007997476 0.018867934 -0.11391154 -0.027336294 0.01698405
-0.056767687 -0.115524024 -0.05565098 0.017060125 -0.008648945 -0.05340172 0.28538367 -0.001064161
0.07728177 -0.030150749 0.0025193985 0.011561875 -0.052889436 -0.027093656 -0.067091234 0.017815089
0.073279925 -0.029376587 0.19535375 -0.030689964 -0.0360561 -0.02545477 -0.0580863 -0.051017407
-0.015780566 -0.018384635 -0.00011818007 -0.04202844 -0.066893496 -0.07504887 -0.048024014 -0.010832251
-0.061413642 0.008342295 0.097919516 -0.04538749 0.15842897 -0.028016223 0.01611304 -0.07357436
0.13345009 0.17712913 -0.023339113 -0.026455052 0.039807428 0.027812744 -0.013879388 0.08511538
0.05106632 -0.026903331 0.037450563 -0.003223698 -0.016704215 0.039410293 0.04864061 -0.02736447
-0.040406108 0.035166383 -0.01469819 -0.04867541 -0.02579893 -0.06040191 -0.030455828 -0.054333214
0.19144362 -0.019576248 -0.04682447 -0.057458255 -0.030580055 0.050461695 -0.0133127775 -0.029189115
0.09619582 -0.03668211 -0.056136176 -0.030679801 -0.064228036 -0.09246907 0.008054554 -0.052949745
-0.027801478 -0.04540716 0.034500513 -0.03916077 -0.015403752 0.036239028 0.109307714 0.041436385
-0.012939931 -0.018562203 0.05092088 -0.06744541 -0.0040725516 -0.05732841 -0.050506037 -0.07997515
0.02192671 0.057498757 -0.019099565 -0.14751162 -0.08125782 -0.003945606 -0.02296183 -0.025609348
0.009334242 -0.016117362 0.033309177 0.18534946 -0.05603644 -0.044518735 -0.04826573 -0.025820395
-0.04565797 0.0031367957 0.044505306 -0.023811355 0.02249761 0.028417656 -0.08889544 -0.083724946
0.009309518 0.093058236 -0.018555515 -0.07339965 0.14985111 -0.0069979876 -0.03158414 -0.04647912
0.025018383 0.029631892 -0.057514865 -0.035899047 0.057713453 -0.034835324 -0.03862013 0.03785238
0.07106701 0.18556434 0.08219539 0.12556732 -0.024210943 -0.051178187 0.01858532 -0.094885334
0.051853526 -0.010441907 -0.05331027 -0.02170537 -0.01206473 -0.050298933 -0.052530386 -0.06284701
-0.021188423 -0.026680835 0.17822577 -0.076070696 0.16858281 -0.07109367 -0.030462917 -0.05296084
0.19602188 0.020915344 -0.050182875 -0.0026146232 -0.029343529 0.10462124 0.16726643 -0.01835728
-0.03321372 -0.03410581 0.045475118 -0.040815752 0.11688255 0.024312902 -0.15883836 -0.077987306
-0.055492334 0.20356373 0.022675032 -0.024448942 -0.047745883 -0.047719143 0.03914264 0.022821845
0.021140207 0.055422723 0.11954281 0.03338352 0.11940966 -0.043589376 -0.114448026 -0.062374912
0.0072641433 -0.05607547 0.056292754 -0.04766337 0.120513745 -0.038254615 -0.033347543 0.079448
-0.068918414 -0.22013551 0.1124491 -0.021726236 0.0461663 0.0110327685 -0.013068641 -0.054241516
00000000: b587 4ebc 2cf4 133e 5a07 8b3c 83e4 9ebd
00000010: 0075 dfbc b341 c9bd 0c5d 00bb 77fd cb3b
00000020: 7d3c 45bd 884d 0cbd bc34 adbc 4396 e5bc
00000030: 74dc 44bd 8218 a93d d3b0 c6bc 3d4c 67bd
00000040: d1ca 1a3d dbc2 69bd 2f74 ff3d 2f6f c0bc
00000050: cd6d 273e b0cb c5bc 8e31 293b bee2 7ebd
00000060: 83e0 21bd 4bc8 8dbc 58f8 383e 2362 90bd
00000070: dd51 8ebd bc61 a4bd 0ace 9bbd 8c36 12bc
00000080: 2eaa c5bc de09 acbd fb9d c03b 4424 0a3d
00000090: c317 a9bb 7697 0abd 3845 2b3a 94e3 3f3d
000000a0: 7394 3e3d 07c6 6a3e 80a3 8abd d807 033c
000000b0: ed90 9a3c 744a e9bd 5df0 dfbc 2222 8b3c
000000c0: 3c85 68bd dc97 ecbd 48f2 63bd adc1 8b3c
000000d0: 4eb4 0dbc c3bb 5abd cf1d 923e 517b 8bba
000000e0: e845 9e3d b4fe f6bc 7e1c 253b 056e 3d3c
000000f0: 98a2 58bd 84f3 ddbc 2167 89bd f3f0 913c
00000100: c913 963d 2ba7 f0bc d00a 483e 8569 fbbc
00000110: 90af 13bd 8686 d0bc e6eb 6dbd a1f7 50bd
00000120: 3f46 81bc 609b 96bc 71d7 f7b8 0326 2cbd
00000130: 75ff 88bd 39b3 99bd d4b4 44bd c179 31bc
00000140: df8c 7bbd 1fae 083c 078a c83d 3ce8 39bd
00000150: 343b 223e 4782 e5bc 7eff 833c 27ae 96bd
00000160: 24a7 083e 5761 353e ab31 bfbc 44b8 d8bc
00000170: 1d0d 233d 8dd7 e33c 5f66 63bc f950 ae3d
00000180: eb2a 513d 6064 dcbc c365 193d ad44 53bb
00000190: 47d7 88bc b06c 213d 603b 473d 742b e0bc
000001a0: e080 25bd a00a 103d add0 70bc de5f 47bd
000001b0: 4758 d3bc fe67 77bd 807e f9bc 818c 5ebd
000001c0: cc09 443e 5e5e a0bc 04cb 3fbd 5959 6bbd
000001d0: 0683 fabc ecb0 4e3d d61d 5abc 031e efbc
000001e0: 5002 c53d fb3f 16bd 0cef 65bd 3554 fbbc
000001f0: fd89 83bd 6c60 bdbd 40f7 033c d5e1 58bd
00000200: edbf e3bc dcfc 39bd 6950 0d3d 0b67 20bd
00000210: 0560 7cbc 606f 143d b9dc df3d 33b9 293d
00000220: 0102 54bc c30f 98bc 6a92 503d d220 8abd
00000230: 0a73 85bb 32d1 6abd 6bdf 4ebd 03ca a3bd
00000240: a59f b33c d183 6b3d b176 9cbc 490d 17be
00000250: 806a a6bd 244a 81bb 731a bcbc b2ca d1bc
00000260: a6ee 183c 8f08 84bc 346f 083d 40cc 3d3e
00000270: 7786 65bd 4759 36bd 49b2 45bd 4b85 d3bc
00000280: da03 3bbd b392 4d3b 324b 363d 0810 c3bc
00000290: e84c b83c 25cc e83c d00e b6bd fc77 abbd
000002a0: f386 183c 5195 be3d bc01 98bc 8e52 96bd
000002b0: 9272 193e 604f e5bb 5f5e 01bd e460 3ebd
000002c0: 5af3 cc3c 95be f23c b594 6bbd e10a 13bd
000002d0: f164 6c3d 7caf 0ebd 2430 1ebd 190b 1b3d
000002e0: 958b 913d 9404 3e3e 0e56 a83d b894 003e
000002f0: 0756 c6bc 38a0 51bd 3e40 983c 3e53 c2bd
00000300: 5d64 543d 8814 2bbc df5b 5abd 76cf b1bc
00000310: 25ab 45bc 4106 4ebd 1a2a 57bd efb5 80bd
00000320: 5893 adbc c491 dabc d180 363e f4ca 9bbd
00000330: f9a0 2c3e 8f99 91bd 5e8d f9bc 77ed 58bd
00000340: f6b9 483e a856 ab3c 8f8c 4dbd 195a 2bbb
00000350: d761 f0bc a943 d63d e447 2b3e 0262 96bc
00000360: 1c0b 08bd 89b2 0bbd 1e44 3a3d 6b2e 27bd
00000370: 1e60 ef3d da2b c73c 86a6 22be cfb7 9fbd
00000380: ee4b 63bd 0373 503e fdc0 b93c 2649 c8bc
00000390: 3091 43bd 2675 43bd 0854 203d e1f4 ba3c
000003a0: 3a2e ad3c f002 633d dcd2 f43d 28bd 083d
000003b0: 0d8d f43d c68a 32bd ba63 eabd d67c 7fbd
000003c0: 0d08 ee3b 64af 65bd 3b93 663d aa3a 43bd
000003d0: e9cf f63d dfb0 1cbd 6f97 08bd a2b5 a23d
000003e0: 1925 8dbd 346b 61be b74b e63d 38fb b1bc
000003f0: e018 3d3d c9c2 343c da1d 56bc 5a2c 5ebd
