weights/6-7-0-yfp_split_1.pt (torch, 473545 bytes, 26 tensors)

conv1.bias f4 [64]
0.0013437448 -0.0013447963 0.0012116517 0.00011853597 -0.0008819835 -0.0005175822 -0.0006509995 -0.00010516274
-0.00020523682 -0.00016621954 0.0007384757 -0.0013070601 0.00072595925 -0.0010756359 -0.0007594132 0.00053793524
-0.00094052794 0.0013115366 -0.0010543138 0.00046845415 -0.0009821125 -0.000640848 -0.0009302148 -0.0013351525
-3.090487e-05 0.0013352438 -0.00046042143 -0.00040023075 0.00089710066 -0.00023989532 -0.00020468603 -0.00045224425
-0.00020253361 -0.00041957412 -0.00049460854 0.0010250241 -0.0005502373 0.00042185068 0.00030238956 -0.0010537168
0.0008156237 -0.000111088026 -0.00096332893 0.0009688075 2.430077e-05 0.00065256306 0.00057006243 0.00091136084
-0.00020624451 -0.00022810342 -0.00049678044 -0.0008845718 -0.0008946134 0.0011052615 -0.0006645694 -9.498231e-05
0.001020377 0.0011425065 -0.0004029362 -0.0010213262 0.0011257429 0.0010151935 4.2928845e-05 -0.00019512931
00000000: 9820 b03a e043 b0ba 49d0 9e3a 8496 f838
00000010: e934 67ba 5aae 07ba d6a7 2aba d18a dcb8
00000020: d734 57b9 384b 2eb9 4496 413a a951 abba
00000030: 4d4e 3e3a 5afc 8cba 5b13 47ba 3904 0d3a
00000040: c38d 76ba dee7 ab3a e730 8aba da9a f539
00000050: 3aba 80ba 95fe 27ba a9d9 73ba 4900 afba
00000060: da9f 01b8 5903 af3a b864 f1b9 10d6 d1b9
00000070: 682b 6b3a 698c 7bb9 fda0 56b9 321b edb9
00000080: 345f 54b9 49fa dbb9 9ea8 01ba 1a5a 863a
00000090: cd3d 10ba d72b dd39 0a8a 9e39 de1c 8aba
000000a0: 94cf 553a eef7 e8b8 e987 7cba 92f7 7d3a
000000b0: 82d9 cb37 c410 2b3a 3e70 153a 64e8 6e3a
000000c0: 5743 58b9 0c2f 6fb9 5f3a 02ba 9ce2 67ba
000000d0: 7d84 6aba 6cde 903a 7f36 2eba 3d31 c7b8
000000e0: 2cbe 853a 28c0 953a 2e41 d3b9 05de 85ba
000000f0: aa8d 933a 3e10 853a 7f0e 3438 a09b 4cb9

conv1.lin.weight f4 [64, 2]
-0.23443885 -0.05578789 -0.0108368425 0.19848886 0.001147748 -0.04964988 -0.09243366 -0.0020900748
-0.0059796027 -0.12812343 0.19797215 0.19870101 0.08638324 0.10612151 -0.13282682 0.15709044
0.09804436 -0.048493017 0.0527125 0.15386927 -0.0895235 0.10560309 0.026083076 -0.18445246
-0.03457728 -0.022859467 0.16654393 0.028257642 -0.10096321 -0.12884529 0.22801372 0.19336574
-0.20092262 -0.011984422 0.06037407 -0.25605983 0.022727346 0.3101799 -0.067222856 0.29590508
0.2747476 0.07910048 -0.2517501 0.10259322 -0.1848833 -0.16150472 0.2366469 0.017851226
0.21108462 0.06545668 -0.10762794 -0.10895429 0.17794706 0.12499189 -0.16305616 -0.11830224
0.11297949 -0.22147866 0.03493086 -0.03335597 -0.11022751 -0.24754587 -0.25377557 0.1507961
0.1418036 0.1525189 0.3215326 -0.10015912 -0.2272411 0.2218171 0.168245 0.13651508
0.004247676 0.062652946 0.078758605 -0.022875683 0.1851513 0.21209659 -0.2496111 0.30666494
-0.239526 0.29459125 0.15868837 -0.012717576 -0.20369215 -0.17226218 0.04654281 0.23149951
-0.1050401 0.27329996 -0.21035406 0.2901462 0.31939018 0.067161165 0.010792076 -0.18460032
-0.019161513 0.025496623 0.07144388 0.057688087 0.23270349 0.023776067 0.17728458 -0.020361047
-0.1581373 0.2385432 -0.051994633 0.09405672 0.26923352 -0.038976833 -0.009820014 -0.17181855
-0.15532577 0.20844558 -0.13771802 0.27611527 0.25953767 0.00784797 0.29854038 -0.0024321799
-0.0366675 0.25161472 -0.13109025 -0.27340245 0.16874716 -0.15803841 -0.29975158 0.12779304
00000000: bd10 70be d881 64bd 038d 31bc aa40 4b3e
00000010: 0870 963a ac5d 4bbd dc4d bdbd a3f9 08bb
00000020: 8bf0 c3bb ca32 03be 36b9 4a3e 4778 4b3e
00000030: b2e9 b03d 3c56 d93d c103 08be 51dc 203e
00000040: 7bcb c83d 9da0 46bd 10e9 573d e88f 1d3e
00000050: 1958 b7bd 6f46 d83d 2dac d53c 1be1 3cbe
00000060: e8a0 0dbd c743 bbbc 7e8a 2a3e 927c e73c
00000070: cdc5 cebd 05f0 03be 6e7c 693e ab01 463e
00000080: a9be 4dbe 4f5a 44bc cd4a 773d 461a 83be
00000090: b32e ba3c e6cf 9e3e 23ac 89bd df80 973e
000000a0: b8ab 8c3e 6fff a13d 64e5 80be 651c d23d
000000b0: 0c52 3dbe 7e61 25be 9153 723e bc3c 923c
000000c0: 9126 583e 270e 863d 0a6c dcbd 6d23 dfbd
000000d0: c137 363e bffb ff3d 32f8 26be 7248 f2bd
000000e0: ca61 e73d 4dcb 62be a913 0f3d 45a0 08bd
000000f0: f6be e1bd aa7c 7dbe dfee 81be 4b6a 1a3e
00000100: f734 113e ea2d 1c3e ec9f a43e 3a20 cdbd
00000110: e4b1 68be 0624 633e 6b48 2c3e 9cca 0b3e
00000120: 1730 8b3b 3050 803d 314c a13d c965 bbbc
00000130: 4d98 3d3e d92f 593e 0d9a 7fbe 3003 9d3e
00000140: 4e46 75be aad4 963e 347f 223e 615d 50bc
00000150: ad94 50be 7f65 30be aca3 3e3d 350e 6d3e
00000160: 441f d7bd f9ed 8b3e 0e67 57be 0b8e 943e
00000170: 1c87 a33e cb8b 893d 3fd1 303c de07 3dbe
00000180: 9bf8 9cbc 4bde d03c 2b51 923d 584a 6c3d
00000190: d349 6e3e 07c6 c23c 178a 353e 36cc a6bc
000001a0: bfee 21be ab44 743e 53f8 54bd cfa0 c03d
000001b0: fad8 893e 2ca6 1fbd 20e4 20bc 34f1 2fbe
000001c0: b80d 1fbe c272 553e f405 0dbe fb5e 8d3e
000001d0: 1fe2 843e c694 003c 49da 983e 3565 1fbb
000001e0: a930 16bd a5d3 803e 863c 06be 68fb 8bbe
000001f0: 0ecc 2c3e d2d4 21be 0a79 99be 2edc 023e

conv2.bias f4 [64]
-0.027918326 0.021461694 0.024288146 0.029959522 0.028661706 0.014060545 0.028279873 -0.028445777
0.027308002 0.025883514 -0.023261998 -0.014090783 -0.03187619 0.010258774 -0.020093499 0.0049172323
-0.012849981 -0.035063855 0.027990421 -0.031879626 -0.011382688 0.010082032 0.0058038267 0.030058945
0.023398979 0.035718713 -0.006908304 -0.030936375 -0.034546316 0.026559135 -0.03514101 0.016354896
-0.031902812 0.02840746 0.027166938 0.034788586 -0.03266829 -0.024221765 0.023548046 -0.030388303
0.0053477804 -0.025740663 0.023272179 -0.003140137 0.035666514 0.033469725 -0.02846231 0.010552873
-0.031260245 0.026853587 0.025780736 0.019002175 0.039952878 -0.017149294 -0.026927669 -0.02670358
0.03387146 -0.024795009 0.009212613 0.026507871 0.0349305 -0.026776802 0.023554867 -0.037173692
00000000: f9b4 e4bc 6fd0 af3c eff7 c63c ac6d f53c
00000010: f4cb ea3c 335e 663c 31ab e73c 1e07 e9bc
00000020: 08b5 df3c aa09 d43c f28f bebc 07dd 66bc
00000030: 9c90 02bd 6b14 283c 1f9b a4bc bc20 a13b
00000040: ba88 52bc 1e9f 0fbd 2b4c e53c 3694 02bd
00000050: 747e 3abc 1b2f 253c 072e be3b 2d3e f63c
00000060: 37af bf3c c94d 123d 0e5f e2bb 486e fdbc
00000070: 7080 0dbd 8b92 d93c 05f0 0fbd b4fa 853c
00000080: 86ac 02bd c3b6 e83c 338d de3c 7a7e 0e3d
00000090: 2fcf 05bd b96c c6bc d5e7 c03c e4f0 f8bc
000000a0: 6f3c af3b 15de d2bc 4ca5 be3c c2ca 4dbb
000000b0: 0d17 123d 8d17 093d ca29 e9bc f5e5 2c3c
000000c0: be0a 00bd 0efc db3c 1f32 d33c 73aa 9b3c
000000d0: a1a5 233d ad7c 8cbc 6a97 dcbc 77c1 dabc
000000e0: cdbc 0a3d e71e cbbc 80f0 163c 0927 d93c
000000f0: 4913 0f3d 065b dbbc 23f6 c03c 7143 18bd

conv2.lin.weight f4 [64, 64]
0.06684645 -0.0010434202 -0.16839573 -0.0436097 -0.04184861 0.029837018 0.1187924 -0.034412224
-0.066297986 -0.08706646 -0.058235843 -0.1632899 -0.159276 -0.05143295 0.05192159 -0.21199831
0.17796758 0.17271851 0.12216129 -0.03950289 -0.23369563 0.085662045 -0.14742471 0.14853907
0.18398497 -0.1619827 -0.1554282 -0.17659569 -0.094528146 0.0021890663 -0.09977287 -0.095525265
-0.0037758434 0.09574419 -0.06334687 -0.09796022 0.06165201 -0.22281536 0.04210274 0.11496512
0.102724954 -0.08834636 0.22522317 -0.044584762 0.24230781 -0.10851404 -0.041930072 0.13478358
0.24090956 -0.1353834 0.074174985 0.0713365 -0.066662565 0.07260545 0.12218519 0.011989456
-0.17586322 -0.08109884 0.11541798 0.17824459 0.031565063 0.12250337 -0.19055492 -0.11217781
-0.07052397 0.06951057 0.19385958 -0.18465894 -0.09050743 -0.12474358 0.11351353 -0.16432361
-0.18973622 0.09170773 -0.060088072 -0.036093134 -0.06615001 -0.035667777 0.1515625 -0.083469324
-0.12610789 -0.084101364 -0.07056654 0.15071887 -0.11659747 0.19434871 -0.08483504 0.21924475
-0.19185664 -0.101595886 0.10035426 -0.14991881 -0.08714833 0.004739348 0.2147648 0.0016958296
0.16796744 0.07435217 -0.059234854 0.047523048 -0.14952223 0.1884155 0.15724884 0.21416613
0.119739115 -0.1419314 -0.16777349 0.063906014 -0.0077493466 -0.014913255 0.017219352 0.16873278
0.068460606 0.20425029 0.19647513 -0.16664876 0.046171803 0.2122112 0.06287835 0.1282235
-0.017364535 0.11940182 -0.08195678 0.12029597 0.21915902 -0.006395167 0.12518087 -0.17210825
0.13576704 -0.021039337 0.087800495 0.12896237 0.16869561 -0.11623755 0.025670847 -0.14016145
0.19258396 0.0601855 -0.17084786 0.12884468 -0.09699624 0.14697202 0.113975376 0.20438804
0.09411543 -0.011989345 -0.004955331 0.16311817 -0.116726965 -0.019175317 0.00020888275 0.09792319
0.20631371 -0.17809623 0.2188712 0.20230661 0.19257672 -0.012628951 -0.071722634 -0.13634354
-0.11495211 0.110336624 -0.1948071 0.010660208 -0.1484772 0.13900857 -0.17324477 0.1536866
-0.0066966666 0.17241761 0.073237196 -0.036405023 -0.14624038 0.08246511 0.22658153 -0.060936414
0.12886803 0.13651206 -0.17932893 -0.11163852 0.093549766 -0.14038967 0.05430731 -0.061023466
0.009227511 -0.10580641 0.016555183 -0.18287419 -0.027645022 -0.10011826 -0.20395514 0.1319537
0.08453983 -0.12122922 -0.21800478 0.21289918 0.05983884 -0.05889612 0.11147948 -0.030057587
-0.10505996 0.09994216 -0.0059773754 -0.21122791 -0.13272451 -0.028827254 -0.052243315 0.0464946
0.022822706 -0.16453177 0.15584458 0.17551911 -0.008943418 -0.015953489 0.15274021 -0.08125839
-0.034723967 0.022065246 0.22128071 -0.121826105 -0.052788537 -0.17527652 0.14395908 -0.17664292
0.11192518 -0.115389556 0.16664457 0.15500495 -0.18475047 0.046245225 0.1977781 0.16743308
0.16075127 -0.05110744 -0.24197662 -0.008783399 0.04290741 0.017187076 -0.14999564 -0.22474214
0.13478312 -0.1121607 -0.22204007 0.014911985 0.18108952 0.20194161 0.02366363 -0.14348294
0.061881535 0.2219928 -0.14567079 -0.19817156 -0.0026982087 0.0036696438 0.14053284 0.04123459
00000000: cbe6 883d 5fc3 88ba ee6f 2cbe 16a0 32bd
00000010: 7369 2bbd c36c f43c 6e49 f33d d5f3 0cbd
00000020: 3dc7 87bd e64f b2bd b588 6ebd 7835 27be
00000030: 3f19 23be 5bab 52bd bcab 543d 1616 59be
00000040: 223d 363e 1fdd 303e b32f fa3d c8cd 21bd
00000050: e84d 6fbe 956f af3d 81f6 16be a01a 183e
00000060: 8e66 3c3e cbde 25be 9228 1fbe 80d5 34be
00000070: f997 c1bd 7076 0f3b b855 ccbd c0a2 c3bd
00000080: 2474 77bb 8815 c43d 01bc 81bd 5e9f c8bd
00000090: d186 7c3d b629 64be ec73 2c3d d572 eb3d
000000a0: 7661 d23d f0ee b4bd e7a0 663e 839e 36bd
000000b0: 8a1f 783e 9c3c debd debe 2bbd b504 0a3e
000000c0: ffb0 763e f2a1 0abe 0ee9 973d df18 923d
000000d0: 6286 88bd 2bb2 943d 3b3c fa3d 6c6f 443c
000000e0: 7d15 34be 2617 a6bd 4360 ec3d c085 363e
000000f0: 5e4a 013d 0ce3 fa3d d420 43be 7bbd e5bd
00000100: df6e 90bd 8f5b 8e3d 2083 463e 3c17 3dbe
00000110: f65b b9bd 9079 ffbd c879 e83d 7344 28be
00000120: 364a 42be 43d1 bb3d e91e 76bd 65d6 13bd
00000130: a879 87bd 6018 12bd 3333 1b3e f7f1 aabd
00000140: 6d22 01be 563d acbd 3185 90bd 0c56 1a3e
00000150: a8ca eebd 5903 473e febd adbd b281 603e
00000160: 1176 44be 8111 d0bd 8986 cd3d 5184 19be
00000170: d37a b2bd 884c 9b3b 4eeb 5b3e 9946 de3a
00000180: a8ff 2b3e f345 983d 3fa0 72bd 87a7 423d
00000190: 5b1c 19be feef 403e d705 213e 5e4e 5b3e
000001a0: c839 f53d 7756 11be d0cc 2bbe 28e1 823d
000001b0: 3bee fdbb ba56 74bc 990f 8d3c 49c8 2c3e
000001c0: 1335 8c3d fd26 513e c730 493e f9a5 2abe
000001d0: a51e 3d3d e54d 593e 5dc6 803d 054d 033e
000001e0: 1240 8ebc f188 f43d f5d8 a7bd bc5d f63d
000001f0: 396b 603e 8d8e d1bb 6a2f 003e 253d 30be
00000200: 8406 0b3e b05a acbc bfd0 b33d b60e 043e
00000210: 8bbe 2c3e f40d eebd ab4b d23c 7c86 0fbe
00000220: bb34 453e 1285 763d bef2 2ebe dcef 033e
00000230: f7a5 c6bd d57f 163e ec6b e93d 194b 513e
00000240: 97bf c03d f56e 44bc 5460 a2bb 7308 273e
00000250: 8c0e efbd 8e15 9dbc 8907 5b39 f48b c83d
00000260: e743 533e dc5e 36be c61f 603e 7729 4f3e
00000270: d532 453e a9e9 4ebc 51e3 92bd a49d 0bbe
00000280: 036c ebbd 2bf8 e13d 837b 47be 27a8 2e3c
00000290: 680a 18be 4358 0e3e 1467 31be 0560 1d3e
000002a0: b66f dbbb 3e8e 303e 62fd 953d 6f1d 15bd
000002b0: 0ac0 15be 78e3 a83d fd04 683e 7698 79bd
000002c0: fbf5 033e d1c9 0b3e 01a2 37be bda2 e4bd
000002d0: 0597 bf3d 4fc2 0fbe 5871 5e3d bef3 79bd
000002e0: fc2e 173c 08b1 d8bd bc9e 873c 5f43 3bbe
000002f0: d077 e2bc cd0a cdbd 9ed9 50be df1e 073e
00000300: 3823 ad3d 0647 f8bd a53c 5fbe 3e02 5a3e
00000310: 9219 753d 0f3d 71bd 5b4f e43d 543b f6bc
00000320: ad29 d7bd 7aae cc3d dcdd c3bb 214c 58be
00000330: efe8 07be 2227 ecbc 16fd 55bd 1f71 3e3d
00000340: aff6 ba3c 047b 28be b995 1f3e 48bb 333e
00000350: 6a87 12bc e4b0 82bc ee67 1c3e cc6a a6bd
00000360: b83a 0ebd 2dc2 b43c 6997 623e f77f f9bd
00000370: cb38 58bd b07b 33be 026a 133e e2e1 34be
00000380: 0739 e53d 5c51 ecbd e0a4 2a3e 9eb9 1e3e
00000390: 3a2f 3dbe a26b 3d3d 5886 4a3e 9473 2b3e
000003a0: fb9b 243e 0956 51bd b8c8 77be 3fe8 0fbc
000003b0: aebf 2f3d e9cb 8c3c 7598 19be ce22 66be
000003c0: 9604 0a3e 82b4 e5bd 795e 63be 6651 743c
000003d0: 886f 393e c8c9 4e3e 3bda c13c 31ed 12be
000003e0: 7e77 7d3d 1552 633e b92a 15be 7ced 4abe
000003f0: 6ed4 30bb 687e 703b d7e7 0f3e 9ae5 283d

conv3.bias f4 [128]
-0.0016390763 0.0002415879 0.0014115856 -8.515742e-05 -0.00024769636 -0.00072827854 0.0016576301 0.001167324
9.042222e-05 -8.429797e-05 -0.001229185 0.0001157489 0.00089880597 -0.0003099625 0.0006106682 -0.0015822703
5.3819997e-05 -0.00022160089 -1.1767343e-05 0.00059671607 0.0003816728 -0.001135607 0.00034808108 -0.0016748147
-0.0002130778 -0.00092218566 -0.001347792 -9.468006e-05 -8.6176864e-05 -0.0009623299 -0.00039183153 0.0010255422
0.0003962168 -0.0016187185 -0.00033137406 -0.0006667681 -0.0013466021 7.4194555e-05 6.43914e-05 5.5089888e-05
-0.0005271515 -0.0016779588 0.00063931895 0.0012494773 0.0006552615 0.00069501804 -0.0007166221 0.00053707504
-0.0016733245 -0.0015800688 0.00010064511 -0.0005109555 0.0016028994 0.0013396763 2.5459e-05 7.811717e-05
0.0002849246 -0.0008218375 0.00017063088 -0.0010643408 -0.00020166463 -0.00052076293 -0.0009963132 -0.00047847308
0.0016307173 -0.00045039374 0.0012208679 -0.00020506878 -0.00016723758 -0.0016795493 0.00033644488 -0.0011984305
-0.00026667851 0.00014741495 0.0010350681 0.0007460936 0.00013840524 -0.0013002201 0.00038534615 0.0001697417
0.00050286454 -0.0009665195 -0.0013466816 0.0001191774 -0.00028481794 1.2331148e-05 0.0007011345 0.0005488866
0.0015950869 -0.0003371322 -0.0016780148 -0.00014063243 -9.6157455e-06 -0.0007306577 -0.00097176153 0.0007542744
0.0006140742 -0.0015808479 -0.0011832546 0.0008478105 -0.0016239951 0.00031796336 0.00010793023 0.0008337203
8.111479e-05 -0.00086655834 0.0014330827 -0.0007335369 -0.00075487286 0.0008516936 0.000655447 -0.00010554739
0.0010099917 0.00029625415 0.0015176137 -0.0009430828 -0.0011651402 -0.002621321 -0.00036191402 0.0016577938
0.00043347824 0.000101722726 0.0016038169 0.0013359345 -0.0007059016 -0.00026403833 0.0015611892 0.000899699
00000000: 46d6 d6ba c252 7d39 f404 b93a 8b96 b2b8
00000010: 3edd 81b9 f2e9 3eba d644 d93a e500 993a
00000020: 0fa1 bd38 21c9 b0b8 9b1c a1ba 38be f238
00000030: d99d 6b3a 7682 a2b9 4015 203a 2e64 cfba
00000040: c8bc 6138 895d 68b9 5a6c 45b7 f06c 1c3a
00000050: 421b c839 a6d8 94ba a77e b639 7585 dbba
00000060: a36d 5fb9 d5be 71ba 65a8 b0ba f88e c6b8
00000070: dab9 b4b8 de44 7cba bd6e cdb9 7c6b 863a
00000080: 52bb cf39 2e2b d4ba 46bc adb9 0dca 2eba
00000090: 7880 b0ba e698 9b38 df09 8738 5110 6738
000000a0: 8a30 0aba f4ee dbba f897 273a 80c5 a33a
000000b0: dbc5 2b3a df31 363a b2db 3bba 7fca 0c3a
000000c0: 7453 dbba 501a cfba 6f11 d338 a5f1 05ba
000000d0: 6118 d23a 1498 af3a c990 d537 d6d2 a338
000000e0: ef61 9539 9570 57ba 61eb 3239 5a81 8bba
000000f0: f075 53b9 cf83 08ba b996 82ba 92db fab9
00000100: cbbd d53a d322 ecb9 8705 a03a bb07 57b9
00000110: 7f5c 2fb9 5324 dcba de64 b039 a814 9dba
00000120: fcd0 8bb9 6693 1a39 1fab 873a 7e95 433a
00000130: e020 1139 266c aaba 4908 ca39 b1fc 3139
00000140: abd2 033a 075e 7dba 2383 b0ba e1ee f938
00000150: 9e53 95b9 e1e1 4e37 57cc 373a 28e3 0f3a
00000160: 3c12 d13a 1ec1 b0b9 d5f0 dbba bb76 13b9
00000170: 5053 21b7 9c89 3fba d0bd 7eba 80ba 453a
00000180: d2f9 203a 7434 cfba 7017 9bba 993f 5e3a
00000190: 3cdc d4ba 52b4 a639 9a58 e238 068e 5a3a
000001a0: 2c1c aa38 bf29 63ba 47d6 bb3a d44a 40ba
000001b0: a9e2 45ba 3144 5f3a 4ed2 2b3a 5359 ddb8
000001c0: b361 843a 8f52 9b39 aaea c63a 3739 77ba
000001d0: 9eb7 98ba 78ca 2bbb 47bf bdb9 544a d93a
000001e0: 7744 e339 f953 d538 2a37 d23a 861a af3a
000001f0: 410c 39ba a06e 8ab9 d1a0 cc3a c7d9 6b3a

conv3.lin.weight f4 [128, 64]
-0.059732955 -0.19816671 -0.05752112 -0.1887626 0.046419103 0.19210401 0.14085102 -0.13050747
-0.08247572 -0.12753557 -0.090006046 -0.09698408 0.1303946 0.17915304 -0.059269473 -0.1445523
0.041930165 0.050511353 -0.061623015 -0.14459755 0.02701101 -0.09744007 0.055393368 0.0666494
0.003846421 -0.13077319 0.042314492 0.032038614 -0.077846386 -0.18074068 0.07209396 0.060301557
-0.072700925 -0.020981735 -0.016229136 0.01894763 0.11716297 -0.03225301 0.16197275 0.013939285
0.02869136 -0.1712969 0.14729576 3.0050112e-05 0.11362529 0.030982617 -0.056280464 0.076914616
0.07063255 -0.193274 0.033370376 0.06313355 0.0529472 -0.020031443 0.08404036 -0.03316884
-0.017682 -0.08106578 0.03720261 -0.16315092 -0.13328366 -0.113995925 0.1834898 0.037611738
-0.07128894 -0.15156598 0.09250691 -0.07910024 0.010406156 -0.07056693 -0.13199304 0.10502293
-0.105009794 0.009342964 -0.18278521 0.017442297 0.03424363 0.009042758 -0.042870708 0.17431225
-0.016397312 -0.08137044 -0.16342743 -0.13728856 0.11122876 -0.083963044 -0.12549417 0.017901307
0.06144913 0.15471108 -0.09363684 -0.16529515 0.10390827 0.011344758 0.02176824 -0.10266742
0.03736358 -0.0024964137 0.05958571 -0.15792945 0.108680755 0.16270548 -0.06635617 0.17106698
0.10747899 0.13626295 -0.09220168 -0.00934252 -0.0323951 -0.13391192 -0.1500277 -0.09873856
0.05448963 0.078251205 -0.033728402 -0.061961256 0.10885594 0.102642275 -0.10794688 0.04329238
-0.1979129 0.13983768 -0.10200073 -0.050828338 0.028696401 -0.10551822 0.13086239 0.039247673
0.030122938 -0.031009398 0.12592863 -0.11669727 -0.08189534 0.09063276 0.13833956 -0.046176728
0.061209742 0.08632863 0.038528614 -0.028958153 0.009730319 0.13996032 0.061131895 0.11159128
-0.14986683 0.025978038 -0.15929939 -0.08324663 -0.047818694 -0.06913445 -0.06431273 0.14331968
-0.2009085 0.068893306 0.07480042 -0.009788496 -0.057728086 -0.07478742 0.11902719 0.0035937112
0.06858687 -0.014201631 0.04047781 0.038421102 -0.049595747 -0.082023606 0.007217043 -0.03860767
0.14237091 -0.05440447 0.1372906 0.08240692 0.14386596 0.1677775 -0.009968115 -0.050463058
0.16108137 -0.16220474 0.01754844 -0.025177646 -0.10827708 -0.063651964 -0.11742692 0.12590635
-0.13221698 -0.08652887 -0.19211824 -0.01993737 0.16758214 0.040187147 0.0412577 0.08126257
-0.0980219 0.004934517 -0.06187969 -0.033000503 0.037942696 0.097066574 0.11879246 0.009916059
0.108879365 -0.07684911 -0.080683544 -0.15304555 -0.047576286 0.051107958 -0.07863077 -0.103346616
0.07858037 0.11194347 -0.1038809 0.026721053 0.09686483 -0.021408584 -0.10746706 -0.032320954
-0.029244391 -0.11379462 0.06892285 -0.075844236 0.083447136 0.12009439 -0.119873576 -0.14086178
0.1533938 0.11052075 0.022460232 -0.07311975 0.14319435 -0.19026393 0.10097783 0.1643963
0.0097697275 -0.16053179 -0.103361115 0.0657844 0.19582762 0.03521184 -0.13589895 -0.18259072
-0.16537146 0.04114039 -0.042477723 -0.031009762 0.078318544 0.03564444 0.094263814 -0.015955033
-0.029048149 -0.05792503 -0.118700884 -0.13543573 0.104971655 -0.02549485 -0.060791206 -0.1486839
00000000: 8baa 74bd 37ec 4abe 449b 6bbd fc4a 41be
00000010: f521 3e3d eab6 443e 403b 103e c0a3 05be
00000020: 08e9 a8bd af98 02be 1755 b8bd 979f c6bd
00000030: 2986 053e e573 373e 8cc4 72bd 8505 14be
00000040: f7be 2b3d fee4 4e3d 6a68 7cbd 6111 14be
00000050: 3246 dd3c a98e c7bd 28e4 623d 7b7f 883d
00000060: 3c14 7c3b 68e9 05be f651 2d3d ec3a 033d
00000070: ed6d 9fbd 1614 39be 00a6 933d c4fe 763d
00000080: 39e4 94bd e3e1 abbc f7f2 84bc 0f38 9b3c
00000090: 24f3 ef3d bb1b 04bd 2fdc 253e 9961 643c
000000a0: 250a eb3c 7468 2fbe b3d4 163e 2014 fc37
000000b0: 60b4 e83d 42cf fd3c 5886 66bd 6985 9d3d
000000c0: cca7 903d 9fe9 45be 60af 083d 2a4c 813d
000000d0: 2adf 583d fb18 a4bc 5a1d ac3d 0ddc 07bd
000000e0: d7d9 90bc d105 a6bd c461 183d 0911 27be
000000f0: 837b 08be b276 e9bd c0e4 3b3e c40e 1a3d
00000100: f0ff 91bd 1d34 1bbe 4374 bd3d 4eff a1bd
00000110: 957e 2a3c 6585 90bd 2f29 07be 4316 d73d
00000120: 600f d7bd 3b13 193c 0c2c 3bbe 26e3 8e3c
00000130: 0c43 0c3d 1328 143c 3299 2fbd e97e 323e
00000140: a853 86bc 8ca5 a6bd 8559 27be 5f95 0cbe
00000150: e7cb e33d d1f4 abbd 8b81 00be c3a5 923c
00000160: 15b2 7b3d 956c 1e3e acc4 bfbd 2243 29be
00000170: dccd d43d 5ddf 393c 4f53 b23c 4c43 d2bd
00000180: 8e0a 193d df9a 23bb 2510 743d 42b8 21be
00000190: 0494 de3d 449c 263e bee5 87bd 2f2c 2f3e
000001a0: f21d dc3d 8488 0b3e 3cd4 bcbd 5e11 19bc
000001b0: b9b0 04bd 3520 09be dda0 19be 7137 cabd
000001c0: 8530 5f3d 2b42 a03d cb26 0abd 16cb 7dbd
000001d0: ddef de3d 1d36 d23d 4113 ddbd 5a53 313d
000001e0: aea9 4abe 9c31 0f3e c2e5 d0bd 6031 50bd
000001f0: b714 eb3c f019 d8bd ca00 063e 2bc2 203d
00000200: 61c4 f63c 6c07 febc 6ff3 003e fafe eebd
00000210: beb8 a7bd ab9d b93d e3a8 0d3e cf23 3dbd
00000220: 11b7 7a3d 11cd b03d 2ed0 1d3d a639 edbc
00000230: ea6b 1f3c c251 0f3e 7065 7a3d f889 e43d
00000240: b176 19be e5cf d43c 611f 23be 367d aabd
00000250: 89dd 43bd 5d96 8dbd 65b6 83bd 65c2 123e
00000260: f5ba 4dbe ef17 8d3d f630 993d ee5f 20bc
00000270: 4974 6cbd 262a 99bd 87c4 f33d 7884 6b3b
00000280: 4677 8c3d f5ad 68bc 0fcc 253d 725f 1d3d
00000290: e924 4bbd fefb a7bd f27c ec3b 1423 1ebd
000002a0: aec9 113e 39d7 5ebd e895 0c3e f6c4 a83d
000002b0: 9951 133e ddcd 2b3e 4e51 23bc 5ab2 4ebd
000002c0: 84f2 243e 0019 26be bfc1 8f3c 5a41 cebc
000002d0: 60c0 ddbd f65b 82bd 867d f0bd 98ed 003e
000002e0: e363 07be 0c36 b1bd a5ba 44be b253 a3bc
000002f0: a79a 2b3e 479b 243d d6fd 283d fe6c a63d
00000300: b5bf c8bd bbb1 a13b 8f75 7dbd 892b 07bd
00000310: cd69 1b3d d7ca c63d 7649 f33d f776 223c
00000320: 25fc de3d 1163 9dbd 6a3d a5bd f9b7 1cbe
00000330: 5adf 42bd 9456 513d 2b09 a1bd 64a7 d3bd
00000340: bfee a03d 9e42 e53d 82bf d4bd 1ce6 da3c
00000350: 1161 c63d 0e61 afbc b117 dcbd fa62 04bd
00000360: ef91 efbc 270d e9bd 6c27 8d3d 3954 9bbd
00000370: 55e6 aa3d 0cf4 f53d 4780 f5bd 123e 10be
00000380: 4413 1d3e b458 e23d 85fe b73c cfbf 95bd
00000390: 8aa1 123e 8cd4 42be 77cd ce3d 8157 283e
000003a0: 3511 203c 7262 24be feae d3bd f9b9 863d
000003b0: 0987 483e 4a3a 103d 1829 0bbe 10f9 3abe
000003c0: 2357 29be d382 283d 1ffd 2dbd 2f08 febc
000003d0: 7965 a03d e8ff 113d 630d c13d 21b4 82bc
000003e0: 62f6 edbc cc42 6dbd 7319 f3bd aaaf 0abe
000003f0: 61fb d63d 93da d0bc 3300 79bd 9840 18be

conv4.bias f4 [256]
-0.032078195 -0.03165813 0.028670339 0.0198457 0.036462046 -0.028648337 0.0031798936 0.032129616
0.027979871 -0.03139095 0.03834384 -0.033164207 0.037019998 -0.029476998 -0.03356005 -0.031215617
-0.0276698 0.02446618 -0.03270172 -0.0027601798 -0.03282493 -0.034928575 0.036007553 -0.010786614
0.02992486 -0.03659097 0.028783005 -0.035287794 -0.03936337 -0.027361022 0.014980989 0.027854929
-0.029871715 0.041109286 -0.029771606 0.018714467 -0.033618715 -0.012746492 0.0074397256 0.026918633
0.031924684 0.02682301 -0.030662663 0.033592865 -0.011914402 0.02482348 0.03369185 0.02844515
0.025739264 -0.01722446 -0.029556673 -0.031863656 0.02532734 -0.037148666 0.015413685 0.022988748
0.04011012 -0.028381366 0.032529473 0.020993982 0.0048612594 -0.005505005 0.02991428 -0.02901844
-0.030224416 0.024686811 -0.015370133 0.008155802 -0.031757563 0.030046208 0.009404388 -0.027753629
0.014995109 -0.03845262 0.028924577 -0.033040147 -0.031218816 -0.03047195 -0.026611513 -0.0070114727
-0.029372789 -0.026022764 -0.025275234 0.030619001 -0.02762501 -0.031953707 -0.02703202 0.032715373
0.024054721 -0.018711694 0.026873099 0.030858675 -0.0038060404 -0.03204089 0.0028398703 -0.032290578
-0.03907728 0.0059564947 0.0054383487 -0.034111127 0.017906062 0.030447762 0.034212355 0.009171205
0.03293678 0.03134697 -0.031303022 -0.024839824 0.03385522 -0.029459039 -0.025322547 0.03844182
0.038304575 -0.038435943 -0.029976005 -0.039641812 -0.028732095 -0.013275002 -0.02337762 -0.03949849
-0.02125444 0.029591333 0.03845536 0.035177886 -0.038661573 -0.03228403 0.023553018 -0.04138899
0.033406526 0.02975244 -0.029673716 0.026378322 -0.02869438 0.03532674 -0.028562883 0.0143811265
0.04007691 -0.029539265 -0.029589877 0.030144306 -0.021457495 -0.041033156 0.022762109 0.02730366
0.028710093 -0.038750388 0.035586353 -0.026415834 0.03723608 -0.030944046 0.03475837 0.00877737
-0.030652186 -0.01714869 0.031529397 0.019613562 -0.0278484 -0.023278804 -0.035747323 -0.0010661996
0.021637404 -0.020037731 0.002588471 0.02668024 -0.025352992 0.03142359 -0.03093311 0.014909402
-0.03727015 0.015579092 -0.035425685 0.031948656 -0.03859632 0.012948309 0.03037186 -0.03812287
-0.02087638 -0.03227521 0.037646595 -0.02392428 0.0041790325 -0.03901373 0.0075375624 0.024032874
0.039746724 -0.034842614 -0.032757927 -0.030013219 -0.035064798 -0.029596016 -0.03199503 0.023329189
0.028939204 0.033212528 0.031391557 -0.032147005 0.023394182 0.03485217 0.040213816 -0.03664385
0.04092105 0.030248389 0.015756104 -0.036795974 -0.037733458 0.030087814 0.03026887 0.035182904
0.028813576 -0.038100637 0.027514791 0.029473957 0.0349164 -0.019992087 0.035594307 -0.02705434
0.01672241 0.01515631 -0.028428053 -0.024960322 -0.030158706 -0.030573912 -0.014463625 0.030436497
-0.024674738 0.03296249 0.02965618 -0.032983374 0.031762585 0.025828447 0.027749334 -0.017689502
-0.038130213 -0.036404848 -0.03759017 0.030307725 -0.031777464 0.029191852 0.030325836 0.026202986
-0.029603392 -0.030983811 0.029704303 0.030149344 0.030749263 0.017459659 -0.02661929 0.029756006
0.031653963 0.025604568 -0.037398018 0.027348941 -0.02595846 -0.03384582 -0.027377006 -0.03250329
00000000: 6d64 03bd f5ab 01bd 0fde ea3c 7393 a23c
00000010: 3a59 153d ebaf eabc c365 503b 589a 033d
00000020: 0b36 e53c cc93 00bd 6e0e 1d3d 31d7 07bd
00000030: 48a2 173d bf79 f1bc 4376 09bd e5b7 ffbc
00000040: c7ab e2bc 4c6d c83c 3df2 05bd 22e4 34bb
00000050: 6f73 06bd 4411 0fbd a87c 133d 57ba 30bc
00000060: fb24 f53c 6ae0 15bd 56ca eb3c ef89 10bd
00000070: 7c3b 21bd 3924 e0bc d272 753c 0530 e43c
00000080: 87b5 f4bc 3662 283d 95e3 f3bc 154f 993c
00000090: c7b3 09bd aad6 50bc f1c8 f33b 7784 dc3c
000000a0: 75c3 023d eebb db3c 4430 fbbc ac98 093d
000000b0: a034 43bc 9c5a cb3c 7700 0a3d ce05 e93c
000000c0: 26db d23c 501a 8dbc d620 f2bc 7783 02bd
000000d0: 487b cf3c 3329 18bd ae89 7c3c e652 bc3c
000000e0: 824a 243d 0a80 e8bc a03d 053d 92fb ab3c
000000f0: 334b 9f3b 5463 b4bb cb0e f53c 14b8 edbc
00000100: 3299 f7bc ff3b ca3c 03d3 7bbc ea9f 053c
00000110: 3814 02bd 7723 f63c dd14 1a3c 945b e3bc
00000120: 0cae 753c 7f80 1dbd 3cf3 ec3c 1b55 07bd
00000130: 9abe ffbc 50a0 f9bc 6300 dabc 7fc0 e5bb
00000140: 349f f0bc b12d d5bc 020e cfbc b3d4 fa3c
00000150: d84d e2bc e4e1 02bd 4172 ddbc 8e00 063d
00000160: 680e c53c 4449 99bc f924 dc3c 55cb fc3c
00000170: c36e 79bb 4f3d 03bd 1e1d 3a3b 2043 04bd
00000180: 7f0f 20bd b32e c33b 2d34 b23b 1cb8 0bbd
00000190: bcaf 923c 966d f93c 4122 0c3d d242 163c
000001a0: b8e8 063d ae65 003d 9937 00bd e37c cbbc
000001b0: c5ab 0a3d 1554 f1bc 3b71 cfbc 2b75 1d3d
000001c0: 42e5 1c3d 026f 1dbd 3d90 f5bc 745f 22bd
000001d0: 925f ebbc 657f 59bc 6c82 bfbc 2bc9 21bd
000001e0: cb1d aebc 8669 f23c 5e83 1d3d b016 103d
000001f0: 995b 1ebd 423c 04bd 42f2 c03c 8087 29bd
00000200: 48d5 083d 64bb f33c 4b16 f3bc 5a17 d83c
00000210: 7a10 ebbc c6b2 103d b5fc e9bc d19e 6b3c
00000220: b027 243d 54fc f1bc 7866 f2bc 31f1 f63c
00000230: a1c7 afbc 6212 28bd 9a77 ba3c edab df3c
00000240: 6e31 eb3c bab8 1ebd ffc2 113d 0566 d8bc
00000250: dc84 183d 5e7e fdbc cb5e 0e3d f5ce 0f3c
00000260: 4b1a fbbc 697b 8cbc f824 013d 9fac a03c
00000270: 5422 e4bc 31b3 bebc c96b 12bd b9bf 8bba
00000280: ed40 b13c 2b26 a4bc 56a3 293b 8590 da3c
00000290: 14b1 cfbc 06b6 003d 6f67 fdbc 9046 743c
000002a0: 96a8 18bd 733f 7f3c 861a 11bd 98dc 023d
000002b0: 2d17 1ebd 2525 543c 68ce f83c ba26 1cbd
000002c0: f104 abbc 0333 04bd 5133 1a3d dafc c3bc
000002d0: 44f0 883b dccc 1fbd a8fd f63b 97e0 c43c
000002e0: 76cd 223d 21b7 0ebd 2d2d 06bd 48de f5bc
000002f0: 1ba0 0fbd 5873 f2bc 380d 03bd db1c bf3c
00000300: e911 ed3c dc09 083d 6f94 003d 94ac 03bd
00000310: 28a5 bf3c 26c1 0e3d 3eb7 243d dd17 16bd
00000320: d59c 273d 78cb f73c f212 813c 60b7 16bd
00000330: 668e 1abd b87a f63c 6cf6 f73c f31b 103d
00000340: 730a ec3c 6a0f 1cbd b366 e13c 5e73 f13c
00000350: 8004 0f3d 72c6 a3bc 56cb 113d 10a1 ddbc
00000360: 70fd 883c 2c52 783c f3e1 e8bc 9779 ccbc
00000370: 640f f7bc 2476 fabc d7f8 6cbc f655 f93c
00000380: ad22 cabc ad03 073d 84f1 f23c 9319 07bd
00000390: 7c19 023d 2e96 d33c 9252 e33c 93e9 90bc
000003a0: 6d2e 1cbd 401d 15bd 26f8 19bd e847 f83c
000003b0: 1629 02bd c023 ef3c e36d f83c a5a7 d63c
000003c0: d082 f2bc c3d1 fdbc 7056 f33c c2fb f63c
000003d0: e1e5 fb3c 8f07 8f3c b210 dabc dec2 f33c
000003e0: 96a7 013d acc0 d13c aa2e 19bd e30a e03c
000003f0: d6a6 d4bc eaa1 0abd be45 e0bc 2b22 05bd

conv4.lin.weight f4 [256, 128]
-0.060329102 -0.046815954 0.09568864 0.11123352 0.13804342 -0.04022215 -0.15299195 -0.13965586
-0.087103106 0.08743108 0.12528563 0.048259724 -0.024625367 0.091322705 0.13039963 0.07616931
-0.037418373 -0.027580552 -0.067246936 0.044412013 0.018909309 -0.016227016 -0.118877485 0.1283831
-0.11316444 -0.0660873 0.15004529 -0.061473373 0.13417806 0.070912704 0.059236716 -0.09672889
0.09648182 -0.13093863 -0.022787279 0.012044722 -0.12976137 -0.038436685 -0.08137508 -0.03759184
-0.083266206 0.14420903 -0.033340413 0.026444994 0.03972637 -0.12972102 0.09018538 0.1304789
0.057884444 0.027219087 0.052437183 0.069229744 -0.08542876 0.01419798 0.1020481 -0.15181729
0.021028696 -0.13992442 -0.032285254 -0.08117415 -0.036998667 -0.13013972 0.024292326 0.073302016
0.06838529 0.08848486 -0.073354974 -0.03461134 0.052745618 -0.002664026 -0.08262351 0.037561633
0.15428017 -0.028949518 -0.05271283 0.06177384 0.029927151 -0.029493319 -0.05283768 -0.08034191
0.112711154 -0.12557371 0.082576476 0.0842293 -0.06504092 -0.00502761 -0.100077465 -0.15110758
0.05268607 -0.049635876 -0.027521705 -0.122037664 -0.0462264 0.06295861 -0.051818788 -0.053446796
0.08361878 0.015481862 -0.10118294 -0.03345779 0.15451917 0.083125025 0.07399553 0.045417413
-0.14023569 -0.055445798 0.005545317 -0.052216016 0.030083502 -0.058936402 0.15112032 0.15064092
0.118498884 0.05827275 -0.041361958 0.07280005 -0.15624353 0.081164636 -0.12826084 0.019118913
-0.029910676 -0.035694987 0.011552584 -0.045985628 -0.08465159 0.009597563 -0.03546488 -0.054328084
0.08019155 -0.14808753 -0.13479899 0.06508867 -0.024804674 0.012884794 -0.041290917 -0.0302222
-0.019903962 -0.075231835 -0.13103238 0.14515588 0.0939253 -0.14332263 0.076874934 -0.032542806
0.00463175 0.08690707 -0.09800425 0.030457243 -0.04014784 0.047934394 -0.079519674 0.099446274
0.061837226 0.11546205 -0.09430141 -0.07223738 0.12955913 0.0038455182 -0.028760193 -0.04595273
-0.13583905 0.01780753 0.056299184 0.03849991 -0.05285533 -0.11091375 0.093813576 -0.07652229
-0.048993375 0.07960647 0.020559847 0.028902112 -0.08537466 0.042282484 0.009900461 0.07186911
0.0904592 0.14086373 -0.06865687 0.14130074 0.105551295 0.024365822 0.11229353 -0.014294187
0.021190723 -0.08777321 -0.15071672 0.07728751 0.1061048 0.09115042 -0.015215948 -0.023969557
0.03296806 0.018798167 0.06761312 0.043066587 0.052176334 -0.07117054 -0.058169372 -0.07555542
-0.093502425 0.035228226 -0.001638883 0.088858664 -0.072196566 0.016808042 -0.12103052 0.13100876
-0.08535356 0.10524882 -0.07055919 0.053194392 -0.033709478 -0.033511315 0.0896512 0.01177041
-0.070988625 0.046968594 -0.0016309072 -0.022118198 -0.025110725 -0.07078542 -0.021245213 -0.03464628
-0.002656531 0.1506341 -0.048777394 0.05830438 -0.15305944 0.048531592 -0.08805517 -0.10723688
-0.0456857 -0.13017529 0.045297906 0.11229212 0.05657517 0.051080003 -0.0852156 0.030052267
-0.05453554 0.059423365 -0.07924897 0.04951312 0.0067204544 0.12149114 -0.15125722 -0.01124332
0.05783924 -0.05689162 0.11982708 -0.006445797 0.10459631 0.09998543 0.005347332 0.09557581
00000000: a61b 77bd 16c2 3fbd 68f8 c33d 66ce e33d
00000010: 415b 0d3e fbbf 24bd eca9 1cbe f201 0fbe
00000020: 1d63 b2bd 110f b33d e04a 003e fdab 453d
00000030: 23bb c9bc 6607 bb3d 7b87 053e a8fe 9b3d
00000040: 0244 19bd 9cf0 e1bc c3b8 89bd 5fe9 353d
00000050: b2e7 9a3c 85ee 84bc 0a76 f3bd dc76 033e
00000060: c2c2 e7bd c758 87bd 79a5 193e 81cb 7bbd
00000070: f965 093e ae3a 913d 33a2 723d cc19 c6bd
00000080: 4398 c53d c714 06be 63ac babc 3a57 453c
00000090: 2ae0 04be c96f 1dbd faa7 a6bd e7f9 19bd
000000a0: 7987 aabd 88ab 133e f58f 08bd 2ca3 d83c
000000b0: 1eb8 223d 96d5 04be 1db3 b83d 439c 053e
000000c0: 3d18 6d3d 90fa de3c 5fc8 563d 53c8 8d3d
000000d0: 46f5 aebd a59e 683c 98fe d03d fe75 1bbe
000000e0: 5f44 ac3c 5948 0fbe 8b3d 04bd a23e a6bd
000000f0: ea8b 17bd 5943 05be b300 c73c 5e1f 963d
00000100: 960d 8c3d 8d37 b53d 223b 96bd 9fc4 0dbd
00000110: ca0b 583d f196 2ebb 8436 a9bd 3ada 193d
00000120: 9ffb 1d3e 8a27 edbc 69e9 57bd 9106 7d3d
00000130: c929 f53c f99b f1bc 536c 58bd 4d8a a4bd
00000140: 1bd5 e63d 6596 00be db1d a93d 6980 ac3d
00000150: 2d34 85bd a6be a4bb 6af5 ccbd f2bb 1abe
00000160: 59cd 573d fd4e 4bbd 3375 e1bc e2ee f9bd
00000170: e557 3dbd 72f0 803d f03f 54bd 07eb 5abd
00000180: 5340 ab3d a3a7 7d3c 0039 cfbd 090b 09bd
00000190: 463a 1e3e 743d aa3d f88a 973d 9c07 3a3d
000001a0: f299 0fbe 221b 63bd 7eb5 b53b 76e0 55bd
000001b0: ad71 f63c 4c67 71bd 49bf 1a3e 9d41 1a3e
000001c0: 8baf f23d 68af 6e3d 286b 29bd 3118 953d
000001d0: 4efe 1fbe a539 a63d cf56 03be 449f 9c3c
000001e0: 3c07 f5bc e834 12bd 0d47 3d3c 6d5b 3cbd
000001f0: d05d adbd 193f 1d3c 9f43 11bd 2087 5ebd
00000200: 783b a43d 42a4 17be bf08 0abe 354d 853d
00000210: 2c33 cbbc be1a 533c aa20 29bd 8c94 f7bc
00000220: a20d a3bc 2613 9abd 5a2d 06be bea3 143e
00000230: e85b c03d 2bc3 12be 9b70 9d3d 9b4b 05bd
00000240: efc5 973b 55fc b13d 74b6 c8bd 7881 f93c
00000250: 1072 24bd db56 443d 36db a2bd 7daa cb3d
00000260: 0849 7d3d 5e77 ec3d 1921 c1bd 31f1 93bd
00000270: 26ab 043e 1705 7c3b 7f9a ebbc ee38 3cbd
00000280: 6419 0bbe 19e1 913c f999 663d 15b2 1d3d
00000290: d57e 58bd c026 e3bd 5521 c03d b8b7 9cbd
000002a0: 47ad 48bd b808 a33d 206d a83c 1fc4 ec3c
000002b0: e9d8 aebd 6630 2d3d 8b35 223c 1d30 933d
000002c0: ac42 b93d 953e 103e f99b 8cbd 24b1 103e
000002d0: 472b d83d d59a c73c 26fa e53d 2a32 6abc
000002e0: 2b98 ad3c 71c2 b3bd 7c55 1abe ea48 9e3d
000002f0: 794d d93d 12ad ba3d 504c 79bc ce5b c4bc
00000300: 8409 073d 9dfe 993c bf78 8a3d 9766 303d
00000310: dab6 553d dcc1 91bd 0243 6ebd cdbc 9abd
00000320: 337e bfbd 794b 103d cacf d6ba 88fb b53d
00000330: cbdb 93bd 05b1 893c d9de f7bd 2927 063e
00000340: d9cd aebd b18c d73d 5681 90bd 5de2 593d
00000350: f312 0abd 2943 09bd 0c9b b73d aed8 403c
00000360: 7c62 91bd 2462 403d 2ac4 d5ba 3931 b5bc
00000370: 02b5 cdbc f2f7 90bd 710a aebc 42e9 0dbd
00000380: 3219 2ebb d33f 1a3e ceca 47bd 93d0 6e3d
00000390: 9dbb 1cbe 10c9 463d 4556 b4bd 029f dbbd
000003a0: ee20 3bbd ac4c 05be 4c8a 393d 69f9 e53d
000003b0: 5ebb 673d 4439 513d 8485 aebd 2c30 f63c
000003c0: a960 5fbd ea65 733d 494d a2bd 45ce 4a3d
000003d0: 4237 dc3b 59d0 f83d 2ce3 1abe e735 38bc
000003e0: d7e8 6c3d 3007 69bd e667 f53d 4437 d3bb
000003f0: 9736 d63d 29c5 cc3d ac38 af3b 40bd c33d

conv5.bias f4 [256]
-0.0011179325 -5.0603372e-05 7.6929486e-05 -0.0013372649 -0.00014855989 -0.00017934016 -0.00024514645 0.0013421653
0.00088082504 0.0011488505 7.3325864e-05 -0.0008706035 0.00012125516 -0.0010467507 -0.00034149978 0.00055359886
-0.0001078973 0.00039791342 0.00081515894 8.9364905e-05 -0.0008631434 -0.0012165755 -0.0009119532 -0.0003777193
0.0009763467 -0.00134968 -0.0015224261 0.00046452848 0.0008643753 0.0013495459 -0.0007027652 0.00032043358
0.0005583185 0.0012907825 -0.00027820133 0.00037510853 0.00060001184 0.00053738523 -0.0007253447 0.00010522856
-0.00023478933 0.0011666964 -0.0013917737 -0.00019293003 -0.00073289947 -0.00026746825 0.00072129787 -0.00072580064
-0.00025422455 0.00058293925 0.00045731367 0.00022088226 -0.001041481 3.7707086e-05 0.0007143241 0.0010138309
-0.0013343721 0.00017512355 0.00030557095 -0.00075026805 -0.00060037867 0.0015574335 9.6981166e-05 1.35484e-05
-3.425084e-05 -0.0002570519 -1.8083421e-05 0.00061998965 0.0013415598 -0.00044925165 0.0012829524 -0.00025235765
-0.0010828645 -0.00041944053 -0.00015406252 8.166263e-05 -0.0009918165 -0.00064074754 -0.00016377265 0.00094911596
-0.00023602533 -0.00028155048 0.00014991798 0.0011509507 -0.00093287264 -0.0003992141 -0.0008763568 0.0011740781
0.0012105484 0.00066273584 0.0013478431 0.00060330436 -0.00038183268 -0.0009633755 -0.0014565869 1.5120665e-05
0.00029846307 -0.0013248684 -0.0016271505 0.0010641231 -4.553002e-06 0.00026539038 -0.00019191403 -0.0006548298
-0.0013458143 -0.0007222383 -0.00026375128 -0.0013440346 -0.00022966226 -0.0012964582 0.00071941613 0.0010864502
-0.00062535796 0.00017309742 -0.0005667351 -0.00032754743 0.00033747542 0.0006481056 0.0016711027 -0.00023703059
0.0012827972 0.0001673327 -0.00014596993 0.00050288613 -0.0005231402 -0.0002410166 0.0007222998 0.000114902614
0.00069335895 0.0005604384 -0.0013480817 0.00078506453 0.0013338045 0.00013632276 -0.0013433414 -0.0010102683
-0.0005271224 -0.00021327354 0.00020556661 -0.00026663853 -0.0004364224 0.00021535132 -0.0013471486 -0.0015627331
0.0004926192 -0.00079039624 3.83156e-05 0.0012322501 -5.103124e-06 0.00029164788 -0.0012305157 -0.00026577985
0.0016779016 -0.00012643957 -0.00069339486 -0.00061882066 -0.0006575804 0.0005346907 -0.001345971 -0.0007993957
2.9650093e-05 0.0016334439 0.001247799 -0.00085352873 -0.00087282486 0.00014170878 0.00026285194 -0.0015793949
-0.0005595776 0.00058385154 -0.00089925854 -0.0010455995 -0.0011395746 0.0007153774 0.000968796 -0.00013363731
-0.00029614207 0.0004927153 -0.0005701934 0.0009803324 0.0013211381 0.0004988801 0.00070842117 -0.0003656995
0.0010784998 0.00034244457 -0.0002661149 0.000310502 -0.0007675733 -0.00013681865 0.0012476605 -0.0010737987
-0.0007866337 -0.00012387511 0.00020630979 -0.00088753767 -0.0005238335 2.100555e-05 -0.00031435254 -0.0016262133
0.0009209144 0.0003927123 0.001047811 0.0010967691 -0.00024830276 0.0008812475 -0.0007486327 2.0245508e-05
-0.0014158019 0.00073728326 0.0011789228 0.0012054301 0.0013426814 0.00055095006 0.0013101823 -0.0013470944
0.00077561726 0.0004599425 -0.00064635277 0.00026692127 6.022809e-05 0.0014293682 -0.00042156302 -7.112699e-05
-8.081912e-05 -0.0010330541 -0.0012718762 0.00036473077 0.00044455662 0.000728722 0.00034801566 -0.0010672276
-0.00031349392 0.0010303322 -0.0006873219 0.0015659679 -0.0016551011 -0.00014431925 -4.6004774e-05 0.0008967259
-0.00021975517 -0.0013326982 -0.0006770881 -0.000685216 -0.00016407928 0.0012950441 8.2790204e-05 0.0003776936
-0.0007437107 0.0013356982 -0.00014431811 -0.0005766173 0.0016588409 2.708185e-05 0.00067947345 -3.0191792e-05
00000000: 9787 92ba f53e 54b8 3455 a138 2a47 afba
00000010: bec6 1bb9 420d 3cb9 0087 80b9 98eb af3a
00000020: 2be7 663a 0795 963a 86c6 9938 3639 64ba
00000030: 5e4a fe38 2033 89ba 530b b3b9 641f 113a
00000040: ec46 e2b8 099f d039 64b0 553a 6b69 bb38
00000050: 9344 62ba 8075 9fba 2510 6fba a008 c6b9
00000060: 85f1 7f3a bfe7 b0ba 258c c7ba f58b f339
00000070: 3f97 623a 3fe3 b03a c639 38ba deff a739
00000080: 1f5c 123a 792f a93a 8ddb 91b9 37aa c439
00000090: 1d4a 1d3a 50df 0c3a 0f25 3eba 27ae dc38
000000a0: c831 76b9 d6eb 983a 2d6c b6ba 434d 4ab9
000000b0: 0d20 40ba fb3a 8cb9 7b15 3d3a a843 3eba
000000c0: 7149 85b9 64d0 183a 9ac3 ef39 a19c 6739
000000d0: 4e82 88ba ad27 1e38 7b41 3b3a 85e2 843a
000000e0: 19e6 aeba 5fa1 3739 0a35 a039 a3ad 44ba
000000f0: bb62 1dba cc22 cc3a 5e62 cb38 ef4d 6337
00000100: 8fa8 0fb8 ecc4 86b9 dab1 97b7 cd86 223a
00000110: 47d7 af3a 8989 ebb9 bd28 a83a df4e 84b9
00000120: e7ee 8dba 5be8 dbb9 d88b 21b9 4a42 ab38
00000130: d7ff 81ba d7f7 27ba 63ba 2bb9 18ce 783a
00000140: 917d 77b9 119d 93b9 4d33 1d39 7fdb 963a
00000150: 068c 74ba 9c4d d1b9 4fbb 65ba 86e3 993a
00000160: 44ab 9e3a 73bb 2d3a 1caa b03a 1227 1e3a
00000170: b730 c8b9 098b 7cba f2ea beba c3ae 7d37
00000180: 097b 9c39 35a7 adba 1c46 d5ba 0c7a 8b3a
00000190: fdc5 98b6 1824 8b39 883c 49b9 e2a8 2bba
000001a0: 0966 b0ba 9854 3dba 1948 8ab9 512a b0ba
000001b0: 7ed1 70b9 ebed a9ba 3397 3c3a 3867 8e3a
000001c0: 10ef 23ba 7c81 3539 f390 14ba acba abb9
000001d0: 2fef b039 a1e5 293a e708 db3a 6a8b 78b9
000001e0: 8823 a83a 0876 2f39 810f 19b9 1ed4 033a
000001f0: 5823 09ba 67b9 7cb9 b858 3d3a dff7 f038
00000200: 88c2 353a 62ea 123a 1eb2 b0ba cacc 4d3a
00000210: 0dd3 ae3a ddf1 0e39 0f13 b0ba fb6a 84ba
00000220: 962e 0aba 2ea2 5fb9 5e8d 5739 9ecb 8bb9
00000230: 9fcf e4b9 eecf 6139 ce92 b0ba 9fd4 ccba
00000240: 1d23 013a 9832 4fba 10b5 2038 7483 a13a
00000250: 803b abb6 51e8 9839 4149 a1ba 5e58 8bb9
00000260: 09ed db3a dd94 04b9 f1c4 35ba 5a38 22ba
00000270: 7961 2cba 7c2a 0c3a 4b6b b0ba 8a8e 51ba
00000280: 17b9 f837 4819 d63a 308d a33a 58bf 5fba
00000290: 49ce 64ba a997 1439 64cf 8939 b303 cfba
000002a0: 9eb0 12ba 9d0d 193a 38bc 6bba 7f0c 89ba
000002b0: c75d 95ba 2a88 3b3a cdf6 7d3a fe20 0cb9
000002c0: 8443 9bb9 9029 013a 0879 15ba 7f7e 803a
000002d0: 0a2a ad3a 47c7 023a 57b5 393a 5bbb bfb9
000002e0: 735c 8d3a 228a b339 5685 8bb9 dfca a239
000002f0: f936 49ba fa76 0fb9 8a88 a33a b5be 8cba
00000300: 1836 4eba 79e4 01b9 dd54 5839 a5a9 68ba
00000310: df51 09ba 1335 b037 afcf a4b9 aa26 d5ba
00000320: 8569 713a f4e4 cd39 b456 893a 77c1 8f3a
00000330: a22e 82b9 8503 673a e43f 44ba e6d4 a937
00000340: 6e92 b9ba 3e46 413a 1686 9a3a 86ff 9d3a
00000350: e9fc af3a a26d 103a 6cba ab3a fd90 b0ba
00000360: cb52 4b3a 7024 f139 0070 29ba 91f1 8b39
00000370: 6b9d 7c38 a359 bb3a 3b05 ddb9 032a 95b8
00000380: 6f7d a9b8 8b67 87ba 15b5 a6ba 5639 bf39
00000390: 6113 e939 b507 3f3a df75 b639 37e2 8bba
000003a0: 715c a4b9 360c 873a 642d 34ba 2a41 cd3a
000003b0: faef d8ba 6754 17b9 40f5 40b8 4212 6b3a
000003c0: 146e 66b9 eead aeba 9d7e 31ba 11a0 33ba
000003d0: b20c 2cb9 78be a93a a79f ad38 2d05 c639
000003e0: 95f5 42ba 9812 af3a 1954 17b9 2228 17ba
000003f0: 776d d93a d42d e337 b11e 323a 6144 fdb7

conv5.lin.weight f4 [256, 256]
0.09837771 0.05903406 -0.060653374 0.07569851 0.0782384 -0.049443167 -0.07727163 -0.09270093
0.12538493 0.12296291 0.037718024 -0.032543983 -0.0028970053 -0.05770721 -0.0929001 -0.07402005
0.027047353 0.14370152 0.09468373 0.07242657 -0.099889226 -0.13736328 0.13614376 -0.020062154
-0.10753936 -0.065781996 0.07639193 -0.098613955 -0.004185308 -0.08030063 -0.071132846 -0.009012728
0.05520081 0.10352983 0.09298842 -0.025556969 -0.0760622 0.012950851 0.10369679 0.10680101
-0.09126444 -0.06613569 -0.03980868 -0.020215781 0.08289097 0.025227258 0.03171403 -0.044872023
0.033701207 -0.038322564 0.07112428 0.09211935 0.008412927 -0.08389506 -0.05281332 0.04305341
0.06543397 0.012056314 0.039743554 0.03234651 0.051416878 -0.06711665 -0.056612253 -0.026242185
-0.06392511 -0.0077118445 0.12019456 -0.06978971 0.10197665 -0.030787276 0.040392388 -0.053909708
0.05958777 -0.046513077 0.11155305 -0.114475295 -0.028363181 -0.1277016 -0.05080743 -0.071326874
0.1387269 -0.046141583 -0.07548575 0.10836363 0.047401045 0.049575504 0.039488513 0.105739415
0.0020838657 0.058300547 0.047956135 0.11425171 -0.075873666 0.021591015 0.07345559 -0.11276676
-0.034743015 -0.0047031324 0.073197745 0.090533465 -0.054900955 0.018304193 0.106378004 0.11966553
0.014380727 -0.055187233 -0.052009314 -0.11597393 0.102581434 0.054838225 -0.012517575 0.11862784
0.032296352 -0.0013711234 -0.091549575 0.025296548 0.014377785 0.038511157 -0.007224763 0.022639168
0.08250376 -0.10339602 -0.082692325 -0.029292496 0.09574644 0.06949181 0.024560751 -0.0035506773
0.11374891 -0.037467346 0.12934265 -0.044686485 -0.06513435 0.00046675504 0.12726778 -0.012562608
-0.066703655 0.018271498 -0.04162656 -0.042002697 -0.0990319 0.023215074 -0.024599213 -0.047249164
0.054317832 0.0010816886 0.02097985 -0.07679525 -0.046129823 0.07341838 0.039838735 0.13294388
0.08047523 0.017044257 0.105220184 -0.045010716 -0.048618495 -0.06418614 -0.0151063 -0.036089644
-0.08063908 0.12989998 -0.09411733 0.016228173 0.005490186 -0.037057884 0.05931351 0.0037263276
0.08664304 -0.0143292025 -0.09723975 -0.034069907 -0.033845644 -0.0014710799 -0.04030514 -0.019315107
-0.089924656 -0.051372126 -0.08047516 0.04528304 0.052974034 -0.06924131 0.019995138 -0.008336413
0.024023052 -0.0030075975 0.059674576 -0.0079883225 0.025977816 -0.09034392 0.025383212 -0.053600036
-0.025732413 0.030939592 0.0041713165 0.057070304 0.1244493 0.11629032 -0.063856974 -0.041358832
0.0012727412 0.10475332 0.11871821 -0.084162876 -0.003944959 -0.011571623 0.0105380295 0.026406424
-0.05705595 0.046017766 0.11157133 0.091201834 0.06614974 0.07160412 -0.04664315 -0.12554711
0.06621494 0.059464544 -0.000765059 -0.019837601 0.03245619 0.056127075 -0.11471451 -0.0018805376
-0.05612642 0.051229816 -0.03464079 0.12054059 0.042239774 0.062648386 0.113164574 -0.027353905
0.10138361 0.11386409 0.057173703 0.09110212 -0.0012235148 -0.114531085 -0.059802454 -0.0494442
0.11770047 -0.032703985 -0.0642508 0.14752439 0.14643016 0.029141601 0.019553712 0.05667109
-0.12321729 -0.029350037 0.096607156 -0.026350815 -0.04234726 0.08918516 0.037889432 0.006340574
00000000: 417a c93d b3cd 713d ac6f 78bd d207 9b3d
00000010: 743b a03d eb84 4abd 9740 9ebd fcd9 bdbd
00000020: e864 003e fad3 fb3d 377e 1a3d d74c 05bd
00000030: afdb 3dbb 655e 6cbd 6842 bebd d397 97bd
00000040: 6992 dd3c 7e26 133e 8be9 c13d 6254 943d
00000050: b992 ccbd f6a8 0cbe 4569 0b3e 6359 a4bc
00000060: 993d dcbd b6b8 86bd 5f73 9c3d 1df6 c9bd
00000070: e824 89bb a874 a4bd 19ae 91bd 1faa 13bc
00000080: 3f1a 623d 7307 d43d b670 be3d d95c d1bc
00000090: 80c6 9bbd ce2f 543c fc5e d43d 7dba da3d
000000a0: dae8 babd 2672 87bd 6d0e 23bd 919b a5bc
000000b0: bec2 a93d 65a9 ce3c 92e6 013d bacb 37bd
000000c0: 470a 0a3d 1ff8 1cbd 9ba9 913d 12a9 bc3d
000000d0: 60d6 093c 2cd1 abbd c852 58bd c658 303d
000000e0: 3f02 863d d987 453c 23ca 223d c67d 043d
000000f0: 819a 523d 7474 89bd 40e2 67bd daf9 d6bc
00000100: 2beb 82bd a4b3 fcbb 9128 f63d e8ed 8ebd
00000110: 22d9 d03d 9935 fcbc 7d72 253d 6dd0 5cbd
00000120: 4e12 743d 7f84 3ebd ed75 e43d 0672 eabd
00000130: e759 e8bc 35c4 02be 741b 50bd d313 92bd
00000140: 6d0e 0e3e f5fe 3cbd 4698 9abd c0ed dd3d
00000150: 9927 423d af0f 4b3d b5be 213d e88d d83d
00000160: 7791 083b 8ecc 6e3d a76d 443d cdfc e93d
00000170: a763 9bbd a4df b03c e26f 963d 42f2 e6bd
00000180: b14e 0ebd bc1c 9abb b3e8 953d 9c69 b93d
00000190: d3df 60bd adf2 953c b6dc d93d 3413 f53d
000001a0: 249d 6b3c 020c 62bd b807 55bd bd83 edbd
000001b0: 3716 d23d 0c9e 603d 8416 4dbc 27f3 f23d
000001c0: 2e49 043d 44b7 b3ba 587e bbbd b53a cf3c
000001d0: cd90 6b3c e0bd 1d3d b4bd ecbb c775 b93c
000001e0: bbf7 a83d 4bc1 d3bd 985a a9bd d1f6 efbc
000001f0: b616 c43d b951 8e3d a133 c93c 7bb2 68bb
00000200: 30f5 e83d 5c77 19bd 6672 043e 2d09 37bd
00000210: 2865 85bd cdb6 f439 7c52 023e 66d3 4dbc
00000220: ed9b 88bd 1cae 953c 9d80 2abd 050b 2cbd
00000230: 3dd1 cabd 8a2d be3c 4a84 c9bc 5788 41bd
00000240: 607c 5e3d 72c7 8d3a efdd ab3c d446 9dbd
00000250: a0f2 3cbd 605c 963d f12d 233d 7122 083e
00000260: 33d0 a43d 66a0 8b3c ae7d d73d 285d 38bd
00000270: 3024 47bd 0674 83bd 6a80 77bc bcd2 13bd
00000280: 1a26 a5bd 8004 053e 96c0 c0bd f2f0 843c
00000290: 05e7 b33b 02ca 17bd b9f2 723d 6735 743b
000002a0: e871 b13d 08c5 6abc a225 c7bd e38c 0bbd
000002b0: bba1 0abd 40d1 c0ba 0117 25bd b73a 9ebc
000002c0: 6b2a b8bd 946b 52bd 29d0 a4bd b57a 393d
000002d0: 4dfb 583d 63ce 8dbd d8cc a33c 7395 08bc
000002e0: fecb c43c 1d1b 45bb 546d 743d 74e1 02bc
000002f0: 6ecf d43c 3c06 b9bd 74f0 cf3c b68b 5bbd
00000300: c8cc d2bc 0775 fd3c 8aaf 883b 8dc2 693d
00000310: 46df fe3d 9f29 ee3d 72c7 82bd e167 29bd
00000320: 1cd2 a63a e988 d63d 8822 f33d 965d acbd
00000330: b744 81bb e896 3dbc b3a7 2c3c 4952 d83c
00000340: 80b3 69bd 207d 3c3d 827f e43d 07c8 ba3d
00000350: 8479 873d 2ea5 923d e30c 3fbd 6c8f 00be
00000360: b39b 873d 1891 733d 3e8e 48ba 7782 a2bc
00000370: c8f0 043d 81e5 653d 71ef eabd 5f7c f6ba
00000380: d1e4 65bd 5bd6 513d 80e3 0dbd fcdd f63d
00000390: 9d03 2d3d cc4d 803d d4c2 e73d 4c15 e0bc
000003a0: 36a2 cf3d 9331 e93d f92e 6a3d c093 ba3d
000003b0: 585e a0ba 468f eabd 6bf3 74bd 0086 4abd
000003c0: f20c f13d 9df4 05bd ec95 83bd a210 173e
000003d0: caf1 153e 5eba ee3c 1b2f a03c f21f 683d
000003e0: 5959 fcbd 7d6f f0bc f9d9 c53d aadd d7bc
000003f0: 5274 2dbd b6a6 b63d f331 1b3d 97c4 cf3b
