weights/6-7-0-yfp_split_0.pt (torch, 473545 bytes, 26 tensors)

conv1.bias f4 [64]
000000 18 0b 7a 3a 75 06 89 ba ce f1 d1 39 34 65 e3 39
       0.0009538396 -0.0010454195 0.00040043745 0.00043372216
000010 7c 9b 80 38 ca 71 b9 b9 77 c1 7b ba 3e 21 72 3a
       6.132477e-05 -0.0003537073 -0.00096037186 0.0009236521
000020 e9 39 86 38 8e 0b 4f 3a b8 ea ac 3a 86 9b a7 ba
       6.4004045e-05 0.0007898145 0.001319251 -0.0012787438
000030 11 d4 1c 3a ba b2 8c ba 62 38 45 ba 05 ad 78 3a
       0.0005982528 -0.0010734417 -0.00075233553 0.0009486231
000040 99 9c b0 ba 8c 01 93 39 c3 0f 06 ba 89 fc c9 b9
       -0.0013474404 0.00028039177 -0.0005114043 -0.0003852586
000050 a1 27 38 ba 69 e2 93 b9 34 cc b0 ba 31 b3 8e ba
       -0.0007024948 -0.00028206714 -0.0013488592 -0.0010887143
000060 f8 50 fb 38 0f 1d c7 39 de f1 4a 39 69 4e 4c ba
       0.00011983694 0.00037977888 0.00019354324 -0.00077936664
000070 fc 7e 84 3a c8 f0 59 b9 f3 a9 c8 b9 80 30 1d ba
       0.0010108645 -0.0002078443 -0.00038273595 -0.0005996302
000080 19 d6 2e ba 83 6e 9e 3a af 14 2e b9 60 c7 97 b9
       -0.0006669476 0.0012087378 -0.00016601638 -0.0002894951
000090 e6 54 d1 b9 4f 33 d0 39 70 4b 76 3a 9c 79 85 ba
       -0.0003992684 0.0003971108 0.00093953963 -0.0010183337
0000a0 68 de 22 ba b3 9f 0d 38 00 42 90 b9 8c 32 06 3a
       -0.00062129507 3.376575e-05 -0.00027514994 0.00051192264
0000b0 f7 34 ae b8 9f f1 88 39 5a 9c 34 ba a4 05 45 3a
       -8.306832e-05 0.00026119963 -0.0006889753 0.0007515794
0000c0 d3 99 bc ba bd 21 6e 3a bc 99 a6 ba 88 d2 ad ba
       -0.0014389105 0.0009084007 -0.0012710611 -0.0013261596
0000d0 8c 8d 25 39 12 ab ac 3a b4 55 48 ba b7 8d bf 39
       0.00015788357 0.0013173542 -0.00076421653 0.00036535945
0000e0 04 23 00 39 f0 5d 19 39 66 f6 ab b9 d4 98 5b 39
       0.00012220076 0.00014626211 -0.00032799243 0.000209424
0000f0 85 be b0 3a 8b 49 82 ba 52 81 8a ba 62 f4 06 ba
       0.0013484514 -0.000994013 -0.0010567105 -0.000514811

conv1.lin.weight f4 [64, 2]
000000 c2 96 2c be 57 d5 f7 bd 15 c1 00 bc 55 a0 4d 3e
       -0.16854385 -0.12101238 -0.007858534 0.20080693
000010 77 bb 9e 3d 71 40 e0 3b 6a 14 b8 bd 60 67 a7 3b
       0.077506 0.0068436195 -0.08988269 0.005108759
000020 5e aa 07 bd 3b c9 cd bd 40 a3 13 3e 8b 70 7e 3e
       -0.03312146 -0.10048147 0.14417744 0.24847619
000030 9f 73 3b 3c 3e bc 38 3e 19 86 a8 bd 02 81 57 3e
       0.01144114 0.18040559 -0.08228702 0.21045306
000040 d6 27 d2 3d a4 28 31 bd fc 72 fb 3c e5 c8 32 3e
       0.10261504 -0.04325165 0.030694477 0.17459448
000050 3c d8 d1 bd 3b 5e c0 3d 39 b0 14 3d 98 94 30 be
       -0.102463216 0.09392973 0.03630087 -0.17244184
000060 64 63 1c bd 0a f8 be bc f4 cc 1a 3e 91 90 f7 3c
       -0.038180724 -0.023311634 0.15117246 0.030220302
000070 ec ee de bd fe ba f6 bd d4 14 63 3e 91 c9 4c 3e
       -0.108854145 -0.12047385 0.22175914 0.19998766
000080 db 1e 52 be 27 90 d2 bb 6b c8 7c 3d 08 83 82 be
       -0.20519583 -0.0064258757 0.06171457 -0.25490594
000090 3d 8c ac 3c b9 8d 9f 3e bf b6 89 bd 47 82 97 3e
       0.021062965 0.31162813 -0.06724309 0.2959158
0000a0 ee 71 8c 3e e5 0e a3 3d 9f db 80 be f7 25 d2 3d
       0.2743067 0.07961825 -0.25167558 0.102611475
0000b0 b6 f7 3d be 4a 88 24 be 8b a1 72 3e 71 34 a5 3c
       -0.18551525 -0.16067615 0.23694436 0.020166608
0000c0 d6 7f 57 3e 42 02 87 3d 86 07 04 be dc 71 b0 bd
       0.2104486 0.065922275 -0.12893495 -0.08615467
0000d0 f3 b7 36 3e 21 ef fe 3d 53 85 2b be af 52 ea bd
       0.17843609 0.12447954 -0.16750078 -0.11441552
0000e0 52 1c e9 3d 3d 56 62 be 3c ee 01 3d 88 84 2e bd
       0.11382355 -0.2210321 0.03172134 -0.04260686
0000f0 b8 53 e4 bd 1c 19 7c be d9 c9 87 be 20 e7 0d 3e
       -0.111487806 -0.24618953 -0.26521185 0.13857698
000100 03 69 0c 3e 1f 8d 20 3e d7 a0 a4 3e 1a 29 cd bd
       0.13711934 0.15678833 0.3215396 -0.10017605
000110 07 5f 6f be 04 c7 5c 3e 4a 8a 25 3e d0 ea 11 3e
       -0.23376094 0.21560293 0.16166034 0.1424973
000120 3f ed 0a 3b ae 7c 7b 3d 45 24 a0 3d 24 85 ca bc
       0.0021198539 0.0613982 0.07819418 -0.02472169
000130 c2 bb 3c 3e ed 19 5a 3e 93 c0 82 be 30 28 9a 3e
       0.18430999 0.21298952 -0.25537547 0.30108786
000140 6a 7a 77 be ae 85 95 3e 66 01 1c 3e 1a e7 9c bb
       -0.24167791 0.29203552 0.15234908 -0.0047882916
000150 1a df 49 be 43 a1 37 be 83 58 36 3d 89 e6 6e 3e
       -0.19714013 -0.1793261 0.044518005 0.2333013
000160 94 88 da bd 97 22 8b 3e 75 ac 84 be 24 9a 78 3e
       -0.106705815 0.27174827 -0.25912824 0.2427755
000170 4b 4c a1 3e c9 97 93 3d 95 33 09 bd 11 de 12 be
       0.3150352 0.07206685 -0.033496458 -0.14342524
000180 18 cc f2 bc 58 2f 09 3c 08 ed 84 3d 56 d5 89 3d
       -0.029638335 0.008373104 0.064905226 0.06730144
000190 9a fd 6e 3e 0a 19 c9 3c 9d f5 29 3e fa d6 0a bb
       0.23338929 0.024548072 0.165976 -0.0021185265
0001a0 36 11 21 be b4 85 74 3e 69 a7 50 bd 11 b4 c3 3d
       -0.15729222 0.23879129 -0.050940905 0.09555829
0001b0 cf 12 8b 3e c5 80 14 bd f7 58 50 bc c9 a6 31 be
       0.27162787 -0.036255617 -0.012716523 -0.1734878
0001c0 5b c8 26 be 12 1a 4e 3e 4f 33 19 be 2d e2 86 3e
       -0.16287367 0.20127133 -0.14960979 0.26344433
0001d0 0b a6 61 3e 8e 51 46 3d b6 81 74 3e 64 f2 33 3d
       0.22035997 0.04841762 0.23877606 0.043932334
0001e0 57 5d 1a bd f3 c9 7f 3e cb 66 02 be b1 ed 8d be
       -0.037686672 0.24979381 -0.12734525 -0.27720407
0001f0 49 02 38 3e fb 6e 16 be e1 bf 7c be b5 b6 38 3e
       0.17969622 -0.14690773 -0.24682571 0.18038447

conv2.bias f4 [64]
000000 59 dd e2 bc ca d6 df 3c b0 f7 e7 3c 2d dd db 3c
       -0.027693437 0.0273241 0.028316349 0.026838863
000010 08 fe e9 3c 22 8e 36 3c cd 07 d4 3c e5 4b e4 bc
       0.028563514 0.011142286 0.025882626 -0.02786822
000020 9e 76 fb 3c 69 04 df 3c 52 4d e2 bc 2c 7c d5 bc
       0.03069621 0.027223783 -0.02762476 -0.026060186
000030 f7 3e fc bc 07 fb 0a 3d 70 c9 00 3d 0d 18 27 bc
       -0.030791743 0.033930805 0.031442106 -0.010198605
000040 5f fe 76 bb 1a 74 3e 3c da b2 02 3d ac 58 33 bd
       -0.0037688238 0.01162436 0.031908847 -0.043785736
000050 ff 96 ed bb 1c f8 4e bb 66 32 22 3d 0f c4 e6 3c
       -0.007250666 -0.003158099 0.039598845 0.02816966
000060 8e 7a fb bc 73 ad 18 3d 1c 1a e7 3c b7 49 e7 bc
       -0.030698087 0.03727479 0.028210692 -0.028233392
000070 17 c7 0a bd 4f fa c6 3c 90 5d f0 bc 82 f1 d8 3c
       -0.033881273 0.024289278 -0.02934149 0.026482347
000080 77 7b e8 bc dc 26 b0 3c 7f db ee 3c 3f fc e7 3c
       -0.028379185 0.021502905 0.029157398 0.028318522
000090 df dd f4 bc e8 5a d3 ba 51 9f f2 3c 49 c3 f0 bc
       -0.029890953 -0.0016125115 0.029616984 -0.029389994
0000a0 cb b0 d2 3c 57 39 ed bc 76 f7 cd 3c d3 7c ba bc
       0.025719067 -0.028958006 0.025142413 -0.022764599
0000b0 9d 45 2a bd f1 93 dd bc 67 dd fa bc fd d9 c8 3c
       -0.041570295 -0.027048083 -0.030623151 0.024518007
0000c0 e6 fc ee bc 6a 97 d6 3c a8 56 e9 3c 7e f7 da 3c
       -0.029173326 0.026195247 0.028483704 0.026729342
0000d0 5e 2a 05 3d a1 32 94 bc 88 1e e5 bc b7 9a df bc
       0.032511108 -0.018090548 -0.02796866 -0.027295453
0000e0 72 b4 7b 3c 13 c0 d4 bc c2 7a 8d 3c 42 d8 e6 3c
       0.015362846 -0.025970494 0.01727045 0.028179292
0000f0 35 9d 1a 3d 04 e9 ee bc 41 ba c6 3c 33 6b 27 bd
       0.03774758 -0.029163845 0.024258735 -0.040873718

conv2.lin.weight f4 [64, 64]
000000 92 7b 8c 3d 81 c8 28 bd ac 3d 2e be f4 d9 31 bd
       0.06859507 -0.04120684 -0.17015713 -0.043420747
000010 ce c2 dd bc 39 82 f0 3c f7 d8 f6 3d d1 d2 cd bc
       -0.02707043 0.02935897 0.120531015 -0.02512494
000020 bc 13 8b bd 91 37 b2 bd 91 20 75 bd c0 59 cf bd
       -0.067908734 -0.08702005 -0.05984551 -0.1012454
000030 d5 cb 05 be 09 16 58 bd 79 17 6b 3d 0d c2 59 be
       -0.13066037 -0.05275539 0.057395432 -0.21265431
000040 5d 4b 37 3e f1 53 32 3e 84 28 0c 3e 0c ad 02 bd
       0.17899843 0.17414834 0.1368733 -0.03190331
000050 7b a4 70 be 42 26 ad 3d 5b 5f 13 be b8 bb 16 3e
       -0.23500244 0.08454563 -0.14391844 0.14720047
000060 a9 35 3b 3e d0 d9 22 be 8d 04 20 be ab c0 32 be
       0.18282188 -0.15903401 -0.15626736 -0.1745631
000070 76 84 be bd c5 88 45 3c 5c 16 bf bd cc 8e c5 bd
       -0.09302609 0.012056534 -0.093304366 -0.09646377
000080 6f 85 8d bb 61 e9 c0 3d 87 e2 82 bd 48 b1 c9 bd
       -0.004318885 0.094195135 -0.06390863 -0.09848267
000090 ef eb 87 3d af 1c 66 be 13 18 2c 3d 03 d8 ed 3d
       0.06636798 -0.2247188 0.042015146 0.116134666
0000a0 01 4b d4 3d a2 0b b8 bd 57 29 6a 3e 49 c6 2e bd
       0.10365868 -0.08986594 0.22867332 -0.04266957
0000b0 2e 07 7f 3e 17 99 da bd 73 d6 30 bd 4c 0f 1b 3e
       0.24905083 -0.10673731 -0.043173265 0.15142554
0000c0 2d ad 4a 3e 2f 2d 0b be 20 2f 95 3d 55 03 8f 3d
       0.19792624 -0.13591455 0.07284379 0.069830574
0000d0 6a 6a 84 bd 11 b2 f1 3c 14 3a f7 3d 40 d3 85 3d
       -0.06465609 0.029503854 0.120716244 0.06534433
0000e0 8f 17 33 be 39 0f 91 bd 82 80 e9 3d 07 fb 34 3e
       -0.17489456 -0.070829816 0.11401464 0.17673884
0000f0 28 63 8a bc 3f cf 03 3e da 4d 44 be ed 3a e9 bd
       -0.016892985 0.12872027 -0.19170323 -0.11388192
000100 07 c2 ef bd 75 1c 9b 3d ee 40 4f 3e 45 bf 37 be
       -0.1170693 0.07573787 0.20239612 -0.17944057
000110 0f 78 bc bd 74 22 e0 bd ba 07 00 3e 4b dd 22 be
       -0.09202587 -0.109440714 0.12502947 -0.15904729
000120 8d 3d 3e be 41 ec d5 3d b9 20 5f bd 5c 22 15 bd
       -0.18578167 0.104454525 -0.054474566 -0.03640972
000130 0b 03 8a bd ea 52 d1 bc a2 a0 ff 3d a1 48 8c bd
       -0.06738862 -0.025552232 0.1248181 -0.0684979
000140 a4 ff 32 be 7e 5a ab bd ca 1d 75 bd bf b0 1f 3e
       -0.17480332 -0.083668694 -0.059842862 0.15594767
000150 6b b8 ce bd c5 db 4d 3e 38 3b 15 be 92 48 6a 3e
       -0.10093769 0.20103367 -0.14573371 0.22879246
000160 5e da 37 be 53 2b 26 be 81 85 ee 3d ff 02 4d be
       -0.17954394 -0.16227464 0.116465576 -0.20020674
000170 cd 57 b1 bd 6c 99 76 3b 4c 73 56 3e da 32 d1 3b
       -0.08659325 0.0037628068 0.2094242 0.006384236
000180 3c a0 3c 3e 6e 06 a4 3d 56 b9 5e bd 97 0d 80 3d
       0.184205 0.08009039 -0.05437597 0.06252592
000190 36 63 15 be 44 50 4e 3e 48 e8 2f 3e 7b 07 60 3e
       -0.14588627 0.20147806 0.17178452 0.21877854
0001a0 e6 61 fe 3d 0e 46 03 be 24 dd 69 be 41 59 9b 3d
       0.124210164 -0.12819692 -0.22838265 0.07585383
0001b0 a3 5d 51 bb e9 22 2b bc 20 1b 03 3d ad 6f 2b 3e
       -0.003194668 -0.010445335 0.03200829 0.1674182
0001c0 84 3e 9d 3d 9a f3 5e 3e df 5c 53 3e 47 53 1d be
       0.076779395 0.21772614 0.20640896 -0.15363799
0001d0 1e 78 4f 3d 88 91 60 3e 7e 8f 8e 3d 14 d6 02 3e
       0.050651662 0.21930516 0.06960963 0.12776977
0001e0 17 56 50 bc 29 ac ff 3d a9 00 8c bd 4a b9 06 3e
       -0.012715838 0.12484009 -0.068360634 0.1315662
0001f0 3e fa 68 3e 2d 6d 4b bc 06 82 03 3e fa 28 2b be
       0.2275171 -0.012416166 0.12842569 -0.1671485
000200 9d 88 0c 3e fe d9 cd bc aa 97 01 3e a1 64 02 3e
       0.13723989 -0.02512836 0.12655511 0.127337
000210 18 3c 32 3e 60 ee fa bd 1f 2b a8 3c d1 68 19 be
       0.17405736 -0.12252498 0.020528374 -0.1498139
000220 0f da 76 3e 18 a1 60 3d ec a1 5a be 77 0c 0b 3e
       0.2410662 0.05484113 -0.21350831 0.13578974
000230 d2 f4 ba bd 27 96 26 3e 1d 9a f1 3d c7 13 4b 3e
       -0.09128727 0.16268216 0.11796973 0.19831763
000240 22 9f c1 3d cf ba 3b ba 00 f8 21 bc 4a 75 1b 3e
       0.0945418 -0.00071613205 -0.009885788 0.15181461
000250 22 e7 00 be 45 93 cc bc 6d cf 5a 3b 0c 68 f4 3d
       -0.1258817 -0.024972567 0.0033387796 0.11933908
000260 4f ba 49 3e f0 aa 33 be 6c 57 59 3e 2a 21 51 3e
       0.19699977 -0.17545676 0.21224755 0.20422807
000270 8c 1e 4f 3e ad 63 e9 bb a9 20 8a bd a8 13 24 be
       0.20226496 -0.007122478 -0.06744511 -0.16023123
000280 4d bf f9 bd 09 a5 20 3e 6f d7 5e be 5d 3f 96 3b
       -0.12194691 0.15687956 -0.21761869 0.00458519
000290 c2 98 1c be a6 03 08 3e c5 53 37 be 5e dc 0e 3e
       -0.15292647 0.13282642 -0.1790305 0.13951251
0002a0 1f 7e ad bc bb 6d 26 3e b7 35 9c 3d 7f d2 28 bd
       -0.021178303 0.16252796 0.07627433 -0.04121637
0002b0 8f bf 1c be 01 60 8f 3d 93 3a 5e 3e 06 ec 62 bd
       -0.15307449 0.07000733 0.21702032 -0.05540087
0002c0 bc 9c d4 3d 5d eb 05 3e 72 ac 25 be 98 60 f7 bd
       0.10381457 0.13078065 -0.16179064 -0.12078971
0002d0 9c 5a a7 3d 1f 62 16 be 77 fe c5 3d 81 8b 5b bd
       0.08171579 -0.14685868 0.09667676 -0.05359984
0002e0 9e 6e cc bb 80 33 ed bd 59 de db 3b e8 1f 2e be
       -0.0062387725 -0.115820885 0.0067098555 -0.17004359
0002f0 e8 a4 09 bd 55 3d c4 bd 61 6c 18 be dc 16 90 3d
       -0.033604532 -0.09582011 -0.14885093 0.0703561
000300 9f 82 ad 3d da 31 fa bd db ce 5f be 0d ad 15 3e
       0.084721796 -0.1221654 -0.21856253 0.14616795
000310 9e 68 72 3d 4b c2 74 bd 84 4c e2 3d e1 89 fe bc
       0.059181802 -0.059755605 0.110497504 -0.031071605
000320 bc 7b d4 bd 4e bd ca 3d a1 20 05 bc d5 b3 58 be
       -0.10375163 0.09899388 -0.008125455 -0.2116235
000330 0d 95 08 be 6b 1d e6 bc 4c 8b 58 bd 2e 1a 3b 3d
       -0.13338108 -0.0280902 -0.05286722 0.045679264
000340 b1 f5 c7 3c a3 ea 27 be 9c 79 1e 3e 26 bb 32 3e
       0.024409147 -0.163981 0.15476078 0.17454204
000350 61 eb 5c 3d 76 98 e5 bc e0 dd 1b 3e cc ae a4 bd
       0.053935412 -0.0280268 0.15221357 -0.08041152
000360 fc e1 0d bd 70 c0 b0 3c b3 e1 61 3e 77 95 f9 bd
       -0.034639344 0.021576136 0.22058754 -0.12186711
000370 c2 9c 56 bd 87 ba 33 be f2 cf 12 3e eb 71 36 be
       -0.05239559 -0.17551623 0.14337137 -0.17816894
000380 a8 cf e3 3d 6b a8 ea bd 27 0b 29 3e 1e cc 1d 3e
       0.11123592 -0.114579044 0.1650816 0.15409896
000390 fd 0c 3e be c4 49 42 3d 80 95 49 3e a3 1f 2a 3e
       -0.18559642 0.04743363 0.19685936 0.16613631
0003a0 cd 4b 23 3e 22 ac 50 bd 77 52 78 be 18 65 21 bc
       0.15946884 -0.05094541 -0.24250208 -0.009850763
0003b0 e1 b9 2b 3d 54 1c 83 3c ca 16 f8 bd f7 fc 66 be
       0.041925315 0.016004719 -0.12113722 -0.22557436
0003c0 c0 50 08 3e 2e 7c e7 bd 2e 8b 62 be e1 61 7d 3c
       0.13312054 -0.11302982 -0.22123405 0.015465231
0003d0 97 32 38 3e 19 a6 4d 3e 65 ab c9 3c d0 6c 13 be
       0.17988048 0.20082892 0.02461786 -0.14396977
0003e0 79 ed 77 3d 3c 39 62 3e 67 70 15 be e7 28 4a be
       0.060529206 0.22092146 -0.1459366 -0.19742166
0003f0 4c e8 76 bb 35 75 4a 3b f9 75 0f 3e b6 34 20 3d
       -0.003767508 0.0030892615 0.14009847 0.03911277

conv3.bias f4 [128]
000000 d9 9b 7c ba 44 c8 18 ba 24 e4 c9 3a db e7 7f ba
       -0.000963626 -0.0005828182 0.0015403074 -0.0009762027
000010 db c4 9f 3a 40 0d 23 3a a0 1d a1 3a 19 3c c4 b9
       0.0012189405 0.0006219931 0.0012292154 -0.0003742881
000020 6e 5d ea 39 ef 63 97 39 8b d7 1c 3a cc 4a bf 3a
       0.0004470157 0.0002887542 0.0005983046 0.0014594435
000030 79 41 a2 3a ca 91 09 3a 73 fd 30 39 ec 62 c7 ba
       0.0012379132 0.00052478595 0.00016879085 -0.0015211976
000040 76 43 8e 3a 8f 6a 96 ba 3b f1 c7 b9 de f1 a4 3a
       0.0010853845 -0.0011475849 -0.00038135968 0.0012584289
000050 44 15 a4 ba 8e 00 c8 ba 25 87 c8 39 2e 71 b4 ba
       -0.0012518545 -0.0015258954 0.00038247663 -0.001376664
000060 6e 35 60 ba cf b9 fc ba 23 7e 90 b9 e3 4b 7a b9
       -0.00085528835 -0.001928145 -0.000275598 -0.00023870128
000070 41 41 cf 39 91 d1 b8 ba 32 59 31 39 4c 26 1f 3a
       0.00039530735 -0.0014100542 0.00016913263 0.00060710753
000080 33 a3 55 ba 91 c0 d2 ba a7 ce ce 38 0e fb bc ba
       -0.0008149624 -0.0016079118 9.8613375e-05 -0.0014418082
000090 a0 ec 7f 39 cd f6 2a b9 10 0b 95 b9 6c 76 5d 3a
       0.00024406845 -0.00016304404 -0.00028427737 0.0008448127
0000a0 47 7a 2e ba e7 40 d6 ba 1c 69 a8 b9 00 04 90 b8
       -0.0006655794 -0.0016346247 -0.0003212177 -6.8672e-05
0000b0 e4 fd af 3a 7a 60 9a 39 fa 59 61 39 c9 75 8b 39
       0.0013427106 0.0002944505 0.00021491191 0.00026599903
0000c0 87 38 dc ba 70 09 c9 ba 6e 40 36 3a 87 1a 7b b9
       -0.0016801514 -0.0015337896 0.000695235 -0.00023947108
0000d0 ff 3b 18 39 45 55 0b ba 62 97 33 ba 17 5e ae 3a
       0.000145182 -0.00053151353 -0.0006850866 0.0013303187
0000e0 23 18 61 3a 71 31 f2 b8 50 3f dd 38 ba 22 b6 ba
       0.00085866655 -0.000115486684 0.00010549894 -0.0013895847
0000f0 16 9a a4 39 77 2b 66 3a d2 c7 1e 39 30 75 cf ba
       0.0003139532 0.00087802805 0.00015142493 -0.0015827771
000100 ab bd a1 39 41 db d4 39 c1 12 77 39 30 27 3f b9
       0.00030849627 0.00040599148 0.00023562742 -0.00018229778
000110 e4 ad db 3a 54 71 54 ba 8e d3 64 39 6a 48 8c b9
       0.0016760197 -0.00081040454 0.00021822585 -0.00026756834
000120 43 5c a4 3a b7 89 18 ba 30 35 c7 3a b8 30 af 3a
       0.0012539703 -0.0005818861 0.0015198346 0.001336596
000130 f6 2c ae 39 84 ee bc b9 53 3d 21 39 45 34 64 3a
       0.00033221365 -0.00036035862 0.00015377002 0.00087052985
000140 31 43 e8 39 03 d1 3f 39 a1 32 04 3a 1f 79 15 ba
       0.0004430055 0.00018293042 0.00050429447 -0.00057019474
000150 9b 14 a8 39 79 14 ac 3a 51 c3 a9 3a 04 31 37 b9
       0.0003205881 0.001312866 0.0012951886 -0.000174705
000160 85 1c ba b7 e5 4f 41 ba 22 e2 d8 ba 4c f0 9b ba
       -2.2186208e-05 -0.0007374271 -0.0016546885 -0.0011897176
000170 11 23 3b 3a 9a cc 05 ba 78 52 96 b9 89 f3 60 39
       0.0007138709 -0.00051040354 -0.00028671673 0.00021453029
000180 a9 07 cb 3a e5 04 c5 b9 c5 4b f7 b9 bf 7d d1 3a
       0.0015489954 -0.00037578415 -0.00047167964 0.001598291
000190 b8 1e da ba 8a 09 ae 39 0e 46 ca 39 8a 2f 4b b8
       -0.0016641235 0.00033194973 0.00038580637 -4.8443246e-05
0001a0 64 c1 bc ba 31 42 86 38 db 1d d8 3a fb d6 73 ba
       -0.0014400897 6.401947e-05 0.001648839 -0.0009301749
0001b0 e3 2c 40 ba 2d e2 09 38 d4 e5 58 3a 59 54 30 3a
       -0.00073309074 3.2873988e-05 0.0008273993 0.0006726436
0001c0 2e 18 ae 39 7b 9a 3a ba 47 2f b5 3a f7 7e 2c 3a
       0.00033205881 -0.00071183563 0.0013823294 0.00065801985
0001d0 e9 cd 0e 39 34 8c f8 ba cd 0c b0 ba ad 72 20 39
       0.00013618883 -0.0018962682 -0.0013431549 0.00015301509
0001e0 5a 36 9c 39 ad 01 68 3a ad 32 bb 3a 10 46 1f 39
       0.00029795134 0.00088503474 0.001428207 0.00015189522
0001f0 3c ff 53 3a 2e dd 75 39 aa 68 cf 3a 37 1e ad 39
       0.0008087044 0.00023447417 0.0015824039 0.00033019643

conv3.lin.weight f4 [128, 64]
000000 37 58 76 bd c6 bd 4b be 16 d3 81 bd 59 65 40 be
       -0.060142722 -0.19896612 -0.063390896 -0.18788661
000010 b7 6e 39 3d aa bc 41 3e eb 8f 0f 3e ae 96 05 be
       0.0452716 0.18919626 0.14019744 -0.13045761
000020 bc 4d aa bd ab 0c 02 be 96 b1 b9 bd 21 12 c4 bd
       -0.08315608 -0.12700145 -0.09067075 -0.0957377
000030 51 24 05 3e 44 80 36 3e 30 0c 70 bd 02 67 13 be
       0.13002135 0.17822367 -0.058605373 -0.14394763
000040 62 65 36 3d 35 0d 52 3d 40 76 7a bd ae 0a 18 be
       0.04453028 0.051282126 -0.06114793 -0.14847824
000050 a7 69 d4 3c 68 a9 c6 bd 6d 93 8d 3d 40 d6 86 3d
       0.025929285 -0.097002804 0.06912885 0.06583834
000060 a7 4a 90 3d 71 b1 06 be 1a 78 2d 3d 69 1e f1 3c
       0.07045489 -0.13153626 0.042350866 0.029433446
000070 c2 52 9c bd 68 e6 37 be 86 d5 92 3d 9b df 6d 3d
       -0.07632972 -0.17958987 0.071696326 0.058074575
000080 20 b6 94 bd 49 13 b1 bc c1 18 62 bc a9 51 94 3c
       -0.072613 -0.021615641 -0.013799847 0.018105345
000090 fc 0e ee 3d 3a 3b 01 bd 0b 07 25 3e 87 cc 66 3c
       0.11623952 -0.031550623 0.16115968 0.014086849
0000a0 ad 69 d9 3c 29 c4 31 be a4 bc 2e 3e 6c 84 34 ba
       0.026539648 -0.17359985 0.17064148 -0.00068861875
0000b0 e2 cb e8 3d cb a1 f8 3c f7 c3 65 bd ed 1d 9c 3d
       0.113670126 0.030350586 -0.05609509 0.076228954
0000c0 2a ae 8f 3d 37 1c 07 be 17 13 0d 3d c9 94 8b 3d
       0.07015641 -0.13194357 0.034442034 0.06815488
0000d0 4f c1 57 3d 94 9d a2 bc 1f 80 ad 3d 5c 51 08 bd
       0.052674588 -0.01985053 0.08471703 -0.033280715
0000e0 41 a9 99 bc af 13 a6 bd ae 23 18 3d ef d2 14 be
       -0.018757464 -0.08109223 0.0371434 -0.1453359
0000f0 89 c8 3c be 23 7b e7 bd f3 b3 3b 3e cf a8 17 3d
       -0.18435873 -0.11302783 0.18330364 0.037026223
000100 70 8d 8f bd 54 82 25 be f6 d8 be 3d 3d a8 a9 bd
       -0.07009399 -0.16162997 0.09318726 -0.08284042
000110 f4 8d 45 3c 7e c2 23 bd 09 d1 f4 bd ba 48 d6 3d
       0.01205777 -0.039980404 -0.11953933 0.1046309
000120 46 35 dd bd 63 c8 a7 bc 57 4d 39 be 15 a0 21 3d
       -0.10801177 -0.020481294 -0.18095909 0.039459307
000130 2f 09 2a 3d b5 9b 5c 3c 6a 22 2a bd ae 47 f5 3d
       0.041512664 0.013464858 -0.041536726 0.119765624
000140 9f 74 0f bc d7 3e ab bd 65 3d 27 be 4e bb 0c be
       -0.008755832 -0.08361595 -0.16332014 -0.13743326
000150 30 d0 e7 3d b7 68 af bd a3 85 01 be 8f d4 42 3d
       0.113190055 -0.08564895 -0.12648635 0.047565993
000160 8f ec 88 b9 24 22 1b 3e 9a 51 d6 bd 8b 23 0f be
       -0.0002611619 0.15149742 -0.10464783 -0.13978402
000170 c4 2b d6 3d a3 ad 05 3c 1f ee d7 3c 71 03 34 bd
       0.104575664 0.008159074 0.026358662 -0.043948594
000180 5c b8 0a 3d a9 19 67 3b 3e 20 77 3d 42 83 29 be
       0.033867225 0.0035263097 0.060333483 -0.16553977
000190 bf 8d e3 3d 18 45 2a 3e 19 73 8b bd 8a f1 e4 3d
       0.1111102 0.1662792 -0.068090625 0.111788824
0001a0 cc 14 f8 3d 15 12 ac 3d 29 18 bd bd 6b 62 3b bc
       0.12113342 0.084018864 -0.09233124 -0.011437039
0001b0 42 f4 26 bd 4c c1 09 be 6c bd 15 be 10 91 de bd
       -0.040760286 -0.13452643 -0.1462304 -0.10867512
0001c0 85 59 55 3d 15 ee 9c 3d f2 d8 bb 3b 1b 2f 29 bd
       0.052087326 0.07662598 0.005732649 -0.04130469
0001d0 51 3a d2 3d e6 41 8f 3d 40 f6 dc bd 14 cb 26 3d
       0.10265029 0.06994991 -0.10789156 0.040721014
0001e0 55 c1 4a be 93 14 ea 3d 4e a0 d6 bd bb 36 93 bd
       -0.19800313 0.114297055 -0.104797944 -0.071881734
0001f0 64 24 39 3d 92 34 9e bd c4 83 06 3e 39 cf 1b 3d
       0.04520072 -0.07724871 0.13136202 0.03803942
000200 8d 5e 03 3d b2 ca 05 bd 2c 5c 07 3e ad 5b ef bd
       0.032072593 -0.03266401 0.13218755 -0.11687408
000210 69 32 b3 bd 86 b6 b2 3d 71 66 16 3e 14 96 40 bd
       -0.08749849 0.0872622 0.14687516 -0.047018126
000220 10 49 7b 3d a2 67 b2 3d 96 88 02 3d 92 91 2c bd
       0.061348975 0.08711173 0.03186854 -0.042131014
000230 fb 3b 0c 3b bf c2 06 3e 30 4a 84 3d 3f 85 ec 3d
       0.0021398056 0.13160227 0.06459463 0.11548852
000240 a4 8e 15 be ae 99 d0 3c 40 f9 cb bd fe 39 a3 bd
       -0.14605194 0.025463905 -0.0995965 -0.079700455
000250 a9 dd 58 bd a8 83 8f bd c7 7b db bd de 8d 0d 3e
       -0.052945767 -0.07007533 -0.10716968 0.1382365
000260 89 f1 49 be 44 df 88 3d 2d 1c a0 3d b9 30 30 bc
       -0.19721045 0.066832095 0.07817874 -0.010753804
000270 2e c9 80 bd 0c 71 9a bd 7b fa ef 3d 82 24 48 3a
       -0.06288372 -0.07541093 0.11717697 0.00076348346
000280 ba bf 89 3d 6b 90 86 bc 65 4e 1b 3d f0 9e 1c 3d
       0.06726022 -0.016426286 0.03791656 0.038237512
000290 96 36 3f bd ee 9e a1 bd eb f5 88 bc 28 03 12 bd
       -0.046682917 -0.078916416 -0.016718825 -0.03564754
0002a0 54 65 10 3e f7 d1 5b bd 9e f1 0e 3e 00 4a ae 3d
       0.14101154 -0.053667035 0.13959357 0.08510208
0002b0 32 c0 18 3e 4a b5 26 3e e9 65 3f bc af eb 2e bd
       0.14917067 0.16280094 -0.011682012 -0.042705234
0002c0 f2 9b e9 3d 66 74 24 be 99 a7 8d 3c 7f f3 ef bc
       0.11406697 -0.16060027 0.01729183 -0.029290913
0002d0 6f b3 f5 bd f6 d1 70 bd fe 4d f5 bd 7d 1e 01 3e
       -0.11997115 -0.058793984 -0.119777665 0.12609287
0002e0 fa 39 13 be 72 b0 ad bd 4b 16 3e be 24 4c 4f bc
       -0.14377585 -0.0848092 -0.18563192 -0.012652431
0002f0 bf f5 28 3e 4b 5f 87 3d f7 4a 20 3d 6e e7 a2 3d
       0.16499995 0.066099726 0.039133992 0.07954298
000300 c8 e4 d0 bd 34 2b 0f 3c bf b4 60 bd 1f fa 1d bd
       -0.101998866 0.008738328 -0.054859873 -0.038568612
000310 e0 03 44 3d e5 3e 9e 3d ac a9 00 3e 64 36 79 3c
       0.047855258 0.0772684 0.12564725 0.015210722
000320 5f b7 f3 3d 9a ad 81 bd 35 52 aa bd aa 4f 1e be
       0.1190021 -0.0633194 -0.08316461 -0.15460077
000330 6c 50 b6 bd 2f e5 70 3b 17 99 97 bd 49 77 cc bd
       -0.08902058 0.0036757698 -0.074022464 -0.09983689
000340 de ed ab 3d 7d 55 e1 3d cb 7a d8 bd a6 22 d1 3c
       0.08394979 0.11002634 -0.10570296 0.025529217
000350 c0 d7 d5 3d ea ad cf bc 14 09 e6 bd d8 cc 80 bd
       0.10441542 -0.025351483 -0.112322 -0.06289071
000360 c2 f4 d0 3c 17 d9 1c be ef 05 87 3d 92 cd 8e bd
       0.025507335 -0.15317188 0.065929286 -0.06972803
000370 32 ed 09 3e 93 67 f0 3d d4 da 08 be 5b c7 1e be
       0.13469389 0.11738505 -0.13364726 -0.15505736
000380 9f 99 19 3e 39 62 f5 3d 9c 72 d9 3c 71 a2 92 bd
       0.15000008 0.11981625 0.026543908 -0.071598895
000390 0e 17 1c 3e c1 87 40 be e1 ac 0f 3e 65 45 26 3e
       0.1524317 -0.18801786 0.14030792 0.1623741
0003a0 55 cd 69 bc 71 73 2c be b1 7c d3 bd 0e f6 86 3d
       -0.014270146 -0.16840912 -0.103265174 0.065899
0003b0 5e db 44 3e 2b 04 15 3d 24 18 0b be 1a 6b 0c be
       0.19224307 0.036380928 -0.13583428 -0.13712731
0003c0 34 69 20 be 9f 4d 20 3d 2e a0 3d bd e8 d3 96 bd
       -0.15665132 0.039136525 -0.046295337 -0.07364637
0003d0 ef fa a3 3d 53 43 e8 3c d8 99 be 3d 52 cd 8a bc
       0.08006846 0.028352415 0.09306687 -0.016943607
0003e0 21 4d a7 bc 16 e9 55 bd f1 f3 ec bd b9 00 0c be
       -0.02042252 -0.05222424 -0.11569966 -0.1367215
0003f0 2f 43 ec 3d 13 27 b6 bc c6 e5 c9 bd bf a6 12 be
       0.11536252 -0.022235429 -0.09858279 -0.14321421

conv4.bias f4 [256]
000000 ce c6 f5 bc 5e c3 b7 bc 33 b7 f0 3c 7a cf cb 3c
       -0.030002024 -0.022432026 0.029384231 0.024879206
000010 7b c5 06 3d 15 98 e4 bc d2 5e d0 bb c2 04 fb 3c
       0.032903176 -0.02790455 -0.0063589597 0.030641917
000020 4e bc e2 3c 11 3a ff bc 9b 6c 23 3d d9 f2 e6 bc
       0.027677681 -0.031155618 0.039898496 -0.02819197
000030 87 05 0e 3d 7e 62 1d bd 0d 89 f0 bc ad 6a fe bc
       0.03467324 -0.038424008 -0.029362226 -0.031056726
000040 ea d3 06 bd db a3 e3 3c 20 9f fc bc 20 a6 91 3c
       -0.03291694 0.027788093 -0.030837595 0.01777941
000050 a1 13 fb bc fa 70 0c bd f1 7a fc 3c 34 58 15 3d
       -0.030649008 -0.03428743 0.030820342 0.03646107
000060 1e 7a e6 3c 69 b3 0d bd e7 bf c5 3c 7d 16 04 bd
       0.028134402 -0.034594927 0.024139358 -0.03224801
000070 d9 05 83 3c ac 35 ec bc 59 13 33 bd f9 8a d2 3c
       0.015994 -0.028834186 -0.043719623 0.025701033
000080 9b 7f ec bc 84 34 97 bc 00 70 f0 bc fd 6a d8 3c
       -0.02886944 -0.018457659 -0.02935028 0.026418203
000090 f8 05 fb bc d1 46 55 bc c9 59 d4 3c f3 3c b4 3c
       -0.030642495 -0.013017372 0.02592172 0.02200172
0000a0 c0 e3 03 3d 5c c4 ea 3c 53 20 ed bc 45 18 02 3d
       0.03219962 0.028658085 -0.028946077 0.031761426
0000b0 de 19 28 bd 72 dc dc 3c cf c8 02 3d 54 ce f7 3c
       -0.041040294 0.026960585 0.031929787 0.030249752
0000c0 ac 79 d1 3c df 40 04 3d e4 75 02 bd 17 a3 0a bd
       0.025570713 0.03228843 -0.03185071 -0.03384694
0000d0 f2 8a f7 3c 68 7c f9 bc 76 f1 cb 3c 0f 4e a3 3c
       0.030217621 -0.03045483 0.024895411 0.019934682
0000e0 0c 86 25 3d 40 1b 24 bd 17 41 0c 3d e4 ba cb 3c
       0.04041104 -0.04006505 0.034241762 0.02486939
0000f0 d0 96 1a 3d 43 ca db bc 68 15 de 3c da fe ec bc
       0.037741482 -0.026829844 0.027109817 -0.028930116
000100 d7 de f8 bc d1 20 e5 3c eb 8c be bc f1 af 1c 3d
       -0.030379696 0.02796975 -0.023260554 0.03825373
000110 d2 40 ec bc 5c d6 ef 3c ba 2a e2 3c 34 89 e5 bc
       -0.028839502 0.02927702 0.027608264 -0.028019525
000120 5c d8 9d bc ae 4e f8 bc ef 14 f5 3c a1 c6 01 bd
       -0.019268207 -0.030310955 0.029917208 -0.031683568
000130 12 2b 03 bd 85 85 f9 bc 1a 8e db bc 0d 41 ad 3c
       -0.032023497 -0.030459175 -0.026801158 0.021149183
000140 11 0b 09 bd f8 4b 0b 3d 93 be ed bc c5 54 fd 3c
       -0.03345782 0.034007996 -0.029021537 0.03092421
000150 5a dd be bc 37 2d 02 bd 98 d6 de bc 21 ae 07 3d
       -0.023298908 -0.0317814 -0.027201936 0.033125047
000160 22 ba c4 3c 09 64 c7 bc 76 da cc 3c 1e ea f8 3c
       0.024014536 -0.024339693 0.025006514 0.030385073
000170 02 94 8f bb f0 a2 e3 bc e1 54 84 3c 36 66 f9 bc
       -0.0043816576 -0.027787656 0.016153755 -0.030444246
000180 05 04 31 bd 9b 04 8f 3c fe 89 ea 3c 1a c5 00 bd
       -0.043216724 0.01745825 0.028630253 -0.03143797
000190 68 6b 0a bd 39 98 fa 3c 15 6a a9 bc 8b ba 85 3b
       -0.033793837 0.030590164 -0.020680467 0.0040810755
0001a0 a9 d5 fd 3c 3e af 01 3d 69 56 f7 bc 92 1e e4 bc
       0.03098567 0.031661265 -0.03019257 -0.027846608
0001b0 d3 9e f4 3c e0 f1 f3 bc 93 01 e6 bc 9f d5 0d 3d
       0.02986089 -0.02977842 -0.028076923 0.034627553
0001c0 19 20 bb bc 7e 62 f6 bc 1e a0 f3 bc 29 ef 13 bd
       -0.022842454 -0.030076262 -0.029739436 -0.036116753
0001d0 e8 c4 f2 bc df 56 d4 bc 57 46 fd bc 95 95 a0 3c
       -0.029634908 -0.02592033 -0.03091733 0.019602576
0001e0 1d e2 cc bc 47 44 f2 3c f4 24 fb 3c 72 93 07 3d
       -0.025010163 0.029573573 0.030657269 0.0330996
0001f0 a5 91 02 bd 4d 27 ef bc f5 c4 bb 3c 76 9c 19 bd
       -0.03187718 -0.029193545 0.022921065 -0.03750273
000200 7d 1e d3 3c 33 55 e4 3c a0 86 f1 bc 1e bc e7 3c
       0.025771374 0.027872657 -0.02948314 0.028287943
000210 b3 9e e7 bc 9a 8c 07 3d ab a6 02 bd 35 55 22 bd
       -0.028273916 0.033093072 -0.03189723 -0.03963204
000220 c7 e7 17 3d 75 a6 f2 bc 82 90 ee bc e2 86 f6 3c
       0.037086274 -0.029620389 -0.029121641 0.030093614
000230 17 4d e3 bc 44 73 f9 bc da 69 cc 3c 76 90 ca 3c
       -0.02774672 -0.03045047 0.024952818 0.024727087
000240 bf 1f f6 3c 27 9e e2 bc 27 91 02 3d ac 82 df bc
       0.030044435 -0.027663304 0.03187671 -0.027283989
000250 b6 14 19 3d b8 52 fa bc 37 87 ee 3c 22 ec 1c bd
       0.037373267 -0.030557021 0.02911721 -0.03831113
000260 1b a8 f9 bc de 3b f4 bc 47 5d fe 3c 83 9f e9 3b
       -0.030475667 -0.029813703 0.031050337 0.007129611
000270 54 1a eb bc 61 71 0e 3b c9 ac 11 bd a9 47 38 3c
       -0.028699078 0.002173506 -0.03556517 0.011247554
000280 24 80 d4 3c db c0 b5 bc 93 2c da 3c 36 64 10 3d
       0.025940008 -0.022186687 0.026632583 0.03525182
000290 10 b2 ab bc db d9 8e 3c 97 4d fe bc a7 c2 b0 3c
       -0.02095893 0.017437866 -0.031042857 0.021577192
0002a0 08 ba e5 bc be b9 00 3d ee 4f 0a bd d6 6c fa 3c
       -0.028042808 0.031427138 -0.033767633 0.030569475
0002b0 10 a5 1b bd 91 60 bb 3c 24 07 fa 3c f8 7a 13 bd
       -0.037999213 0.022873195 0.030520983 -0.036005944
0002c0 03 fd c0 bc 84 9b 0e bd ad f2 fd 3b 4c cb 04 bd
       -0.023558145 -0.03481628 0.0077498765 -0.03242044
0002d0 1c b9 9a 3c 5c be 05 bd 88 bc 9c 3c 7b ca db 3c
       0.018887095 -0.032652244 0.019132867 0.026829949
0002e0 d9 cc e9 bc f9 36 ef bc 89 49 3c bd 55 7c eb bc
       -0.028540062 -0.029201018 -0.045968566 -0.02874581
0002f0 4a c8 de 3c 5f fe f1 bc 7a 4a 01 bd 2e 44 f0 3c
       0.027195115 -0.029540239 -0.031565167 0.029329386
000300 bd 7e ea 3c 13 a8 ed 3c 19 52 fb 3c 83 3e f6 bc
       0.028624887 0.029010808 0.030678796 -0.030059105
000310 09 f8 dd 3c ba 8a 01 3d 18 12 1a 3d 80 43 08 bd
       0.027095811 0.03162644 0.03761491 -0.033267498
000320 0f 54 0f 3d 43 4f eb 3c 97 d3 e3 3c a9 e8 0c bd
       0.034992274 0.028724318 0.027810855 -0.03440157
000330 99 a2 09 bd 75 a8 13 3d 5f 21 d0 ba c7 86 09 3d
       -0.03360233 0.036049325 -0.0015879086 0.0335758
000340 30 28 ec 3c c5 c2 0d bd 06 01 e3 3c 47 6b ef 3c
       0.028827757 -0.034609575 0.027710449 0.029225959
000350 1a 45 34 bc 82 89 e4 bc 33 c4 eb 3c 36 4c ea bc
       -0.011002803 -0.0278976 0.028780079 -0.028600793
000360 bb a6 cc 3c 82 b2 8d 3c b1 22 26 3d be de e0 bc
       0.024981847 0.017297033 0.040560428 -0.027449962
000370 3f ae f1 bc 67 18 e5 bc af 1b 27 3d 99 a9 f4 3c
       -0.029502032 -0.027965738 0.040797886 0.029866027
000380 07 c7 c1 bc 44 79 e7 3c b4 d7 01 3d ba f1 e6 bc
       -0.023654474 0.028256066 0.03169985 -0.028191436
000390 fb 45 fb 3c 3c 99 21 3d 06 96 fd 3c 6b 42 2f 3c
       0.030673018 0.039452776 0.030955326 0.010696988
0003a0 3e fd 03 bd 0f 80 01 bd 53 4d 6f 3c 84 4d f3 3c
       -0.032223932 -0.031616267 0.014605838 0.029700048
0003b0 6b bb f7 bc 2f 3d 08 3d ae 48 e6 bc ad df d5 3c
       -0.030240735 0.033261474 -0.028110828 0.026107633
0003c0 88 b3 fb bc 41 6b f1 bc fe 3c ed 3c 95 c6 15 bd
       -0.030725256 -0.029470088 0.028959747 -0.036566336
0003d0 59 0f e1 3c 5d 0e 9a 3c 0e b6 da bc e0 c1 f5 3c
       0.027473139 0.018805677 -0.026698139 0.029999673
0003e0 19 b8 f4 3c 55 0f 9e 3c d4 f2 e7 bc 3c 09 ee 3c
       0.02987294 0.01929442 -0.028314032 0.029057138
0003f0 84 0f d0 bc 52 36 06 bd e0 2b e4 bc 07 a4 f5 bc
       -0.025398023 -0.032766648 -0.027852952 -0.02998544

conv4.lin.weight f4 [256, 128]
000000 85 f2 70 bd 70 27 3f bd b2 81 c3 3d 40 7f e8 3d
       -0.058825035 -0.04666847 0.09546222 0.11352396
000010 31 38 c2 3d 74 de cf bd e8 84 1c be df 04 91 bd
       0.09483374 -0.101498514 -0.15285075 -0.07081007
000020 10 ff b6 bd 56 be be 3d 0c 0c f0 3d 07 2a 49 3d
       -0.08935368 0.093136474 0.11721048 0.049112346
000030 28 db d2 bc 65 74 10 3e ab 88 03 3e 55 07 9e 3d
       -0.025739267 0.14106901 0.12845103 0.07716242
000040 d2 f1 1c bd 80 d8 15 bd e3 f2 88 bd 4b b7 3a 3d
       -0.038316555 -0.036583424 -0.06686952 0.045584958
000050 09 ba 91 3c 80 42 c7 3c 2d 39 01 be 21 a8 ac 3d
       0.017788904 0.024323702 -0.12619467 0.084305055
000060 03 75 eb bd d2 ba 88 bd 69 4e 19 3e 52 42 51 bd
       -0.114969276 -0.06676258 0.14971317 -0.05108864
000070 5c 33 0c 3e 17 3d 7c 3d 99 e5 26 3c 13 ec c2 bd
       0.13691467 0.061581697 0.010186576 -0.09517684
000080 c6 1c 9a 3d 8a 4a 9d bd c5 ee 01 bd c9 62 38 3c
       0.07525019 -0.07680233 -0.03172185 0.011254021
000090 7b 6e 01 be 7c ea 2d bd 8e ea a3 bd 23 86 1d bd
       -0.12639801 -0.04245995 -0.08003722 -0.038458
0000a0 d0 e3 af bd e1 cc 87 3d db 3c f0 bc 2e dd b2 3c
       -0.08588374 0.066308744 -0.029325893 0.021833982
0000b0 6a f7 28 3d f9 62 04 be 36 47 b4 3d 63 73 03 3e
       0.041251577 -0.1292838 0.08802645 0.12836985
0000c0 c6 8e 75 3d 9c 31 fd 3c e5 5e 65 3d 97 28 ea bb
       0.059950612 0.030907445 0.0559987 -0.007145952
0000d0 7c 56 d3 bd 1f 51 57 bd 9c 01 2c 3d f5 0c 17 be
       -0.1031923 -0.052567597 0.041993722 -0.14751036
0000e0 6a 75 9b 3c 52 b7 0f be a5 d1 0c bd 52 4f a4 bd
       0.018976886 -0.14034775 -0.03437962 -0.08022942
0000f0 5b 49 07 bd c4 f7 02 be ad 8c b6 3c 43 a0 94 3d
       -0.03302894 -0.12789828 0.022283876 0.0725713
000100 49 bb 66 3d a5 23 b3 3d 8e 7b 95 bd 71 3b 10 bd
       0.056330953 0.08747033 -0.07298957 -0.035212938
000110 f2 70 51 3d 70 49 55 bb e6 11 aa bd c9 f2 24 3d
       0.051133104 -0.0032544993 -0.08304195 0.0402706
000120 88 4f 1e 3e 6c 9b e6 bc c1 8a 5c bd 67 b4 78 3d
       0.15460026 -0.028150283 -0.053843264 0.06071892
000130 25 f5 ea 3c f6 e1 2a bd 6a 41 5d bd d7 1f 0e be
       0.028681347 -0.0417194 -0.05401746 -0.13879333
000140 ef 0d e3 3d 95 59 55 bd 68 cc a8 3d 1a 78 af 3d
       0.11086642 -0.052087385 0.082421124 0.085678294
000150 8b 84 85 bd dc 3f f9 bb 46 81 ca bd 87 ef 1a be
       -0.06519421 -0.0076064896 -0.09887938 -0.15130435
000160 c7 9a 21 3d f1 2a 56 bd 4d 36 93 bd 81 97 00 be
       0.039454248 -0.052287046 -0.071880914 -0.12557794
000170 ae 40 36 bd 38 90 80 3d d0 fa 53 bd 3b 1f 5b bd
       -0.044495277 0.062775075 -0.051752865 -0.05349658
000180 14 50 b5 3d a0 06 21 bd 51 36 65 bd 71 4e 0a bd
       0.08853164 -0.03931296 -0.055960003 -0.033766214
000190 8e 74 21 3e 33 b1 aa 3d 60 ea 96 3d a6 f7 36 3d
       0.15767118 0.08334579 0.07368922 0.04466977
0001a0 89 ae 0c be 0f de 65 bd a5 ba 37 bc 6c 65 54 bd
       -0.13738455 -0.056119975 -0.011213933 -0.051854536
0001b0 58 0c f2 3c 45 6f 6e bd e7 5d 19 3e 36 ce 20 3e
       0.029546902 -0.058211584 0.14977227 0.15703663
0001c0 de 8b ed 3d b0 13 65 3d 8c b4 2e bd 19 3d 9f 3d
       0.11598943 0.05592698 -0.04265265 0.07775325
0001d0 31 fd 1c be 7e 6a a6 3d 65 a2 03 be 45 fd 86 3c
       -0.1533096 0.081257805 -0.12854917 0.01647819
0001e0 40 c3 b7 bd aa 8a 38 bd de f0 2c 3c 56 f7 37 bd
       -0.08972788 -0.045054115 0.010555474 -0.044913612
0001f0 02 73 b3 bd ca 38 5a 3c 04 bc 0a bd e9 74 21 bd
       -0.087621704 0.013319204 -0.033870712 -0.039418135
000200 e6 d3 a7 3d 6f f9 16 be 86 f2 09 be 0c be 92 3d
       0.08194713 -0.14743589 -0.13471422 0.07165155
000210 1f 57 26 bd d7 0f 69 3d d3 33 2d bd 17 11 04 bd
       -0.04061043 0.05689987 -0.04228575 -0.03224286
000220 ac 6c cb bc e5 35 5d bc 9b 6c 06 be 81 07 1f 3e
       -0.024832092 -0.013501619 -0.13127367 0.15530206
000230 3f 4f 28 3d a8 73 13 be 82 77 91 3d 2e ec 05 bd
       0.0410912 -0.14399588 0.071028724 -0.03269594
000240 6f 9d 60 bb 23 fe b1 3d a1 ec c8 bd 86 24 ef bc
       -0.0034273525 0.08691051 -0.098107584 -0.02919222
000250 07 ec ff bd e7 42 9f 3b 05 41 bb bd 15 ff 02 3e
       -0.124961905 0.0048602703 -0.09143261 0.12792619
000260 7a 61 68 3d 48 61 eb 3d 18 49 c1 bd ab 0d 75 bd
       0.056733586 0.11493164 -0.0943777 -0.059827488
000270 8c 2c 1c 3e 3b 2c ad 3c f7 73 32 bd ca e7 39 bd
       0.15251368 0.021139255 -0.043567624 -0.045387067
000280 3f d0 0e be c4 dd 88 3c ae 35 17 3d ce d5 c6 3c
       -0.13946627 0.016707309 0.036916427 0.024271872
000290 05 38 e3 bd 8f 7c e4 bd 99 f3 bf 3d c5 6e 9d bd
       -0.11094669 -0.1115657 0.093726344 -0.07687143
0002a0 51 44 59 bd 45 d6 9e 3d 90 68 94 3c 26 9c 2f 3c
       -0.053043667 0.077557124 0.018116266 0.010718381
0002b0 c5 bc ae bd 78 7d 2a 3d ad d6 35 3c bf 41 67 3d
       -0.08532099 0.041623563 0.011098546 0.056459185
0002c0 a9 d9 b8 3d 65 b0 1e 3e 03 3c 82 bd cf 72 9b 3d
       0.090258904 0.15496977 -0.063591026 0.075902574
0002d0 d4 17 e2 3d 90 a9 2b 3d db d3 ed 3d 2b c4 61 bc
       0.11039701 0.041909754 0.11612674 -0.01377968
0002e0 76 3d 73 3c 34 68 b6 bd 6c 0e 1b be 87 79 98 3d
       0.014846196 -0.08906594 -0.1514222 0.074450545
0002f0 6e 94 ec 3d 42 66 c5 3d 68 a7 1a bc 2f c0 c5 bc
       0.11551748 0.09638645 -0.009439327 -0.024139492
000300 24 94 0a 3d a2 8f 90 3c 1e 2c 88 3d 41 36 18 3c
       0.033832684 0.017646614 0.0664904 0.009290279
000310 c1 e3 51 3d e5 26 08 be c4 ae 92 bd d2 91 e6 bd
       0.051242594 -0.13296087 -0.0716224 -0.11258282
000320 77 e0 be bd 40 06 09 3d 09 90 79 3b 16 92 be 3c
       -0.09320157 0.033453226 0.0038080236 0.023263019
000330 7c ef 98 bd 9e 10 cb 3c 9b 05 c0 bd 90 00 07 3e
       -0.07467553 0.024788197 -0.09376069 0.13183808
000340 0b 55 bb bd 9f 62 34 3d e5 8a 84 bd 8b a0 5f 3d
       -0.0914708 0.044039365 -0.064718045 0.054596465
000350 b2 86 0b bd 38 e8 90 bd 13 41 b5 3d de dd 28 3c
       -0.034064002 -0.07075542 0.088503025 0.0103068035
000360 38 13 93 bd c8 5f da 3d 9c 55 e3 bc 57 f2 25 3c
       -0.071814 0.106628 -0.027750783 0.010128579
000370 64 fe d7 bc 61 7e 94 bd a3 d0 a8 bd db dc 12 bd
       -0.02636642 -0.07250667 -0.08242919 -0.035855155
000380 ea b5 3a bb 2d dd 1a 3e 98 4d 9f bd f7 a9 91 3d
       -0.0028489777 0.15123434 -0.07778472 0.07112496
000390 b8 b4 1c be 6c 65 45 3d b7 cb bf bd 0e 83 da bd
       -0.15303314 0.048192427 -0.093650274 -0.10669528
0003a0 61 0f 23 bd 6a 5d 11 be 73 e7 2e 3d c2 e1 f9 3d
       -0.03980959 -0.14195791 0.042701196 0.12201263
0003b0 41 ed 6b 3d 49 d6 c7 bb 97 0b b0 bd 71 04 14 3b
       0.05759931 -0.006098543 -0.085959606 0.0022585655
0003c0 c0 39 1d bd b1 c5 63 3d 5c 6c a5 bd a7 b0 3d 3d
       -0.038385153 0.055608455 -0.080773085 0.046311047
0003d0 c3 fe d4 3b 33 6c 83 3d 42 54 1d be 20 c7 8f bc
       0.0065000965 0.06417122 -0.15364173 -0.017551005
0003e0 e3 29 8d 3d cf 31 70 bd 89 d0 e0 3d d1 c0 b8 bb
       0.06892755 -0.05864125 0.10977275 -0.00563822
0003f0 87 41 9a 3d 40 8e df 3d 00 cb 4e bd 7f d6 ca 3d
       0.075320296 0.10915804 -0.050486565 0.09904193

conv5.bias f4 [256]
000000 fd 1b 3c b9 c5 1f b7 b9 4c 62 40 3a 67 04 57 b9
       -0.00017939504 -0.0003492815 0.0007338866 -0.00020505638
000010 76 d5 95 ba 1a 22 a3 ba 93 93 05 ba b9 cf 8c 3a
       -0.0011431414 -0.0012446076 -0.00050955376 0.0010743059
000020 ff e7 b0 ba 33 60 66 39 7d 21 26 39 40 75 5f 3a
       -0.0013496875 0.00021970346 0.00015843469 0.00085242465
000030 3f fa 1d ba 0a 77 90 3a f9 29 eb b9 d7 93 4c b9
       -0.0006026364 0.0011021805 -0.00044853965 -0.0001951003
000040 9b ef cb 39 24 f8 02 3a 9d ab ac ba 33 4d ae 3a
       0.00038897697 0.0004996082 -0.0013173703 0.0013298154
000050 28 2d b0 38 08 ea b0 ba 9a 67 b1 39 71 68 78 b9
       8.400745e-05 -0.0013497481 0.0003383726 -0.0002369003
000060 5b 15 3b 3a de 05 a1 39 09 80 47 ba 73 d6 9f ba
       0.0007136666 0.00030712684 -0.0007610326 -0.0012194648
000070 c5 fd b0 b8 41 74 af 3a a9 39 2d b9 73 fd 88 3a
       -8.439602e-05 0.0013386087 -0.00016520046 0.001045151
000080 07 7f 78 3a cf 8c 13 3a b9 a3 5e 3a 18 42 00 3a
       0.0009479378 0.0005628587 0.00084930245 0.0004892661
000090 6c 9d 61 3a 67 46 ad 3a 3c 41 9d 3a c2 b1 92 37
       0.00086065265 0.0013219834 0.0011997591 1.7487331e-05
0000a0 08 eb 31 ba c9 12 ac ba 68 d5 3a 39 d6 27 04 3a
       -0.00067870365 -0.0013128157 0.00017817842 0.00050413364
0000b0 ba 9c 01 ba 9b bf af ba dc 48 26 3a 05 33 04 39
       -0.00049443136 -0.0013408543 0.00063432544 0.00012607507
0000c0 ed a8 76 39 1e 69 9e 3a ba 03 9a 39 3b aa 32 3a
       0.00023523318 0.0012085771 0.00029375945 0.00068155274
0000d0 b5 44 03 ba 4c cd 87 3a 49 d8 98 ba 21 0b 23 ba
       -0.00050074916 0.0010360866 -0.0011661138 -0.0006219615
0000e0 8d 0a 23 b9 a8 cb 6c b9 5d e2 7b 3a 04 82 85 3a
       -0.00015548822 -0.00022582582 0.0009608621 0.0010185842
0000f0 2a 4f 49 ba 23 60 b0 3a 5f 42 b4 38 f5 c0 a5 ba
       -0.0007679338 0.0013456385 8.5954314e-05 -0.0012646007
000100 b7 79 2d ba 6e fc a4 ba 8f 9b 33 3a 30 f5 ac b9
       -0.0006617563 -0.0012587437 0.0006851488 -0.00032989075
000110 43 88 88 3a e6 26 2e ba 15 8b 9f 3a dd d5 c5 39
       0.0010416586 -0.00066433696 0.0012172187 0.0003773411
000120 3b 25 9d 38 60 c5 b0 ba 5d c3 cc 38 6f 68 a6 3a
       7.493278e-05 -0.0013486557 9.763867e-05 0.0012695919
000130 b5 eb 33 39 89 43 44 3a 27 5c 92 39 13 4c 42 ba
       0.00017158578 0.000748687 0.0002791595 -0.00074118486
000140 97 0c e7 b9 8c f4 87 ba 41 7b 6e b9 5c 01 4c 39
       -0.00044069134 -0.0010372563 -0.00022743364 0.00019455462
000150 74 59 31 ba 63 b7 04 39 da 19 95 ba 54 87 29 ba
       -0.0006765344 0.00012656818 -0.0011375502 -0.0006467004
000160 c3 6e 8c 3a 83 db 58 3a 06 16 8a ba 69 42 12 ba
       0.0010714162 0.0008272456 -0.0010535128 -0.0005579354
000170 52 e8 a9 b9 7b cf c2 37 bb 16 e0 38 c9 b5 e1 b8
       -0.00032407284 2.3223218e-05 0.00010685386 -0.00010762696
000180 ba 75 af 3a 2f e7 05 3a 19 dd 06 ba 89 2b 8a ba
       0.0013386526 0.00051079964 -0.00051446405 -0.0010541539
000190 22 17 8a 39 50 fb 96 39 a0 6c 1f 38 65 3d a7 ba
       0.00026338646 0.00028797472 3.800972e-05 -0.0012759386
0001a0 bf 73 5f ba b9 27 a4 ba cb 0c a4 b8 e8 5d cb 39
       -0.00085240224 -0.0012524045 -7.822512e-05 0.00038789143
0001b0 a5 fe ac ba bc 06 9c b9 91 55 f2 b9 c7 55 23 ba
       -0.0013198449 -0.00029759656 -0.0004622159 -0.00062307384
0001c0 57 ef 85 3a 92 0f b6 b8 bb 18 aa ba 4f 30 1e ba
       0.0010218424 -8.6813365e-05 -0.0012977341 -0.000603442
0001d0 4d 6f 3a 39 0c b9 66 ba bc 45 ae 3a de bb 89 b8
       0.00017779805 -0.0008801378 0.0013295929 -6.567662e-05
0001e0 06 d0 86 3a 84 0f 4a 3a db ad 68 b9 3f 1d 96 38
       0.0010285384 0.00077080005 -0.0002219001 7.158005e-05
0001f0 2f da 75 ba 1f b7 15 ba a6 8f b0 b8 fd a5 01 3a
       -0.000937852 -0.0005711186 -8.4190906e-05 0.00049456937
000200 1a 57 89 b9 32 70 79 b9 be ec b2 3a e0 0a c3 b8
       -0.00026195572 -0.00023788286 0.0013650877 -9.30035e-05
000210 86 27 d1 b9 7c e6 a3 ba 87 d5 c3 39 fa 30 a6 3a
       -0.00039893034 -0.0012504603 0.0003735239 0.0012679391
000220 48 91 a7 38 51 a5 9f ba 7f 75 01 ba 4f b8 61 ba
       7.990241e-05 -0.0012180005 -0.0004938468 -0.0008610533
000230 a1 8e d3 b9 ed a9 40 3a 20 75 a9 3a 7b 3a b0 39
       -0.00040351323 0.00073495397 0.0012928583 0.00033612907
000240 75 a0 9f b6 5b 5d 4d b9 e1 1d c4 b9 2c 13 f3 39
       -4.757249e-06 -0.00019585101 -0.00037406295 0.00046362856
000250 64 7e 1e ba 3d d2 e0 b9 cf f0 b8 b9 bc b0 9e 3a
       -0.00060460554 -0.0004288125 -0.0003527463 0.0012107114
000260 63 85 bc 3a 66 1c 01 ba 25 e5 57 3a 39 e2 08 b9
       0.0014383014 -0.0004925191 0.00082357443 -0.00013054245
000270 90 06 7e b8 44 70 93 39 58 81 2e ba 97 96 4f 38
       -6.056443e-05 0.0002812167 -0.0006656847 4.9492894e-05
000280 62 ef 78 b9 fb a8 35 b9 93 9d 89 3a 3a 5e 08 ba
       -0.000237403 -0.00017324455 0.0010499231 -0.0005202029
000290 1c 4b a9 b9 10 38 9f 3a b1 2f 97 3a b3 3c d3 ba
       -0.00032290153 0.0012147445 0.0011534599 -0.0016116112
0002a0 d3 b9 38 b9 7f da 68 b9 51 1c 4b b8 6b fd af ba
       -0.00017616832 -0.0002220664 -4.8425343e-05 -0.0013426965
0002b0 fa e1 82 3a 29 30 62 ba b5 14 82 3a 3f 16 13 ba
       0.0009985559 -0.0008628392 0.0009924384 -0.000561092
0002c0 c8 f9 1c ba 47 f6 a7 3a bb fa 8e b5 e9 ad 82 3a
       -0.0005988148 0.0012814485 -1.0652797e-06 0.0009970042
0002d0 8a 61 72 3a 6e c9 10 b9 ee 53 1f b8 98 3d ab ba
       0.0009246102 -0.00013807949 -3.798672e-05 -0.0013064621
0002e0 84 4c d4 b8 8f d0 ad b9 6e e7 ac ba 23 46 36 ba
       -0.000101232 -0.0003315252 -0.001319153 -0.00069532
0002f0 ef 4f 8a b9 d4 11 91 39 56 49 97 3a 41 b6 42 b8
       -0.00026380966 0.00027669838 0.0011542242 -4.642294e-05
000300 f8 31 94 ba 30 e6 3d b9 b8 c2 76 39 40 95 06 3a
       -0.0011306396 -0.00018110196 0.00023532927 0.00051339343
000310 1b 63 9d b9 33 b0 c8 38 19 ab 33 37 76 3b 1a b9
       -0.00030019213 9.569563e-05 1.0709068e-05 -0.00014708735
000320 ed 79 cb b9 b6 48 ae b8 80 44 40 ba c8 a9 9e 3a
       -0.0003881002 -8.31051e-05 -0.0007334426 0.0012105042
000330 b0 e6 7b 3a a9 6a 17 3a 58 08 b5 39 9a c9 74 b9
       0.0009609265 0.00057760865 0.00034529227 -0.00023344756
000340 fa e2 f8 38 e7 b6 21 3a 81 59 67 ba de fc 53 3a
       0.00011867839 0.0006168917 -0.0008825288 0.00080866914
000350 f9 74 87 ba 98 b3 b7 38 11 8b 35 3a 9a 5d 85 39
       -0.0010334543 8.759572e-05 0.00069253246 0.00025437475
000360 88 ae d2 b9 99 a9 36 ba bb 75 e6 38 37 02 4e 3a
       -0.00040184357 -0.0006968021 0.00010989184 0.00078586064
000370 82 7d 17 3a 93 b1 16 3a 7d 8e 03 ba d0 75 c9 b9
       0.0005778895 0.00057485065 -0.0005018486 -0.00038425485
000380 0b 1e 06 ba 5d 62 8a 3a e7 80 3b 3a bd d1 e3 b9
       -0.0005116171 0.0010557879 0.0007152692 -0.0004345308
000390 bd 61 0c ba 2b 7f af 3a 70 53 da 39 dc d5 42 ba
       -0.00053551403 0.001338934 0.00041642366 -0.000743238
0003a0 53 8e 9d b9 b4 33 2d ba 42 97 42 3a 29 83 a7 3a
       -0.00030051413 -0.00066071306 0.0007423052 0.0012780178
0003b0 ee 4b 47 b9 66 f1 f3 b9 7d 65 5c b8 7c 93 4a ba
       -0.00019006405 -0.00046528428 -5.2546606e-05 -0.00077276654
0003c0 9c cc 1b 3a 5c ab ec 39 af 65 87 3a 39 17 39 ba
       0.000594327 0.000451411 0.0010329987 -0.00070606504
0003d0 57 93 5b b9 d3 be 84 ba 6a bb 15 3a 23 b1 ab ba
       -0.00020940356 -0.0010127671 0.0005711826 -0.0013099056
0003e0 7c 26 21 3a 0b a1 9e ba ce 2d 86 3a 10 3a 89 ba
       0.0006147397 -0.0012102438 0.001023704 -0.0010469574
0003f0 10 f2 7f 3a a4 c8 db ba 43 6a c5 39 44 02 16 3a
       0.0009763548 -0.001676817 0.0003765394 0.00057223835
