weights/6-7-0-yfp_split_2.pt (torch, 473545 bytes, 26 tensors)

conv1.bias f4 [64]
0	0x3aabc13a	0.0013103851
1	0xba5a48b1	-0.0008326872
2	0x3a92c58e	0.0011197792
3	0x3aa998eb	0.001293925
4	0x3a85177d	0.0010154095
5	0xba244fc4	-0.00062679895
6	0xba571b6f	-0.0008205687
7	0x393ade8c	0.00017821247
8	0x38919bc2	6.943151e-05
9	0xb9e2d9fe	-0.00043268496
10	0x348f8cd4	2.6738292e-07
11	0xba643821	-0.00087058736
12	0x3a3819f7	0.0007022912
13	0xba9d185f	-0.0011985413
14	0xbaad50f0	-0.0013222974
15	0x3a0ea2f0	0.00054411497
16	0xbaae8e49	-0.0013317551
17	0x3a8e1a81	0.0010841639
18	0x392ca81b	0.00016465822
19	0x3a8ad196	0.0010591026
20	0xb9df974b	-0.00042646597
21	0xb93b93db	-0.0001788879
22	0xba59c762	-0.00083076034
23	0xba8c4785	-0.0010702467
24	0x3a6da8ab	0.0009065966
25	0x3a915e73	0.001109077
26	0xb9e9a6b4	-0.00044565427
27	0xbab0e701	-0.0013496579
28	0x3aaa04fb	0.0012971455
29	0xb985c22f	-0.00025512415
30	0xba8a7912	-0.0010564646
31	0xb8b7bb0f	-8.7609624e-05
32	0xba40e0a0	-0.00073576905
33	0x3a97d84e	0.001158485
34	0x3a8a0c17	0.0010532168
35	0x39dbd757	0.00041931376
36	0xba24715c	-0.00062729954
37	0x3aafc410	0.0013409872
38	0x399487b1	0.00028329858
39	0xba5645b7	-0.00081738405
40	0x3a69b87e	0.0008915736
41	0xb83bd9b6	-4.4787033e-05
42	0xbaa18128	-0.0012321817
43	0x39f6cae3	0.0004707194
44	0x399587ff	0.0002852082
45	0x3a6a90f6	0.00089479925
46	0xb96b7775	-0.00022455848
47	0x3a275ad8	0.0006384081
48	0xba7d56a2	-0.00096640934
49	0xba03c24a	-0.0005026205
50	0xbaace23f	-0.0013189985
51	0xba834fce	-0.001001829
52	0xba3416cd	-0.00068698527
53	0x3aa632d3	0.0012679942
54	0xba854197	-0.0010166642
55	0x37eaddd8	2.7998278e-05
56	0x3a8a9ebe	0.0010575873
57	0xb81e8e8f	-3.7802904e-05
58	0xb97afad3	-0.00023935297
59	0x3a5b676e	0.0008369599
60	0x3aa98472	0.0012933149
61	0x39ddeec6	0.00042330305
62	0xba2ef728	-0.00066744024
63	0xb8ac5312	-8.217072e-05

conv1.lin.weight f4 [64, 2]
0	0xbe3a4c33	-0.1819313
1	0xbdddedb2	-0.108363524
2	0xbc091a93	-0.008368152
3	0x3e4d37e5	0.20040853
4	0x3d96e427	0.07367735
5	0xbabb0a51	-0.0014270042
6	0xbdbf401c	-0.093384
7	0xbbbb2c58	-0.0057120733
8	0xbd0c7548	-0.034291536
9	0xbdc8dddd	-0.09807942
10	0x3e4cc29a	0.1999611
11	0x3e48b89d	0.19601674
12	0x3c8bd415	0.017068902
13	0x3e33db81	0.17564203
14	0xbd9e1ce9	-0.07720358
15	0x3e5c5923	0.21518378
16	0x3dcb725c	0.09933922
17	0xbd4109d5	-0.047128517
18	0x3d11d8dd	0.035607208
19	0x3e2e95d2	0.1704934
20	0xbdc97db9	-0.09838433
21	0x3dc74b38	0.09731144
22	0x3d0cc5a4	0.034368172
23	0xbe330cd7	-0.17485367
24	0xbd1178b3	-0.0355155
25	0xbc9b60dc	-0.018967085
26	0x3e21d83d	0.15805145
27	0x3cf18457	0.02948205
28	0xbdd02a5e	-0.10164331
29	0xbe032825	-0.12808283
30	0x3e64b22f	0.22333597
31	0x3e4b0a25	0.19828089
32	0xbe501a6a	-0.20322576
33	0xbc126cb0	-0.008937046
34	0x3d78008c	0.060547397
35	0xbe830868	-0.2559235
36	0x3c9d1ce5	0.019178817
37	0x3ea0564a	0.31315833
38	0xbd8afe4c	-0.067867845
39	0x3e973434	0.29532015
40	0x3e8c5741	0.2741032
41	0x3da38ae9	0.079854794
42	0xbe824382	-0.2544213
43	0x3dcd4cd2	0.10024418
44	0xbe3c5fba	-0.18395892
45	0xbe265840	-0.16244602
46	0x3e72aefa	0.23699561
47	0x3ca390f1	0.019966574
48	0x3e57ac04	0.21061713
49	0x3d86db37	0.06584781
50	0xbe000e3b	-0.12505428
51	0xbdb9571d	-0.09049819
52	0x3e373806	0.17892465
53	0x3dfdcf86	0.123930976
54	0xbe29cf3b	-0.16582958
55	0xbded29c6	-0.11580233
56	0x3de5e664	0.11225584
57	0xbe63cac4	-0.22245318
58	0x3d01f6e4	0.031729594
59	0xbd288ece	-0.041151814
60	0xbde4f32e	-0.11179195
61	0xbe7bb759	-0.2458166
62	0xbe873b8c	-0.26412618
63	0x3e0f10ad	0.13971205
64	0x3e0c27ed	0.13687105
65	0x3e20c6c8	0.15700829
66	0x3ea4e71f	0.3220758
67	0xbdcbf373	-0.09958544
68	0xbe6e6c7c	-0.23283571
69	0x3e5dab32	0.21647337
70	0x3e25c8d4	0.16189891
71	0x3e11d1f1	0.14240243
72	0x3b2e1021	0.0026559907
73	0x3d7cd47a	0.06172607
74	0x3d9f216c	0.077700466
75	0xbcc5562c	-0.024088942
76	0x3e3c82dd	0.18409295
77	0x3e5a59e8	0.21323359
78	0xbe821dc9	-0.2541335
79	0x3e9ac48f	0.30228087
80	0xbe7703e2	-0.24122575
81	0x3e95ba3b	0.29243645
82	0x3e1d55fa	0.15364829
83	0xbbdded07	-0.0067726406
84	0xbe4a4cb5	-0.19755824
85	0xbe37091f	-0.17874573
86	0x3d353a07	0.044244792
87	0x3e6f169e	0.23348472
88	0xbdda39db	-0.10655566
89	0x3e8b3605	0.2718965
90	0xbe8215cb	-0.25407252
91	0x3e7dfa20	0.24802446
92	0x3ea15a19	0.31514052
93	0x3d935489	0.07193858
94	0x3cbef22e	0.02330884
95	0xbe41e06e	-0.1893327
96	0xbcee57ff	-0.029094694
97	0x3c3524c5	0.01105613
98	0x3d932752	0.07185234
99	0x3d6d0d3a	0.057873942
100	0x3e6e56dc	0.23275322
101	0x3ccdaa00	0.025105476
102	0x3e26a566	0.16274032
103	0x3ae90f35	0.0017781021
104	0xbe1d4550	-0.15358472
105	0x3e78528f	0.24250244
106	0xbd52914e	-0.051408105
107	0x3dc22796	0.09480207
108	0x3e89cd57	0.26914474
109	0xbd202536	-0.039097987
110	0xbb9f41f6	-0.004860158
111	0xbe2c0bdf	-0.16801403
112	0xbe24f657	-0.16109596
113	0x3e4fc2e4	0.20289189
114	0xbe1a442b	-0.15065067
115	0x3e865223	0.2623454
116	0x3e8159d8	0.25263858
117	0x3c72c1e9	0.01481674
118	0x3e77a049	0.24182238
119	0x3d3941be	0.045228712
120	0xbd1b709a	-0.037949182
121	0x3e7f3070	0.24920821
122	0xbe06aef3	-0.13152675
123	0xbe8bb85a	-0.27289087
124	0x3e17d913	0.14828901
125	0xbe34972c	-0.17635792
126	0xbe9b739c	-0.3036164
127	0x3dfd3b30	0.12364805

conv2.bias f4 [64]
0	0xbcdf2050	-0.027237087
1	0x3cd80f28	0.026374415
2	0x3ce8744d	0.028375769
3	0x3ced4851	0.028965147
4	0x3ced4da5	0.028967688
5	0x3ca18aac	0.019719444
6	0x3ce28cf9	0.027655112
7	0xbce7a737	-0.028277976
8	0x3cec8831	0.028873535
9	0x3cdbfaa4	0.026852913
10	0xbcdd7449	-0.027032988
11	0xbcded902	-0.027203087
12	0xbcf315e5	-0.029673526
13	0x3cdb8458	0.026796505
14	0x3d1c6e0c	0.038190886
15	0xbba1f3af	-0.0049423794
16	0x3bf730d2	0.0075436616
17	0xbd239bf9	-0.03994367
18	0x3ce86314	0.028367557
19	0xbc493c2c	-0.0122824125
20	0x3ca39c60	0.019972026
21	0xbc910dd1	-0.017706783
22	0x3d23132a	0.0398132
23	0x3ceef917	0.02917151
24	0xbcf0f4fa	-0.029413689
25	0x3d1a5656	0.037679993
26	0x3c92a849	0.01790251
27	0xbcf3efc1	-0.02977741
28	0xbd03e92e	-0.0322048
29	0x3ce69d01	0.028151037
30	0xbd086c26	-0.033306263
31	0xbd139604	-0.036031738
32	0xbd032942	-0.03202177
33	0x3cd6af89	0.026206749
34	0x3cee81e4	0.029114671
35	0x3d1032ae	0.035204582
36	0xbcf760b0	-0.030197471
37	0x3d1adc09	0.037807498
38	0x3ce60827	0.02808006
39	0xbcf59674	-0.029978968
40	0x3cc6bb54	0.024259247
41	0xbcdfea86	-0.02733351
42	0x3ce4ece0	0.027944982
43	0xbca18231	-0.0197154
44	0xbc743249	-0.014904567
45	0xbd15acf9	-0.036541913
46	0xbce2db2f	-0.027692406
47	0x3cbece07	0.0232916
48	0xbcf3ce69	-0.02976151
49	0x3ce0cb1b	0.027440598
50	0x3ced5828	0.0289727
51	0x3cdac707	0.026706232
52	0x3d387734	0.045035556
53	0xbcbd1bdd	-0.023084575
54	0xbd02423c	-0.031801447
55	0xbce82c1d	-0.028341347
56	0xbcfd578b	-0.030925533
57	0xbcee4297	-0.029084487
58	0x3c975a20	0.018475592
59	0x3cde64b8	0.027147636
60	0x3d0683eb	0.03284065
61	0xbcf095c2	-0.029368285
62	0x3cc4fc4b	0.024046084
63	0x3b320dbf	0.0027168838

conv2.lin.weight f4 [64, 64]
0	0x3d8c6976	0.068560526
1	0x3beb890c	0.007187968
2	0xbe2e089d	-0.16995473
3	0xbd2f9c2e	-0.042873554
4	0xbce7701d	-0.028251702
5	0x3cf3cf4e	0.029761937
6	0x3df8a577	0.12140935
7	0xbcf88145	-0.030335078
8	0xbd8a870b	-0.06764039
9	0xbdb0bee2	-0.08630158
10	0xbd7183ce	-0.05896359
11	0xbdda2ec4	-0.10653451
12	0xbe07be22	-0.13256124
13	0xbd5719ae	-0.052514724
14	0x3d68fab0	0.0568797
15	0xbe594352	-0.21217087
16	0x3e3780b4	0.1792019
17	0x3e31bb3c	0.1735658
18	0x3e0da0ba	0.13830844
19	0xbd0b1c40	-0.03396249
20	0xbe704ccc	-0.23466796
21	0x3daf3786	0.08555512
22	0xbe13acf9	-0.14421453
23	0x3e16f885	0.1474324
24	0x3e3b71c9	0.18305124
25	0xbe230fe3	-0.15924029
26	0xbe1f8ff8	-0.15582263
27	0xbe32d3ea	-0.17463651
28	0xbdbfe8e8	-0.09370595
29	0x3c38cf83	0.011279943
30	0xbdc04f8f	-0.093901746
31	0xbdc49e6e	-0.096005306
32	0xbb8361a8	-0.0040094443
33	0x3dc16f8d	0.09445105
34	0xbd827f86	-0.063719794
35	0xbdc8a147	-0.09796386
36	0x3d838e2c	0.064236015
37	0xbe65bfdd	-0.22436471
38	0x3d2e3d25	0.04253878
39	0x3dec66c6	0.1154304
40	0x3dd3139b	0.10306474
41	0xbdb76b1d	-0.08955977
42	0x3e69df76	0.2283915
43	0xbd2b4c92	-0.04182107
44	0x3e7b5c94	0.24547035
45	0xbddc9076	-0.10769741
46	0xbd2f9bd6	-0.042873226
47	0x3e19aa05	0.15006264
48	0x3e795f15	0.24352677
49	0xbe0a6f5f	-0.13519047
50	0x3d95aafc	0.07308003
51	0x3d8fa281	0.07013417
52	0xbd86ae35	-0.06576196
53	0x3da450d7	0.080232315
54	0x3df7b7f8	0.12095636
55	0x3d3b72b1	0.045763675
56	0xbe33badb	-0.17551748
57	0xbd9cc7f8	-0.076553285
58	0x3dea06b2	0.11427058
59	0x3e3537c3	0.17697053
60	0xbbdaa563	-0.0066725477
61	0x3e03366f	0.12813734
62	0xbe4433d3	-0.19160394
63	0xbde6f332	-0.112768546
64	0xbda4b3d9	-0.08042116
65	0x3d9ad9ac	0.07561049
66	0x3e4b993d	0.19882675
67	0xbe381698	-0.17977369
68	0xbdbd14d3	-0.092324875
69	0xbde3fa6b	-0.11131748
70	0x3dfe7b02	0.12425806
71	0xbe22db55	-0.15903981
72	0xbe3fec27	-0.18742429
73	0x3dd3eb4c	0.10347614
74	0xbd5f6ea2	-0.054548867
75	0xbd17906a	-0.03700296
76	0xbd8a62f2	-0.067571536
77	0xbcfb5623	-0.030680722
78	0x3e175edf	0.14782284
79	0xbd900c7a	-0.0703363
80	0xbdf35b3e	-0.118826374
81	0xbdac96bf	-0.0842719
82	0xbd775b92	-0.060390063
83	0x3e1fae36	0.155938
84	0xbdd73a3d	-0.10509155
85	0x3e4d8bcd	0.20072861
86	0xbdbf660c	-0.09345636
87	0x3e650928	0.22366774
88	0xbe3cf6b8	-0.1845349
89	0xbdeee0c6	-0.11663966
90	0x3de9d4e2	0.11417557
91	0xbe27bf19	-0.16381492
92	0xbdb2d5c3	-0.08732178
93	0x3b24e1f6	0.0025159097
94	0x3e58d13f	0.21173571
95	0x3bcdb757	0.0062779593
96	0x3e39cd48	0.18144715
97	0x3d9e421a	0.077274516
98	0xbd5ee09e	-0.05441343
99	0x3d78cd63	0.060742747
100	0xbe154f6e	-0.14581081
101	0x3e47cb64	0.19511181
102	0x3e2e5838	0.1702584
103	0x3e60080a	0.21878067
104	0x3dfe6732	0.12422027
105	0xbe08b4e5	-0.13350256
106	0xbe358207	-0.17725383
107	0x3d99990b	0.07499894
108	0xbb4fc040	-0.0031700283
109	0xbc2b235e	-0.010445444
110	0x3ce066db	0.027392795
111	0x3e2b13c8	0.16706765
112	0x3d9ccd9e	0.07656406
113	0x3e5db666	0.2165161
114	0x3e4e07ec	0.2012021
115	0xbe230e74	-0.15923482
116	0x3d4f9618	0.05068025
117	0x3e606534	0.21913606
118	0x3d873479	0.06601805
119	0x3e02670e	0.12734625
120	0xbc5021b9	-0.012703353
121	0x3dff9b1d	0.124807574
122	0xbd968a84	-0.073506385
123	0x3e014d58	0.1262716
124	0x3e68a8f3	0.22720699
125	0xbc1b5033	-0.00947957
126	0x3e01e6bb	0.12685673
127	0xbe2b111b	-0.16705744
128	0x3e0bfd30	0.13670802
129	0xbd4cf444	-0.050037637
130	0x3db20646	0.08692603
131	0x3e01f639	0.12691583
132	0x3e318410	0.17335534
133	0xbdf736d7	-0.12071007
134	0x3cb248b8	0.02176319
135	0xbe1a210f	-0.15051673
136	0x3e586e96	0.21135935
137	0x3d65f3e1	0.056140784
138	0xbe58f7b6	-0.21188244
139	0x3e0a5177	0.13507639
140	0xbdbc7f17	-0.09203928
141	0x3e2cc9a5	0.16873796
142	0x3df05a84	0.117360145
143	0x3e4cd499	0.20002975
144	0x3dc096a8	0.094037354
145	0xbac902b4	-0.0015335889
146	0xbc0c7fdf	-0.008575409
147	0x3e1a8421	0.15089466
148	0xbdfbae57	-0.12289112
149	0xbccd9187	-0.025093807
150	0x3b35697a	0.0027681277
151	0x3dff9b23	0.12480762
152	0x3e4e2758	0.20132196
153	0xbe343b63	-0.17600779
154	0x3e5b4ada	0.21415272
155	0x3e509342	0.20368674
156	0x3e4e6c1e	0.20158431
157	0xbbf6caf2	-0.007531517
158	0xbd8b64db	-0.06806346
159	0xbe235b5a	-0.15952817
160	0xbdf582fd	-0.11987875
161	0x3ddf1fa1	0.108947046
162	0xbe5df59a	-0.21675721
163	0x3bd05933	0.0063582896
164	0xbe1ce512	-0.15321758
165	0x3e0dac51	0.13835265
166	0xbe359b4e	-0.17735025
167	0x3e0f33c0	0.13984585
168	0xbcaaa903	-0.020832544
169	0x3e2aa168	0.16663134
170	0x3d9b0ca7	0.075707726
171	0xbd237552	-0.039906807
172	0xbe1d506e	-0.15362713
173	0x3d8fc60e	0.07020198
174	0x3e617cc8	0.22020257
175	0xbd658470	-0.056034505
176	0x3dc8c6c4	0.098035365
177	0x3e079641	0.13240911
178	0xbe1efba5	-0.15525682
179	0xbded6806	-0.115921065
180	0x3da77aa7	0.08177691
181	0xbe1047c6	-0.1408988
182	0x3d5a4c54	0.05329545
183	0xbd5edf29	-0.05441204
184	0xbbbeca35	-0.005822445
185	0xbdef4980	-0.11683941
186	0x3c338df5	0.010959138
187	0xbe2790f7	-0.16363893
188	0xbd02fc31	-0.03197879
189	0xbdc58fa6	-0.096465394
190	0xbe3a1941	-0.18173696
191	0x3d909857	0.070603065
192	0x3dae9d11	0.08526052
193	0xbdf90362	-0.12158848
194	0xbe5fb7da	-0.21847478
195	0x3e521300	0.2051506
196	0x3d73b478	0.05949828
197	0xbd7009d5	-0.058603127
198	0x3de3fb1e	0.11131881
199	0xbcf9e90c	-0.030506633
200	0xbdda5481	-0.10660649
201	0x3dcc8f16	0.09988229
202	0xbbda8320	-0.0066684633
203	0xbe58d956	-0.21176657
204	0xbe084c7c	-0.13310426
205	0xbce2b9ee	-0.027676549
206	0xbd5694a5	-0.052387852
207	0x3d3f458f	0.046697196
208	0x3ccb8d17	0.02484755
209	0xbe29522d	-0.16535254
210	0x3e1f43ad	0.1555316
211	0x3e3352c2	0.17512038
212	0xbbb7ffb9	-0.0056152013
213	0xbc928fa2	-0.017890755
214	0x3e1c6e67	0.1527649
215	0xbda437c4	-0.08018449
216	0xbd080131	-0.03320426
217	0x3cb580b6	0.0221561
218	0x3e6305ca	0.22170177
219	0xbdf85feb	-0.1212767
220	0xbd5b75f7	-0.053579297
221	0xbe33f89e	-0.17575309
222	0x3e13347f	0.14375494
223	0xbe3571f6	-0.17719254
224	0x3de6fe26	0.11278944
225	0xbdebf135	-0.11520616
226	0x3e2a0b68	0.16605914
227	0x3e1ecfcc	0.15508956
228	0xbe3d8c40	-0.18510532
229	0x3d42cc88	0.047558337
230	0x3e4a84ef	0.19777273
231	0x3e2ae7ba	0.16689959
232	0x3e2411aa	0.16022363
233	0xbd49cffc	-0.049270615
234	0xbe77bc58	-0.24192941
235	0xbc13d68d	-0.009023321
236	0x3d2e03a0	0.042483926
237	0x3c88a78d	0.016681457
238	0xbe164a90	-0.14676881
239	0xbe668565	-0.22511823
240	0x3e09387b	0.13400452
241	0xbde5c748	-0.112196505
242	0xbe623a2b	-0.22092502
243	0x3c863844	0.016384251
244	0x3e38ea95	0.18058236
245	0x3e4e5531	0.20149685
246	0x3cc74e64	0.024329372
247	0xbe137d7e	-0.1440334
248	0x3d7b3d09	0.061337505
249	0x3e62d9e2	0.22153428
250	0xbe136c75	-0.14396842
251	0xbe49b343	-0.19697289
252	0xbb49e905	-0.0030809056
253	0x3b643d3f	0.0034826545
254	0x3e0d4cde	0.13798854
255	0x3d267a9c	0.040644273

conv3.bias f4 [128]
0	0xba9d37d2	-0.0011994785
1	0xba8bb705	-0.0010659402
2	0x3ad33326	0.0016113266
3	0xba1fbf23	-0.000609385
4	0x39c8090c	0.00038153713
5	0x38acd6cd	8.241609e-05
6	0x3ad6ca95	0.0016387278
7	0xb991fbc2	-0.0002784413
8	0x35e9bde4	1.7415118e-06
9	0x3a864913	0.0010245166
10	0x3990ab81	0.000275936
11	0x38f59895	0.00011710931
12	0xb990c312	-0.0002761116
13	0xba7d3f4c	-0.0009660616
14	0x3aa8ae76	0.0012869376
15	0x3a977ef6	0.0011558223
16	0x3aaac7e4	0.0013029543
17	0xb895bc19	-7.1399096e-05
18	0xb9888fc5	-0.00026047058
19	0x3a472162	0.0007596222
20	0xb8238231	-3.898348e-05
21	0xbaa556f2	-0.0012614413
22	0xbab0c122	-0.0013485292
23	0xb9815971	-0.00024671436
24	0x3aafbe4b	0.0013408152
25	0x38a018c9	7.634011e-05
26	0x3adbcdff	0.0016769766
27	0x3a863797	0.0010239956
28	0x3ad33a0b	0.0016115321
29	0xbaa4508b	-0.0012536211
30	0x3ab06103	0.0013456646
31	0x39062fe1	0.00012797072
32	0x39725c9c	0.00023113418
33	0xbaa3b955	-0.0012491146
34	0xb8b22927	-8.495367e-05
35	0xbab752fa	-0.0013986521
36	0xba57c7a8	-0.000823135
37	0x3947439f	0.0001900331
38	0x398464b5	0.00025252035
39	0x3a5cb76a	0.0008419665
40	0xb9ee16fc	-0.00045412022
41	0xbaa6c557	-0.0012723607
42	0xba3358b4	-0.0006841526
43	0x3aced5ae	0.0015780234
44	0x3acd48da	0.001566197
45	0xb9aa45d4	-0.00032476953
46	0x3905d951	0.00012764825
47	0xba360390	-0.000694328
48	0xbacd5123	-0.0015664439
49	0x3a140d7f	0.0005647763
50	0xba897035	-0.0010485711
51	0xbaa77ab3	-0.0012777656
52	0x3adc5a23	0.0016811531
53	0xbacaebc9	-0.0015481646
54	0x397d1625	0.0002413621
55	0xba5073cd	-0.0007951826
56	0x3a0914d2	0.0005229238
57	0xb9c6f641	-0.00037948976
58	0x3950b99c	0.0001990557
59	0xbab5a6d1	-0.0013858919
60	0xb9369170	-0.00017411052
61	0xba3b91ef	-0.00071552297
62	0x3a7c33f5	0.00096207793
63	0xb8d09f06	-9.947833e-05
64	0x3ac571aa	0.0015063782
65	0x3a879e9b	0.0010346951
66	0xb7bf9c9c	-2.2841901e-05
67	0xb91cc250	-0.00014949706
68	0x3a9a83d8	0.001178856
69	0xb9cfc249	-0.0003962687
70	0x3ad84279	0.0016499303
71	0xb93bf962	-0.00017926612
72	0x3a3500b8	0.0006904709
73	0xbab02dc6	-0.0013441376
74	0xb89f811c	-7.605759e-05
75	0xba31daeb	-0.00067846355
76	0xbac3d435	-0.0014940562
77	0x3aafb6fb	0.0013405973
78	0x3a77ee42	0.00094578054
79	0x3ab02ced	0.0013441123
80	0x3aa54b9e	0.0012611037
81	0xba9090db	-0.0011029498
82	0xb83c7b97	-4.4937795e-05
83	0xb9eca524	-0.00045136467
84	0x39fbb8b9	0.0004801208
85	0x3a81491a	0.0009863705
86	0x39cb86f6	0.0003881973
87	0xb9ae8f0d	-0.00033294447
88	0xba409ade	-0.0007347296
89	0x3adbbfca	0.0016765532
90	0xb8bef7d3	-9.106067e-05
91	0x3971dc8c	0.00023065711
92	0xb9cb8f60	-0.00038826
93	0x3a01b1ec	0.0004947472
94	0x38e6841e	0.000109918634
95	0xbaae8dbd	-0.0013317388
96	0xb97dc2de	-0.00024200554
97	0x398e5393	0.00027146618
98	0xbabe826a	-0.0014534716
99	0xb90035a0	-0.00012227008
100	0xbadc768a	-0.0016819995
101	0xb9f84089	-0.00047350329
102	0x3aa27528	0.0012394534
103	0x3a591514	0.0008281034
104	0xba4ab49c	-0.00077326014
105	0xb973a399	-0.00023235231
106	0x377d51f1	1.5099054e-05
107	0xba96d473	-0.0011507407
108	0xba7f080f	-0.0009728679
109	0x3a881536	0.0010382298
110	0x398ec87b	0.0002723372
111	0xb9f4902e	-0.0004664673
112	0xb9acecc9	-0.00032982815
113	0xba9f4514	-0.0012151324
114	0x3a7cc6c5	0.0009642656
115	0x3aa529c6	0.001260095
116	0xb8d8faae	-0.00010346375
117	0xbaa80367	-0.0012818397
118	0x3a7e066d	0.00096902886
119	0x3a13c1eb	0.0005636501
120	0xbaa0f5d6	-0.0012280296
121	0xb92e3391	-0.00016613143
122	0xb8a36f46	-7.793172e-05
123	0x37e86410	2.770315e-05
124	0x3ac9b634	0.0015389384
125	0x3a36774d	0.0006960526
126	0x3acd4e5b	0.001566361
127	0xbaa32ce7	-0.0012449295

conv3.lin.weight f4 [128, 64]
0	0xbd723e99	-0.05914173
1	0xbe4b74bc	-0.1986875
2	0xbd74bbdf	-0.05974948
3	0xbe414120	-0.188725
4	0x3d3b22fa	0.045687653
5	0x3e440ffb	0.19146721
6	0x3e104346	0.14088163
7	0xbe05bdf4	-0.13060743
8	0xbda983dc	-0.08277103
9	0xbe022c0b	-0.12712114
10	0xbdb8feb3	-0.09032955
11	0xbdc670dc	-0.09689495
12	0x3e069c54	0.13145572
13	0x3e3712e1	0.17878295
14	0xbd7587f7	-0.05994412
15	0xbe128371	-0.14307953
16	0x3d2c2d75	0.04203554
17	0x3d4fada2	0.0507027
18	0xbd7e86e8	-0.062140375
19	0xbe16b0be	-0.1471586
20	0x3cd93d25	0.026518414
21	0xbdc72a3e	-0.09724854
22	0x3d8e232c	0.06940302
23	0x3d87627d	0.06610582
24	0x3d8e1947	0.06938415
25	0xbe05e0c9	-0.1307403
26	0x3d2d51a2	0.04231418
27	0x3cdfe156	0.027329128
28	0xbd9e8ddf	-0.077419035
29	0xbe397e10	-0.18114495
30	0x3d932d4b	0.07186373
31	0x3d7379d2	0.05944235
32	0xbd944407	-0.07239538
33	0xbcac4268	-0.021027759
34	0xbc852e46	-0.016257416
35	0x3c99361d	0.018702561
36	0x3dead08f	0.11465561
37	0xbd004730	-0.03131789
38	0x3e25ed74	0.16203862
39	0x3c5e3241	0.013561786
40	0x3ce57daf	0.028014032
41	0xbe2ec5db	-0.17067663
42	0x3e39a7e5	0.18130453
43	0xb9f9b4a7	-0.00047627577
44	0x3de8c9cf	0.11366617
45	0x3cfc5427	0.030801846
46	0xbd64c050	-0.055847466
47	0x3d9f06e1	0.07764984
48	0x3d910311	0.07080663
49	0xbdff23a6	-0.12457971
50	0x3d08ab00	0.033366203
51	0x3d7bcedf	0.061476585
52	0x3d575b1c	0.052577123
53	0xbca76ec7	-0.020438565
54	0x3dac0e6f	0.084011905
55	0xbd093545	-0.033498067
56	0xbc958225	-0.018250534
57	0xbda3ad8e	-0.07992087
58	0x3d18f114	0.037339285
59	0xbe137c71	-0.1440294
60	0xbe095650	-0.13411832
61	0xbdeb0b38	-0.11476749
62	0x3e3be805	0.18350227
63	0x3d1a302d	0.0376436
64	0xbd979e4c	-0.074032396
65	0xbe23a314	-0.15980178
66	0x3dba5cd0	0.09099734
67	0xbda6cd1a	-0.08144589
68	0x3c3b2f75	0.011424889
69	0xbd65f613	-0.056142878
70	0xbdcb7629	-0.09934647
71	0x3dd81284	0.105504066
72	0xbdde181d	-0.10844443
73	0xbc16b873	-0.00919925
74	0xbe3987e6	-0.18118247
75	0x3d0e684f	0.034767445
76	0x3d1e04f6	0.03857895
77	0x3c36e941	0.0111640105
78	0xbd2fcfdb	-0.042922836
79	0x3e33da27	0.17563687
80	0xbbe94fa2	-0.0071200887
81	0xbda9ca2c	-0.08290514
82	0xbe272baf	-0.16325258
83	0xbe0f266c	-0.139795
84	0x3de6fdcd	0.112788774
85	0xbdaf0cdc	-0.085473746
86	0xbe014e90	-0.12627625
87	0x3cea7eeb	0.028624972
88	0x3ce84fa3	0.028358286
89	0x3e1b02a9	0.15137734
90	0xbdd36a86	-0.10323052
91	0xbe1df569	-0.15425648
92	0x3dd844f1	0.105600245
93	0x3c3748ec	0.0111868195
94	0x3cc2463a	0.023715127
95	0xbdd142e1	-0.10217834
96	0x3d0cbaeb	0.034357946
97	0x3b418975	0.0029531394
98	0x3d81c5c6	0.063365504
99	0xbe29f8fd	-0.16598888
100	0x3de85ece	0.113462076
101	0x3e246380	0.16053581
102	0xbd8a0e04	-0.067409545
103	0x3e28b3aa	0.16474786
104	0x3de916f5	0.11381332
105	0x3defd05a	0.11709662
106	0xbdbc4530	-0.09192884
107	0xbc6bf11d	-0.014400748
108	0xbd1f53a5	-0.03889813
109	0xbe0a042b	-0.13478152
110	0xbe178f20	-0.14800692
111	0xbddb218b	-0.10699757
112	0x3d55ccde	0.05219733
113	0x3d9d9ce3	0.076959394
114	0x3ce90e65	0.028449247
115	0xbd43442d	-0.04767244
116	0x3dd56651	0.10419906
117	0x3de2d771	0.110762484
118	0xbddbe83d	-0.10737655
119	0x3d27193d	0.040795553
120	0xbe4b90f3	-0.19879512
121	0x3e11f95c	0.1425528
122	0xbdd769f5	-0.105182566
123	0xbd504ea3	-0.050856244
124	0x3d246e42	0.040144213
125	0xbdd8e980	-0.105914116
126	0x3e05d3ba	0.13069049
127	0x3d1bc640	0.038030863
128	0x3ce77cfe	0.028257843
129	0xbd35d5c5	-0.04439332
130	0x3dff4f72	0.12466325
131	0xbdef211a	-0.116762355
132	0xbda10b3c	-0.07863471
133	0x3dbc2ff1	0.091888316
134	0x3e2029ef	0.15640996
135	0xbd389986	-0.045068286
136	0x3d7b20b1	0.061310474
137	0x3dafff3b	0.08593603
138	0x3d1fb3ac	0.038989708
139	0xbd0839e8	-0.03325835
140	0x3c53ee6b	0.012935261
141	0x3e12d377	0.1433848
142	0x3d7fd2c7	0.062456872
143	0x3de18b34	0.11012879
144	0xbe1ab0a3	-0.15106444
145	0x3cdb17fc	0.026744835
146	0xbe251a79	-0.1612338
147	0xbdb0c20b	-0.08630761
148	0xbd3ea90c	-0.046547934
149	0xbd8c3550	-0.06846106
150	0xbdd0db8a	-0.10198124
151	0x3e13abda	0.14421025
152	0xbe4ca1ad	-0.1998355
153	0x3d8f30d9	0.06991739
154	0x3d95bd51	0.073115
155	0xbc22f2f1	-0.009945617
156	0xbd7fd7c5	-0.062461633
157	0xbd9c256b	-0.076243244
158	0x3df61f57	0.12017696
159	0x3b814293	0.003944704
160	0x3d8d7f4a	0.06909044
161	0xbc3d4628	-0.011552371
162	0x3d2acde1	0.041700248
163	0x3d20f265	0.039293665
164	0xbd54c4ed	-0.051945616
165	0xbda9095a	-0.08253737
166	0x3b9b3592	0.0047366107
167	0xbd3074e8	-0.04308024
168	0x3e101f91	0.14074542
169	0xbd601b9d	-0.054713834
170	0x3e300f9d	0.17193456
171	0x3da06141	0.0783105
172	0x3e10a56d	0.14125605
173	0x3e2bce7d	0.16777988
174	0xbc3accac	-0.011401337
175	0xbd4848bd	-0.048897494
176	0x3e19f6f4	0.15035611
177	0xbe22c939	-0.15897073
178	0x3c888235	0.01666365
179	0xbcd740a4	-0.02627594
180	0xbe0b2453	-0.13588075
181	0xbd8200e6	-0.063478276
182	0xbdeed34f	-0.11661398
183	0x3dfb3e19	0.122677036
184	0xbe05821f	-0.13037919
185	0xbdadc66d	-0.08485112
186	0xbe4762df	-0.1947131
187	0xbca9b106	-0.020714294
188	0x3e2b34f1	0.16719414
189	0x3d906a7f	0.070515625
190	0x3d2de2e6	0.042452715
191	0x3da8cdf0	0.082424045
192	0xbdccb4fe	-0.09995459
193	0x3bfb4f61	0.007669375
194	0xbd5859c8	-0.052819997
195	0xbd22392c	-0.039605305
196	0x3d3cafa5	0.046065945
197	0x3d924fd3	0.071441315
198	0x3dffd4ea	0.12491782
199	0x3c1a0047	0.00939948
200	0x3df255a6	0.118327424
201	0xbd630a98	-0.055430025
202	0xbd9ef135	-0.0776085
203	0xbe0a276c	-0.13491601
204	0xbda9bae2	-0.08287598
205	0x3d5e36ec	0.054251596
206	0xbd9c25bc	-0.07624385
207	0xbdc67bf9	-0.09691615
208	0x3da623f1	0.08112324
209	0x3de0470c	0.10951051
210	0xbddd2112	-0.10797323
211	0x3cebc633	0.028781032
212	0x3dcd8dd9	0.10036821
213	0xbcd6eeae	-0.026236858
214	0xbde369d0	-0.111041665
215	0xbd340df1	-0.043958608
216	0xbc896eee	-0.016776528
217	0xbe1d6f9e	-0.1537461
218	0x3d883596	0.06650846
219	0xbd980ba7	-0.074240975
220	0x3e082e49	0.13298906
221	0x3dec7132	0.11545028
222	0xbdf4159e	-0.11918186
223	0xbe0a1e58	-0.13488138
224	0x3e195245	0.1497279
225	0x3df4055c	0.11915085
226	0x3cbd6d67	0.023123456
227	0xbd9245a5	-0.0714219
228	0x3e138c75	0.14409049
229	0xbe3ee6ac	-0.18642682
230	0x3e06f52f	0.13179468
231	0x3e24e525	0.16103037
232	0x3c7360c9	0.014854618
233	0xbe255870	-0.16147017
234	0xbdd7f655	-0.10545031
235	0x3d919985	0.0710936
236	0x3e45bcdc	0.19310325
237	0x3d1619bf	0.036645647
238	0xbe0d5710	-0.13802743
239	0xbe104d06	-0.14091882
240	0xbe19d9d5	-0.15024503
241	0x3d1d1af2	0.038355775
242	0xbd438685	-0.04773571
243	0xbd500e77	-0.050795045
244	0x3e09e19c	0.1346497
245	0x3cff624e	0.031174805
246	0x3dbd1234	0.092319876
247	0xbc84e035	-0.016220191
248	0xbc648a98	-0.013949059
249	0xbd4d4d22	-0.050122388
250	0xbe00bdbc	-0.12572378
251	0xbe0706c3	-0.13186173
252	0x3de3e280	0.11127186
253	0xbccdef3f	-0.025138495
254	0xbdaa8e0d	-0.08327875
255	0xbe114f76	-0.14190468

conv4.bias f4 [256]
0	0xbcf5e143	-0.03001464
1	0xbce9cfc6	-0.028541457
2	0x3ce9f456	0.028558891
3	0x3cbd5691	0.023112567
4	0x3d0b3f91	0.03399617
5	0xbcf7c6e8	-0.030246213
6	0xbc6046e9	-0.013688781
7	0x3cfa18d8	0.030529425
8	0x3cf5b59c	0.029993825
9	0xbcff2524	-0.03114564
10	0xbbae723f	-0.005323678
11	0xbcde506d	-0.02713796
12	0x3d09a785	0.033607025
13	0xbcf1d722	-0.029521529
14	0xbcfbb33c	-0.030725114
15	0xbcf6db7d	-0.030133957
16	0xbcf068a1	-0.029346766
17	0x3cec3cba	0.02883755
18	0xbcfdc075	-0.03097556
19	0x3c8b2636	0.016985994
20	0xbcfbd5a6	-0.030741524
21	0xbd03f8c3	-0.03221966
22	0x3d03d95e	0.03218972
23	0xbcd53f2c	-0.0260311
24	0x3cefdb10	0.029279262
25	0xbd0eef2b	-0.034896057
26	0x3cd9d542	0.026590947
27	0xbd027436	-0.03184911
28	0x3c9680fa	0.018372048
29	0xbcf950a6	-0.030433964
30	0xbca758fd	-0.020428175
31	0x3cd47158	0.025932953
32	0xbce7be57	-0.028289003
33	0x3d10b031	0.03532428
34	0xbce3c0d6	-0.027801912
35	0x3cdbe622	0.026843134
36	0xbd01cf5c	-0.031691894
37	0xb8ebfcb5	-0.000112527436
38	0x3cd6ba4a	0.026211876
39	0x3cb2ae70	0.021811694
40	0x3d000599	0.03125534
41	0x3cea8bab	0.028631052
42	0xbcf2ea3d	-0.02965271
43	0x3d037066	0.032089613
44	0x3b5b9bb4	0.0033509554
45	0x3ce90c6d	0.028448308
46	0x3cf904ca	0.030397791
47	0x3cfa3b83	0.030545956
48	0x3ce1e150	0.027573258
49	0x3a816b01	0.0009873809
50	0xbcf791b5	-0.030220846
51	0xbcda1c54	-0.026624836
52	0x3cf160c5	0.029465089
53	0xbd0655ba	-0.0327966
54	0x3cae265b	0.021258524
55	0x3cc4cfe0	0.024024904
56	0x3d2dcb06	0.042429946
57	0xbcf2e502	-0.029650215
58	0x3cf10c09	0.029424684
59	0x3cd0efcd	0.02550497
60	0x3d2a3c8d	0.041561652
61	0xbce10cb4	-0.027471878
62	0x3ce216c2	0.027598742
63	0xbce9fa07	-0.028561605
64	0xbcf89409	-0.030344026
65	0x3ce33e43	0.02773965
66	0xbcbc2629	-0.022967415
67	0x3d1508d8	0.036385387
68	0xbcfe043f	-0.031007884
69	0x3cedf14c	0.029045723
70	0xbbeeda51	-0.007289209
71	0xbce2fb93	-0.02770785
72	0x3d1cfae5	0.03832521
73	0xbd06950c	-0.032856986
74	0x3ce9c0ce	0.02853432
75	0xbd03ebf0	-0.03220743
76	0xbcfa66cc	-0.030566595
77	0xbcf3ca9a	-0.029759694
78	0xbcd470c1	-0.025932672
79	0x3cad71e0	0.021172464
80	0xbd00badf	-0.031428214
81	0x3d25c143	0.04046751
82	0xbce33faa	-0.027740318
83	0x3cc4e314	0.02403406
84	0xbcb9b7c4	-0.022670634
85	0xbd01ab91	-0.03165776
86	0xbcda8c75	-0.026678303
87	0x3d053548	0.032521516
88	0x3cb63402	0.022241596
89	0xbcecfe8f	-0.028929977
90	0x3ccf626c	0.025315486
91	0x3d0620b3	0.03274603
92	0x3b503f4c	0.003177601
93	0xbcf56086	-0.029953253
94	0x3c8cb78e	0.01717737
95	0xbd00be31	-0.03143138
96	0xbd027114	-0.03184612
97	0x3bf4f653	0.007475653
98	0x3cdc1747	0.026866568
99	0xbd01cb9d	-0.03168832
100	0x3c1b7722	0.009488853
101	0x3cfa914a	0.030586857
102	0xbcd42446	-0.025896203
103	0xbb9b625d	-0.0047419504
104	0x3cf11d4c	0.029432915
105	0x3cfa9994	0.03059081
106	0xbcf02326	-0.029313635
107	0xbcd803d4	-0.026369013
108	0x3d012030	0.031524837
109	0xbcf5e957	-0.030018492
110	0xbce68fe4	-0.028144784
111	0x3d1b48a9	0.03791109
112	0x3bfba103	0.007679106
113	0xbcfbf38f	-0.030755786
114	0xbcfa9072	-0.030586455
115	0xbd2aac47	-0.041668203
116	0xbcd994e2	-0.02656025
117	0xbcd6205c	-0.026138477
118	0xbcbc68d2	-0.022999201
119	0xbd17a7b3	-0.037025165
120	0xbcd26f0d	-0.025687719
121	0x3cf7d471	0.030252667
122	0x3d0a90c9	0.033829484
123	0x3d175caa	0.036953606
124	0xbd0233b7	-0.0317876
125	0xbd007060	-0.03135717
126	0x3caa014e	0.020752575
127	0xbd222c9c	-0.039593324
128	0x3cde9ae7	0.027173473
129	0x3ce8f61a	0.028437663
130	0xbcf13db1	-0.029448362
131	0x3ce171d1	0.027520092
132	0xbcd548de	-0.026035722
133	0x3d02618d	0.031831313
134	0xbcf464f5	-0.029833296
135	0xbd1b058a	-0.03784708
136	0x3d180406	0.037113212
137	0xbcefb5c2	-0.029261474
138	0xbcde9f5c	-0.027175598
139	0x3ce90509	0.028444784
140	0xbcde3b37	-0.027127845
141	0xbd178f2a	-0.037001766
142	0x3cd569c7	0.026051415
143	0x3cc0f66c	0.023555003
144	0x3cd3def4	0.025863148
145	0xbceedc5c	-0.02915781
146	0x3d03a6eb	0.032141607
147	0xbce7c22d	-0.028290832
148	0xbca5c5df	-0.020235954
149	0xbcf7efa2	-0.030265633
150	0x3ce907db	0.028446129
151	0xbd54969c	-0.051901445
152	0xbcf103bd	-0.029420728
153	0xbce11654	-0.027476467
154	0x3cfa7187	0.030571712
155	0x3cb172d7	0.021661205
156	0xbce8a8ad	-0.028400743
157	0xbccdf416	-0.025140803
158	0xbd05793c	-0.03258632
159	0x3d165656	0.03670343
160	0x3cc799a7	0.02436526
161	0xbcc9bc80	-0.024626017
162	0x3c897f7d	0.016784424
163	0x3cf22e26	0.02956302
164	0xbce2168a	-0.027598638
165	0x3d22f716	0.03978642
166	0xbcfa676d	-0.030566895
167	0x3cd3b90f	0.025845079
168	0xbcd914f0	-0.026499242
169	0x3ce6ba2b	0.028164944
170	0xbd022dc1	-0.031781916
171	0x3d00bb3a	0.031428553
172	0xbd11a75c	-0.035559997
173	0x3c96614b	0.01835694
174	0x3cf68b60	0.030095756
175	0xbd07e297	-0.033175077
176	0xbcc9324d	-0.024560118
177	0xbd121244	-0.03566195
178	0x3d355bca	0.04427699
179	0xbd039ad9	-0.032130096
180	0x3cb4e9a1	0.02208406
181	0xbd05d503	-0.032673847
182	0xbc7282a8	-0.014801659
183	0x3cda7eec	0.02667185
184	0xbcdd2c36	-0.02699862
185	0xbcff2b0e	-0.03114846
186	0xbd166bb4	-0.036723807
187	0xbcee54f3	-0.029093241
188	0x3c9a9c7c	0.018873446
189	0xbcf1187c	-0.02943062
190	0xbcfc09d0	-0.030766398
191	0x3cda2ce0	0.026632726
192	0x3cefc1af	0.02926716
193	0x3cfa63ba	0.030565131
194	0x3ceb293d	0.028706187
195	0xbcfcbd72	-0.030852053
196	0x3cc08a1a	0.023503352
197	0x3d02b19e	0.03190767
198	0x3d23e035	0.040008742
199	0xbd089090	-0.03334099
200	0x3d2dcb6a	0.04243032
201	0x3cf6ed77	0.030142529
202	0x3ce04af5	0.027379492
203	0xbd0153b9	-0.031573985
204	0xbd04cf84	-0.032424465
205	0x3cf877e8	0.030330613
206	0x3cc747c6	0.024326216
207	0x3d05e4b9	0.03268883
208	0x3cf004d3	0.029299175
209	0xbd0ac933	-0.033883285
210	0x3ce698e4	0.028149076
211	0x3cf41ad0	0.029797941
212	0x3d1db282	0.038500316
213	0xbc961801	-0.018321993
214	0x3cec86f2	0.02887294
215	0xbce6423b	-0.028107753
216	0x3cc392b1	0.023873659
217	0x3ca7776b	0.020442685
218	0x3d1d1cb5	0.038357455
219	0xbce6e2c2	-0.028184298
220	0xbcf67a4f	-0.030087618
221	0xbcf4b1ca	-0.029869933
222	0xbc2f5b8a	-0.010702977
223	0x3cf37be2	0.029722158
224	0xbcd4f002	-0.02599335
225	0x3ce0a732	0.027423475
226	0x3d0213c2	0.031757124
227	0xbcff533d	-0.03116762
228	0x3cec7443	0.028864032
229	0x3ce4c1a5	0.027924368
230	0x3cde81a9	0.027161436
231	0xbd1ea7ac	-0.038734123
232	0xbd01616c	-0.03158705
233	0xbd0a82ea	-0.033816256
234	0xbd1744c2	-0.036930807
235	0x3cf4e883	0.029896026
236	0xbcf6bebf	-0.030120252
237	0x3d043a22	0.032282002
238	0xbd3a52a9	-0.045488987
239	0x3ce12473	0.0274832
240	0xbcf495a0	-0.029856503
241	0xbcf285c4	-0.0296048
242	0x3cef5083	0.029213196
243	0x3cf83922	0.03030068
244	0x3cf37bfe	0.02972221
245	0x3c9887b1	0.01861939
246	0xbcc99272	-0.024605963
247	0x3ced7820	0.028987944
248	0x3cfe531b	0.031045487
249	0x3cc927d0	0.024555117
250	0xbcf4c22d	-0.029877746
251	0x3ce70075	0.02819846
252	0xbce11b02	-0.027478699
253	0xbd013fcd	-0.031554986
254	0xbce59ebc	-0.028029792
255	0xbcfd0401	-0.030885698

conv4.lin.weight f4 [256, 128]
0	0xbd73ca65	-0.05951919
1	0xbd40fab7	-0.0471141
2	0x3dc2b74f	0.095076196
3	0x3de808a0	0.1132977
4	0x3d8d8a57	0.06911152
5	0xbdb9ca58	-0.09071797
6	0xbe1cd273	-0.15314655
7	0xbe061952	-0.13095596
8	0xbdb43ca5	-0.088006295
9	0x3db73045	0.089447536
10	0x3dffa529	0.12482674
11	0x3d4832b5	0.048876483
12	0xbccf6499	-0.025316523
13	0x3db0927b	0.08621689
14	0x3e044552	0.12917069
15	0x3d9d8cb6	0.07692854
16	0xbd1aa067	-0.037750628
17	0xbcda7fdf	-0.026672302
18	0xbd89f7d0	-0.067367196
19	0x3d3da175	0.046296556
20	0x3c999c0a	0.018751163
21	0x3c97e95b	0.01854389
22	0xbdfe827e	-0.12427233
23	0x3e0c137e	0.1367931
24	0xbdeb7116	-0.11496179
25	0xbd88e1cf	-0.066836946
26	0x3e19a3c7	0.15003882
27	0xbd6511be	-0.055925123
28	0x3e0a8ffb	0.13531487
29	0x3d8ecd9b	0.0697281
30	0x3d806836	0.06269877
31	0xbdc4437b	-0.095831834
32	0x3d9db872	0.07701196
33	0xbd9abcd8	-0.0755555
34	0xbcd6f34a	-0.026239056
35	0x3c46452e	0.012101455
36	0xbe028fed	-0.12750216
37	0xbd23cbe9	-0.039989386
38	0xbda535dd	-0.08066914
39	0xbd1ce553	-0.038304638
40	0xbdacd2ed	-0.084386684
41	0x3d9f630c	0.077825636
42	0xbcfd2d40	-0.030905366
43	0x3ccd3b10	0.025052577
44	0x3d292072	0.041290708
45	0xbe04c864	-0.12967068
46	0x3db7926c	0.08963475
47	0x3e04a6f5	0.12954314
48	0x3d717677	0.058950868
49	0x3cf312f1	0.029672118
50	0x3d610843	0.05493952
51	0x3c3b61b5	0.011436869
52	0xbdb32569	-0.0874737
53	0x3c7ec85c	0.015550699
54	0x3d53acc1	0.051678423
55	0xbe1a3a11	-0.15061213
56	0x3ca51d2e	0.020155516
57	0xbe102903	-0.14078145
58	0xbd021780	-0.031760693
59	0xbda7bbef	-0.08190142
60	0xbd057ba6	-0.032588623
61	0xbe03d2a4	-0.12873322
62	0x3cbe23a4	0.023210354
63	0x3d950011	0.07275403
64	0x3d897d5f	0.06713366
65	0x3db5419f	0.08850407
66	0xbd962c08	-0.07332617
67	0xbd0de893	-0.03464563
68	0x3d557423	0.05211271
69	0xbb3f3465	-0.0029175517
70	0xbda92e1f	-0.0826075
71	0x3d21adaf	0.03947228
72	0x3e1e1950	0.15439343
73	0xbce8ccaf	-0.028417913
74	0xbd587eeb	-0.052855413
75	0x3d774ca2	0.060375817
76	0x3cec34f3	0.028833842
77	0xbd49dfb5	-0.04928561
78	0xbd5bc7be	-0.053657286
79	0xbde5017d	-0.111819245
80	0x3de51c86	0.11187081
81	0xbd6848db	-0.056710105
82	0x3da88c4c	0.082298845
83	0x3dafb63d	0.08579681
84	0xbd85bded	-0.06530366
85	0xbbdde25f	-0.0067713703
86	0xbdcc3587	-0.09971147
87	0xbe1b00ab	-0.15136974
88	0x3d227fd5	0.03967269
89	0xbd53865b	-0.051641803
90	0xbd225f62	-0.039641745
91	0xbdff58c9	-0.12468106
92	0xbd3d0a34	-0.04615231
93	0x3d806843	0.06269886
94	0xbd52696d	-0.051370073
95	0xbd5c3504	-0.053761497
96	0x3db6246d	0.088936664
97	0x3c3b4d4e	0.011432005
98	0xbdbe3c94	-0.09288898
99	0xbd057140	-0.032578707
100	0x3e1bc330	0.15211177
101	0x3daad57f	0.083415024
102	0x3d961c60	0.07329631
103	0x3d38eea9	0.04514948
104	0xbe0d8a06	-0.13822183
105	0xbd63a4df	-0.055577155
106	0x3b5e8e95	0.0033959497
107	0xbd53d6e4	-0.051718608
108	0x3d017853	0.03160889
109	0xbd708ad2	-0.05872614
110	0x3e1ab187	0.15106784
111	0x3e1eac86	0.154955
112	0x3df09352	0.11746849
113	0x3d6a6742	0.05722738
114	0xbd2b4560	-0.041814208
115	0x3d9a79be	0.07542752
116	0xbe1ddae7	-0.15415536
117	0x3da687b2	0.081313506
118	0xbe03a535	-0.1285599
119	0x3c8c29d2	0.017109785
120	0xbdb7396f	-0.089465015
121	0xbd2dcf77	-0.042434182
122	0x3c2f5e4f	0.010703637
123	0xbd3b4859	-0.045723293
124	0xbdaf0870	-0.08546531
125	0x3c39a5ab	0.011331002
126	0xbd101acd	-0.03518181
127	0xbd501c3f	-0.050808188
128	0x3da6b667	0.08140259
129	0xbe1700d5	-0.14746411
130	0xbe07b199	-0.13251342
131	0x3d87accb	0.066247545
132	0xbd293620	-0.041311383
133	0x3d3add7f	0.04562139
134	0xbd26b2bb	-0.040697794
135	0xbd0128bf	-0.031533
136	0xbce24cc0	-0.027624488
137	0xbd377632	-0.044790454
138	0xbe0987c3	-0.13430695
139	0x3e16b832	0.14718702
140	0x3cfb6f15	0.030692616
141	0xbe1340d1	-0.14380194
142	0x3d975fd9	0.07391328
143	0xbcfdbca7	-0.030973746
144	0xbb415c65	-0.0029504534
145	0x3db0c7cb	0.086318575
146	0xbdc69efc	-0.096982926
147	0x3d0a4c5c	0.03376423
148	0xbddd4c0c	-0.108055204
149	0x3c00bed4	0.007857997
150	0xbda0f7a8	-0.07859737
151	0x3df23771	0.11826981
152	0x3d79d7b5	0.06099673
153	0x3de7e1bc	0.11322352
154	0xbdc3709d	-0.09542964
155	0xbd842e76	-0.06454174
156	0x3e15a6b5	0.14614375
157	0x3c962b96	0.01833133
158	0xbc9dde33	-0.019270992
159	0xbd39ef8e	-0.045394473
160	0xbdcd5447	-0.1002584
161	0x3c8ed5e6	0.01743598
162	0x3d580a73	0.05274434
163	0x3d18338c	0.037158534
164	0xbdd599e3	-0.10429742
165	0xbddc0e2a	-0.10744889
166	0x3dc2309a	0.09481926
167	0xbdbd48d9	-0.0924241
168	0xbd662962	-0.05619181
169	0x3dd58c36	0.10427134
170	0x3c97680e	0.018482234
171	0x3d8dbfa5	0.06921319
172	0xbdad893c	-0.08473441
173	0x3d2deea4	0.042463914
174	0x3c3687fa	0.011140818
175	0x3d68ff34	0.056884006
176	0x3db97fac	0.090575546
177	0x3e180c30	0.14848399
178	0xbd88eeca	-0.066861704
179	0x3d97c6d4	0.0741097
180	0x3dd84ec8	0.10561901
181	0x3d1eb686	0.038748287
182	0x3de8599a	0.11345215
183	0xbc60d32c	-0.013722222
184	0xbbb0b0ef	-0.005392186
185	0xbdb46a62	-0.088093534
186	0xbe1af9ca	-0.1513435
187	0x3d9a0f3e	0.075224385
188	0x3de1a04a	0.11016901
189	0x3dc10362	0.09424473
190	0xbc6d1a6c	-0.0144716315
191	0xbcd0135a	-0.025399853
192	0x3d0657b3	0.03279848
193	0x3c976cd2	0.018484507
194	0x3d89db1c	0.06731245
195	0x3cbcad8e	0.023031976
196	0x3d3467b3	0.044044208
197	0xbe0220a4	-0.12707764
198	0xbd8b2b3b	-0.06795355
199	0xbdbd3575	-0.09238712
200	0xbdbc873e	-0.09205483
201	0x3d0cc870	0.03437084
202	0xbb61a9cd	-0.0034433485
203	0x3cd67fa4	0.02618391
204	0xbd94fb1c	-0.07274458
205	0x3c9dc747	0.019260062
206	0xbdc884e9	-0.097909756
207	0x3e07db93	0.13267355
208	0xbdc52241	-0.09625674
209	0x3d81ed96	0.06344144
210	0xbdb1472d	-0.08656154
211	0x3d5ac22f	0.053407844
212	0xbd08b7c7	-0.03337839
213	0xbc20a80b	-0.00980569
214	0x3db696b7	0.08915465
215	0x3c403586	0.011731511
216	0xbd941e0e	-0.07232295
217	0x3d989b58	0.074515045
218	0x3a7330dd	0.00092769956
219	0x3bfa2f2b	0.0076350174
220	0xbccb18fe	-0.02479219
221	0xbd91c25a	-0.07117148
222	0xbda38963	-0.07985189
223	0xbd0d4599	-0.0344902
224	0xbb53a2fd	-0.0032293194
225	0x3e19ea7d	0.15030856
226	0xbd1cd616	-0.038290106
227	0x3d89e537	0.067331724
228	0xbe1cbeec	-0.15307206
229	0x3d47eb7a	0.048808552
230	0xbdb2de01	-0.0873375
231	0xbdd8e52b	-0.10590585
232	0xbd2edece	-0.04269295
233	0xbe111d6f	-0.14171384
234	0x3d36522a	0.04451195
235	0x3de8de63	0.11370542
236	0x3d655653	0.05599053
237	0xbb5fd069	-0.0034151322
238	0xbdaf3208	-0.085544646
239	0x3d144ae9	0.036204252
240	0xbd474997	-0.048654165
241	0x3d56d9e0	0.052453876
242	0xbda40f75	-0.08010761
243	0x3d133cd0	0.035946667
244	0x3bca487d	0.006173192
245	0x3d8c9e83	0.06866171
246	0xbe1ab2b4	-0.15107232
247	0xbc539856	-0.012914738
248	0x3d85e23b	0.06537291
249	0xbd6a9ce0	-0.057278514
250	0x3de3c306	0.11121182
251	0xbba3bb7d	-0.0049967156
252	0x3dbfb142	0.09359981
253	0x3dd4d3fa	0.10391994
254	0x3c089ad2	0.008337693
255	0x3dc75c6f	0.09734427

conv5.bias f4 [256]
0	0x393fca17	0.00018290464
1	0xb9809b93	-0.00024529974
2	0xba1df3b4	-0.00060253893
3	0x3aaebc14	0.0013331198
4	0x3916fb97	0.00014398839
5	0xb9a222c0	-0.0003092494
6	0x37c96028	2.4005843e-05
7	0x3a92e0ea	0.0011205946
8	0xbaadd842	-0.0013263302
9	0x3ab7bfa2	0.0014018903
10	0xb9ab69aa	-0.00032694387
11	0xb93700b4	-0.00017452502
12	0x3a7b29ec	0.0009581137
13	0x3a012e55	0.00049278635
14	0xb8c64291	-9.453775e-05
15	0xb968e9b8	-0.00022212311
16	0x3a84672a	0.0010101546
17	0x3a7ec998	0.0009719371
18	0xba5d5bcd	-0.00084441603
19	0x39539341	0.00020177384
20	0x3898abd9	7.279934e-05
21	0xb9908885	-0.00027567535
22	0xba11e81b	-0.00055658974
23	0x3a9eb19e	0.0012107377
24	0xba076580	-0.0005164966
25	0xba2e2f4b	-0.00066446204
26	0xba2e01cf	-0.0006637843
27	0x3a3e7fd7	0.00072669744
28	0x3aa07b47	0.0012243771
29	0x3aa8b98b	0.0012872679
30	0xb98111c0	-0.00024618022
31	0x3a699ff0	0.0008912077
32	0x3a7f618f	0.00097420154
33	0x3a34e4ce	0.00069005496
34	0x37e41777	2.7190645e-05
35	0xba11fa72	-0.00055686303
36	0x3aafba48	0.0013406957
37	0x3a7a5a7d	0.0009550227
38	0xba4fd64a	-0.0007928355
39	0x3944fa5e	0.00018785286
40	0xba3e5970	-0.0007261252
41	0x3aa65ecb	0.0012693045
42	0xba9c590f	-0.0011928397
43	0xb8cceb5e	-9.7713186e-05
44	0x39b29b84	0.00034066674
45	0xba3917e8	-0.0007060752
46	0x39d24d82	0.0004011207
47	0x3a544c2c	0.00080985087
48	0x39a30318	0.00031092088
49	0x3a34426d	0.0006876353
50	0x398b8a72	0.00026615296
51	0x3a0168dc	0.0004936585
52	0x38868d80	6.415974e-05
53	0x3a6349db	0.0008670368
54	0xba6c7544	-0.00090201595
55	0x3a9d5f9a	0.0012006641
56	0xb97c4742	-0.00024059138
57	0xba21cebf	-0.000617247
58	0x3ad500ad	0.0016250812
59	0x3a9054c2	0.0011011588
60	0xbaaf7e9e	-0.0013389175
61	0x3abc7114	0.0014376962
62	0xb9852fcc	-0.00025403348
63	0xb88b790e	-6.650585e-05
64	0x39040c01	0.00012592973
65	0xba07d0a1	-0.00051809294
66	0x3a80335b	0.000978093
67	0x3a8707a9	0.0010301966
68	0x3a9ec739	0.0012113816
69	0xba11df1a	-0.0005564556
70	0x3a593fca	0.00082873984
71	0xb8b4de49	-8.624473e-05
72	0x3a88b217	0.0010429051
73	0xb936e3d2	-0.00017441742
74	0x39bf9f9b	0.00036549274
75	0xb99de7bc	-0.0003011803
76	0xba048904	-0.00050558173
77	0xb9341ac1	-0.00017176104
78	0xb9e22f48	-0.00043141306
79	0x3aab6def	0.0013079027
80	0x3a076527	0.0005164914
81	0xbaa19177	-0.0012326677
82	0xb98ac9f5	-0.0002647188
83	0x3a40ff12	0.0007362227
84	0x3a883c2e	0.0010393912
85	0x389b2f05	7.399734e-05
86	0xba22b776	-0.00062071474
87	0xba7988de	-0.0009518991
88	0x3a8d2706	0.0010769076
89	0xba690976	-0.00088896544
90	0xbaab647a	-0.0013076209
91	0x3a071a6e	0.00051537796
92	0xb983ef71	-0.00025164665
93	0xba7972fa	-0.0009515729
94	0x3a35a4a7	0.0006929137
95	0x3980207c	0.00024438265
96	0x3a4a6c43	0.0007721821
97	0xb9868417	-0.00025656886
98	0xb9dd1be5	-0.00042173188
99	0xba59afe6	-0.0008304104
100	0x39c655e5	0.000378295
101	0x3a094c7a	0.0005237531
102	0x39212737	0.00015368765
103	0xb92bf905	-0.00016400598
104	0xba58612a	-0.00082542247
105	0xbaa4465e	-0.0012533178
106	0x39ae7a94	0.00033279194
107	0x3a245562	0.00062688265
108	0xb950092d	-0.00019839844
109	0xba2288d0	-0.0006200196
110	0x3a92cdd8	0.0011200262
111	0xbab01635	-0.0013434353
112	0xba200ba4	-0.000610525
113	0x3829ca4b	4.048114e-05
114	0xba88800f	-0.0010414141
115	0xba96d392	-0.0011507145
116	0x3834c285	4.3096505e-05
117	0x3aa80e41	0.0012821631
118	0x3aa02f62	0.0012221152
119	0xbaaf13ee	-0.001335738
120	0xbab004e5	-0.0013429193
121	0x39f79981	0.0004722588
122	0xba15edb4	-0.00057193195
123	0xba9816fa	-0.0011603527
124	0xba3df611	-0.00072464446
125	0xb9d9fca5	-0.000415777
126	0x3715280d	8.890417e-06
127	0x39b6a0f3	0.00034833662
128	0xba3ddf05	-0.00072430103
129	0xba6321fd	-0.00086644274
130	0x3aa5a2d5	0.0012637029
131	0x39f214a0	0.00046173204
132	0xb9af92a7	-0.00033487866
133	0xb8e32b35	-0.000108322514
134	0xb98d3641	-0.00026934038
135	0x3a460214	0.000755341
136	0x3a1ca673	0.00059757306
137	0xba7661f3	-0.0009398751
138	0xba16a85b	-0.0005747133
139	0xb90806d6	-0.00012972517
140	0xb9c369b2	-0.00037272047
141	0x3a75bef4	0.00093744625
142	0x3aaede1d	0.0013341341
143	0xba770a75	-0.00094238605
144	0xb9d36074	-0.0004031692
145	0xb9c69000	-0.0003787279
146	0xba8b062a	-0.0010606695
147	0x3a2d39f6	0.0006608063
148	0xba10ef27	-0.00055288005
149	0x38b878ef	8.796329e-05
150	0xbab0395f	-0.0013444832
151	0xbaae774f	-0.0013310703
152	0x3ace9e68	0.0015763761
153	0xb9855780	-0.0002543293
154	0x39203e87	0.00015282082
155	0x39c53a91	0.00037618403
156	0xba2b52b0	-0.0006535454
157	0x3a339277	0.0006850133
158	0xb9905cd1	-0.00027534974
159	0x37ce39fe	2.4584118e-05
160	0xb9ce6dc9	-0.00039373178
161	0x3ac8c9c1	0.0015318916
162	0xba1fa8b5	-0.0006090508
163	0xb9055f4c	-0.00012719369
164	0xb9b70a6a	-0.0003491224
165	0xb8ad1d33	-8.2547216e-05
166	0x399d7210	0.00030030357
167	0xbadc6120	-0.0016813613
168	0xba33dd1e	-0.0006861257
169	0x39c955da	0.00038401672
170	0xba887c11	-0.0010412951
171	0xb98012ec	-0.0002442816
172	0xba749f23	-0.00093315745
173	0xba87155a	-0.0010306046
174	0x3a12dffd	0.0005602835
175	0xb91a0125	-0.00014687011
176	0xba3f7ba3	-0.0007304495
177	0x397422d2	0.00023282625
178	0x3939c1f4	0.00017715228
179	0xb9cae5c5	-0.00038699634
180	0x3aadf955	0.0013273159
181	0x398ffedc	0.0002746497
182	0x3a6c11fb	0.0009005365
183	0xbaa4235f	-0.0012522748
184	0xb9383323	-0.00017566657
185	0xb805adb1	-3.1871434e-05
186	0xba869667	-0.0010268212
187	0x3a2dc5b4	0.00066288863
188	0xba61c440	-0.00086123124
189	0xb9c9a871	-0.00038463206
190	0x3aafec00	0.0013421774
191	0xba392705	-0.00070630043
192	0xba3c5035	-0.00071835826
193	0x38aea4c1	8.327654e-05
194	0xb9b0a907	-0.0003369527
195	0x3ad471ca	0.0016208228
196	0xb9bea84f	-0.00036365024
197	0xb83b8b85	-4.4714212e-05
198	0x39bc91df	0.00035966837
199	0x37832559	1.5633808e-05
200	0x3a343868	0.000687486
201	0x3a60ff31	0.00085829484
202	0x3a005bd1	0.0004896494
203	0x3aa1caca	0.0012343761
204	0x3ab7d7cf	0.0014026108
205	0x3a88d4cc	0.0010439395
206	0xba2c4918	-0.0006572171
207	0x3a1ed79c	0.000605935
208	0xbad7f49c	-0.0016476098
209	0xb8193e91	-3.6536312e-05
210	0x39c0f10c	0.00036800688
211	0xba63168b	-0.0008662722
212	0xbab0ecba	-0.0013498284
213	0x3a77a128	0.00094463164
214	0x39e422c7	0.0004351346
215	0x3ab019ae	0.0013435388
216	0x3a2b6e7c	0.0006539596
217	0xba8a32ce	-0.0010543705
218	0xb9da0104	-0.00041580957
219	0x3aa45c2c	0.0012539676
220	0xb98e0740	-0.00027089752
221	0x3a8bc4be	0.0010663492
222	0xb822414c	-3.8684622e-05
223	0xb95fe937	-0.00021353817
224	0x3894eeb2	7.1016504e-05
225	0xba9d2be0	-0.0011991225
226	0xba9a50d4	-0.0011773356
227	0x3905b6dc	0.00012751989
228	0x39b13b6d	0.00033804346
229	0xbab0de3b	-0.0013493964
230	0x39cd5866	0.0003916651
231	0xba3b3ee1	-0.00071428536
232	0xbaa5be1c	-0.0012645158
233	0xb9dcb46c	-0.00042096095
234	0x3a9c1945	0.0011909386
235	0x3a0e69f6	0.00054326595
236	0xbab0dfa3	-0.0013494383
237	0x397d518a	0.00024158336
238	0xba1292bf	-0.0005591325
239	0x3a75d10e	0.000937716
240	0xb759311c	-1.2945642e-05
241	0xb9cdeeb3	-0.00039278492
242	0x3aa95a2b	0.0012920549
243	0xba79a076	-0.0009522507
244	0xb92ee11f	-0.00016677797
245	0xba7d3e72	-0.0009660489
246	0x3909fb65	0.0001315899
247	0x3aac1aa6	0.00131305
248	0x3a003570	0.00048907753
249	0xb9bc0174	-0.00035859237
250	0x3ace0072	0.0015716685
251	0xba21f9fb	-0.00061789126
252	0x3ad6640a	0.0016356718
253	0xbaa974fb	-0.001292854
254	0xb7888488	-1.6274178e-05
255	0xba896da0	-0.0010484941
