weights/6-7-0-yfp_split_4.pt (torch, 473545 bytes, 26 tensors)

conv1.bias f4 [64]
000000 5b 72 b0 3a 48 1a ab ba 86 54 b7 39 ea e3 93 3a
       0.0013461815 -0.0013054097 0.00034967455 0.0011283134
000010 d6 b1 bd 39 05 65 1f b8 cb 6e 61 ba c2 aa 85 38
       0.00036181387 -3.8002636e-05 -0.0008599578 6.37374e-05
000020 ed 02 8e 38 bf 14 c3 b9 05 3e ac 3a f8 7f ae ba
       6.7716326e-05 -0.00037208755 0.0013141042 -0.0013313284
000030 1d 9c fa b9 86 c6 9d ba fd cd ac ba b6 ac d5 39
       -0.0004780003 -0.0012037314 -0.0013183948 0.00040755206
000040 18 3e a2 ba 79 c9 44 3a 16 0c 6b ba 27 a7 31 39
       -0.0012378125 0.00075068284 -0.00089663395 0.00016942305
000050 0e d5 97 b9 f6 0f 60 ba c9 7b 9b ba 88 0b 9b ba
       -0.00028959702 -0.00085473 -0.0011862452 -0.0011828998
000060 fe 74 d4 38 5f a6 36 3a d7 cc 1a b9 97 90 ac ba
       0.00010130739 0.000696754 -0.00014762893 -0.001316565
000070 60 ae a3 3a b8 f8 69 ba 44 f8 31 b9 cf 03 8b ba
       0.0012487881 -0.00089253066 -0.00016972522 -0.0010605993
000080 e0 55 63 b9 11 a9 7f 3a 7a 36 83 ba e0 3b 80 3a
       -0.00021680398 0.0009752671 -0.0010010742 0.0009783469
000090 7a 9b ec b9 eb 55 c3 39 36 dd 96 39 50 b1 f3 b9
       -0.00045129267 0.00037257312 0.00028775044 -0.0004648068
0000a0 d0 bf e5 39 3a a7 21 38 ab 5b 54 ba a8 ba 58 3a
       0.00043821195 3.8541133e-05 -0.0008100818 0.000826756
0000b0 7a b3 a9 ba 28 00 f8 39 07 da 2c ba 8a cb b7 39
       -0.0012947165 0.00047302363 -0.0006593768 0.00035056128
0000c0 6b 53 58 ba 0e e0 de 39 56 4f ae ba 49 0f 92 ba
       -0.00082521763 0.00042510073 -0.001329879 -0.0011143471
0000d0 30 87 56 ba af 32 ae 3a 22 4a fd b9 ea 15 8f 39
       -0.00081835967 0.0013290251 -0.00048311154 0.00027291413
0000e0 f1 4a 7c 3a 34 6e 74 39 fd ec f0 39 46 e5 00 ba
       0.0009624204 0.00023310707 0.00045952937 -0.0004916977
0000f0 96 24 af 3a 7b 0b 15 3a e8 67 a6 b8 d7 fa cc b9
       0.0013362344 0.00056856096 -7.934851e-05 -0.00039096802

conv1.lin.weight f4 [64, 2]
000000 c7 ee 2f be e5 e9 f1 bd b8 6c 0a bc f6 24 4d 3e
       -0.1718093 -0.1181219 -0.008448772 0.2003363
000010 08 6e 9e 3b a2 40 70 bd 1f ce bd bd 64 f1 5c bb
       0.004834894 -0.05865539 -0.0926783 -0.0033713216
000020 24 75 09 bd 50 b3 cc bd 7b 85 20 3e 9b 39 74 3e
       -0.03355898 -0.09995139 0.15675919 0.238501
000030 a7 97 ab 3c 7c 86 30 3e d8 d1 98 bd 6b c7 5e 3e
       0.020946337 0.17238802 -0.074618995 0.2175576
000040 a6 a2 d3 3d 26 21 2d bd 91 d9 00 3d e6 24 32 3e
       0.10333757 -0.04226794 0.031457487 0.17396888
000050 12 8f c1 bd 08 6e cf 3d d1 73 0e 3d 75 c7 32 be
       -0.094511166 0.10128409 0.03477842 -0.174589
000060 18 15 13 bd 17 99 bb bc 79 1c 1f 3e 54 02 f3 3c
       -0.03590879 -0.022900147 0.15538205 0.029664196
000070 f5 8e d4 bd 44 a0 00 be 6c a0 64 3e f6 29 4b 3e
       -0.103788294 -0.12561136 0.22326821 0.19840226
000080 7b 73 50 be e8 c9 0c bc 45 01 78 3d 90 0f 83 be
       -0.20356552 -0.00859306 0.060548086 -0.2559781
000090 f6 8b b3 3c 79 20 9f 3e fe d4 88 bd 82 af 97 3e
       0.021917325 0.31079462 -0.0668125 0.2962609
0000a0 be 74 8c 3e 5e 12 a3 3d 79 fc 80 be e5 df d1 3d
       0.27432817 0.07962488 -0.2519262 0.102477826
0000b0 97 4e 3c be b6 69 26 be ee 91 72 3e e5 81 a3 3c
       -0.18389355 -0.16251263 0.2368848 0.0199594
0000c0 7c 6e 59 3e c3 88 83 3d c7 30 04 be a2 1d b0 bd
       0.21233553 0.064225696 -0.12909232 -0.08599402
0000d0 44 20 37 3e 88 02 fe 3d 96 f8 28 be 1a c7 ee bd
       0.17883402 0.124028265 -0.16501078 -0.11659069
0000e0 89 dd e6 3d d0 03 63 be a1 b7 fa 3c 12 be 27 bd
       0.11272723 -0.22169423 0.03060514 -0.04095275
0000f0 da 7c e5 bd 46 7e 7b be d2 d5 86 be ba ed 0f 3e
       -0.11205454 -0.24559888 -0.26335007 0.14055529
000100 23 73 0c 3e c7 89 20 3e 59 cf a4 3e c9 52 cc bd
       0.13715796 0.15677558 0.32189444 -0.099767275
000110 b2 f6 6d be 2b 1e 5e 3e 9e 28 26 3e af 22 11 3e
       -0.23238638 0.21691196 0.16226432 0.14173387
000120 2a 35 05 3b 24 44 7b 3d 65 14 a0 3d fb d8 cb bc
       0.0020325878 0.06134428 0.0781639 -0.024883738
000130 fe 7c 3c 3e b3 5d 5a 3e 26 47 82 be dc 9c 9a 3e
       0.18407056 0.21324806 -0.25444907 0.301978
000140 ed 2d 77 be 44 d3 95 3e ce 7a 1e 3e 2c 10 02 bc
       -0.24138613 0.29262745 0.15476534 -0.007938426
000150 24 7c 4a be 85 ea 36 be 84 83 3b 3d 6f b0 6d 3e
       -0.19773918 -0.178629 0.04577972 0.23211835
000160 b2 1c d8 bd 31 ae 8b 3e 96 e1 80 be 22 31 80 3e
       -0.10552348 0.27281335 -0.25172108 0.25037485
000170 36 25 a1 3e bc 6a 94 3d 0f f9 07 3d 87 cb 3d be
       0.31473702 0.072469205 0.033196505 -0.18534671
000180 de dd f8 bc 53 fe db 3b 5d 4c 8a 3d aa 39 83 3d
       -0.030379232 0.0067136674 0.067528464 0.06407483
000190 ca 7b 6c 3e 7f 40 d1 3c a2 3c 2d 3e 61 f0 d4 bb
       0.23094097 0.02554345 0.16917661 -0.006498382
0001a0 45 79 1f be 6d 1d 76 3e 47 78 52 bd a4 55 c2 3d
       -0.15573604 0.24034663 -0.051384237 0.09488991
0001b0 16 4b 89 3e c7 08 29 bd 10 11 5a 39 6b c5 27 be
       0.268151 -0.041268136 0.00020796456 -0.16383903
0001c0 e0 71 26 be 50 6a 4e 3e e8 7b 18 be cb 37 87 3e
       -0.16254377 0.20157743 -0.14891016 0.26409754
0001d0 dc b6 5d 3e 57 8d 57 3d 15 1d 74 3e 7e 60 27 3d
       0.21651787 0.052625027 0.23839219 0.040863506
0001e0 4a cd 1a bd df ba 7f 3e 9f 04 06 be 43 fa 8b be
       -0.037793435 0.2497363 -0.130877 -0.27339372
0001f0 7e bd 3d 3e 41 12 11 be 65 d2 8f be 43 55 16 3e
       0.18529317 -0.1416712 -0.28090206 0.14680962

conv2.bias f4 [64]
000000 e0 17 e1 bc 0d 86 df 3c 93 15 ec 3c 95 92 eb 3c
       -0.027477205 0.0272856 0.028818881 0.02875642
000010 82 21 ef 3c 0d 69 95 3c 4a dd e8 3c 52 5c e9 bc
       0.029190782 0.018238569 0.028425831 -0.028486405
000020 d5 42 de 3b 6c cb e7 3c 63 92 db bc f7 73 d6 bc
       0.0067828693 0.028295241 -0.026803201 -0.026178343
000030 d9 b5 00 bd 85 1e ed 3c 9d b7 fc 3c 69 7d 99 bc
       -0.031423423 0.028945217 0.030849272 -0.018736558
000040 ad 9a 6e 3c 5c c0 0b bd fa 5c e7 3c be c8 32 bd
       0.014563245 -0.034118995 0.028242577 -0.043648474
000050 43 c8 79 3c 6e a7 1f 3d 05 d3 21 3d 5a 80 e9 3c
       0.0152455 0.038978033 0.039507885 0.028503586
000060 bb 28 ee bc 4a fa 26 3d e2 fb b0 3c e0 5c f3 bc
       -0.029072156 0.040766038 0.021604482 -0.029707372
000070 2b e4 08 bd e2 b2 df 3c 41 e0 02 bd 3e 04 d6 3c
       -0.033420723 0.027306978 -0.031952146 0.02612507
000080 ba ff eb bc 76 5f da 3c 63 f8 e8 3c 07 d4 e8 3c
       -0.028808463 0.026656847 0.028438753 0.028421415
000090 93 fa f9 bc a6 e3 90 bc 15 a7 e8 3c 21 d8 f5 bc
       -0.03051499 -0.017686676 0.028399983 -0.030010285
0000a0 98 79 1c bd 5c f6 ea bc 9c 62 e1 3c e9 72 9b bc
       -0.0382019 -0.028681926 0.02751284 -0.018975692
0000b0 f3 cf c7 3b 73 13 16 bd d9 2d f1 bc 69 64 c5 3c
       0.0060977875 -0.036639642 -0.029440807 0.02409573
0000c0 cc 27 f3 bc b4 3a dd 3c ca ad f1 3c 0c ca dc 3c
       -0.029682063 0.02700553 0.029501814 0.026951812
0000d0 7e 06 13 3d 0c 76 d2 bc 92 73 e9 bc 6b f6 ea bc
       0.035894863 -0.025691055 -0.028497491 -0.028681954
0000e0 df c3 19 bd 86 e8 d6 bc 2f 41 b6 3c f6 5f e8 3c
       -0.037540313 -0.026233923 0.022247879 0.02836607
0000f0 a4 63 3d bc e4 a1 ed bc 14 a4 cc 3c d0 fb 2b bb
       -0.011559401 -0.02900786 0.024980582 -0.0026242621

conv2.lin.weight f4 [64, 64]
000000 8b 24 8b 3d ce b1 34 bd e1 0d 2e be b9 09 34 bd
       0.067940794 -0.04411488 -0.16997482 -0.043954585
000010 ea e2 e6 bc c8 de f1 3c f5 e3 f6 3d 91 0b c4 bc
       -0.028184373 0.029525176 0.12055198 -0.023931297
000020 be 50 8a bd c1 04 b2 bd 21 61 72 bd b8 61 d1 bd
       -0.067536816 -0.08692313 -0.05917466 -0.102237165
000030 57 34 07 be 50 20 57 bd b9 95 67 3d 2f 8b 59 be
       -0.1320356 -0.05252105 0.05653927 -0.212445
000040 83 ab 36 3e d1 75 31 3e 98 22 0c 3e 49 1c 19 bd
       0.17838864 0.173301 0.13685071 -0.03738049
000050 59 61 70 be b9 e1 ac 3d 82 29 14 be b1 f9 16 3e
       -0.23474635 0.08441491 -0.14468959 0.14743687
000060 55 6e 3b 3e ef 96 23 be c8 c7 1f be 63 79 33 be
       0.18303807 -0.15975545 -0.15603554 -0.17526774
000070 9b bb c0 bd 03 8a 41 3c c0 d7 c0 bd b3 e2 c4 bd
       -0.09410783 0.01181269 -0.09416151 -0.09613552
000080 92 39 87 bb 26 87 c1 3d c4 d2 81 bd b8 52 c9 bd
       -0.004126736 0.09449606 -0.063390285 -0.098302305
000090 4c 49 88 3d 13 c8 65 be 5f d6 2c 3d d0 90 ee 3d
       0.06654605 -0.22439604 0.042196628 0.116487145
0000a0 2d 09 d5 3d fe 6f b7 bd e5 63 69 3e ba 71 2e bd
       0.10402141 -0.08956908 0.22792013 -0.042588927
0000b0 b3 b0 7f 3e bd c2 d9 bd 05 d0 2f bd ae 10 1a 3e
       0.24969749 -0.106328465 -0.042922992 0.15045425
0000c0 4c 6a 46 3e 42 07 0b be d7 aa 95 3d 62 97 8f 3d
       0.19376487 -0.13576987 0.07307976 0.07011296
0000d0 51 bc 83 bd 24 15 e1 3c 89 c5 f7 3d 39 b2 88 3d
       -0.06432403 0.027475901 0.12098224 0.06674618
0000e0 d8 ae 32 be 42 40 90 bd e3 f5 e9 3d 66 37 35 3e
       -0.1744951 -0.07043506 0.11423852 0.17696914
0000f0 b6 2f 8e bc 91 ed 02 3e e0 f4 43 be 2c d3 e8 bd
       -0.017356735 0.12785937 -0.19136381 -0.11368403
000100 8b 0b ff bd 1a 2a 9c 3d cd a8 4b 3e c4 60 37 be
       -0.124533735 0.07625218 0.19888611 -0.17908007
000110 ec 57 bd bd 66 76 e0 bd 45 5c 00 3e 85 49 22 be
       -0.092452854 -0.10960083 0.12535198 -0.15848358
000120 6e 34 3f be a5 67 d6 3d 86 ce 5c bd 8f 63 16 bd
       -0.18672344 0.104689874 -0.053907894 -0.03671604
000130 bd 7b 8a bd b7 89 e9 bc 48 2d 12 3e 3f 9b 8c bd
       -0.067618825 -0.02850805 0.14275086 -0.06865548
000140 75 cd f4 bd 62 b5 ab bd af 8c 73 bd dc 4b 20 3e
       -0.1195325 -0.083842054 -0.05946034 0.15653938
000150 64 9b d1 bd b2 6e 4e 3e 5d c5 1a be 4a 1a 67 3e
       -0.102347165 0.20159414 -0.1511435 0.22568622
000160 2e 46 3a be 58 62 2a be e4 d2 ed 3d f7 5f 54 be
       -0.18190834 -0.16639078 0.1161249 -0.20739733
000170 bb cc b1 bd 7c c7 33 3b 86 ef 56 3e 98 60 e0 3b
       -0.08681627 0.0027432134 0.20989808 0.0068474524
000180 4b 0a 3c 3e f8 53 a0 3d 0b 83 5c bd c1 e8 7f 3d
       0.18363301 0.07828516 -0.05383591 0.06247783
000190 e5 d8 14 be 5f e6 4a 3e e6 e7 2f 3e d0 9d 60 3e
       -0.14535864 0.19814442 0.17178306 0.219352
0001a0 b4 8a ff 3d 51 ce 05 be 95 62 6e be 75 ea 9b 3d
       0.124776274 -0.13066985 -0.23279794 0.076130785
0001b0 33 d0 2b bb dd ee 21 bc a0 e4 f7 3c e5 0b 2b 3e
       -0.0026216626 -0.00988361 0.030260384 0.16703756
0001c0 9c ef 9e 3d 90 19 5f 3e 12 36 50 3e 7b 14 20 be
       0.077605456 0.21787095 0.20333126 -0.15632813
0001d0 f6 dd 51 3d 28 23 61 3e 7f aa 89 3d 44 a2 02 3e
       0.05123707 0.21986067 0.06721973 0.12757212
0001e0 4a d6 46 bc ff 70 00 3e a9 9d 90 bd a1 a9 03 3e
       -0.012136051 0.12543105 -0.07061321 0.12857677
0001f0 31 7b 69 3e 5e f8 3e bc 3f 8f 02 3e 9d 77 2a be
       0.228009 -0.011655895 0.12749957 -0.16647191
000200 b1 fc 0a 3e 17 14 b0 bd f0 60 06 3e e9 ef fe 3d
       0.13572957 -0.08597582 0.13122916 0.12448103
000210 5b e6 30 3e 2b d8 f5 bd 5a 96 bf 3c 4d 8c 1a be
       0.17275374 -0.120041214 0.023387123 -0.15092583
000220 cb f0 78 3e b7 3f 6b 3d 78 47 58 be e7 e6 09 3e
       0.24310605 0.05743381 -0.21121013 0.13466989
000230 d9 8e bd bd 82 a5 29 3e 5e bc ee 3d 78 b5 4d 3e
       -0.09255762 0.16567042 0.11657022 0.20088756
000240 c1 a7 be 3d c3 8e c3 ba 07 4c cb bb a3 8a 19 3e
       0.0930934 -0.0014919866 -0.0062041315 0.14994292
000250 f5 ed fb bd 44 f4 d3 bc 9d 1b f8 3a 60 b2 fa 3d
       -0.12301246 -0.02587331 0.0018929128 0.122410536
000260 af 9d 4c 3e b8 1b 35 be b4 18 5c 3e a7 84 4f 3e
       0.19982027 -0.17686355 0.21493798 0.20265447
000270 27 62 4e 3e 57 42 04 bc 04 dc 8c bd 0d 43 22 be
       0.2015463 -0.008072457 -0.06877902 -0.1584589
000280 4e 95 f4 bd 3d d3 23 3e 14 f4 5c be 8a cd ef 3b
       -0.1194254 0.1599855 -0.21577483 0.0073182033
000290 38 c7 1c be a8 a9 0b 3e 61 7b 34 be 5d 14 10 3e
       -0.15310371 0.13638937 -0.1762519 0.14070268
0002a0 99 93 a3 bc d3 a5 29 3e 31 3c 99 3d 72 54 1d bd
       -0.019967841 0.16567163 0.07482184 -0.03841061
0002b0 58 6a 1d be e2 3a 91 3d 0f 35 61 3e c5 ce 67 bd
       -0.15372598 0.07091309 0.21992896 -0.056593675
0002c0 cb 05 bc 3d 5b f3 08 3e bf 93 22 be c1 fe f0 bd
       0.091807924 0.13374083 -0.15876673 -0.117673405
0002d0 48 e6 a8 3d a1 a1 52 be 6d 8b cc 3d 45 2f 60 bd
       0.08247048 -0.20569469 0.09987531 -0.05473258
0002e0 a9 75 a1 bb d6 c0 f0 bd b1 aa 1c 3c ae 11 2b be
       -0.0049273563 -0.117555305 0.00956218 -0.16705963
0002f0 10 3e 08 bd 82 1f c7 bd 78 9d 16 be 7e 48 93 3d
       -0.033262312 -0.097228065 -0.14708507 0.07191561
000300 85 a4 af 3d 43 8f f9 bd 42 ed 5e be 74 46 54 3e
       0.085763015 -0.12185528 -0.21770194 0.2073
000310 aa 55 74 3d ec 4d 72 bd 3c 23 e3 3d bd cf fb bc
       0.059652008 -0.059156343 0.11090705 -0.030738706
000320 42 99 d7 bd 65 a4 cb 3d 65 8c da bb c8 c9 58 be
       -0.105272785 0.09943465 -0.0066695684 -0.21170723
000330 08 25 08 be 31 ca e2 bc 29 a4 55 bd aa 3a 3d 3d
       -0.13295376 -0.027684303 -0.05215851 0.046198525
000340 9a 8f d2 3c 05 49 29 be 3d df 1e 3e 65 12 33 3e
       0.02570324 -0.16531761 0.15514846 0.17487486
000350 f4 a4 34 3d ae 04 8d bc 89 be 1c 3e cd 17 a4 bd
       0.044102624 -0.017214146 0.15307058 -0.08012352
000360 4b 1f 09 bd 79 49 b8 3c a2 75 62 3e d2 56 f7 bd
       -0.03347711 0.022495972 0.22115186 -0.120771065
000370 9e 71 5b bd 2d f9 33 be cb 66 13 3e b0 71 35 be
       -0.05357515 -0.17575522 0.14394681 -0.1771915
000380 3a 49 e5 3d 9c 14 eb bd 26 fe 29 3e 95 56 1e 3e
       0.111956075 -0.1147854 0.16600856 0.15462716
000390 3f bd 3d be 8e aa 43 3d 6f 0e 4a 3e 7a c8 2a 3e
       -0.18529223 0.047770076 0.19732068 0.16678038
0003a0 ef f4 23 3e 3c 68 4a bd 0e 6a 77 be f4 97 1a bc
       0.16011404 -0.049415812 -0.2416155 -0.0094356425
0003b0 4d 25 2d 3d 68 9e 87 3c 8a 57 18 be d0 69 66 be
       0.0422719 0.016555026 -0.14877144 -0.22501302
0003c0 7e 24 09 3e a7 92 e6 bd c4 2e 62 be 30 cc 85 3c
       0.13392827 -0.112584405 -0.22088152 0.016332716
0003d0 14 c5 38 3e a5 03 4e 3e 23 3c c9 3c 19 67 13 be
       0.1804393 0.20118578 0.024564808 -0.14394797
0003e0 18 c8 7a 3d 37 99 62 3e 51 c3 13 be d8 b1 49 be
       0.06122598 0.2212876 -0.14429976 -0.19696748
0003f0 97 8e 5f bb 97 bd 71 3b 35 ce 0d 3e d3 e2 26 3d
       -0.003411209 0.0036886686 0.13848193 0.04074366

conv3.bias f4 [128]
000000 21 bc be 38 56 26 01 ba 65 64 d2 3a 2b 3b a3 ba
       9.094948e-05 -0.0004926672 0.0016051648 -0.0012453547
000010 19 71 5b ba 65 49 d0 ba 24 9b ba 3a 84 a2 93 ba
       -0.000837104 -0.0015891014 0.0014236909 -0.0011263643
000020 38 01 5f 39 22 82 c4 ba 69 61 a6 ba 9d 05 db 3a
       0.00021267391 -0.0014992396 -0.0012693825 0.0016710047
000030 e0 b4 af ba 2b 86 eb 39 d7 42 a9 3a 80 86 45 39
       -0.0013405345 0.00044922656 0.0012913597 0.00018837489
000040 21 51 dc 3a e4 4e 62 ba 93 8b b0 b9 df 69 08 3a
       0.0016808846 -0.00086329714 -0.00033673327 0.00052037643
000050 e0 67 bf 39 c8 41 d5 ba 76 66 87 b9 ec af 59 3a
       0.00036507752 -0.0016270215 -0.00025825546 0.00083041075
000060 65 ca 84 3a db 2f 8c 39 4a 1c e9 39 3f e8 80 b9
       0.0010131119 0.00026738536 0.000444623 -0.000245871
000070 4d e9 a8 39 f3 91 dc ba a0 62 92 3a b5 60 10 3a
       0.0003221728 -0.0016828164 0.0011168309 0.00055075745
000080 63 9c 06 b9 e3 8b d3 ba ae 60 c0 b9 7d ee db ba
       -0.00012837494 -0.0016139712 -0.00036693126 -0.0016779449
000090 7e 04 99 ba 90 be c1 b9 48 72 06 3a 26 52 b7 3a
       -0.0011674312 -0.0003695381 0.00051287236 0.0013986274
0000a0 9c 7e 06 ba 01 d5 3e 3a 9c 41 d0 3a 93 52 a3 3a
       -0.00051305606 0.0007279665 0.0015888694 0.0012460522
0000b0 89 e7 ee b8 15 2d af ba f1 f5 1e ba 9d c8 11 3a
       -0.00011391851 -0.0013364876 -0.000606387 0.0005561205
0000c0 d9 2b cb 38 7a b6 2b 3a 79 19 fc 37 6f 5d a6 ba
       9.6879616e-05 0.00065503235 3.0052603e-05 -0.001269264
0000d0 77 b1 da 3a cd 96 d2 ba 27 32 d9 38 c1 1e 34 ba
       0.0016684969 -0.0016066671 0.00010356708 -0.0006871038
0000e0 ad b7 43 39 3b 09 4e ba 27 3f 73 3a f8 14 91 ba
       0.00018665074 -0.0007859652 0.0009279125 -0.0011068871
0000f0 35 aa 3b ba 8f bd 35 39 48 d1 1f ba ae a2 36 39
       -0.0007158847 0.00017332121 -0.0006096554 0.00017417475
000100 26 fe a7 3a 23 f3 a4 3a ec cf a5 39 4f 2a e9 39
       0.0012816831 0.0012584667 0.00031626166 0.00044472746
000110 a3 6b 69 39 e4 f2 bc ba b5 c6 92 3a c7 aa e5 b9
       0.0002226071 -0.0014415649 0.0011198135 -0.00043805523
000120 8e e3 81 ba 37 0c d7 ba 7a 54 a6 3a e5 91 3e ba
       -0.0009909736 -0.0016406839 0.0012689971 -0.0007269665
000130 65 0f 76 ba be 90 c5 38 76 fc fb b8 4c 42 94 3a
       -0.0009386449 9.420652e-05 -0.00012015637 0.0011311262
000140 b5 77 8c 39 a4 3a c8 39 df 04 74 3a 1f b3 f0 b8
       0.0002679207 0.00038190663 0.0009308587 -0.00011477456
000150 85 b3 30 b9 5e ad 94 3a bb 75 02 b9 d3 27 37 ba
       -0.00016851544 0.0011343171 -0.00012441624 -0.000698683
000160 38 a3 a3 ba c9 12 dc 3a 6e f8 27 ba 4a 0c 8e b9
       -0.0012484556 0.0016790266 -0.00064075633 -0.00027093507
000170 a8 0f a2 39 31 c9 8d ba c3 86 b0 3a 85 50 5e 3a
       0.00030910713 -0.0010817406 0.0013467896 0.0008480626
000180 05 6e 2d b9 cc 0a 7a 3a 42 da d0 ba 9b 37 a8 3a
       -0.00016539551 0.0009538352 -0.0015934187 0.0012833955
000190 31 da 57 39 10 0e a6 b9 d8 40 19 b9 1e 35 22 ba
       0.0002058528 -0.00031672465 -0.00014615373 -0.00061877246
0001a0 fd dd 65 ba 00 6b 8e 39 e5 55 cb 3a d4 a5 05 ba
       -0.00087687356 0.00027164072 0.001551327 -0.00050982577
0001b0 b5 de 2c ba 4c ae b0 3a 97 41 8f 39 23 b0 c0 39
       -0.0006594465 0.0013479679 0.00027323954 0.00036752326
0001c0 a9 bf 07 ba c3 23 c0 39 a9 23 4f b9 c7 9f ba 38
       -0.0005178401 0.00036647738 -0.00019754343 8.898932e-05
0001d0 47 c0 82 b8 d1 99 f6 ba 2e 6e 01 3a 40 79 56 3a
       -6.2346975e-05 -0.0018814151 0.00049373775 0.000818152
0001e0 9c 84 20 ba 84 55 28 b9 6d 0e bb 3a 0c f1 be 38
       -0.0006123276 -0.00016053586 0.0014271267 9.1048045e-05
0001f0 f4 3b cf 39 bc 9a af 3a 34 78 db 3a 39 ad 93 b9
       0.00039526785 0.0013397555 0.0016744197 -0.00028167086

conv3.lin.weight f4 [128, 64]
000000 65 a0 73 bd db 17 4c be e1 e5 76 bd e2 75 41 be
       -0.059479136 -0.19930975 -0.060277823 -0.18892625
000010 9d d6 3a 3d aa b7 43 3e 58 0d 10 3e d1 c9 05 be
       0.045614827 0.19113031 0.1406759 -0.13065268
000020 1e b5 a9 bd 09 10 02 be 53 12 b9 bd 80 56 c6 bd
       -0.082864985 -0.1270143 -0.09036698 -0.09684467
000030 af d4 06 3e dd 17 37 3e 91 1c 76 bd 6c 6b 12 be
       0.1316707 0.17880197 -0.060085837 -0.1429879
000040 97 c6 2b 3d b9 8e 4f 3d 37 13 80 bd 63 18 19 be
       0.041937437 0.05067322 -0.06253665 -0.14950709
000050 0b d6 d7 3c 00 c5 c7 bd 63 ca 8c 3d c5 ff 87 3d
       0.02634718 -0.09754372 0.0687454 0.06640581
000060 1b 25 91 3d 89 09 06 be 27 cd 2c 3d 2e 57 b3 bc
       0.070871554 -0.13089575 0.042187836 -0.021892156
000070 d6 32 9e bd 2d af 39 be 1a 2d 93 3d 7d fc 71 3d
       -0.0772454 -0.1813323 0.07186337 0.059078682
000080 0e 90 94 bd f5 36 ac bc cf 07 7b bc 98 c4 97 3c
       -0.07254039 -0.0210223 -0.015321686 0.01852636
000090 a7 05 e9 3d b3 0e ff bc 4c d8 25 3e 3f d4 58 3c
       0.11378031 -0.031134939 0.16195792 0.013234197
0000a0 7f 07 e2 3c 84 ec 2e be c1 5d 16 3e bd 11 1d ba
       0.027591465 -0.17082411 0.14684202 -0.0005991718
0000b0 e9 67 e8 3d 37 af fc 3c 2d a4 64 bd 67 7a 9f 3d
       0.11347944 0.030845268 -0.055820633 0.07787018
0000c0 5a ea 90 3d 80 f7 46 be 22 6a 08 3d 81 c3 78 3d
       0.07075949 -0.19430351 0.03330434 0.060733322
0000d0 5d ff 56 3d 17 93 a4 bc 0b e9 ab 3d ea 9d 08 bd
       0.052489627 -0.02008967 0.08394059 -0.033353724
0000e0 48 f5 94 bc 0d 40 a3 bd c3 c2 18 3d f3 cb 12 be
       -0.018183365 -0.07971201 0.037295114 -0.14335613
0000f0 6f d2 09 be 4e 91 eb bd 32 cf 3b 3e 70 f9 19 3d
       -0.1345918 -0.11502324 0.18340757 0.037591398
000100 19 2e 96 bd dd 3c 24 be fb 2e bd 3d e2 98 a5 bd
       -0.07333011 -0.16038842 0.092374764 -0.08085801
000110 64 23 3b 3c 6b fe 36 bd 00 80 fb bd 11 8b d7 3d
       0.011422012 -0.044676226 -0.122802734 0.10524572
000120 61 25 dd bd dc b3 86 bc 5f 08 3a be 02 76 0a 3d
       -0.10798145 -0.016443186 -0.18167256 0.033803947
000130 8c ae 28 3d 02 6e 30 3c 0d 2f 24 bd c3 3c 04 3e
       0.041182086 0.010768415 -0.040083934 0.12913804
000140 ae d7 08 bc f8 42 a9 bd 0f 3e 26 be b6 76 0d be
       -0.008352203 -0.082647264 -0.16234611 -0.13814816
000150 5e 7f e6 3d 30 2c ad bd 7d b0 01 be 24 3a 20 3d
       0.11254762 -0.08455694 -0.12664981 0.039117947
000160 38 de 9c 3b 9f 21 1b 3e 7b a0 d3 bd 50 a7 18 be
       0.0047872327 0.15149544 -0.103333436 -0.14907575
000170 fc eb d6 3d 50 00 4a 3c 20 79 ce 3c ec dc a6 bd
       0.10494229 0.012329176 0.025204241 -0.08147606
000180 fa ad 0d 3d a1 41 12 3b 21 a4 80 3d a3 19 2a be
       0.034589745 0.002231695 0.06281305 -0.16611342
000190 ed d6 df 3d 52 34 26 3e 3f 13 8c bd ce bf 32 3e
       0.10929666 0.16230896 -0.068396084 0.1745598
0001a0 86 02 f2 3d ed 27 b9 3d a0 a0 ba bd 1e 63 57 bc
       0.118168876 0.09040818 -0.09112668 -0.01314619
0001b0 3f c7 21 bd 62 f5 09 be 2a 76 16 be ec 2b de bd
       -0.039496657 -0.13472512 -0.14693514 -0.10848221
0001c0 7f e2 55 3d 82 fb 9d 3d dd 00 21 3d 8a 31 3a bd
       0.052217957 0.07713987 0.039307464 -0.0454574
0001d0 12 27 d4 3d 75 d1 80 3d 1f 78 dc bd 88 a0 26 3d
       0.103590146 0.06289951 -0.10765099 0.04068044
0001e0 49 e4 4a be a3 17 15 3e 4d b1 d6 bd a4 1b 4a bd
       -0.19813646 0.14559798 -0.10483036 -0.049342766
0001f0 3e 6b 33 3d d4 f1 d4 bd 52 b1 06 3e 85 cc 1b 3d
       0.043803446 -0.103976876 0.1315358 0.038036842
000200 39 b4 ed 3c 13 d2 20 bd 1e 63 02 3e 0d ad ed bd
       0.0290166 -0.039262842 0.12733123 -0.116052724
000210 ee ae aa bd 79 d3 b7 3d ba 00 19 3e 10 fc 3b bd
       -0.083341464 0.08975882 0.14941683 -0.045894682
000220 d3 55 79 3d 78 7f b1 3d 49 b0 19 3d 7e 02 bc bc
       0.060872864 0.08666891 0.037521634 -0.022950407
000230 22 0e 29 3c a1 09 0f 3e 99 59 80 3d 59 bd e5 3d
       0.010318311 0.13968517 0.062670894 0.11217756
000240 a1 6c 19 be 30 66 de 3c b6 e1 25 be df 89 ab bd
       -0.14982845 0.027148336 -0.16199383 -0.08375906
000250 a3 d1 51 bd ab 10 8b bd c8 97 db bd a2 ba 11 3e
       -0.051225316 -0.067902885 -0.10722309 0.14231351
000260 c1 b8 4a be 22 f9 8e 3d 86 6b 98 3d 72 f8 2c bc
       -0.1979704 0.06981112 0.074423835 -0.010557281
000270 34 87 7f bd 91 c7 9a bd 27 2d f2 3d d3 e7 1f 3b
       -0.0623848 -0.075575955 0.118250184 0.0024399653
000280 b7 7b 8d 3d 30 7b 5b bc 85 f1 24 3d 94 d6 1d 3d
       0.06908362 -0.013396069 0.040269393 0.038534716
000290 ba d6 4c bd 5a ca a5 bd 30 9b 24 ba ed d2 2a bd
       -0.050009467 -0.08095236 -0.0006279228 -0.04170506
0002a0 7f cd 0f 3e 10 1a 5e bd 48 3f 0d 3e bd d9 a4 3d
       0.14043234 -0.054224074 0.13793671 0.08049343
0002b0 4b ff 12 3e b6 9e 2c 3e 83 f4 39 bc 80 fe 42 bd
       0.14355199 0.16857418 -0.0113498 -0.04760599
0002c0 98 ad e4 3d 3b 51 24 be 15 11 91 3c 50 71 e9 bc
       0.11165923 -0.16046612 0.01770834 -0.028496414
0002d0 03 91 fd bd 91 c8 81 bd 8c eb ef bd 54 23 fe 3d
       -0.123811744 -0.06337083 -0.11714849 0.12409082
0002e0 45 07 0c be 07 3b b6 bd 0f 86 44 be 4c b7 8d bc
       -0.13674648 -0.08897977 -0.19191764 -0.017299317
0002f0 b8 8d 29 3e 21 32 09 3d 24 9a 25 3d 64 7a a6 3d
       0.16557968 0.033495072 0.040430203 0.08128813
000300 20 c1 cd bd 53 b0 84 3b 06 d7 57 bd 2c 45 2a bd
       -0.10046601 0.00404934 -0.052695297 -0.041569874
000310 c0 18 49 3d 2b 6e a4 3d eb d7 01 3e 21 4a 31 3c
       0.04909587 0.08028825 0.12680022 0.010820896
000320 18 58 f5 3d 52 f9 85 bd 5c a4 9b bd ae 2b 27 be
       0.11979693 -0.06541695 -0.075997084 -0.16325256
000330 d8 c1 ac bd c0 e1 74 3d 8a 8a 9e bd 31 e1 c7 bd
       -0.0843541 0.059785604 -0.07741268 -0.09759749
000340 4d b8 a6 3d 5e d1 de 3d d1 a2 df bd 76 99 d0 3c
       0.08140621 0.10879777 -0.10919727 0.0254638
000350 99 22 d6 3d d0 9d e2 bc 90 40 e6 bd 95 5d 84 bd
       0.10455818 -0.027663141 -0.11242783 -0.06463162
000360 5c 54 1b 3d 43 ac b8 bd 39 18 81 3d 3a ac 94 bd
       0.03792225 -0.09017231 0.06303448 -0.07259412
000370 3f 73 9c 3d 7e f6 ea 3d c2 75 d9 bd 10 21 00 be
       0.07639169 0.11472796 -0.10618164 -0.12512612
000380 0a 2d 18 3e 87 83 f9 3d ac 05 c9 3c 3c 47 8e bd
       0.14860931 0.1218329 0.024538837 -0.06947181
000390 70 0f bd 3d 68 22 3f be 13 a7 0b 3e 8d 81 22 3e
       0.0923146 -0.18665469 0.13637953 0.15869732
0003a0 3d 84 2f bc 21 ee 28 be 3d 6c d8 bd 7b 4f 8b 3d
       -0.01071268 -0.16497089 -0.1056752 0.06802269
0003b0 ff 2c 44 3e bc 17 1b 3d 62 9d 0b be 26 44 21 be
       0.1915779 0.03786443 -0.13634256 -0.15748653
0003c0 60 d6 1b be 15 32 1a 3d 03 fe 48 bd a7 3a a3 bd
       -0.15218496 0.03764542 -0.04907037 -0.079701714
0003d0 a8 00 b6 3d bd 21 e5 3c 62 42 bc 3d a9 1d 87 bc
       0.08886844 0.02797019 0.09192349 -0.016493635
0003e0 32 40 11 bc a8 25 49 bd 10 86 07 be 4c 78 08 be
       -0.008865403 -0.049108177 -0.13234735 -0.1332714
0003f0 df 48 eb 3d 39 36 be bc 2b ab c9 bd 81 1b 0e be
       0.114885084 -0.023219215 -0.09847101 -0.1387768

conv4.bias f4 [256]
000000 5a 04 ef bc ec af f0 bc 5c d8 f4 3c 2b 3f c9 3c
       -0.02917688 -0.029380761 0.029888324 0.024566254
000010 2a c6 02 3d 4d df e0 bc 55 87 06 bc 9a 8c f6 3c
       0.031927265 -0.027450228 -0.008210977 0.03009634
000020 e9 84 ed 3c 21 b8 ff bc 7d 39 dc bb fc a0 e1 bc
       0.02899404 -0.03121573 -0.0067207203 -0.027542584
000030 fb 9e 08 3d 52 76 f4 bc ac 74 f2 bc d7 e5 f4 bc
       0.03335474 -0.029841576 -0.02959665 -0.029894752
000040 a3 7c 01 bd 93 9a e4 3c 3a 5e fa bc 57 ee ad 3c
       -0.031613003 0.027905738 -0.030562509 0.021231813
000050 3e 64 df bc d4 32 02 bd 05 f8 ef 3c 9e 56 1f 3d
       -0.027269479 -0.031786755 0.02929307 0.038900964
000060 8a e0 e2 3c 75 3c 11 bd 7e eb c4 3c 45 44 fe bc
       0.02769496 -0.035458047 0.024038073 -0.031038413
000070 24 04 1b bd 02 cb e7 bc 60 5d 3f bd 45 44 d8 3c
       -0.037845746 -0.028295044 -0.04671991 0.026399741
000080 20 c5 f5 bc 8c b6 19 bc 27 8b e7 bc 5d 7a d7 3c
       -0.030001223 -0.0093819015 -0.028264595 0.026303465
000090 8f 60 00 bd 05 28 9f 3c 6e b6 cd 3c f9 4c b8 3c
       -0.031342085 0.019428262 0.025111403 0.02249764
0000a0 e7 70 02 3d eb e5 eb 3c f8 be f7 bc 81 2f 04 3d
       0.031845953 0.028796157 -0.030242428 0.032271866
0000b0 ff 15 15 bd ec a1 e9 3c 9b 5f fc 3c e3 97 fa 3c
       -0.03639793 0.028519593 0.030807307 0.030590003
0000c0 c2 36 d7 3c b3 6d 40 bc 7e d4 ee bc 0d 40 f8 bc
       0.026271228 -0.011744904 -0.029154059 -0.03030398
0000d0 0e ce ec 3c d7 aa fe bc 24 2a c4 3c 7a ad a6 3c
       0.028906848 -0.031087322 0.023945875 0.020346392
0000e0 7b e2 27 3d 4e 54 03 bd 60 b5 01 3d 36 c7 c0 3c
       0.040987473 -0.03206282 0.031667113 0.023532491
0000f0 c1 95 14 3d 5d 55 c4 bc 35 3f e4 3c 43 5c ec bc
       0.03627563 -0.023966486 0.02786217 -0.028852588
000100 73 5a f7 bc 8b a3 eb 3c e8 ee be bc 2f 3c 51 3c
       -0.030194497 0.028764507 -0.023307279 0.012770697
000110 16 27 f6 bc 55 bd ef 3c b4 63 bc 3c 1c 12 e5 bc
       -0.030047935 0.029265085 0.02299676 -0.027962737
000120 3c 86 26 3d 0c 53 f8 bc 2c 77 ef 3c cd 41 03 bd
       0.04065536 -0.030313037 0.02923163 -0.032045174
000130 0d 95 fb bc 8f bd eb bc 6b 88 d2 bc a5 2a c4 3c
       -0.030710721 -0.028776912 -0.025699815 0.023946116
000140 ff 8c e1 bc 9a 54 db 3c 3f 9c ee bc 9a 78 e4 3c
       -0.027533052 0.02677374 -0.029127238 0.027889539
000150 19 76 f7 bc 49 de ff bc 93 0b d8 bc 2f 14 0c 3d
       -0.03020768 -0.031233924 -0.026372707 0.034198936
000160 8f 7c d2 3c 34 c1 ee bc d1 54 e2 3c aa b0 df 3c
       0.02569416 -0.02914486 0.027628334 0.02730592
000170 dc cc 1c 3d 3f ff e8 bc 40 b8 97 3c 7a 36 00 bd
       0.038281307 -0.028442023 0.018520474 -0.031301953
000180 5a 8c 1a bd 5c 18 89 3c 73 34 f2 3c c8 3f 07 bd
       -0.037731506 0.016735248 0.029566025 -0.03301981
000190 9b 6c 17 bd 3e 17 f4 3c 02 c4 bc bc 11 43 8a 3c
       -0.03696881 0.029796239 -0.023042683 0.016877683
0001a0 e6 98 07 3d df c0 00 3d 7f be ee bc 6d 4a dd bc
       0.0331048 0.031433936 -0.02914357 -0.027013028
0001b0 2d 66 fa 3c c3 44 fb bc fb 93 ed bc 5a be 07 3d
       0.0305663 -0.030672437 -0.029001227 0.033140518
0001c0 da 39 e3 bc 1e 6d f8 bc 9c 74 f3 bc fd c1 11 bd
       -0.027737547 -0.030325469 -0.02971869 -0.035585392
0001d0 49 96 de bc c1 55 d2 bc cc 1b cf bc 8f 48 23 bd
       -0.02717127 -0.025675656 -0.02528181 -0.03986412
0001e0 4e e8 d3 bc 1d 15 f3 3c f3 fc 07 3d a0 03 1a 3d
       -0.025867607 0.029673154 0.033200216 0.037601113
0001f0 fd f3 02 bd 7d d8 f9 bc f7 7d ae 3c 37 74 16 bd
       -0.031970967 -0.030498737 0.0213003 -0.036731925
000200 03 08 d0 3c 30 c8 e5 3c 22 37 f0 bc 29 77 ec 3c
       0.025394445 0.028049558 -0.029323164 0.028865414
000210 cc 64 de bc 9e 7b 02 3d 2b e4 f8 bc 79 42 24 bd
       -0.027147673 0.03185617 -0.030382236 -0.040102456
000220 61 62 20 3d e3 cf f0 bc 24 00 e0 bc ca f6 f1 3c
       0.03915632 -0.029396003 -0.027343817 0.029536624
000230 71 21 e3 bc 8b 8d 05 bd 50 6a d8 3c d3 4d c2 3c
       -0.027725907 -0.03260569 0.026417881 0.02371875
000240 a0 55 e0 3c 46 76 05 bd 4f f0 f1 3c 22 f6 db bc
       0.02738458 -0.032583497 0.029533533 -0.026850764
000250 0b e6 a6 bc ea f8 f5 bc 18 85 e5 3c 4f 7d b2 bc
       -0.020373365 -0.030025918 0.028017566 -0.021788267
000260 80 21 e8 bc dd 3e ef bc 25 3b fe 3c 9c f8 96 3c
       -0.028336287 -0.02920478 0.031034062 0.018429093
000270 4f 06 f4 bc 14 57 cd bc ae ca 0c bd 85 76 db bc
       -0.029788164 -0.025065936 -0.034372978 -0.026789913
000280 3c ec cb 3c df ca a5 bc 73 e5 e6 3c 4b 9a 03 3d
       0.024892919 -0.020238338 0.028185582 0.032129567
000290 27 69 d1 bc 38 bd 16 3d f6 ad 02 bd 97 99 b9 3c
       -0.025562836 0.036801547 -0.031904183 0.022656245
0002a0 68 a7 e7 bc 68 4c e9 3c 17 08 07 bd 61 8d fe 3c
       -0.028278068 0.028478816 -0.0329667 0.031073274
0002b0 a0 40 14 bd 95 b3 a7 3c 05 38 f9 3c b8 4c 0b bd
       -0.036194444 0.020471374 0.03042222 -0.03400871
0002c0 0b 90 b1 bc 37 ef 0b bd 94 74 01 3d 3f 43 c5 bc
       -0.02167513 -0.03416368 0.03160532 -0.024079917
0002d0 0d f8 b7 3c 57 8c 03 bd 56 a1 8c 3c 81 e2 cc 3c
       0.022457147 -0.03211626 0.017166775 0.02501035
0002e0 af 9e e0 bc 3d e8 f0 bc 2f c8 f2 bc 79 a3 ec bc
       -0.027419416 -0.029407615 -0.02963647 -0.028886544
0002f0 05 96 bf 3c e5 02 f2 bc cf f5 fd bc ab 2d d3 3c
       0.023386965 -0.029542396 -0.031001 0.025778612
000300 52 0a ed 3c 22 94 f9 3c 01 9d ee 3c 3e a2 f0 bc
       0.028935585 0.030466143 0.0291276 -0.029374238
000310 8e d7 d0 3c bb ef 05 3d 6d 1a 28 3d fc 48 02 bd
       0.02549341 0.032699328 0.041040827 -0.031807885
000320 9f c2 2f 3d 0f f8 f1 3c 36 02 e1 3c e1 9f 04 bd
       0.042910215 0.029537229 0.027466875 -0.032379035
000330 20 2b 05 bd 92 e0 03 3d b0 b6 66 3c 2b a7 05 3d
       -0.03251183 0.03219659 0.014081642 0.032630127
000340 ff 10 d7 3c 0a 09 0b bd f3 c8 e7 3c c6 f4 fa 3c
       0.026253222 -0.033944167 0.028294062 0.030634295
000350 28 85 b6 bb e7 1e f4 bc bb e1 f5 3c be 78 e6 bc
       -0.0055700727 -0.029799892 0.030014863 -0.028133746
000360 00 9a da 3c d9 02 a8 3c ef f1 16 3d 74 45 e6 bc
       0.026684761 0.02050917 0.03685182 -0.02810929
000370 ec 36 ff bc 92 dc e9 bc 0e 2a 63 3c 6d d5 ee 3c
       -0.031154118 -0.028547559 0.013865007 0.029154504
000380 fe fe c2 bc 7e d7 e1 3c 35 14 f8 3c 9b 6e fa bc
       -0.02380323 0.027568575 0.030283073 -0.030570319
000390 f5 c5 f1 3c 50 70 f6 3c 89 a8 f0 3c ac aa 2a bd
       0.029513339 0.030082852 0.029377239 -0.04166667
0003a0 b9 12 02 bd bb 3e 04 bd 83 a0 60 3c 1c 61 ef 3c
       -0.031756137 -0.032286387 0.013710144 0.02922111
0003b0 18 73 f8 bc 83 8f 00 3d af 10 0e bd 7d 18 dd 3c
       -0.030328318 0.031386863 -0.03468388 0.026989216
0003c0 79 1f fa bc b1 f4 f6 bc b3 76 fc 3c 6e 6d 13 3d
       -0.030532585 -0.030145975 0.030818319 0.035993032
0003d0 76 0f e5 3c 23 0b aa 3c de 52 d1 bc 2f fd de 3c
       0.027961474 0.020757264 -0.02555221 0.027220337
0003e0 90 5f f7 3c 5e c0 dd 3c 1f 14 f5 bc 8f 8d eb 3c
       0.030196935 0.027069267 -0.029916821 0.028754024
0003f0 7f c4 d8 bc 16 e2 04 bd e3 a5 e0 bc 64 69 fc bc
       -0.026460884 -0.032442175 -0.027422851 -0.030811973

conv4.lin.weight f4 [256, 128]
000000 16 a9 72 bd 19 36 40 bd 64 1e c1 3d 56 c8 e8 3d
       -0.059243284 -0.04692659 0.09429625 0.11366336
000010 45 32 a4 3d 4d 06 d1 bd 06 f0 1c be f7 db 01 be
       0.08017401 -0.1020628 -0.15325937 -0.12681566
000020 c4 19 b4 bd df 94 06 3d b5 16 01 3e 33 5c 48 3d
       -0.08793977 0.03285682 0.12606318 0.048916053
000030 81 17 d2 bc 01 08 18 3e e9 bc 04 3e 10 12 9e 3d
       -0.025645973 0.14846803 0.12962689 0.07718289
000040 0c be 1a bd 6f 2c d0 bc 2c 41 8a bd 08 50 31 3d
       -0.0377789 -0.025411813 -0.06750712 0.043289214
000050 b7 7d 99 3c a5 91 48 3c 94 a2 00 be 2c 8e 9c 3d
       0.018736703 0.012241756 -0.12562019 0.07644305
000060 90 4e eb bd 54 15 89 bd 3a 6a 19 3e ee 5a 57 bd
       -0.11489594 -0.06693521 0.14981928 -0.05257695
000070 f9 23 0b 3e 6d 05 8f 3d fa 8a 1d 3c 3f 9a c3 bd
       0.13587941 0.06983457 0.009615654 -0.095509045
000080 5c 63 a0 3d f0 0b 99 bd ab d6 ed bc ea 7f 3f 3c
       0.07831451 -0.0747298 -0.029033026 0.011688212
000090 df 09 05 be 11 49 22 bd 98 89 a4 bd d6 70 1c bd
       -0.12992047 -0.039620463 -0.080340564 -0.038193546
0000a0 c4 40 ad bd a9 78 a2 3d 51 de fa bc 94 e1 cc 3c
       -0.08459619 0.0793317 -0.030623587 0.025009908
0000b0 9e e0 22 3d e1 cf 04 be 1b f4 b5 3d 65 bd 04 3e
       0.039764993 -0.12969925 0.0888445 0.12962873
0000c0 f5 a4 73 3d 84 81 f7 3c b3 a8 63 3d cd 65 c0 3b
       0.059483487 0.030213125 0.055580806 0.0058715106
0000d0 cc b3 b0 bd 0b 5c 42 3c b6 6c 32 3d d4 db 19 be
       -0.086280435 0.011862765 0.043560706 -0.15025264
0000e0 c7 5e a4 3c e6 9e 0f be 4f 62 00 bd b5 e7 a9 bd
       0.020064725 -0.14025459 -0.031343754 -0.08296148
0000f0 55 7e 01 bd 2c 84 03 be 2a fc b1 3c 5d c9 94 3d
       -0.03161462 -0.12843388 0.021726687 0.072649695
000100 b7 1f 25 3d 7d ed b4 3d bd da 95 bd 45 72 0d bd
       0.04031345 0.0883436 -0.07317112 -0.034532804
000110 6b 95 55 3d 5e 05 4f bb 78 fc a8 bd ea f4 20 3d
       0.05214445 -0.0031588892 -0.082512796 0.03929607
000120 4d 4e 1d 3e bf 9a e6 bc be 82 58 bd aa 40 6c 3d
       0.153619 -0.02814996 -0.05285906 0.057678856
000130 45 40 ed 3c 76 84 41 bd 23 3c 5b bd 42 01 05 be
       0.02896131 -0.047245465 -0.053524148 -0.12988761
000140 82 bb e4 3d 6e f3 66 bd ab 9f a9 3d b8 2d b1 3d
       0.11168577 -0.056384496 0.082824074 0.08651298
000150 87 32 86 bd 72 9e b7 bb 6a 9c cb bd 98 0d 1b be
       -0.06552606 -0.005603605 -0.09941943 -0.15141904
000160 47 8b 23 3d 94 d6 56 bd 35 27 95 bd 71 46 ff bd
       0.039927747 -0.05245073 -0.07282869 -0.124646075
000170 c1 9e 41 bd 6f 9d 80 3d 5a ce 55 bd 55 bd 5a bd
       -0.04727054 0.06280028 -0.052198745 -0.053403217
000180 27 87 b5 3d a6 db 00 3c 06 60 8b bd ab 3a 06 bd
       0.08863669 0.007864868 -0.068054244 -0.032770794
000190 25 b2 1d 3e 53 e4 aa 3d ab 68 99 3d e4 d2 3a 3d
       0.15399988 0.08344331 0.07490667 0.045611277
0001a0 38 96 0d be a8 1e 63 bd 75 05 67 3b 21 ee 52 bd
       -0.13826835 -0.055449158 0.0035251055 -0.05149663
0001b0 bc 42 02 3d 16 0e 76 bd 71 62 1a 3e 63 00 1e 3e
       0.031801924 -0.060072027 0.15076615 0.15429835
0001c0 ee 75 f0 3d 5c 6a 6a 3d a1 d4 2a bd d8 ce 9c 3d
       0.11741243 0.05723034 -0.041706685 0.0765664
0001d0 90 60 1d be 81 9e a6 3d 9e 6d 03 be 06 ea 87 3c
       -0.15368867 0.08135701 -0.12834784 0.016591083
0001e0 f1 aa b3 bd fc 3a 1c bd 33 ee 2e 3c 50 d6 39 bd
       -0.08772839 -0.03814219 0.010676908 -0.0453704
0001f0 80 eb ae bd 26 16 37 3c 06 7c 15 bd 84 72 e1 bd
       -0.08541012 0.011174714 -0.03649523 -0.1100817
000200 6f 41 a6 3d b4 6d 16 be 22 ef 06 be 20 13 7b 3d
       0.08117949 -0.14690286 -0.1317716 0.061297536
000210 ea 5b 36 bd 49 a9 3c 3d 20 40 20 bd 94 d4 00 bd
       -0.04452125 0.04605988 -0.039123654 -0.03145273
000220 f8 de e0 bc a6 81 6b bd b6 cf 06 be db c7 11 3e
       -0.02745007 -0.05749669 -0.13165173 0.14236395
000230 1e 78 fd 3c c5 5d 14 be d5 17 99 3d d7 ae f4 bc
       0.030941065 -0.14488895 0.07475249 -0.029868526
000240 3c bd 30 bb 9b 4d b0 3d d5 2a c6 bd ae 3c df bc
       -0.0026968261 0.08608552 -0.09676138 -0.027250614
000250 c3 27 ec bd e0 f4 f7 3b 41 a8 98 bd 0c f6 b4 3d
       -0.115310214 0.007567033 -0.07453967 0.08835992
000260 5a 2b 80 3d c0 9a e7 3d 5a 14 02 be e6 80 89 bd
       0.06258269 0.11308813 -0.12703076 -0.067140386
000270 ee 57 0d 3e 41 d3 8c 3c 4c 97 a5 bd 39 99 3b bd
       0.13803074 0.017190577 -0.08085498 -0.04580042
000280 ba 27 20 be 80 33 93 3c f0 8a 0d 3d 22 c2 e7 3c
       -0.15640154 0.017968893 0.03455633 0.028290812
000290 ca 2b de bd 58 f9 dd bd 64 29 c2 3d 59 54 b8 bd
       -0.10848196 -0.10838574 0.09480551 -0.09000463
0002a0 1b a0 5a bd 1f c8 9c 3d 29 28 63 3c 26 43 a8 3c
       -0.053375345 0.076553576 0.013864555 0.020539831
0002b0 70 ae ad bd 81 38 2e 3d 25 55 71 3b f2 0b 51 3d
       -0.08480537 0.042534355 0.0036824432 0.051036783
0002c0 47 98 b9 3d 26 f4 16 3e f8 0d 8b bd d7 cf d6 3d
       0.09062248 0.14741573 -0.06789774 0.10488861
0002d0 ab 4d d9 3d 56 13 21 3d 80 80 ea 3d 48 a9 56 bc
       0.10610517 0.03932508 0.11450291 -0.013101883
0002e0 4e 57 b2 3b a3 ad b3 bd fe 22 1b be a1 41 9d 3d
       0.0054425364 -0.08773353 -0.15150067 0.07678533
0002f0 8c 2c d9 3d f4 f3 bf 3d 4c 30 89 bc 62 68 be bc
       0.106042 0.09372702 -0.016746663 -0.023243133
000300 ec 73 01 3d ff a6 9a 3c 1d 42 8a 3d 63 31 43 3c
       0.031604692 0.018878458 0.06750891 0.01191363
000310 9f 43 37 3d b4 1e 08 be 04 5c 92 bd ec 8f f7 bd
       0.044742223 -0.13292962 -0.07146457 -0.12087998
000320 ff 59 bc bd 46 69 0b 3d a2 26 fa bb 53 a6 fe 3c
       -0.09196853 0.034035943 -0.007634 0.031085169
000330 cb 57 90 bd 7c 90 8d 3c 7e 71 c3 bd aa fb 05 3e
       -0.07047995 0.01728081 -0.09543131 0.13084283
000340 cd 0e c3 bd 22 b1 44 3d d8 26 bc bc ab 55 57 3d
       -0.095243074 0.04802049 -0.02296774 0.052571934
000350 b4 f2 07 bd 0a dc 18 bc b4 62 b7 3d 68 d1 45 3c
       -0.033190444 -0.009329805 0.08954373 0.012073852
000360 1c 1e 92 bd b1 39 e5 3d 31 dc 69 bd c4 16 3b 3c
       -0.07134649 0.111926444 -0.057094757 0.011419002
000370 f3 6b cc bc c4 ef 90 bd 3d 19 a3 bd 74 ef 0b bd
       -0.024953818 -0.07076982 -0.07963798 -0.034163907
000380 1d f5 64 bb fb 48 1d 3e 00 ba 9c bd 41 b1 8d 3d
       -0.0034936138 0.15359871 -0.07652664 0.06918574
000390 73 64 1c be b9 ca 48 3d 07 5f 13 be 98 c5 d8 bd
       -0.15272693 0.049021456 -0.14391719 -0.10584563
0003a0 1e 2f 28 bd 03 50 12 be 1b 18 35 3d a4 c8 d7 3d
       -0.04106056 -0.14288335 0.044212442 0.10536316
0003b0 72 4c 58 3d 40 48 8f bb 64 e8 af bd d5 e0 da bc
       0.05280728 -0.0043726265 -0.08589247 -0.026718536
0003c0 5a a3 38 bd ef c9 5b 3d f7 2b a4 bd 2d 8d fe 3c
       -0.04507766 0.053659376 -0.08016198 0.031073177
0003d0 4b a6 ca 3b 58 08 86 3d 33 6e 19 be c6 33 3e bc
       0.0061843744 0.0654456 -0.14983444 -0.011609023
0003e0 f9 54 87 3d 82 60 68 bd 5f 6c ea 3d 50 fe 89 bb
       0.06608004 -0.056732662 0.114464514 -0.0042112246
0003f0 47 58 08 3d f9 70 aa 3d 9b 25 4f bd 02 bc c7 3d
       0.033287313 0.08322329 -0.050572973 0.097526565

conv5.bias f4 [256]
000000 a2 19 61 39 2d 88 ba b9 4a 30 87 b9 14 8f cd 39
       0.00021467221 -0.00035578143 -0.00025785185 0.00039207248
000010 67 13 18 3a 6b c9 39 3a 7e f7 7c b9 32 22 91 39
       0.0005801231 0.00070872036 -0.00024124791 0.00027682033
000020 9a 3c a4 3a 7a 4b c7 39 5d ff 45 3a 9e eb b5 b8
       0.0012530268 0.00038012472 0.00075530057 -8.67464e-05
000030 c1 8f dc 36 ad 8d bf 39 ec 60 a4 ba 55 85 aa 3a
       6.573246e-06 0.00036535916 -0.0012541092 0.0013009707
000040 75 a0 ae 3a 76 8a 39 3a cb 9e 52 ba d2 97 9a 3a
       0.0013322966 0.0007077822 -0.0008034526 0.0011794514
000050 2d ce 37 3a e2 a1 f4 38 d8 f5 42 b8 c3 20 77 39
       0.00070116186 0.0001166498 -4.6482164e-05 0.0002356796
000060 b4 6a 4a ba bd 6c eb 38 0a 49 f1 38 91 8f 42 39
       -0.00077215885 0.00011225927 0.0001150538 0.00018554764
000070 da 14 62 3a fb a7 91 3a 55 4d 83 b9 6a d6 81 3a
       0.0008624323 0.0011112684 -0.00025043884 0.0009905819
000080 01 ef 04 3a 7f f2 a3 ba 77 75 5b 3a b9 db 89 3a
       0.0005071015 -0.0012508183 0.00083716906 0.0010517753
000090 2f 88 98 b8 db 90 42 3a 0c 41 87 ba c4 1d 09 39
       -7.273291e-05 0.0007422098 -0.0010319068 0.00013076427
0000a0 23 25 8d 3a 09 0b 18 3a 7a b7 6f b9 8f 9a 34 ba
       0.0010768514 0.0005799984 -0.00022861167 -0.0006889486
0000b0 2f 41 62 ba ba 5b 89 ba e1 4f 09 3a f6 ba cc 38
       -0.0008630929 -0.0010479607 0.0005238038 9.762302e-05
0000c0 d6 08 4d 39 cf 5b 05 3a 92 ad 33 39 a9 e2 8d 3a
       0.00019553615 0.0005087228 0.0001713543 0.0010824996
0000d0 3f 7d c7 b9 e6 d7 58 3a ab 05 6a b9 42 53 af 3a
       -0.00038049553 0.00082719175 -0.0002231809 0.0013376253
0000e0 fd f0 38 ba 7d 3d 74 b9 82 95 d5 3a ce c4 a1 ba
       -0.0007054953 -0.0002329256 0.0016295167 -0.0012341978
0000f0 3f a1 15 ba 73 60 da 3a 33 b3 8f b9 c6 98 d9 ba
       -0.00057079265 0.0016660824 -0.000274086 -0.0016601316
000100 d0 f5 18 ba 52 5c 2e ba f2 35 85 ba 3f 2a 31 39
       -0.0005834969 -0.000665133 -0.0010163172 0.00016895773
000110 8a 26 00 ba 25 a8 a1 ba ed 4e cd 39 0e 8e ed b9
       -0.0004888555 -0.0012333436 0.0003915945 -0.00045310002
000120 0a 5a 31 ba 9f 05 af 3a af 05 85 39 79 89 4f b9
       -0.0006765431 0.0013353116 0.0002537197 -0.00019792271
000130 f4 4f 87 b8 31 d1 df 38 df 4d 55 ba c0 b9 20 b9
       -6.452194e-05 0.000106724336 -0.0008136909 -0.00015327986
000140 14 8d a3 ba 91 70 76 ba a9 66 15 ba d0 e6 3b ba
       -0.0012477958 -0.0009400929 -0.00056991965 -0.00071678776
000150 0e 39 4d ba 0a da 9d 3a 27 2a c1 b9 b3 47 62 3a
       -0.0007828631 0.001204313 -0.00036843235 0.00086319
000160 a4 fd a8 3a 53 ed 1f 38 50 e9 bc b7 23 79 f1 39
       0.0012892974 3.812958e-05 -2.2519991e-05 0.00046057356
000170 ca fe 8b b9 7d 3a 82 ba 1d b4 2c 38 ca 14 7c ba
       -0.0002670198 -0.0009935644 4.117574e-05 -0.0009616135
000180 58 fc 3a 3a 5f 97 33 3a c8 ff c7 ba 50 8d 2f ba
       0.0007132939 0.0006850864 -0.0015258724 -0.00066967774
000190 f2 8d 92 b8 ec c9 db 38 9e a6 d0 38 58 a9 c4 b9
       -6.988262e-05 0.00010480345 9.949248e-05 -0.00037510204
0001a0 99 51 3d ba d5 da ab ba 29 64 35 3a 38 5d 66 3a
       -0.0007221937 -0.0013111482 0.0006919527 0.00087876944
0001b0 21 27 11 ba 7b d9 7c ba f4 c0 af 3a d2 83 70 ba
       -0.00055371417 -0.0009645444 0.0013408945 -0.0009174916
0001c0 d7 e1 e1 39 94 e9 a7 37 0e 3d ad ba be dc a7 b9
       0.00043083608 2.001672e-05 -0.0013217048 -0.00032017188
0001d0 06 a9 06 39 26 84 06 b8 6b 9a cb b8 5d d4 98 3a
       0.00012842202 -3.2071162e-05 -9.708557e-05 0.0011659969
0001e0 34 df af ba 6a 13 4a 3a 7a 5c cd b9 90 e9 d4 b9
       -0.001341796 0.00077085814 -0.00039169547 -0.0004060981
0001f0 1d 68 1e ba b5 28 ad ba 40 c5 7d 39 17 f8 7d 3a
       -0.0006042736 -0.0013210984 0.00024201442 0.00096881523
000200 6e 95 2b b9 5c 70 7a b9 bb 40 09 3a 11 bb 1e b9
       -0.00016363498 -0.00023883715 0.0005235781 -0.00015137742
000210 91 1f 94 3a 78 65 4a 39 89 00 02 3a b1 b0 86 3a
       0.0011300911 0.00019302021 0.0004959186 0.0010276047
000220 95 f7 9e ba 1e bf 20 ba 8f fb 6a 3a f8 bf 8d b9
       -0.0012128229 -0.00061319943 0.0008963877 -0.00027036644
000230 99 ce f2 b9 b7 3c 0e 39 88 18 a4 3a 07 be af b9
       -0.00046311764 0.00013564793 0.0012519518 -0.00033520182
000240 34 ee 82 b9 70 f9 03 b9 79 99 49 3a fc e3 66 3a
       -0.00024973007 -0.00012586056 0.0007690411 0.0008807776
000250 4a c1 07 b9 07 6a 58 ba 3e 5e 68 ba 00 7a 71 3a
       -0.00012946609 -0.00082555454 -0.0008864141 0.00092116
000260 6c 31 91 b8 05 8b 17 b9 1c e4 99 38 09 8b 98 39
       -6.923344e-05 -0.00014452271 7.338097e-05 0.00029095288
000270 44 ee 3f ba ad e4 86 b9 7a 48 0f 3a c8 d4 fa 39
       -0.0007321576 -0.00025728848 0.0005465817 0.0004784225
000280 ee 78 86 ba dc 85 63 39 d1 de af ba b2 80 37 ba
       -0.0010259429 0.00021698273 -0.0013417845 -0.0007000073
000290 ba f5 4e ba 37 36 3d 3a 11 31 95 3a 31 6c cd ba
       -0.00078948925 0.00072178565 0.0011382421 -0.0015672502
0002a0 0e 4e 09 3a 16 84 8b b9 7c ba 83 ba 54 70 3c ba
       0.00052377663 -0.00026610558 -0.0010050084 -0.0007188369
0002b0 99 35 1c b9 99 74 36 ba e2 55 1e ba 82 0c 53 39
       -0.00014897286 -0.00069601234 -0.0006040019 0.00020127188
0002c0 44 ef 2f ba dd 61 e2 39 6a bf 00 ba 88 e0 fb 38
       -0.00067113736 0.00043178993 -0.00049113354 0.00012010435
0002d0 68 63 87 3a d9 07 3e b9 d9 f3 a8 3a 33 31 b2 38
       0.0010329308 -0.00018122735 0.0012890055 8.4968655e-05
0002e0 06 56 c1 b9 f3 f4 44 39 a4 d7 b0 38 54 6c e1 39
       -0.0003687592 0.00018783267 8.4325e-05 0.00042996055
0002f0 23 91 98 38 f9 77 87 ba 09 2a 0c 39 68 7d 68 39
       7.2749586e-05 -0.0010335437 0.000133671 0.00022171962
000300 23 d7 58 ba 5d 81 7a b9 df 5f 2a 39 10 b6 b5 b9
       -0.0008271804 -0.0002389005 0.00016248178 -0.00034658657
000310 ca f3 5f 39 db 2c 9e 39 62 3b a5 b9 27 90 cd ba
       0.00021357756 0.00030169528 -0.00031515496 -0.001568322
000320 05 64 80 ba ad 9d 73 39 5c 26 e2 39 15 70 7c 3a
       -0.0009795433 0.00023233025 0.0004313466 0.00096297386
000330 17 56 dc 3a b0 c7 26 3a a2 87 3c 3a e1 50 67 b9
       0.0016810325 0.0006362153 0.0007191842 -0.00022060006
000340 f8 36 de b9 de 6d 94 3a 15 4a f0 38 6f d5 85 b9
       -0.00042384095 0.0011324247 0.00011457891 -0.00025526757
000350 c9 2f a0 ba 51 18 5e 39 5b 7f a4 3a 0e f5 c8 38
       -0.0012221272 0.00021180628 0.0012550162 9.582388e-05
000360 1f c6 c8 b8 4b c5 8b b9 99 5b 12 ba 76 60 f3 b6
       -9.573646e-05 -0.0002665914 -0.0005583107 -7.253194e-06
000370 16 db f1 b8 f3 a8 82 b9 17 c5 8e b8 76 db 98 b9
       -0.000115325834 -0.0002492141 -6.8077985e-05 -0.0002915521
000380 c5 15 3a 39 a5 67 af ba ee c9 62 ba eb 0b cb 38
       0.00017746452 -0.0013382329 -0.00086513057 9.682014e-05
000390 bd e3 c8 b6 ad be 85 3a 87 eb 33 3a 68 ba 8d b8
       -5.9869767e-06 0.001020392 0.00068634044 -6.758125e-05
0003a0 f7 a1 e4 b9 39 63 02 ba 0a 6d 80 39 89 37 08 b9
       -0.00043608222 -0.0004973892 0.00024495303 -0.00012990659
0003b0 73 ff b3 ba b1 09 ec b9 d6 95 f6 b7 fd b8 a8 3a
       -0.0013732746 -0.00045020648 -2.9395258e-05 0.0012872514
0003c0 65 b2 68 ba 71 58 8c 3a b8 b5 ae ba ca 5f 34 ba
       -0.00088766805 0.001070751 -0.0013329303 -0.0006880729
0003d0 63 36 36 b9 1f 2c 19 39 06 f3 fb 39 dd c8 92 3a
       -0.00017377133 0.00014607653 0.00048055517 0.0011198778
0003e0 35 f4 e4 39 6a d4 bc b8 b0 82 bc 3a a5 c8 32 37
       0.00043669497 -9.004104e-05 0.001438221 1.0656343e-05
0003f0 e4 8d be 3a 11 87 ce ba 86 f9 84 3a d9 b5 2a 3a
       0.0014538136 -0.0015756806 0.0010145165 0.0006512083
