weights/6-7-0-yfp_split_3.pt (torch, 473545 bytes, 26 tensors)

conv1.bias f4 [64]
0.00075239915 -0.0013468132 0.00043077226 0.001090721 -0.0011103918 -0.0001527244 -0.0002975064 -0.00016909055
0.00024030826 -0.0008307103 6.8291636e-05 -0.0012090823 0.0001901162 -0.0009967297 -0.0010120955 0.0008020776
-0.0012233502 0.0012576476 -0.0005634291 0.0005718354 -0.00018704306 -0.00013697037 -0.0010453566 -0.0012987172
2.440708e-05 0.0009671604 -0.00084945903 -0.0013382987 0.0011232228 -0.00054204155 -1.0865086e-05 -0.00079115375
-0.00011085994 0.0006968325 0.0010130352 0.00025085922 -0.000718824 0.00013548651 0.0007047615 -0.00084451126
0.0004546334 0.0009898634 -0.00095375266 0.001026692 -0.00056644325 0.0003655231 -0.00070469984 0.00047483033
-4.8029568e-05 5.771781e-06 -0.0013142034 -0.00075067795 -0.00053129165 0.0012229094 -0.000339486 -0.0007941687
-0.0002493446 0.00028161556 -0.000432205 0.000277095 0.0013315931 0.00048388576 8.9705194e-05 -0.00040413492
00000000: a73c 453a 8d87 b0ba 46d9 e139 86f6 8e3a
00000010: 918a 91ba a524 20b9 a2fa 9bb9 e64d 31b9
00000020: 42fb 7b39 06c4 59ba cb37 8f38 127a 9eba
00000030: ee59 4739 b3a4 82ba 4aa8 84ba 8442 523a
00000040: d258 a0ba a7d7 a43a 16b3 13ba 39e7 153a
00000050: fd20 44b9 b49f 0fb9 5904 89ba b839 aaba
00000060: cebd cc37 0989 7d3a 3bae 5eba da69 afba
00000070: 1a39 933a cb17 0eba 3049 36b7 6e65 4fba
00000080: 7a7d e8b8 a3ab 363a d2c7 843a c185 8339
00000090: 766f 3cba 6211 0e39 bebf 383a 3162 5dba
000000a0: dd5b ee39 4ebe 813a 4205 7aba 1192 863a
000000b0: 5d7d 14ba aea3 bf39 9bbb 38ba a6f2 f839
000000c0: 5b73 49b8 39ab c136 5941 acba 25c9 44ba
000000d0: 6146 0bba 084a a03a 0afd b1b9 c22f 50ba
000000e0: 77ba 82b9 cda5 9339 9399 e2b9 1047 9139
000000f0: da88 ae3a 0cb2 fd39 1c20 bc38 12e2 d3b9

conv1.lin.weight f4 [64, 2]
-0.1696727 -0.11998185 -0.00874812 0.2001142 0.0014580882 -0.05802064 -0.081759706 -0.0018835514
-0.029375028 -0.10612435 0.20969641 0.18616143 0.08390593 0.10869468 -0.13595133 0.15337262
0.10111196 -0.044864282 0.032200977 0.17328517 -0.09192049 0.1030907 0.038279403 -0.16920818
-0.034695484 -0.022024464 0.15753563 0.029353034 -0.0997174 -0.13038765 0.22403695 0.19760783
-0.20294297 -0.009353427 0.060825054 -0.25570032 0.022877226 0.31001392 -0.0654114 0.29755878
0.2754188 0.07841502 -0.25211382 0.102491096 -0.1839629 -0.16247945 0.23696534 0.019878875
0.20739794 0.068365544 -0.12837778 -0.08680089 0.17870866 0.12417618 -0.16672803 -0.11501731
0.11381952 -0.2205579 0.031075295 -0.041068193 -0.11119252 -0.2465363 -0.26077875 0.14331418
0.1391102 0.15497611 0.32164267 -0.100033455 -0.22929375 0.2198442 0.1656166 0.13841246
0.004118182 0.0626152 0.07844899 -0.023847258 0.18429165 0.21302272 -0.25104856 0.3052533
-0.23819372 0.29585302 0.15255758 -0.0047594714 -0.2050209 -0.17091934 0.04699962 0.23106165
-0.101959825 0.27611744 -0.19676384 0.30427596 0.31404245 0.07316601 0.01775428 -0.18461013
-0.024392772 0.019510873 0.056295265 0.07644356 0.23285675 0.024358775 0.17324847 -0.012569586
-0.15546969 0.24127264 -0.05178939 0.09430608 0.27236423 -0.03553441 0.021136748 -0.14619038
-0.15847605 0.20539331 -0.14731516 0.26589775 0.25746283 0.009384436 0.24012439 0.04430026
-0.037418056 0.25029227 -0.12314834 -0.2818271 0.1711842 -0.15564828 -0.30529094 0.12186728
00000000: aebe 2dbe 0bb9 f5bd 4654 0fbc bdea 4c3e
00000010: 521d bf3a 0da7 6dbd a271 a7bd 7fe1 f6ba
00000020: e6a3 f0bc b957 d9bd a8ba 563e 1aa1 3e3e
00000030: dfd6 ab3d 519b de3d d336 0bbe b60d 1d3e
00000040: ca13 cf3d 9cc3 37bd 2ce5 033d ab71 313e
00000050: cf40 bcbd 3821 d33d ddca 1c3d e944 2dbe
00000060: da1c 0ebd a66c b4bc 0551 213e c675 f03c
00000070: a338 ccbd 5784 05be f169 653e b559 4a3e
00000080: 48d0 4fbe 1e3f 19bc b123 793d 27eb 82be
00000090: 0569 bb3c 25ba 9e3e 69f6 85bd a059 983e
000000a0: b103 8d3e 0e98 a03d 1015 81be dae6 d13d
000000b0: c560 3cbe 0361 26be 0ba7 723e 06d9 a23c
000000c0: 2060 543e 3c03 8c3d 7775 03be aac4 b1bd
000000d0: 67ff 363e 1550 fe3d c1ba 2abe 328e ebbd
000000e0: 351a e93d eed9 61be 9e91 fe3c 1f37 28bd
000000f0: e7b8 e3bd 0374 7cbe cb84 85be f4c0 123e
00000100: e772 0e3e 0fb2 1e3e 59ae a43e 57de ccbd
00000110: fbcb 6abe d71e 613e 6697 293e ffbb 0d3e
00000120: d1f1 863b 663c 803d dda9 a03d 535b c3bc
00000130: f3b6 3c3e a122 5a3e 7089 80be 294a 9c3e
00000140: 0ee9 73be 0c7a 973e 0e38 1c3e 57f5 9bbb
00000150: 00f1 51be 7b05 2fbe ac82 403d 6d9b 6c3e
00000160: 50d0 d0bd 445f 8d3e 767c 49be 0fca 9b3e
00000170: 2cca a03e 10d8 953d 6c71 913c 700a 3dbe
00000180: 5ad3 c7bc 44d5 9f3c dd95 663d 718e 9c3d
00000190: 0072 6e3e 0e8c c73c 0c68 313e aaf0 4dbc
000001a0: 7233 1fbe 2d10 773e 1d21 54bd 8c23 c13d
000001b0: 5373 8b3e 888c 11bd f926 ad3c eeb2 15be
000001c0: 8c47 22be a052 523e c9d9 16be c023 883e
000001d0: 2bd2 833e 2dc1 193c 2be3 753e 3074 353d
000001e0: ad43 19bd 4f26 803e 3235 fcbd a44b 90be
000001f0: e94a 2f3e 4362 1fbe 184f 9cbe 8d95 f93d

conv2.bias f4 [64]
-0.029012952 0.02614878 0.027539313 0.026810355 0.03047152 0.02664085 0.02952994 -0.028973699
0.02941631 0.028337643 -0.027427843 -0.021670688 -0.032483406 0.051880017 0.029236201 -0.013716902
0.009461938 -0.014261522 0.025661912 -0.0328614 0.03837383 -0.012560372 -0.01053031 0.030152375
-0.027099475 0.04078523 0.028173085 -0.031970114 -0.033536628 0.02732795 -0.03485133 0.014215962
-0.031470623 0.021533147 0.027596626 0.0058895876 -0.030890558 -0.017185876 0.027527079 -0.030449893
-0.04338881 -0.025718007 0.026951944 -0.012814409 0.004467431 -0.030772723 -0.028484695 0.017399268
-0.030326784 0.027020182 0.028356172 0.025982114 -0.0007773154 -0.019289747 -0.029034823 -0.027237311
0.029154718 -0.027767899 0.01890295 0.028032131 0.039823275 -0.028418913 0.02302552 -0.040209677
00000000: 92ac edbc f735 d63c 209a e13c 64a1 db3c
00000010: 699f f93c e93d da3c c6e8 f13c 405a edbc
00000020: 79fa f03c 5824 e83c 5bb0 e0bc ba86 b1bc
00000030: 520d 05bd 2480 543d c280 ef3c dbbc 60bc
00000040: 3f06 1b3c 29a9 69bc ee38 d23c ad99 06bd
00000050: e12d 1d3d 05ca 4dbc 5287 2cbc 1d02 f73c
00000060: b8ff ddbc 6a0e 273d 3ecb e63c 18f3 02bd
00000070: b45d 09bd ddde df3c 45c0 0ebd 11ea 683c
00000080: 57e7 00bd 4866 b03c 5212 e23c 71fd c03b
00000090: 320e fdbc 65c9 8cbc 7880 e13c 0e72 f9bc
000000a0: 77b8 31bd 92ae d2bc 53ca dc3c 87f3 51bc
000000b0: 8763 923b 1417 fcbc bc58 e9bc e988 8e3c
000000c0: e06f f8bc 6e59 dd3c 344b e83c 71d8 d43c
000000d0: c1c4 4bba 8805 9ebc 70da edbc c820 dfbc
000000e0: e0d5 ee3c 8179 e3bc 5cda 9a3c a4a3 e53c
000000f0: bb1d 233d c8ce e8bc 04a0 bc3c e7b2 24bd

conv2.lin.weight f4 [64, 64]
0.06821275 0.004668351 -0.17069937 -0.04256235 -0.03047651 0.02823791 0.11910115 -0.031181188
-0.068178564 -0.08823448 -0.05834361 -0.13031538 -0.136917 -0.053317912 0.056070074 -0.21370304
0.17885856 0.17306338 0.13569017 -0.035560437 -0.2358134 0.08547056 -0.14474079 0.14665361
0.18214601 -0.15969315 -0.15733379 -0.17501746 -0.09429113 0.009357949 -0.09480179 -0.0956504
-0.005325589 0.093849644 -0.06313561 -0.09965847 0.06377749 -0.22531597 0.04075922 0.115876146
0.10355759 -0.090546474 0.22785391 -0.043873463 0.2450065 -0.10734716 -0.043964006 0.14743385
0.24354304 -0.13719967 0.07228481 0.06918278 -0.06544936 0.07963015 0.12030922 0.011857326
-0.17507437 -0.07752958 0.11330471 0.17614843 0.009951497 0.12720399 -0.1920593 -0.11261055
-0.07506674 0.07579417 0.19366646 -0.18295138 -0.091715045 -0.11147132 0.12461518 -0.15912871
-0.18831435 0.103708595 -0.055059757 -0.036534127 -0.06702423 -0.034901395 0.14930022 -0.070297316
-0.12053521 -0.08402103 -0.060168594 0.15609235 -0.10692707 0.20006144 -0.08892203 0.21947703
-0.18826964 -0.107842125 0.11401245 -0.15860777 -0.08708158 0.0033668492 0.21278025 0.0058925585
0.18090177 0.07578058 -0.054788895 0.06091543 -0.14579163 0.19010344 0.1704017 0.21853219
0.12396288 -0.13734189 -0.17210779 0.07525932 -0.0031371461 -0.010544355 0.02488415 0.16766877
0.07634199 0.21670005 0.19689055 -0.16320382 0.05048576 0.21930939 0.06385328 0.12738292
-0.012978753 0.12491345 -0.077429555 0.121856704 0.22743519 -0.008349054 0.1261913 -0.16750208
0.13761245 -0.07010682 0.12991564 0.13161404 0.17349176 -0.12087446 0.022256799 -0.14837068
0.24196193 0.056378312 -0.20154543 0.13490422 -0.09187464 0.16499053 0.11766584 0.19994365
0.09552985 -0.001876484 -0.007977621 0.15237148 -0.123955 -0.019240208 0.003244375 0.121784694
0.19901918 -0.17542844 0.21396433 0.204567 0.20116481 -0.0077802916 -0.0678249 -0.15332581
-0.12033431 0.15952206 -0.2113182 0.00629643 -0.15209976 0.1354151 -0.17734042 0.1432446
-0.017339086 0.16474219 0.07620827 -0.03959877 -0.1521505 0.07251249 0.21900272 -0.056040857
0.105714 0.13259773 -0.15938787 -0.11854631 0.08459257 -0.16657661 0.09958802 -0.054529544
-0.0021236467 -0.11522584 0.008888533 -0.16774051 -0.029913815 -0.09622808 -0.14916854 0.08421823
0.07919444 -0.12183877 -0.21727474 0.2085028 0.057877973 -0.058366563 0.11118018 -0.030971432
-0.103972174 0.099760465 -0.008153873 -0.21237372 -0.13455206 -0.027058117 -0.054728545 0.04685742
0.019935727 -0.16474092 0.15535407 0.1748052 0.0015794168 -0.019405402 0.14962062 -0.07958686
-0.03245546 0.018618539 0.22178581 -0.12741101 -0.05296167 -0.17601617 0.14178836 -0.17848481
0.09967854 -0.1143552 0.1649004 0.15518498 -0.1854459 0.04837432 0.19777438 0.1660398
0.15935838 -0.04833456 -0.24516271 -0.009134924 0.04207678 0.016091777 -0.14535902 -0.22622226
0.13253729 -0.112204745 -0.22034454 0.017242337 0.17983158 0.20117472 0.024973948 -0.14395614
0.060422536 0.22113512 -0.14312828 -0.19637136 -0.0033247373 0.0013427082 0.14160506 0.039052296
00000000: 20b3 8b3d f7f8 983b d1cb 2ebe dc55 2ebd
00000010: e0a9 f9bc 3053 e73c 4eeb f33d b16f ffbc
00000020: 34a1 8bbd 47b4 b4bd b6f9 6ebd 6571 05be
00000030: f833 0cbe e263 5abd bca9 653d f8d4 5abe
00000040: b326 373e 8737 313e 5df2 0a3e d2a7 11bd
00000050: 1179 71be 300b af3d ee36 14be 5d2c 163e
00000060: 7c84 3a3e 9a86 23be 1c1c 21be c737 33be
00000070: b51b c1bd 1552 193c 7127 c2bd 5be4 c3bd
00000080: 4782 aebb 3e34 c03d 3e4d 81bd bd19 ccbd
00000090: c69d 823d 3bb9 66be 24f3 263d 7950 ed3d
000000a0: 0016 d43d 6e70 b9bd 8952 693e a9b4 33bd
000000b0: fce2 7a3e d4d8 dbbd 9a13 34bd e6f8 163e
000000c0: 5963 793e 127e 0cbe 0f0a 943d b4af 8d3d
000000d0: 500a 86bd 2215 a33d ae64 f63d 3b45 423c
000000e0: b246 33be d4c7 9ebd 4d0c e83d 4160 343e
000000f0: 9b0b 233c c341 023e 31ab 44be 5ca0 e6bd
00000100: 97bc 99bd f939 9b3d 8050 463e 9b57 3bbe
00000110: 19d5 bbbd 134b e4bd 3e36 ff3d a3f2 22be
00000120: 7ad5 40be 2c65 d43d 5786 61bd cfa4 15bd
00000130: 0044 89bd c4f4 0ebd 28e2 183e 0af8 8fbd
00000140: 2adb f6bd 3813 acbd 5873 76bd acd6 1f3e
00000150: 94fc dabd e8dc 4c3e c11c b6bd 96be 603e
00000160: c2c9 40be 55dc dcbd 5c7f e93d 136a 22be
00000170: d457 b2bd 5ba6 5c3b 11e3 593e 5d16 c13b
00000180: 503e 393e d932 9b3d 526a 60bd 7582 793d
00000190: 674a 15be 7aaa 423e c97d 2e3e e7c6 5f3e
000001a0: 40e0 fd3d 5aa3 0cbe 063d 30be 8f21 9a3d
000001b0: 9498 4dbb 3bc2 2cbc d8d9 cb3c 5db1 2b3e
000001c0: 3059 9c3d 9ee6 5d3e ad9d 493e e71e 27be
000001d0: 28ca 4e3d a492 603e 82c5 823d ab70 023e
000001e0: d6a4 54bc 9fd2 ff3d 6393 9ebd 0290 f93d
000001f0: c5e4 683e 78ca 08bc 4b38 013e aa85 2bbe
00000200: 47ea 0c3e 2a94 8fbd 9b08 053e d5c5 063e
00000210: d3a7 313e 078d f7bd e453 b63c 7cee 17be
00000220: dec4 773e f2ec 663d ed61 4ebe 5524 0a3e
00000230: c528 bcbd 47f3 283e cafa f03d 07be 4c3e
00000240: 27a5 c33d 5bf4 f5ba 91b4 02bc 4507 1c3e
00000250: 1edc fdbd a49d 9dbc 959f 543b 416a f93d
00000260: afcb 4b3e 83a3 33be 7719 5b3e 037a 513e
00000270: 26fe 4d3e d1f1 febb c8e7 8abd 7101 1dbe
00000280: d671 f6bd c059 233e cc63 58be 4852 ce3b
00000290: 0ac0 1bbe 42aa 0a3e ba98 35be b6ae 123e
000002a0: b30a 8ebc 2db2 283e 1513 9c3d 5232 22bd
000002b0: 57cd 1bbe 6e81 943d 4042 603e 198b 65bd
000002c0: 9580 d83d b3c7 073e 9336 23be 68c8 f2bd
000002d0: df3e ad3d 0f93 2abe cef4 cb3d 5f5a 5fbd
000002e0: e12c 0bbb 86fb ebbd 36a1 113c 2bc4 2bbe
000002f0: d10d f5bc 3a13 c5bd a3bf 18be 9b7a ac3d
00000300: b230 a23d 9b86 f9bd 457d 5ebe c281 553e
00000310: 7411 6d3d c711 6fbd 6fb2 e33d cdb7 fdbc
00000320: 5def d4bd 374f cc3d d297 05bc 7f78 59be
00000330: 04c8 09be fca8 ddbc 0a2b 60bd 91ed 3f3d
00000340: 4050 a33c d8b1 28be 2315 1f3e 2200 333e
00000350: 6f04 cf3a 14f8 9ebc 2636 193e 70fe a2bd
00000360: 04f0 04bd e885 983c d21b 633e 0878 02be
00000370: 56ee 58bd 953d 34be f830 113e b9c4 36be
00000380: 4324 cc3d 0f33 eabd a7db 283e d0e8 1e3e
00000390: 88e5 3dbe 2724 463d 5e85 4a3e 5606 2a3e
000003a0: d82e 233e 76fa 45bd ef0b 7bbe a6aa 15bc
000003b0: b458 2c3d e7d2 833c ffd8 14be cfa6 67be
000003c0: dbb7 073e 9acb e5bd 00a2 61be cd3f 8d3c
000003d0: c525 383e bf00 4e3e 2a96 cc3c 3d69 13be
000003e0: 9f7d 773d 3f71 623e 3890 12be 9315 49be
000003f0: d6e3 59bb d0fd af3a eb00 113e 4df5 1f3d

conv3.bias f4 [128]
0.0010341156 -0.001348496 0.0014983509 -0.0012216676 0.00046590503 -6.710799e-05 0.0007525618 0.0011941732
-0.0001932449 -0.0016756967 2.5650872e-05 0.0011531253 -0.00026765518 0.0012382717 -0.00034592516 -0.00087973627
-4.8883896e-05 0.000103872626 0.0013604425 0.0010922409 0.0015057808 -0.0016493477 -0.001467533 -0.00017817506
-0.0005374109 -0.0010596152 -0.0012416311 0.0012941442 -0.0011139072 -0.0019500196 0.001679819 -0.0006404326
0.0015966063 -0.0016681674 0.00023038186 0.00021105808 -0.0005982135 -5.7533794e-05 0.001348464 0.0002079439
0.0001872533 -0.0016680922 -0.0013124078 0.0012509375 0.00064653286 -0.0005943872 0.0005233557 -0.00068462663
0.00042381923 0.00095355156 -0.00028912336 0.001922221 0.0011291588 -0.0010327166 -8.168575e-05 0.0015022516
-0.0006111596 -0.0007088754 -0.00037683613 -3.0532963e-05 0.0004327261 0.0006198387 -9.2260474e-05 0.0015719354
0.0008645885 -0.00039707325 0.0013485198 0.0008510382 0.0015258586 -0.0010006326 0.0007537262 -0.00049877487
0.00072953646 0.00010644206 0.0014571802 -0.00018422208 -0.00088962715 0.0010403589 0.00021449596 0.0006973969
-0.000310707 0.00013929544 -0.0011751379 -0.0005156202 -0.000481244 0.0005655076 0.0013334706 -0.0016265212
0.0007389656 0.001648972 -0.00036805883 0.00052435964 0.0010485909 0.0004975183 -0.000368391 -6.672579e-05
-0.00053775636 0.00056209194 -0.0014018931 -0.0013322191 -0.00028379643 0.00032838393 -0.00037624766 -0.00031219487
-0.0015921589 -6.7073925e-05 0.00058804423 -0.001338651 -0.00072597066 0.00025677306 -0.0015529889 0.00022205494
-0.001096183 0.00061458896 -0.00019002853 -0.00064771896 9.4265364e-05 -0.0019789678 0.0006341238 -0.0012424968
3.813921e-05 -0.0005870259 0.00063913176 -1.8082977e-05 0.001646921 0.00047862277 0.0012479734 0.00018056152
00000000: 298b 873a 04c0 b0ba 5064 c43a 5d20 a0ba
00000010: b744 f439 54bc 8cb8 9147 453a ce85 9c3a
00000020: c8a1 4ab9 0da3 dbba d42c d737 7724 973a
00000030: 1254 8cb9 814d a23a 4a5d b5b9 1a9e 66ba
00000040: af08 4db8 31d6 d938 e050 b23a 8629 8f3a
00000050: 9f5d c53a ed2e d8ba 3c5a c0ba 81d4 3ab9
00000060: 09e1 0cba c9e2 8aba 3abe a2ba 46a0 a93a
00000070: 8600 92ba cd97 ffba 5f2d dc3a b4e2 27ba
00000080: 3845 d13a 69a6 daba a992 7139 794f 5d39
00000090: 6ed1 1cba 7150 71b8 f2be b03a 840b 5a39
000000a0: 6d59 4439 e3a3 daba 1905 acba 7ff6 a33a
000000b0: 167c 293a a6d0 1bba ce31 093a 8478 33ba
000000c0: 0e34 de39 c3f7 793a 7b95 97b9 09f3 fb3a
000000d0: 4800 943a 385c 87ba b44e abb8 33e7 c43a
000000e0: 3a36 20ba d3d3 39ba 1792 c5b9 8510 00b8
000000f0: 84df e239 ac7c 223a f77b c1b8 6609 ce3a
00000100: 8da5 623a 452e d0b9 d1c0 b03a 3518 5f3a
00000110: 52ff c73a a927 83ba b695 453a 37c0 02ba
00000120: 5d3e 3f3a a539 df38 dbfe be3a bd2b 41b9
00000130: de35 69ba a75c 883a 52ea 6039 84d1 363a
00000140: 63e6 a2b9 d60f 1239 1607 9aba b02a 07ba
00000150: 7a4f fcb9 933e 143a d9c7 ae3a ff30 d5ba
00000160: 24b7 413a 5222 d83a 05f8 c0b9 2e75 093a
00000170: df70 893a e36b 023a 9a24 c1b9 23ef 8bb8
00000180: 38f8 0cba 5a59 133a babf b7ba db9d aeba
00000190: 83ca 94b9 f22a ac39 1b43 c5b9 16ae a3b9
000001a0: fdaf d0ba 0aaa 8cb8 fb26 1a3a ad75 afba
000001b0: 114f 3eba 7f9f 8639 a98d cbba 6bd7 6839
000001c0: ccad 8fba 5e1c 213a 6542 47b9 afcb 29ba
000001d0: 55b0 c538 92b1 01bb 543b 263a 46db a2ba
000001e0: aaf7 1f38 a4e2 19ba 688b 273a e6b0 97b7
000001f0: 80dd d73a a9ef fa39 0a93 a33a 1d55 3d39

conv3.lin.weight f4 [128, 64]
-0.05916083 -0.19879352 -0.06057225 -0.1888203 0.04579569 0.19153011 0.1407501 -0.13051033
-0.08268832 -0.12695165 -0.09013537 -0.09701746 0.13139574 0.17886354 -0.060325835 -0.14337707
0.041730676 0.050634343 -0.06226114 -0.14813696 0.026576644 -0.097329564 0.06875628 0.0664507
0.069699466 -0.13074104 0.042279627 0.040220145 -0.077448644 -0.1814004 0.0720018 0.059761982
-0.07240128 -0.021189818 -0.017011818 0.018734124 0.11426545 -0.031417273 0.16207428 0.013531127
0.028418085 -0.17083472 0.14930865 -0.0005611399 0.11350764 0.030920235 -0.0558846 0.077943966
0.07078878 -0.13054708 0.033350457 0.060542595 0.05280735 -0.02027129 0.08396742 -0.033432648
-0.01811934 -0.080023125 0.037425984 -0.14388393 -0.13360114 -0.114943355 0.18350132 0.03770599
-0.07369516 -0.1571782 0.09196742 -0.079158045 0.01039978 -0.05006134 -0.13637903 0.10489841
-0.10785976 -0.0013506338 -0.1825851 0.028789317 0.03923674 0.008754143 -0.03856917 0.16959202
-0.009112047 -0.081622995 -0.16144721 -0.13867483 0.111196205 -0.08362431 -0.13074802 0.036677938
0.018315932 0.15258013 -0.10014849 -0.14946383 0.1049087 0.014629474 0.021353338 -0.07440063
0.035576943 -0.00080502115 0.063331276 -0.16535224 0.11130415 0.1622628 -0.0685517 0.167447
0.11621446 0.10095249 -0.09055851 -0.011993517 -0.036957018 -0.13497485 -0.14756428 -0.10865129
0.05235885 0.07815394 -0.021605695 -0.047615558 0.105482794 0.1081556 -0.10676629 0.04325558
-0.19931257 0.14407392 -0.103448294 -0.048818093 0.041873246 -0.10580896 0.13013975 0.03804769
0.029271461 -0.03917892 0.12524739 -0.11728146 -0.080004424 0.091513366 0.15136445 -0.045474205
0.061395157 0.08587973 0.038658023 -0.024221603 0.008223415 0.14226082 0.062162273 0.11029297
-0.15091668 0.026348945 -0.155274 -0.08469273 -0.047454473 -0.068808325 -0.0589946 0.14402436
-0.19971468 0.069937184 0.07389413 -0.009983816 -0.06158705 -0.07658351 0.11964881 0.004111032
0.068400875 -0.012440584 0.04025265 0.03826584 -0.048327785 -0.08275345 -0.00051403034 -0.04183357
0.14133771 -0.05467395 0.15906806 0.07964945 0.14184453 0.1684167 -0.010638622 -0.04900467
0.113142475 -0.16150227 0.01739737 -0.025761243 -0.12783723 -0.06362635 -0.11694408 0.12390224
-0.13306934 -0.10065707 -0.1937698 -0.019907437 0.16736692 0.06697477 0.041531254 0.08303239
-0.09812515 0.0020641894 -0.05759877 -0.041107275 0.04748181 0.096008204 0.12453764 0.007825181
0.11679963 -0.06306082 -0.08072772 -0.15099224 -0.058501583 0.054304507 -0.078289986 -0.10187942
0.016254134 0.10870642 -0.10876505 0.02621364 0.102274686 -0.027685175 -0.11220441 -0.0596012
0.019558167 -0.10928854 0.06232886 -0.084481284 0.1367774 0.11423739 -0.12019999 -0.12438482
0.14870654 0.11411018 0.020947222 -0.07591837 0.0874685 -0.188273 0.13272372 0.15746945
-0.0006509033 -0.1572501 -0.10616677 0.06446492 0.19101948 0.03204351 -0.13573274 -0.12301669
-0.16136028 0.037695166 -0.050270826 -0.07967009 0.13433023 0.03684805 0.09180007 -0.014724087
-0.010383877 -0.05459891 -0.138043 -0.13594769 0.11694459 -0.024933571 -0.10355593 -0.14242126
00000000: a052 72bd 8790 4bbe 9c1a 78bd 1c5a 41be
00000010: 4394 3b3d 7820 443e cb20 103e 80a4 05be
00000020: 7e58 a9bd 9dff 01be e598 b8bd 17b1 c6bd
00000030: 9b8c 063e 0128 373e 3918 77bd 70d1 12be
00000040: c9ed 2a3d f565 4f3d 8a05 7fbd 37b1 17be
00000050: 43b7 d93c b954 c7bd 18d0 8c3d 4e17 883d
00000060: 98be 8e3d fbe0 05be 672d 2d3d e1bd 243d
00000070: 659d 9ebd 07c1 39be ae75 933d fbc8 743d
00000080: 1f47 94bd 4596 adbc 5e5c 8bbc 4e78 993c
00000090: 0104 ea3d 66af 00bd cdf6 253e a9b1 5d3c
000000a0: 0bcd e83c 4cef 2ebe 5ee4 183e 7619 13ba
000000b0: b276 e83d 6f4c fd3c 40e7 64bd 16a1 9f3d
000000c0: b5f9 903d 22ae 05be 7d9a 083d 83fb 773d
000000d0: 854c 583d fa0f a6bc 1cf7 ab3d acf0 08bd
000000e0: 036f 94bc 2ae3 a3bd fd4b 193d 4f56 13be
000000f0: bdce 08be 6c67 ebbd c5e7 3b3e 9971 1a3d
00000100: 7ded 96bd 52f3 20be 6a59 bc3d 9d1d a2bd
00000110: d763 2a3c 1f0d 4dbd f2a6 0bbe fad4 d63d
00000120: 94e5 dcbd c007 b1ba 97f7 3abe 93d7 eb3c
00000130: b4b6 203d 896d 0f3c b5fa 1dbd 88a9 2d3e
00000140: b24a 15bc f529 a7bd 6b52 25be c600 0ebe
00000150: d6ba e33d 3943 abbd cfe2 05be 9b3b 163d
00000160: 4b0b 963c f73d 1c3e a71a cdbd 0c0d 19be
00000170: 5fda d63d 76b0 6f3c 32ed ae3c 5c5f 98bd
00000180: 21b9 113d 0e08 53ba d4b3 813d 1952 29be
00000190: 6ef3 e33d 3828 263e d564 8cbd 3a77 2b3e
000001a0: d901 ee3d 2ec0 ce3d bd76 b9bd 7580 44bc
000001b0: 3e60 17bd d936 0abe 171b 17be 9184 debd
000001c0: 3c76 563d 2c0f a03d 6dfe b0bc 8808 43bd
000001d0: 5d07 d83d af80 dd3d 49a8 dabd c32c 313d
000001e0: 9818 4cbe 1d88 133e b3dc d3bd 7bf5 47bd
000001f0: 4883 2b3d 5eb2 d8bd 5b43 053e e5d7 1b3d
00000200: b4ca ef3c 137a 20bd da40 003e 4331 f0bd
00000210: 5cd9 a3bd 5c6b bb3d 48ff 1a3e 2943 3abd
00000220: 7d79 7b3d b6e1 af3d e057 1e3d 626c c6bc
00000230: 81bb 063c d2ac 113e de9d 7e3d 48e1 e13d
00000240: e789 1abe bed9 d73c 2600 1fbe 6273 adbd
00000250: 9f5f 42bd 61eb 8cbd 52a4 71bd 1f7b 133e
00000260: 0182 4cbe 3a3b 8f3d ce55 973d 2993 23bc
00000270: b442 7cbd d1d7 9cbd 6f0a f53d d6b5 863b
00000280: c215 8c3d 97d3 4bbc f6df 243d a4bc 1c3d
00000290: 5bf3 45bd a47a a9bd febf 06ba ad59 2bbd
000002a0: d5ba 103e cbf1 5fbd bde2 223e 401f a33d
000002b0: b13f 113e 6d75 2c3e 9d4d 2ebc 1fb9 48bd
000002c0: 3eb7 e73d da60 25be ee84 8e3c 3e09 d3bc
000002d0: c3e7 02be 884e 82bd 6180 efbd 75c0 fd3d
000002e0: 5443 08be 4b25 cebd 976b 46be ec14 a3bc
000002f0: 3c62 2b3e 112a 893d ad1c 2a3d e30c aa3d
00000300: d7f5 c8bd 5a47 073b b0ec 6bbd 1a60 28bd
00000310: 497c 423d f39f c43d 970d ff3d 3035 003c
00000320: a534 ef3d 0826 81bd 9354 a5bd b69d 1abe
00000330: 5b9f 6fbd 676e 5e3d 8056 a0bd 28a6 d0bd
00000340: 6427 853c 79a1 de3d 36c0 debd fdbd d63c
00000350: 6475 d13d 05cc e2bc 6dcb e5bd 6320 74bd
00000360: 7338 a03c acd2 dfbd 8c4c 7f3d 8604 adbd
00000370: 600f 0c3e 4bf5 e93d 6a2b f6bd 78bd febd
00000380: 8746 183e 99b2 e93d 8299 ab3c 177b 9bbd
00000390: af22 b33d a3ca 40be bae8 073e ac3f 213e
000003a0: 62a1 2aba 2c06 21be f76d d9bd 2f06 843d
000003b0: 9c9a 433e 0e40 033d 86fd 0abe 2df0 fbbd
000003c0: a13b 25be 3f66 1a3d c8e8 4dbd 122a a3bd
000003d0: dd8d 093e fbed 163d ad01 bc3d 4c3d 71bc
000003e0: 2321 2abc 1ba3 5fbd 255b 0dbe df35 0bbe
000003f0: a580 ef3d 7d41 ccbc 2215 d4bd e1d6 11be

conv4.bias f4 [256]
-0.029485065 -0.025901698 0.027772654 0.02238622 0.033061378 -0.026240205 -0.0029104545 0.03100104
0.032642704 -0.030795952 0.040157225 -0.027208235 0.034735218 -0.03097665 -0.031510897 -0.03295776
-0.029645521 0.027123518 -0.032068565 0.0026957327 -0.025503542 -0.030746335 0.029387744 -0.025747448
0.028951108 -0.034799233 0.026518928 -0.031496067 -0.009485985 -0.031409588 -0.040356122 0.024696782
-0.02905055 0.03902409 -0.028146332 0.022932967 -0.034376994 -0.0012488826 0.028823756 0.021164779
0.03280804 0.030466601 -0.030089157 0.03322176 -0.03894712 0.027567979 0.030515924 0.030833067
0.025509875 -0.022821555 -0.028534584 -0.034082014 0.027134517 -0.035948552 0.021327535 0.025435286
0.040162202 -0.032679155 0.029839579 0.019630859 0.011074027 -0.025284013 0.026437672 -0.029026367
-0.03147016 0.027773334 -0.022018172 0.03742555 -0.030139638 0.029498888 0.02170791 -0.026590746
0.033382747 -0.032297943 0.027694978 -0.034931116 -0.02946021 -0.028207786 -0.025250135 0.016152987
-0.02894814 0.036470484 -0.025677305 0.026214171 -0.023833416 -0.03143085 -0.026715929 0.034032002
0.023711843 -0.028055629 0.026714753 0.03213062 0.037193634 -0.028982632 0.011378082 -0.03078819
-0.03794891 -0.0047064307 0.031213133 -0.03341195 0.0048730625 0.030217238 -0.025666477 0.012611666
0.028829291 0.031796947 -0.029890923 -0.025160229 0.031159544 -0.030902607 -0.028367223 0.036146317
-0.034317363 -0.032264944 -0.030268213 -0.037686624 -0.02619161 -0.023897767 -0.02641954 -0.03614389
-0.024959411 0.031089352 0.033919625 0.04077917 -0.03359823 -0.031883687 0.022661956 -0.04160295
0.019433755 0.02718598 -0.028770838 0.02732996 -0.026379015 0.032253727 -0.031437263 -0.035214618
0.03882943 -0.028070126 -0.028059846 0.03005496 -0.027331429 -0.027770787 0.026434671 0.024336219
0.02116928 -0.033941448 0.03239575 -0.027645713 -0.021106776 -0.030595792 0.028292444 0.005308016
-0.028530989 -0.027864365 0.032367982 0.018287307 -0.028306194 -0.015836375 -0.03664529 -0.016051155
0.0203662 -0.025536934 0.026873453 0.028728653 -0.026978165 -0.011431651 -0.030323284 0.028532458
-0.023579992 0.024064725 -0.03450728 0.030692112 -0.036605816 0.022366691 0.03017168 -0.03623333
-0.02353868 -0.03757301 0.024913426 -0.027582062 0.021524565 -0.036202654 0.005342939 0.027940616
-0.03283977 -0.030870114 -0.028738825 -0.028945636 0.020152897 -0.029698255 -0.031750858 0.024364766
0.030681662 0.02874963 0.027571425 -0.030128572 0.0230901 0.03158036 0.041201025 -0.033243332
0.03930194 0.031114515 0.02478612 -0.033695992 -0.032348696 0.03945826 0.029769406 0.03436601
0.029917344 -0.035018697 0.028110161 0.02985696 0.032452792 -0.026268143 0.029653704 -0.027157193
0.014883212 0.022052074 0.013016404 -0.027333632 -0.029202513 -0.029441494 -0.013660688 0.029833471
-0.02573577 0.0280268 0.03295981 -0.029442938 0.030824307 0.02858099 0.026224721 -0.008705377
-0.026710188 -0.033760305 -0.04172662 0.028540058 -0.03001242 0.032706957 0.023031076 0.028368948
-0.031047858 -0.03001803 0.027842904 0.028427644 0.02726732 0.016291142 -0.027932785 0.032152865
0.033695262 0.035061996 -0.028047947 0.027919825 -0.027966995 -0.03254354 -0.025761157 -0.030937718
00000000: aa8a f1bc cc2f d4bc 7a83 e33c 4e63 b73c
00000010: 5e6b 073d b3f5 d6bc 53bd 3ebb e5f5 fd3c
00000020: 5bb4 053d cb47 fcbc e77b 243d cee3 debc
00000030: 8446 0e3d bec2 fdbc 9211 01bd b7fe 06bd
00000040: 2adb f2bc 2432 de3c 545a 03bd e4aa 303b
00000050: ceec d0bc bddf fbbc 91be f03c 50ec d2bc
00000060: e02a ed3c a489 0ebd 393e d93c 0502 01bd
00000070: 1b6b 1bbc 57a7 00bd 764c 25bd e850 ca3c
00000080: 6bfb edbc b9d7 1f3d 2393 e6bc ebdd bb3c
00000090: e4ce 0cbd 8cb1 a3ba cc1f ec3c c261 ad3c
000000a0: b961 063d 1895 f93c 897d f6bc 8a13 083d
000000b0: 0487 1fbd 3ed6 e13c 88fc f93c a195 fc3c
000000c0: 16fa d03c 45f4 babc 5cc1 e9bc 9599 0bbd
000000d0: 3549 de3c ca3e 13bd 15b7 ae3c a95d d03c
000000e0: 1f81 243d 94da 05bd 2272 f43c e5d0 a03c
000000f0: d66f 353c 6b20 cfbc d193 d83c b4c8 edbc
00000100: dbe6 00bd e784 e33c 745f b4bc 894b 193d
00000110: 67e7 f6bc a7a7 f13c c9d4 b13c d6d4 d9bc
00000120: 59bc 083d d94a 04bd 94e0 e23c ee13 0fbd
00000130: 8a56 f1bc 0414 e7bc 5fd9 cebc 4553 843c
00000140: a624 edbc 1362 153d 3659 d2bc 1abf d63c
00000150: 4c3e c3bc a3bd 00bd 5ddb dabc 2465 0b3d
00000160: 573f c23c ebd4 e5bc e6d8 da3c 669b 033d
00000170: 5a58 183d fc6c edbc 236b 3a3c 8437 fcbc
00000180: 5170 1bbd 6738 9abb afb2 ff3c f8da 08bd
00000190: 36ae 9f3b 248a f73c 8142 d2bc 29a1 4e3c
000001a0: 682b ec3c 843d 023d cfdd f4bc d31c cebc
000001b0: 4d42 ff3c 7727 fdbc 6162 e8bc 290e 143d
000001c0: 5d90 0cbd 3f28 04bd 0bf5 f7bc 4a5d 1abd
000001d0: ca8f d6bc 40c5 c3bc cb6d d8bc 9e0b 14bd
000001e0: ae77 ccbc 19af fe3c 4eef 0a3d 0f08 273d
000001f0: 4c9e 09bd 7898 02bd 91a5 b93c db67 2abd
00000200: 8a33 9f3c 22b5 de3c d2b0 ebbc 15e3 df3c
00000210: ce18 d8bc 7c1c 043d 5cc4 00bd 343d 10bd
00000220: 9c0b 1f3d 52f3 e5bc c3dd e5bc d235 f63c
00000230: 29e6 dfbc 907f e3bc 868d d83c c05c c73c
00000240: 336b ad3c 3006 0bbd 68b1 043d 4379 e2bc
00000250: 1ee8 acbc 07a4 fabc 8ec5 e73c deee ad3b
00000260: d2b9 e9bc cf43 e4bc 4a94 043d 43cf 953c
00000270: 64e2 e7bc 49bb 81bc 5f19 16bd b67d 83bc
00000280: 04d7 a63c d532 d1bc b725 dc3c 5a58 eb3c
00000290: 5001 ddbc d24b 3bbc 8968 f8bc e7bc e93c
000002a0: d42a c1bc 6323 c53c 8157 0dbd 066e fb3c
000002b0: fbef 15bd 5a3a b73c 992a f73c 6669 14bd
000002c0: 31d4 c0bc 28e6 19bd 3e17 cc3c c7f3 e1bc
000002d0: 4954 b03c 3c49 14bd d213 af3b b8e3 e43c
000002e0: ff82 06bd 52e3 fcbc af6d ebbc 661f edbc
000002f0: b017 a53c c149 f3bc 300d 02bd 9e98 c73c
00000300: 1c58 fb3c 5884 eb3c 78dd e13c 32d0 f6bc
00000310: 7327 bd3c 685a 013d 68c2 283d 292a 08bd
00000320: 12fb 203d dee3 fe3c 430c cb3c cf04 0abd
00000330: 1180 04bd fc9e 213d f8de f33c 60c3 0c3d
00000340: 3815 f53c c46f 0fbd 4847 e63c 9596 f43c
00000350: 38ed 043d 4a30 d7bc 53ec f23c c378 debc
00000360: b7d8 733c 8da6 b43c c142 553c c8ea dfbc
00000370: 1c3a efbc 4a2f f1bc 14d1 5fbc 5365 f43c
00000380: d2d3 d2bc 7698 e53c de00 073d 5132 f1bc
00000390: 4283 fc3c ae22 ea3c 3ad5 d63c ffa0 0ebc
000003a0: 53cf dabc 3f48 0abd 88e9 2abd d7cc e93c
000003b0: 9bdc f5bc bbf7 053d abab bc3c ff65 e83c
000003c0: 1458 febc 5fe8 f5bc cd16 e43c 17e1 e83c
000003d0: b75f df3c 0075 853c 4cd3 e4bc b9b2 033d
000003e0: 0b04 0a3d 2b9d 0f3d cfc4 e5bc 1eb8 e43c
000003f0: 0a1b e5bc 604c 05bd 1009 d3bc 1971 fdbc

conv4.lin.weight f4 [256, 128]
-0.05930352 -0.046843883 0.0950473 0.11430752 0.13766593 -0.034322858 -0.15280282 -0.1224519
-0.08768695 0.09000113 0.12842003 0.049285017 -0.024684215 0.09314994 0.13016273 0.07683321
-0.03753957 -0.024445048 -0.06693663 0.0509865 0.019159086 -0.043847233 -0.12528378 0.122450285
-0.115124665 -0.06625961 0.1498889 -0.058310248 0.13531853 0.07123187 0.064401545 -0.09566794
0.07727504 -0.07326141 -0.02073437 0.012278072 -0.12994559 -0.039586302 -0.08059981 -0.037625317
-0.08412238 0.08027594 -0.030460007 0.026956625 0.040347226 -0.12950769 0.09078212 0.12999144
0.05952354 0.029446896 0.055172674 0.068960994 -0.08806941 -0.05193746 0.101375766 -0.14948943
0.020484114 -0.14051561 -0.029739263 -0.080991745 -0.033935215 -0.12866348 0.025372967 0.07327414
0.06792122 0.08920228 -0.072861806 -0.03420094 0.05226945 -0.0022645548 -0.08235836 0.03946364
0.15451135 -0.02804861 -0.052525245 0.006691193 0.028964853 0.0076229055 -0.05348049 -0.12081084
0.112154074 -0.05366189 0.0825592 0.08615913 -0.06500052 -0.0069074323 -0.09941571 -0.15114209
0.039876454 -0.05221844 -0.023614436 -0.12485969 -0.046674628 0.06282087 -0.049622215 -0.05367141
0.027118348 0.010490272 -0.07252951 -0.031859953 0.15559897 0.08381536 0.07367311 0.045691498
-0.13842678 -0.05522341 0.0047936323 -0.051110007 0.03328107 -0.059472434 0.15183276 0.15612756
0.11753783 0.05750417 -0.041025776 0.07617797 -0.15409136 0.08182287 -0.12843055 0.018538218
-0.038807806 -0.04033617 0.010211914 -0.045666948 -0.0850499 0.011242348 -0.034008157 -0.04968211
0.08146632 -0.14611968 -0.12695512 0.065686494 -0.040901836 -0.016529748 -0.037750337 -0.030580828
-0.04698887 -0.06961681 -0.13055383 0.13967815 0.026781289 -0.14472605 0.07708277 -0.030219683
0.0009982811 0.08588435 -0.096556984 0.035453226 -0.1157956 0.015055294 -0.04600803 0.09685111
0.062564224 0.12231074 -0.12827659 -0.060723558 0.08602459 -0.008754627 -0.09033409 -0.044674095
-0.1493156 0.017774012 0.054317597 0.040059865 -0.03809841 -0.11845987 0.09483489 -0.055989876
-0.08686741 0.08142765 0.021313922 0.098001055 -0.0832367 0.04323498 -0.02061794 0.063221276
0.09157759 0.1365015 -0.068954244 0.0824647 0.103482045 0.043209545 0.11400854 -0.012191248
-0.04478746 -0.087151915 -0.15137334 0.08381978 0.09493415 0.093027964 -0.019729754 -0.025134357
0.01972876 0.01926698 0.06811892 0.022526657 0.008892457 -0.14159343 -0.070586495 -0.09252746
-0.091320254 0.034970526 -0.069782324 0.097793 -0.06817327 0.024086513 -0.091700315 0.13567288
-0.15637968 0.11256803 -0.09431053 0.0522469 -0.030816056 -0.0143914325 0.09133285 0.012571505
-0.07021606 0.114813626 0.0021709315 0.012416041 -0.022033539 -0.070237376 -0.00977104 -0.033695247
-0.0033576146 0.15310313 -0.044186413 0.06705358 -0.15298551 0.049268883 -0.07854778 -0.105764054
-0.038325377 -0.14317086 0.044812154 0.10838769 0.053927377 0.013165886 -0.085636765 0.04267252
-0.073914275 0.03952943 -0.07994727 0.08205501 0.007538234 0.07380786 -0.14977534 -0.011276103
0.065594986 -0.05646903 0.11503567 -0.0015876747 0.09805996 0.10687577 0.0090095075 0.10073555
00000000: 3fe8 72bd 5fdf 3fbd 29a8 c23d 101a ea3d
00000010: 4cf8 0c3e 2096 0cbd 5878 1cbe 10c8 fabd
00000020: 3795 b3bd 8352 b83d 8a80 033e 16df 493d
00000030: 8d36 cabc 65c5 be3d 6149 053e bb5a 9d3d
00000040: 18c3 19bd fb40 c8bc 1216 89bd 38d7 503d
00000050: 84f3 9c3c 2899 33bd 644a 00be 37c7 fa3d
00000060: 7bc6 ebbd 1eb3 87bd 7a7c 193e bad6 6ebd
00000070: f190 0a3e 04e2 913d f5e4 833d 8eed c3bd
00000080: 6042 9e3d 140a 96bd 20db a9bc f729 493c
00000090: 7510 05be 3f25 22bd 8311 a5bd 011d 1abd
000000a0: 5b48 acbd b667 a43d 4487 f9bc 24d4 dc3c
000000b0: 2243 253d aa9d 04be faeb b93d 7a1c 053e
000000c0: f5ce 733d 9e3a f13c befc 613d 6c3b 8d3d
000000d0: bc5d b4bd 60bc 54bd 199e cf3d c213 19be
000000e0: 4dce a73c 53e3 0fbe c19f f3bc 00df a5bd
000000f0: a7ff 0abd 5cc0 03be f8da cf3c c110 963d
00000100: 481a 8b3d afaf b63d 9238 95bd 4916 0cbd
00000110: 7e18 563d ed68 14bb 80ab a8bd a0a4 213d
00000120: 3938 1e3e 33c6 e5bc b624 57bd cc41 db3b
00000130: b347 ed3c 91c9 f93b 5c0e 5bbd ac6b f7bd
00000140: 09b1 e53d 92cc 5bbd cc14 a93d 3374 b03d
00000150: fe1e 85bd be57 e2bb 779a cbbd fec4 1abe
00000160: 7e55 233d 01e3 55bd 1073 c1bc 70b6 ffbd
00000170: e52d 3fbd 3aa8 803d aa40 4bbd 8dd6 5bbd
00000180: 4c27 de3c 64df 2b3c 5a8a 94bd 957f 02bd
00000190: 5655 1f3e 63a7 ab3d ede1 963d 0227 3b3d
000001a0: c0bf 0dbe f131 62bd e713 9d3b ba58 51bd
000001b0: bb51 083d 5e99 73bd 0c7a 1b3e e7df 1f3e
000001c0: acb7 f03d 7e89 6b3d a50a 28bd 3203 9c3d
000001d0: 20ca 1dbe c092 a73d 4c83 03be 76dd 973c
000001e0: eff4 1ebd 8a37 25bd df4f 273c 440d 3bbd
000001f0: a42e aebd d331 383c 234c 0bbd 787f 4bbd
00000200: d0d7 a63d 66a0 15be 8600 02be a486 863d
00000210: af88 27bd 6569 87bc 19a0 1abd a584 fabc
00000220: 6777 40bd 4293 8ebd e7af 05be ca07 0f3e
00000230: 6f64 db3c 1133 14be 92dd 9d3d 458f f7bc
00000240: c1d8 823a 22e4 af3d abbf c5bd 6737 113d
00000250: 3e26 edbd 7baa 763c eb72 3cbd e059 c63d
00000260: ac21 803d 0e7e fa3d f05a 03be 44b9 78bd
00000270: a92d b03d 916f 0fbc 1401 b9bd 2ffc 36bd
00000280: 30e6 18be ce9a 913c 217c 5e3d d015 243d
00000290: 140d 1cbd 179b f2bd cb38 c23d a455 65bd
000002a0: 8ae7 b1bd 8ac3 a63d 899a ae3c c7b4 c83d
000002b0: 0178 aabd 2a17 313d f4e6 a8bc 287a 813d
000002c0: 088d bb3d 0dc7 0b3e e237 8dbd 41e3 a83d
000002d0: 65ee d33d 7efc 303d 4f7d e93d cdbd 47bc
000002e0: 0e73 37bd b47c b2bd 9d01 1bbe b4a9 ab3d
000002f0: d66c c23d 7285 be3d 4ba0 a1bc 91e6 cdbc
00000300: 359e a13c c9d5 9d3c ef81 8b3d d389 b83c
00000310: abb1 113c defd 10be a78f 90bd 097f bdbd
00000320: 1d06 bbbd 413d 0f3d 09ea 8ebd b247 c83d
00000330: 6d9e 8bbd 1451 c53c 60cd bbbd d5ed 0a3e
00000340: ff21 20be 118a e63d e125 c1bd d800 563d
00000350: f471 fcbc 0bca 6bbc b80c bb3d b7f8 4d3c
00000360: 70cd 8fbd 6823 eb3d 3046 0e3b a76c 4b3c
00000370: ae7f b4bc 9dd8 8fbd b616 20bc 0704 0abd
00000380: 6d0b 5cbb 11c7 1c3e d0fc 34bd 6353 893d
00000390: 3ca8 1cbe 2bce 493d a9dd a0bd d39a d8bd
000003a0: 12fb 1cbd 629b 12be f38c 373d 5dfa dd3d
000003b0: f4e2 5c3d bab5 573c 5462 afbd 61c9 2e3d
000003c0: 5e60 97bd 9de9 213d 65bb a3bd 750c a83d
000003d0: 4a03 f73b 9328 973d b55e 19be 67bf 38bc
000003e0: aa56 863d 124c 67bd d297 eb3d 8619 d0ba
000003f0: a9d3 c83d afe1 da3d 9d9c 133c 714e ce3d

conv5.bias f4 [256]
-0.00010961364 -0.0005854001 0.00075218704 0.00029956325 0.0008528622 0.0003803501 -0.00032416012 -0.001289485
0.00067345134 0.00069283607 0.00017058101 -0.00018801088 0.00020234339 0.0004199497 -0.0007235775 0.0007632767
-0.0003243057 0.0005342167 -0.0012401441 0.0002996722 0.0013425832 0.0005616918 -0.0012784294 -0.00017675958
-0.0009179576 0.00030403255 -0.0013614668 5.4968273e-06 0.0013312128 0.0013338221 -0.0002795591 -0.00041336595
0.0004810231 -0.0011128029 -0.0010424008 0.00083265454 0.0006929443 0.0005311183 -0.001248425 3.738748e-05
0.00017311396 0.0010706974 -0.0006763611 -0.001251193 2.9527855e-05 -0.0008943847 0.0009674801 -0.00020198968
0.00028199138 0.00075605477 0.00018721637 -0.0002411783 3.05909e-05 0.0012124856 -0.0012887395 0.00017796038
0.0012152244 -0.0004500174 0.00027012825 0.0005084565 -0.00065344275 0.0014985201 0.0007010973 -0.00021494628
-0.00022355722 -0.00094050897 0.00078992004 0.00065415667 -0.0010590757 -0.0005760351 0.0007197187 0.0013423244
0.00095530745 -0.0008709597 0.0004976758 -6.367276e-05 0.00014862286 -0.00061481225 -0.0001271133 0.0011803006
0.0012885863 -0.001348081 0.0002587226 0.00018504086 -0.0010564802 -0.00045043105 -0.00088360196 -0.00086402404
0.0013478867 -0.0003558025 -0.0009835762 0.00070260366 -0.00028018747 -0.00018942673 -3.3297376e-05 0.0012232012
0.0011705552 0.0006073749 -0.00013967656 -0.0010305825 -0.00013336966 0.00021209015 0.00073468883 0.0003503057
-0.00084810366 0.001311769 0.0012771491 -0.00073054223 -0.0013016659 -0.00036539917 0.00071963714 -0.0006032661
-0.0007100547 9.024959e-05 -0.00077691337 -0.0010169958 0.00027420183 0.00040323896 0.001449254 7.1052054e-06
-0.0012177691 0.000851146 -0.00030681313 0.0002165582 -0.0012176026 -0.0006093288 -0.00133084 6.21221e-05
-0.0003197556 -0.00048725674 0.0014607558 -9.496449e-05 0.0013357552 -0.000107653956 -0.00095025415 0.0013163955
-0.00025814347 -0.0005224079 -0.00023501598 -0.00024936843 -0.00104609 0.0012051163 -0.0011151514 0.00018215479
0.0013231959 0.00014947086 0.0003392742 0.0012877323 -0.0004095884 -0.00046691057 -0.0013094319 0.00032178097
0.00073472667 -0.00010091099 -0.0007631268 0.00092951546 -0.0005221357 0.0006563328 0.00017499302 0.00033943466
-0.0012584549 0.0014078807 -0.00069998734 -0.00031937714 -0.0009514395 0.00094250607 -0.00031946105 -0.0016137536
0.0001400273 -0.00013809564 -0.0012180873 -0.0006149103 -0.0010533587 -8.026673e-05 -0.0010604353 -0.00012501975
-5.42547e-05 0.0007006133 -0.00038895904 0.0007261028 0.0012575414 0.00032331215 0.0010694367 -0.0003906269
0.0009858158 0.0010506505 -0.0010442425 -0.0002748413 -0.00011348588 -0.0005071741 0.0010659454 -0.0005988764
-0.000668518 0.00015388997 0.00020570018 0.00094818074 -0.0008868523 -0.00012976065 0.0012315152 -0.0015174358
-0.00035993176 -0.00039029695 -0.0006006301 0.0013102759 0.0016273933 -0.00024552902 0.0008134641 -6.795545e-05
-0.0008047543 0.0015617997 9.285963e-05 0.0012549942 0.0012656754 0.00026206343 0.00075607386 0.00011984238
-0.000643795 -0.0003489317 -0.000251234 0.00012563188 -0.00020414102 0.0012908081 8.396689e-05 -0.0009752177
-0.00075459754 -0.0013457745 -0.00044045618 -2.1446287e-05 0.00070410396 -4.089558e-05 0.0005166623 0.0005201568
-2.508195e-05 -0.00041998483 0.001349367 0.0016226686 -0.001132433 0.0005951327 -0.00017032732 0.0008723414
0.00014248842 0.00073731807 0.0010795614 -0.00066606177 -0.00043540235 0.0007499549 0.00068183563 -0.0012178248
0.0012319986 0.001220417 -0.00035782318 -0.0011663985 0.0007816484 -0.0015459971 -0.00088483427 -0.0012444756
00000000: 60e0 e5b8 8975 19ba 6b2e 453a b30e 9d39
00000010: 9d92 5f3a ba69 c739 09f4 a9b9 f003 a9ba
00000020: 8e8a 303a 719f 353a fedd 3239 c924 45b9
00000030: 242c 5439 b22c dc39 77ae 3dba a216 483a
00000040: 9307 aab9 ad0a 0c3a 558c a2ba 521d 9d39
00000050: 9ef9 af3a 803e 133a f990 a7ba 8a58 39b9
00000060: 17a3 70ba 8f66 9f39 3f73 b2ba 6371 b836
00000070: 177c ae3a a5d3 ae3a ca91 92b9 0ab9 d8b9
00000080: d431 fc39 78db 91ba 2ba1 88ba 8046 5a3a
00000090: b4a6 353a bf3a 0b3a 31a2 a3ba 80d0 1c38
000000a0: ed85 3539 a556 8c3a d34d 31ba 12ff a3ba
000000b0: 96b2 f737 2475 6aba 7e9e 7d3a 31cd 53b9
000000c0: 3ed8 9339 fa31 463a 834f 4439 cfe4 7cb9
000000d0: bb4e 0038 44ec 9e3a ecea a8ba e09a 3a39
000000e0: 2a48 9f3a 50f0 ebb9 00a0 8d39 f049 053a
000000f0: cd4b 2bba fe69 c43a d8c9 373a 3463 61b9
00000100: af6a 6ab9 7d8c 76ba a312 4f3a b67b 2b3a
00000110: afd0 8aba 1001 17ba 81ab 3c3a eff0 af3a
00000120: 996d 7a3a 1e51 64ba 7576 023a 0d88 85b8
00000130: a5d7 1b39 5a2b 21ba b749 05b9 51b4 9a3a
00000140: c8e5 a83a 18b2 b0ba 29a5 8739 8707 4239
00000150: 9879 8aba d527 ecb9 86a1 67ba ac7f 62ba
00000160: 93ab b03a 018b bab9 57eb 80ba ef2e 383a
00000170: 20e6 92b9 daa0 46b9 c9a8 0bb8 d253 a03a
00000180: 516d 993a 3d38 1f3a 2476 12b9 9c14 87ba
00000190: 25d9 0bb9 8464 5e39 2298 403a 3ca9 b739
000001a0: 4653 5eba aaef ab3a 0366 a73a dc81 3fba
000001b0: a99c aaba 0c93 bfb9 08a6 3c3a 8124 1eba
000001c0: f722 3aba 6144 bd38 c6a9 4bba b74c 85ba
000001d0: bfc2 8f39 d169 d339 e5f4 bd3a 4069 ee36
000001e0: 8d9d 9fba 711f 5f3a c3db a0b9 e613 6339
000001f0: f797 9fba 5dbb 1fba 956f aeba 8c47 8238
00000200: dfa4 a7b9 7e76 ffb9 d576 bf3a ac27 c7b8
00000210: 8214 af3a 47c4 e1b8 7a1a 79ba e78a ac3a
00000220: 6e57 87b9 33f2 08ba 9f6e 76b9 aabd 82b9
00000230: f51c 89ba fef4 9d3a 462a 92ba ce00 3f39
00000240: 166f ad3a 47bb 1c39 9de0 b139 20c9 a83a
00000250: 06be d6b9 adcb f4b9 3ea1 abba b6b4 a839
00000260: ac9a 403a 2da0 d3b8 930c 48ba baaa 733a
00000270: efdf 08ba c00d 2c3a 557e 3739 26f6 b139
00000280: bdf2 a4ba a388 b83a 5b7f 37ba 1372 a7b9
00000290: 066a 79ba 8312 773a 567d a7b9 9684 d3ba
000002a0: 4bd4 1239 c4cd 10b9 3aa8 9fba ef31 21ba
000002b0: da10 8aba df54 a8b8 4efe 8aba bc17 03b9
000002c0: 8a8f 63b8 5da9 373a 33ed cbb9 ef57 3e3a
000002d0: 16d4 a43a 3982 a939 572c 8c3a 0ecd ccb9
000002e0: 7d36 813a fbb5 893a f7de 88ba 9318 90b9
000002f0: 45ff edb8 e1f3 04ba 31b7 8b3a eafd 1cba
00000300: 7c3f 2fba 865d 2139 39b1 5739 558f 783a
00000310: a67b 68ba 5c10 08b9 cb6a a13a b2e4 c6ba
00000320: 39b5 bcb9 c5a0 ccb9 9b73 1dba 90bd ab3a
00000330: 424e d53a 59ba 80b9 a73e 553a 4e83 8eb8
00000340: 26f6 52ba 4db5 cc3a a2bd c238 9e7e a43a
00000350: 05e5 a53a 8f65 8939 4233 463a e353 fb38
00000360: 5ac4 28ba d2f0 b6b9 0fb8 83b9 0dbc 0339
00000370: b00e 56b9 5530 a93a 6117 b038 c1a5 7fba
00000380: 2fd0 45ba b364 b0ba 07ed e6b9 8de7 b3b7
00000390: 9e93 383a 4b87 2bb8 9f70 073a 225b 083a
000003a0: 1467 d2b7 6931 dcb9 3edd b03a b9af d43a
000003b0: 256e 94ba ae02 1c3a e499 32b9 d7ad 643a
000003c0: f268 1539 9448 413a 1280 8d3a a69a 2eba
000003d0: b746 e4b9 9f98 443a 37bd 323a 6b9f 9fba
000003e0: 037b a13a 66f6 9f3a 379a bbb9 d7e1 98ba
000003f0: 89e7 4c3a 0ea3 caba 39f4 67ba ac1d a3ba

conv5.lin.weight f4 [256, 256]
0.09596842 0.05774331 -0.06287595 0.070978835 0.08459872 -0.052817807 -0.08112433 -0.09022966
0.12045056 0.1239457 0.03657757 -0.030043578 0.0033062825 -0.05426697 -0.11070396 -0.07497835
0.022193858 0.13513671 0.0947057 0.07292994 -0.106941916 -0.13462107 0.1331034 -0.018474894
-0.106100865 -0.04258486 0.074080825 -0.11198661 -0.006262941 -0.08345737 -0.06943126 -0.0053612404
0.052944522 0.10121354 0.085449174 -0.028987287 -0.07502615 0.014905722 0.102461755 0.10302122
-0.09211912 -0.068984464 -0.03998253 -0.017369276 0.07275965 0.047159627 0.03346934 -0.04834502
0.008051063 -0.041740403 0.061026886 0.06308557 0.004912546 -0.085214026 -0.056532506 0.041978948
0.068927675 0.014582854 0.042290226 0.029704258 0.05180056 -0.12683688 -0.062001124 -0.026704399
-0.06421495 -0.006168323 0.118461885 -0.06498571 0.06492764 -0.03211306 0.036976352 -0.053015947
0.06745999 -0.048147567 0.1108294 -0.1151679 -0.03305096 -0.123047344 -0.050190084 -0.096734464
0.14015128 -0.049048644 -0.0743098 0.10604622 0.046362516 0.099235356 0.038570765 0.108986676
0.005470704 0.057005506 0.04425255 0.11543778 -0.07677074 0.017620469 0.08012797 -0.1141636
-0.039191324 -0.008541075 0.05216117 0.113395035 -0.057407796 0.014519202 0.09904257 0.11913389
0.017594954 -0.055733968 -0.0535733 -0.11719077 0.10339118 0.053657457 -0.016158523 0.1159334
0.022794992 -0.026175389 -0.08982182 0.024519237 -0.0010246242 0.03594197 -0.009990202 0.019927641
0.08958631 -0.10386749 -0.08799682 -0.033174634 0.06410143 0.05001515 0.022381848 -0.0034702641
0.1146471 -0.036191773 0.12812401 -0.048183545 -0.071145564 0.0022368315 0.12431985 -0.018044325
-0.06354845 0.011330073 -0.06598865 -0.03958182 -0.10365031 0.023029817 -0.021123357 -0.043810412
0.060897816 0.01429043 0.020178653 -0.06922981 -0.042855658 0.07354858 0.042486105 0.13500006
0.08085865 0.008034304 0.10564867 -0.04897747 -0.045265034 -0.06105775 -0.017820723 -0.032959864
-0.07564251 0.12581125 -0.0886222 0.01863106 0.009165719 -0.04024284 0.059687454 0.0023294631
0.08665829 -0.062000755 -0.09730911 -0.03000845 -0.03517504 -0.005712377 -0.038814027 -0.022943161
-0.10206222 -0.0526642 -0.08283802 0.04787232 0.053484548 -0.073169656 0.015567997 -0.003276462
0.0442919 0.0035401403 0.05994344 -0.008475067 0.030075978 -0.09037464 0.02703293 -0.056169827
-0.027421786 0.031219397 -0.0015359875 0.054633263 0.12682499 0.113117985 -0.06753901 -0.042291068
0.002621072 0.08129052 0.118063025 -0.086400196 -0.0071844705 0.008031835 0.008462645 0.028173288
-0.04436876 0.04103371 0.10761655 0.09616611 0.07076787 0.07357923 -0.047956586 -0.12518133
0.09324344 0.0034467697 0.0015837527 -0.02106069 0.035614036 0.055589434 -0.115424804 -0.016451066
-0.05685458 0.05090526 -0.031955346 0.12205974 0.039885342 0.06711765 0.06448265 -0.028919654
0.07063746 0.11309116 0.013762658 0.08841566 0.01265767 -0.110689305 -0.08168629 -0.016326584
0.115460746 -0.043338332 -0.06701068 0.1471085 0.14383939 0.02835838 0.022879837 0.10037504
-0.11793454 -0.03298451 0.09240487 -0.029475449 -0.042044528 0.088399105 0.036624506 0.0061009848
00000000: 178b c43d 4084 6c3d 1bc5 80bd 5a5d 913d
00000010: 1842 ad3d 7c57 58bd 8324 a6bd 54ca b8bd
00000020: c8ae f63d 3ed7 fd3d 5dd2 153d f31d f6bc
00000030: 37ae 583b 0b47 5ebd c2b8 e2bd 408e 99bd
00000040: e5cf b53c 4761 0a3e 10f5 c13d 4b5c 953d
00000050: 5d04 dbbd 1bda 09be 424c 083e a958 97bc
00000060: 694b d9bd 766d 2ebd b0b7 973d 3c59 e5bd
00000070: 5b39 cdbb b3eb aabd fa31 8ebd 58ad afbb
00000080: 5bdc 583d 0b49 cf3d faff ae3d bf76 edbc
00000090: 4fa7 99bd 2137 743c 78d7 d13d cafc d23d
000000a0: f3a8 bcbd ba47 8dbd b9c4 23bd 034a 8ebc
000000b0: 0303 953d 742a 413d 2617 093d 6d05 46bd
000000c0: 9be8 033c fcf7 2abd 54f7 793d 0233 813d
000000d0: 6cf9 a03b b184 aebd a18e 67bd 1ef2 2b3d
000000e0: f429 8d3d ecec 6e3c 8438 2d3d 5856 f33c
000000f0: d32c 543d 87e1 01be e4f4 7dbd 2fc3 dabc
00000100: 2183 83bd a51f cabb 259c f23d 3a17 85bd
00000110: c8f8 843d fc88 03bd 8474 173d 4027 59bd
00000120: 7728 8a3d 6236 45bd 86fa e23d 26dd ebbd
00000130: 7260 07bd 3f00 fcbd 1e94 4dbd b81c c6bd
00000140: d183 0f3e 3be7 48bd bd2f 98bd c32e d93d
00000150: 9fe6 3d3d e83b cb3d 61fc 1d3d 6834 df3d
00000160: 9743 b33b 9b7e 693d 2942 353d a56a ec3d
00000170: fa39 9dbd cd58 903c 221a a43d 9bce e9bd
00000180: 1587 20bd ddef 0bbc f3a6 553d a83b e83d
00000190: 7024 6bbd f2e1 6d3c d5d6 ca3d 78fc f33d
000001a0: 4b23 903c 4d49 64bd ad6f 5bbd b701 f0bd
000001b0: c1be d33d ecc7 5b3d e15e 84bc 7e6e ed3d
000001c0: 90bc ba3c c56d d6bc 81f4 b7bd 91dc c83c
000001d0: af4c 86ba e337 133d f2ad 23bc 4b3f a33c
000001e0: 0779 b73d 7bb8 d4bd ad37 b4bd 20e2 07bd
000001f0: 9c47 833d b0dc 4c3d 235a b73c 5f6d 63bb
00000200: 19cc ea3d d33d 14bd f132 033e 1c5c 45bd
00000210: c4b4 91bd ce97 123b 689b fe3d b1d1 93bc
00000220: b125 82bd c5a1 393c 0f25 87bd 8c20 22bd
00000230: 9d46 d4bd 07a9 bc3c e40a adbc 8c72 33bd
00000240: fd6f 793d 6822 6a3c b44d a53c 5cc8 8dbd
00000250: 6a89 2fbd a3a0 963d e905 2e3d 753d 0a3e
00000260: 3899 a53d 50a2 033c 545e d83d 999c 48bd
00000270: d467 39bd b117 7abd c4fc 91bc ec00 07bd
00000280: 76ea 9abd aad4 003e 8e7f b5bd 2aa0 983c
00000290: d02b 163c add5 24bd d57a 743d e8a9 183b
000002a0: e779 b13d 81f4 7dbd 004a c7bd 48d4 f5bc
000002b0: b413 10bd e42e bbbb 75fb 1ebd 4cf3 bbbc
000002c0: ff05 d1bd 6bb6 57bd fba6 a9bd c415 443d
000002d0: 9d12 5b3d f9d9 95bd e910 7f3c e9b9 56bb
000002e0: 6c6b 353d b301 683b 4187 753d 02db 0abc
000002f0: e661 f63c 5716 b9bd 2a74 dd3c 5512 66bd
00000300: a7a3 e0bc d2bf ff3c 3053 c9ba 21c7 5f3d
00000310: 69de 013e 67aa e73d e451 8abd 6639 2dbd
00000320: 4bc6 2b3b a57b a63d 07cb f13d 96f2 b0bd
00000330: b56b ebbb f597 033c e8a6 0a3c abcb e63c
00000340: 04bc 35bd f712 283d 1166 dc3d bdf2 c43d
00000350: bfee 903d b5b0 963d 206e 44bd 892f 00be
00000360: 6bf6 be3d 33e3 613b ec95 cf3a 7887 acbc
00000370: 06e0 113d bfb1 633d d763 ecbd 63c4 86bc
00000380: 59e0 68bd 0982 503d 9ce3 02bd 75fa f93d
00000390: d05e 233d fa74 893d 7b0f 843d e9e8 ecbc
000003a0: 5faa 903d 579c e73d c67c 613c 4513 b53d
000003b0: 1e62 4f3c 13b1 e2bd 244b a7bd 54bf 85bc
000003c0: af76 ec3d 8983 31bd e53c 89bd 9ca3 163e
000003d0: a24a 133e d54f e83c 7f6e bb3c 6e91 cd3d
000003e0: aa87 f1bd c41a 07bd c43e bd3d 7f76 f1bc
000003f0: e236 2cbd 970a b53d 9403 163d c5ea c73b
