weights/8-20_split_4.pt (torch, 473380 bytes, 26 tensors)

conv1.bias f4 [64]
-2.7412472e-05 -3.421553e-06 -3.125852e-06 -1.3859725e-05 -7.2510443e-06 2.1174612e-06 -1.8281102e-05 -2.7288759e-06
2.9869677e-06 -1.1442426e-06 -3.8456998e-05 -4.4008284e-06 5.2869615e-07 -2.8070624e-06 -8.039604e-06 1.221879e-05
-3.4998757e-05 -8.000939e-06 2.438596e-06 -2.9349104e-07 1.1262007e-05 -3.305386e-05 4.1089447e-06 3.7613663e-06
-4.2058005e-06 -7.6152455e-06 -2.8158875e-06 -6.569684e-06 -1.1687886e-05 -1.2793762e-05 -4.708281e-06 -2.8035486e-06
-1.6871775e-06 -5.835502e-08 -1.7882247e-06 2.0155408e-05 4.0623854e-06 1.8683503e-06 7.2079833e-06 -1.8221368e-06
-6.1860305e-06 -8.627669e-08 1.419043e-07 -2.6539417e-06 -1.1768719e-06 -8.517662e-06 5.8223764e-06 -9.173939e-06
4.2364615e-08 -6.19177e-06 2.2628262e-06 -1.4289087e-05 -3.1965903e-06 4.723393e-06 4.0104796e-06 -8.926133e-06
-2.4117503e-07 -2.8022807e-06 -6.1088554e-06 6.7288047e-06 3.18549e-06 -3.6469964e-07 -3.952143e-06 -4.0248313e-05
00000000: d6f3 e5b7 d59d 65b6 bac5 51b6 1187 68b7
00000010: ff4d f3b6 b519 0e36 5e5a 99b7 bb21 37b6
00000020: b773 4836 e093 99b5 e34c 21b8 d4aa 93b6
00000030: b9eb 0d35 f760 3cb6 d6e1 06b7 4eff 4c37
00000040: a1cb 12b8 c53b 06b7 c3a6 2336 1a91 9db4
00000050: f4f1 3c37 50a3 0ab8 91df 8936 c86b 7c36
00000060: 8d1f 8db6 7686 ffb6 94f8 3cb6 2871 dcb6
00000070: 1717 44b7 caa4 56b7 d3fb 9db6 9924 3cb6
00000080: fa72 e2b5 06a2 7ab3 ef02 f0b5 6913 a937
00000090: a04f 8836 07c4 fa35 1bdc f136 2590 f4b5
000000a0: 9991 cfb6 1d47 b9b3 5b5e 1834 5f1a 32b6
000000b0: 03f5 9db5 14e7 0eb7 d55d c336 c5e9 19b7
000000c0: 63f4 3533 e6c2 cfb6 0fdb 1736 29bb 6fb7
000000d0: 0185 56b6 a37d 9e36 c291 8636 73c1 15b7
000000e0: d87a 81b4 d10e 3cb6 abfa ccb6 fec7 e136
000000f0: 4dc6 5536 f0cb c3b4 a69c 84b6 4cd0 28b8

conv1.lin.weight f4 [64, 2]
-0.52208906 -0.030349152 -0.023523105 0.6184789 0.35663822 0.0347495 -0.7026112 -0.012867999
0.011249499 -0.54230684 0.23354453 0.4299094 -0.04628592 0.35228965 -0.06579741 0.7247326
0.3286539 0.062750824 -0.030105539 0.48204118 -0.3630567 0.09046612 0.06533643 -0.5584477
-0.009032486 0.24214463 0.2760658 0.18126029 0.026179252 -0.40955275 0.36216635 0.32556796
-0.6763488 0.021526009 0.061227273 -0.5445659 0.009379389 0.6445061 -0.19199702 0.2779295
0.336073 0.2783871 -0.42163563 0.112280644 -0.22818135 -0.32398573 0.59777707 0.07519687
0.31742978 0.20903789 -0.15282233 -0.28028578 0.22269881 0.36886552 -0.2976457 -0.2030978
0.084845796 -0.5327819 0.024350839 -0.34422022 -0.0031370416 -0.60783833 -0.25328124 0.26434827
0.52397454 -0.07378251 0.47257364 -0.1429482 -0.31615523 0.28545707 0.27614966 0.33867452
-0.020122234 0.18143368 -0.014436729 0.40019074 0.34963855 0.33911383 -0.33319253 0.35244218
-0.37912062 0.2640944 0.6073112 0.07164863 -0.23729879 -0.34714028 0.5734977 -0.031570148
-0.049067568 0.5826658 -0.3100213 0.33484134 0.45541626 0.20407897 -0.09808856 -0.32304344
-0.013741799 0.56129587 0.18718228 0.24816123 0.6928615 -0.030743813 0.42308468 -0.16189864
-0.2966881 0.2260361 0.07866328 0.44359577 0.42180935 -0.23484927 0.001782285 -0.51639694
-0.25352883 0.24456379 -0.24240188 0.28349206 0.21536554 0.2439745 0.29015473 0.2604266
-0.17830402 0.23277321 0.015356122 -0.58877975 0.39762032 -0.16578859 -0.49808413 0.09739492
00000000: a1a7 05bf c99e f8bc 87b3 c0bc a254 1e3f
00000010: 4999 b63e 7e55 0e3d 54de 33bf 4dd4 52bc
00000020: d24f 383c 9fd4 0abf 4c26 6f3e 161d dc3e
00000030: 4e96 3dbd 4f5f b43e cbc0 86bd 1388 393f
00000040: 5345 a83e 8183 803d e49f f6bc 1ace f63e
00000050: 91e2 b9be 4d46 b93d 1bcf 853d 6ef6 0ebf
00000060: fefc 13bc c3f4 773e 7f58 8d3e 4c9c 393e
00000070: df75 d63c e6b0 d1be de6d b93e d8b0 a63e
00000080: 3225 2dbf 5057 b03c 73c9 7a3d ac68 0bbf
00000090: 02ac 193c 5afe 243f de9a 44be c74c 8e3e
000000a0: c311 ac3e c188 8e3e a0e0 d7be 65f3 e53d
000000b0: 5fa8 69be 75e1 a5be eb07 193f d100 9a3d
000000c0: 2886 a23e 070e 563e 757d 1cbe 9e81 8fbe
000000d0: 280b 643e f1db bc3e 0465 98be dff8 4fbe
000000e0: a2c3 ad3d 6564 08bf 697b c73c a23d b0be
000000f0: d396 4dbb 4b9b 1bbf 14ae 81be a858 873e
00000100: 3223 063f 491b 97bd 2cf5 f13e 0361 12be
00000110: 19df a1be 6e27 923e 7d63 8d3e bf66 ad3e
00000120: 62d7 a4bc c0c9 393e 0888 6cbc cde5 cc3e
00000130: d303 b33e 54a0 ad3e 3698 aabe 4d73 b43e
00000140: 191c c2be 6237 873e bf78 1b3f 84bc 923d
00000150: 74fe 72be 5fbc b1be bfd0 123f b34f 01bd
00000160: 13fb 48bd 9629 153f 1dbb 9ebe 5370 ab3e
00000170: 522c e93e 14fa 503e a8e2 c8bd f365 a5be
00000180: 4825 61bc 16b1 0f3f b6ac 3f3e fa1d 7e3e
00000190: 5f5f 313f 73da fbbc 8e9e d83e c2c8 25be
000001a0: 81e7 97be 0276 673e 371a a13d fc1e e33e
000001b0: 65f7 d73e 547c 70be 909b e93a 9732 04bf
000001c0: 88ce 81be ee6e 7a3e 3338 78be df25 913e
000001d0: c988 5c3e 74d4 793e 298f 943e a356 853e
000001e0: 5495 36be 1a5c 6e3e 3e98 7b3c 45ba 16bf
000001f0: e494 cb3e 7cc4 29be e204 ffbe fd76 c73d

conv2.bias f4 [64]
-0.2680176 0.099295095 -0.36397088 -0.16364703 -0.5122216 -0.99829 -0.0540208 -1.1689266
-0.6351939 -0.04537206 -0.876529 -0.19545421 -0.2840149 -0.18497501 0.08674254 0.039948277
-0.9819654 -0.17261323 -0.020737728 -0.5405705 -0.8722063 -0.55996746 -0.16251619 -0.059031878
-0.07894521 -0.22606333 -0.31464365 -0.4447666 0.07590872 -0.82530296 -0.22755858 -0.39152572
-0.90290976 -0.06848083 -0.46051028 -0.19489494 -1.2579105 -0.23637122 0.05630133 -0.5205053
-0.2767779 -0.29008335 -1.098174 -0.44794294 0.014691363 -0.18538247 -0.34187558 0.29148713
-0.16914777 -1.050822 -0.10119888 -0.5807407 -0.35983318 -0.4006674 -0.09890178 -0.578216
-1.2771832 -0.08245636 -0.46979272 -0.20666228 -0.31658778 -0.46453634 -0.442889 -0.6098013
00000000: 9a39 89be 3a5b cb3d 645a babe 1693 27be
00000010: f420 03bf ef8f 7fbf ea44 5dbd 639f 95bf
00000020: 119c 22bf 0ed8 39bd 3464 60bf 2625 48be
00000030: 676a 91be 176a 3dbe 13a6 b13d cea0 233d
00000040: 1662 7bbf 86c1 30be 2be2 a9bc d462 0abf
00000050: e948 5fbf 075a 0fbf a56a 26be 69cb 71bd
00000060: 07ae a1bd 257d 67be f918 a1be 73b8 e3be
00000070: 0876 9b3d 0e47 53bf 1e05 69be 0f76 c8be
00000080: 1825 67bf ad3f 8cbd 01c8 ebbe 8a92 47be
00000090: 3603 a1bf 4c0b 72be 399c 663d d63f 05bf
000000a0: d5b5 8dbe ce85 94be f790 8cbf c758 e5be
000000b0: 0bb4 703c e7d4 3dbe 510a afbe cd3d 953e
000000c0: 1335 2dbe 5681 86bf 5c41 cfbd 6cab 14bf
000000d0: 0e3c b8be 4724 cdbe 048d cabd f705 14bf
000000e0: bd7a a3bf e1de a8bd ac88 f0be 479f 53be
000000f0: cb17 a2be b5d7 edbe 59c2 e2be f01b 1cbf

conv2.lin.weight f4 [64, 64]
-0.07192076 0.16235673 -0.35481498 -0.23465362 0.21900716 0.10527844 0.01682788 0.100786425
-0.24496025 0.10820061 -0.24355832 0.20281664 -0.04917429 -0.036787823 0.28108725 -0.20215166
0.010143115 0.4190626 0.27063528 -0.24971686 -0.26330063 -0.19836317 -0.004166182 -0.114651576
0.10582736 -0.04673967 0.014649441 -0.19771498 0.17925908 0.2614177 0.14979817 -0.36067575
-0.08256391 -0.10124856 -0.37035885 -0.093430705 0.16686992 0.020563336 -0.08062044 -0.34744883
-0.25639254 -0.3044765 0.22429074 -0.21175401 0.2516799 -0.4822784 -0.32805446 0.28931817
0.3148042 0.06538637 -0.15314466 -0.11115058 -0.32371885 0.21999322 -0.100557804 0.4174042
-0.25320578 -0.2881404 0.03281235 0.06841222 -0.2553093 0.41851503 -0.21342108 -0.3695697
-0.17249641 -0.379301 0.055452447 -0.24327102 -0.34111172 -0.39748052 -0.18528602 -0.57770103
-0.14986263 -0.2357781 -0.093814254 -0.29222944 -0.1199026 -0.17680193 -0.137971 -0.47288606
-0.14589801 -0.37170967 -0.30905053 -0.03188116 -0.366262 -0.0383799 -0.42615777 0.07685317
-0.21657385 -0.401498 -0.21213615 -0.2928993 -0.36853114 -0.30022025 -0.18573497 -0.12171425
0.039327636 0.03210715 -0.15019132 -0.50245124 -0.24853711 -0.16797212 -0.43724126 -0.0429287
-0.037867375 -0.1198475 -0.52025884 -0.080194116 -0.30890733 -0.16075245 -0.14996698 -0.22676736
-0.42494476 -0.08966862 0.098610885 -0.15703921 -0.03727559 -0.0834362 -0.010418921 -0.23829778
-0.021102788 -0.062266972 -0.104413785 -0.1828228 -0.06914676 -0.23618674 0.038728755 -0.19079073
0.023291375 0.11618836 -0.1098468 0.03956193 0.06834703 -0.20085785 0.09701713 0.1758521
0.023394655 0.15686351 -0.111687176 0.10070957 -0.048197187 0.016426886 0.081842534 0.008632966
0.010042502 -0.0007262837 0.08248421 0.21511894 -0.19985315 -0.033490144 -0.22427069 -0.17770545
0.05132775 -0.37073496 -0.006997461 0.0070816693 0.119552314 -0.017302947 -0.13430706 -0.0062444084
-0.27010298 -0.09290482 -0.037209447 -0.15072995 0.024268733 0.16247077 -0.22899395 0.24431616
0.113787256 -0.14724988 -0.2053046 -0.39394924 0.13999896 0.22359931 -0.05346837 -0.1786462
0.22485782 0.052105665 -0.19060232 -0.4159591 0.20661668 -0.046125073 0.01065545 -0.052785248
0.1675445 0.05348915 -0.0343922 -0.17390186 0.049063057 -0.06854278 -0.20108101 0.10236273
-0.018566888 -0.031996004 -0.43918514 0.050376464 -0.02887328 -0.30892655 0.082657635 0.079301015
-0.3506519 0.081547394 -0.052817054 -0.08979528 -0.0024126344 -0.16504702 -0.0069688037 -0.18410434
-0.042737268 -0.07640722 0.04589877 0.13019401 -0.17514199 -0.060424943 -0.15477793 -0.39775926
-0.14868127 -0.2418141 -0.13629226 -0.24679816 -0.052509133 -0.099229455 -0.0258956 -0.12044801
-0.26240242 -0.21390663 0.17441237 -0.1995703 -0.14203177 0.106574245 -0.13661706 0.16790745
0.14779967 -0.33046654 -0.4784075 -0.49889973 0.08258746 0.0807758 -0.32179824 -0.30911714
0.109638005 -0.11181559 -0.24336316 -0.19090413 0.17127217 0.02883932 0.12728086 -0.078582354
0.123161145 0.18855622 -0.13523759 -0.2404898 0.030400263 0.008751582 -0.0036644249 -0.028376585
00000000: 314b 93bd d840 263e 4faa b5be 0a49 70be
00000010: 6a43 603e 399c d73d 9fda 893c 1d69 ce3d
00000020: dcd6 7abe 4898 dd3d 5a67 79be 2aaf 4f3e
00000030: fb6a 49bd d4ae 16bd abea 8f3e d800 4fbe
00000040: 4f2f 263c 608f d63e b590 8a3e c7b5 7fbe
00000050: 57cf 86be b71f 4bbe 7884 88bb 72ce eabd
00000060: 04bc d83d 1972 3fbd 3504 703c cc75 4abe
00000070: b18f 373e 8ad8 853e b164 193e 7eaa b8be
00000080: 4417 a9bd 685b cfbd ad9f bdbe 9958 bfbd
00000090: f3df 2a3e 7174 a83c 541c a5bd d0e4 b1be
000000a0: e245 83be 58e4 9bbe 79ac 653e 0bd6 58be
000000b0: 30dc 803e 32ed f6be c1f6 a7be 8321 943e
000000c0: 042e a13e 4ae9 853d f4d1 1cbe eaa2 e3bd
000000d0: 7abe a5be e745 613e 40f1 cdbd 01b6 d53e
000000e0: 30a4 81be 2387 93be 3e66 063d b51b 8c3d
000000f0: e7b7 82be 9a47 d63e 0e8b 5abe 3d38 bdbe
00000100: e6a2 30be be33 c2be 1b22 633d 0a1c 79be
00000110: 32a6 aebe 9182 cbbe 9ebb 3dbe 37e4 13bf
00000120: 9775 19be d06f 71be b021 c0bd 199f 95be
00000130: 7f8f f5bd 910b 35be 4548 0dbe 1f1e f2be
00000140: 4a66 15be bb50 bebe df3b 9ebe d295 02bd
00000150: b186 bbbe 3e34 1dbd 5a31 dabe 3265 9d3d
00000160: 89c5 5dbe 2591 cdbe 383a 59be e6f6 95be
00000170: 1db0 bcbe 78b6 99be 4f31 3ebe 5245 f9bd
00000180: 0416 213d c982 033d c1cb 19be a5a0 00bf
00000190: 8380 7ebe e200 2cbe 16de dfbe 01d6 2fbd
000001a0: d21a 1bbd 9b72 f5bd af2f 05bf d03c a4bd
000001b0: 1a29 9ebe 4a9c 24be f290 19be b435 68be
000001c0: 5c92 d9be 2ea4 b7bd 81f4 c93d e3ce 20be
000001d0: 4aae 18bd 99e0 aabd 1fb4 2abc 5504 74be
000001e0: c1df acbc a70b 7fbd e5d6 d5bd e635 3bbe
000001f0: d19c 8dbd f0da 71be 0ba2 1e3d a55e 43be
00000200: 8ecd be3c 2af4 ed3d 5cf7 e0bd b10b 223d
00000210: 87f9 8b3d aead 4dbe ebb0 c63d 9312 343e
00000220: 26a6 bf3c d4a0 203e 3fbc e4bd d240 ce3d
00000230: 6a6a 45bd ad91 863c 0f9d a73d 4971 0d3c
00000240: 4e89 243c 1364 3eba 7bed a83d 2448 5c3e
00000250: 4ea6 4cbe f62c 09bd 37a7 65be 6bf8 35be
00000260: 0c3d 523d f9d0 bdbe f54a e5bb 590d e83b
00000270: d8d7 f43d e9be 8dbc ca87 09be e59d ccbb
00000280: f04a 8abe e244 bebd ef68 18bd f458 1abe
00000290: 39cf c63c bd5e 263e 647d 6abe 042e 7a3e
000002a0: 4b09 e93d acc8 16be 5e3b 52be b7b3 c9be
000002b0: e35b 0f3e 38f7 643e a601 5bbd 08ef 36be
000002c0: 2141 663e c06c 553d 412d 43be 97f8 d4be
000002d0: 5393 533e a5ed 3cbd 3294 2e3c 5835 58bd
000002e0: c990 2b3e 7017 5b3d d6de 0cbd 5413 32be
000002f0: 58f6 483d 2860 8cbd 2ee8 4dbe 8da3 d13d
00000300: 9619 98bc 3e0e 03bd e0dc e0be 8d57 4e3d
00000310: a887 ecbc 9f2b 9ebe 6848 a93d 9268 a23d
00000320: a588 b3be 5202 a73d b256 58bd 96e6 b7bd
00000330: 4a1d 1ebb 1602 29be 905a e4bb d985 3cbe
00000340: 460d 2fbd 637b 9cbd 5900 3c3d 9451 053e
00000350: 6c58 33be 2580 77bd 1b7e 1ebe 1aa7 cbbe
00000360: e73f 18be 1e9e 77be 3390 0bbe a8b8 7cbe
00000370: d113 57bd d038 cbbd 0223 d4bc 72ad f6bd
00000380: 9c59 86be 570a 5bbe 2899 323e 285c 4cbe
00000390: c770 11be 9943 da3d 58e5 0bbe eeef 2b3e
000003a0: cc58 173e e932 a9be d4f1 f4be c96f ffbe
000003b0: 9d23 a93d c86d a53d bdc2 a4be 9a44 9ebe
000003c0: e489 e03d 92ff e4bd 3134 79be 5f7c 43be
000003d0: f961 2f3e 7040 ec3c ea55 023e c9ef a0bd
000003e0: e93b fc3d e214 413e b97b 0abe f542 76be
000003f0: f909 f93c cc62 0f3c d926 70bb 0376 e8bc

conv3.bias f4 [128]
-4.43154e-05 7.0099927e-06 -9.764828e-06 4.440293e-06 9.6237336e-08 -7.734971e-06 2.5638853e-06 2.0182066e-05
4.077218e-07 1.3560217e-05 -2.4319063e-05 -2.967713e-06 -2.959387e-06 2.5324523e-05 1.1745806e-05 -2.7256834e-05
1.9001567e-05 -3.1662035e-05 1.209671e-06 -2.1676402e-05 7.843041e-05 -4.0076888e-05 1.6178445e-06 1.05181e-05
4.824801e-05 -1.569729e-05 -1.46555885e-05 -1.157823e-05 2.1198208e-05 -1.24910075e-05 -1.3283767e-05 2.7197015e-05
2.8864017e-05 2.2524207e-05 -6.9555186e-05 5.563583e-06 -8.694581e-06 3.3708635e-05 -3.3340417e-05 -3.6833362e-06
-1.4918227e-05 -1.7206881e-05 -6.04035e-05 1.3350573e-06 -5.651017e-06 4.362206e-05 4.6239533e-05 1.8391276e-05
-1.4819402e-05 1.3328248e-05 3.0766803e-06 1.6776336e-05 -2.8858758e-06 5.4347332e-05 -3.3097196e-05 3.1438944e-05
-2.7644917e-05 -5.408265e-05 -1.993976e-05 -9.710932e-06 1.7881726e-05 6.1645615e-06 4.5752085e-06 -4.656245e-05
-3.1795214e-05 -4.4129646e-07 4.480644e-05 3.0717867e-05 2.673583e-07 -5.9330478e-06 5.7754674e-05 -3.0778672e-05
-1.8732547e-06 -1.1464744e-05 -5.1924935e-06 1.8790932e-05 -5.179873e-05 3.027683e-05 -1.3853734e-05 -1.3817772e-05
8.2944325e-06 3.5089703e-05 4.5839015e-06 1.5898777e-05 -4.1960244e-05 -7.4764714e-05 -1.8624238e-05 8.0555765e-06
1.4359583e-05 -1.4567321e-06 -6.981889e-06 1.5733702e-05 -1.5286983e-05 1.0235797e-06 4.4994595e-06 2.9819348e-05
-1.5749778e-05 -2.2108976e-05 -3.6179903e-05 9.683082e-06 -1.6531764e-06 -2.058303e-06 -9.987887e-06 2.5272226e-05
1.8935361e-07 1.0252923e-05 -5.7960493e-05 1.526995e-05 1.1186449e-05 -2.144145e-05 -1.241345e-05 3.1103547e-05
1.5248344e-05 -1.5033586e-05 0.00010839421 3.2383332e-06 -2.2281694e-05 -6.407118e-05 -2.5119187e-05 -3.6706904e-05
-1.5315203e-05 3.845099e-06 1.1927629e-06 2.0510464e-05 -2.7884664e-05 8.247841e-06 3.300234e-05 6.3121365e-06
00000000: 4cdf 39b8 6137 eb36 9ed3 23b7 d4fd 9436
00000010: 09ab ce33 73c5 01b7 370f 2c36 a84c a937
00000020: dce4 da34 b080 6337 ca00 ccb7 ec28 47b6
00000030: e299 46b6 0070 d437 da0f 4537 9ba5 e4b7
00000040: 8e65 9f37 dacc 04b8 fb5b a235 b8d5 b5b7
00000050: 017b a438 3b18 28b8 b724 d935 e576 3037
00000060: e85d 4a38 acad 83b7 46e1 75b7 1f40 42b7
00000070: ced2 b137 7890 51b7 58dd 5eb7 2525 e437
00000080: 0121 f237 5ef2 bc37 28de 91b8 d0ae ba36
00000090: f1de 11b7 5f62 0d38 00d7 0bb8 3c2f 77b6
000000a0: 4c49 7ab7 7f57 90b7 c459 7db8 3830 b335
000000b0: de9d bdb6 d5f6 3638 52f1 4138 f746 9a37
000000c0: d9a0 78b7 649c 5f37 f778 4e36 e8ba 8c37
000000d0: f8aa 41b6 01f3 6338 d8d1 0ab8 4fdd 0338
000000e0: 02e7 e7b7 ced6 62b8 4f44 a7b7 23ec 22b7
000000f0: b700 9637 2ed9 ce36 be84 9936 0d4c 43b8
00000100: da5b 05b8 53eb ecb4 8cee 3b38 0fd7 0038
00000110: 7289 8f34 7e14 c7b6 9c3d 7238 5918 01b8
00000120: 8b6c fbb5 b358 40b7 2e3b aeb6 38a1 9d37
00000130: 7642 59b8 fffa fd37 566d 68b7 e1d2 67b7
00000140: 5128 0b37 482d 1338 6acf 9936 5d5e 8537
00000150: 78fe 2fb8 00cb 9cb8 3f3b 9cb7 7026 0737
00000160: f0e9 7037 ef84 c3b5 f845 eab6 defb 8337
00000170: 8c3c 80b7 ee61 8935 10fa 9636 9024 fa37
00000180: 641e 84b7 aa76 b9b7 e0bf 17b8 8574 2237
00000190: b5e2 ddb5 6021 0ab6 a691 27b7 b1ff d337
000001a0: 2051 4b34 f803 2c37 9b1a 73b8 f817 8037
000001b0: 6fad 3b37 2add b3b7 5d43 50b7 2e75 0238
000001c0: 24d3 7f37 c338 7cb7 b351 e338 2452 5936
000001d0: 93e9 bab7 f45d 86b8 0bb7 d2b7 bdf5 19b8
000001e0: 2679 80b7 2605 8136 0517 a035 e30d ac37
000001f0: dce9 e9b7 3560 0a37 fe6b 0a38 d7cc d336

conv3.lin.weight f4 [128, 64]
-0.23028958 0.3038907 -0.39037582 -0.67489487 0.08549351 0.17091036 0.07340828 -0.0974422
-0.15644571 -0.7022146 -0.15308613 -0.14595139 0.24446025 0.14751853 0.25852478 -0.026354719
0.1088018 -0.47156543 0.04652578 -0.27389523 -0.032728516 -0.1510367 -0.0012029196 -0.14351736
-0.06324179 -0.29390123 0.11116002 0.03682261 -0.40042028 -0.08215998 0.089409806 -0.03772232
0.13890801 0.17872237 -0.015288568 -0.008826407 -0.0011971649 0.090406895 0.370357 0.17859425
-0.5232641 -0.4959707 -0.015870761 -0.11700317 0.40904748 -0.15436214 0.0029325262 0.053544506
0.033769067 -0.044831954 0.087357916 -0.1315413 0.17429215 0.07199989 0.091207854 0.035241894
-0.019727634 0.015495537 0.012837967 -0.24135666 -0.13743831 -0.036440678 0.068716615 -0.022327345
-0.011718463 0.12220508 -0.014928104 -0.073771715 -0.1460959 -0.18014978 -0.07679421 -0.12406878
-0.10509488 0.17833225 -0.07775651 0.05713127 -0.117039956 0.013211031 -0.018356731 0.060377564
-0.13585408 0.0065845265 0.030426914 -0.089630514 -0.03656528 -0.09741085 -0.07451601 0.057887852
-0.01548328 0.13151911 0.014635535 -0.24239658 0.13708614 -0.1502113 0.030734695 0.09360058
-0.032190006 0.101186104 -0.03308005 -0.15707372 -0.014716823 -0.041377362 0.059644822 0.009201959
-0.081871815 0.008818944 -0.089362435 -0.15321922 0.02696978 -0.06749499 -0.17083295 -0.05744539
0.07254152 -0.010556501 -0.39247283 -0.063764185 0.08925695 -0.108146 -0.4364109 -0.056422073
-0.15891904 0.09303743 -0.06266858 -0.009472086 -0.11062206 -0.17122935 0.082724854 -0.063413195
0.104799934 -0.03310135 -0.1706426 -0.062638216 -0.41752383 -0.24568148 0.03868323 -0.25101402
0.029052291 0.14543116 -0.075069465 0.16275457 0.0043965825 -0.098966554 0.07049387 0.11383339
-0.10147443 0.03839388 -0.25163394 -0.16946907 -0.09155476 -0.106199406 0.03624781 0.12906533
-0.12665674 -0.038640678 0.09623962 -0.42373297 0.1731044 -0.12869138 -0.13050103 -0.22786736
-0.10642319 -0.088464685 -0.05145724 0.11573764 -0.10453168 0.10319341 -0.08133195 -0.0051100217
0.09177038 0.029402439 0.051772222 -0.15928301 -0.05898843 0.02568968 -0.46822065 0.06957798
0.10658013 -0.37599692 -0.06465066 0.06454989 -0.24089158 -0.4968047 -0.15530163 -0.36618158
-0.21596937 -0.31375507 -0.16440247 -0.0071725254 -0.13358988 -0.10766189 -0.2081565 -0.07182555
-0.14625925 0.06039663 0.064549856 0.057748675 -0.08417639 -0.0046101855 -0.09392825 0.17363477
0.059364118 0.09599292 -0.06292034 -0.028276052 -0.12939025 -0.052125122 0.03702268 -0.21954788
0.13588533 0.066513106 -0.103648834 0.06850428 0.005069912 -0.02214765 -0.12185305 0.095772475
-0.06102952 -0.14214201 0.16166966 -0.16452926 0.060392212 0.007446543 -0.026400039 -0.1704547
0.12014039 0.11258197 -0.08382173 -0.42168853 0.09699315 -0.43112934 0.20692065 0.13118935
0.03914084 -0.18155208 0.03085718 0.12262115 0.15947974 -0.10496828 -0.17004053 -0.13880643
-0.13392676 0.027519362 0.04739671 -0.107738115 -0.075134404 -0.13103686 0.11571355 -0.16578177
0.2487826 0.118755564 0.00893396 -0.16373228 0.00890781 -0.13332851 -0.12568836 -0.22083138
00000000: 08d1 6bbe 9097 9b3e 57df c7be e9c5 2cbf
00000010: 3917 af3d 2003 2f3e 1557 963d c78f c7bd
00000020: 4e33 20be 56c4 33bf 9cc2 1cbe 4874 15be
00000030: ca53 7a3e 190f 173e 5c5d 843e dae5 d7bc
00000040: 7ad3 de3d 0671 f1be d191 3e3d ff3b 8cbe
00000050: 560e 06bd 5da9 1abe 49ab 9dba 37f6 12be
00000060: e984 81bd 397a 96be dda7 e33d 4ed3 163d
00000070: e303 cdbe 7e43 a8bd 7d1c b73d b882 1abd
00000080: e73d 0e3e ff02 373e e77c 7abc a29c 10bc
00000090: 30ea 9cba 4027 b93d 6f9f bd3e 69e1 363e
000000a0: a3f4 05bf dfef fdbe 6603 82bc 5c9f efbd
000000b0: ac6e d13e 1c11 1ebe a02f 403b 7c51 5b3d
000000c0: 6f51 0a3d b6a1 37bd b5e8 b23d c3b2 06be
000000d0: a479 323e ae74 933d 2fcb ba3d ce59 103d
000000e0: d99b a1bc fee0 7d3c 5656 523c 3326 77be
000000f0: a1bc 0cbe d242 15bd 4cbb 8c3d d6e7 b6bc
00000100: ccfe 3fbc a846 fa3d 0295 74bc a015 97bd
00000110: 2a9a 15be 2f79 38be 4846 9dbd c617 febd
00000120: fc3b d7bd bb9c 363e ce3e 9fbd 7b02 6a3d
00000130: a5b2 efbd 1573 583c db60 96bc 774e 773d
00000140: 551d 0bbe 03c3 d73b dd41 f93c 3490 b7bd
00000150: 7ac5 15bd 577f c7bd da9b 98bd d01b 6d3d
00000160: 95ad 7dbc f2ac 063e e2c9 6f3c cf36 78be
00000170: 4f60 0c3e fed0 19be 54c7 fb3c a9b1 bf3d
00000180: abd9 03bd a93a cf3d f27e 07bd efd7 20be
00000190: d41e 71bc 4f7b 29bd 214e 743d d0c3 163c
000001a0: 69ac a7bd 557d 103c a703 b7bd 80e5 1cbe
000001b0: baef dc3c d03a 8abd d5ee 2ebe db4b 6bbd
000001c0: a690 943d 2df5 2cbc 33f2 c8be cc96 82bd
000001d0: 59cc b63d a67b ddbd 4071 dfbe d51a 67bd
000001e0: acbb 22be 688a be3d 6258 80bd cf30 1bbc
000001f0: d28d e2bd bf56 2fbe a66b a93d c7de 81bd
00000200: 59a1 d63d 4895 07bd efbc 2ebe 7748 80bd
00000210: afc5 d5be ed93 7bbe 4e72 1e3d e984 80be
00000220: 12ff ed3c e8eb 143e 05be 99bd 22a9 263e
00000230: 3511 903b faae cabd 175f 903d 7b21 e93d
00000240: d3d1 cfbd e742 1d3d 2ad6 80be 4d89 2dbe
00000250: 1081 bbbd 137f d9bd 9578 143d b429 043e
00000260: 4eb2 01be b045 1ebd 4719 c53d 87f3 d8be
00000270: 4842 313e acc7 03be 10a2 05be 1056 69be
00000280: 67f4 d9bd f92c b5bd d4c4 52bd db07 ed3d
00000290: b514 d6bd 1157 d33d 5e91 a6bd f871 a7bb
000002a0: 1cf2 bb3d 62dd f03c 1c0f 543d 161b 23be
000002b0: da9d 71bd 2a73 d23c 9eba efbe e67e 8e3d
000002c0: af46 da3d ab82 c0be 9167 84bd bc32 843d
000002d0: 48ac 76be 305d febe 6407 1fbe 277c bbbe
000002e0: 1327 5dbe 81a4 a0be 1f59 28be 8107 ebbb
000002f0: c9cb 08be d67d dcbd fa26 55be 4619 93bd
00000300: fcc4 15be 7562 773d b732 843d e089 6c3d
00000310: ac64 acbd 0a11 97bb 745d c0bd 50cd 313e
00000320: ca27 733d f097 c43d 61dc 80bd 2ea3 e7bc
00000330: e17e 04be 2781 55bd 18a5 173d 29d1 60be
00000340: 8625 0b3e 0638 883d d745 d4bd f94b 8c3d
00000350: 8121 a63b fd6e b5bc 188e f9bd 5c24 c43d
00000360: 17fa 79bd ad8d 11be bb8c 253e 5c7a 28be
00000370: d35d 773d 2102 f43b e544 d8bc ad8b 2ebe
00000380: 2a0c f63d 6091 e63d baaa abbd 8fe7 d7be
00000390: 58a4 c63d fcbc dcbe 02e3 533e 8056 063e
000003a0: 2552 203d cae8 39be 32c8 fc3c cc20 fb3d
000003b0: a84e 233e 9cf9 d6bd 1b1f 2ebe 4623 0ebe
000003c0: 1924 09be 4970 e13c 0d23 423d cda5 dcbd
000003d0: 11e0 99bd 872e 06be 3afb ec3d b2c2 29be
000003e0: dec0 7e3e 1e36 f33d bf5f 123c 6fa9 27be
000003f0: 10f2 113c 4587 08be 73b4 00be 9f21 62be

conv4.bias f4 [256]
-0.108774364 -0.15173803 0.03924324 0.17150928 0.11451574 -0.16969562 -0.0013901428 -0.342103
0.08375748 -0.2364463 0.744139 0.0093001705 0.002544915 -0.4073991 -0.046478946 -0.07144712
-0.009497554 -0.14939429 -0.017556533 0.017763358 -0.28209677 -0.050008934 0.032711852 0.06549275
-0.10370843 -0.07601659 -0.052548792 -0.015846908 0.09879077 0.02258022 -0.2604007 -0.033180542
-0.42279923 -0.044402696 -0.09377842 -0.038100697 -0.32464492 -0.20813379 -0.4508523 -0.03547625
-0.28884003 0.10170904 -0.5623353 -0.14029668 0.010993889 0.00083462085 0.07444404 0.009906587
0.007510043 0.048983525 -0.13258839 0.022698833 -0.026542174 -0.13954028 -0.059395254 0.01479475
-0.31859145 0.055732176 -0.21930932 0.0149864415 -0.096557505 -0.008392582 -0.31522283 -0.04031273
-0.0009936362 0.04488498 -0.5647314 -0.019899549 -0.13617547 -0.03155047 0.038674932 -0.09501189
0.009216812 -0.10993286 0.031386 0.059337534 -0.090570256 0.07541642 -0.054565392 -0.034512646
-0.045331307 0.03784385 -0.068017736 0.017276837 -0.09655525 0.02889602 -0.4093529 -0.016678456
-0.45615104 -0.07055401 0.04549549 -0.069205485 -0.09809617 -0.021374742 -0.007204975 -0.030155627
-0.02121086 -0.017291496 -0.5725015 -0.24983995 -0.053394746 -0.014851848 -0.40493932 -0.025685776
0.10388375 -0.013062952 0.08437258 -0.03978804 0.007760057 0.14178579 -0.0731619 -0.09467625
-0.057823554 -0.19330904 -0.053810123 -0.21971455 0.5901431 0.036928926 0.033881247 -0.011148639
-0.053597845 -0.11050689 -0.05770322 0.003044722 -0.24402744 -0.57602507 0.04822358 -0.15566671
0.06289316 -0.010689123 -0.79620713 -0.5564701 -0.21784821 -0.114663266 0.0058917445 -0.058142174
-0.17312397 -0.118020184 -0.002829024 -0.018963112 -0.05211532 0.04886671 -0.18455443 0.0055716694
-0.0505723 0.04210862 -0.08295482 0.14607598 0.125155 -0.011034796 -0.007097945 -0.20042194
-0.0057625445 -0.25699428 -0.034668285 0.035261422 0.12535064 -0.05281715 -0.01760225 -0.33407417
0.004360736 0.1260641 0.01498876 -0.3057035 0.11360706 -0.40644675 0.04326038 -0.07692192
0.06640605 -0.008120409 -0.24015912 -0.21859445 0.44565997 -0.07663307 -0.3884153 -0.040556107
-0.022079268 -0.066286035 0.054517597 -0.014065384 -0.050704256 -0.14125001 -0.094567224 -0.050057895
-0.047465336 0.009315645 -0.04477368 -0.14617378 -0.03872406 0.029751709 0.05098847 -0.010962435
-0.007738177 -0.06723434 0.123429224 -0.0009291301 -0.58499575 0.034009036 0.0154462755 -0.044721097
0.02089307 -0.15481424 -0.048801873 -0.0150344465 0.08338994 -0.020664608 -0.036346283 -0.23783356
0.045993812 -0.16651978 -0.082309775 0.110836774 -0.013005052 -0.09227701 -0.6531934 0.18846656
-0.099714324 0.08194 -0.11843002 0.0042703324 -0.07226992 -0.0015019359 0.16165632 0.03916308
0.03994337 -0.10057104 -0.23569217 -0.07610986 -0.033575553 0.035581544 -0.16076852 0.028870868
-0.3802331 -0.26109412 0.034686204 -0.12969714 -0.27581015 -0.36251128 -0.030003086 -0.26459005
-0.014788034 -0.12536839 -0.18828718 -0.02333223 -0.4227091 -0.40333813 -0.002848525 -0.08634399
0.018796928 -0.11835196 -0.1588334 -0.057548538 -0.13010782 0.6020495 -0.015957337 -0.3085809
00000000: 18c5 debd 3761 1bbe 85bd 203d 21a0 2f3e
00000010: 3a87 ea3d b0c4 2dbe 7435 b6ba 2028 afbe
00000020: 0b89 ab3d fb1e 72be e57f 3e3f be5f 183c
00000030: 97c8 263b 9d96 d0be b560 3ebd de52 92bd
00000040: a19b 1bbc d1fa 18be b8d2 8fbc 7684 913c
00000050: fd6e 90be 2bd6 4cbd ddfc 053d 1021 863d
00000060: 1665 d4bd 96ae 9bbd 673d 57bd 60d1 81bc
00000070: d152 ca3d 27fa b83c 3e53 85be 52e8 07bd
00000080: 2479 d8be 9adf 35bd e60e c0bd 7a0f 1cbd
00000090: dc37 a6be 0621 55be 1dd6 e6be 8b4f 11bd
000000a0: d7e2 93be d44c d03d 35f5 0fbf efa9 0fbe
000000b0: b61f 343c 75ca 5a3a 1e76 983d 3d4f 223c
000000c0: cf16 f63b f3a2 483d 40c5 07be e7f2 b93c
000000d0: f96e d9bc a6e3 0ebe 7048 73bd ae65 723c
000000e0: 6b1e a3be 6c47 643d 9f92 60be b189 753c
000000f0: f1bf c5bd 0a81 09bc e364 a1be f61e 25bd
00000100: e63c 82ba 50d9 373d 3d92 10bf 6104 a3bc
00000110: 9571 0bbe 113b 01bd 9b69 1e3d 9895 c2bd
00000120: 1d02 173c 7b24 e1bd 9b8e 003d ea0b 733d
00000130: e67c b9bd ed73 9a3d f67f 5fbd 225d 0dbd
00000140: 52ad 39bd 2702 1b3d e24c 8bbd 2788 8d3c
00000150: c2be c5bd 59b7 ec3c b496 d1be 42a1 88bc
00000160: a18c e9be 9f7e 90bd 7b59 3a3d 9bbb 8dbd
00000170: a5e6 c8bd 151a afbc b617 ecbb ef08 f7bc
00000180: 66c2 adbc e5a6 8dbc 758f 12bf 0bd6 7fbe
00000190: 73b4 5abd 2a55 73bc 3554 cfbe fa6a d2bc
000001a0: 01c1 d43d fe05 56bc 88cb ac3d c9f8 22bd
000001b0: 1448 fe3b 4b30 113e e8d5 95bd 9fe5 c1bd
000001c0: 64d8 6cbd cef2 45be 0168 5cbd dafc 60be
000001d0: 9e13 173f c942 173d 10c7 0a3d c8a8 36bc
000001e0: 6a89 5bbd 7051 e2bd 365a 6cbd f589 473b
000001f0: 54e2 79be 6176 13bf 1786 453d 1867 1fbe
00000200: 21ce 803d 6e21 2fbc 3bd4 4bbf d374 0ebf
00000210: 9a13 5fbe 93d4 eabd 890f c13b 7d26 6ebd
00000220: 6947 31be 91b4 f1bd 2667 39bb 8758 9bbc
00000230: e076 55bd 7628 483d d6fb 3cbe 8d92 b63b
00000240: e624 4fbd 177a 2c3d 37e4 a9bd f194 153e
00000250: a228 003e 4acb 34bc e195 e8bb 693b 4dbe
00000260: bad3 bcbb c194 83be 5500 0ebd 486e 103d
00000270: eb5b 003e cc56 58bd 9832 90bc c50b abbe
00000280: 81e4 8e3b f316 013e 6b93 753c 2b85 9cbe
00000290: d1aa e83d ca19 d0be cc31 313d 3d89 9dbd
000002a0: e5ff 873d 770b 05bc 46ec 75be 39d7 5fbe
000002b0: 8b2d e43e cdf1 9cbd 5fde c6be 291e 26bd
000002c0: 95df b4bc f9c0 87bd d84d 5f3d 7f72 66bc
000002d0: 44af 4fbd d8a3 10be 76ac c1bd 8209 4dbd
000002e0: 036b 42bd a6a0 183c 9b64 37bd 94ae 15be
000002f0: 1f9d 1ebd dbb9 f33c 49d9 503d c99b 33bc
00000300: 8990 fdbb 28b2 89bd 76c8 fc3d de90 73ba
00000310: 48c2 15bf 0f4d 0b3d 6012 7d3c 782d 37bd
00000320: f227 ab3c a087 1ebe 79e4 47bd 0a53 76bc
00000330: 58c8 aa3d d348 a9bc d7df 14bd a48a 73be
00000340: 0264 3c3d 2984 2abe 0792 a8bd 64fe e23d
00000350: 2413 55bc bbfb bcbd af37 27bf 61fd 403e
00000360: 0637 ccbd 29d0 a73d 708b f2bd 25ee 8b3b
00000370: 4002 94bd 9bdc c4ba 3c89 253e 7769 203d
00000380: a99b 233d 30f8 cdbd 4a59 71be 7cdf 9bbd
00000390: 8586 09bd f4bd 113d 81a0 24be 9982 ec3c
000003a0: eaad c2be 21ae 85be 1f13 0e3d 54cf 04be
000003b0: fd36 8dbe 149b b9be 08c9 f5bc 5978 87be
000003c0: 8349 72bc 9260 00be 5bce 40be 3c23 bfbc
000003d0: 546d d8be 5682 cebe 52ae 3abb 1ed5 b0bd
000003e0: 04fc 993c 8362 f2bd 39a5 22be 04b8 6bbd
000003f0: fc3a 05be eb1f 1a3f f6b8 82bc 51fe 9dbe

conv4.lin.weight f4 [256, 128]
-0.30044875 -0.034400348 0.20986776 -0.06595273 0.07853596 -0.034901164 -0.16240254 -0.0636745
-0.06734197 0.018061673 -0.15662004 -0.055716578 0.04148253 -0.0728108 0.025669953 0.0319573
0.15031184 -0.37107074 -0.09705856 -0.16633192 -0.19074315 0.11961144 0.05593308 -0.08153977
-0.1304368 0.010136637 0.077472046 -0.14127873 -0.04851942 -0.017957928 0.024721714 -0.29933766
-0.23801205 -0.14574197 -0.4113432 -0.05946006 -0.24449292 -0.07371665 -0.4121877 -0.038822573
-0.30344597 0.13466227 -0.38832417 -0.16701618 -0.12546504 -0.28174025 -0.1051822 -0.019542716
-0.2492144 -0.0046831286 -0.08532381 0.04076776 -0.032678314 0.21431085 0.15155765 -0.32900396
0.16783725 -0.15170765 -0.05951445 -0.018500572 -0.27620485 -0.2135838 -0.115485266 -0.16842008
-0.009328671 -0.3758835 -0.68694973 -0.08954245 0.11939938 -0.26729634 -0.3909811 -0.27498075
-0.11048153 -0.14014769 0.11438888 0.036447436 0.08393987 -0.32314634 0.033635672 -0.12786178
-0.3357046 -0.35567594 0.016710954 -0.52762735 -0.09299708 -0.077750534 -0.15931192 -0.18218783
-0.24956726 0.08707547 -0.36631986 -0.09811482 -0.059089936 -0.13424444 -0.22225443 0.015934857
-0.4286129 0.013605781 -0.35007292 -0.33896843 -0.06927539 -0.20586266 0.10486729 -0.3459064
-0.09469866 -0.19462828 -0.51239264 -0.10573093 -0.18287161 -0.116929024 -0.39127806 -0.08743455
0.057956148 -0.041827098 0.071184084 -0.0034646506 -0.52865225 -0.081579156 -0.3301466 -0.045181364
0.04586214 -0.02573612 -0.034273814 -0.23264176 -0.17796719 0.092558295 0.20363425 -0.09052615
0.18303324 -0.0070950524 -0.008990498 0.024804132 0.03692565 0.020814357 -0.07768346 -0.11408169
0.024058374 -0.016368248 -0.16734318 0.008032134 0.012166709 -0.13924934 -0.08239604 0.026373157
-0.0405481 0.15600915 -0.029974805 -0.07253857 -0.13602288 -0.066519134 -0.038186613 -0.055753116
-0.009454579 -0.07507569 -0.1391168 -0.10087608 -0.014000765 0.04669301 -0.10222247 -0.005342892
-0.0914094 -0.015212508 -0.065125085 -0.04293741 -0.07153024 -0.119463846 -0.041920338 -0.027473086
-0.08764047 -0.032649744 -0.10179596 -0.06684604 -0.1520634 0.029165972 -0.062241778 -0.015329437
-0.026055014 -0.019243035 -0.025695916 0.039756536 -0.055838868 -0.02780316 -0.050262954 0.013172002
-0.06033232 0.18005197 -0.16500679 -0.02618136 0.08997111 0.068471454 0.019445287 -0.014789075
0.052230593 -0.082158715 0.08607318 -0.06521871 0.08126614 0.07503168 -0.078232124 0.021897351
0.0027826205 0.045235332 0.0071408246 -0.041628156 0.060185514 0.057352986 -0.07837522 -0.121206746
-0.0778387 -0.0041643004 -0.006062018 0.1313724 0.14563096 -0.07819315 -0.051284123 -0.0042690947
0.06465681 0.005512861 0.064031996 -0.13108775 0.034215853 0.02149128 -0.1018866 0.005379315
0.015842656 -0.0062693628 -0.029452167 0.096624605 -0.034376644 0.047152918 -0.040578544 -0.03208607
-0.0039770007 0.018496571 -0.04687977 -0.04478179 -0.041152213 -0.10336934 -0.014375212 -0.06467002
-0.17312214 -0.034260966 -0.16858387 0.0710606 0.089003004 -0.058605954 -0.028314961 -0.105059005
-0.03832453 0.09291375 -0.058009174 -0.07554576 -0.15920836 0.012124117 -0.09365056 -0.053421445
00000000: 6bd4 99be 61e7 0cbd 93e7 563e 3a12 87bd
00000010: 76d7 a03d 86f4 0ebd da4c 26be c767 82bd
00000020: 96ea 89bd 13f6 933c 0161 20be 1137 64bd
00000030: 96e9 293d d41d 95bd cb49 d23c a8e5 023d
00000040: 59eb 193e fcfc bdbe a3c6 c6bd ea52 2abe
00000050: 2c52 43be d8f6 f43d 161a 653d 53fe a6bd
00000060: 3991 05be 2314 263c aaa9 9e3d 5fab 10be
00000070: 4dbc 46bd 811c 93bc 3185 ca3c c942 99be
00000080: 6eb9 73be 623d 15be 939b d2be 648c 73bd
00000090: 5a5c 7abe c1f8 96bd 440a d3be 6b04 1fbd
000000a0: 455d 9bbe e8e4 093e 6dd2 c6be 4a06 2bbe
000000b0: e879 00be 4240 90be c469 d7bd 0c18 a0bc
000000c0: 0f32 7fbe ee74 99bb 40be aebd 18fc 263d
000000d0: b2d9 05bd 4e74 5b3e ee31 1b3e 3573 a8be
000000e0: 87dd 2b3e 4059 1bbe 6dc5 73bd 838e 97bc
000000f0: b96a 8dbe b6b5 5abe 8a83 ecbd 5076 2cbe
00000100: 48d7 18bc cd73 c0be f0db 2fbf 0862 b7bd
00000110: aa87 f43d 11db 88be ad2e c8be 47ca 8cbe
00000120: 2444 e2bd e082 0fbe b844 ea3d e849 153d
00000130: abe8 ab3d 7073 a5be 8fc5 093d 33ee 02be
00000140: 79e1 abbe 281b b6be 69e5 883c 9612 07bf
00000150: 4175 bebd ac3b 9fbd aa22 23be 728f 3abe
00000160: 8f8e 7fbe a054 b23d 478e bbbe 6cf0 c8bd
00000170: 4a08 72bd 6077 09be aa96 63be d189 823c
00000180: 2673 dbbe c8ea 5e3c c23c b3be 458d adbe
00000190: 41e0 8dbd a9cd 52be a9c4 d63d a51a b1be
000001a0: 5ff1 c1bd a34c 47be 2a2c 03bf 7589 d8bd
000001b0: b242 3bbe 7c78 efbd 9955 c8be e310 b3bd
000001c0: 6d63 6d3d e452 2bbd f6c8 913d 310f 63bb
000001d0: c155 07bf f912 a7bd fa08 a9be 1810 39bd
000001e0: f0d9 3b3d 8ed4 d2bc b362 0cbd a439 6ebe
000001f0: 083d 36be 348f bd3d 7f85 503e c665 b9bd
00000200: 116d 3b3e 9d7d e8bb e24c 13bc 0932 cb3c
00000210: 5a3f 173d df82 aa3c 8218 9fbd a9a3 e9bd
00000220: 1116 c53c b416 86bc 035c 2bbe 3699 033c
00000230: e056 473c 6197 0ebe 41bf a8bd 850c d83c
00000240: c415 26bd ddc0 1f3e b98d f5bc 1a8f 94bd
00000250: 9549 0bbe 2f3b 88bd 9169 1cbd 615d 64bd
00000260: 61e7 1abc 49c1 99bd a274 0ebe 1e98 cebd
00000270: 7763 65bc 2b41 3f3d 045a d1bd 6d13 afbb
00000280: da34 bbbd e23d 79bc 4d60 85bd 23df 2fbd
00000290: 727e 92bd 76a9 f4bd a9b4 2bbd 3d0f e1bc
000002a0: d97c b3bd bdbb 05bd 667a d0bd 94e6 88bd
000002b0: 82b6 1bbe 7aed ee3c 3cf1 7ebd 5228 7bbc
000002c0: 5371 d5bc 92a3 9dbc 3e80 d2bc c0d7 223d
000002d0: 4cb7 64bd 74c3 e3bc 87e0 4dbd 61cf 573c
000002e0: 061f 77bd 8b5f 383e 8af7 28be 4b7a d6bc
000002f0: c642 b83d c33a 8c3d b94b 9f3c e04d 72bc
00000300: bfef 553d d442 a8bd 2347 b03d 6391 85bd
00000310: dd6e a63d 36aa 993d 2a38 a0bd 1362 b33c
00000320: a05c 363b af48 393d 94fd e93b 4982 2abd
00000330: 1685 763d f7ea 6a3d 3083 a0bd 3e3b f8bd
00000340: e569 9fbd af74 88bb e5a3 c6bb 7d86 063e
00000350: 4820 153e bb23 a0bd 4d0f 52bd c3e3 8bbb
00000360: ca6a 843d 3ba5 b43b 3523 833d de3b 06be
00000370: ec25 0c3d 7b0e b03c eca9 d0bd f744 b03b
00000380: 75c8 813c 3a6f cdbb ac45 f1bc 1fe3 c53d
00000390: 86ce 0cbd 6b23 413d b035 26bd af6c 03bd
000003a0: 8051 82bb 1f86 973c 0005 40bd 1c6d 37bd
000003b0: 398f 28bd 4eb3 d3bd 0286 6bbc b771 84bd
000003c0: ee46 31be 3a55 0cbd 40a1 2cbe 3888 913d
000003d0: 3547 b63d cc0c 70bd c7f4 e7bc 2d29 d7bd
000003e0: 2ffa 1cbd 9049 be3d 079b 6dbd bcb7 9abd
000003f0: 8407 23be 3ca4 463c ddcb bfbd 72d0 5abd

conv5.bias f4 [256]
0.00012246678 2.310121e-05 3.9718936e-05 9.67793e-05 -0.00016084727 -4.381149e-05 4.6463738e-05 -2.3496057e-05
-3.8510138e-05 1.8739696e-05 0.00017303177 -6.4701203e-06 1.6397859e-08 0.00020323557 9.5410585e-05 2.7969629e-05
1.536482e-05 -2.3039973e-05 5.93479e-06 -9.142972e-06 1.5613674e-05 2.3224635e-05 4.9088267e-05 -4.821362e-06
-2.5136655e-05 -3.702412e-05 -0.00010183111 0.00012370967 5.21022e-05 1.3482961e-05 2.9973837e-05 -6.8705645e-05
6.313721e-05 5.4280586e-06 4.383182e-05 -8.8355446e-05 -1.7085684e-05 3.13865e-05 9.616826e-06 4.9591017e-05
3.1199077e-05 2.7654291e-06 -3.575917e-05 -7.868e-06 -2.4796525e-05 0.0002539081 2.0073836e-05 -2.9447521e-05
5.019843e-07 5.434108e-05 -1.1765153e-05 -5.537747e-05 -5.5294757e-05 -2.1171875e-06 -8.121455e-05 2.4608054e-05
9.179373e-05 -3.772077e-05 0.00010323541 2.8153703e-05 3.0434312e-06 -5.6003282e-05 -1.3963405e-05 8.561167e-05
-0.00023440765 -7.027089e-05 0.00021214958 5.2987292e-05 -4.013674e-05 7.895372e-05 2.3723556e-05 3.8011228e-07
-2.2315258e-05 0.00012429382 5.575332e-05 1.0590359e-05 -3.7529917e-05 -2.4348386e-05 0.00010001966 2.5908006e-05
-1.6304948e-05 0.0001419038 -0.00015630289 -7.8332036e-05 8.9959605e-05 6.591805e-05 8.0798054e-05 2.9444262e-05
7.33074e-06 4.7174282e-05 -5.327707e-06 -3.5411707e-05 -6.575178e-05 3.1804397e-05 -3.8346167e-05 -5.3427615e-05
5.3919855e-05 4.0725456e-05 0.00012936324 -5.016081e-06 -3.662345e-05 -8.5018524e-05 3.2660813e-05 -3.026662e-05
-3.474902e-05 -2.2883523e-05 -8.432825e-05 6.825756e-05 0.00012278197 0.00010332901 -8.42965e-06 -1.6734047e-08
-3.1151196e-06 -2.9184886e-05 -0.00016626458 7.588604e-06 1.6460692e-05 5.507431e-05 2.4845865e-05 -7.004789e-05
-1.8990499e-05 5.0645784e-05 -5.5890217e-05 -0.00015863875 -2.8004419e-05 -7.933216e-06 -8.295708e-05 3.1353377e-06
7.4132186e-05 0.0001310249 -9.7347765e-05 -1.805053e-05 1.9876063e-08 -2.0302782e-06 -1.287055e-05 1.6059796e-06
9.1227485e-05 -1.7127588e-05 -4.330328e-05 -4.467058e-05 2.81268e-06 1.9142644e-06 -6.759168e-05 2.1402357e-05
2.1300264e-05 9.073706e-05 3.2956852e-06 -0.00013500101 0.00011623341 -3.7928297e-05 5.2515366e-05 1.2141615e-05
0.00017696839 -1.4048974e-05 1.6683607e-05 4.007744e-06 -6.348066e-05 -1.1804158e-05 -3.0227196e-05 0.00010598204
-7.973111e-05 -2.5114137e-05 0.00017226062 5.1990744e-05 4.9359787e-05 -7.291401e-05 -6.538356e-05 1.1273671e-05
-2.1097521e-05 4.461365e-05 -2.1169426e-05 -4.5308137e-05 -5.1892035e-05 -5.1690757e-05 0.00010706865 6.307539e-05
-3.960323e-05 -4.5962774e-06 -4.5315002e-05 7.726774e-05 3.969752e-05 -4.912382e-06 -3.1469433e-06 3.1294905e-05
6.920359e-05 -7.414847e-05 9.101413e-05 7.157564e-05 -3.1551004e-05 -3.1235344e-05 5.970356e-06 -6.0917315e-05
-3.9116734e-05 -1.2739801e-05 8.6852364e-05 -6.247764e-05 -1.6827873e-05 9.537702e-06 1.1034166e-05 5.310104e-05
-2.7656442e-06 6.846721e-05 8.1669954e-05 5.3114178e-05 -3.607585e-05 9.87915e-05 4.370625e-05 -8.842282e-05
1.2089623e-05 6.305666e-05 8.5990105e-05 1.9478966e-05 8.598126e-06 3.211517e-05 -2.1185173e-05 5.965415e-05
2.6215877e-05 -3.7919042e-05 1.4911707e-05 -3.0425595e-05 2.3695638e-06 9.544271e-05 -1.13086e-06 -1.6819257e-06
9.080671e-05 2.8185394e-07 -0.000110630695 -2.1607173e-05 3.3057001e-06 1.5184179e-06 7.347183e-05 2.1537227e-05
-3.25812e-05 2.4922296e-05 -4.4143013e-05 -4.2849028e-05 -1.4039113e-05 -0.00027608123 -4.061419e-05 -6.8962486e-06
7.0999326e-05 3.0315487e-05 -1.0286917e-06 4.571006e-05 -5.4437613e-05 0.00010341777 5.9788348e-05 -0.000105377396
0.000107648935 -1.2905672e-05 0.00016726057 -0.00014547503 -3.3825876e-05 -2.1462758e-05 -8.132605e-06 -2.2190092e-05
00000000: 6d6a 0039 79c9 c137 e297 2638 fef5 ca38
00000010: 1ca9 28b9 3bc2 37b8 0fe2 4238 6619 c5b7
00000020: f285 21b8 3133 9d37 dd6f 3539 e919 d9b6
00000030: 46db 8c32 a21b 5539 2b17 c838 52a0 ea37
00000040: b3e3 8037 f745 c1b7 7523 c736 c464 19b7
00000050: 1cfa 8237 86d2 c237 20e4 4d38 2fc7 a1b6
00000060: 8edc d2b7 594a 1bb8 298e d5b8 10b8 0139
00000070: 5088 5a38 e034 6237 5370 fb37 1016 90b8
00000080: 8868 8438 ab22 b636 0fd8 3738 784b b9b8
00000090: 3a53 8fb7 ffa4 0338 f457 2137 f3ff 4f38
000000a0: c1db 0238 b695 3936 1efc 15b8 cd00 04b7
000000b0: 2202 d0b7 f81e 8539 3c64 a837 1206 f7b7
000000c0: 19c0 0635 4aec 6338 f362 45b7 1b45 68b8
000000d0: 4bec 67b8 0115 0eb6 bb51 aab8 656d ce37
000000e0: 6281 c038 5e36 1eb8 1780 d838 9e2b ec37
000000f0: c03d 4c36 11e5 6ab8 5e44 6ab7 6a8a b338
00000100: 53cb 75b9 665e 93b8 7874 5e39 ac3e 5e38
00000110: 7f58 28b8 f593 a538 f301 c737 3c12 cc34
00000120: a731 bbb7 de54 0239 acd8 6938 3fad 3137
00000130: 7169 1db8 c33f ccb7 a5c1 d138 0555 d937
00000140: 9cc6 88b7 03cc 1439 3de5 23b9 3146 a4b8
00000150: b2a8 bc38 7c3d 8a38 2072 a938 12ff f637
00000160: 94fa f536 00dd 4538 a8c4 b2b6 0887 14b8
00000170: 38e4 89b8 b665 0538 e2d5 20b8 7717 60b8
00000180: 0128 6238 a0d0 2a38 aea5 0739 cf4f a8b6
00000190: 219c 19b8 f94b b2b8 48fd 0838 12e5 fdb7
000001a0: 7abf 11b8 fef5 bfb7 62d9 b0b8 8025 8f38
000001b0: 09bf 0039 57b2 d838 126d 0db7 8fbe 8fb2
000001c0: 590d 51b6 11d2 f4b7 4f57 2eb9 9da1 fe36
000001d0: 1115 8a37 97ff 6638 176c d037 ade6 92b8
000001e0: c94d 9fb7 7f6c 5438 aa6b 6ab8 4458 26b9
000001f0: 08eb eab7 e718 05b7 3ef9 adb8 b168 5236
00000200: 6a77 9b38 bb63 0939 2f27 ccb8 386b 97b7
00000210: edbb aa32 ea3f 08b6 97ee 57b7 0a8d d735
00000220: 6251 bf38 37ad 8fb7 8ba0 35b8 ac5c 3bb8
00000230: 79c1 3c36 d076 0036 02c0 8db8 3689 b337
00000240: f8ad b237 174a be38 712b 5d36 0f8f 0db9
00000250: 56c2 f338 3315 1fb8 f243 5c38 d7b3 4b37
00000260: 9790 3939 e2b3 6bb7 c6f3 8b37 427a 8636
00000270: eb20 85b8 790a 46b7 6990 fdb7 ad42 de38
00000280: 5035 a7b8 33ac d2b7 dca0 3439 a310 5a38
00000290: ab07 4f38 69e9 98b8 881e 89b8 0c24 3d37
000002a0: 95fa b0b7 8b1f 3b38 ff94 b1b7 3e09 3eb8
000002b0: a6a6 59b8 87ce 58b8 0b8a e038 5847 8438
000002c0: a51b 26b8 b939 9ab6 9d10 3eb8 cd0a a238
000002d0: e380 2638 0ad5 a4b6 1330 53b6 a642 0338
000002e0: 6521 9138 2880 9bb8 d7de be38 e11a 9638
000002f0: a255 04b8 b202 03b8 f854 c836 7881 7fb8
00000300: 4611 24b8 07bd 55b7 8224 b638 6d06 83b8
00000310: 9529 8db7 1e04 2037 621f 3937 cfb8 5e38
00000320: 6899 39b6 0e96 8f38 3946 ab38 eac6 5e38
00000330: 2650 17b8 482e cf38 3b51 3738 a46f b9b8
00000340: 89d4 4a37 493d 8438 9655 b438 c366 a337
00000350: ac40 1037 67b3 0638 d0b6 b1b7 2835 7a38
00000360: 2bea db37 430b 1fb8 4b2d 7a37 783a ffb7
00000370: cc04 1f36 6a28 c838 0ec8 97b5 87be e1b5
00000380: 7b6f be38 b651 9734 6702 e8b8 0d41 b5b7
00000390: 7fd7 5d36 71cc cb35 e314 9a38 d8aa b437
000003a0: cca7 08b8 3910 d137 3326 39b8 cbb8 33b8
000003b0: 8889 6bb7 ffbe 90b9 2859 2ab8 5366 e7b6
000003c0: 79e5 9438 034e fe37 9411 8ab5 ceb8 3f38
000003d0: f153 64b8 fee1 d838 40c5 7a38 0ffe dcb8
000003e0: 95c1 e138 7085 58b7 ab62 2f39 a88a 18b9
000003f0: 42e0 0db8 ec0a b4b7 4671 08b7 dc24 bab7

conv5.lin.weight f4 [256, 256]
-0.03617723 -0.025035957 -0.050141074 0.032473747 0.07484158 0.09661129 -0.033001322 -0.089806214
-0.046080932 0.048684854 0.21472186 -0.06738679 -0.03389788 0.0056566177 -0.031333156 -0.08717385
-0.031746387 0.062161937 0.017385216 -0.028959176 0.08002246 -0.03949298 0.0069122114 0.015841711
0.01404358 0.040159836 -0.04088192 -0.042554535 -0.03671298 -0.04482237 -0.04847852 -0.037316613
-0.069416314 -0.036532495 -0.061539426 0.09963537 -0.01822725 0.10075124 -0.063306525 -0.021832982
0.07019131 0.013449034 -0.17255557 0.058422834 0.036439512 -0.030173564 -0.036650445 0.099049166
-0.032529287 -0.05768137 -0.005291616 -0.11804564 -0.023457915 0.022707324 0.15295956 -0.043910693
0.009539748 -0.040099338 -0.072420456 -0.039640628 -0.11518254 -0.024866527 -0.040602513 -0.053359557
0.010941935 -0.04357107 0.029173763 0.09755341 -0.0248922 -0.047696795 -0.033533152 -0.058598865
0.021606265 0.0655054 -0.014322699 -0.051468924 -0.029461263 -0.053685643 -0.0376302 0.00032522026
0.04317245 -0.04959864 -0.03210322 0.0010059638 0.0906234 -0.045653798 0.014245113 -0.051317956
-0.033361834 -0.0029429644 -0.058530696 -0.030885793 -0.07907103 0.045059945 -0.027110556 0.12870595
-0.06650425 -0.052970465 0.07164354 0.010420699 -0.058914293 -0.025930908 0.022435857 -0.037527584
-0.017772673 0.11935624 -0.07236851 -0.048321906 -0.10838081 0.13789265 -0.00624109 0.09149909
-0.00062130595 0.018055694 0.10607265 0.06597074 0.1276758 -0.064226046 -0.05509495 -0.038451403
0.012259881 0.03272243 -0.02765213 -0.07234286 0.0025501829 -0.15253364 -0.024900975 -0.044520497
-0.03528535 0.065320715 0.1302552 -0.17547834 -0.2564529 -0.028647607 -0.024739191 0.05289936
0.09565773 -0.035250764 -0.033905733 -0.016745778 -0.05861962 0.07560227 0.0040325783 0.13826402
-0.02846713 -0.04166378 -0.04407757 0.11547055 -0.037676204 -0.033465218 0.011183949 0.033064682
-0.016169058 -0.15543334 0.102318674 -0.0018047835 -0.03787644 -0.030925104 -0.033962652 0.034908365
-0.05765169 -0.01932861 -0.064195454 0.06202695 -0.11858467 -0.021439629 -0.030176198 -0.04371353
-0.047994338 -0.033384345 -0.031262167 0.0022057113 0.05923457 0.23911433 0.0518238 -0.05009503
-0.020602157 -0.097082905 -0.05522981 0.005496088 -0.047569994 0.06376882 -0.020701787 -0.031407535
-0.016517164 -0.033035852 -0.03860539 0.009378682 -0.004935531 -0.031177403 0.14873819 -0.025764385
-0.031982914 0.005702443 0.09438659 -0.017192103 0.038757153 -0.03453297 -0.054894034 0.029171735
-0.02368084 -0.0162595 0.15021597 -0.01058901 -0.0380615 -0.023484044 -0.042561647 0.11615136
-0.030972416 -0.052087165 -0.030109283 -0.047048204 -0.08002066 0.07972527 -0.08075272 0.022685017
-0.033685856 0.015302587 0.013672171 -0.03658269 0.073733 -0.02447632 -0.001415772 -0.056618065
-0.036050517 -0.028141301 -0.012562444 0.12479607 -0.021924006 0.011899808 0.13898563 -0.050002128
-0.07481339 0.113291845 -0.018830772 -0.033522397 -0.02632512 0.027371526 -0.06437569 0.18715191
-0.04160605 -0.13845544 -0.16583474 -0.03621582 -0.018355798 0.09282787 0.0591037 0.139989
-0.036971617 -0.06194681 0.0013431747 -0.05112098 0.048362173 0.1084743 -0.04095401 -0.017601037
00000000: 932e 14bd 3518 cdbc ba60 4dbd 3103 053d
00000010: 8b46 993d 24dc c53d 652c 07bd 52ec b7bd
00000020: 5cbf 3cbd c569 473d 0ce0 5b3e 1602 8abd
00000030: 81d8 0abd 265b b93b 3257 00bd 3488 b2bd
00000040: 8008 02bd 849d 7e3d 716b 8e3c cb3b edbc
00000050: d1e2 a33d 64c3 21bd d57f e23b 7ac6 813c
00000060: 0b17 663c a47e 243d cd73 27bd aa4d 2ebd
00000070: 5a60 16bd a997 37bd 6a91 46bd 4ed9 18bd
00000080: 242a 8ebd 19a3 15bd c410 7cbd a10d cc3d
00000090: 5051 95bc ab56 ce3d daa6 81bd 15db b2bc
000000a0: 76c0 8f3d 5659 5c3c 68b2 30be c84c 6f3d
000000b0: 9941 153d 8d2e f7bc c71e 16bd 4ada ca3d
000000c0: 6e3d 05bd 4d43 6cbd 4b65 adbb eac1 f1bd
000000d0: d02a c0bc b604 ba3c 6ea1 1c3e b3db 33bd
000000e0: 9a4c 1c3c 343f 24bd 2d51 94bd 365e 22bd
000000f0: d3e4 ebbd e3b4 cbbc d24e 26bd 8d8f 5abd
00000100: cd45 333c 9477 32bd d1fd ee3c 15ca c73d
00000110: baea cbbc b75d 43bd 0f5a 09bd 5d05 70bd
00000120: 9fff b03c b227 863d c1a9 6abc 14d1 52bd
00000130: bf58 f1bc 7ae5 5bbd 2022 1abd 5382 aa39
00000140: 98d5 303d f227 4bbd aa7e 03bd 8bda 833a
00000150: c398 b93d 7aff 3abd 5664 693c c732 52bd
00000160: 6ba6 08bd c0de 40bb e2bd 6fbd 3404 fdbc
00000170: feef a1bd c790 383d f516 debc 7ecb 033e
00000180: 6133 88bd 8ff7 58bd d9b9 923d 94bb 2a3c
00000190: 1d50 71bd 0e6d d4bc 67cb b73c 86b6 19bd
000001a0: ff97 91bc 0b71 f43d f135 94bd 31ed 45bd
000001b0: c2f6 ddbd bb33 0d3e 0f82 ccbb e063 bb3d
000001c0: 23df 22ba 89e9 933c 9e3c d93d ab1b 873d
000001d0: 72bd 023e f288 83bd 3eab 61bd 387f 1dbd
000001e0: abdd 483c f407 063d b886 e2bc 7e28 94bd
000001f0: f820 273b c731 1cbe 21fd cbbc 205b 36bd
00000200: 5f87 10bd dec6 853d 9f61 053e 98b0 33be
00000210: cb4d 83be 63ae eabc d8a9 cabc 00ad 583d
00000220: 33e8 c33d 1b63 10bd bde0 0abd 712e 89bc
00000230: 201b 70bd 5dd5 9a3d b823 843b 1595 0d3e
00000240: e633 e9bc a4a7 2abd af8a 34bd d37b ec3d
00000250: 5d52 1abd d312 09bd e23c 373c d56e 073d
00000260: f974 84bc eb29 1fbe 748c d13d 7c8e ecba
00000270: 5324 1bbd a556 fdbc 6c1c 0bbd 13fc 0e3d
00000280: 2e24 6cbd 0857 9ebc e878 83bd f90f 7e3d
00000290: 85dc f2bd 29a2 afbc 1334 f7bc f50c 33bd
000002a0: b695 44bd 06be 08bd c20c 00bd b28d 103b
000002b0: f39f 723d 63da 743e 3145 543d 7230 4dbd
000002c0: dbc5 a8bc 67d3 c6bd a738 62bd 8718 b43b
000002d0: c1d8 42bd 3a99 823d cb96 a9bc 30a5 00bd
000002e0: 014f 87bc 9a50 07bd af20 1ebd 0ba9 193c
000002f0: 3cba a1bb c167 ffbc d34e 183e d50f d3bc
00000300: 8400 03bd 8fdb ba3b c24d c13d 74d6 8cbc
00000310: d2bf 1e3d 7272 0dbd 91d8 60bd 90f9 ee3c
00000320: 52fe c1bc a532 85bc 37d2 193e 877d 2dbc
00000330: 60e6 1bbd 9c61 c0bc 1f55 2ebd c4e0 ed3d
00000340: ddb9 fdbc 5a59 55bd bea7 f6bc 9eb5 40bd
00000350: dfe1 a3bd 0147 a33d af61 a5bd eed5 b93c
00000360: 2efa 09bd b4b7 7a3c 3e01 603c bbd7 15bd
00000370: 5401 973d 9082 c8bc 6d91 b9ba 58e8 67bd
00000380: b5a9 13bd 9688 e6bc b6d2 4dbc 1595 ff3d
00000390: f999 b3bc 6af7 423c 4052 0e3e 08cf 4cbd
000003a0: c337 99bd 8e05 e83d fe42 9abc c84e 09bd
000003b0: c7a7 d7bc 403a e03c 67d7 83bd c0a4 3f3e
000003c0: 1b6b 2abd 43c7 0dbe 95d0 29be 0a57 14bd
000003d0: e65e 96bc 8a1c be3d b916 723d 4759 0f3e
000003e0: 8d6f 17bd f0bb 7dbd 770d b03a 3c64 51bd
000003f0: 6a17 463d c627 de3d 64bf 27bd 0d30 90bc
