weights/8-20_split_3.pt (torch, 473380 bytes, 26 tensors)

conv1.bias f4 [64]
0	0xb642b046	-2.9010857e-06
1	0x36a31afd	4.8609204e-06
2	0x35c17ea8	1.4416482e-06
3	0x371b3d69	9.253018e-06
4	0xb6bfd008	-5.7164616e-06
5	0x3747adef	1.1901821e-05
6	0x374be5ed	1.2153277e-05
7	0x377f3e79	1.521373e-05
8	0x3553319e	7.867583e-07
9	0x3753a02f	1.2613876e-05
10	0x3827b1fa	3.9981656e-05
11	0xb6e36cda	-6.777799e-06
12	0x361b4724	2.313821e-06
13	0x353b0ab8	6.9678526e-07
14	0x36e43c5f	6.8019576e-06
15	0x37007d41	7.6585575e-06
16	0xb6f0882d	-7.1684103e-06
17	0xb673915b	-3.629443e-06
18	0x3773d4ab	1.4533444e-05
19	0x375f2028	1.3299323e-05
20	0x36a0c629	4.7914405e-06
21	0xb4c4ac92	-3.6633406e-07
22	0x35bef2d0	1.4226771e-06
23	0xb5b5f4cb	-1.3556795e-06
24	0x371f8dd2	9.510159e-06
25	0xb6973393	-4.5061547e-06
26	0x363f0f2f	2.8470056e-06
27	0xb7728912	-1.4456238e-05
28	0xb6e45d02	-6.805757e-06
29	0xb72e0426	-1.0372174e-05
30	0xb68be028	-4.168618e-06
31	0x349b9d59	2.8985485e-07
32	0xb4f7e4f9	-4.6173935e-07
33	0xb5279d61	-6.2441364e-07
34	0xb78ef6a9	-1.704258e-05
35	0x37886d93	1.6263488e-05
36	0x38112183	3.4601904e-05
37	0x37c10395	2.300906e-05
38	0xb7ec265d	-2.8151257e-05
39	0xb612492f	-2.1798294e-06
40	0x3717aca6	9.040499e-06
41	0xb4d8424e	-4.0281378e-07
42	0xb78ade73	-1.6554468e-05
43	0xb50e4734	-5.3002736e-07
44	0xb5470cb9	-7.415179e-07
45	0xb768d48f	-1.3877768e-05
46	0xb3dead9d	-1.0369261e-07
47	0xb7018b93	-7.721496e-06
48	0x37b8eb38	2.2044042e-05
49	0x37aa8a18	2.0329884e-05
50	0xb70a6ab0	-8.250281e-06
51	0xb5cba4c2	-1.517263e-06
52	0xb6e774ab	-6.8979184e-06
53	0x37af1d35	2.0875226e-05
54	0xb6b1a1b9	-5.293838e-06
55	0x368e1a0c	4.234962e-06
56	0x355c06ca	8.1966266e-07
57	0xb6adc690	-5.1789175e-06
58	0x37b59dbb	2.165033e-05
59	0x36b52b47	5.3992585e-06
60	0x3736937c	1.0882384e-05
61	0xb6660ded	-3.4280777e-06
62	0x36969f82	4.4889175e-06
63	0x33350c4c	4.215353e-08

conv1.lin.weight f4 [64, 2]
0	0xbeb8b112	-0.36072594
1	0xbe41f187	-0.18939792
2	0xbeaddbd9	-0.33956793
3	0xbe307dc7	-0.1723548
4	0x3cdba026	0.026809763
5	0xbe8cfc9a	-0.2753647
6	0xbeb66fe6	-0.35632247
7	0xbe16abb2	-0.14713934
8	0xbb946fdb	-0.004529936
9	0xbf21c8b8	-0.631969
10	0x3ef77307	0.48329946
11	0x3e2ac2f2	0.16675928
12	0x3d9fd897	0.07804983
13	0x3ebf7a4b	0.3739799
14	0x3d917eac	0.07104239
15	0x3ef199b9	0.47187594
16	0x3ed538ad	0.41644803
17	0x3d116d4f	0.035504635
18	0x3daa5baf	0.083182685
19	0x3eb4660f	0.35234115
20	0xbedf2161	-0.43580154
21	0x3dc5512d	0.09634624
22	0x3c4d6014	0.012535114
23	0xbf1f5808	-0.622437
24	0x3e97f3e0	0.2967825
25	0xbc446d02	-0.01198888
26	0x3f19cd52	0.6007892
27	0x3d1a33f0	0.037647188
28	0xbeb303fd	-0.3496398
29	0xbe35e128	-0.17761672
30	0x3df7b742	0.120955005
31	0x3efe35f6	0.49650544
32	0xbe9aa412	-0.302033
33	0xbe593cc0	-0.2121458
34	0xbc2cc9d3	-0.0105461655
35	0xbefae830	-0.4900527
36	0x3e3cb75d	0.18429323
37	0x3eada941	0.33918193
38	0x3d921b1b	0.07134076
39	0x3eceec94	0.4041487
40	0x3eb9fdb3	0.3632637
41	0x3e5fd465	0.21858366
42	0xbe8615b0	-0.2618842
43	0x3e8f661d	0.28007594
44	0xbe8daad3	-0.2766939
45	0xbe7eec6d	-0.24894877
46	0x3f59e2a4	0.8511145
47	0x3c6ada6e	0.014334304
48	0x3eb8a136	0.36060494
49	0x3e35b1b6	0.17743573
50	0xbe9fde55	-0.31224313
51	0xbe4ecaad	-0.20194502
52	0x3e9e5dbc	0.3093089
53	0x3e4fc1f4	0.20288831
54	0xbe9e978f	-0.30975005
55	0xbe66186c	-0.22470254
56	0xbb3fe356	-0.002927979
57	0xbf049cba	-0.51801646
58	0x3b32f48b	0.0027306403
59	0xbeb9cfe8	-0.36291432
60	0xbe8d7417	-0.27627632
61	0xbe6bd2d9	-0.23029651
62	0xbe828f7a	-0.2550009
63	0x3ea56f25	0.3231136
64	0x3f22c542	0.6358224
65	0xbca8563e	-0.020548936
66	0x3f126a1d	0.57193166
67	0xbd97bb12	-0.07408728
68	0xbea3685f	-0.31915566
69	0x3eb126c7	0.34599897
70	0x3ea7c781	0.32769397
71	0x3e6e9877	0.23300348
72	0xbeb1041d	-0.3457345
73	0xbdb663fc	-0.08905789
74	0x3d8f22ab	0.06989034
75	0x3e98296f	0.2971911
76	0x3e6dc4f3	0.23219661
77	0x3ec25706	0.3795702
78	0xbeb6d10c	-0.35706365
79	0x3ebf09c6	0.37312144
80	0xbed76d28	-0.42075467
81	0x3e8b2220	0.27174473
82	0x3ee9dfc9	0.45678547
83	0x3d7000de	0.058594577
84	0xbeba674e	-0.3640694
85	0xbe74103e	-0.23834321
86	0x3ebdedaf	0.370954
87	0x3db1e989	0.086871214
88	0xbe71872e	-0.23586723
89	0x3ea10d02	0.31455237
90	0xbea5aa89	-0.3235667
91	0x3ebad708	0.3649218
92	0x3f17e65b	0.5933587
93	0x3d75d202	0.060014732
94	0xbd25f017	-0.04051217
95	0xbee4bf55	-0.44677225
96	0x3d89e26b	0.06732639
97	0x3eb7c603	0.35893258
98	0x3d8f3252	0.0699202
99	0x3ed869b4	0.42268145
100	0x3c64bdb4	0.013961244
101	0xbef1ed51	-0.4725137
102	0x3f2a3134	0.6648133
103	0xbd57b002	-0.05265809
104	0xbe81ede8	-0.2537682
105	0x3e9d0929	0.3067105
106	0x3d58ad9a	0.052899934
107	0x3eafd65e	0.34343237
108	0x3ef19893	0.47186717
109	0xbdbbeeff	-0.09176444
110	0x3d8b6b44	0.06807569
111	0xbec53e02	-0.3852387
112	0xbe845163	-0.25843343
113	0x3e8251a9	0.25452927
114	0xbe808b20	-0.25106144
115	0x3eab7791	0.3348966
116	0x3ec20b35	0.37899175
117	0x3e698972	0.22806337
118	0x3ef72695	0.48271623
119	0x3e03f947	0.1288806
120	0x3d344b22	0.044016965
121	0x3edbea3c	0.42952144
122	0xbe3d8f8a	-0.18511787
123	0xbeaf9519	-0.3429344
124	0x3ed355df	0.41276452
125	0xbe0ac3f0	-0.13551307
126	0xbeaea922	-0.34113413
127	0x3e78a2ef	0.24280904

conv2.bias f4 [64]
0	0xbe87d550	-0.26529932
1	0xbf062827	-0.5240502
2	0xbec6e29e	-0.3884477
3	0x3dba354f	0.09092199
4	0xbf31649d	-0.6929415
5	0xbf38d76c	-0.7220371
6	0xbe845f9c	-0.25854194
7	0xbf31ad99	-0.69405514
8	0xbf35245b	-0.707586
9	0xbd98f6da	-0.07468958
10	0xbf08d6c9	-0.53452736
11	0xbe0b0a7b	-0.13578217
12	0xbf5a8a47	-0.85367244
13	0xbf4f486d	-0.8096989
14	0x3df93eeb	0.12170204
15	0x3e8db14b	0.27674326
16	0x3e51acc8	0.20476067
17	0xbd31fcc6	-0.043453954
18	0x3e81e416	0.25369328
19	0x3deb6310	0.11493504
20	0xbf175868	-0.5911927
21	0xbf55d217	-0.83523697
22	0xbe3291c9	-0.17438425
23	0xbf32e145	-0.69874984
24	0xbea94385	-0.33059326
25	0xbea8df02	-0.3298264
26	0x3e41859b	0.18898623
27	0xbf01e05b	-0.50732964
28	0xbf32ea3b	-0.6988866
29	0x3d1c5203	0.03816415
30	0xbeccb8b2	-0.3998466
31	0xbee5d2d6	-0.44887418
32	0x3e1f896d	0.15579768
33	0xbf39bad2	-0.7255069
34	0x3c5c9726	0.013463771
35	0xbf2f29cf	-0.6842317
36	0xbf68f1ee	-0.90994155
37	0xbcc5bea2	-0.024138752
38	0xbe3ded53	-0.18547563
39	0xbe12fcfd	-0.1435432
40	0xbc8e5ff8	-0.017379746
41	0x3eb2c6bc	0.34917247
42	0xbf58662f	-0.8453092
43	0xbf5eb841	-0.869999
44	0xbdda2139	-0.10650868
45	0x3dff25a0	0.12458348
46	0xbe612c4b	-0.21989553
47	0x3e05dcf6	0.13072571
48	0xbe6f57ed	-0.23373385
49	0xbf58000a	-0.8437506
50	0xbf88a59b	-1.0675539
51	0xbf2c2a02	-0.672516
52	0xbecf8a0e	-0.40535015
53	0xbf1ea41f	-0.6196918
54	0xbeaa0d0c	-0.3321308
55	0xbe5c73d6	-0.21528563
56	0xbf0d312a	-0.55153143
57	0xbf15653c	-0.58357596
58	0xbeb546f8	-0.35405707
59	0xbed5f435	-0.41787878
60	0xbe34fc4d	-0.1767437
61	0xbf340622	-0.7032186
62	0xbf259c09	-0.64691216
63	0xbf469b04	-0.77580285

conv2.lin.weight f4 [64, 64]
0	0x3d2a4e8f	0.041578826
1	0xbd1502e1	-0.0363797
2	0xbe468dd5	-0.19390042
3	0xbd9c1c2c	-0.07622561
4	0xbca43bb9	-0.02004801
5	0x3e91e3b8	0.28494048
6	0x3e8f1822	0.279481
7	0x3e1272d7	0.1430162
8	0xbe220c57	-0.1582502
9	0x3e422b0b	0.18961732
10	0xbe97e85b	-0.2966946
11	0xbd8a7276	-0.06760113
12	0xbe69c7e1	-0.22830154
13	0xbe0cdfb1	-0.13757206
14	0x3c752370	0.014962062
15	0x3cde844b	0.027162692
16	0x3e26b196	0.16278681
17	0x3e26de42	0.16295722
18	0x3ebc465d	0.36772433
19	0x3dcd6cac	0.10030493
20	0xbdb48c3d	-0.08815811
21	0xbf2c88bd	-0.67396146
22	0xbd9abab1	-0.0755514
23	0xbe6d0550	-0.23146558
24	0x3e69ad43	0.2282
25	0xbe24cf41	-0.16094686
26	0xbd081912	-0.033227034
27	0xbe116360	-0.14198065
28	0xbd6e2095	-0.05813654
29	0xbc9a5ad6	-0.018842142
30	0xbdc9f16c	-0.09860501
31	0xbf79fbc9	-0.9764982
32	0xbe601b13	-0.21885328
33	0xbe807b12	-0.25093895
34	0xbf898ffc	-1.0747066
35	0xbd765d97	-0.060147848
36	0xbd89f666	-0.0673645
37	0x3e0608e2	0.13089326
38	0xbcffe148	-0.031235352
39	0xbf3e248b	-0.7427451
40	0xbee6205f	-0.44946572
41	0xbe025ed0	-0.1273148
42	0x3e276fa9	0.16351189
43	0x3d690cf3	0.056897115
44	0xbefd1f6f	-0.49438044
45	0xbf7cb19a	-0.987085
46	0x3d044a41	0.032297377
47	0x3dfc7963	0.1232784
48	0x3ea70636	0.32621926
49	0x3e0a1225	0.13483484
50	0x3b3ee82b	0.0029130082
51	0xbebc7d8a	-0.3681453
52	0xbf3b1ec8	-0.73093843
53	0x3e7ccafa	0.24686804
54	0xbe984a5b	-0.2974423
55	0xbc80f4bb	-0.015741697
56	0xbf0f4ed6	-0.5597967
57	0xbf364986	-0.7120594
58	0x3e63e9f9	0.22257222
59	0x3eb46a89	0.3523753
60	0x3df0e8aa	0.11763127
61	0x3e001729	0.12508835
62	0xbed8359e	-0.42228407
63	0xbf02fd6e	-0.51167953
64	0xbf58655f	-0.8452968
65	0xbea16fa2	-0.31530482
66	0x3e92aea7	0.28648874
67	0xbf653190	-0.8952875
68	0x3c61e470	0.013787374
69	0xbf2aa206	-0.6665348
70	0x3d70e178	0.058808774
71	0xbe20efbc	-0.15716451
72	0xbd174a92	-0.03693635
73	0x3d31b130	0.04338187
74	0xbe47788c	-0.19479579
75	0x3cfae482	0.03062654
76	0x3d7bd002	0.06147767
77	0xbd091fb8	-0.033477515
78	0xbf2d976e	-0.6780919
79	0xbe8faabf	-0.28059956
80	0xbef7af3e	-0.48375887
81	0x3b2bc4e3	0.0026209883
82	0xbe9f01b8	-0.31056
83	0x3d7d0053	0.061767887
84	0xbed39e84	-0.41331875
85	0x3dade3d8	0.08490723
86	0xbeaa9984	-0.33320248
87	0x3e933d69	0.2875779
88	0xbf093c46	-0.53607595
89	0xbf235de4	-0.6381514
90	0xbe999e4e	-0.3000359
91	0xbf0c2181	-0.5473862
92	0x3c0eb10a	0.008709202
93	0x3d7ec70a	0.062201537
94	0xbe1208d1	-0.14261176
95	0xbc6f257e	-0.014596341
96	0x3e1cec4f	0.1532452
97	0x3e87eb26	0.26546592
98	0xbde8801d	-0.11352561
99	0xbf68450c	-0.9073036
100	0xbf3b8897	-0.73255295
101	0x3da701c2	0.08154632
102	0xbed50909	-0.41608456
103	0x3ddde4d4	0.10834661
104	0x3d13cd22	0.0360843
105	0xbda0f82a	-0.078598335
106	0xbf1e5ea2	-0.6186315
107	0xbe5cdbf4	-0.2156828
108	0xbd0346d8	-0.032049984
109	0xbcc45963	-0.023968404
110	0xbdfa3b9a	-0.12218399
111	0x3e092da4	0.13396317
112	0xba1740fa	-0.0005769875
113	0x3db7c456	0.08972995
114	0x3e663297	0.22480236
115	0x3d84f735	0.064924635
116	0xbac80c1c	-0.0015262398
117	0x3de3ca86	0.11122613
118	0x3e8c178c	0.27361715
119	0x3e6302b2	0.22168997
120	0xbd62689e	-0.055275552
121	0x3d4163cd	0.047214318
122	0xbf5f7f0c	-0.87303233
123	0xbe849e6e	-0.25902122
124	0x3df2bc20	0.11852288
125	0xbe3fbe37	-0.18724905
126	0x3ea9ce2c	0.3316511
127	0xbe1940c8	-0.14966118
128	0x3c5d086f	0.01349078
129	0xbe003016	-0.12518343
130	0x3e3a1975	0.18173774
131	0xbca4172f	-0.020030586
132	0x3ec51a5f	0.38496682
133	0xbe878b9e	-0.26473707
134	0x3e3d46f6	0.184841
135	0x3df92eaa	0.121671036
136	0xbdf62aba	-0.12019868
137	0x3e46acc0	0.19401836
138	0xbe9d9da5	-0.30784336
139	0x3ea9fa79	0.33198908
140	0xbe1b7303	-0.15180592
141	0xbea07896	-0.31342
142	0x3dbd4ac8	0.09242779
143	0x3e578f36	0.21050724
144	0x3d555c62	0.052090056
145	0x3e3c5d25	0.18394907
146	0x3c2be065	0.010490512
147	0x3e82f5fe	0.25578302
148	0xbec4b18e	-0.38416713
149	0xbe9786ad	-0.29594937
150	0x3dac8485	0.084237136
151	0xbee2216f	-0.44166133
152	0xbe2b7b6b	-0.16746299
153	0xbe1fac17	-0.15592991
154	0xbe29c89f	-0.16580437
155	0x3e10fa1a	0.14157906
156	0x3ea95788	0.33074594
157	0x3e2ba5fb	0.16762535
158	0x3c955b8a	0.018232126
159	0xbedcf898	-0.43158412
160	0xbee323ec	-0.44363344
161	0xbde094f8	-0.109659135
162	0xbf13b483	-0.57697314
163	0xbedcb7df	-0.43109033
164	0xbe797fb9	-0.24365129
165	0x3e40dd9e	0.1883454
166	0xbf06c73a	-0.52647746
167	0xbe872643	-0.2639638
168	0xbe48526b	-0.1956269
169	0xbe856ec4	-0.2606107
170	0x3d96db84	0.07366088
171	0xbe892ddf	-0.2679281
172	0xbe809789	-0.25115612
173	0xbeb71317	-0.35756752
174	0xbe77e26a	-0.24207464
175	0x3e15af6e	0.14617702
176	0x3e784d1d	0.24248166
177	0x3e635c71	0.22203232
178	0xbd3f79e0	-0.04674709
179	0xbedc123d	-0.42982665
180	0xbe4202a1	-0.18946315
181	0x3dcccd00	0.10000038
182	0xbe0d4380	-0.1379528
183	0x3e0c2f26	0.1368986
184	0xbe0b7d4a	-0.13622013
185	0xbe74843d	-0.2387857
186	0xbe35b370	-0.17744231
187	0xbeb79e1e	-0.3586282
188	0x3e1d02de	0.15333125
189	0x3d8b4ac4	0.0680137
190	0xbe5c9d8f	-0.21544479
191	0xbdacaf95	-0.08431927
192	0xbe88a55b	-0.26688656
193	0xbe21dff8	-0.15808094
194	0xbe04bb4c	-0.12962073
195	0xbe07fed3	-0.13280801
196	0xbd6023c2	-0.0547216
197	0xbdcdbb34	-0.10045472
198	0x3dff8ed6	0.12478416
199	0xbdcee59b	-0.101023875
200	0xbd0a97df	-0.03383624
201	0x3e07262f	0.1319816
202	0xbd2f443f	-0.042789694
203	0xbe3c110d	-0.1836588
204	0xbc82113d	-0.01587736
205	0x3d293855	0.041313488
206	0xbeaf0119	-0.34180525
207	0xbbb90998	-0.0056468956
208	0xbe8545f4	-0.26029932
209	0xbe2c0999	-0.16800536
210	0x3d098ba6	0.033580445
211	0x3da6a40b	0.081367575
212	0xbb3332a9	-0.0027343428
213	0xbdc21e34	-0.09478417
214	0x3d62b72c	0.055350468
215	0xbcfc2bc6	-0.030782592
216	0xbc8725fb	-0.016497603
217	0xbec27947	-0.37983152
218	0x3db1f3a1	0.08689047
219	0xbef51ceb	-0.47873625
220	0xbdce46ee	-0.100721225
221	0xbe2f89fa	-0.17142478
222	0xbe3aafe8	-0.18231165
223	0xbe6d1eae	-0.23156235
224	0x3e17797e	0.1479244
225	0x3cd63396	0.026147645
226	0xbc173c5f	-0.009230702
227	0xbd953fa1	-0.07287527
228	0xbec3d4e8	-0.38248372
229	0x3d0189b4	0.031625465
230	0xbd525e97	-0.05135974
231	0x3ccb89c9	0.024845975
232	0x3d96616f	0.07342803
233	0x3b0ec2e0	0.0021783635
234	0xbef0f581	-0.47062305
235	0xbc56a8ed	-0.0131017985
236	0xbd111afc	-0.035426125
237	0xbdc9c8e4	-0.0985277
238	0x3ca26cdd	0.0198273
239	0xbe34de59	-0.17662944
240	0xbbaaef4a	-0.0052165138
241	0xbcb11beb	-0.021619758
242	0xbe3c109c	-0.18365711
243	0x3dde6970	0.10859954
244	0x3d608209	0.05481151
245	0x3d71b22d	0.059007812
246	0x3d942a26	0.07234602
247	0xbe135e9f	-0.14391564
248	0x3b840ea3	0.004030065
249	0x3d982ec7	0.07430797
250	0xbe6c223c	-0.23059934
251	0xbd2509d1	-0.040292565
252	0x3cb483d9	0.022035526
253	0x3cc7c56e	0.024386134
254	0x3e460a42	0.1933985
255	0xbba19807	-0.004931453

conv3.bias f4 [128]
0	0xb76946ed	-1.3904396e-05
1	0x36c40542	5.8418673e-06
2	0xb748df8c	-1.19729775e-05
3	0x3770a18b	1.4342727e-05
4	0x36024c63	1.9415972e-06
5	0x37cf47e7	2.4709805e-05
6	0x3875ab0e	5.857186e-05
7	0x362604fb	2.4738827e-06
8	0xb77a5d1a	-1.4922838e-05
9	0x378ead62	1.7008457e-05
10	0xb7cc1a2b	-2.433088e-05
11	0xb7aee09b	-2.0847006e-05
12	0x37b3a21b	2.1413949e-05
13	0x36523e2e	3.1328632e-06
14	0xb85df415	-5.2917825e-05
15	0x36bdab6a	5.652594e-06
16	0x38282603	4.0089722e-05
17	0xb782abbd	-1.557718e-05
18	0xb7bed21c	-2.2747605e-05
19	0xb7c27c56	-2.31845e-05
20	0x373dbe9d	1.13096585e-05
21	0xb51f229d	-5.9282485e-07
22	0xb7a33eb5	-1.9460314e-05
23	0xb4ce85f8	-3.8467965e-07
24	0xb85cf742	-5.2682364e-05
25	0xb7d47665	-2.5327501e-05
26	0xb834a988	-4.3073233e-05
27	0x3713b55c	8.804109e-06
28	0xb7529862	-1.2552455e-05
29	0xb5e03d92	-1.670722e-06
30	0xb69c879d	-4.6649498e-06
31	0x369b2cda	4.6245814e-06
32	0xb7bb8cef	-2.2357764e-05
33	0xb84fbead	-4.9530227e-05
34	0xb7ca0e4b	-2.4086932e-05
35	0xb7d3709d	-2.52056e-05
36	0xb8295f0d	-4.0381263e-05
37	0x372dbf72	1.0356178e-05
38	0xb692ed57	-4.378769e-06
39	0xb7afb703	-2.0946847e-05
40	0xb6265919	-2.478779e-06
41	0xb79169fc	-1.73347e-05
42	0xb6d7e810	-6.434515e-06
43	0x36db7923	6.540811e-06
44	0xb77a2b53	-1.4911248e-05
45	0xb7019601	-7.723925e-06
46	0xb78741b8	-1.6123857e-05
47	0x36cbe86d	6.0769294e-06
48	0x374c3952	1.21726935e-05
49	0xb86deeff	-5.6727786e-05
50	0xb6d35514	-6.2981944e-06
51	0x3695a26a	4.4594535e-06
52	0xb7ce48d6	-2.459103e-05
53	0x3793124d	1.7532288e-05
54	0xb7a7efc1	-2.0019595e-05
55	0xb775e4e6	-1.46564325e-05
56	0xb806d5f0	-3.2147334e-05
57	0x37ec32b5	2.8157005e-05
58	0x37b52987	2.1596219e-05
59	0xb70456ee	-7.888053e-06
60	0x390b347f	0.0001327563
61	0xb707e00f	-8.098795e-06
62	0x37579d65	1.2851645e-05
63	0x36f5e999	7.3287633e-06
64	0xb7baf8c8	-2.2288776e-05
65	0x36244742	2.4479382e-06
66	0x381ca339	3.734531e-05
67	0xb60735df	-2.0147925e-06
68	0x381fffc1	3.8146743e-05
69	0x385b9598	5.235299e-05
70	0xb64c3e07	-3.0434474e-06
71	0xb769a93c	-1.3927285e-05
72	0x3808353e	3.2474512e-05
73	0xb7a3a97b	-1.9510035e-05
74	0xb799f1fe	-1.8351708e-05
75	0x37523bd8	1.2530909e-05
76	0xb82be440	-4.098215e-05
77	0x3785e500	1.5961472e-05
78	0x34b97441	3.454352e-07
79	0xb6935726	-4.391087e-06
80	0xb7d104c6	-2.4916964e-05
81	0x36c86c9d	5.9731087e-06
82	0x37831e3f	1.5630501e-05
83	0xb7e4a269	-2.7255346e-05
84	0x3617f975	2.2645957e-06
85	0x378ebcbf	1.701561e-05
86	0xb7381b60	-1.0973628e-05
87	0x380746ba	3.2252377e-05
88	0x379a9710	1.8428575e-05
89	0xb6b47a35	-5.378645e-06
90	0xb6c74cc1	-5.9395975e-06
91	0x37c0792f	2.2944614e-05
92	0xb6d58fc9	-6.3646335e-06
93	0x37d43e25	2.5301308e-05
94	0xb6472da2	-2.9679873e-06
95	0x3792c6d9	1.7497152e-05
96	0xb7ac5e42	-2.054789e-05
97	0x37ab43f3	2.041643e-05
98	0xb71fa818	-9.516276e-06
99	0xb8ab4921	-8.167537e-05
100	0x37d55ff9	2.543627e-05
101	0xb680cd77	-3.8386165e-06
102	0xb6a5ebdb	-4.9448404e-06
103	0x3711d78d	8.69286e-06
104	0xb69cf19c	-4.6772893e-06
105	0xb7e197d0	-2.6892783e-05
106	0x3746a12b	1.18392445e-05
107	0x363200a9	2.6524451e-06
108	0xb69e98e4	-4.7265657e-06
109	0x36ab39d8	5.102931e-06
110	0x36be3303	5.66838e-06
111	0xb7e2d257	-2.7039247e-05
112	0xb5f83a6e	-1.8494445e-06
113	0x367c3727	3.758303e-06
114	0xb7e75596	-2.75772e-05
115	0x380969fb	3.2762047e-05
116	0x37060c22	7.989847e-06
117	0xb817a58c	-3.6155383e-05
118	0x37b2a924	2.1298016e-05
119	0xb779cca8	-1.4889207e-05
120	0xb5ebe31b	-1.7574961e-06
121	0xb790680c	-1.7214588e-05
122	0xb79d1a42	-1.8728086e-05
123	0x37f87168	2.9616713e-05
124	0xb6d2bdb0	-6.2805702e-06
125	0x38971fe9	7.206185e-05
126	0xb70fe130	-8.575895e-06
127	0x370c8db0	8.3776395e-06

conv3.lin.weight f4 [128, 64]
0	0x3f0d673b	0.5523564
1	0xbdcb993b	-0.09941336
2	0xbdc3d370	-0.09561813
3	0xbd6c83a9	-0.05774275
4	0x3c787fad	0.015167159
5	0x3cd6ddf0	0.026228875
6	0xbe5fd00f	-0.21856712
7	0xbd111fed	-0.035430837
8	0x3d34ac20	0.044109464
9	0x3cf65dd3	0.030074036
10	0x3e50bc98	0.20384443
11	0x3d697a18	0.057001203
12	0x3d5e0bd4	0.0542105
13	0x3c9e813e	0.019348737
14	0x3e88b16e	0.26697868
15	0x3e27b418	0.16377294
16	0x3dd4c478	0.10389036
17	0x3db07460	0.08615947
18	0x3db8bfef	0.090209834
19	0xbbf5f0ea	-0.007505526
20	0x3ebe30a2	0.3714648
21	0x3cd03a27	0.025418354
22	0xbc37236d	-0.01117788
23	0x3da5be83	0.08092978
24	0xbdf10ce8	-0.1177004
25	0xbe370a07	-0.17874919
26	0xbd8b22f6	-0.06793778
27	0x3ca2b871	0.01986334
28	0x3d4241ad	0.047425915
29	0x3e117db2	0.14208105
30	0x3c823730	0.015895456
31	0xbca999b1	-0.020703169
32	0xbe2443a7	-0.16041432
33	0xbdb9268b	-0.090405546
34	0xbdc4aedb	-0.096036635
35	0xbcc2791b	-0.023739388
36	0x3e1a6aec	0.1507985
37	0x3c33776a	0.0109537635
38	0x3df69778	0.12040609
39	0x3d69fd98	0.05712661
40	0x3b23a55a	0.0024970383
41	0x3d50b304	0.050951973
42	0xbc80d6e3	-0.015727466
43	0x3d942915	0.07234398
44	0x3e1b58bc	0.15170568
45	0x3e338a4c	0.17533225
46	0xbe22d3e1	-0.15901138
47	0x3eb0a1d7	0.34498474
48	0x3f08013e	0.53126895
49	0xbe0accff	-0.13554762
50	0x3c92c525	0.017916271
51	0x3cc65795	0.024211684
52	0xbd9daf8e	-0.076995
53	0x3dbbde9c	0.09173319
54	0x3de3b9c5	0.11119417
55	0x3cbbb924	0.02291543
56	0xbd16dd04	-0.03683187
57	0xbdcf902e	-0.10134922
58	0x3e0ec2a8	0.13941443
59	0xbe0b6e82	-0.13616374
60	0xbd10a6fd	-0.035315502
61	0xbe043a81	-0.12912942
62	0x3d827c38	0.06371349
63	0xbe1f785e	-0.1557326
64	0x3e9b0c31	0.3028274
65	0x3e5e07fd	0.21682735
66	0x3e60a7a6	0.21938953
67	0xbd0ac91e	-0.033883207
68	0x3da6f2f8	0.08151811
69	0x3e4de1cf	0.2010567
70	0x3b88949a	0.0041681053
71	0x3df5fe69	0.120114155
72	0xbdaac976	-0.08339207
73	0xbb9c0664	-0.004761504
74	0xbd10adc8	-0.03532198
75	0x3e025317	0.12727009
76	0x3df06256	0.11737506
77	0x3e1b8806	0.15188608
78	0x3da05a2d	0.078297
79	0x3e32ef6d	0.17474146
80	0xbcd3929c	-0.025826745
81	0x3d631443	0.055439245
82	0xbc75f5e6	-0.01501224
83	0xbe3aacc8	-0.18229973
84	0x3e3d9f37	0.18517767
85	0x3d573379	0.052539323
86	0x3df1127f	0.11771106
87	0x3e3201a4	0.17383438
88	0x3e6e5873	0.23275928
89	0x3e444cc7	0.19169913
90	0xbd908790	-0.070571065
91	0xbcd0bcde	-0.025480684
92	0x3ead8132	0.3388763
93	0x3d657206	0.056016944
94	0xbc846c24	-0.016164847
95	0x3e70f1fb	0.23529808
96	0xba8a1dc4	-0.0010537435
97	0x3ec03304	0.37538922
98	0x3db3ba35	0.087757505
99	0xbdc60604	-0.09669116
100	0x3d5ab04e	0.053390794
101	0x3e55532a	0.20832506
102	0x3e80e18a	0.25172073
103	0x3c52877d	0.012849686
104	0x3da3cdec	0.07998261
105	0xbd7790de	-0.06044089
106	0x3d7bd82e	0.061485462
107	0x3d3d4a11	0.046213213
108	0x3b99a2ff	0.00468862
109	0x3ddc051d	0.10743163
110	0x3e5ad0d5	0.21368726
111	0x3deead5c	0.116541594
112	0x3e30796d	0.1723382
113	0x3d81a990	0.063311696
114	0x3dda69d2	0.10664715
115	0x3adb4c2c	0.0016731075
116	0x3eb775df	0.35832116
117	0x3e4c1809	0.19931044
118	0x3ca9e047	0.020736827
119	0xbd48194b	-0.048852246
120	0xbe390a99	-0.18070449
121	0x3dda7f35	0.10668794
122	0x3dfd2584	0.12360671
123	0x3e093c72	0.13401964
124	0xbc305151	-0.010761575
125	0xbd5d3776	-0.05400797
126	0x3e151ba6	0.14561328
127	0x3edf83a0	0.4365511
128	0x3d7059f1	0.058679525
129	0x3e548ba2	0.2075639
130	0x3e02c91e	0.12772033
131	0xbcfc9d1c	-0.030836634
132	0xbe709d15	-0.23497422
133	0xbda3c190	-0.079959035
134	0x3d7c0986	0.06153252
135	0xbe74374a	-0.23849216
136	0xbb56e7d4	-0.003279199
137	0x3e002413	0.12513761
138	0xbe1741ea	-0.14771238
139	0x3e0edf65	0.13952406
140	0xbd2fe79c	-0.04294549
141	0x3dae2deb	0.08504852
142	0x3d67da81	0.056604866
143	0x3c217f12	0.009856956
144	0xbde04e77	-0.10952466
145	0x3e1f3d2e	0.15550682
146	0xbe0a3237	-0.13495718
147	0xbd9238a3	-0.07139709
148	0xbdf766c8	-0.12080151
149	0xbd88dfcc	-0.06683311
150	0x3d688579	0.056767914
151	0xbdca1d72	-0.098688975
152	0x3bead809	0.0071668667
153	0x3c8f639b	0.01750355
154	0x3e134eab	0.14385478
155	0xbe876b20	-0.26448917
156	0xbe042c07	-0.1290742
157	0x3dc44d0c	0.09585008
158	0xbe42b62c	-0.19014806
159	0x3db0eb1b	0.08638593
160	0x3ca9312d	0.020653332
161	0xbd0bc364	-0.034121886
162	0x3cdbde9d	0.026839549
163	0xbd72637e	-0.059176914
164	0x3d10337c	0.03520535
165	0xbc398267	-0.011322594
166	0x3bbba66f	0.0057266275
167	0x3d59445e	0.053043716
168	0x3da9d41a	0.08292408
169	0xbe199e7f	-0.15001868
170	0x3e25b0dc	0.16180748
171	0x3e54680e	0.20742819
172	0x3df32b9f	0.118735544
173	0x3d992393	0.07477488
174	0xbdbb3db5	-0.09142629
175	0x3d69cec3	0.05708195
176	0xbd88f777	-0.06687825
177	0xbe366f07	-0.17815791
178	0x3d3509dd	0.04419886
179	0xbeda07b1	-0.42583993
180	0xbb9bd3fe	-0.004755496
181	0xbe3f986a	-0.18710485
182	0xbc77dd33	-0.015128422
183	0x3d9d1e00	0.07671738
184	0xbe36f45d	-0.17866655
185	0xbe835c6e	-0.25656456
186	0xbdd468b1	-0.10371531
187	0xb99f7aa5	-0.0003041822
188	0x3d76d4d0	0.060261548
189	0xbd91c52a	-0.07117684
190	0xbe750312	-0.23926952
191	0xbdbf0677	-0.09327405
192	0x3d02343a	0.03178809
193	0xbeaa80da	-0.3330143
194	0x3e1d357d	0.15352435
195	0xbe8c9475	-0.27457014
196	0xbe34691f	-0.17618226
197	0xbd9f92cc	-0.07791671
198	0x3e903709	0.28166988
199	0xbd974b65	-0.07387427
200	0x3e811ed6	0.25218838
201	0x3d685c80	0.05672884
202	0x3ce249fc	0.02762317
203	0xbe491d3f	-0.19640063
204	0x3e10f9b3	0.14157753
205	0x3a4467ca	0.00074922724
206	0xbed0e923	-0.4080287
207	0xbe45b96d	-0.19309016
208	0xbcb73329	-0.022363262
209	0x3cf28c72	0.029607985
210	0xbdf4def0	-0.119565845
211	0x3d816143	0.06317379
212	0x3ea206d0	0.31645823
213	0x3e81c04e	0.2534203
214	0xbe38cc4d	-0.18046685
215	0xbe97da58	-0.2965877
216	0x3dccd2ce	0.10001145
217	0x3dd1ddc6	0.10247378
218	0xbd5099ab	-0.0509278
219	0xbe6c4d4b	-0.2307636
220	0xbe5d2fc8	-0.21600258
221	0xbd0ab0c9	-0.03386
222	0xbe1d33d5	-0.15351804
223	0xbeb7704d	-0.35827866
224	0x3d5bb6ad	0.05364101
225	0xbdee87e0	-0.1164701
226	0x3d1faf8f	0.038985785
227	0x3de53a80	0.111927986
228	0x3dadaa3b	0.084797345
229	0xbe097687	-0.13424121
230	0xbdc095d4	-0.094035774
231	0xbe40c074	-0.18823415
232	0x3e167bf7	0.14695726
233	0xbe3ffa6d	-0.18747874
234	0x3d009110	0.031388342
235	0x3e6e0766	0.2324501
236	0x3cbdd982	0.023175005
237	0x3dcbbcde	0.09948133
238	0x3c9d1904	0.019176967
239	0x3dad7933	0.084703825
240	0xbe180002	-0.14843753
241	0xbd45f593	-0.0483299
242	0xbce68a33	-0.02814207
243	0xbe92e84d	-0.28692856
244	0x3dd3b40b	0.10337075
245	0xbea42e49	-0.32066563
246	0xbe157003	-0.1459351
247	0x3cd2cbef	0.025732009
248	0x3db46c88	0.08809763
249	0xbdc9ca6a	-0.098530605
250	0xbeb5a28d	-0.3547558
251	0x3ec044ad	0.37552395
252	0x3d9bd5e7	0.07609158
253	0xbe1df7b4	-0.15426522
254	0xbe76abf6	-0.24089035
255	0xbdb00a40	-0.08595705

conv4.bias f4 [256]
0	0x3b9f34d9	0.004858595
1	0xbfa213d6	-1.2662303
2	0xbf93a1ff	-1.1533812
3	0xbf0c032e	-0.5469235
4	0xbea26e13	-0.31724605
5	0xbce3888a	-0.027775068
6	0x3cb91776	0.022594195
7	0x3dc7a4bd	0.09748218
8	0xbd6318b7	-0.05544349
9	0xbedc4bfe	-0.43026727
10	0xbecab583	-0.39591607
11	0x3d7d247e	0.06180238
12	0xbe001225	-0.12506922
13	0xbe68e0a0	-0.22741938
14	0xbf1a9c56	-0.603948
15	0xbe77e738	-0.24209297
16	0xbe4da2c0	-0.20081615
17	0xbe34ba36	-0.17649159
18	0x3d98e846	0.07466178
19	0xbdb63e7e	-0.08898638
20	0xbed8732f	-0.42275378
21	0xbd168b8c	-0.036754176
22	0xbced936c	-0.02900096
23	0xbd5c82e5	-0.05383577
24	0xbe4606c1	-0.19338514
25	0xbf897e8d	-1.0741745
26	0x3cd272d1	0.025689514
27	0xbca21b45	-0.019788394
28	0xbf0b2644	-0.54355264
29	0xbdc4a4fd	-0.096017815
30	0xbea1772a	-0.31536227
31	0xbdb24698	-0.08704871
32	0xbd5732e7	-0.05253878
33	0xbd804df4	-0.062648684
34	0xbf0edace	-0.5580262
35	0xbf46b6b5	-0.7762254
36	0xbeb645d4	-0.3560015
37	0xbdca3ee0	-0.09875274
38	0xbdd06f6d	-0.10177503
39	0xbec38d19	-0.38193586
40	0xbd325fdf	-0.04354846
41	0xbe22131a	-0.15827599
42	0xbdac6828	-0.08418304
43	0xbdc26e4f	-0.09493696
44	0xbde74331	-0.112921126
45	0x3d9b492f	0.07582318
46	0xbdbd7573	-0.09250917
47	0xbe7df074	-0.24798757
48	0xbd9ed59a	-0.07755585
49	0xbd126b04	-0.03574659
50	0xbf082ee7	-0.5319657
51	0xbe965a40	-0.2936573
52	0xbd22bd03	-0.039731037
53	0x3d80ae07	0.06283193
54	0xbe173c45	-0.14769085
55	0xbe64b3d1	-0.2233422
56	0xbf314dca	-0.6925932
57	0xbdc4d87b	-0.09611603
58	0xbe8c0491	-0.27347234
59	0xbde1f065	-0.1103218
60	0xbe8d26b3	-0.27568588
61	0xbde5dbf3	-0.112235926
62	0xbd87fefb	-0.066404305
63	0xbd5efa13	-0.054437708
64	0xbf822faf	-1.0170802
65	0xbe13c741	-0.14431478
66	0xbf51fe52	-0.82028687
67	0xbf02465c	-0.5088861
68	0xbe0251ef	-0.12726568
69	0x3c3299e7	0.010900951
70	0xbe5b741d	-0.21431012
71	0xbde0da41	-0.10979129
72	0xbf074056	-0.52832544
73	0xbed399af	-0.4132819
74	0xbe97798c	-0.2958492
75	0xbd84943c	-0.06473586
76	0xbdf6bb25	-0.12047414
77	0xbdb66bf9	-0.08907313
78	0xbddd10af	-0.10794198
79	0xbe7cb6a8	-0.24679053
80	0xbced0a01	-0.028935434
81	0x3da77420	0.08176446
82	0xbe104537	-0.14088903
83	0xbf2a2523	-0.66462916
84	0xbf0e6eee	-0.55638015
85	0xbdf3b4b4	-0.11899701
86	0x3d14bc55	0.03631242
87	0xbee9b85c	-0.45648468
88	0x3dcc4f67	0.09976082
89	0xbd9d1f62	-0.076720014
90	0xbd34e01d	-0.044159044
91	0xbe42f39a	-0.19038239
92	0xbe981b41	-0.29708293
93	0x3d4c9b48	0.049952775
94	0xbdaf6ecb	-0.08566054
95	0xbe8e1d65	-0.277568
96	0xbee3a049	-0.44458225
97	0x3d491bf6	0.04909893
98	0xbf73a507	-0.95173687
99	0xbe05c823	-0.13064627
100	0xbeed4063	-0.46338186
101	0xbe52e918	-0.2059673
102	0xbcf85a70	-0.030316561
103	0xbd84c4f9	-0.06482882
104	0xbaa77ef7	-0.0012778927
105	0xbe5f1e31	-0.21788861
106	0xbd94ccf2	-0.07265653
107	0xbedf3f78	-0.4360311
108	0xbe056d43	-0.13029961
109	0x3f22e507	0.6363072
110	0xbd68d7bc	-0.056846365
111	0xbde0fed2	-0.10986103
112	0xbdcdc785	-0.10047821
113	0xbf6aff03	-0.91795367
114	0xbf5c3ac6	-0.8602718
115	0xbe8f2b3b	-0.2796267
116	0xbda877d9	-0.08225984
117	0xbf4af718	-0.79283285
118	0xbe9dc2a1	-0.30812553
119	0xbd1cc099	-0.038269613
120	0xbeec9776	-0.46209306
121	0xbdd57aa2	-0.10423781
122	0xbd2548ed	-0.04035275
123	0xbdc0545e	-0.09391092
124	0xbf57bfba	-0.84276927
125	0xbd63df31	-0.055632774
126	0x3dfdcd47	0.12392669
127	0xbe56df74	-0.20983678
128	0xbeb46687	-0.35234472
129	0xbd2450bb	-0.040116053
130	0xbdda7290	-0.10666382
131	0xbee83c5d	-0.45358554
132	0xbf0649af	-0.5245618
133	0xbf51d199	-0.81960446
134	0xbde48769	-0.1115864
135	0xbf549ecc	-0.83054805
136	0xbebe84de	-0.37210745
137	0xbcd02acc	-0.025411032
138	0x3dac3d0c	0.08410081
139	0x3dbc1229	0.09183151
140	0xbd492743	-0.04910971
141	0xbbe76644	-0.0070617516
142	0xbf077f81	-0.5292893
143	0xbed7471e	-0.42046446
144	0xbe8c084a	-0.27350074
145	0xbcf92003	-0.030410772
146	0xbe718ac7	-0.23588096
147	0xbd9763a4	-0.07392052
148	0x3c7c8d64	0.0154145695
149	0x3dd9e2f9	0.10638995
150	0xbcb84c42	-0.0224973
151	0xbeed3f99	-0.46337584
152	0xbecad6b1	-0.39616922
153	0xbe010b1a	-0.12601891
154	0xbddc1c28	-0.10747558
155	0xbe35c142	-0.17749503
156	0xbf1fe48a	-0.624581
157	0xbe25ba88	-0.16184437
158	0xbddfd1c4	-0.109286815
159	0xbeeebc54	-0.46628058
160	0xbdffe537	-0.12494891
161	0xbd3d5ebe	-0.04623293
162	0xbde14e91	-0.110013135
163	0x3e5f8058	0.21826303
164	0xbe405141	-0.18780996
165	0xbebd8ce7	-0.37021562
166	0x3d1c7ced	0.038205076
167	0xbe91e5e5	-0.28495708
168	0xbe2047f0	-0.15652442
169	0xbe148c59	-0.14506663
170	0xbdf92fd0	-0.12167323
171	0x3dfd47de	0.12367223
172	0xbe1cb853	-0.15304689
173	0xbced640e	-0.028978374
174	0xbd96f6ca	-0.0737129
175	0xbe545518	-0.20735586
176	0xbe7dac3d	-0.24772735
177	0xbe8d4d2d	-0.27597943
178	0xbe0ab205	-0.13544472
179	0xbda29888	-0.07939249
180	0xbddf5e26	-0.10906629
181	0xbf513148	-0.8171582
182	0xbde7a5e8	-0.11310941
183	0xbba7c179	-0.0051194993
184	0xbd28e018	-0.041229337
185	0xbe1c617e	-0.15271565
186	0xbd2e0094	-0.04248102
187	0xbda6d23a	-0.08145566
188	0xbeffcbb7	-0.4996011
189	0xbdc5b458	-0.096535385
190	0xbe020f13	-0.12701063
191	0xbe321322	-0.17390111
192	0xbdd0dab5	-0.10197965
193	0x3d1a9952	0.037743874
194	0x3ce1825e	0.027527984
195	0x3e9e22b3	0.30885848
196	0xbf3db4f2	-0.74104226
197	0xbce726a2	-0.028216664
198	0x3d141eb6	0.0361621
199	0xbe6711e3	-0.22565417
200	0xbd1fcb60	-0.039012313
201	0xbd5f2258	-0.054476112
202	0x3da60239	0.08105893
203	0xbcf001b8	-0.029297695
204	0xbd932388	-0.071845114
205	0xbc76f11d	-0.015072134
206	0xbdd9fd1d	-0.10643981
207	0x3e41698f	0.18887924
208	0xbf266709	-0.6500097
209	0xbd7c3433	-0.06157322
210	0xbd1675b8	-0.03673336
211	0xbcfab6f8	-0.030604824
212	0xbe87d96c	-0.26533067
213	0xbe8598ce	-0.26093143
214	0xbef8c74b	-0.48589548
215	0x3c1f2dd3	0.009715515
216	0xbf55b95b	-0.83485955
217	0xbcdad2a2	-0.026711766
218	0x3e85308d	0.26013604
219	0xbda33567	-0.0796917
220	0xbe8b4189	-0.27198437
221	0xbf51e0b4	-0.81983495
222	0x3d8f46bb	0.06995913
223	0xbf0d8a4c	-0.5528915
224	0x3c9e3b93	0.019315517
225	0xbe196322	-0.14979222
226	0x3e4c1600	0.19930267
227	0x3c22d228	0.0099378005
228	0x3ded5280	0.11588001
229	0xbf12d931	-0.5736266
230	0xbdbd306f	-0.092377536
231	0xbd97bf08	-0.07409483
232	0xbd900410	-0.07032025
233	0xbe43a3cf	-0.19105457
234	0xbcd6baad	-0.02621206
235	0xbd9cf0af	-0.07663094
236	0xbdcb5869	-0.09928972
237	0xbdc84579	-0.09778876
238	0x3c8b7527	0.017023636
239	0xbe921158	-0.28528857
240	0xbdc42a7b	-0.09578415
241	0xbef47740	-0.4774723
242	0xbecf282f	-0.40460345
243	0xbc9ef246	-0.019402634
244	0xbeb51320	-0.35366154
245	0xbd229693	-0.03969438
246	0xbcfea499	-0.031084346
247	0xbe6b3698	-0.22970045
248	0xbec797f0	-0.38983107
249	0xbe79ce8a	-0.24395195
250	0x3b1302a6	0.0022431999
251	0xbe05fbee	-0.13084385
252	0xbcc2152b	-0.023691734
253	0xbe990135	-0.29883733
254	0xbf4699ad	-0.7757824
255	0xbd2b4aec	-0.041819498

conv4.lin.weight f4 [256, 128]
0	0xbcc6c183	-0.024262195
1	0xbe43d2d3	-0.19123392
2	0xbb85f88f	-0.0040884684
3	0xbd563f3a	-0.05230639
4	0xbdb2c024	-0.08728054
5	0xbd423520	-0.047413945
6	0xbd7d5fa8	-0.061858803
7	0xbdfd683e	-0.12373398
8	0xbeb9d93a	-0.36298543
9	0xbe8bf35f	-0.27334115
10	0xbd9ac5ab	-0.075572334
11	0xbdd89d64	-0.10576895
12	0x3d522de4	0.051313296
13	0xbd811bb1	-0.0630411
14	0x3d67dd70	0.056607664
15	0xbe111027	-0.14166318
16	0xbc458c12	-0.012057321
17	0x3e0a0643	0.13478951
18	0xbc9b0703	-0.018924242
19	0xbe482b5a	-0.19547787
20	0xbccce351	-0.025010737
21	0xbe1b4ebf	-0.15166758
22	0xbe05449e	-0.13014457
23	0xbec8f89c	-0.39252174
24	0x3d286d8b	0.041120093
25	0xbd6025c8	-0.05472353
26	0xbe236a17	-0.15958439
27	0xbe10a1ad	-0.14124174
28	0xbdfa9c28	-0.12236816
29	0xbe170cfc	-0.14751047
30	0xbe55ad35	-0.20866854
31	0xbd9adc2e	-0.07561527
32	0x3d52f616	0.051504217
33	0xbdce73ab	-0.10080656
34	0xbe9ef91a	-0.31049424
35	0x3c41c709	0.011827239
36	0xbdef2890	-0.116776586
37	0xbe742f45	-0.23846157
38	0xbd9c5fb8	-0.076354444
39	0xbdef1199	-0.11673278
40	0x3d8b0dd5	0.067897476
41	0xbe4d4a18	-0.20047796
42	0xbd557d80	-0.05212164
43	0xbe9bf69b	-0.30461583
44	0x3dfeb379	0.124365754
45	0xbe013835	-0.12619098
46	0xbdfebee2	-0.12438752
47	0xbe128862	-0.14309838
48	0xbd89e957	-0.06733959
49	0xbdf32bfd	-0.118736245
50	0xbe22fb79	-0.15916242
51	0xbe2fd364	-0.17170483
52	0xbde1a54c	-0.11017856
53	0xbe678293	-0.22608404
54	0xbe7b883d	-0.2456369
55	0xbd9f818d	-0.07788382
56	0xbd429039	-0.047500823
57	0xbddb111b	-0.10696622
58	0xbe50ab65	-0.20377882
59	0xbacb138e	-0.0015493499
60	0xbf31edf2	-0.695037
61	0xbc82da59	-0.015973257
62	0xbe8d569d	-0.27605143
63	0xbda2067f	-0.07911395
64	0xbc4cd8cc	-0.01250286
65	0xbd7c5006	-0.061599754
66	0x3d0327bc	0.032020316
67	0x3e144143	0.1447802
68	0xbe4a0cc2	-0.19731429
69	0xbdb04f88	-0.086089194
70	0xbe00fb2c	-0.12595814
71	0x3dc0a1f2	0.094058886
72	0xbde8821f	-0.11352944
73	0x3b8eb8bf	0.0043555195
74	0xbe508e17	-0.20366703
75	0xbe923d07	-0.28562185
76	0xbdee1964	-0.116259366
77	0x3dccb020	0.09994531
78	0xbe89aec4	-0.26891148
79	0xbcc6f386	-0.024286043
80	0x3d931d5c	0.07183334
81	0xbca65073	-0.020302033
82	0xbdafbc50	-0.0858084
83	0xbd7b7bb8	-0.061397284
84	0xbdf8acb6	-0.12142317
85	0xbd86274f	-0.06550466
86	0x3d15205e	0.03640782
87	0xbc63f592	-0.013913529
88	0x3d49801d	0.049194444
89	0xbe07c5c3	-0.13259034
90	0xbda6e94f	-0.08149969
91	0xbe0a51a8	-0.13507712
92	0x3cdb4534	0.026766397
93	0xbd2cf709	-0.04222778
94	0xbe73f5fd	-0.23824306
95	0x3c913a1b	0.017727902
96	0xbd35f874	-0.044426396
97	0xbe17ee64	-0.14837033
98	0xbe94f8c6	-0.2909605
99	0x3d9c192c	0.07621989
100	0xbe5049a7	-0.20340596
101	0x3d0b60eb	0.034027975
102	0xbe12da77	-0.1434115
103	0xbe1b0f7b	-0.15142624
104	0xbdfd7fad	-0.12377868
105	0xbe55daf7	-0.2088431
106	0xbd5184da	-0.051152088
107	0x3e1f0a41	0.15531255
108	0xbe786051	-0.24255492
109	0xbd63c6c1	-0.05560947
110	0xbce4b240	-0.027917027
111	0xbdb0206c	-0.08599934
112	0xbe7a9ebb	-0.24474613
113	0xbdcc33bf	-0.09970807
114	0xbe78604c	-0.24255484
115	0xbe8bd0d3	-0.27307758
116	0x3daa61b1	0.083194144
117	0xbe89a389	-0.2688258
118	0x3c19c1b0	0.009384558
119	0xbc136387	-0.008995897
120	0xbe87327d	-0.26405707
121	0xbe496026	-0.19665584
122	0x3c9faf74	0.019492842
123	0x3dceaba4	0.100913316
124	0xbda3cd53	-0.07998147
125	0xbe32fb90	-0.17478776
126	0xbe4e0862	-0.20120385
127	0xbd4eee74	-0.050520375
128	0x3df1fd4a	0.11815889
129	0xbbbd64aa	-0.0057798224
130	0xbde29ab5	-0.11064664
131	0x3d0e734f	0.034777936
132	0xbcc40ec5	-0.023932824
133	0xbde51b05	-0.11186794
134	0xbe7bf94d	-0.2460682
135	0xbe080e0f	-0.13286613
136	0xbec92fa0	-0.39294147
137	0xbeffdf84	-0.49975216
138	0xbe9ab464	-0.30215752
139	0xbea233f5	-0.31680265
140	0x3ec05311	0.37563375
141	0xbe8845d2	-0.2661577
142	0xbd11aa95	-0.03556307
143	0xbe85b97e	-0.26118082
144	0x3d3eecef	0.046612676
145	0x3d69450c	0.056950614
146	0xbd831450	-0.06400359
147	0x3d38c474	0.045109227
148	0xbdf18629	-0.11793167
149	0xbdbf7c80	-0.09349918
150	0xbe99ed35	-0.30063787
151	0x3e70b05f	0.2350478
152	0x3ca74d63	0.020422643
153	0xbf1f3cf6	-0.62202394
154	0xbe8d625b	-0.27614102
155	0xbe3046b4	-0.17214471
156	0xbe31c915	-0.17361863
157	0xbe80b3b7	-0.25137112
158	0xbbf4012d	-0.007446429
159	0xbccb890d	-0.024845624
160	0x3dc86c2d	0.09786258
161	0x3d7d6c8c	0.061871096
162	0x3d56f434	0.052478984
163	0xbeca2d9a	-0.39487916
164	0xbda1dbd7	-0.07903259
165	0xbdb46d17	-0.0880987
166	0xbe31a8a0	-0.17349482
167	0xbe7e4b09	-0.24833311
168	0xbe997516	-0.29972142
169	0xbe7d456f	-0.24733518
170	0x3e0aa533	0.13539581
171	0x3e59493c	0.21219343
172	0xbeb01700	-0.34392548
173	0x3dbb4c19	0.09145374
174	0xbe8a39d8	-0.26997256
175	0xbc9700c0	-0.018432975
176	0xbd2abc5a	-0.041683532
177	0x3ec5e12e	0.3864836
178	0xbe9379a2	-0.28803736
179	0xbe31a428	-0.17347777
180	0xbf00f4d9	-0.5037361
181	0xbe065a3b	-0.13120358
182	0xbe317d22	-0.1733289
183	0xbeca3f23	-0.39501294
184	0xbe263780	-0.16232109
185	0x3e3eee84	0.18645674
186	0x3d5b289c	0.053505525
187	0xbe23f79b	-0.16012423
188	0xbea511a4	-0.3224002
189	0x3e5c49ca	0.21512523
190	0xbed85601	-0.42253116
191	0xbe2a7d5b	-0.16649382
192	0xbc95b590	-0.018275052
193	0x3cfef4e5	0.031122634
194	0x3e3e00cb	0.1855499
195	0xbcc4052b	-0.023928246
196	0x3c2e5a7f	0.010641693
197	0xbea56013	-0.3229986
198	0xbab91871	-0.0014121664
199	0xbc29201e	-0.010322599
200	0xbd9250e4	-0.07144335
201	0x3c56d3d4	0.013112027
202	0xbda6a1ac	-0.08136305
203	0xbdedbbf3	-0.11608114
204	0xbe8d5f52	-0.27611786
205	0xbd65f3b0	-0.0561406
206	0xbce131a1	-0.027489485
207	0xbda64c09	-0.08119971
208	0xbe3be036	-0.18347248
209	0xbe58a2ef	-0.21155904
210	0xbd849f4c	-0.06475696
211	0x3e244643	0.16042428
212	0x3d5587f8	0.052131623
213	0xbde1f711	-0.11033452
214	0x3d0af7dd	0.033927787
215	0x3dacca15	0.084369816
216	0xbbef50f1	-0.00730335
217	0xbe33e1fe	-0.17566678
218	0x3d4e8e7a	0.050428845
219	0xbf13c969	-0.577292
220	0xbdf65131	-0.12027205
221	0xbe88178e	-0.2658047
222	0xbe1583bf	-0.14601038
223	0xbe885d5a	-0.26633722
224	0x3dd7f706	0.10545163
225	0xbefff89b	-0.49994358
226	0xbe6aa1fe	-0.22913358
227	0x3d15141f	0.036396142
228	0xbdaa8c40	-0.08327532
229	0xbe1aa490	-0.15101838
230	0xbd9148cb	-0.07093962
231	0xbd1f52cf	-0.03889733
232	0xbd7f7840	-0.06237054
233	0xbeb33906	-0.35004443
234	0x3e86b546	0.26310176
235	0xbcf5d45a	-0.030008484
236	0xbe87ca62	-0.26521593
237	0xbd94412d	-0.07238994
238	0xbda29b35	-0.0793976
239	0x3de97c37	0.11400645
240	0xbe87e71d	-0.26543513
241	0x3d8c08b2	0.06837596
242	0x3c6b9159	0.014377915
243	0xbaccfdfa	-0.0015639656
244	0x3e0d4bcb	0.13798444
245	0xbe10e5fa	-0.14150229
246	0x3dd10faa	0.10208066
247	0xbd9a6539	-0.07538838
248	0xbe994e6a	-0.29942638
249	0x394cda62	0.0001953631
250	0xbd0698b2	-0.032860465
251	0x3db5fca2	0.088860765
252	0xbcab68ce	-0.020923998
253	0xbce4105b	-0.02783983
254	0x3e1fef19	0.15618552
255	0xbe968476	-0.29397935

conv5.bias f4 [256]
0	0xb67dcdab	-3.7819652e-06
1	0xb8846979	-6.313896e-05
2	0x368b7dcd	4.157168e-06
3	0xb73c6e51	-1.1231358e-05
4	0xb738e256	-1.1019953e-05
5	0xb769cc8c	-1.3935507e-05
6	0x3704c6a1	7.91406e-06
7	0xb82c4068	-4.106798e-05
8	0xb758131e	-1.2879054e-05
9	0x36e1028d	6.7058195e-06
10	0xb7bea8b3	-2.2728322e-05
11	0x37852c26	1.5875394e-05
12	0xb8484257	-4.77455e-05
13	0x371430d5	8.832857e-06
14	0x3663b30a	3.392985e-06
15	0x369c70e6	4.6623054e-06
16	0x37cffc2d	2.4793751e-05
17	0xb6705740	-3.5813573e-06
18	0xb7b1faa7	-2.1216763e-05
19	0xb7862be7	-1.5994488e-05
20	0xb7628c02	-1.3503248e-05
21	0xb8e1a1e9	-0.00010758994
22	0xb50b6463	-5.1927617e-07
23	0xb8c0820b	-9.179496e-05
24	0x3883f029	6.2913e-05
25	0x35cbe578	1.5191463e-06
26	0xb812da73	-3.501256e-05
27	0xb7a2ced9	-1.9408226e-05
28	0xb78100af	-1.5378317e-05
29	0x341a2418	1.4355498e-07
30	0xb79c95ab	-1.8666344e-05
31	0xb6380aa1	-2.7424323e-06
32	0x360c265c	2.0883954e-06
33	0x37d8ed9a	2.5859848e-05
34	0x36c253a0	5.791386e-06
35	0x3806a248	3.2099226e-05
36	0xb4b37065	-3.3423126e-07
37	0x37a86609	2.0074674e-05
38	0xb7a72299	-1.9924062e-05
39	0xb80cbd54	-3.3554927e-05
40	0xb81bb180	-3.712019e-05
41	0xb720fd68	-9.595744e-06
42	0xb796eed3	-1.7992605e-05
43	0x377b9401	1.4995226e-05
44	0xb80e80fc	-3.3975564e-05
45	0x3784a911	1.5814354e-05
46	0xb8b3a7d9	-8.566649e-05
47	0xb75ca647	-1.3151736e-05
48	0x36fd5cf2	7.550808e-06
49	0xb643fd86	-2.9204834e-06
50	0x37d8bad4	2.5836205e-05
51	0x36b5c070	5.416623e-06
52	0x3500cd1f	4.7982206e-07
53	0xb703fbb8	-7.866816e-06
54	0xb780f6e9	-1.5373766e-05
55	0x3712aeda	8.742989e-06
56	0xb888b272	-6.5182234e-05
57	0xb8de73f6	-0.00010607384
58	0xb894968a	-7.08523e-05
59	0x36b7020b	5.454063e-06
60	0x352c936b	6.4289515e-07
61	0xb84f34c4	-4.9401788e-05
62	0x37d87d33	2.5807507e-05
63	0xb708a8a4	-8.145496e-06
64	0xb85290be	-5.0202703e-05
65	0x36033afb	1.9554852e-06
66	0xb65d162b	-3.294447e-06
67	0xb648d298	-2.9924904e-06
68	0xb6246155	-2.449456e-06
69	0x371a63b3	9.202328e-06
70	0xb7a3762c	-1.9486142e-05
71	0xb723f799	-9.773205e-06
72	0xb828a251	-4.020549e-05
73	0xb7888a0e	-1.627675e-05
74	0xb77b9c36	-1.49971365e-05
75	0xb68961c0	-4.0942978e-06
76	0x37825c36	1.5540147e-05
77	0x37ee8ea3	2.8438231e-05
78	0xb7be1723	-2.2660539e-05
79	0xb7085f50	-8.128423e-06
80	0x342f9e01	1.6355627e-07
81	0xb7c1d588	-2.3106826e-05
82	0x364361e2	2.911424e-06
83	0x370b6aee	8.309942e-06
84	0x388b2c84	6.636328e-05
85	0x360bc340	2.0826265e-06
86	0x384dc992	4.9063536e-05
87	0xb36f38e2	-5.569826e-08
88	0x380d217f	3.3648215e-05
89	0xb78ed424	-1.7026505e-05
90	0xb20a7a5b	-8.060478e-09
91	0xb70f2ce1	-8.533913e-06
92	0xb338943f	-4.2975667e-08
93	0x38853e18	6.3535e-05
94	0xb7206d0f	-9.562135e-06
95	0xb80f11d4	-3.411046e-05
96	0x366d827c	3.5391704e-06
97	0x3758a9bc	1.2914123e-05
98	0xb857351d	-5.130946e-05
99	0xb739f4ed	-1.10838855e-05
100	0xb86a7e59	-5.5907618e-05
101	0x3843d620	4.6691042e-05
102	0xb7c89e0d	-2.3915456e-05
103	0xb87a9ffe	-5.975365e-05
104	0xb7aa0386	-2.026722e-05
105	0xb8072a58	-3.2225944e-05
106	0xb80bf7cd	-3.3370965e-05
107	0xb780a582	-1.533586e-05
108	0xb87b20df	-5.9873677e-05
109	0x371b1abf	9.244947e-06
110	0x380f52a4	3.4170822e-05
111	0xb7dd8c83	-2.6410684e-05
112	0x3815b6d9	3.569466e-05
113	0xb78a5112	-1.6488633e-05
114	0x3786f8c4	1.6089885e-05
115	0x35e8ed48	1.7354405e-06
116	0xb45de0ca	-2.0664007e-07
117	0x37cc0e95	2.4325485e-05
118	0x3767877d	1.3800219e-05
119	0xb892178d	-6.966209e-05
120	0x37799ea7	1.4878496e-05
121	0x36738f24	3.629314e-06
122	0xb8a00143	-7.6296295e-05
123	0xb8a3225d	-7.778846e-05
124	0x365c446e	3.2822386e-06
125	0xb6b790db	-5.4706884e-06
126	0xb84f2a90	-4.9392285e-05
127	0x35f10395	1.7956942e-06
128	0x3710c82c	8.629675e-06
129	0x371a82aa	9.209538e-06
130	0xb8bdb23b	-9.04542e-05
131	0x379bb4a7	1.8561563e-05
132	0x38115550	3.4650147e-05
133	0xb7745861	-1.4564111e-05
134	0x388d82f6	6.747797e-05
135	0xb877a0e6	-5.9039237e-05
136	0xb78f5d54	-1.7090388e-05
137	0x377b20c4	1.4968395e-05
138	0x3808ab17	3.2584267e-05
139	0x37879f52	1.6167443e-05
140	0xb7fb8c06	-2.9986735e-05
141	0xb890f77e	-6.912554e-05
142	0x36b543c2	5.4021084e-06
143	0xb73a0fc2	-1.1090133e-05
144	0xb77a764d	-1.4928705e-05
145	0xb5bffa54	-1.4303464e-06
146	0x38e51b39	0.000109246415
147	0xb7717c7a	-1.4393701e-05
148	0xb7a23e1b	-1.9340825e-05
149	0x374c8ce3	1.219215e-05
150	0x371d8bee	9.390509e-06
151	0x37d0fdd8	2.4913737e-05
152	0xb7e75ae2	-2.7579666e-05
153	0xb59ecf90	-1.1832326e-06
154	0xb781bb05	-1.5465086e-05
155	0x36b6ca1a	5.4475504e-06
156	0x388a0eff	6.583146e-05
157	0x386f8bf0	5.7112367e-05
158	0xb69f0c06	-4.739969e-06
159	0xb6367da5	-2.7193248e-06
160	0xb7f53616	-2.9231462e-05
161	0xb691c5da	-4.3443697e-06
162	0xb7ec52f4	-2.817202e-05
163	0xb6c50c92	-5.872521e-06
164	0xb70fb49e	-8.565517e-06
165	0x35eb71e9	1.7542017e-06
166	0xb717a031	-9.037599e-06
167	0xb7878914	-1.6157086e-05
168	0xb6e101b5	-6.7057213e-06
169	0xb79abe4f	-1.844685e-05
170	0xb6a2ed88	-4.8556285e-06
171	0xb7e081d9	-2.6763346e-05
172	0xb71c321c	-9.309992e-06
173	0xb891aed6	-6.9467045e-05
174	0xb7fc030a	-3.0042156e-05
175	0x37609ba6	1.338768e-05
176	0xb64fa866	-3.0943424e-06
177	0xb61729b2	-2.2525023e-06
178	0xb8a9fc9c	-8.1056e-05
179	0x37e6614f	2.746345e-05
180	0x377f2492	1.5207699e-05
181	0xb8543951	-5.059812e-05
182	0xb7532905	-1.2586131e-05
183	0x38249e6f	3.92482e-05
184	0xb7be13c2	-2.2658965e-05
185	0xb82f6f07	-4.1826654e-05
186	0xb792ba22	-1.7491231e-05
187	0x371332ed	8.77374e-06
188	0x3897a60b	7.231169e-05
189	0xb85cdf33	-5.2659958e-05
190	0xb6222c77	-2.4165763e-06
191	0xb78dbe40	-1.6897102e-05
192	0xb82e8616	-4.160971e-05
193	0x37c1c402	2.3098666e-05
194	0x33cecbbc	9.6296816e-08
195	0x37d9afe3	2.595032e-05
196	0xb7899565	-1.640124e-05
197	0x35e82914	1.7297302e-06
198	0x37bb5f30	2.2336462e-05
199	0xb6497208	-3.001771e-06
200	0xb8078547	-3.2310632e-05
201	0xb68f4997	-4.270299e-06
202	0xb6abb088	-5.116748e-06
203	0xb6be698c	-5.6747285e-06
204	0x374caa68	1.2199023e-05
205	0x37aaa1b6	2.0340882e-05
206	0x34fc1698	4.6955097e-07
207	0xb69602d0	-4.470676e-06
208	0x36f31642	7.2445555e-06
209	0x37efa89b	2.8569533e-05
210	0xb7091d00	-8.172588e-06
211	0xb7946b45	-1.7692926e-05
212	0x36968dc4	4.486852e-06
213	0x366a47c1	3.4910483e-06
214	0x3628e51f	2.5167317e-06
215	0xb7a764ec	-1.9954947e-05
216	0xb7082498	-8.114752e-06
217	0x369ea22b	4.727646e-06
218	0x36a7585d	4.9872747e-06
219	0xb8914cc6	-6.928439e-05
220	0xb5688d26	-8.6632133e-07
221	0x372ff3a9	1.0487544e-05
222	0xb7c4ae72	-2.3446253e-05
223	0x36892203	4.0868777e-06
224	0xb6ade808	-5.1828138e-06
225	0x371bb0c7	9.279879e-06
226	0x37af1e0f	2.0875623e-05
227	0x368ae7ad	4.139691e-06
228	0xb7c58eea	-2.355078e-05
229	0x37569bef	1.27917e-05
230	0x3424c5e9	1.534569e-07
231	0x369e3934	4.7154263e-06
232	0x36d28fff	6.275251e-06
233	0x3810b151	3.4497414e-05
234	0xb783c272	-1.5706963e-05
235	0x372e23e0	1.0379561e-05
236	0xb82f3ef0	-4.1781866e-05
237	0x380794bd	3.232503e-05
238	0xb744537b	-1.1701947e-05
239	0x36ab9be0	5.1143434e-06
240	0x36663d8b	3.4308493e-06
241	0x37527161	1.25433735e-05
242	0xb44de92a	-1.9176937e-07
243	0x37ab4d29	2.0420719e-05
244	0xb7a9c20a	-2.0236726e-05
245	0xb7b19be4	-2.1172636e-05
246	0x367306ad	3.6213708e-06
247	0xb70ccefd	-8.3928435e-06
248	0xb7fad711	-2.990247e-05
249	0xb6e54eef	-6.833921e-06
250	0xb748d735	-1.1971036e-05
251	0xb72a97df	-1.016815e-05
252	0xb7df6285	-2.6629548e-05
253	0x37371dd8	1.09145985e-05
254	0xb71d109a	-9.361795e-06
255	0x37b77f62	2.1874617e-05
