weights/8-20_split_1.pt (torch, 473380 bytes, 26 tensors)

conv1.bias f4 [64]
000000 5f 84 52 36 8f d4 ed 35 ac 3f 7a b6 0f 8c 78 37
       3.1369489e-06 1.7719739e-06 -3.7289965e-06 1.4814562e-05
000010 3a 29 be 35 86 f1 ff b5 72 44 ff 36 63 d4 97 36
       1.4168102e-06 -1.9069273e-06 7.6075603e-06 4.5248757e-06
000020 20 33 b0 35 a7 05 ff b4 45 d0 1a b7 06 7b 1c b7
       1.3127901e-06 -4.7501564e-07 -9.227607e-06 -9.326968e-06
000030 3e 7b 57 37 c3 cc 98 35 59 42 de b5 5b 10 a2 b6
       1.2843693e-05 1.1384476e-06 -1.6559599e-06 -4.8298803e-06
000040 87 ee 48 37 60 eb 9a b7 fe 32 5c b5 16 f0 b0 b5
       1.1976465e-05 -1.8467836e-05 -8.203059e-07 -1.3182896e-06
000050 da 43 bb b7 0b 8a 56 b6 82 50 e8 36 5a 7e d3 35
       -2.2323733e-05 -3.1968837e-06 6.923511e-06 1.5757498e-06
000060 0f 27 6b 36 c3 c8 e9 36 d5 15 70 b7 59 9d 76 37
       3.5040464e-06 6.967313e-06 -1.4310198e-05 1.4699378e-05
000070 84 78 0d 36 d4 fb 16 37 fd b5 a0 b6 e5 db 95 36
       2.1080787e-06 8.99933e-06 -4.789558e-06 4.466145e-06
000080 12 79 c7 34 d3 9a 10 36 a5 01 6b 34 b1 92 c5 b7
       3.715473e-07 2.1547792e-06 2.1886679e-07 -2.3552539e-05
000090 f7 2d 12 b7 3c 2c ba 36 13 71 af b7 08 ee 6a 36
       -8.71298e-06 5.5483815e-06 -2.091428e-05 3.500727e-06
0000a0 53 37 67 b5 7d 45 5d 36 3e 4f 4c b6 ea 49 df b6
       -8.6134713e-07 3.2972014e-06 -3.0444494e-06 -6.6545226e-06
0000b0 e0 b9 e6 b6 56 2a 65 36 7c 2d d0 b3 87 8a f9 34
       -6.876173e-06 3.4148302e-06 -9.694028e-08 4.6480656e-07
0000c0 3e 41 8c b6 3d a6 5a 36 c9 f2 fd b5 1c fa 16 b5
       -4.1799203e-06 3.2581295e-06 -1.8920629e-06 -5.624331e-07
0000d0 9d ec 94 36 23 26 60 b7 7e c3 d4 b5 49 0d 4c b7
       4.438289e-06 -1.336032e-05 -1.5852127e-06 -1.2162441e-05
0000e0 99 ce d0 33 11 d8 c3 35 11 be df 35 0d 72 7f 35
       9.723335e-08 1.4591516e-06 1.6670111e-06 9.516087e-07
0000f0 91 0e 7e 36 fe b8 59 37 62 70 93 b5 03 99 92 b6
       3.7857428e-06 1.297728e-05 -1.0985061e-06 -4.368952e-06

conv1.lin.weight f4 [64, 2]
000000 50 54 4c be 5f 6c 47 be 17 1f a5 3b 95 4e b3 3e
       -0.19954038 -0.19474934 0.0050391066 0.3502089
000010 6d a7 87 3e b4 33 4b 3c ad d9 32 be f8 e8 f7 bd
       0.26494923 0.012402464 -0.17465849 -0.12104982
000020 2c 33 eb bd dd 27 75 be e3 d5 63 3e 52 e9 97 3e
       -0.1148437 -0.23940988 0.2224956 0.29670197
000030 57 79 d2 3c ce bc d2 3e 91 5a ca bd e8 fb af 3e
       0.025692625 0.41159672 -0.098805554 0.34371877
000040 75 ba b7 3e 85 6b fa 3b 94 d3 d1 3c 8c 2f 01 3f
       0.35884443 0.007642212 0.025613584 0.50463176
000050 87 79 5c be 0e 76 00 3e 28 45 21 bd c4 8a 01 bf
       -0.21530734 0.12545034 -0.039372593 -0.50602365
000060 e4 5e f6 bd 9e 99 07 be f1 d9 f9 3c b0 9c 77 3e
       -0.12029818 -0.13242194 0.03049943 0.24180865
000070 8a 21 18 be c9 b8 4a be 83 aa 86 3e 7a c5 63 3e
       -0.14856544 -0.19797052 0.26301965 0.222433
000080 95 af 2a be 73 bf 34 be 7a 70 ec bd 06 1c b7 be
       -0.16668542 -0.17651157 -0.11544891 -0.35763568
000090 9a b3 54 3e da 86 4d 3e ad 0d d4 bd fd bb cb 3e
       0.20771638 0.20070973 -0.10354171 0.3979186
0000a0 ca 08 6e 3e 6a e9 83 3e 3b 42 d4 be a5 a7 0a bd
       0.2324554 0.25764018 -0.4145678 -0.033851285
0000b0 8d 99 46 be 68 a9 7c be b8 07 08 3f a5 31 07 bc
       -0.19394512 -0.24673998 0.5313678 -0.008251582
0000c0 fa 3a a4 3e 6a 25 f1 3d db f0 02 be 28 20 5f be
       0.32076246 0.11774714 -0.12787192 -0.2178961
0000d0 41 b7 43 3e 95 73 5d 3e 64 86 66 be 83 fd 47 be
       0.19112875 0.21626122 -0.22512203 -0.19530301
0000e0 41 6c cb 3e 05 f1 af bc 11 a0 cc bd 91 7f 13 be
       0.3973103 -0.021477232 -0.09991468 -0.14404131
0000f0 73 9d 32 be ee a5 8e be d9 da 4c be f6 4f 87 3e
       -0.17442875 -0.2786097 -0.20005359 0.26428193
000100 a2 40 c5 3e f2 d1 95 3d 66 cd 1a 3f 10 4d bc bb
       0.38525873 0.073154345 0.60469663 -0.0057464913
000110 9d 9d 74 be e7 b8 8d 3e 1b ec 4a 3e 4a ff 93 3e
       -0.2388825 0.27680132 0.1981663 0.28905708
000120 b7 65 b1 3d 82 5c b3 3d e1 88 b9 3e 5f 55 bf 3c
       0.08661979 0.08757879 0.36237243 0.023356138
000130 cc 98 60 3e ba a7 8c 3e cf ae 1e be 0c 94 e6 3e
       0.21933287 0.27471715 -0.15496372 0.45034826
000140 7a d8 a5 be 52 8a 8a 3e 30 4c 0f 3f a9 00 78 bc
       -0.3239172 0.27058655 0.5597563 -0.015136876
000150 7d 55 47 be 1f 9f 8b be 7e 86 4c 3e b6 71 4d 3e
       -0.19466205 -0.27269837 0.1997318 0.20062909
000160 90 40 83 bd 3b 69 f5 3e c2 b9 79 bd e2 86 e3 3e
       -0.06408799 0.47931847 -0.060968168 0.44438845
000170 9b 09 96 3e 78 2a 1c 3e 83 64 1b be 2f 22 57 be
       0.29304203 0.15250576 -0.15175061 -0.21009134
000180 05 46 07 3e 83 01 be 3c 7c 6c 03 bd f8 27 cb 3e
       0.13210304 0.02319408 -0.03208588 0.3967893
000190 af ef 79 3e b7 1f 20 3e 30 d0 fc 3e f5 3d 32 3d
       0.24407838 0.15637098 0.49377584 0.043516118
0001a0 48 1e 78 be 99 f5 85 3e 4d 7a 3c 3e a0 8c 5c 3e
       -0.24230301 0.2616394 0.18406029 0.21538019
0001b0 56 57 ca 3e 15 a6 f4 bc e3 47 b0 bd 5d 6b 89 be
       0.39519757 -0.02986435 -0.08607461 -0.26839724
0001c0 07 cf 86 be 62 e9 62 3e 19 f9 9c 3b 9c 82 f7 3e
       -0.26329824 0.22159341 0.004790437 0.48341835
0001d0 a8 5c d5 3e c6 51 60 3d 6c 8d 77 3e 21 24 31 3e
       0.41672254 0.054765485 0.24175042 0.17298938
0001e0 9a c1 8c bb 90 a0 fa 3e 97 ba 59 be 67 8f 90 be
       -0.00429554 0.48950624 -0.21262585 -0.28234407
0001f0 16 79 56 3d 19 a0 a7 be 9c 9b a7 be ab 0f 2c 3e
       0.05236157 -0.32739332 -0.32735908 0.16802852

conv2.bias f4 [64]
000000 13 9f 12 bd 63 f9 64 be 51 66 24 be df e0 b6 3d
       -0.035796236 -0.22360758 -0.16054656 0.089296095
000010 03 72 25 bf 7e a7 3a bf b4 63 5f be 21 eb 1c bf
       -0.64627093 -0.7291182 -0.21815377 -0.6129628
000020 41 6d 86 be 44 82 02 3d e9 b6 44 bf 27 5f aa be
       -0.2625523 0.031862512 -0.768416 -0.3327572
000030 f8 8d 99 3d e7 54 28 bf 40 7c 29 bf e6 dc 46 be
       0.074977815 -0.6575455 -0.66205215 -0.19420204
000040 5b ef 53 bf 0f 41 08 3e ce 68 a5 be ce 38 e8 be
       -0.827871 0.13306068 -0.32306522 -0.4535584
000050 66 74 8c be 24 26 23 bf 7a a6 0a bf 83 ec 33 3d
       -0.27432555 -0.6373007 -0.54160273 0.043926727
000060 96 33 ad be e4 65 db be 53 fe 05 3e cb ce 58 bd
       -0.3382842 -0.42851174 0.13085298 -0.05293159
000070 fe a8 b9 bc e0 98 16 bf 0c b0 c6 be a0 9c b6 be
       -0.02266359 -0.5882702 -0.38806188 -0.3566637
000080 2a 8a d5 be b3 7a e3 be d9 15 ea be 40 d6 7f be
       -0.41706973 -0.4442955 -0.45719793 -0.24984074
000090 52 f7 4f bf de f6 fd be 9f c0 0d 3d c7 3f 02 bf
       -0.81236756 -0.49602407 0.034607526 -0.50878567
0000a0 dd 92 5a be a9 ff 2b be d8 c5 66 bf 8e fe 17 be
       -0.21345086 -0.16796745 -0.90145636 -0.14843199
0000b0 af 31 2d 3e 42 cf b8 be 58 81 4e be 89 df 94 be
       0.16913484 -0.36095625 -0.20166528 -0.29076794
0000c0 98 f7 0a 3d 7b 8a 2e bf 66 26 01 3e ed 34 d1 be
       0.03392753 -0.68180054 0.12612304 -0.40860692
0000d0 91 6b 39 be 59 a0 fc bd 6a 7b 94 3e 8e 3e 65 be
       -0.1810744 -0.123352714 0.29000407 -0.22387144
0000e0 08 1b 62 bf 3f 2e 12 bf 28 36 52 bc 9f 82 ff be
       -0.88322496 -0.57101816 -0.012830295 -0.49904343
0000f0 bb 59 75 3c e8 9e 88 3e 11 50 6f 3d 8b 9c d2 be
       0.014975007 0.26683736 0.058425967 -0.41135058

conv2.lin.weight f4 [64, 64]
000000 86 1d 6c be 84 0a a3 be d7 83 65 bd b9 51 8f be
       -0.23058137 -0.3184396 -0.056033935 -0.27992037
000010 df b0 04 be d1 14 ad bd fa 42 81 be bf f2 15 be
       -0.12958096 -0.08451236 -0.25246412 -0.14643382
000020 a1 8d 7c 3b e0 bd d8 be 52 f0 7e be 68 05 42 be
       0.0038536566 -0.42332363 -0.24896362 -0.18947375
000030 84 a6 58 be 3d 1e 40 be e7 1c ee bd 70 03 3c bd
       -0.2115727 -0.18761535 -0.116266064 -0.045901716
000040 1e 86 20 be c4 18 ff 3d 46 a7 a9 3d ac 5b 3f be
       -0.15676162 0.124558955 0.08283858 -0.18687314
000050 b7 9f 2c be 45 b9 f8 bd 3d 72 ce be 3c 2f 3b 3e
       -0.16857801 -0.12144712 -0.40321532 0.18279737
000060 62 01 86 3e 0c db a0 be d8 1d 6e bd 31 08 d9 be
       0.2617293 -0.3141712 -0.05813393 -0.42389062
000070 0c 5c a3 bc 8d 3a e4 bd 29 48 72 be 92 10 49 be
       -0.019941352 -0.1114398 -0.2366034 -0.19635227
000080 3a 5f 87 3e 5f 35 13 3e 77 33 1a be 69 51 26 be
       0.2643984 0.14375828 -0.15058695 -0.16241993
000090 9c 71 86 bd 77 df 91 bc 45 6a 1b bd 2c 5a 87 bd
       -0.06564638 -0.017806752 -0.037943143 -0.06608996
0000a0 3b fd 1a be 37 7f bb 3c 82 19 65 3c 92 72 74 bc
       -0.15135662 0.02288781 0.013983132 -0.014919894
0000b0 1e ba e5 bd d9 c8 7d be 72 c6 0b 3e 9c 56 2d 3c
       -0.1121714 -0.24783649 0.1364992 0.010579731
0000c0 e3 46 87 3e f5 25 88 be 6e 9f 1f 3e 0e 87 3c 3e
       0.2642127 -0.2659146 0.15588161 0.18410894
0000d0 dc ef 3d be 26 b0 11 be 7b a7 38 3e 0a 87 12 bd
       -0.1854853 -0.14227352 0.18032639 -0.035773315
0000e0 27 51 91 be 7d b3 b8 be 89 0b 6d 3e 6a ea 72 3e
       -0.28382227 -0.3607444 0.23148932 0.23722234
0000f0 ca 6b a9 be 19 fc f0 bd 23 5d 3e be 69 23 c5 be
       -0.3309005 -0.11766834 -0.18590216 -0.38503578
000100 1e d3 07 be dd e4 6a 3e 46 47 3a be f2 02 99 be
       -0.13264129 0.22938867 -0.18191251 -0.2988506
000110 07 b4 5d 3c ee b7 fa bd b4 17 aa 3e b2 da 3c be
       0.013531691 -0.12242113 0.3322121 -0.184428
000120 4d 54 9f be 8d bd aa 3e a4 7e e7 be d7 18 de 3d
       -0.31119004 0.3334774 -0.45213807 0.108445816
000130 d4 f0 94 bd 19 3f 82 3e c7 2f 5a 3e 0c 05 65 be
       -0.07272497 0.25438765 0.21307288 -0.22365206
000140 2b 52 e2 bd 14 24 50 3d a9 01 81 bd d1 c9 b4 3d
       -0.110508285 0.050815657 -0.06299145 0.08827556
000150 25 df 10 be 99 b4 66 be 09 d5 a7 bc a5 89 3d be
       -0.14147623 -0.2252983 -0.020487325 -0.18509538
000160 d9 f9 10 bf 34 a4 75 bb ad 46 1b b9 6b 38 39 be
       -0.5663124 -0.0037481906 -0.0001480828 -0.18087928
000170 07 2a e1 bd 39 10 b6 3d 9d e5 8f 3e 61 f1 11 be
       -0.10994344 0.08889813 0.2810487 -0.14252235
000180 bb 55 65 be 68 f6 50 be 80 5e 5f be b6 2e 1b bd
       -0.22395985 -0.20406497 -0.21813393 -0.037886344
000190 0c 5d 3e bd f7 4c 41 be c4 5a 38 3d e7 53 e0 3d
       -0.046475455 -0.18877016 0.045008436 0.10953503
0001a0 f3 e2 54 be c6 99 e3 be e8 f5 84 bd c3 b8 f8 bc
       -0.207897 -0.44453257 -0.064922154 -0.030361539
0001b0 f6 ec 7d 3d 34 67 6d bb 76 5e 8e be 82 5c 55 3e
       0.06199356 -0.0036224844 -0.27806443 0.2083607
0001c0 ff 97 52 be ff 7a 81 3e af 95 21 be b6 a2 fd be
       -0.20565794 0.2528915 -0.15779756 -0.495382
0001d0 66 d2 43 be 3f 5d 69 3e ac 8b 0e be dd 23 87 3e
       -0.1912323 0.22789477 -0.13920468 0.2639455
0001e0 82 72 a0 be da e1 7b 3e 8f a7 e6 be ac ca 34 be
       -0.31337363 0.24597874 -0.45049712 -0.17655438
0001f0 bc 52 a7 3e 9a 22 69 3d c0 b1 aa 3d 2d 68 08 bf
       0.3268031 0.056917764 0.08334684 -0.5328396
000200 be 0e a6 bd 0b db 1f bd e3 23 0c 3e 5f 7d dd bd
       -0.081082806 -0.039027255 0.13685565 -0.10814928
000210 f0 49 24 bd 78 f0 38 bf c3 04 f0 bc c7 f0 08 3e
       -0.040109575 -0.72241926 -0.029299146 0.133731
000220 7b fa 7b 3e f8 cc 82 3d f6 0a 3d be b2 44 f2 3d
       0.2460727 0.06386751 -0.18461213 0.11829509
000230 1e 70 d9 be b1 82 d0 bd ab 0f 6a be 7d 33 1f be
       -0.4246835 -0.101811774 -0.2285754 -0.15546985
000240 ad 05 93 be 03 e7 2a bd 42 01 da be d3 00 a3 3e
       -0.28715268 -0.041724216 -0.42579085 0.31836566
000250 c2 69 2e bf 00 4e 08 be 6d 41 f6 be 4f 05 8c 3d
       -0.68130124 -0.13311005 -0.4809679 0.0683695
000260 8f 60 9a 3d 31 14 c3 be a2 2d 96 be f9 c2 0c be
       0.07537948 -0.38101342 -0.2933169 -0.13746251
000270 7a c9 80 3e 7d 7b 8d be 25 38 9f be 68 e4 ac 3c
       0.25153714 -0.27633277 -0.31097522 0.021105006
000280 17 72 52 bc c5 bb 46 3e 66 89 8e b9 96 ba 0d bf
       -0.012844584 0.19407566 -0.0002718672 -0.5536283
000290 d6 31 05 bf 5a 3e 49 3e 49 3b 47 bf b3 8e 91 3e
       -0.5202917 0.19652691 -0.77824837 0.28429183
0002a0 10 8c 93 3d 37 bc 4c 3e 16 ed 45 be 0e 25 e0 be
       0.07204449 0.19993673 -0.19328722 -0.4377827
0002b0 ed f7 cb 3d 95 71 46 3e 91 da 84 3c 1f 6c 8e be
       0.099593975 0.19379266 0.016217502 -0.27816865
0002c0 9e e4 0c 3e 26 97 82 3e 32 d4 7c be 55 10 27 bd
       0.13759086 0.25505942 -0.24690321 -0.04078706
0002d0 41 4a 48 3e 95 c4 22 bf 61 ed 19 3e b1 b3 1b be
       0.19559576 -0.6358121 0.15031959 -0.15205266
0002e0 8f 60 78 3d ca 16 c6 bc bc 0f fa 3c 93 40 9e be
       0.06063896 -0.024180789 0.03052508 -0.3090864
0002f0 ae a1 b9 3d bb fd 14 bf 98 7c 7a bd 85 d1 d1 3d
       0.09064041 -0.5819966 -0.061153978 0.10245041
000300 6d 52 39 3d b6 46 95 be db 43 17 be 3d f0 bb 3d
       0.045244623 -0.2915551 -0.14771979 0.09176681
000310 94 34 85 bd 8d 4e 1c 3e a7 cb 76 bd 62 a5 8f be
       -0.06504169 0.1526434 -0.06025281 -0.28055865
000320 53 0a cb bd 17 55 ee bd cb c1 76 be d6 f0 bc be
       -0.099140786 -0.11637323 -0.24097364 -0.36902493
000330 c4 ff a1 bd bd 64 18 bd 3d fd 96 bd c3 ac e9 3d
       -0.079101115 -0.037205447 -0.0737252 0.11409905
000340 b7 8a 3e 3c e5 52 a2 be ff 8c 26 3e d7 e5 0e be
       0.011629752 -0.31703869 0.16264723 -0.13954864
000350 e7 ac 04 3e 47 40 2f be cc 0d c7 3d 41 d4 76 3c
       0.12956582 -0.17114364 0.097194284 0.015065254
000360 72 02 11 3d 68 ad e0 bc e5 f2 8e 3e ac 73 f1 bd
       0.035402723 -0.027426437 0.2791969 -0.11789641
000370 ef 8c 0d be be 59 3d be 5c 0b 87 3c a7 a6 b4 be
       -0.13823293 -0.18491265 0.016484909 -0.35283396
000380 df 76 ef 3d ea 3f d2 bd f6 7d 01 be 66 61 a0 3e
       0.11692595 -0.10266097 -0.12645707 0.3132431
000390 d3 24 09 be 02 64 9c 3d bd 86 99 3e 0e ea 6c bd
       -0.13392954 0.076362625 0.2998561 -0.0578404
0003a0 38 df 11 be ec 94 a4 bc 6f 28 80 be 44 13 3e 3d
       -0.14245307 -0.020090543 -0.25030848 0.046405092
0003b0 bd a5 8f be 9f 9a 21 be 07 3d dd 3b bd cc 47 be
       -0.28056136 -0.1578164 0.00675166 -0.19511695
0003c0 15 94 0b 3e 87 fd 53 be 3b 80 73 bd 5f a1 ff 3c
       0.13630708 -0.20702182 -0.059448462 0.031204877
0003d0 f2 fb 0b be 5b cc 4e 3e c1 25 b9 3b 6c 1e 6b be
       -0.13670328 0.20195143 0.0056502526 -0.22960824
0003e0 83 30 1e be 02 9e 01 be 1a 55 3d bd 94 cb 11 bd
       -0.15448193 -0.12657931 -0.046223737 -0.035594538
0003f0 8c 8e 6f be 70 23 c7 bc af 10 9e 3d ca 4c 89 be
       -0.23394221 -0.02430889 0.07718026 -0.26816398

conv3.bias f4 [128]
000000 5b c3 28 b7 fc 3e 19 36 9d 11 a6 b7 ae 99 1a 37
       -1.0059065e-05 2.2835438e-06 -1.9796944e-05 9.214897e-06
000010 92 d6 43 36 c7 22 6f 37 e9 16 da b7 86 d5 36 38
       2.918216e-06 1.4253607e-05 -2.5998293e-05 4.359104e-05
000020 7f 83 f1 b7 7f 77 87 b7 76 c5 e5 36 74 1a ef b7
       -2.8790671e-05 -1.6148899e-05 6.8477193e-06 -2.8503338e-05
000030 b4 1c 27 37 8e f6 62 b7 fa cc 72 b6 e6 82 9e b8
       9.960659e-06 -1.3528055e-05 -3.6180122e-06 -7.558409e-05
000040 d7 2b 37 37 9d 47 61 36 63 88 67 b5 93 f1 a5 b5
       1.0917857e-05 3.3569297e-06 -8.6252675e-07 -1.2363765e-06
000050 21 47 82 b7 ed 8a 79 b5 38 75 b8 b6 15 00 76 b7
       -1.553033e-05 -9.296189e-07 -5.4972734e-06 -1.4662762e-05
000060 95 9f 60 37 3d b5 44 37 4d ad be b5 81 f0 b2 b6
       1.3388596e-05 1.1724708e-05 -1.420654e-06 -5.3328117e-06
000070 fd c5 da 37 30 70 23 b7 34 19 eb b7 d7 d7 9a 35
       2.607982e-05 -9.741678e-06 -2.802592e-05 1.1536712e-06
000080 32 4e e7 36 2d c6 23 38 c1 02 8a b7 71 34 39 b7
       6.8934396e-06 3.9046794e-05 -1.6452164e-05 -1.1039069e-05
000090 5b 30 10 b7 df d9 73 b6 de ec 47 36 b2 2e 04 b8
       -8.5943275e-06 -3.633664e-06 2.9791186e-06 -3.151474e-05
0000a0 bb 2d f0 b7 6c 7c 80 b6 20 5b ab b6 78 a3 69 b6
       -2.8631524e-05 -3.829182e-06 -5.1068055e-06 -3.4814857e-06
0000b0 fa 11 80 36 21 37 1b b7 4d dd 75 38 b4 37 a2 37
       3.81679e-06 -9.251556e-06 5.8618654e-05 1.9337844e-05
0000c0 3c 55 2d 38 be d7 74 38 67 b2 28 b8 bd 2d ba 37
       4.1325795e-05 5.837506e-05 -4.022047e-05 2.2194226e-05
0000d0 62 07 96 b7 46 48 39 36 2d 75 01 b8 9c 6f 8d 37
       -1.7884831e-05 2.7609217e-06 -3.0865125e-05 1.6860482e-05
0000e0 f2 ea 90 38 5b f3 58 b7 ba 1b 46 b7 f4 53 8e 36
       6.910217e-05 -1.2931264e-05 -1.1808175e-05 4.241703e-06
0000f0 55 a0 d2 38 75 5e 64 b7 a2 a8 a9 b6 eb cd d4 38
       0.000100434445 -1.36118515e-05 -5.056224e-06 0.00010147303
000100 70 ef 6d 37 17 d3 bf b6 9b f0 ac 35 0b 98 4e b6
       1.4182049e-05 -5.7168177e-06 1.2885024e-06 -3.0784893e-06
000110 b9 30 ef b6 f7 c1 5f 36 81 00 0f b8 da aa 5c b5
       -7.128427e-06 3.3342492e-06 -3.4094326e-05 -8.220501e-07
000120 96 ae 04 b5 60 eb 56 38 d3 e5 bd b7 4d 57 32 38
       -4.942789e-07 5.1240786e-05 -2.2637576e-05 4.2519812e-05
000130 fc 79 65 36 54 22 fc 34 b0 25 f8 36 fb 9c c4 37
       3.4194663e-06 4.6963635e-07 7.3953634e-06 2.343812e-05
000140 04 7a 1b 36 4d ba c0 b7 96 33 8c b7 be 84 08 38
       2.3167822e-06 -2.2974937e-05 -1.6713322e-05 3.2548553e-05
000150 11 55 38 b7 1a 3a d0 b6 26 ce ce 35 8b ac 2a b7
       -1.0987061e-05 -6.205647e-06 1.5408193e-06 -1.0172963e-05
000160 51 9d 2e b7 90 d4 98 b8 07 29 9b b9 e4 35 d6 b7
       -1.0407836e-05 -7.287518e-05 -0.00029594472 -2.5535883e-05
000170 14 d2 3b b8 cf a4 25 b3 6e 40 cb 35 16 4a 68 37
       -4.4779925e-05 -3.856695e-08 1.514343e-06 1.3845527e-05
000180 6d db 8a b8 d1 73 2c 38 e9 1d 83 b7 70 0f d1 b7
       -6.621224e-05 4.1115858e-05 -1.5630345e-05 -2.492193e-05
000190 cc fc d4 b6 f6 ab f1 34 1f 23 81 b7 47 44 3f b6
       -6.347522e-06 4.5014866e-07 -1.5394353e-05 -2.850096e-06
0001a0 10 ec a5 36 9a af cf b7 3c e8 1d 38 70 da ce b7
       4.9448645e-06 -2.4758094e-05 3.7648002e-05 -2.4658832e-05
0001b0 fe 46 a3 b7 31 cc e5 36 19 63 8a 37 3b 24 2f b7
       -1.9464173e-05 6.848503e-06 1.6497028e-05 -1.0439248e-05
0001c0 7e 5e fa b7 a0 17 b8 36 00 cc 2f b7 c0 33 c8 38
       -2.9846324e-05 5.4863776e-06 -1.047831e-05 9.546382e-05
0001d0 9f 55 df 36 f3 95 51 37 30 5a 68 38 e2 43 14 36
       6.6558855e-06 1.24922835e-05 5.5397104e-05 2.2093232e-06
0001e0 68 1c 90 b7 5f 4c 91 b7 cd e9 c6 35 eb 85 0c b7
       -1.7179365e-05 -1.732091e-05 1.4820195e-06 -8.3758305e-06
0001f0 df 3f 43 38 a1 ce 67 b7 ad 8b f9 b5 19 eb 04 37
       4.6551108e-05 -1.38167825e-05 -1.8592597e-06 7.922551e-06

conv3.lin.weight f4 [128, 64]
000000 0c ea 2a 3d f1 6e 06 be 57 9a 4b 3e 28 2f fc bd
       0.04172711 -0.13128258 0.19883095 -0.12313682
000010 5f 96 d6 3c 71 3c cf bd 10 1e e7 3d 55 a7 c4 bd
       0.02619475 -0.1011895 0.11285031 -0.096022286
000020 e8 69 61 bd 4e b6 b3 bc df d2 7c bd 37 54 9b be
       -0.05503264 -0.021937516 -0.06172454 -0.30337688
000030 71 15 f7 3d 9e 7f 12 3e 32 6e 7b bd f0 8d d5 bd
       0.120646365 0.14306495 -0.061384387 -0.10427463
000040 cf 43 54 bd 7f 26 d1 3d 7e 69 a3 bd d8 50 27 be
       -0.05182248 0.10212421 -0.079791054 -0.16339433
000050 24 0a c8 b9 aa 0e 9e bd f8 23 09 be fc f7 27 3e
       -0.00038154528 -0.07717641 -0.13392627 0.16403192
000060 87 cb c6 38 a6 ca df bd 03 22 05 bc 4c 1e 3d 3e
       9.479286e-05 -0.10927324 -0.008125785 0.18468589
000070 62 f5 06 3e 73 de 2c be 51 1f 94 3d 62 cb d9 3d
       0.13179544 -0.16881733 0.07232536 0.10634495
000080 f6 01 5b be c2 d9 5a 3d 36 7c a7 bc 91 b1 83 3d
       -0.21387467 0.053430326 -0.02044497 0.064303525
000090 14 75 d3 3d d2 ca 79 bd 4f 08 8f 3d 35 23 20 3d
       0.10325065 -0.06098444 0.069840066 0.039096076
0000a0 84 c0 ca 3d 6c 5a 12 be 11 c4 01 3e 36 51 be bd
       0.09900001 -0.14292306 0.1267245 -0.092928335
0000b0 80 8a 22 3e 32 96 bc 3c b1 c6 8d bc 4e de b5 3d
       0.15873146 0.023020837 -0.017306658 0.08880292
0000c0 a2 8b 77 3b b4 7c 56 bd 9c 23 d7 3c d0 b6 bf 3d
       0.0037772437 -0.05236502 0.026262097 0.093610406
0000d0 0c cf f5 3b e2 93 48 be 44 ad a9 3d d2 13 3b 3e
       0.0075014886 -0.19587663 0.08285001 0.1826928
0000e0 17 30 f7 bc ad ed 7e bd 2d cf 2a be 2b a0 06 be
       -0.030174298 -0.062238384 -0.16680594 -0.13147037
0000f0 06 02 01 3c ea cc 45 3d d5 ed 58 3e c2 4c ef 3c
       0.007874018 0.048291124 0.21184476 0.029211406
000100 86 25 a4 bd 38 35 7d be 06 a8 5f be d6 64 0e bd
       -0.080149695 -0.24727333 -0.2184144 -0.034764133
000110 b7 7a 93 bd f0 31 04 be 51 83 bd bd 1c 53 a5 bd
       -0.072011404 -0.12909675 -0.09253562 -0.080724925
000120 ea 7e ac bd e3 b6 01 be 28 6c 9a bd 31 0a 00 be
       -0.084226444 -0.12667422 -0.075401604 -0.12503888
000130 20 73 cf bd f5 9d e5 bd 5e e1 45 bd ba c4 e4 3d
       -0.1012938 -0.112117685 -0.04831063 0.11170335
000140 0f de 07 be 02 a1 fb bd 3e 0c 8e bd 8b 21 2e be
       -0.13268302 -0.12286569 -0.06935929 -0.17004983
000150 2e 6d 18 3d 13 6f b2 bd 0d 1a 74 bb ee 89 e1 3d
       0.037213497 -0.08712592 -0.0037246973 0.11012636
000160 64 01 40 3d f3 88 03 3e 41 2d bf bc e5 2a 5e be
       0.046876326 0.1284521 -0.023337008 -0.2169605
000170 9d 39 7d 3d d3 c6 98 3b 16 9a f4 bc f9 12 f4 bd
       0.061822522 0.0046623736 -0.02985863 -0.11917681
000180 84 85 24 bd dd 91 77 bd 37 78 38 3d 82 d6 21 be
       -0.040166393 -0.06044184 0.04503652 -0.15804484
000190 d4 46 a9 bd ad 08 76 3d 6e 9d 66 bd a8 37 3e 3d
       -0.082654625 0.060066868 -0.05630248 0.046439797
0001a0 f9 0e 8b bd 66 f4 34 3e 11 de 5e bd fd f0 af bd
       -0.06789965 0.17671356 -0.054410998 -0.08590887
0001b0 be c0 d0 bd 5b 15 b3 bd 84 bf 30 be f1 70 12 bd
       -0.10193013 -0.087443076 -0.17260557 -0.03575224
0001c0 ec 06 91 3d 96 54 95 bc dd 25 b6 bd 2b be 0c be
       0.07081398 -0.01822881 -0.088939406 -0.13744418
0001d0 bc af bc bd f8 cc 83 bd 01 69 a4 be c8 1a 17 3b
       -0.09213206 -0.06435579 -0.32111362 0.0023056734
0001e0 28 25 98 be cf 7d d2 3c d2 60 78 bd de 9c 3b 3d
       -0.29715848 0.025694756 -0.06063921 0.045803897
0001f0 51 db c7 bd c2 27 48 be 1b 8f 34 3e 53 5b a6 bd
       -0.09758628 -0.19546416 0.17632715 -0.081228875
000200 27 b7 39 3e bd ae 05 be aa b8 5a 3e d7 96 a7 bc
       0.18136273 -0.13054939 0.21359506 -0.020457668
000210 32 6c 14 be 4b 04 ed 3d b4 7b 43 3e fb 55 6a 3c
       -0.14494398 0.115730844 0.19090158 0.014302726
000220 36 e2 c3 bd d4 48 06 3e 11 c3 1e be 21 31 5c 3d
       -0.09564631 0.13113719 -0.155041 0.05375779
000230 9e a6 a5 bd 06 13 6c be 4b fc fa 3d 8c 79 91 3d
       -0.0808842 -0.23054132 0.12255152 0.07103261
000240 35 fa 80 be d3 ec b8 bd 4b f5 10 be 91 5d 85 3d
       -0.25190893 -0.09029546 -0.14156072 0.06511987
000250 4d 4c 1f be a6 a6 4d be 5f ef e3 3d b0 38 f8 3d
       -0.1555645 -0.20083103 0.11129641 0.12120187
000260 b2 29 a8 bd 3f 53 75 bd 08 fb 16 3e 0d 45 34 be
       -0.08211078 -0.059893843 0.14744198 -0.17604466
000270 75 f7 98 3d cd ac 13 be f7 a0 ff bd fb 94 a9 bd
       0.07469074 -0.14421387 -0.124818735 -0.08280369
000280 b3 08 35 3e 9e f5 8d 3c 1d 02 7e 3d 4f 7c a0 bd
       0.176791 0.017329033 0.062013734 -0.0783621
000290 f4 c9 66 be 34 97 f3 3c 09 6a b8 bd 2c 32 99 bd
       -0.22537977 0.029735185 -0.090045996 -0.07480273
0002a0 78 c8 20 3e e5 cf 3b bc c3 73 d5 be 04 be 15 3e
       0.15701473 -0.01146314 -0.41689882 0.14623266
0002b0 c1 a1 18 bd 4a 94 d9 3c 5b f0 69 3c ca 7a d6 bd
       -0.037263636 0.026559968 0.014278497 -0.10472639
0002c0 84 de 56 3e 12 d3 aa be 0f 67 1b 3d 6b 51 31 be
       0.2098332 -0.3336416 0.03794008 -0.17316215
0002d0 54 3b c6 bd ef 5a 4d 3c d8 8b 9d be 0e f4 a9 3d
       -0.09679285 0.012533887 -0.30770755 0.08298503
0002e0 36 79 2c be 3f 18 a4 3d 27 4f ad bd da f1 5c 3d
       -0.16843113 0.08012437 -0.08462363 0.053941585
0002f0 f5 58 13 3e d2 6c 4c 3e 58 f4 aa bb 3f 9e aa bd
       0.14389403 0.19963387 -0.0052171163 -0.08330964
000300 f1 3d af bc 15 f9 27 3c 64 34 e4 bd 59 79 01 bb
       -0.02139184 0.010252257 -0.11142805 -0.0019756167
000310 e9 04 06 3e 1b 70 de 3e fe 3a ea 3d 18 26 ac 3e
       0.1308781 0.43444905 0.11437033 0.33622813
000320 1c 4d 85 bb 17 5d 01 be d8 8b 7c bb 56 03 84 3d
       -0.00406803 -0.12633167 -0.0038535502 0.06445949
000330 61 06 62 bd e5 59 59 3d 25 1a 09 be 93 45 e1 3d
       -0.055181865 0.053064246 -0.1338888 0.10999598
000340 37 62 45 3d 31 44 9c be 6c 43 b1 bd ad bb fc 3d
       0.048189368 -0.30520776 -0.08655438 0.12340484
000350 5b 6d 38 3e 50 e8 bf 3d 85 b5 c6 3d 5b 59 d5 bd
       0.18010466 0.09370482 0.09702591 -0.10417434
000360 b0 64 24 3d db 71 8a bd 66 14 c0 bd 75 25 98 be
       0.040135086 -0.067599975 -0.09378891 -0.29716077
000370 cc cb 82 bd d2 63 a7 3d 06 1b 5d be bf 89 46 bd
       -0.063865274 0.08173336 -0.2159234 -0.04847121
000380 0b a5 d3 3e 04 27 48 3e 24 e0 97 bd c9 7b 20 bd
       0.41336855 0.19546133 -0.07415798 -0.03918055
000390 b1 7d 2e 3e ce 71 af 3d 8d a9 8f 3e 34 5f 87 3d
       0.17040135 0.085666284 0.28059044 0.066099554
0003a0 03 33 01 be e9 b3 3c be 52 d0 a0 bd 71 af 30 3e
       -0.12617116 -0.18428005 -0.07852234 0.17254426
0003b0 f6 80 f8 bd 56 5e 40 bd 01 78 00 bf a0 64 33 be
       -0.12133972 -0.046964966 -0.5018311 -0.17518854
0003c0 d3 6a d3 bc 66 ab d9 bc 55 48 97 bd fe 47 1d be
       -0.025807774 -0.026570987 -0.07386843 -0.15359494
0003d0 94 9c d4 3d 40 37 2f bd e6 26 df be db bd 0f be
       0.103814274 -0.0427773 -0.43584365 -0.14037268
0003e0 7c d4 91 3e c6 3a 3d bd d3 d2 8f be 3c b9 ed bd
       0.28482425 -0.04619863 -0.28090534 -0.11607596
0003f0 00 13 65 3d 8a 0c 5d be 8c b3 e7 bd 7e 51 3f 3d
       0.055926323 -0.21586815 -0.11313543 0.046708576

conv4.bias f4 [256]
000000 7e f0 a3 bc 7e 20 57 bd b8 38 e7 bc 05 1f 17 bd
       -0.020012137 -0.05252122 -0.028225288 -0.036894817
000010 bd e8 01 be 97 7a c1 bd 5f 9e c8 bc 33 e7 0b 3e
       -0.12686439 -0.0944721 -0.02448958 0.13662414
000020 e0 5d 53 bd 6e 5f b1 bd a1 84 b1 bd 85 f3 3d be
       -0.051603198 -0.0866078 -0.08667875 -0.18549927
000030 60 58 c3 bd e7 aa c1 bb ca 03 98 bd 5e b3 10 bd
       -0.095383406 -0.0059102657 -0.07422598 -0.035327308
000040 3c 02 8b bd 7f d9 60 be 74 08 ba bd 63 8f 3f be
       -0.067875355 -0.21957968 -0.090836436 -0.18707041
000050 4e e1 63 be 95 78 0a be c5 6d a4 bd d5 f5 48 bd
       -0.22253916 -0.13522561 -0.080287494 -0.04906257
000060 ea 29 0f 3f 5f 2c b0 3e ed e9 b5 bd 08 5a c7 bd
       0.5592333 0.34408852 -0.088825084 -0.09733969
000070 a1 8c 14 bc d0 49 7d be 7b d7 be bd d9 10 4a bd
       -0.009066732 -0.24735188 -0.093184434 -0.049332473
000080 19 73 b4 bd 92 6b 90 bb be 98 bb 3d 3b d6 66 bd
       -0.08811016 -0.0044073546 0.09159993 -0.05635665
000090 2d 6a 41 bd 87 a2 dc 3d a9 c3 1b bd b6 9e 18 be
       -0.047220398 0.10773187 -0.038028393 -0.14904293
0000a0 25 16 90 bd b4 93 91 bc 47 89 34 be 6b bd 34 3e
       -0.07035474 -0.017770626 -0.17630492 0.17650382
0000b0 52 d1 14 be 21 c8 86 bd 92 0b 3b 3d 4e 1c 56 bd
       -0.14532974 -0.0658114 0.04566533 -0.052273087
0000c0 c9 37 e3 bd ab ec f6 bd 4e d3 9e be 64 89 78 bc
       -0.110946245 -0.120568596 -0.31020588 -0.015169475
0000d0 15 31 2e be 4c 0d b3 bc c6 1f e0 bc 72 60 83 3d
       -0.17010911 -0.021856926 -0.0273589 0.0641488
0000e0 08 a3 c8 3c fb ba 57 be 5b fc d7 bd b7 69 af bc
       0.024491802 -0.21067421 -0.1054618 -0.021412713
0000f0 0b fc cb bd d2 56 56 bd 55 8e 3f bd ae 16 07 3f
       -0.09960183 -0.052328892 -0.046766598 0.5276898
000100 aa 92 c3 be e7 7a f8 bd be ac 63 bd d8 0f cc bd
       -0.38197833 -0.12132817 -0.05558466 -0.099639595
000110 28 68 bf bd f1 d5 14 be 45 d6 54 be 82 eb 24 bd
       -0.09346038 -0.14534737 -0.20784862 -0.04026366
000120 2e 26 81 3d ab a5 86 bc 3a 7c 36 3c 2c c3 01 bd
       0.0630611 -0.016436419 0.011138016 -0.03168027
000130 cf e4 dd bc d5 53 f6 bd 03 26 cb bd 70 54 a6 bc
       -0.027086644 -0.120277084 -0.099193595 -0.020303935
000140 aa 92 fc 3c 20 70 27 bd f6 b5 6f 3b 16 d9 22 be
       0.030831654 -0.040878415 0.0036576963 -0.15903124
000150 d2 1c a6 3d c3 c1 66 bd ba f1 ec bc 2d 05 3f be
       0.08110966 -0.05633713 -0.028923858 -0.18654318
000160 47 96 85 be 1e 51 f1 3c 60 85 d9 bc 7f 67 8d bd
       -0.26091215 0.029457625 -0.026552856 -0.06904506
000170 57 71 3a bc 13 b9 7e bd c5 a9 82 bc 74 97 5f bd
       -0.011379561 -0.06218822 -0.015950093 -0.054587796
000180 e0 33 9c bd 62 6b 7a bd 73 4e 90 bd 34 a7 4c be
       -0.07627082 -0.061137564 -0.07046213 -0.19985658
000190 92 56 b9 bd 5d 0d 1c bd 2d d0 04 be f8 f7 a6 bd
       -0.09049715 -0.03809868 -0.12970038 -0.08152765
0001a0 82 e1 4c 3f 3a fb e2 bd a1 82 0d 3b 69 a5 5a 3c
       0.800316 -0.11083074 0.0021592753 0.013345101
0001b0 af eb 5e be ad f6 20 3f 26 80 02 be a3 19 48 be
       -0.21769594 0.628764 -0.12744197 -0.1954103
0001c0 91 13 a4 3b 36 99 89 bd 14 2f 0a bd 30 01 f9 3e
       0.0050072153 -0.06718676 -0.033736303 0.48633718
0001d0 cc 22 f1 bd 74 7e f2 bd 11 e7 ae bd 62 61 c5 bd
       -0.11774215 -0.11840525 -0.08540166 -0.09637715
0001e0 5d e1 d9 bd 93 c2 ed 3d e6 3b ae 3d af 7b 9b be
       -0.10638688 0.11609378 0.085075185 -0.303678
0001f0 79 a6 b6 be ce 8f 94 bc 6a f3 94 bd cf fd f3 bc
       -0.35673884 -0.018134978 -0.0727299 -0.029784111
000200 f7 4b 67 bc 5f ec 85 bd 0d 02 35 bc 25 7a 74 be
       -0.0141172325 -0.06539225 -0.011047852 -0.2387472
000210 fc 64 3d be e4 f0 9e be 46 d6 23 3e d0 a0 64 bd
       -0.18495554 -0.3104316 0.15999708 -0.055817425
000220 7d 58 03 be 46 fd 42 bd 24 82 3c bc 38 71 07 bd
       -0.12826724 -0.04760482 -0.011505637 -0.03306696
000230 79 40 03 bd a8 31 c2 bc 2c 07 fb bd ec 24 51 bd
       -0.032043908 -0.023705319 -0.12257227 -0.051060602
000240 98 a8 76 bd 14 d6 ee 3c f6 58 36 be 34 80 4d bd
       -0.060219377 0.029154815 -0.17807373 -0.050171092
000250 14 fc 26 bd 14 9a e7 bc ac e2 a6 bc 70 18 98 bd
       -0.040767744 -0.028271712 -0.020371757 -0.07426536
000260 5d b5 50 bd 4d e2 83 3c 88 d9 2a bd 0c 81 3d bd
       -0.05095421 0.01609912 -0.04171136 -0.046265647
000270 ac d2 d7 bc c9 5c 94 bd a7 0d ae bd 6c 5c a3 3d
       -0.026345573 -0.0724426 -0.08498698 0.079766124
000280 9a 20 e3 bd 47 b9 85 bc 2a 57 90 bd ee 4c 01 be
       -0.11090203 -0.016323699 -0.07047875 -0.12627003
000290 85 a1 28 bd 91 cf 7e bd 7b 33 b2 3d 09 5e 95 3e
       -0.041169662 -0.06220967 0.08701225 0.29173306
0002a0 81 3c 31 3d 32 87 02 be 07 a7 a5 bd 5c 6a d3 bd
       0.04327059 -0.12746885 -0.080884986 -0.10323021
0002b0 95 e4 a7 be 62 db 93 be e7 9d 1d bd c6 ad 89 ba
       -0.32791582 -0.28878313 -0.038480666 -0.0010504059
0002c0 6c e6 91 bc 6b 16 ad 3c 70 7a 07 be bf 15 47 bd
       -0.017810069 0.021128854 -0.132303 -0.048604723
0002d0 af 3e 3d bd 7d ba b4 3c c6 99 64 be 60 8c 11 be
       -0.046202358 0.02206158 -0.22324285 -0.14213705
0002e0 e1 cd 8d bd 52 66 b6 bd 07 5a 52 bd 0b 7a ab bd
       -0.06924034 -0.08906235 -0.051355388 -0.08372887
0002f0 fc ec c5 3d fd 0a 2c be fb 4f 80 bc 14 00 7f bd
       0.09664342 -0.16801067 -0.015663138 -0.062255934
000300 c9 cf 27 bd 98 b8 51 be bb 54 5c bd 57 0b e5 b7
       -0.040969644 -0.20480573 -0.053791743 -2.7304208e-05
000310 98 6c da bd 0b 46 9b be d7 0f 8b be 94 f4 ca bd
       -0.10665244 -0.30326876 -0.27160522 -0.09909931
000320 6a 51 4e bd 09 b3 0c bd 34 07 73 bd 49 75 fd be
       -0.05037061 -0.03435043 -0.05933304 -0.49503544
000330 99 05 a3 bb 0d a6 a9 3c 05 67 70 bd 56 24 44 bd
       -0.0049750325 0.020709062 -0.058691997 -0.047886215
000340 0b 75 16 3c 62 b5 be bd 23 4a 1f be 44 2f 2f be
       0.009183179 -0.0931194 -0.15555625 -0.17107874
000350 cf 0a 04 bd 4c 09 8b bc 63 cb db bc b5 a4 1f be
       -0.03223687 -0.016972207 -0.02683038 -0.15590174
000360 1c d1 db bb d1 03 f5 bd 21 20 db bd 1a 1f e6 bc
       -0.0067082774 -0.119636185 -0.106994875 -0.028091002
000370 06 db 35 be 59 5e 8c be 3e 22 30 be 1a 7c e0 bd
       -0.17759332 -0.27415732 -0.17200562 -0.109611705
000380 76 63 9c 3d b8 b7 9d be 31 c9 26 3b 63 80 d9 bc
       0.07636158 -0.3080423 0.002544951 -0.026550477
000390 df 89 d7 bd df 7f 5e bd 41 dd 85 3c d5 e6 60 bd
       -0.10524344 -0.054321166 0.016340854 -0.05490764
0003a0 a5 d9 26 be 58 a8 a9 bd 0a 19 00 bd e4 90 5d bd
       -0.16293962 -0.08284062 -0.03127388 -0.054093257
0003b0 88 68 22 be 54 0c 19 be 10 fa 53 be b4 cd 81 bd
       -0.15860188 -0.14946109 -0.2070086 -0.06338063
0003c0 26 8c 15 3f 6c 8b 1d bd 32 b8 56 bc c3 75 91 bd
       0.58416975 -0.03846304 -0.013105439 -0.071025394
0003d0 51 43 b7 be 1f 90 b4 bc f2 43 e6 bd 25 c8 af 3d
       -0.35793546 -0.022041379 -0.11243428 0.085830964
0003e0 c8 e8 18 be e7 cb 1c 3d 17 cc 01 bd 59 65 71 bc
       -0.14932549 0.038280394 -0.031688776 -0.014733636
0003f0 70 90 9d 3c 21 25 bb 3e 5a b7 65 bd 44 bc b7 bd
       0.019233912 0.36551765 -0.05608306 -0.08971456

conv4.lin.weight f4 [256, 128]
000000 3e 24 e5 bd 4e 32 db bc 0a d9 82 3d 64 b8 d6 3d
       -0.11188553 -0.026757386 0.06389053 0.104843885
000010 66 b2 f0 bb c2 cb 13 bb 2f 84 c1 bc 6f fd 5c be
       -0.0073454855 -0.002255187 -0.0236226 -0.21581052
000020 e0 c0 46 bd c3 2a 9a 3d 55 93 16 3d 83 55 0c 3c
       -0.048523784 0.075276874 0.0367616 0.008565309
000030 b2 3d 24 bd c3 fe 1c 3e a6 57 49 bc d6 2d 12 3d
       -0.0400979 0.15331559 -0.012288963 0.035688244
000040 67 f6 df bd 00 5a fb bd 8c 7f 35 be c6 18 b9 bc
       -0.109356694 -0.122730255 -0.17724437 -0.02259482
000050 f4 59 82 3d 6f 2d 8e be c8 ae b1 3b 41 b6 d3 3d
       0.063648134 -0.27769038 0.005422447 0.103374965
000060 79 93 39 3c 17 cd 87 bc 52 5d d8 3d c2 fe 4d 3a
       0.011326664 -0.016577287 0.105646744 0.0007858091
000070 57 45 e3 3d ac 11 8f 3d 3b f3 80 bd 76 0c 6e 3b
       0.1109721 0.069857925 -0.062963925 0.0036323345
000080 a9 47 fa bd 24 08 ee bd aa de 83 3d 2e 45 4e be
       -0.12220699 -0.116226465 0.06438954 -0.20143577
000090 98 04 5b be 11 0a 9c bd 24 65 8c bd 0c 58 0c 3e
       -0.21388471 -0.076191075 -0.068552285 0.13705462
0000a0 a9 9e 63 3d f8 7c ba 3d ac 04 b8 bd 95 f2 74 be
       0.055571232 0.09105867 -0.08985266 -0.23920663
0000b0 42 2d 86 bd b3 7d 85 bd 2b 7e 2a be 25 2e 42 3d
       -0.06551601 -0.06518116 -0.16649692 0.047407288
0000c0 d7 c5 08 be 44 78 0c 3c 7b c5 4f be 88 99 e6 bd
       -0.1335672 0.008573595 -0.20290177 -0.112597525
0000d0 89 40 e9 ba 12 e1 c5 ba ab 5e 2b 3b b5 da 19 be
       -0.0017795722 -0.0015096983 0.0026148956 -0.15024836
0000e0 82 40 8b 3d 31 8b 4e bd be 11 aa bd 9f 9d 14 ba
       0.06799413 -0.050425712 -0.08304165 -0.00056692393
0000f0 9f f8 a4 3c 74 d9 ff bd 98 49 75 3d 15 e3 75 bc
       0.020138083 -0.12492648 0.059884638 -0.015007754
000100 73 91 f5 bc b9 2e dd bd f9 b9 d9 bd 48 c8 f0 bd
       -0.029976582 -0.10799927 -0.106311746 -0.117569506
000110 ea 89 47 3d 8a e6 18 be b5 32 f7 bd 44 90 70 3c
       0.04871551 -0.14931694 -0.120702185 0.014682833
000120 c4 a3 d7 b9 c3 bb 34 3d 12 7b 48 bd 45 62 ec bb
       -0.0004113001 0.044124376 -0.048945494 -0.007213863
000130 7c b7 87 3d 40 39 e5 bc 9f 1c 21 bd 8a 58 21 bd
       0.06626794 -0.0279814 -0.039333936 -0.039391078
000140 6b 46 f3 3d be 6b e4 bb 30 68 25 bb 23 3e 21 bd
       0.118786655 -0.0069708517 -0.0025239103 -0.0393659
000150 e5 8c 91 be d0 f8 62 3d 69 3e 8e ba 78 db 9b bd
       -0.28427806 0.055413067 -0.001085234 -0.0761022
000160 26 fa 1c 3c 59 78 f5 3b 83 f6 fd 3d 33 0d 83 3c
       0.009581124 0.007491153 0.12400534 0.015997505
000170 45 df d7 3c 77 03 28 be 3a bc dd bb 04 77 12 be
       0.02635158 -0.16407572 -0.006766823 -0.14303213
000180 fb 66 19 bd 0b 3d 71 be 83 fc 68 bd 38 7a a7 bd
       -0.037451725 -0.23558442 -0.05688144 -0.08177608
000190 e4 0d 94 3d 16 a4 4d be 6b 63 8a 3c 65 30 a1 bc
       0.07229212 -0.20082125 0.01689311 -0.019676397
0001a0 f1 c7 6f be 0a 3d 76 bd e0 8f 6c bc 4c 1e 1c be
       -0.23416115 -0.060116805 -0.014438599 -0.15245932
0001b0 fc 56 8a be 88 7d f5 3b 53 9b 8d bc f3 89 d7 ba
       -0.2701949 0.007491771 -0.017285978 -0.001644431
0001c0 cf b5 0d 3e 78 72 6e 3d f5 f5 f6 bd 6c ac e1 3c
       0.13838886 0.058214635 -0.12058631 0.027548037
0001d0 07 b3 9d be 2b 90 dc bd c6 1c a3 be 6f 03 8c 3d
       -0.3080065 -0.10769685 -0.3185789 0.068365924
0001e0 52 58 89 bd e1 4c a1 3c cc 7f ad 3d 8e 36 3e bb
       -0.06706299 0.019689979 0.08471641 -0.0029024216
0001f0 c8 47 99 bd 41 d4 69 bd a2 aa f3 bb ec 74 69 bd
       -0.07484394 -0.057087187 -0.0074361125 -0.05699627
000200 ee 0e a7 3b 93 e0 d2 bd ef 9d c7 bd 99 ab 31 3d
       0.0050982153 -0.102967404 -0.0974692 0.04337654
000210 1a 90 34 bc 90 a1 e6 3c a1 11 f0 bd 98 76 76 bd
       -0.011020685 0.02815321 -0.117221124 -0.060171694
000220 8a 24 c0 bc ba cc 0a bc f9 b5 17 3c 94 eb 65 3d
       -0.023454923 -0.008471662 0.009259694 0.056132868
000230 26 02 6b bc 5b f1 8f bd d8 04 2a bd 0e f2 0c bd
       -0.014343774 -0.07028457 -0.041508526 -0.03441053
000240 fc 19 e8 3b 94 fb 14 3d fc 3e b8 bd c9 a2 a7 bc
       0.0070831757 0.036372736 -0.08996388 -0.020463364
000250 64 4b 08 3d 6c 08 d5 bc f1 2e 91 bd 73 3d 47 3d
       0.033275023 -0.026004992 -0.070890315 0.048642587
000260 14 9c 34 bd 9c 3a d7 bc 35 cf 2d bd 8d c1 aa bd
       -0.04409416 -0.026273064 -0.042433936 -0.08337698
000270 c9 ce a5 3d b5 72 6d bd 40 dc 8d bd c2 eb 86 bc
       0.08096082 -0.05797072 -0.06926775 -0.01646984
000280 ab 26 ef bd 7f 17 7b bd 48 04 fc 3c ec 43 69 bd
       -0.11677297 -0.061301704 0.03076376 -0.05694954
000290 03 d1 f0 bd c5 21 c8 3c 2a 49 95 bb 1d 99 dd 3d
       -0.11758616 0.024430165 -0.004555841 0.1082022
0002a0 6e 76 50 bd dc ae 49 bd 29 28 fc bc 83 34 82 3d
       -0.050894193 -0.049239025 -0.030780869 0.06357672
0002b0 ae 7d 85 bd d2 4f 0d bd 7f fe e2 bc a8 e4 df 3c
       -0.06518112 -0.03449995 -0.027709244 0.027330711
0002c0 bc c7 8b 3b 53 e3 cc 3d 09 8d 99 bd bf de 1a bd
       0.0042657536 0.10004296 -0.074976034 -0.037810083
0002d0 bf 92 9c bc 43 61 d1 bc 55 7f d0 3b 87 fa 2e bc
       -0.019112943 -0.025559073 0.0063628354 -0.010679848
0002e0 ca 08 62 bc f5 a3 a5 bd f1 e8 dd bd c3 fe 8b 3c
       -0.013796041 -0.08087913 -0.10835446 0.017089253
0002f0 41 76 c7 3c 22 62 e3 3c 43 70 df bc 3b ba 29 bd
       0.02434838 0.027756754 -0.02727521 -0.04143737
000300 b6 8b 68 3d 2c e8 40 bc c2 49 a2 3c d3 be 05 3d
       0.056773864 -0.011774104 0.019810561 0.032652687
000310 76 ab 25 3d 56 68 1b be 98 f9 0f bd ae 12 f3 ba
       0.04044672 -0.1517652 -0.03515014 -0.0018544996
000320 e0 70 a1 bd f7 2b db 3c b9 20 14 bd 60 8f 4d be
       -0.07882857 0.026754363 -0.03616402 -0.20074224
000330 c5 ae d7 bd 67 8e d4 3b c2 a3 09 bd 03 b3 fe bc
       -0.105313815 0.0064867022 -0.033603437 -0.031091219
000340 dd 9a f0 bd ac 24 21 3d e3 72 3e 3d ee 59 0f bd
       -0.11748288 0.039341614 0.046496283 -0.034997873
000350 33 d0 e1 bd 83 22 c8 bd 11 fb b9 bc b3 55 18 bd
       -0.11026039 -0.097722076 -0.022702726 -0.037191104
000360 8b 72 8a bd 9c 4d c4 3c 12 de 4e 3c 84 43 5e bd
       -0.067601286 0.023962788 0.012626188 -0.054263607
000370 50 76 3a be a2 18 c9 bd 05 a9 05 bd e0 1b c9 bc
       -0.18209195 -0.098191515 -0.032631893 -0.024549425
000380 1b 7d 83 bd 3b 29 3b bd 4f 7f 2b bd 8c 6f 28 3d
       -0.06420346 -0.045693617 -0.041869458 0.041122004
000390 e1 f4 8c bd 05 97 f3 39 a0 5a a4 bd e7 55 f3 bd
       -0.068826444 0.0004646109 -0.08025098 -0.11881619
0003a0 75 87 52 bd 9d 1b 4a bd b6 ec 35 bd b6 3c a4 3b
       -0.051398713 -0.04934274 -0.0444152 0.00501212
0003b0 37 28 b4 bb fb 15 40 3c 80 72 c4 bd 08 b7 f1 3c
       -0.005497958 0.011723991 -0.09592152 0.029506221
0003c0 fe de 7b bc 8d 2c f3 3c 18 6a b3 bd 7f 55 71 bd
       -0.01537299 0.02968433 -0.0876047 -0.058919426
0003d0 4f c7 fb 3c eb b3 0c 3c c5 15 08 be 3a 96 38 3d
       0.030734686 0.008587818 -0.13289554 0.045065142
0003e0 f6 c6 04 3d 4f 85 01 3d 62 9d 11 3c ee 75 bb 3c
       0.032416306 0.031621274 0.008887621 0.022883382
0003f0 c2 38 6a bd 1c 3e 8c bd e2 11 79 bc 5a 56 38 3d
       -0.057183035 -0.06847784 -0.0152020175 0.045004226

conv5.bias f4 [256]
000000 73 9e 26 35 b2 ea 16 38 79 91 0f b6 c8 44 34 37
       6.2070393e-07 3.5981364e-05 -2.1393337e-06 1.074485e-05
000010 cb 56 3b 38 f2 3d 42 b7 e1 85 ca b7 94 09 07 b8
       4.4665107e-05 -1.1577724e-05 -2.4142619e-05 -3.219543e-05
000020 7a 2c 62 b6 cb 04 c8 b5 7c eb 8e 38 b2 b6 f2 b3
       -3.3702513e-06 -1.4902556e-06 6.81495e-05 -1.1302235e-07
000030 87 e0 43 38 a3 09 b4 36 ec 2e 36 38 ac 33 cf 37
       4.670073e-05 5.36554e-06 4.343588e-05 2.4700385e-05
000040 bc 8c 13 b7 c5 14 11 b7 1b b5 1f 36 ae bf 7f 37
       -8.79465e-06 -8.647509e-06 2.3798264e-06 1.5243813e-05
000050 39 4e ac 34 01 59 3e 36 89 80 8d 38 b2 18 c0 b7
       3.209441e-07 2.8364013e-06 6.7473455e-05 -2.2899683e-05
000060 cc f4 c0 36 80 e7 f2 b6 f6 18 f7 32 e4 68 66 36
       5.750544e-06 -7.239112e-06 2.8765935e-08 3.4333725e-06
000070 f2 cc 8d 36 94 d8 c9 36 66 08 27 b6 48 87 99 37
       4.2259862e-06 6.01548e-06 -2.4889828e-06 1.8302017e-05
000080 02 97 b0 37 7c ac 35 37 45 d9 f6 b5 a9 04 2c 38
       2.1051153e-05 1.08286e-05 -1.8391662e-06 4.1012336e-05
000090 15 be c0 36 39 df e3 37 a5 b0 14 36 6e b1 1f 38
       5.7441744e-06 2.7164455e-05 2.215654e-06 3.80738e-05
0000a0 6b 59 40 37 a9 cd 5a b8 b4 0a 3b 33 f1 37 86 37
       1.1464911e-05 -5.2166786e-05 4.3549065e-08 1.6000095e-05
0000b0 06 c3 aa 38 7f d5 74 b7 92 f7 20 38 57 ee 62 37
       8.1425576e-05 -1.4593242e-05 3.837754e-05 1.35261425e-05
0000c0 bd 41 a6 35 20 ea ad b7 a7 bf 94 37 b6 d1 7e 38
       1.2387096e-06 -2.073223e-05 1.773222e-05 6.0753628e-05
0000d0 6b 84 fb 36 6e f3 b4 b3 5f 5e a1 38 a0 d2 94 b8
       7.4957984e-06 -8.426183e-08 7.694656e-05 -7.096422e-05
0000e0 ec c4 8b b5 c1 52 01 b8 68 af 88 b7 7c ff 16 b8
       -1.0413619e-06 -3.0833067e-05 -1.6294143e-05 -3.6000725e-05
0000f0 f9 6f 6c 34 d1 b6 96 b7 e0 39 53 b8 2d bf 4b 35
       2.2019948e-07 -1.7966524e-05 -5.036022e-05 7.590159e-07
000100 2e 34 7d 38 85 0a be b6 23 bc 20 37 39 f6 0a 37
       6.0368497e-05 -5.663666e-06 9.580547e-06 8.282769e-06
000110 36 44 13 b5 4c c5 68 37 d5 a3 ea 37 03 68 b9 35
       -5.486103e-07 1.3874214e-05 2.7971264e-05 1.3813845e-06
000120 e2 ad b9 37 62 ab f4 37 4f 7a aa 37 56 0c 70 36
       2.2134689e-05 2.9166873e-05 2.0322534e-05 3.5769967e-06
000130 3e fb 1c b7 f0 84 42 38 c8 47 0d 38 58 27 30 b7
       -9.3568215e-06 4.6377012e-05 3.368387e-05 -1.0499578e-05
000140 2d 20 50 b7 e7 dc 9c b7 79 29 23 b8 18 22 82 37
       -1.2405258e-05 -1.8699515e-05 -3.8900853e-05 1.5513084e-05
000150 67 3d a6 b5 09 82 6c 35 24 30 bb b7 28 2e a1 b7
       -1.2385834e-06 8.8106077e-07 -2.2314554e-05 -1.9214189e-05
000160 8c e7 dd 37 82 27 c9 36 e6 64 87 37 0a 1d 20 b7
       2.6453075e-05 5.994866e-06 1.6140239e-05 -9.543504e-06
000170 57 05 0b 37 61 37 de 36 e9 c0 82 36 7d 03 6b b7
       8.286289e-06 6.6225625e-06 3.8967596e-06 -1.4007904e-05
000180 1b 95 3b 36 2d 77 bd b7 e7 2e e6 b7 6a eb 3c 38
       2.7951962e-06 -2.2586051e-05 -2.7439977e-05 4.504194e-05
000190 e2 1e fd b6 72 16 5d 37 f8 78 14 37 2d af d6 37
       -7.543583e-06 1.3177852e-05 8.849653e-06 2.559236e-05
0001a0 9c af 9a b7 96 e5 c4 b6 1b e4 e7 b7 4f 07 a2 b7
       -1.8440005e-05 -5.8679825e-06 -2.7643566e-05 -1.9315308e-05
0001b0 68 e8 fb b7 8d e4 1d b7 76 9f 54 38 9c a8 61 b6
       -3.0029754e-05 -9.411143e-06 5.069325e-05 -3.3625756e-06
0001c0 fd 46 3f 38 b8 55 1e 36 cc 02 df b7 3f 9c 5c b8
       4.560406e-05 2.359373e-06 -2.6584974e-05 -5.2597603e-05
0001d0 fa 99 53 b7 81 95 0e 38 03 de a2 38 26 7e a4 37
       -1.26124305e-05 3.3994675e-05 7.766115e-05 1.9609066e-05
0001e0 09 b4 89 b7 72 c1 0a b8 8c 71 88 38 7b fe b4 b6
       -1.6415508e-05 -3.3081924e-05 6.506135e-05 -5.3940435e-06
0001f0 47 20 8c b7 25 9d 1e 37 b0 c3 7a 36 8a 9c 7b 38
       -1.670433e-05 9.454122e-06 3.7366808e-06 5.998885e-05
000200 58 c1 e1 b7 fe 40 15 b7 9f 03 00 b8 47 11 25 b8
       -2.6912123e-05 -8.896224e-06 -3.052095e-05 -3.9355156e-05
000210 7f 5b e2 b7 6d d3 98 38 e3 41 f3 37 04 91 4a 38
       -2.6983906e-05 7.287306e-05 2.8998538e-05 4.829561e-05
000220 c2 75 fd 37 a8 03 00 39 b7 3b 77 b5 a9 d9 3e 38
       3.0214786e-05 0.00012208393 -9.2101567e-07 4.5502242e-05
000230 db b0 67 b7 db be b1 38 ce f9 e8 b8 74 97 bd b6
       -1.380985e-05 8.475567e-05 -0.00011109152 -5.6502704e-06
000240 6a cf a7 b6 35 75 2d 35 21 64 3e 36 d3 b2 dd 38
       -5.001134e-06 6.461808e-07 2.837049e-06 0.0001057141
000250 68 5e da 37 ff c8 0c b8 b5 bc d5 b6 8e f2 16 37
       2.6031586e-05 -3.3565793e-05 -6.369863e-06 8.997171e-06
000260 53 83 aa 37 4a 20 1f 38 9e a3 e2 b6 a6 cc b6 36
       2.0326732e-05 3.7938626e-05 -6.7543724e-06 5.447847e-06
000270 a3 6e 44 b6 47 42 54 36 f8 14 37 37 f4 42 7f 37
       -2.9270675e-06 3.162904e-06 1.0912532e-05 1.5214773e-05
000280 3f bd cc 38 69 c8 33 38 85 a1 62 b7 5e 7b 9a 37
       9.762728e-05 4.2863572e-05 -1.3508256e-05 1.8415678e-05
000290 6b cf 0c 38 98 ed bd 36 95 3a b3 34 ef 2b cf b8
       3.3571774e-05 5.6602985e-06 3.3383972e-07 -9.8787124e-05
0002a0 50 10 bb b7 cc 04 9b 35 43 84 08 37 10 94 1d 37
       -2.2299733e-05 1.1549796e-06 8.137026e-06 9.392403e-06
0002b0 f0 81 fe 37 2c 72 85 38 6e cd c3 b8 98 b2 79 b6
       3.0339666e-05 6.3632004e-05 -9.336589e-05 -3.7207847e-06
0002c0 b7 c9 57 36 f3 73 90 37 eb 5d 4b b8 e2 8a 82 35
       3.215491e-06 1.722013e-05 -4.848644e-05 9.726175e-07
0002d0 30 cb 02 b7 af e1 b3 37 14 d3 cd b7 f2 a1 f0 37
       -7.795912e-06 2.1443555e-05 -2.4536195e-05 2.8685641e-05
0002e0 47 b7 58 b8 59 2f b1 35 5c c4 1c 38 fb ba 13 38
       -5.1669103e-05 1.3201308e-06 3.7376172e-05 3.522167e-05
0002f0 77 52 6d 37 cd 2e 85 b8 5c 32 4c b7 37 31 4c b7
       1.4145501e-05 -6.3506515e-05 -1.2171073e-05 -1.2170806e-05
000300 8b 0e b2 37 0a 6b 22 b9 5a 50 f6 b5 43 bf 8e 33
       2.1226026e-05 -0.00015489399 -1.8351814e-06 6.6471806e-08
000310 46 1a aa b8 0e 71 de 38 e9 6f d2 36 aa f6 ce 38
       -8.1111255e-05 0.00010606843 6.2715158e-06 9.86879e-05
000320 3d 5b b6 35 2d b4 b0 b6 0f da 27 38 b0 61 83 35
       1.358661e-06 -5.266184e-06 4.0018986e-05 9.788691e-07
000330 ad b6 a3 37 0d c5 0c 37 47 c9 e9 36 06 c4 b3 b7
       1.951618e-05 8.39053e-06 6.967373e-06 -2.1429743e-05
000340 46 8d d7 b5 1f 39 27 b8 61 76 20 b7 a0 ed 1f 38
       -1.6059864e-06 -3.98691e-05 -9.564305e-06 3.812986e-05
000350 de 12 65 36 91 cc 27 36 32 6c 6b b6 4e 4e 94 36
       3.4134641e-06 2.5004013e-06 -3.5080707e-06 4.4198596e-06
000360 a4 4b 86 38 90 30 53 34 13 e9 8e b7 06 c4 c0 37
       6.403707e-05 1.9668573e-07 -1.7036253e-05 2.2979464e-05
000370 54 b5 58 b6 4a 58 c9 b6 bc d7 95 37 62 ab a3 38
       -3.2292055e-06 -6.000545e-06 1.7862643e-05 7.804368e-05
000380 d7 a5 96 38 bf 07 14 37 16 7c c9 b6 62 43 38 37
       7.1834475e-05 8.823291e-06 -6.0047123e-06 1.0982943e-05
000390 f4 ec 44 37 c0 fb 31 b8 3f 94 45 37 44 93 98 36
       1.173768e-05 -4.243455e-05 1.1776631e-05 4.547097e-06
0003a0 4a 52 ad b4 b3 e5 28 b8 2d 2f 84 b7 6e 36 e5 37
       -3.2283634e-07 -4.0268245e-05 -1.5757594e-05 2.7324273e-05
0003b0 5b 41 96 b7 3f b6 b6 b7 cb 92 71 35 95 8b c7 b3
       -1.7911827e-05 -2.1780956e-05 8.999311e-07 -9.2920494e-08
0003c0 a5 88 1a 37 6f 5f 4b b8 24 f5 06 37 3c 9b 8d 36
       9.21093e-06 -4.848785e-05 8.044099e-06 4.220199e-06
0003d0 55 76 46 b6 d2 72 f5 37 f0 15 8c 36 6d a1 57 b8
       -2.9573177e-06 2.9259743e-05 4.174879e-06 -5.1410334e-05
0003e0 dd 4c a1 b7 ad d6 6c 37 d8 03 98 b7 38 ee 91 b6
       -1.9228488e-05 1.4116679e-05 -1.8121602e-05 -4.349069e-06
0003f0 6a 36 54 38 e3 79 0a 38 08 74 ed 37 74 3c 9d 37
       5.0595416e-05 3.301528e-05 2.8306633e-05 1.874401e-05
