weights/8-20_split_2.pt (torch, 473380 bytes, 26 tensors)

conv1.bias f4 [64]
00000000: 5f0a 05b6 dede 2137 5aa1 84b7 b46b edb6
00000010: 4531 3eb7 c076 58b6 0203 c2b2 6d7f 1f36
00000020: a85f 6236 fa2e dd36 80a5 f5b4 8895 c2b7
00000030: b6ec 00b6 6279 7bb6 0786 a9b7 f04b 20b5
00000040: a4a4 efb6 affb 83b7 9ed3 9bb6 ad5f 8a36
00000050: 35fe 3c36 2d68 aeb6 8b4a a8b7 c2d9 6137
00000060: 9782 fa35 d493 46b7 a2e3 d0b5 932c b9b7
00000070: 856a 59b7 78e0 abb7 6184 a1b7 8065 11b6
00000080: bdfe 3636 4cd5 b536 a014 d535 2bb8 38b7
00000090: 1585 3a37 93bb eb35 30ae 22b6 77bf 6b35
000000a0: 4a10 01b4 7538 e832 06fa 57b7 21b5 27b6
000000b0: 7768 9a36 9549 61b6 cfa7 c036 f3c0 83b7
000000c0: fc40 e1b6 75db b235 e9ab c736 b4ae 8537
000000d0: 0ed8 c3b5 8e2b d7b5 b91d 7437 8c7e c9b7
000000e0: af66 9cb4 fe8d 6b36 a5e3 0db6 9d45 ac35
000000f0: 3453 a035 a6db 8db7 7cc8 1bb8 8a8e 2cb5
-1.9824581e-06 9.648238e-06 -1.5810761e-05 -7.0756887e-06 -1.1336354e-05 -3.225563e-06 -2.258594e-08 2.3767018e-06
3.3732304e-06 6.591782e-06 -4.5755223e-07 -2.3196233e-05 -1.921127e-06 -3.7472569e-06 -2.0208781e-05 -5.971515e-07
-7.1419217e-06 -1.5733616e-05 -4.6439955e-06 4.1238586e-06 2.816215e-06 -5.1977318e-06 -2.0061872e-05 1.3461746e-05
1.8664458e-06 -1.1836139e-05 -1.5563458e-06 -2.2074475e-05 -1.2959009e-05 -2.0489315e-05 -1.925434e-05 -2.1665765e-06
2.726839e-06 5.4190514e-06 1.5875739e-06 -1.1010135e-05 1.11174495e-05 1.7563456e-06 -2.4241272e-06 8.782294e-07
-1.2019987e-07 2.7034028e-08 -1.2873212e-05 -2.499037e-06 4.601719e-06 -3.3570443e-06 5.7415814e-06 -1.5706266e-05
-6.7130877e-06 1.3325904e-06 5.950675e-06 1.5936188e-05 -1.4591512e-06 -1.6031424e-06 1.4550454e-05 -2.4019995e-05
-2.9131976e-07 3.510038e-06 -2.1143144e-06 1.2835259e-06 1.1945144e-06 -1.6910792e-05 -3.7141595e-05 -6.4282415e-07

conv1.lin.weight f4 [64, 2]
00000000: 9f6c c3be 8e25 cbbc ed74 523c 432f b13e
00000010: fe39 7dbc a1d5 5ebe 279a a0be 1c62 70bd
00000020: 16b6 63be 3b7c fcbd d9ee a73e fecb 523e
00000030: c16f 02bc 5469 b53e 760c 9cbc 6e49 e03e
00000040: e58b ac3e 59d0 873d 99c5 01ba e224 ba3e
00000050: 85a8 a1be bea1 083e bd1a 7fbc 629d 45bf
00000060: 1cd1 2ebd 8889 343e c8be 7a3e 4db1 c73d
00000070: 8961 14be fc3d 80be 331b 0a3e 9eb6 cc3e
00000080: e17e 55be 9f88 0fbe fc6d d53b d943 05bf
00000090: 8d1c 373e 1b89 943e e38a abbc 0548 d93e
000000a0: 7a95 943e 0df8 733e 9ae1 14bf 0379 b43d
000000b0: c3fa 66be 4c3e 7bbe cb9a 233f 56fb 353d
000000c0: 6475 eb3e 28ca e13d 2e8c 33be 3b7a 3cbe
000000d0: 7941 683e f212 833e fd8d 2cbe e5db 65be
000000e0: cbe8 673c b727 fabe 4c35 b8bc 5b46 8fbe
000000f0: 0f5b 28be 2ed7 99be 8fd7 a6be a052 273e
00000100: 04fb dc3e 22c7 e93d dabf 023f 9886 973d
00000110: 107a a4be b9fd 7c3e fb0d 8b3e c140 4a3e
00000120: 2421 1a3c 475c 863e 8c6d bd3b 1fcd 833e
00000130: 40c3 633e c8f9 9f3e 984d acbe e7c0 a13e
00000140: 89cc bcbe ecdc 7f3e d768 b33e a2f8 cf3d
00000150: c116 6dbe 31d8 77be a365 943e d937 243e
00000160: 2b2c c2bd 556f c63e d21b d4be 21b0 603e
00000170: 0fb0 173f 2d07 723d b255 bbbd 6f0b 96be
00000180: 60e5 5a3d fc3c 1e3e 8a93 4bbc e09f ab3e
00000190: e9e4 df3e 76f7 053e 8d62 323f 911e d4bc
000001a0: db3e 90be d9db 643e 6c02 973d 5140 883e
000001b0: 0d80 a03e e183 21be 26c1 b0bd 9dbf abbe
000001c0: 1879 81be 4930 353e 6a5c afbe 2ea5 333e
000001d0: 4962 b93e 0385 213e 2016 033f 122a c83d
000001e0: 83fd 8bbb 326d c43e e1f3 39be 98f8 aabe
000001f0: 5523 e53c 0f90 bbbe 3713 b0be e29f 453e
-0.3816881 -0.02479818 0.01284526 0.3460637 -0.015455721 -0.2176118 -0.3136761 -0.058687314
-0.22237429 -0.123283826 0.32799414 0.2058563 -0.0079612145 0.3543192 -0.01904891 0.43806022
0.3370048 0.06631536 -0.0004950404 0.36356264 -0.31573883 0.1334295 -0.01557034 -0.7719327
-0.04267989 0.17630589 0.2448684 0.09750614 -0.14490332 -0.2504729 0.13486938 0.39983076
-0.20849182 -0.1401696 0.0065133553 -0.5205665 0.17881985 0.29010853 -0.02094025 0.4243776
0.29020292 0.23825093 -0.5815674 0.08812144 -0.22556596 -0.24535483 0.6390807 0.044429146
0.45988 0.11024886 -0.17533943 -0.18406002 0.22681226 0.25600392 -0.16851039 -0.22447164
0.014154623 -0.48858425 -0.022486351 -0.27983364 -0.16440986 -0.30046982 -0.32586333 0.16340113
0.4316026 0.11414935 0.5107399 0.073987186 -0.32124376 0.24706163 0.27159104 0.19751264
0.009407315 0.26242277 0.0057808813 0.25742432 0.2224245 0.31245255 -0.3365295 0.31592485
-0.36874798 0.24986619 0.35040924 0.10154845 -0.23153211 -0.24203564 0.28983793 0.16036929
-0.094810806 0.38756815 -0.41427475 0.21942188 0.5925302 0.059088875 -0.091472045 -0.29305598
0.053441405 0.15452951 -0.012425313 0.33520412 0.43729332 0.1308268 0.69681627 -0.025893481
-0.28172955 0.2234949 0.07373509 0.2661157 0.31347695 -0.15772964 -0.0863059 -0.33544627
-0.252877 0.176942 -0.34250194 0.1754348 0.36207798 0.15773396 0.51205635 0.09773649
-0.0042721643 0.3836456 -0.18159439 -0.33392787 0.02797095 -0.36633345 -0.3438966 0.19299272

conv2.bias f4 [64]
00000000: a1a8 5bbd 905b 69be 129c 28bf b474 b7be
00000010: 8aa4 e0be 5317 a5be 92bb 33bc b0de 17bf
00000020: bcef e5be e1ef 833d e339 fabe 816a 85be
00000030: a3cb 803e d20e b8be db46 59bf 5878 e0bd
00000040: 8a72 52bf c55c 0abe ab93 d6bd e76c 49be
00000050: f9a9 64bf 6856 cf3d dfbf 4fbe cf55 2abe
00000060: 2a5b 343d fd01 b7be be8a 83bf 5ffa 31be
00000070: 2f9c ea3b 5737 2ebf 3a62 2ebe 833a 8fbe
00000080: 9b2e 1bbe ab31 be3e c752 643d 7aac 4cbf
00000090: fff9 50bf 31bb ac3b e553 b93b e0ed 39be
000000a0: 26c2 49be 97c5 06be b9aa 8dbf b841 71bf
000000b0: 96d5 5e3e eaf7 cdbe ba12 7ebe 3100 09bd
000000c0: a9fa 623e 5756 28bf 3d29 38bf d958 ccbe
000000d0: 4e07 2dbe 70db 133c ee5e 8d3e 8790 47be
000000e0: ca98 33bf be73 e1be 071e 30bf 3943 afbe
000000f0: 78ce 8ebe 6681 e1bd b0d5 d8bd 7443 efbe
-0.053627614 -0.22788835 -0.65863144 -0.35831225 -0.43875533 -0.32244357 -0.010970013 -0.5932417
-0.44909465 0.06442238 -0.4887229 -0.2605782 0.25155362 -0.35948807 -0.8487374 -0.10960454
-0.8220602 -0.13511951 -0.10477384 -0.19670449 -0.8932186 0.101239026 -0.20288037 -0.16634296
0.044032253 -0.35743704 -1.0276716 -0.17380665 0.007159732 -0.6805319 -0.17029658 -0.27974328
-0.15154497 0.3714727 0.055743005 -0.7995068 -0.81631464 0.0052713384 0.005655753 -0.18157148
-0.19702968 -0.13161312 -1.1067725 -0.94240904 0.21761164 -0.40228206 -0.24811831 -0.03344745
0.22165932 -0.65756744 -0.71937925 -0.39911535 -0.16897318 0.009024486 0.27611488 -0.19488727
-0.7015501 -0.44033617 -0.6879582 -0.34230974 -0.27891898 -0.11011009 -0.10587633 -0.4673115

conv2.lin.weight f4 [64, 64]
00000000: c0f8 83bd 3da8 56be ff78 3cbe f493 82bd
00000010: 1f58 afbc 14e8 94be 26ce 26be ce38 83be
00000020: 5e13 12bd 93f8 5dbe 4cf3 86be e0f8 9bbe
00000030: 8294 90be 5732 9fbd ccdb 9cbe 5428 e5be
00000040: 737c fabd f985 b63d e56d 73be 3729 88be
00000050: f8db 12be 531d c13c fd50 ffbe 9c93 063e
00000060: ac5e 143e e355 f9be 30b4 94be e3db ecbe
00000070: d7c7 08be 5693 00be 47ca cabe 8060 aebe
00000080: 9897 4b3b 7396 123e 8b93 86be 69da a7be
00000090: 84e2 96be 34d4 9abe 9cc3 a8be a486 17be
000000a0: e7c7 4ebe 0e1c a0bd 0977 7fbe 73c3 3cbe
000000b0: 7d3f ea3d 028e b5be 4b3a eebc 81be a1bd
000000c0: 7c80 98be 4f7c 7abe 7d36 a83d 4161 2a3d
000000d0: 25df 98be ab8b 9cbe eca2 973d 52ee 04be
000000e0: a739 a9be 65a6 a4be 61e7 e73d 01ca 203e
000000f0: fdd3 43be 77a4 8fbe 7184 51be 5eaf aabe
00000100: e6ab 58be f515 083e d7d0 f13d 5f3a bbbe
00000110: c072 98be 9277 b9be 232d 683e 45f8 db38
00000120: 8358 f9be 73a6 3b3e c701 cdbd 037b 86bc
00000130: 2942 873d 9155 8abe c30f 52be 9185 4fbe
00000140: f33b d7be a1e8 a33c be5e 64be 0619 753e
00000150: 2d0a f3be 5fba 903d ced6 c9be 3c49 49be
00000160: 7139 1abf 167a c4be 70c1 33be 948f e2be
00000170: 5043 463a ac30 453d 37cb 6cbe 6dd4 793d
00000180: 6d53 afbe abbf 8dbe 878f d63b 7ad9 92be
00000190: 6bf2 42bd bbda 803e 9f29 5abd 0609 733e
000001a0: 7938 ed3d 0603 0ebf 32f6 f0be 97fb 63be
000001b0: 07dc 1b3e f6d3 3e3c 2768 98be 0a2d 5c3b
000001c0: ddff 0cbd cd38 8b3e 8a91 cdbe c650 9fbe
000001d0: b7fc 853d 13e9 3b3e c951 0c3e 8ca2 913c
000001e0: 7b9f f1bb 787c 043e 6a64 13bf d3ea 66be
000001f0: 828a 933e 2af6 91be 6c00 283e a45f 23be
00000200: a672 403b 01d2 1a3e f34f 443e 767a a3bc
00000210: 6ed1 98bc 4fc6 36be 9c9e 253e be84 0a3e
00000220: 12c2 593e d142 3d3e d9f6 3cbe e589 5a3e
00000230: 1a72 e0bc 3a72 01bc da5a cc3b b562 20be
00000240: 9339 85bd 03a6 fa3d 8d60 10be 53d5 a63e
00000250: af23 99be 32d2 05be 893d b4bd eae2 033e
00000260: 1a9a 293e 2cdf 84be d9e0 0cbe 023f b93c
00000270: d70c 953e 599b a03d 0a48 14be 0292 3dbd
00000280: f125 f0bc 7ec7 633e 8da8 03be e851 3fbe
00000290: 5fb7 543d 9529 263e 9ee1 9cbe f42e 533e
000002a0: b4b3 d23c ae9e 0c3e ef2a a6bd bcd2 1fbe
000002b0: 5f60 e73d 96e9 c53d 0809 5b3e 9e5f aebc
000002c0: 7d25 513c 555d 4f3e 02fb f4bd a137 74bc
000002d0: 83f8 043e f32c 9bbd ee19 603e 497e 333b
000002e0: 5167 d93d ced5 8a3c 03fc 42bc 22b7 f6bc
000002f0: a2bd 273e dfc6 32be 1df5 ec3b ecf3 4e3d
00000300: 02cf 513c c848 06be 7260 28be 5509 823d
00000310: e66a eebc beee 5cbe d09f 033e 1140 a6bd
00000320: 06e5 d0be bb21 c33d de68 a3bd 666a 4dbe
00000330: 03a7 c03c 448d 31be 1f13 26be bf49 1ebe
00000340: c365 95bd 75d4 20be ed1d 41bd 369e 113e
00000350: ed42 a7be 576c 0dbe a6fc b4bb 80c9 c5be
00000360: 7c13 e7be 50a7 86bd a55f 89bd bdef 4bbe
00000370: b600 eebd cd18 50be 65f5 e6bc ec21 14be
00000380: 0c38 9abe 07f3 bdbe 7b9f 1b3e d6ee 02be
00000390: fa84 89be d8da a33d abbe eabb 5d7e 2d3e
000003a0: 53be 043e af6e d1be 27d1 9ebe e9e0 51be
000003b0: ab35 2a3d 158f 943c 7407 a7be 1058 72be
000003c0: 6a33 6fbd 589f acbb 0ec5 19bf ac36 87be
000003d0: 8d4e 1d3e e2a0 193e 10a0 613e d45c 1dbe
000003e0: c1d3 9c3d 75a7 923e 22b4 08bf bac7 b0be
000003f0: 4b99 a33c 8a54 e3bd eb02 093d 2c7e cebb
-0.0644393 -0.20962615 -0.18405531 -0.06375876 -0.021404324 -0.29083312 -0.16289577 -0.25629276
-0.035663 -0.21676855 -0.26357496 -0.30463314 -0.28238302 -0.077732734 -0.30636442 -0.4475733
-0.12230768 0.08912272 -0.2377239 -0.26593944 -0.14341724 0.023573553 -0.49866477 0.13142246
0.1448924 -0.4869834 -0.29043722 -0.4626151 -0.13357483 -0.12556204 -0.3960745 -0.34058
0.0031065699 0.14315204 -0.2628444 -0.3278382 -0.29469693 -0.30240023 -0.32961738 -0.14797455
-0.20193444 -0.07817851 -0.24947752 -0.18433933 0.11437891 -0.35459906 -0.02908053 -0.07897664
-0.29785526 -0.24461482 0.08213518 0.041596655 -0.29857746 -0.30575308 0.07404122 -0.12981537
-0.33051798 -0.321582 0.11323429 0.15702058 -0.19123836 -0.28055164 -0.20460679 -0.3333692
-0.21159324 0.13289626 0.11807411 -0.3656797 -0.29775047 -0.36224037 0.22673468 0.000104889776
-0.48700342 0.18325214 -0.100101046 -0.016416078 0.06604416 -0.27018407 -0.20513825 -0.20265795
-0.42037925 0.020008387 -0.22301766 0.23935327 -0.474687 0.070667975 -0.39421695 -0.19656843
-0.602439 -0.38374394 -0.1755426 -0.44250166 0.0007563131 0.04814212 -0.23124395 0.0609936
-0.34243336 -0.27685294 0.0065478715 -0.28681546 -0.04759447 0.25166878 -0.05326235 0.23733911
0.11583037 -0.55473363 -0.47062832 -0.22263943 0.15220653 0.011647215 -0.29766962 0.0033596181
-0.034423698 0.27191773 -0.401501 -0.31116313 0.06542342 0.1835063 0.13703074 0.017777704
-0.007373748 0.12938106 -0.57575095 -0.22550516 0.2881661 -0.2850812 0.16406411 -0.15954453
0.002936521 0.15119173 0.19171123 -0.019955855 -0.018654551 -0.17849086 0.16173786 0.135272
0.21265438 0.1848252 -0.1845354 0.21341665 -0.027398158 -0.007900769 0.0062364163 -0.15662654
-0.06505122 0.122386955 -0.14099331 0.32584628 -0.29910037 -0.13068464 -0.088007994 0.1287953
0.16562691 -0.25951517 -0.13757648 0.022613052 0.2911136 0.0784213 -0.14480606 -0.046281822
-0.029314967 0.22244069 -0.12857266 -0.18683589 0.05193269 0.162268 -0.30640882 0.2062338
0.025720455 0.13732406 -0.08113658 -0.15607733 0.11297678 0.096636936 0.21390164 -0.021285828
0.012765286 0.20250447 -0.119619384 -0.014905841 0.12985425 -0.07576933 0.21884891 0.0027388504
0.10615409 0.016947653 -0.011900905 -0.030116621 0.16380933 -0.17458676 0.007231368 0.05052559
0.012805702 -0.13113701 -0.16443041 0.06349436 -0.029103708 -0.21575448 0.12853932 -0.081176884
-0.4079973 0.09527918 -0.07978986 -0.20060119 0.023517137 -0.17339045 -0.16218232 -0.1545782
-0.072948 -0.15706046 -0.04714768 0.14220509 -0.32668248 -0.1381086 -0.005523282 -0.38630295
-0.45132053 -0.06574881 -0.06707696 -0.19915672 -0.11621229 -0.20321961 -0.028193185 -0.14466065
-0.30120885 -0.37099478 0.15197556 -0.12786421 -0.26859266 0.080007255 -0.0071638427 0.16942735
0.12963228 -0.40904757 -0.31018946 -0.20495953 0.041555088 0.018134633 -0.32622874 -0.23666406
-0.05839864 -0.0052680187 -0.60066307 -0.264089 0.15361996 0.15002778 0.22033715 -0.15367442
0.07657576 0.28643385 -0.5339986 -0.3452738 0.019970557 -0.11100109 0.03345005 -0.006301662

conv3.bias f4 [128]
00000000: b087 17b7 9caa 4236 37d6 8137 8fe3 23b8
00000010: 9176 cf37 a5b3 4636 0853 cb36 acaa c937
00000020: a4dc 1f38 39ad e536 fc11 8ab8 1edf 8e35
00000030: d6de a737 8c70 a9b6 b712 e237 994d 2e37
00000040: 6c0f 1eb8 1491 d1b7 7248 a837 8821 d2b5
00000050: f0b0 7633 ef7b 91b7 bd98 69b7 9214 bbb8
00000060: ae84 d437 9338 b435 2824 9fb7 b682 2f37
00000070: d438 49b6 4f55 e2b7 97f7 edb7 b0bd 8db7
00000080: ccf6 c537 01c4 19b7 ea18 5b37 e6a3 1936
00000090: 4087 edb6 f64f 4b38 8fbb 3bb6 e119 c536
000000a0: cb0d bbb7 899a fdb7 8342 fc36 8781 dfb6
000000b0: 48de 6636 4d2e d6b7 9270 54b6 430c 9db5
000000c0: 4be8 02b7 8bec 84b7 66f0 69b7 b7fb f7b7
000000d0: 98e1 15b8 5aa1 abb7 4a69 a638 4d1e 74b8
000000e0: b12c 73b6 3bad c736 2aec 70b7 43a7 0eb7
000000f0: 076b 25b8 f4d6 63b7 202b 93b7 17fc f5b7
00000100: ebe7 1138 764d 6437 37d3 53b5 aea8 69b7
00000110: bb13 ce36 b9be 95b7 f8fe d2b5 98dd 1938
00000120: 181f aeb7 4b89 ccb7 8665 6cb7 42fc 6038
00000130: 21a5 0137 d338 60b7 e916 d436 9988 9937
00000140: 06c4 6f36 7186 de36 9d2d bf35 3185 f0b6
00000150: 0e8c 2636 8cd7 87b5 239f 2fb8 8269 fab7
00000160: d8b8 c1b7 32f9 03b8 0fec c8b6 b874 e037
00000170: f6c6 8238 c126 9db7 15da fc36 32bf af37
00000180: 4c31 9336 f65a be36 6937 3e38 49f7 82b6
00000190: 5941 7f36 841d e8b6 3051 55b7 4f6c 5737
000001a0: 982b 21b8 3ab8 b2b6 e9a9 d5b8 bd90 3a36
000001b0: 8879 3237 0c38 5437 9b85 aab7 511b afb7
000001c0: 11db 2132 f371 db37 12c7 abb6 3904 52b6
000001d0: bb9c b937 08af 39b7 af47 8037 b3b3 1536
000001e0: 796c 3137 7cda 7137 2178 4db7 0246 d1b7
000001f0: fa91 ebb7 80ef 5238 91f3 38b8 0f2b deb5
-9.031894e-06 2.900756e-06 1.547775e-05 -3.907416e-05 2.4731535e-05 2.9608866e-06 6.0595376e-06 2.4040542e-05
3.811404e-05 6.8448976e-06 -6.5837026e-05 1.064476e-06 2.0011717e-05 -5.0496947e-06 2.6950014e-05 1.0389275e-05
-3.76845e-05 -2.4982299e-05 2.0060896e-05 -1.5655978e-06 5.7437262e-08 -1.7343058e-05 -1.3923444e-05 -8.9206864e-05
2.5334153e-05 1.342751e-06 -1.8971114e-05 1.0461246e-05 -2.9984412e-06 -2.6981024e-05 -2.8367895e-05 -1.689684e-05
2.3599154e-05 -9.165146e-06 1.3059218e-05 2.2894178e-06 -7.0788956e-06 4.847344e-05 -2.7974345e-06 5.87407e-06
-2.229856e-05 -3.0231911e-05 7.517928e-06 -6.660997e-06 3.4402055e-06 -2.5532348e-05 -3.1655986e-06 -1.170098e-06
-7.802689e-06 -1.5845775e-05 -1.3943854e-05 -2.9561908e-05 -3.573447e-05 -2.0459924e-05 7.9351084e-05 -5.8202353e-05
-3.6235836e-06 5.950829e-06 -1.4360101e-05 -8.502803e-06 -3.9438743e-05 -1.3580302e-05 -1.7543847e-05 -2.9323664e-05
3.4786684e-05 1.3607894e-05 -7.8910983e-07 -1.3927156e-05 6.1415753e-06 -1.7850996e-05 -1.5720425e-06 3.6684418e-05
-2.0756896e-05 -2.4382627e-05 -1.4090334e-05 5.3640695e-05 7.727446e-06 -1.3364671e-05 6.3207594e-06 1.830263e-05
3.5727876e-06 6.6317666e-06 1.4243884e-06 -7.168063e-06 2.481745e-06 -1.0121016e-06 -4.187146e-05 -2.9851453e-05
-2.3093467e-05 -3.1464915e-05 -5.9879453e-06 2.6757232e-05 6.2359424e-05 -1.8733905e-05 7.5355733e-06 2.0950658e-05
4.3866803e-06 5.6730305e-06 4.5351135e-05 -3.9030897e-06 3.8035998e-06 -6.917575e-06 -1.2714692e-05 1.2840216e-05
-3.842599e-05 -5.32626e-06 -0.0001018828 2.7800409e-06 1.0637923e-05 1.2649234e-05 -2.0327794e-05 -2.0874346e-05
9.421243e-09 2.6159896e-05 -5.119372e-06 -3.1294896e-06 2.2126702e-05 -1.1067612e-05 1.529217e-05 2.230733e-06
1.0575278e-05 1.4415589e-05 -1.2246922e-05 -2.4947341e-05 -2.8082159e-05 5.0290953e-05 -4.4095857e-05 -1.6552821e-06

conv3.lin.weight f4 [128, 64]
00000000: d32b d13d f86d 91be 301c 42be 2f33 62bd
00000010: 6d90 ab3d 7e55 113e 6870 27be 788e 57be
00000020: 95a0 d3bd 0cb9 423d ddc6 c4bc 592a 4c3c
00000030: 0fee 263e 2e9c 1b3e 3714 4cbe 418e d4bd
00000040: abe0 353d 90af 6ebd 6cfb e3bc e10f 14be
00000050: 9bcd 213c 10f9 243e bbef a23d 4a86 dfbd
00000060: cbe8 b7bd 671b 52be 0b7a 61be 5547 83ba
00000070: 9470 67be d9d0 1dbd e00b e03a 220e e33d
00000080: 49da b4bd 1070 c8bc be32 5abd f0b0 27bd
00000090: d248 2a3e ea60 403d f32f 4b3e bd29 773c
000000a0: b248 ef3c cb47 80bd b92b 303e fea8 143e
000000b0: c15b b33e d00b 05be 816c 103e 7680 29be
000000c0: c837 c1bc 0179 8dbe ba72 4a3d 875d 843b
000000d0: 4d59 8a3e 4383 103e f223 983e e6cb 65ba
000000e0: 1b79 473d 4064 adbe d7c1 80bd ed3e edbe
000000f0: f76e 17be 8199 89bd 69ea 793d 76eb 00bd
00000100: 3390 c23d 62e1 35be d671 d7bd cc53 533d
00000110: 3306 643d 93a4 803d fee4 d6bd c4b7 043e
00000120: 9d98 03be 5560 57be b2a8 37be 319b 063e
00000130: d06f ab3e 3af7 e73d 0880 e7bd 708b 6c3e
00000140: aac2 c13d 4223 08be 5d7e 6fbd 906c 6ebd
00000150: 0526 ce3d f713 033f 43bc 103d 74af 553e
00000160: 2ec5 d83c c64e 1d3e 6d02 2bbe 3301 913d
00000170: 84e1 443e 2cac 573e 24cd ab3d 18c8 a33d
00000180: d440 963b 0f7d d2bd 3a6e 773e 5c86 86be
00000190: c41d d23d 043d 7d3e 619d 163d 8fc2 353d
000001a0: 3a96 2b3e dad1 083e b448 033e 5f1e ad39
000001b0: 6374 393e 2917 dabd e176 aabe 2d6a 07be
000001c0: f41e 7f3e 9b3a adbd 2839 703c d499 a7bd
000001d0: cfc9 603e c241 b63d 2ccb f3bd 0f25 ce3d
000001e0: 0091 fcbd 188c 95bd 8a53 71be fc31 c0bd
000001f0: 6d5b 223e 5755 34be d0e7 093e d270 3abd
00000200: c536 16be 2dbb e63e 0405 7b3e e689 123e
00000210: 2b83 58be 8569 2e3e 434f 3c3e 38e8 a8bd
00000220: ac32 bebd 812a dd3d 2a42 99be 2618 313e
00000230: 26a4 cebe 9a4e 2cbe 74c6 f13c 3dc8 cbbd
00000240: 3cf1 2fbe 9bbb 893e 38e1 8cbd 7f56 fe3c
00000250: 00f2 d5bd 633d a5be bc04 0a3e 05de 16bd
00000260: 414a a33d 942a 00be 98e7 d13d 1d28 70be
00000270: 1215 473e f9fc d9bd 8fe1 58bc fb7a 88be
00000280: 1882 713e a7fb 5fbe 883c 35be 339b dfbc
00000290: 2e66 bebb bb3a 39be 97c3 0ebe 3939 8aba
000002a0: d4ac 653e 141f 203d e9e4 2a3e 8cd3 5c3e
000002b0: 165e 2fbe 7538 99bd 6622 67be 90c6 e4bc
000002c0: 6b92 93bd 9e8b 3dbd c328 783d 499b e33a
000002d0: 03fc 16be 3cf2 14be 676b 49be c753 db3d
000002e0: 6295 d1be 38a0 f2bc 52d0 26bd 2834 693d
000002f0: 3332 11be d9a3 2b3d ffdf 1dbe 812d 89bd
00000300: ddda 833d e3d5 5bbe 9f83 d9be e672 a03d
00000310: 86f1 a23d a7d4 a83d 40b0 2bbe 1fbc d8bd
00000320: f81a 343e 757e fe3e 5ff2 2dbb 428d 563d
00000330: 1f80 3d3e 2e23 39be f280 44bc 6396 443d
00000340: 3742 af3b 9470 053e ca4f 9e3e 82e6 943e
00000350: 590f 4ebd 5b72 dd3b d5aa c2be 39d1 173f
00000360: 35b3 9abe 1dc2 f43d 67e3 ab3d 62c2 643e
00000370: fccf dfbe 461d 273e e9ef 253d afb4 4dbe
00000380: 79c5 143e 7a43 943e 4e14 d53e c7bb 4d3b
00000390: 1e83 803c 5e0c 8e3d be76 62be ffce f0bd
000003a0: 6748 f33d b52b 7cbe b179 9fbd 642f 37be
000003b0: a1e7 6a3d 3304 46bd 1157 01bb 4df8 31be
000003c0: 51d2 833e 4662 21bd 16a9 2dbe 3973 eb3e
000003d0: 1d0d 73bd 5f5d 9a3e 8a3c a33e 08b6 b13e
000003e0: db37 833e fe64 49be 9e08 abbe 9020 20bd
000003f0: 2c2b 683e 5271 a2bd d858 113d a964 463e
0.10213437 -0.28404212 -0.18956065 -0.055224594 0.083771564 0.14192769 -0.16351473 -0.21050441
-0.10333363 0.047539756 -0.024020607 0.012461268 0.1630175 0.15196297 -0.19929586 -0.10378695
0.044403713 -0.0582729 -0.027829848 -0.14459182 0.00987568 0.16110635 0.07955881 -0.109142855
-0.089799486 -0.20518266 -0.22019212 -0.0010015765 -0.22601539 -0.03852925 0.0017093383 0.1108668
-0.08830697 -0.024467498 -0.053271048 -0.040940225 0.16629341 0.046967424 0.1984251 0.015085635
0.029209469 -0.062636934 0.17204179 0.1451759 0.3503094 -0.12992787 0.14103891 -0.1655291
-0.023586169 -0.2763138 0.049425818 0.0040394696 0.27021256 0.14112572 0.29714924 -0.000876604
0.04869948 -0.33865547 -0.06286972 -0.4633707 -0.14788423 -0.06718732 0.061014567 -0.031474553
0.0950016 -0.17761758 -0.10519759 0.051593587 0.055669975 0.0628139 -0.104928955 0.12960726
-0.12851186 -0.21032842 -0.17935446 0.13145138 0.33483744 0.113264516 -0.11303717 0.23100066
0.09460957 -0.132947 -0.05847012 -0.058209002 0.100658454 0.5120234 0.03533579 0.20867711
0.02646121 0.15362081 -0.16700144 0.07080307 0.19226652 0.21061772 0.08388737 0.07997149
0.004585365 -0.10277759 0.24163142 -0.26274383 0.102595836 0.24730307 0.036771182 0.044375
0.16756526 0.13361302 0.12820703 0.0003301976 0.18110804 -0.10648949 -0.33293822 -0.13224097
0.24914151 -0.08458444 0.014662065 -0.08183637 0.21951984 0.08899261 -0.11903986 0.10065662
-0.12332344 -0.073021114 -0.23567024 -0.09384534 0.15855189 -0.1761068 0.13467336 -0.04551775
-0.1466933 0.4506468 0.24513632 0.14310417 -0.21143787 0.1703244 0.18389611 -0.08247417
-0.09287009 0.107991226 -0.29933292 0.17294368 -0.4035961 -0.16826859 0.029513575 -0.09950302
-0.17181867 0.26900944 -0.068788946 0.031047104 -0.104465485 -0.32273397 0.13478369 -0.036832828
0.07973147 -0.12516242 0.10249251 -0.23452802 0.19441631 -0.10643954 -0.013237371 -0.26656327
0.23584783 -0.21873342 -0.17698872 -0.027295684 -0.0058105206 -0.1808881 -0.13941799 -0.0010545618
0.2242921 0.03909214 0.16688885 0.21565074 -0.17125735 -0.074814714 -0.22571716 -0.027926713
-0.072056614 -0.046275727 0.06058575 0.0017365004 -0.14744572 -0.1454553 -0.19669877 0.10709339
-0.40934283 -0.029617414 -0.040726013 0.056934506 -0.14179306 0.041904304 -0.15417479 -0.06698132
0.06438229 -0.2146831 -0.4248323 0.07834415 0.07956223 0.08243685 -0.16766453 -0.10582756
0.17588413 0.49705854 -0.002654217 0.052380808 0.18505906 -0.18079826 -0.011993634 0.047994982
0.0053484696 0.13031226 0.3092025 0.29082114 -0.050307605 0.006758017 -0.3802096 0.59303623
-0.3021485 0.11951087 0.08392983 0.22339776 -0.43713367 0.1631976 0.040512 -0.20088457
0.14528455 0.2895773 0.41617054 0.0031392442 0.015687522 0.069359526 -0.22115609 -0.11758231
0.11879044 -0.24626048 -0.07786883 -0.17889172 0.057349805 -0.04834385 -0.0019735734 -0.17379875
0.25746396 -0.03940036 -0.16959032 0.45986345 -0.059338678 0.30149361 0.31882125 0.3470919
0.25628552 -0.19667432 -0.33405012 -0.039093554 0.22672719 -0.079317704 0.03548512 0.19374336

conv4.bias f4 [256]
00000000: ffeb cabd 830f f5bc bebe aabd 6619 6a3e
00000010: 0a55 79bd f45e 073e 945b 253c 2fff 8c3d
00000020: 579e d1bd 4787 4a3d a4bc 00be cf4f 773e
00000030: 5b6f c8bd 7d5f aabe c56d 593e 0026 083e
00000040: 225e 40be 95c3 b7be fa6f c8be a03e 63be
00000050: 665b d8bd 8c63 19bb 6703 2bbe fe30 86be
00000060: 3e51 07be c13d 4bbe e4c0 f0bc f985 45be
00000070: a29e 3ebe af28 29bd 2edb 5cbe f267 31be
00000080: 5716 16bd 2d23 38bd 7ca1 90bc 35ee e7bc
00000090: 568c efbc 2950 88be 914a 5dbe 4d9d 9a3c
000000a0: 408a a9bd 79ba 663f 7695 09be 14c3 31bd
000000b0: 439e 7dbc 6ab1 c0be e6b3 dbbd 2645 9a3c
000000c0: b552 193e bea5 2fbe a632 1c3e fdbd efbb
000000d0: ba9d 4fbe 4493 d3bd f0f1 64bd dfd9 3fbd
000000e0: 674e f8be 8a47 a53d da3d a7bd ed79 5bbd
000000f0: bb24 f0be fc02 47be a477 babe a8d8 cb3e
00000100: a9f6 9cbe 226a b5bb 5174 91bd 3187 7ebd
00000110: b264 3dbe b9fc 0cbe dcfc 0dbe 8b25 18be
00000120: 2df9 3cbe cec0 b9be 554c 76bd 22b8 91be
00000130: 4a6d 38be b758 36be 4081 38be e843 35bd
00000140: 8a96 9cbd 31f3 f3bd 0fb4 ab3d 8af0 bfbe
00000150: 65e5 343e 6e60 31bd 75be 0dbc f186 dabe
00000160: 53b1 85bd 78f9 153e 5350 6bbd 8c97 6fbc
00000170: 5d61 e43d 316a 94bd c6a7 a3be 20af 01be
00000180: a35a 3abe 920f 89be 36c7 2ebd 28df 38be
00000190: 81f5 15be 944c 85bd 6e6f b3bd d6f7 bfbe
000001a0: 3560 1fbe 5fbd 8cbe de67 f1bd 58bc da3d
000001b0: a8f4 19be 928c cf3e 236f d0bd 262c 3ebe
000001c0: ca83 e9bd 757c 1dbe ca4f 5fbe dd2f 5c3f
000001d0: 8e17 b6be e694 bebe f264 dbbe d56c 55bd
000001e0: 92a3 05bf 6e8b d6bd 7134 883d 88a6 cabc
000001f0: abd5 6cbe 5299 d5bc b0dc 0a3b 81fe 13bd
00000200: 681d 783b 5819 1b3e fac2 fcbb f761 363d
00000210: 7288 53bf 4481 02bf 006f aabe d132 53be
00000220: 82c6 57be 6ec4 223d 2c31 243d 4885 f73c
00000230: 9cce 34be 8ce0 c9bb 8e2c eabe 7f33 8abe
00000240: 2689 a33d b3d0 933b 59f9 fcbc a611 c03e
00000250: 2839 913b bd0d 923f e59b 2d3d d62e 4e3e
00000260: d6c0 1c3e b815 acbd 2a3a b2be ef16 15be
00000270: 9dd8 4ebe 0bcb ffbe 454b f9bd 9600 c3bc
00000280: 7cbe 69ba 3364 a23b 3b4a f4bd 88df e43d
00000290: 983b 2b3d 4962 0dbe 3021 9dbe fd07 45be
000002a0: 99fc 40b9 c8a0 0bbe 50b5 f0bd 223f 373d
000002b0: bf39 0ebe 194c 7bbe 91bf fcbe 012e 38bd
000002c0: 5bc1 d73d be18 b93c 887a 09be e491 83bc
000002d0: 4635 713d 84e4 2b3e 79cb 00bd 6a29 bbbe
000002e0: 3e49 0b3d dd00 47be 8926 c1bd c224 b4be
000002f0: 544d 99bd 6845 263d 1ba4 18bd 93db cbbd
00000300: adae 9a3d 1858 b5bd 9946 803c 9a34 e7bd
00000310: 600f c13c f8f4 f33d bc2a 013e c9b2 86be
00000320: b85b 393e ad48 bdbd af64 893d cc23 6cbc
00000330: ca40 303d d0dd 333e db8f 4f3c a2ce 55bf
00000340: 95b9 57bf 0c99 36bf 469c 633c d88c 833c
00000350: 52b7 25be ac65 04be 1fd3 12bf cbaf b1bb
00000360: 557f 12bf 07a0 e6be 0188 bbbd 6ef1 953d
00000370: 4280 01bf 8716 1ebe 494f a4bd e3be 80be
00000380: f369 1ebd 3ed5 65be a6b3 debe e9ab 39be
00000390: a60e 023e 59b0 4a3d bdbb 4dbe 564e 75bd
000003a0: d968 1ebe a0e5 febe a2a8 a5be 37a6 4e3c
000003b0: 8a66 80bd 0ef9 50be 0437 18be 2698 a9be
000003c0: 3c61 45bd 3a2c d23d 7ada d4be 2a0d 423e
000003d0: 951e 0cbf 5a23 8f3d 897f 3bbd 9e6a 38be
000003e0: 145e 01bd 328e dfbe c3fd aabd ba5c 07be
000003f0: f2e1 fe3e aaf1 ce3e 4738 94be bb5a 2e3e
-0.09908294 -0.029914623 -0.083371624 0.22861251 -0.060872115 0.13219815 0.010092635 0.0688461
-0.10235279 0.049445417 -0.1257196 0.24151538 -0.09786864 -0.33275977 0.2123328 0.13295746
-0.18785909 -0.35891405 -0.3914793 -0.22191858 -0.10564308 -0.0023405282 -0.16700517 -0.26209253
-0.13214585 -0.19847776 -0.029388852 -0.19289388 -0.18615201 -0.041298565 -0.21567985 -0.17324808
-0.0366424 -0.04495542 -0.017655127 -0.028311828 -0.029241722 -0.26623657 -0.21610476 0.018873835
-0.08278322 0.90128285 -0.13435921 -0.04339893 -0.015479627 -0.37635356 -0.10727672 0.0188318
0.14972956 -0.1715307 0.15253696 -0.0073163495 -0.20275012 -0.10330823 -0.055894792 -0.046838637
-0.48497316 0.080702856 -0.08166094 -0.053583074 -0.46903023 -0.19434732 -0.36419404 0.39813733
-0.30656937 -0.0055363337 -0.07102264 -0.062140647 -0.18495443 -0.13768281 -0.1386599 -0.14858072
-0.18454428 -0.3627991 -0.06013139 -0.28460795 -0.1801044 -0.1780728 -0.18018055 -0.044254214
-0.076459005 -0.119116195 0.08383953 -0.37488204 0.17665632 -0.043304853 -0.0086513655 -0.42681077
-0.065279625 0.14645946 -0.05744965 -0.014623534 0.11151383 -0.07246817 -0.31963938 -0.12664461
-0.18198638 -0.26769692 -0.04267045 -0.18053877 -0.14644434 -0.06508747 -0.08761488 -0.3749377
-0.15564044 -0.2748823 -0.11787389 0.10680455 -0.15034735 0.40536934 -0.10177448 -0.18571529
-0.1140209 -0.15379508 -0.21807781 0.86010534 -0.35564846 -0.37222975 -0.42850453 -0.052105743
-0.52202713 -0.10475813 0.066506274 -0.024737611 -0.23128383 -0.026074085 0.002118867 -0.036131386
0.0037859324 0.15146387 -0.0077136727 0.04452702 -0.82630074 -0.50978494 -0.3328781 -0.20624854
-0.21071818 0.03973811 0.040085956 0.03021492 -0.1765694 -0.0061608013 -0.45737118 -0.26992413
0.07985143 0.004510963 -0.030880617 0.37513465 0.0044318624 1.1410443 0.042385 0.20135054
0.15307936 -0.0840258 -0.3481 -0.1455953 -0.20199819 -0.49959597 -0.1217256 -0.02380399
-0.0008916629 0.0049557923 -0.11928221 0.11175448 0.04180488 -0.13807024 -0.30689383 -0.19241329
-0.00018404647 -0.13635552 -0.117533326 0.044737943 -0.13889216 -0.24540748 -0.49364904 -0.044965748
0.105349265 0.022594806 -0.13425648 -0.016060777 0.058888696 0.1678639 -0.031444047 -0.36555034
0.034005396 -0.19433923 -0.09431178 -0.35184294 -0.07485452 0.040593535 -0.03726588 -0.0995399
0.07552848 -0.08854693 0.015658664 -0.1128933 0.023566902 0.119119585 0.12613958 -0.26308277
0.18101394 -0.092423774 0.06708657 -0.0144128315 0.043030538 0.17565084 0.012668575 -0.8351842
-0.8426755 -0.7132728 0.013892239 0.01605837 -0.16183212 -0.1292941 -0.57353395 -0.0054225675
-0.57225543 -0.45043966 -0.091568 0.0732144 -0.5058633 -0.15438281 -0.08022935 -0.25145635
-0.03867526 -0.22444627 -0.43496436 -0.18131985 0.127009 0.049484584 -0.20091148 -0.05988916
-0.15469684 -0.49784565 -0.3235522 0.012612871 -0.06269558 -0.20407507 -0.14864737 -0.33123893
-0.048188433 0.10262342 -0.41572934 0.18950334 -0.54734164 0.06989165 -0.045775924 -0.18009421
-0.03158386 -0.43663174 -0.083491825 -0.13218966 0.49781758 0.4041875 -0.28949186 0.17026798

conv4.lin.weight f4 [256, 128]
00000000: 549c 533c f4d5 a73d 923c 00be 0c2e d7be
00000010: a082 ba3d c8f6 3bbe 4877 d33c 59f2 a5bc
00000020: c6ca 64be d8cf 38be 1c4a a13e fefe 69bd
00000030: 8e24 a1be 01e7 0a3e de09 a13d 36cb dabe
00000040: d2b8 51be 5575 8dbd 1e26 d6bd 1127 36be
00000050: 3285 75be ef63 7dbe 026c 80be 19e8 3e3d
00000060: a02c 1cbf 18d0 7abd c391 56bc d686 31be
00000070: 5e28 cdbb 10bb 4a3d eb88 93bc 4d42 ecbb
00000080: 8b93 88bb 5322 53be 84f8 79be a494 c139
00000090: d6cc a63d 1836 583d ec54 67be de06 273d
000000a0: a791 7ebe 8697 7fbb 91b1 81bc 303b c83d
000000b0: bdd5 dfbd 5c83 bb3c ebaf b53d 21ae c53a
000000c0: 2616 6d3c c5cc 25be 806c 37bd 236d 80bd
000000d0: 9850 01be 10c5 20be ef20 65bd 2992 92bc
000000e0: b5d7 03be 9d2d 13bd 31ff f3bc b47a cebe
000000f0: 3191 013e e030 373d 7b13 92bc 2a90 27bd
00000100: 69f6 023d bd12 d9bd bc8e 28be 6f4b b9bd
00000110: e257 3abd d920 eabd b470 17be edd1 473d
00000120: 2dd7 a0bb 5bfc cc3a 50fc 78be 597f 1abf
00000130: d071 9fbe 2d09 c3be 35f1 543d 8a14 6f3d
00000140: f5bb 583d bc82 8fbd db54 9c3d 9259 5f3e
00000150: 0ed3 f7bd 6fcb 303d 9d7f 873d 29cb a8bd
00000160: 9805 c23d 9b7b c2be b13c 403d 9ff2 a03d
00000170: 6171 01bd 5b78 5e3e bbf9 cb3d 6d29 a8be
00000180: 2270 a7bd fefa 8b3c a98c b7bd f858 01bd
00000190: 246c 3e3d d8c4 103e 6859 303e 9f1f 89bd
000001a0: e623 23be 60c0 cb3b b284 a53d cf4c 29be
000001b0: 117c 92be 1171 013e d6f6 803d ee8c a93d
000001c0: 16c2 973c 75d0 9ebd fb60 b5bd 6245 8abd
000001d0: 2dc4 afbe d978 733d c2be 57be cd94 b53d
000001e0: 5e1a 06bc 7bbc 45be 1918 5f3d 99cd 5c3e
000001f0: 2e5d 7ebe 2aec 43be cef3 8dbe 8330 55bd
00000200: f6f5 d93c ae33 14be 3131 c8bd c726 f63b
00000210: 54fa 073b 1414 9b3c 42c1 d43b d86c bbba
00000220: 6cd1 92bd a0a0 943c cbe1 02be 272a a53d
00000230: 0690 15bd 1cc6 10bd 33e3 8ebd cef0 92bd
00000240: 9981 01bc 4a03 4d3d 3f22 e5bd 6c97 acbb
00000250: ee9a a5bd bf21 c73c 1060 1cbd 9258 193d
00000260: 59bf d1bd ab66 97bc 4a5f 49bd 307c 81bd
00000270: 9c2b 92bc 58e3 8dbc 5114 64bd 3f94 5abd
00000280: 51f9 bdbd 3617 b0bc 4815 a937 a865 2cbd
00000290: 43c0 e6bb 4632 81bc 0545 053c b22a 34bd
000002a0: d4ec 59bd e0f0 cabd a79e 27bb 4e91 ab3d
000002b0: 9e7b a4bd 08b9 723b 12e8 18bc 18ae 593c
000002c0: bf0f 643d e2c9 a33d 5ac3 30bc 01b7 e63c
000002d0: 43c3 adbc 8d35 c6bd 106c 67bb 0596 31bd
000002e0: 9786 df3c 7f16 24bd d1c7 9bbd 8072 563c
000002f0: e99b 363d 9764 043d 345a 213b 5544 36bd
00000300: afe5 6bbd def5 913b 943c 723d d0ba 0abc
00000310: 0023 83bd 423d 1abd 03d2 86bc 371c cd3c
00000320: c425 0d3d 98a1 af3c 8c5b 0e3b d265 0bbd
00000330: 4320 53bd f5ff 07bc 038c 93bd 6ac8 3bbd
00000340: 26b0 ba3c 9c25 47bc 47ac 47bd 36bb f4bc
00000350: 60b7 5cbc 24ec 90bc 2d11 1fbd b394 dcbc
00000360: 5e3f 34bd 9f69 cb3c 01ab f3bc 203a 82bd
00000370: 9bf0 53bd 403a 57bd c8be 9fbb 04bc afbd
00000380: 67a6 1abc 3bc0 4f3d fe4c acbd d391 8e3d
00000390: a9fb e3bc f0c9 833d 4bd3 8f3d 0508 c9bc
000003a0: 6a1e bcbd 04d6 4dbd 409a 08bd ec39 f33c
000003b0: aee3 5e3c 9c4c 193c 8b2e 8dbd 2b14 593c
000003c0: 9af8 eabc b85d 903c 0fb6 1abd e01d 3fbd
000003d0: cdf2 e33c cc06 2b3d 58c0 72bd 80ac 44bd
000003e0: c0fe 93bd cce0 5abd eed1 84bc 7439 eb38
000003f0: b725 8d3d 6b24 92bc 9ea7 b83c 0da1 673b
0.0129156895 0.08195105 -0.12523106 -0.42027318 0.09106946 -0.18355858 0.025813714 -0.020257162
-0.22342977 -0.18048036 0.31501853 -0.057127945 -0.31473202 0.13564683 0.0786321 -0.42733163
-0.2048066 -0.06907145 -0.10456489 -0.1778834 -0.23976591 -0.24745153 -0.25082403 0.046608064
-0.6100559 -0.06123361 -0.013096276 -0.17336592 -0.0062609157 0.049494803 -0.018009624 -0.007210052
-0.004167979 -0.20618562 -0.24411207 0.00036922575 0.08144538 0.052785963 -0.22590989 0.040778033
-0.2486025 -0.0039000227 -0.01583174 0.09776914 -0.10929439 0.022889785 0.08871444 0.0015081802
0.014470613 -0.16191395 -0.044781208 -0.06270816 -0.126284 -0.15700173 -0.05593961 -0.01789196
-0.12875254 -0.035932172 -0.02978477 -0.4032799 0.12653042 0.044724345 -0.017831555 -0.04090897
0.031973276 -0.10599277 -0.16460699 -0.09047591 -0.045493968 -0.114320464 -0.14789087 0.048784185
-0.0049084635 0.0015639173 -0.24315 -0.6035057 -0.3114152 -0.38092938 0.051987845 0.058369197
0.052913625 -0.070073575 0.076333724 0.21811512 -0.12100802 0.04316276 0.06616137 -0.08241875
0.09473723 -0.37984928 0.04693288 0.07858776 -0.031602267 0.217256 0.09959742 -0.32844105
-0.081756845 0.017087456 -0.08962376 -0.031578988 0.04648985 0.1413759 0.17221606 -0.06695484
-0.15931663 0.0062180012 0.0808195 -0.16533206 -0.2861028 0.12640788 0.0629708 0.08278833
0.018525165 -0.07754604 -0.08856388 -0.06751515 -0.34329358 0.05944142 -0.21068862 0.08866272
-0.008184997 -0.19310181 0.05446634 0.21562804 -0.24840233 -0.19133058 -0.2772507 -0.052048218
0.026606541 -0.14472839 -0.097750075 0.007511947 0.0020748572 0.018930472 0.0064927647 -0.0014299406
-0.0716885 0.018142998 -0.12781446 0.080646805 -0.036514305 -0.03534518 -0.069769286 -0.07174836
-0.007904434 0.050051965 -0.111881725 -0.0052670743 -0.08086191 0.024308084 -0.03817755 0.037437983
-0.10241575 -0.018481573 -0.04916314 -0.06322515 -0.01784306 -0.01732032 -0.055683438 -0.053364035
-0.09276069 -0.021495443 2.015628e-05 -0.042089134 -0.0070419624 -0.015771043 0.008134131 -0.04398603
-0.053204373 -0.099092245 -0.0025576742 0.08377324 -0.080313906 0.0037036557 -0.009332674 0.013286136
0.05567908 0.079974905 -0.010788763 0.028163435 -0.021211272 -0.09678183 -0.0035312213 -0.04335596
0.027285857 -0.040060516 -0.07606471 0.013088822 0.04458228 0.032322492 0.0024620416 -0.04449876
-0.05759209 0.0044543585 0.059139803 -0.008467391 -0.0640316 -0.037656076 -0.016457563 0.025037868
0.034459844 0.021439359 0.0021722047 -0.03403265 -0.05154444 -0.008300771 -0.072044395 -0.045845427
0.022789072 -0.012154963 -0.04874828 -0.029874425 -0.013471454 -0.017690726 -0.03883474 -0.026926374
-0.044005744 0.024830637 -0.029744627 -0.06358743 -0.05174313 -0.052545786 -0.004875038 -0.08580783
-0.0094390875 0.050720435 -0.084131226 0.069614075 -0.027829962 0.06435001 0.07022723 -0.024539957
-0.091854885 -0.05025293 -0.03335023 0.029690705 0.013604088 0.009356644 -0.06893643 0.013249437
-0.028682996 0.017622814 -0.03777128 -0.04665935 0.027825737 0.04175453 -0.059265465 -0.04801607
-0.07226324 -0.05343704 -0.016213384 0.00011216375 0.06891959 -0.017839631 0.022540864 0.0035343796

conv5.bias f4 [256]
00000000: 9207 e037 a515 8eb6 a9a4 c8b7 fc8a ef36
00000010: 175b aab7 6bfd a4b7 7173 2e38 5986 00b7
00000020: 98ea 0937 3748 3bb8 8c09 1a36 344a 08b7
00000030: d10a df37 0555 0336 8b67 0538 5b96 52b7
00000040: 2f17 6fb6 50a5 f435 605f 88b7 753c 1db8
00000050: 000e 6e35 92ff 0b38 9987 7a38 d3d2 8537
00000060: f4f5 83b7 2a41 c8b7 e452 9237 6f0c 1437
00000070: fe10 edb7 93ff 86b8 4be0 7937 cdfb bab8
00000080: 4852 28b8 5c52 e036 6d54 d037 59e3 8337
00000090: f86c ec37 7c49 1b38 cfae 8837 7672 2f38
000000a0: f175 2db5 f014 8137 b853 e6b7 1fb2 72b7
000000b0: 8fd4 3438 0802 1ab8 42cb 1637 b615 9937
000000c0: 56e4 dab6 646b 93b8 832c 2838 7f22 8437
000000d0: 737e c636 3160 f1b8 9686 0bb8 7369 9437
000000e0: 1b45 0436 2e8d b7b8 cc20 9fb8 9d28 e337
000000f0: 2122 b336 198b 6ab8 69b9 df35 4d54 a6b7
00000100: d671 deb6 6a33 dfb7 1d40 b2b8 be21 9737
00000110: 63c9 3235 f2a6 2138 354f 3038 c447 f636
00000120: 5909 ba37 421c 1138 a213 0337 6c89 da37
00000130: 48b1 b7b8 b9b9 0bb8 5b93 a4b8 6b9a 3938
00000140: 0e18 f7b7 ae56 8db8 efc0 c937 3b23 f337
00000150: 7b09 a937 9ae2 c9b8 1fa8 ce37 d53a b4b6
00000160: a35a f6b7 5944 1538 d33c f1b6 0334 75b6
00000170: e86b b3b7 a8a5 68b9 bd32 feb7 bafd ec36
00000180: 3ffd e636 05be 1cb8 b13f 4a38 681f 1fb8
00000190: ef68 adb7 1fbe 9938 0759 1bb8 b520 dcb8
000001a0: f312 a3b6 bb27 6438 d08c 2c37 1f73 f037
000001b0: f78a 33b7 7550 f2b8 4ad0 a136 cc5a 18b7
000001c0: e386 22b8 4e3d 0538 b36a 14b9 606f 1eb8
000001d0: 0721 7237 ad01 10b8 9bc9 80b7 94db 8fb8
000001e0: c2a8 7ab6 c6a3 8eb6 1b2f 65b8 de40 e434
000001f0: b81c 1936 e6b0 6cb6 d127 bf34 09cb 6438
00000200: 321b 4637 25f0 0138 3626 efb6 43aa 63b8
00000210: dbed 2238 b97b 5a37 f79e 28b7 d441 8b38
00000220: bc20 b5b8 cdb0 80b7 aa50 fd37 e2bf 51b8
00000230: 06ab 0038 6d5b a838 59e7 deb8 33cb 7e38
00000240: a623 fcb7 1665 0436 b845 aa36 c3e3 5bb8
00000250: fd3a b637 7ef0 5eb8 85ee 8238 72bc bdb7
00000260: 3b72 9bb5 db23 d7b7 857f d537 76e1 8736
00000270: 329a fc36 a8eb b637 89ae 1c37 6c78 1d37
00000280: bdae 6337 7097 8bb7 7cdc 0e38 ee21 45b7
00000290: b9c6 b6b8 c7b0 0235 1e28 1cb7 3217 0f38
000002a0: 9b94 32b8 ef5c 8bb8 6c15 fcb7 d03e 44b8
000002b0: 04bf 0638 2f27 d3b8 2095 aa38 3df1 22b6
000002c0: b5aa a2b4 255d 24b7 2f4a 82b7 392e 9335
000002d0: 98ee 11b9 7213 d637 2663 d1b8 b46f edb7
000002e0: 7f2a c135 51b1 16b9 deee 0f38 423e f4b6
000002f0: 8c0e 0eb9 bf86 b3b7 59a8 61b8 1c8d 39b8
00000300: ac51 d8b7 595f 2ab7 8056 0b38 b7c7 be37
00000310: bc46 a4b8 5b3d abb8 7cd5 cdb8 e4fe 13b8
00000320: 49b4 8137 cc24 fa35 1353 6ab6 f594 2c37
00000330: 5411 41b8 bfc0 f036 5e3a 8738 3370 ca38
00000340: 3b52 15b8 d4c0 a736 1ad2 7837 bb13 19b7
00000350: 2812 46b8 a731 7a37 b9cd 65b8 1bd0 e137
00000360: 9e90 4ab5 4c61 8237 c146 fcb7 837b 63b8
00000370: 6dd4 da37 9ecd 2237 a064 deb8 e5a3 ab37
00000380: 2163 b337 7db1 a3b7 5bd3 3336 9b2a 5536
00000390: c931 4138 f6c5 deb7 8b66 a637 8a84 c4b7
000003a0: b0a6 1c37 0d78 8eb6 6905 d6b6 c9e3 28b9
000003b0: 511a beb8 bd40 a8b7 129f f537 81e3 42b5
000003c0: ef7b a0b7 20fd ae35 402e 0038 670c a836
000003d0: d84a 9ab6 7f38 07b5 f2c5 94b7 7d68 85b8
000003e0: 1cc1 8938 2b59 74b8 682d 0138 4ed3 3437
000003f0: 8448 73b4 371f 1137 90c6 9bb7 363e 92b7
2.6706406e-05 -4.2344495e-06 -2.3918534e-05 7.138935e-06 -2.0307996e-05 -1.966833e-05 4.1592346e-05 -7.660675e-06
8.220457e-06 -4.465153e-05 2.2953345e-06 -8.123508e-06 2.6588708e-05 1.957001e-06 3.1806103e-05 -1.2551983e-05
-3.562727e-06 1.8227529e-06 -1.6256876e-05 -3.7488022e-05 8.868228e-07 3.33782e-05 5.973093e-05 1.5953008e-05
-1.5730948e-05 -2.3872202e-05 1.7443155e-05 8.824382e-06 -2.8260514e-05 -6.437222e-05 1.4893779e-05 -8.916073e-05
-4.013095e-05 6.685308e-06 2.4834846e-05 1.5722284e-05 2.8184135e-05 3.7023317e-05 1.6293865e-05 4.182985e-05
-6.461915e-07 1.5387748e-05 -2.7457121e-05 -1.4465796e-05 4.3113305e-05 -3.6718353e-05 8.988021e-06 1.8249131e-05
-6.523488e-06 -7.029509e-05 4.0095776e-05 1.575169e-05 5.9155805e-06 -0.000115096926 -3.3265525e-05 1.7692078e-05
1.9709757e-06 -8.752417e-05 -7.58782e-05 2.707942e-05 5.338589e-06 -5.5919492e-05 1.6668756e-06 -1.9827998e-05
-6.629368e-06 -2.6607613e-05 -8.4996434e-05 1.8016315e-05 6.6603224e-07 3.854087e-05 4.2035437e-05 7.339726e-06
2.217728e-05 3.459701e-05 7.81278e-06 2.6051617e-05 -8.759141e-05 -3.331315e-05 -7.8475765e-05 4.425125e-05
-2.9455896e-05 -6.739549e-05 2.4050909e-05 2.8984263e-05 2.0150785e-05 -9.626635e-05 2.4635401e-05 -5.371267e-06
-2.9367691e-05 3.5588022e-05 -7.1894406e-06 -3.653812e-06 -2.138871e-05 -0.00022186956 -3.0302786e-05 7.0628857e-06
6.884016e-06 -3.7370268e-05 4.821987e-05 -3.7937803e-05 -2.067207e-05 7.331021e-05 -3.7037793e-05 -0.0001049651
-4.8599845e-06 5.4396438e-05 1.0284784e-05 2.8663837e-05 -1.0701587e-05 -0.000115544455 4.822422e-06 -9.081046e-06
-3.8749433e-05 3.1766765e-05 -0.00014154128 -3.777386e-05 1.4432014e-05 -3.4333836e-05 -1.5352669e-05 -6.859671e-05
-3.7351133e-06 -4.2509955e-06 -5.4641725e-05 4.2515506e-07 2.2815493e-06 -3.5269709e-06 3.5605493e-07 5.4548527e-05
1.1808052e-05 3.097965e-05 -7.1272034e-06 -5.4279586e-05 3.884533e-05 1.3022619e-05 -1.0050592e-05 6.640298e-05
-8.63685e-05 -1.5341118e-05 3.0197512e-05 -5.0008188e-05 3.0676856e-05 8.027894e-05 -0.00010628877 6.0747563e-05
-3.0057341e-05 1.9728373e-06 5.074511e-06 -5.242579e-05 2.172356e-05 -5.31529e-05 6.243311e-05 -2.2618307e-05
-1.1581645e-06 -2.5646694e-05 2.545096e-05 4.0495606e-06 7.528136e-06 2.1805827e-05 9.338962e-06 9.385967e-06
1.3570939e-05 -1.664061e-05 3.406078e-05 -1.1750015e-05 -8.715451e-05 4.868602e-07 -9.307665e-06 3.411546e-05
-4.2576907e-05 -6.645347e-05 -3.0050716e-05 -4.678854e-05 3.2125987e-05 -0.000100685626 8.1340084e-05 -2.42803e-06
-3.0299057e-07 -9.796849e-06 -1.5531752e-05 1.0965806e-06 -0.0001391716 2.5519843e-05 -9.9843644e-05 -2.8304617e-05
1.4391989e-06 -0.0001437117 3.431632e-05 -7.2790144e-06 -0.00013547594 -2.1401209e-05 -5.3800966e-05 -4.4238855e-05
-2.5787238e-05 -1.01549895e-05 3.3220742e-05 2.2742764e-05 -7.833305e-05 -8.165344e-05 -9.814926e-05 -3.5284917e-05
1.546195e-05 1.8637161e-06 -3.4917073e-06 1.0286681e-05 -4.6030924e-05 7.174996e-06 6.4481734e-05 9.653009e-05
-3.560095e-05 4.999436e-06 1.483087e-05 -9.1241045e-06 -4.7223788e-05 1.4912722e-05 -5.478945e-05 2.6918997e-05
-7.546131e-07 1.5542515e-05 -3.0073688e-05 -5.4236047e-05 2.6086544e-05 9.703826e-06 -0.00010604528 2.0461108e-05
2.1384623e-05 -1.9513764e-05 2.6796104e-06 3.1764273e-06 4.606115e-05 -2.6556645e-05 1.9836492e-05 -2.3426739e-05
9.3371345e-06 -4.2459055e-06 -6.378327e-06 -0.00016106585 -9.064808e-05 -2.0057307e-05 2.9280349e-05 -7.2601694e-07
-1.9131197e-05 1.3037679e-06 3.056065e-05 5.008234e-06 -4.5982706e-06 -5.037363e-07 -1.773515e-05 -6.361397e-05
6.5686385e-05 -5.8257177e-05 3.0798285e-05 1.0778034e-05 -2.265752e-07 8.649941e-06 -1.8569903e-05 -1.7433525e-05

conv5.lin.weight f4 [256, 256]
00000000: 31f1 283d 0408 353c 019e c9bc 5695 213c
00000010: 7bef 40bc b204 b53d 4091 6b3d 0fa6 823c
00000020: 9e8b 043d adcd 5b3d 432c 3f3d 807a 5d3d
00000030: 296b 803c 6577 37bd 74be 283b bd02 fb3c
00000040: 9a82 b43c 6395 873d 6792 9c3b c8e9 fcbc
00000050: 9821 12bc 7f85 143d 5d37 9a3c 8247 08bd
00000060: 9334 0ebd 931f a7bd 357b 593c 08bb 5dbd
00000070: 7d6a 7bbd 2df3 e03c 204c 9cbd a6c3 8abc
00000080: c420 723c 607f 1e3d dc42 bf3d 5506 283d
00000090: f08b 63bd cce7 42bc ccd4 19bd b95e 733c
000000a0: 3716 903c c97a 5d3c 218f 193c 6068 b83c
000000b0: 67fa 1c3d ee74 4c3d bc86 2e3d ea9e 70bd
000000c0: a804 433d 1ac1 fcbb 63d5 3b3d 17df 333d
000000d0: 0536 0abd 127a 25bd b68f 3f3d e172 2b3d
000000e0: 8fc0 cd3d cb82 1d3d d343 8b3d d169 0ebd
000000f0: 4dea c13d 3fd8 1fbd 531b 763d 241c 2dbd
00000100: 3310 19bd 26a4 453d c5a6 7a3c 1219 53bb
00000110: e612 423d bffa d2bd 8e58 c8bc 1ea9 b13c
00000120: e73c e6bc 0e5f 0dbd 242c 6b3c 56e8 313c
00000130: 0655 e3bc 6c4e 26bd ff0d 85bb 364a 07bd
00000140: f5fc 403d d83e aebb a68d edbc 91aa 7ebc
00000150: a281 f139 c61c 2e3d 022b a8be e17a 0b3b
00000160: 9454 313d 51b1 8e3d b25f a7bc 5446 ed3d
00000170: bfdb 893d 4931 c0bd 1763 513a 4926 b5bd
00000180: 7e65 11bd acbc 20bd 81e7 393d 35d7 013d
00000190: 8a8e 47bd 52c5 033c 0dcb fa3c f2db a9bb
000001a0: 2b0c dc3c 5990 323d 22a1 85bd fce7 633d
000001b0: da9a 743d f7c6 253e 651d abbc 4406 7b3d
000001c0: 6d10 a33c 2836 b93c a001 2dbd b030 afbb
000001d0: c0a3 33bd 11e9 e73b 979d 93bc 8b02 c53c
000001e0: 0fdb ed3d 916b 563c e96e 053d a794 a4bd
000001f0: 04b3 87bd 4598 853d 3f31 7c3d e7a6 abbc
00000200: 4605 d53d 8289 2abd 5000 813d 8060 963d
00000210: f04a d73d bad4 9f3d 5e09 4b3d 2ebd 773d
00000220: 8c8c 44bb f6a8 9ebb 97a0 3b3d 026d c63c
00000230: 6fa3 4bbd 5be5 693d 7553 d23d c23d 42bc
00000240: 1272 0fbd 4f64 c43b 921d c9bc 612b 5e3d
00000250: 1dee 5d3d 7dae 4a3c b685 5d3d 5689 133c
00000260: f01d 1d3d 1c92 89bc 7113 003d 4f47 1ebd
00000270: a819 dd3c 1503 94ba dd67 3abd 6e2d 8d3d
00000280: e93e 03bd 4319 eebb 4c69 d7bb e23e 9f3d
00000290: 5ac1 04bd dc84 65bd e63e 3c3d 329b 50bd
000002a0: 0cbc 663d 3485 42bd 7276 7cbd 7e5a fd3b
000002b0: e451 1fbd 9b8c 2f3e ca4d cc3d 7b79 5abd
000002c0: 4522 be3c 6cfb a2bd 23bd 0bbd 3e3a bb3d
000002d0: 5759 bb3c 84f3 223d 70a3 a2bd 5ab7 163e
000002e0: 6938 b6bb a250 9cbc 7588 14bc e0a1 3cbd
000002f0: 43e9 8b3d 714e ac3c ee6f 5cbd 272e 20bd
00000300: db8e 99bd 6a3d 38bc c849 9e39 4faa 103d
00000310: d5ac 453d 15d3 f83c a3e9 f03c b54c 14bc
00000320: 22bf 4f3c 4443 be3c 8c67 1e3d cb68 983d
00000330: 92aa 66bc 7c25 a23d aa0f ccbc f62f 443e
00000340: d19f 2d3e 4e1a 1a3e 9358 ec3c 1934 473c
00000350: b684 dabb c9d9 77bd 877c c93c 96ef 49bb
00000360: a557 3cbb 4584 da3d e207 e33c aeea 203d
00000370: cef5 c73d 0ef3 093d 70ec 41bc 35ef 6b3d
00000380: f0be 113d 913c 15bd ba70 7bbd 698d 903c
00000390: b125 533d d2ce 673d 45ac c83d 31db 47bd
000003a0: a402 44bc 3a6b 903d a28d 333c 4d32 0cba
000003b0: 2da7 b5bc d726 ecbc e7b7 feb9 4cf4 d5bb
000003c0: ba66 353d 7140 babb 7b7a 6cbd 2234 963d
000003d0: 7580 b63d ab37 f33c e5f9 12bc 5b5b a53b
000003e0: bbcb 3e3c 68f8 ae3d 2a2b 0e3c 225e 9ebd
000003f0: 0153 04bd 36c2 6d3d 8a1e 9d3d 5052 8a3d
0.041245643 0.011049274 -0.024611475 0.009862265 -0.011775847 0.08838786 0.057511568 0.015948324
0.03235971 0.053662945 0.04667307 0.054071903 0.015676098 -0.044791598 0.0025748285 0.030640954
0.022034932 0.0662029 0.0047781947 -0.030873194 -0.008919142 0.036260124 0.018825227 -0.03327132
-0.034718107 -0.08160319 0.013274004 -0.054133445 -0.061380852 0.027459705 -0.07631707 -0.016938996
0.01477832 0.038695693 0.09338924 0.041021664 -0.055553377 -0.011896085 -0.037556455 0.014854127
0.017588718 0.013518044 0.0093725035 0.022510707 0.03832474 0.0499162 0.04260896 -0.058745302
0.047611862 -0.007713449 0.0458578 0.043913927 -0.033742923 -0.04039962 0.046767913 0.041857604
0.10046493 0.038454812 0.06800046 -0.034768883 0.094685175 -0.039024588 0.060084652 -0.042263165
-0.037368964 0.048252247 0.01529855 -0.0032210988 0.047381304 -0.10301732 -0.024456289 0.021687087
-0.028105212 -0.03451448 0.014353786 0.010858616 -0.027750503 -0.040602133 -0.0040605064 -0.033029757
0.04711624 -0.00531755 -0.028998207 -0.015543596 0.00046063686 0.04250791 -0.32845312 0.0021282958
0.04329355 0.06967414 -0.020431373 0.1158568 0.06731366 -0.093844004 0.0007987483 -0.08845193
-0.03549718 -0.03924243 0.045386795 0.031699378 -0.04871992 0.00804265 0.0306144 -0.00518369
0.02686127 0.043594692 -0.06524874 0.05564116 0.05971799 0.1618918 -0.02088804 0.061285272
0.019905293 0.022608832 -0.042237878 -0.00534638 -0.043857336 0.007077344 -0.01801948 0.024049064
0.11614048 0.013087169 0.032576475 -0.08036166 -0.066259414 0.06523184 0.061570402 -0.020953609
0.104013965 -0.041635044 0.06298888 0.07342625 0.1051234 0.07804246 0.04956948 0.06048315
-0.0029991 -0.004841919 0.045807447 0.0242219 -0.04971641 0.057103496 0.102698244 -0.0118555445
-0.035020895 0.005993403 -0.024550233 0.054240588 0.05418216 0.012370703 0.054082595 0.009004911
0.03835863 -0.016793303 0.03126854 -0.038642224 0.026989773 -0.0011292422 -0.045509208 0.06893431
-0.032042418 -0.007266195 -0.0065738317 0.07775666 -0.032410957 -0.056034908 0.045958422 -0.050929256
0.05633168 -0.047490314 -0.061636396 0.007731735 -0.038896456 0.1714348 0.099757746 -0.05333851
0.0232097 -0.07958111 -0.03411592 0.09141968 0.022869749 0.039783016 -0.079413295 0.1471838
-0.005560924 -0.019081417 -0.009065737 -0.046052814 0.068316005 0.021033498 -0.053817682 -0.039106514
-0.07497951 -0.011245111 0.0003019108 0.03531867 0.04826053 0.03037409 0.029408282 -0.0090514915
0.012679847 0.023225434 0.03867297 0.07441863 -0.014078753 0.07917306 -0.024909813 0.1915892
0.16955496 0.15049097 0.02885083 0.012158417 -0.0066686524 -0.06051043 0.024595512 -0.003081297
-0.0028738764 0.1066976 0.02771372 0.039286308 0.097636804 0.03367906 -0.011836156 0.057601172
0.035582483 -0.036434714 -0.0613868 0.017645555 0.051549617 0.056593724 0.09798483 -0.04879302
-0.01196352 0.07051702 0.010959061 -0.00053480716 -0.022174442 -0.028827114 -0.00048583673 -0.0065293666
0.04428742 -0.0056839515 -0.057733994 0.07334162 0.0891122 0.02968963 -0.008970712 0.005046291
0.011645253 0.085434735 0.008677283 -0.07732798 -0.03230572 0.058046542 0.076718405 0.06753981
