weights/8-21-yfp-1_split_4.pt (torch, 473578 bytes, 26 tensors)

conv1.bias f4 [64]
0.0006432096 -0.00058023434 -0.00070358877 -0.00018307235 -0.00026577292 0.00066453026 -0.00080414885 0.00073141133
-0.00067107455 0.0003845738 0.0008737456 -0.00025624497 -0.00077891257 -0.0008673213 -0.0005078186 -0.00054223224
-0.00032893755 0.00091973826 0.0003873566 0.0007708061 0.00049011846 0.00013774722 -0.000955258 -4.615091e-05
-0.00066258723 0.00096361735 0.00071718846 -0.00096648483 0.0005588191 -0.0006918041 0.00044926113 0.0005342892
0.0004361643 0.00097415934 0.0002057043 0.0007245092 0.00025394533 -0.00056292734 -5.622967e-05 0.00049358705
0.0006021917 0.00079120585 -0.0009648891 -0.00068689586 -0.0009738782 -0.0004917821 -0.00025895637 -0.00068559306
-0.0012535166 0.0009291433 -0.00096877664 -0.0009737807 0.0008039999 0.0009152019 0.00045596733 -0.0005005569
0.00057630095 0.0007609099 2.9664905e-05 -0.0008637963 0.00063065696 -0.00029534058 0.00081535825 0.0005425405
00000000: 119d 283a de1a 18ba 0b71 38ba 1cf7 3fb9
00000010: 7057 8bb9 df33 2e3a 84cd 52ba 2fbc 3f3a
00000020: 0deb 2fba 9fa0 c939 130c 653a 9e58 86b9
00000030: f02f 4cba f25c 63ba 211f 05ba 9724 0eba
00000040: 4075 acb9 971a 713a 1f16 cb39 ec0f 4a3a
00000050: 4b7b 003a 3d70 1039 476a 7aba 2a92 41b8
00000060: 7ab1 2dba 449b 7c3a b401 3c3a b35b 7dba
00000070: b77d 123a 305a 35ba cf8a eb39 8b0f 0c3a
00000080: fbac e439 ba5e 7f3a 54b2 5739 fdec 3d3a
00000090: f723 8539 6a91 13ba 26d8 6bb8 1164 013a
000000a0: 67dc 1d3a ed68 4f3a 9df0 7cba cd10 34ba
000000b0: dc4b 7fba f0ea 00ba 89c4 87b9 5fb9 33ba
000000c0: 0a4d a4ba c091 733a 80f5 7dba 5145 7fba
000000d0: 85c3 523a 29ea 6f3a e60e ef39 ce37 03ba
000000e0: e712 173a cd77 473a e6d8 f837 6370 62ba
000000f0: ac52 253a f1d7 9ab9 c4bd 553a 4739 0e3a

conv1.lin.weight f4 [64, 2]
-0.17631365 -0.11352143 -0.013635559 0.19510539 0.007852332 -0.05300077 -0.085555516 0.0015236472
-0.029108815 -0.103267275 0.16233282 0.23314437 0.024326526 0.16857436 -0.07676234 0.21500906
0.09904699 -0.04603479 0.038348828 0.16732031 -0.10135062 0.09433441 0.03155541 -0.17619848
-0.029099077 -0.028426042 0.15676872 0.024631917 -0.09769389 -0.13203907 0.21724448 0.20452335
-0.19929151 -0.012428273 0.065563686 -0.2509251 0.027505428 0.30534807 -0.072670594 0.29049194
0.2689016 0.08509955 -0.25908938 0.09569984 -0.17799777 -0.16851868 0.23155588 0.014841171
0.2169704 0.059353624 -0.12384342 -0.091167115 0.17356999 0.1292989 -0.170111 -0.11145034
0.10719359 -0.22721314 0.024741774 -0.03664206 -0.10717636 -0.25042576 -0.2589825 0.1448356
0.14222476 0.15167227 0.3172046 -0.10438524 -0.23752509 0.21176131 0.15641233 0.1476917
-0.002808712 0.05627089 0.07312272 -0.01919324 0.17880572 0.2185248 -0.26027346 0.29618847
-0.24790575 0.2861046 0.14948681 -0.002051977 -0.19262986 -0.18373705 0.051061187 0.22681966
-0.11048711 0.26783988 -0.24654275 0.25549307 0.3090822 0.07821626 0.02553406 -0.18347579
-0.02644862 0.0060907346 0.062793605 0.06798604 0.22510551 0.020208532 0.1641211 -0.0017118675
-0.16340142 0.23278974 -0.046156123 0.099964105 0.25996885 -0.048590906 0.008755084 -0.15661296
-0.167917 0.19622755 -0.14513442 0.2677668 0.21759826 0.051087506 0.24489771 0.034505073
-0.032628246 0.25473112 -0.1272658 -0.27694222 0.18125264 -0.14522563 -0.27867448 0.14867605
00000000: 918b 34be ec7d e8bd ae67 5fbc b5c9 473e
00000010: 11a7 003c 5617 59bd bb37 afbd 1eb5 c73a
00000020: 9c75 eebc cb7d d3bd 933a 263e 66bd 6e3e
00000030: 6c48 c73c c29e 2c3e 9335 9dbd 562b 5c3e
00000040: 26d9 ca3d fa8e 3cbd a913 1d3d 0456 2b3e
00000050: ea90 cfbd 6632 c13d 3f40 013d 606d 34be
00000060: 3061 eebc bbdd e8bc fb87 203e e0c8 c93c
00000070: bc13 c8bd 4035 07be 5675 5e3e 926e 513e
00000080: 1313 4cbe f59f 4bbc 4146 863d 4179 80be
00000090: 1053 e13c 9556 9c3e 52d4 94bd 5cbb 943e
000000a0: 78ad 893e ac48 ae3d 5da7 84be 47fe c33d
000000b0: 0c45 36be 2990 2cbe fc1c 6d3e 6228 733c
000000c0: 7d2d 5e3e c91c 733d 9ea1 fdbd d3b5 babd
000000d0: 55bc 313e ee66 043e 9431 2ebe 1340 e4bd
000000e0: 5088 db3d 90aa 68be 43af ca3c fc15 16bd
000000f0: 487f dbbd ce37 80be 5b99 84be c94f 143e
00000100: 5ea3 113e fa4f 1b3e a468 a23e eec7 d5bd
00000110: c739 73be f5d7 583e 8e2a 203e 7e3c 173e
00000120: 5e12 38bb 4e7c 663d 5dc1 953d 243b 9dbc
00000130: d918 373e f7c4 5f3e 9042 85be 04a6 973e
00000140: 01db 7dbe 4d7c 923e 1213 193e 767a 06bb
00000150: c340 45be 9125 3cbe 8925 513d 6a43 683e
00000160: 1147 e2bd 4f22 893e b475 7cbe fdcf 823e
00000170: 0640 9e3e d92f a03d ce2c d13c 14e1 3bbe
00000180: c7aa d8bc c994 c73b ef99 803d 443c 8b3d
00000190: 0f82 663e 5d8c a53c 5d0f 283e be60 e0ba
000001a0: b452 27be 6f60 6e3e 340e 3dbd fbb9 cc3d
000001b0: a31a 853e 4207 47bd 7c71 0f3c 265f 20be
000001c0: 6ff2 2bbe e0ef 483e 1e9e 14be bb18 893e
000001d0: 14d2 5e3e 2241 513d 77c6 7a3e 3155 0d3d
000001e0: 32a5 05bd 1e6c 823e f751 02be 5fcb 8dbe
000001f0: 4b9a 393e 07b6 14be 6cae 8ebe 893e 183e

conv2.bias f4 [64]
-0.022520777 0.02219682 0.023646925 0.02349026 0.023065064 0.016215393 0.023434436 -0.023272099
-0.004532333 0.023626002 -0.024614748 -0.021588242 -0.026580792 0.024491612 0.024822334 -0.015272685
0.013211202 -0.029940143 0.022408037 -0.029272813 0.010751441 0.031754486 0.032429975 0.023503572
-0.02394887 0.034065675 0.016127156 -0.02428762 -0.026999386 0.02237001 -0.027152345 0.02172683
-0.023882063 0.021718293 0.023029348 0.022436853 -0.02499182 -0.013163829 0.023464743 -0.024961408
-0.032684628 -0.023544475 0.022649476 -0.015660502 0.008746554 -0.030720012 -0.023160292 0.019411841
-0.024323046 0.02206273 0.024399577 0.022239866 0.029718984 -0.02130427 -0.02193148 -0.023501704
-0.032501698 -0.021907276 0.018136289 0.023215897 -0.010953146 -0.024105107 0.020537272 -0.00016157774
00000000: 7e7d b8bc 1bd6 b53c 32b7 c13c a56e c03c
00000010: f2f2 bc3c 25d6 843c 93f9 bf3c 21a5 bebc
00000020: f783 94bb 518b c13c dea4 c9bc d3d9 b0bc
00000030: f6bf d9bc a2a2 c83c 3558 cb3c 493a 7abc
00000040: cc73 583c 0845 f5bc 0f91 b73c 8acd efbc
00000050: d026 303c fe10 023d 4bd5 043d 908a c03c
00000060: 6c30 c4bc 7388 0b3d 191d 843c d5f6 c6bc
00000070: d12d ddbc 5041 b73c 986e debc 77fc b13c
00000080: 51a4 c3bc 90ea b13c 0ba8 bc3c 7ecd b73c
00000090: a5bb ccbc 1aad 57bc 2239 c03c de7b ccbc
000000a0: 51e0 05bd 58e0 c0bc 658b b93c 744a 80bc
000000b0: b54d 0f3c 89a8 fbbc a7ba bdbc 9505 9f3c
000000c0: 2041 c7bc e6bc b43c 9fe1 c73c 6130 b63c
000000d0: 3a75 f33c 4b86 aebc a6a9 b3bc a586 c0bc
000000e0: 8020 05bd e376 b3bc 8e92 943c 442f be3c
000000f0: d374 33bc 1378 c5bc c83d a83c 326d 29b9

conv2.lin.weight f4 [64, 64]
0.06368168 -0.0425559 -0.16485967 -0.047898278 -0.03181358 0.034325626 0.12503898 -0.031213446
-0.062395412 -0.08236998 -0.06397007 -0.104464896 -0.13515626 -0.047448818 0.05243817 -0.20769684
0.17423564 0.17955647 0.1411451 -0.04259123 -0.2298262 0.0804281 -0.14896226 0.1525309
0.1880903 -0.16406137 -0.15126643 -0.17956083 -0.087638326 0.0076092677 -0.09825906 -0.101036295
0.0007355048 0.09963795 -0.0686049 -0.09358977 0.060132045 -0.21938314 0.04688598 0.1108223
0.09842275 -0.084576614 0.2237259 -0.038073033 0.24287175 -0.11217331 -0.03796066 0.1468323
0.19848707 -0.13119864 0.07816334 0.07514161 -0.07023852 0.029742582 0.12611668 0.06764017
-0.18020228 -0.077226326 0.11926947 0.182051 -0.013844091 0.123811685 -0.18620719 -0.11795579
-0.11759493 0.071096435 0.193971 -0.18394166 -0.097433224 -0.114958905 0.120148726 -0.1635984
-0.19182485 0.099464856 -0.05874594 -0.041764006 -0.072633214 -0.03408617 0.13948031 -0.07403898
-0.12211327 -0.088976644 -0.06465478 0.15142569 -0.10790121 0.19696009 -0.14452812 0.22019087
-0.1875593 -0.15991661 0.110759705 -0.20059463 -0.091935694 -0.0020573882 0.20560826 0.0018937867
0.1782806 0.07310756 -0.058776703 0.057137366 -0.15050836 0.19258925 0.16648583 0.21437041
0.11978365 -0.13632862 -0.22647105 0.07089722 -0.0077201473 -0.014902626 0.024706904 0.16210447
0.07274897 0.2125728 0.19781348 -0.16199228 0.046228193 0.2147756 0.061925698 0.122527204
-0.0171133 0.12036182 -0.07624309 0.12303361 0.22288033 -0.015911272 0.122414 -0.17138363
0.13081762 -0.080586374 0.12477347 0.12028915 0.16772245 -0.12566485 0.017922511 -0.14564185
0.23727915 0.05195503 -0.20629935 0.12953451 -0.09760805 0.15981413 0.11157911 0.19530885
0.08821169 -0.0067323316 -0.011723643 0.15539926 -0.12881988 -0.029584434 -0.0030829476 0.11651515
0.19404076 -0.18185619 0.20931655 0.19776696 0.1962889 -0.0132742915 -0.07381792 -0.15337765
-0.12509178 0.15398665 -0.21082847 0.0016814399 -0.14774993 0.13035347 -0.18191732 0.14574796
-0.014962717 0.15979455 0.06985581 -0.043931052 -0.14847505 0.07595988 0.21415947 -0.061700396
0.09584479 0.12814921 -0.16468918 -0.12360587 0.0875526 -0.2005223 0.09388233 -0.05985436
6.931457e-05 -0.11232292 0.0037621355 -0.17297085 -0.03827799 -0.1022517 -0.15294433 0.077326186
0.091029644 -0.12708236 -0.2125067 0.2021639 0.06489006 -0.064296395 0.10573051 -0.03596406
-0.10007478 0.0942696 -0.011866381 -0.20655417 -0.12773213 -0.022329643 -0.046921782 0.041039106
0.031054761 -0.16019593 0.14996655 0.16965719 0.041653637 -0.022333963 0.15833724 -0.07479562
-0.02805817 0.027758973 0.21604519 -0.11552132 -0.048445787 -0.17062485 0.14919357 -0.18241976
0.106943555 -0.10952268 0.16079284 0.14947197 -0.19054393 0.053062133 0.1921632 0.1615608
0.1548901 -0.0440522 -0.2363853 -0.01462269 0.03704506 0.011332433 -0.14309585 -0.219836
0.1288254 -0.11779419 -0.21557383 0.021688199 0.17521724 0.19599262 0.029881332 -0.13875984
0.05600387 0.21608086 -0.13889153 -0.19164677 -0.008613932 0.008924559 0.14368293 0.035534438
00000000: 8a6b 823d 184f 2ebd f9d0 28be fc30 44bd
00000010: f54e 02bd 0799 0c3d 380a 003e 57b3 ffbc
00000020: 5592 7fbd 98b1 a8bd bd02 83bd b1f1 d5bd
00000030: 6766 0abe b159 42bd 68c9 563d 7bae 54be
00000040: d46a 323e a7dd 373e 5788 103e 2474 2ebd
00000050: 8f57 6bbe 7db7 a43d 9089 18be 0f31 1c3e
00000060: be9a 403e b4ff 27be 96e5 1abe cbde 37be
00000070: b97b b3bd 2a57 f93b 0c3c c9bd 1eec cebd
00000080: e4ce 403a fb0e cc3d ba80 8cbd feab bfbd
00000090: 054d 763d f9a5 60be 830b 403d cdf6 e23d
000000a0: de91 c93d 8136 adbd 6718 653e 78f2 1bbd
000000b0: 5fb3 783e 1fbb e5bd a37c 1bbd 355b 163e
000000c0: 3240 4b3e f058 06be 1a14 a03d d8e3 993d
000000d0: 37d9 8fbd b7a6 f33c bb24 013e ee86 8a3d
000000e0: f286 38be d628 9ebd 8d43 f43d 946b 3a3e
000000f0: 54d2 62bc fb90 fd3d 19ad 3ebe ce92 f1bd
00000100: 9cd5 f0bd 029b 913d 55a0 463e 345b 3cbe
00000110: 128b c7bd 936f ebbd 8910 f63d 5786 27be
00000120: bc6d 44be 3bb4 cb3d 959f 70bd bc10 2bbd
00000130: b9c0 94bd f19d 0bbd edd3 0e3e c0a1 97bd
00000140: 8616 fabd 6339 b6bd ba69 84bd 560f 1b3e
00000150: 4ffb dcbd e8af 493e 2eff 13be b779 613e
00000160: 8c0f 40be 2ec1 23be fcd5 e23d ae68 4dbe
00000170: c848 bcbd 3fd5 06bb f98a 523e f038 f83a
00000180: 318f 363e 6bb9 953d d7bf 70bd df08 6a3d
00000190: dd1e 1abe 1e36 453e 437b 2a3e eb83 5b3e
000001a0: 2151 f53d bb99 0bbe 07e8 67be 9032 913d
000001b0: 4af9 fcbb 252a 74bc 2266 ca3c b7fe 253e
000001c0: 69fd 943d afac 593e 9e8f 4a3e 4ee1 25be
000001d0: c659 3d3d 23ee 5b3e cda5 7d3d 8bef fa3d
000001e0: 3131 8cbc 4280 f63d 5625 9cbd 0cf9 fb3d
000001f0: be3a 643e 5b58 82bc 31b4 fa3d 317f 2fbe
00000200: 0ef5 053e 780a a5bd 3c89 ff3d 285a f63d
00000210: 6fbf 2b3e 49ae 00be 3bd2 923c 2323 15be
00000220: 4ef9 723e ccce 543d 2340 53be b2a4 043e
00000230: bbe6 c7bd 51a6 233e 9783 e43d 0bff 473e
00000240: 55a8 b43d e49a dcbb 8614 40bc fc20 1f3e
00000250: 5ce9 03be 0e5b f2bc 470b 4abb 7f9f ee3d
00000260: 9fb2 463e 8238 3abe 1457 563e 6c83 4a3e
00000270: f5ff 483e 6a7c 59bc da2d 97bd 080f 1dbe
00000280: 0f18 00be adae 1d3e 6be3 57be c363 dc3a
00000290: c24b 17be 617b 053e 8948 3abe f43e 153e
000002a0: 2f26 75bc 2fa1 233e 9010 8f3d 0cf1 33bd
000002b0: d809 18be db90 9b3d 9f4c 5b3e 8eb9 7cbd
000002c0: 464a c43d 8c39 033e 48a4 28be 1325 fdbd
000002d0: c74e b33d b855 4dbe 6145 c03d d829 75bd
000002e0: fa5c 9138 8f09 e6bd 298e 763b 451f 31be
000002f0: 62c9 1cbd 5769 d1bd 709d 1cbe 315d 9e3d
00000300: c06d ba3d e121 02be 5b9b 59be 0e04 4f3e
00000310: 14e5 843d d4ad 83bd 3d89 d83d 0d4f 13bd
00000320: 02f4 ccbd 6c10 c13d 366b 42bc f082 53be
00000330: 36cc 02be a8ec b6bc 0e31 40bd 9f18 283d
00000340: 8e66 fe3c 670a 24be d590 193e 9dba 2d3e
00000350: 019d 2a3d b7f5 b6bc 2823 223e 722e 99bd
00000360: 3fda e5bc c966 e33c f33a 5d3e 7196 ecbd
00000370: 176f 46bd 48b8 2ebe 33c6 183e 3fcc 3abe
00000380: 3905 db3d 6d4d e0bd e1a6 243e 2e0f 193e
00000390: f31d 43be ae57 593d 6ec6 443e 3270 253e
000003a0: 839b 1e3e 1470 34bd fd0e 72be 0294 6fbc
000003b0: 90bc 173d abab 393c b887 12be b01c 61be
000003c0: ceea 033e 153e f1bd 63bf 5cbe 73ab b13c
000003d0: 266c 333e 4ab2 483e b2c9 f43c 0f17 0ebe
000003e0: 5064 653d 4d44 5d3e 9539 0ebe 0d3f 44be
000003f0: 7321 0dbc 5038 123c 9e21 133e 8f8c 113d

conv3.bias f4 [128]
-0.0010467797 -0.0006785968 0.0011627359 3.045646e-05 0.0006473389 -0.001227935 0.00090420333 -0.001006708
0.0010653968 0.0008153518 -0.0009805898 0.00029710113 -4.5592806e-05 0.00064200745 0.0012348351 0.00070325925
-0.0018425668 0.00051431847 -0.000897506 -0.0010432921 0.00076635985 -0.00038650035 0.0012290595 0.00093617744
-0.00051137473 -0.0016724905 -0.00078245346 0.00078743295 0.0011229237 -0.0017332947 0.0012262207 0.0011599011
-0.0010372029 0.0008240472 0.0007396444 0.000783751 0.0005085389 -0.0009362184 -0.000980093 0.0011961565
-0.0011420476 0.0012376098 0.0010069609 0.00018701516 -0.0015976984 0.0005966416 -0.0006658731 -0.00036466256
0.00057374855 -0.0003957753 -0.00076117617 -0.0012340358 0.000727375 -6.5897606e-05 0.0003627612 -0.000689474
-0.0005084632 -0.00014158129 0.0012623598 -0.00035989663 -0.0003166047 -0.00026164303 0.0005197361 -0.00039337625
0.0010837493 -0.00013901647 -0.0007403099 -0.00095176103 0.0008445304 -0.00037992306 0.0012284188 -4.1035324e-05
-0.000882541 -0.0006866659 0.0011786488 -0.0009249799 -0.00079104013 0.0012564419 0.0007933519 0.00051272
-0.0007035011 -0.0020097108 0.00086728344 0.0007409881 -5.2113704e-05 -0.00020916236 0.00064029853 -0.00072614517
6.104113e-05 0.00096237217 0.0009467738 -0.0011632292 0.0003100703 -0.00076612143 -0.00060925365 -0.0010523783
0.0009642508 0.00027992617 -0.0001637997 0.0011745329 -0.0012559937 -0.00093136326 0.0012405866 0.0008141119
-0.0010251658 -0.00084434845 0.0007884238 -0.0016732473 -0.001030951 -0.0008591836 0.0018565864 0.00091061386
-0.00057649333 -0.0004741486 0.00087382534 0.0012126103 0.0009373342 -0.002435599 -0.00044802678 -0.00086388306
-0.0015622751 0.0007795927 0.0010808591 0.00056954875 0.00051498355 0.00080696173 0.0009034919 -0.00065129966
00000000: 1934 89ba dce3 31ba f166 983a c07c ff37
00000010: 2eb2 293a a9f2 a0ba 0f08 6d3a 84f3 83ba
00000020: c9a4 8b3a 55bd 553a 2287 80ba 3dc4 9b39
00000030: e73a 3fb8 644c 283a 31da a13a ee5a 383a
00000040: 4882 f1ba 54d3 063a 9c46 6bba 13bf 88ba
00000050: 8ae5 483a 33a3 cab9 6518 a13a ce69 753a
00000060: c70d 06ba 7837 dbba 901d 4dba bb6b 4e3a
00000070: 112f 933a b82f e3ba 24b9 a03a d307 983a
00000080: c1f2 87ba df04 583a b2e4 413a a474 4d3a
00000090: 784f 053a 8e6c 75ba 7776 80ba 5ac8 9c3a
000000a0: c2b0 95ba 4b37 a23a 00fc 833a 8019 4439
000000b0: dd69 d1ba f167 1c3a fd8d 2eba 2e30 bfb9
000000c0: 9d67 163a 1080 cfb9 ab89 47ba 5fbf a1ba
000000d0: 4fad 3e3a 8232 8ab8 fc30 be39 d1bd 34ba
000000e0: 634a 05ba 7075 14b9 c475 a53a 82b0 bcb9
000000f0: f7fd a5b9 222d 89b9 e63e 083a 113e ceb9
00000100: 980c 8e3a f3c4 11b9 5b11 42ba 9a7f 79ba
00000110: 7a63 5d3a 6930 c7b9 e502 a13a 581d 2cb8
00000120: 535a 67ba 5e01 34ba e47c 9a3a 5a7a 72ba
00000130: ce5d 4fba 32af a43a f2f8 4f3a 0f68 063a
00000140: 296b 38ba 5ab5 03bb 685a 633a df3e 423a
00000150: aa94 5ab8 9852 5bb9 b5d9 273a c75a 3eba
00000160: 3503 8038 b447 7c3a ea30 783a 7f77 98ba
00000170: ee90 a239 8ad5 48ba 52b6 1fba f5ef 89ba
00000180: c7c5 7c3a 0ec3 9239 a6c1 2bb9 c9f2 993a
00000190: 28a0 a4ba bb26 74ba 2e9b a23a 206a 553a
000001a0: db5e 86ba 4457 5dba 3aae 4e3a dd50 dbba
000001b0: fa20 87ba d63a 61ba b458 f33a 43b6 6e3a
000001c0: d01f 17ba 2697 f8b9 6d11 653a 73f0 9e3a
000001d0: 6fb7 753a 929e 1fbb 23e5 eab9 3676 62ba
000001e0: 41c5 ccba 955d 4c3a 9dab 8d3a c54d 153a
000001f0: f6ff 063a 498a 533a 51d8 6c3a fbbb 2aba

conv3.lin.weight f4 [128, 64]
-0.054093722 -0.19382642 -0.06561486 -0.18365508 0.040310096 0.18600938 0.1354118 -0.13595799
-0.088183686 -0.12178332 -0.09568211 -0.09171801 0.12657875 0.17352755 -0.054829955 -0.14815304
0.047122605 0.056003388 -0.057314847 -0.1437239 0.02099139 -0.092185795 0.06526551 0.06090969
0.06587104 -0.13612975 0.047550775 -0.025006684 -0.07214915 -0.17613196 0.06657398 0.05372798
-0.067122705 -0.026330546 -0.021001032 0.013253916 0.118980356 -0.036415063 0.15673313 0.018532388
0.022342164 -0.16519736 0.15190865 0.0047195675 0.118945315 0.025556898 -0.05048258 0.07274184
0.065523304 -0.18939586 0.03857543 0.054919656 0.057874486 -0.014825995 0.08923305 -0.028114615
-0.02352908 -0.08491618 0.042748567 -0.14853162 -0.14041802 -0.10984102 0.17810705 0.032336622
-0.07833426 -0.15595335 0.08675954 -0.07632585 0.016426492 -0.048113238 -0.1180299 0.10978844
-0.10348661 -0.011555348 -0.17612234 0.03156762 0.03314102 0.015795575 -0.036022022 0.13145618
-0.012865867 -0.07762188 -0.15740706 -0.14460993 0.11731176 -0.07982318 -0.12269414 0.03642058
0.00961649 0.15618703 -0.09872499 -0.15256669 0.100548744 0.017152803 0.029952204 -0.07836151
0.039425086 0.0065410133 0.068388864 -0.16134362 0.103307396 0.15681103 -0.06403109 0.17121473
0.11353193 0.0931886 -0.08621625 -0.01884864 -0.0349896 -0.12955976 -0.1518922 -0.10437035
0.05709789 0.08209915 0.009003019 -0.04822884 0.09736731 0.064616464 -0.10229498 0.036510203
-0.19339284 0.13878724 -0.11112472 -0.055804297 0.039152738 -0.09694202 0.1367021 0.042575993
0.034418598 -0.03451087 0.13161716 -0.1101074 -0.08764711 0.08423909 0.1456106 -0.05097429
0.05541965 0.09237353 0.032197308 -0.025121298 0.006712413 0.13541263 0.06920038 0.11741246
-0.1453068 0.03307587 -0.15633798 -0.07915944 -0.05574366 -0.061830815 -0.099677354 0.13655631
-0.1921885 0.06459256 0.079814255 -0.016236186 -0.058751486 -0.06982737 0.11330516 -0.0033154467
0.07514291 -0.018281301 0.03509101 0.044359934 -0.045033585 -0.07529195 -0.00070380874 -0.036516994
0.13466424 -0.048440874 0.1405044 0.08522494 0.14872517 0.16333175 -0.017388208 -0.041483052
0.1189043 -0.1534856 0.023350112 -0.03472306 -0.12252924 -0.05773834 -0.11118896 0.12884727
-0.1400262 -0.08821207 -0.18694454 -0.012189388 0.15993722 0.02833098 0.03534139 0.07688199
-0.09572242 -0.0025872036 -0.04723093 -0.046378322 0.044267073 0.08423261 0.13236047 0.006170659
0.12419042 -0.07028905 -0.08050436 -0.15735796 -0.07841487 0.05569468 -0.081731774 -0.092986144
0.07836546 0.103850044 -0.11420213 0.029455207 0.110354505 -0.03282822 -0.11808352 -0.057243515
0.031985834 -0.0966444 0.057838816 -0.0760688 0.10849225 0.11006225 -0.110329784 -0.12899473
0.14337237 0.11753395 0.020513024 -0.063978106 0.10054526 -0.1813411 0.127982 0.15346755
-0.007500038 -0.16128182 -0.11039748 0.07263406 0.18601884 0.04312132 -0.14133283 -0.16066195
-0.1488007 0.03263367 -0.053389 -0.0743724 0.08837502 0.0322721 0.08696886 -0.01143889
-0.014219403 -0.04404675 -0.12869419 -0.12842016 0.11987447 -0.027723571 -0.09294612 -0.13795918
00000000: 6191 5dbd 6f7a 46be 1561 86bd 1410 3cbe
00000010: 331c 253d 3e79 3e3e 64a9 0a3e 9238 0bbe
00000020: a699 b4bd 8969 f9bd fbf4 c3bd a7d6 bbbd
00000030: dc9d 013e 35b1 313e 6095 60bd 6eb5 17be
00000040: a203 413d cf63 653d f9c2 6abd 5c2c 13be
00000050: 23f6 ab3c e8cb bcbd eca9 853d 707c 793d
00000060: 65e7 863d 9965 0bbe 9ac4 423d d1da ccbc
00000070: efc2 93bd f05b 34be f057 883d df11 5c3d
00000080: a177 89bd 28b3 d7bc 5b0a acbc f426 593c
00000090: f9ab f33d f627 15bd a67e 203e 3cd1 973c
000000a0: ea06 b73c 7f29 29be f18d 1b3e 9aa6 9a3b
000000b0: 9a99 f33d b35c d13c d2c6 4ebd acf9 943d
000000c0: 1531 863d fdf0 41be 4501 1e3d 6ff3 603d
000000d0: cc0d 6d3d bbe8 72bc d1bf b63d 9f50 e6bc
000000e0: 0fc0 c0bc 89e8 adbd 1f19 2f3d ac18 18be
000000f0: bec9 0fbe 54f4 e0bd b261 363e 6873 043d
00000100: b66d a0bd 3cb2 1fbe fcae b13d ba50 9cbd
00000110: da90 863c 6312 45bd a9b9 f1bd c3d8 e03d
00000120: caf0 d3bd a452 3dbc 6a59 34be 0c4d 013d
00000130: e1be 073d b965 813c d48b 13bd 739c 063e
00000140: 5bcb 52bc 38f8 9ebd 512f 21be a014 14be
00000150: 2641 f03d 567a a3bd 1147 fbbd bf2d 153d
00000160: 7c8e 1d3c 7eef 1f3e 5430 cabd 713a 1cbe
00000170: 80ec cd3d 0984 8c3c 535e f53c 007c a0bd
00000180: 337c 213d ff55 d63b 760f 8c3d 4337 25be
00000190: d492 d33d 1293 203e bb22 83bd ea52 2f3e
000001a0: 6e83 e83d aad9 be3d 2592 b0bd 7768 9abc
000001b0: 4151 0fbd 50ab 04be a189 1bbe 1fc0 d5bd
000001c0: 7adf 693d 9923 a83d 6681 133c 9b8b 45bd
000001d0: 8368 c73d a355 843d 0880 d1bd b98b 153d
000001e0: c608 46be 3e1e 0e3e 5b95 e3bd 0c93 64bd
000001f0: 9f5e 203d 8a89 c6bd a3fb 0b3e 2a64 2e3d
00000200: 84fa 0c3d 455b 0dbd a6c6 063e fd7f e1bd
00000210: 5480 b3bd 8b85 ac3d f21a 153e 6bca 50bd
00000220: b7ff 623d 552e bd3d 53e1 033d 2ecb cdbc
00000230: cdf3 db3b 9ca9 0a3e eeb8 8d3d f275 f03d
00000240: 4ecb 14be 907a 073d 1017 20be 581e a2bd
00000250: 7753 64bd 4f42 7dbd a423 ccbd 6bd5 0b3e
00000260: 10cd 44be 1b49 843d a875 a33d c001 85bc
00000270: 66a5 70bd a701 8fbd 890c e83d f747 59bb
00000280: 87e4 993d abc2 95bc 97bb 0f3d c3b2 353d
00000290: 2375 38bd aa32 9abd ce7f 38ba d892 15bd
000002a0: 6ce5 093e f069 46bd 63e0 0f3e 6a8a ae3d
000002b0: 694b 183e 7040 273e b771 8ebc 22ea 29bd
000002c0: 1984 f33d 542b 1dbe bc48 bf3c c439 0ebd
000002d0: 9cf0 fabd 0a7f 6cbd 0ab7 e3bd 8af0 033e
000002e0: 0763 0fbe 88a8 b4bd 646e 3fbe 00b6 47bc
000002f0: 95c6 233e 5f16 e83c 22c2 103d 4e74 9d3d
00000300: 1e0a c4bd 138e 29bb 3875 41bd 32f7 3dbd
00000310: 6451 353d 2682 ac3d 8189 073e 3d33 ca3b
00000320: 8c57 fe3d b5f3 8fbd 78df a4bd 7222 21be
00000330: fa97 a0bd 1b20 643d fd62 a7bd 856f bebd
00000340: 127e a03d 55af d43d cee2 e9bd 0c4c f13c
00000350: 8b01 e23d e276 06bd c6d5 f1bd 2d78 6abd
00000360: 9403 033d 80ed c5bd 65e8 6c3d f6c9 9bbd
00000370: 2f31 de3d 5168 e13d 95f4 e1bd 3217 04be
00000380: 35d0 123e a4b5 f03d ee0a a83c f406 83bd
00000390: acea cd3d 7bb1 39be b70d 033e 9926 1d3e
000003a0: e1c2 f5bb 1027 25be 1318 e2bd 2bc1 943d
000003b0: b97b 3e3e fb9f 303d 8eb9 10be 9184 24be
000003c0: 365f 18be e2aa 053d 6dae 5abd 8f50 98bd
000003d0: f6fd b43d c02f 043d bb1c b23d 2f6a 3bbc
000003e0: 80f8 68bc 5d6a 34bd 69c8 03be 9380 03be
000003f0: bf80 f53d 8b1c e3bc 895a bebd 2c45 0dbe

conv4.bias f4 [256]
-0.023917878 -0.024121733 0.024343736 0.02050738 0.026453512 -0.022480734 -0.0069352435 0.024653336
0.023739599 -0.02516651 -0.007656928 -0.022834675 0.026938874 -0.024799168 -0.024047118 -0.024424283
-0.02610492 0.022713918 -0.024959285 0.017566208 -0.022207526 -0.025951939 0.023884533 0.0330975
0.022716405 -0.029065896 0.020207858 -0.02537358 -0.031957578 -0.023291614 -0.038700715 0.02254211
-0.02448133 -0.009591581 -0.02311734 0.021546066 -0.025478814 0.016100645 0.019875977 0.019367775
0.025814898 0.02354785 -0.024724403 0.026304848 -0.02994315 0.023174997 0.025017913 0.024877574
0.021225223 -0.009246651 -0.024728479 -0.02351587 0.023322033 -0.024662223 0.01966386 0.018224468
0.033979144 -0.028185831 0.025678897 0.019842995 0.030032808 -0.019694034 0.022702208 -0.023738204
-0.024433428 0.023602294 -0.018801015 0.010326074 -0.024752367 0.023903018 0.019123925 -0.023116386
0.035886094 -0.025011795 0.023635948 -0.025969723 -0.025005734 -0.023619555 -0.021353126 0.019298067
-0.021907425 0.027406484 -0.024271777 0.022230327 -0.023434432 -0.025625907 -0.021229763 0.027655084
0.02152691 -0.02166175 0.022254543 0.022054162 0.03276878 -0.022810739 0.016049972 -0.025370238
-0.030292746 0.014923979 0.024066042 -0.027158119 -0.030436188 0.024819614 -0.023410978 0.015252548
0.026498659 0.025753498 -0.02386119 -0.022450097 0.025032371 -0.025105437 -0.023734506 0.026986267
-0.021911079 -0.025051331 -0.024495633 -0.029202554 -0.02338741 -0.021270296 -0.021157965 -0.03344815
-0.021382954 0.023486884 0.027287995 0.030373067 -0.025966346 -0.024697058 0.016442256 -0.030060217
0.02191423 0.02293236 -0.02431746 0.023544839 -0.022455228 0.025861222 -0.02516737 -0.032639205
0.03228361 -0.02388728 -0.022265242 0.02402841 -0.02295615 -0.026305525 0.021534113 0.01962286
0.024993809 -0.026501244 0.024809344 -0.022266174 -0.015956683 -0.024575185 0.023366857 -0.024723476
-0.023386674 -0.023060009 0.025494117 0.014268798 -0.024504479 -0.020846317 -0.027940761 -0.021420367
0.020785926 -0.01547542 0.023316514 0.025939908 -0.020941585 0.031810705 -0.025474146 0.019123709
-0.023055984 0.024783673 -0.027267046 0.025338316 -0.029303577 0.017370302 0.024674315 -0.027982196
-0.017539367 -0.027597824 0.02780022 -0.021060381 0.019849803 -0.026197078 0.015615313 0.02048145
-0.021328736 -0.024245389 -0.025783876 -0.023793647 0.01856729 -0.024160286 -0.025478764 0.020647276
0.023856983 0.024621207 0.024104534 -0.024449993 0.020118676 0.026525443 0.033250757 -0.026086941
0.037357263 0.024421902 0.022762818 -0.026348012 -0.026655965 0.026620904 0.027521739 0.026190285
0.022642344 -0.028139573 0.023147954 0.025163341 -0.0008319405 -0.026120642 0.023804666 -0.023060054
0.022457212 0.01735347 0.030201301 -0.023436354 -0.025691828 -0.023042325 0.012753342 0.023773186
-0.019693542 0.02253118 0.026068853 -0.024271356 0.024005275 0.024509914 0.023647232 -0.03653859
-0.0262402 -0.026409604 0.010335098 0.023988508 -0.024512658 0.025589956 -0.030782375 0.021724613
-0.024786722 -0.024801992 0.024812939 0.02886736 0.022882825 0.017289722 -0.0221919 0.022818169
0.02518212 0.023354232 -0.02436549 0.023242244 -0.021573365 -0.026534382 -0.022672573 -0.025141254
00000000: 6def c3bc f19a c5bc 846c c73c 18ff a73c
00000010: 09b5 d83c 8429 b8bc 0a41 e3bb cbf5 c93c
00000020: 8c79 c23c ff29 cebc f8e6 fabb c90f bbbc
00000030: eaae dc3c a027 cbbc 76fe c4bc 6f15 c8bc
00000040: fcd9 d5bc 8a12 ba3c 6a77 ccbc 02e7 8f3c
00000050: 8fec b5bc 2999 d4bc 7fa9 c33c 3f91 073d
00000060: c117 ba3c 9a1b eebc f38a a53c 41dc cfbc
00000070: f3e5 02bd 0ece bebc a484 1ebd 3baa b83c
00000080: 128d c8bc 0226 1dbc 9360 bdbc 6081 b03c
00000090: f2b8 d0bc 80e5 833c f2d2 a23c 2ba9 9e3c
000000a0: c479 d33c 6ce7 c03c d58a cabc 447d d73c
000000b0: 564b f5bc 7ed9 bd3c 5ef2 cc3c 0ecc cb3c
000000c0: 85e0 ad3c 447f 17bc 6193 cabc 5ba4 c0bc
000000d0: d90d bf3c 6e08 cabc 1a16 a13c 7b4b 953c
000000e0: b72d 0b3d f9e5 e6bc 8d5c d23c c78d a23c
000000f0: 5d07 f63c 6255 a1bc fbf9 b93c 9f76 c2bc
00000100: 9d28 c8bc 9959 c13c 9604 9abc b22e 293c
00000110: 7ac5 cabc 43d0 c33c c7a9 9c3c 935e bdbc
00000120: 4cfd 123d 89e5 ccbc 2da0 c13c 75be d4bc
00000130: d3d8 ccbc cc7d c1bc c0ec aebc fb16 9e3c
00000140: 3377 b3bc 9083 e03c 9bd5 c6bc 601c b63c
00000150: 91f9 bfbc 6ced d1bc 0aea adbc ea8c e23c
00000160: 3459 b03c fb73 b1bc 294f b63c eeaa b43c
00000170: 8e38 063d 96dd babc 3b7b 833c 3fd5 cfbc
00000180: 7e28 f8bc b483 743c 2626 c53c b47a debc
00000190: 5055 f9bc 8152 cb3c 61c8 bfbc d3e5 793c
000001a0: b713 d93c 00f9 d23c 8b78 c3bc 44e9 b7bc
000001b0: b010 cd3c eba9 cdbc de6e c2bc 4e12 dd3c
000001c0: dd7e b3bc 7338 cdbc 11ab c8bc 323a efbc
000001d0: f496 bfbc 0b3f aebc 7853 adbc ed00 09bd
000001e0: 4e2b afbc 9167 c03c 138b df3c f0d0 f83c
000001f0: 60b7 d4bc 7c51 cabc e9b1 863c d840 f6bc
00000200: 7985 b33c a5dc bb3c 6935 c7bc 1be1 c03c
00000210: 07f4 b7bc eada d33c cd2b cebc b0b0 05bd
00000220: d23b 043d 42af c3bc 9965 b6bc 3ad7 c43c
00000230: 890e bcbc af7e d7bc 4f68 b03c 1fc0 a03c
00000240: d1bf cc3c 2319 d9bc f73c cb3c 8d67 b6bc
00000250: 97b7 82bc e651 c9bc da6b bf3c e388 cabc
00000260: 6995 bfbc 58e8 bcbc 0ad9 d03c adc7 693c
00000270: 9ebd c8bc e5c5 aabc 06e4 e4bc c479 afbc
00000280: 3f47 aa3c 9e8c 7dbc 4602 bf3c ee7f d43c
00000290: b08d abbc f14b 023d 28af d0bc 53a9 9c3c
000002a0: e7df bcbc 2107 cb3c 245f dfbc 4d92 cf3c
000002b0: 0e0e f0bc 2a4c 8e3c ca21 ca3c eb3a e5bc
000002c0: b8ae 8fbc d514 e2bc 49bd e33c d286 acbc
000002d0: 0e9c a23c 419b d6bc 5fd7 7f3c b7c8 a73c
000002e0: 9ab9 aebc 449e c6bc b538 d3bc e5ea c2bc
000002f0: 6e1a 983c cbeb c5bc d7b8 d0bc 7a24 a93c
00000300: b86f c33c 6ab2 c93c df76 c53c 5a4b c8bc
00000310: eccf a43c e34b d93c f231 083d 48b4 d5bc
00000320: ee03 193d 7110 c83c 1779 ba3c c9d7 d7bc
00000330: 9c5d dabc 1514 da3c 4575 e13c 028d d63c
00000340: 707c b93c f684 e6bc c7a0 bd3c 5a23 ce3c
00000350: 9516 5aba f5fa d5bc 0102 c33c 70e8 bcbc
00000360: 30f8 b73c dd28 8e3c b868 f73c 99fd bfbc
00000370: ab77 d2bc 42c3 bcbc 65f3 503c fcbf c23c
00000380: 5a54 a1bc 4f93 b83c 598e d53c b9d4 c6bc
00000390: b6a6 c43c 04c9 c83c d7b7 c13c 7da9 15bd
000003a0: b0f5 d6bc f458 d8bc 8b54 293c 8c83 c43c
000003b0: c5ce c8bc 07a2 d13c 522b fcbc d1f7 b13c
000003c0: 860d cbbc 8c2d cbbc 8144 cb3c 3e7b ec3c
000003d0: c374 bb3c 2da3 8d3c cacb b5bc 2bed ba3c
000003e0: bc4a ce3c 6051 bf3c 239a c7bc 8566 be3c
000003f0: a0ba b0bc a25e d9bc d5bb b9bc 08f5 cdbc

conv4.lin.weight f4 [256, 128]
-0.05394036 -0.041656777 0.099019274 0.10797211 0.08580502 -0.09700579 -0.14828345 -0.12458929
-0.09328682 0.036679823 0.12000047 0.04363661 -0.031122237 0.14361113 0.123879224 0.071859665
-0.043238766 -0.020208292 -0.062586196 0.036816787 0.0132330675 0.0053753834 -0.12137635 0.08306757
-0.110092625 -0.07267371 0.1443403 -0.047172807 0.12984017 0.06446329 0.015319698 -0.09019715
0.08371179 -0.08053164 -0.035406694 0.0061530606 -0.12608787 -0.045181464 -0.07511503 -0.04393134
-0.08993693 0.0846231 -0.025289794 0.019573476 0.04432689 -0.12446601 0.08374011 0.12427709
0.06475847 0.025594207 0.06102144 0.0096246675 -0.09090775 0.006537186 0.048756067 -0.14590542
0.0147252865 -0.13528141 -0.026012903 -0.088914886 -0.026103085 -0.12305524 0.01747033 0.06724556
0.026536206 0.09352128 -0.06790435 -0.040010523 0.04684436 -0.00892182 -0.0878702 0.044551775
0.14789534 -0.033487607 -0.05817176 0.049513686 0.03428036 -0.041631103 -0.048248723 -0.12956741
0.10632273 -0.06181401 0.0776344 0.09200628 -0.060385883 -0.00032578656 -0.09438225 -0.14631583
0.045043405 -0.04789713 -0.0749248 -0.11936496 -0.043119173 0.06808107 -0.058341585 -0.0482153
0.08314279 0.0021221167 -0.07244247 -0.027534558 0.14806432 0.08882561 0.07730232 0.050958313
-0.1329888 -0.060801733 0.008759035 -0.057000026 0.026477175 -0.055522557 0.14525108 0.14764264
0.11203906 0.051951423 -0.047202364 0.08217172 -0.148486 0.07586634 -0.12327647 0.021399107
-0.08162075 -0.032746203 0.015908608 -0.040033855 -0.0907439 0.016172059 -0.042357903 -0.10609952
0.08554225 -0.14241181 -0.12721315 0.06084427 -0.03793258 0.04410439 -0.034941006 -0.026347583
-0.028318193 -0.056084175 -0.12569319 0.1403054 0.038927708 -0.13901025 0.0813387 -0.027292475
-0.004644142 0.09214542 -0.09249048 -0.02159474 -0.103816606 0.011974864 -0.07669707 0.08917281
0.067246296 0.11104326 -0.12195869 -0.07338281 0.13924451 0.015848322 -0.07610234 -0.041009046
-0.14516222 0.022939216 0.042886313 0.02808198 -0.10382078 -0.10752136 0.09939022 -0.08225685
-0.05284713 0.08333102 0.017171366 0.02617782 -0.07962233 0.047587726 0.0033170918 0.054382987
0.095663235 0.14258622 -0.06310403 0.11581276 0.10198903 0.03473934 0.10983046 -0.0076694777
0.008331194 -0.0827229 -0.14623013 0.0722644 0.10296084 0.0973592 -0.020550435 -0.027776696
0.029059041 0.024003172 0.07249351 0.019955466 0.04380448 -0.12630633 -0.06435703 -0.11626039
-0.09748754 0.038561594 -0.008621344 0.03583837 -0.067180745 0.011238083 -0.098686114 0.12725458
-0.09622954 0.050372034 -0.031089948 0.058093123 -0.027820468 -0.008126472 0.094372444 0.017121134
-0.06605916 0.10597655 -0.050449118 0.005703316 -0.019893263 -0.06589543 -0.07340442 -0.029462878
0.0020075114 0.14719558 -0.077825814 0.076025486 -0.14824536 0.05426704 -0.13488804 -0.10033031
-0.046352934 -0.13628924 0.049623214 0.106195875 0.059771508 0.00050093967 -0.08029432 -0.019507274
-0.046356015 0.05084036 -0.07487793 0.032578003 0.01082561 0.06760314 -0.14553177 -0.0056287367
0.06145668 -0.051186986 0.10866313 -0.0010138 0.042445052 0.08038449 -0.044416156 0.09290515
00000000: 91f0 5cbd 4ca0 2abd 9eca ca3d 7b20 dd3d
00000010: 8bba af3d f9aa c6bd 9ed7 17be ab28 ffbd
00000020: 290d bfbd 953d 163d cec2 f53d 4dbc 323d
00000030: 10f4 febc cc0e 133e 64b4 fd3d 292b 933d
00000040: 221b 31bd dc8b a5bc 312d 80bd 33cd 163d
00000050: 82cf 583c fc23 b03b 2a94 f8bd 551f aa3d
00000060: 3e78 e1bd f4d5 94bd f2cd 133e 4638 41bd
00000070: d2f4 043e 5405 843d 78ff 7a3c 49b9 b8bd
00000080: 1671 ab3d c6ed a4bd 9c06 11bd 9d9f c93b
00000090: 2e1d 01be 3310 39bd e9d5 99bd 59f1 33bd
000000a0: da30 b8bd e04e ad3d 8b2c cfbc 8e58 a03c
000000b0: 1d90 353d 09e8 febd ef7f ab3d fd84 fe3d
000000c0: 17a0 843d f1aa d13c 9ef1 793d c8b0 1d3c
000000d0: d82d babd e435 d63b 71b4 473d 3b68 15be
000000e0: 5442 713c 3687 0abe 0319 d5bc 0219 b6bd
000000f0: 23d6 d5bc 6304 fcbd f01d 8f3c 0ab8 893d
00000100: 7562 d93c 1688 bf3d 7011 8bbd 13e2 23bd
00000110: dfdf 3f3d d32c 12bc 4bf5 b3bd ec7b 363d
00000120: e071 173e 4d2a 09bd 8345 6ebd ddce 4a3d
00000130: 9069 0c3d 6085 2abd 74a0 45bd 52ad 04be
00000140: bbbf d93d b030 7dbd c9fe 9e3d ca6d bc3d
00000150: 3057 77bd 55ce aab9 7b4b c1bd d1d3 15be
00000160: 6f7f 383d c82f 44bd 2c72 99bd 9e75 f4bd
00000170: bb9d 30bd 176e 8b3d 96f7 6ebd 687d 45bd
00000180: c446 aa3d 3613 0b3b b85c 94bd 2790 e1bc
00000190: 2c9e 173e 34ea b53d ae50 9e3d aab9 503d
000001a0: 372e 08be 3d0b 79bd 0e82 0f3c dc78 69bd
000001b0: a9e6 d83c 9f6b 63bd b3bc 143e a22f 173e
000001c0: bc74 e53d 04cb 543d 4457 41bd a649 a83d
000001d0: b70c 18be d05f 9b3d 6078 fcbd 2e4d af3c
000001e0: c828 a7bd e220 06bd c552 823c 8afa 23bd
000001f0: f0d7 b9bd 447b 843c 7b7f 2dbd b54a d9bd
00000200: c630 af3d 67d4 11be 2a44 02be d737 793d
00000210: 315f 1bbd cea6 343d 4d1e 0fbd e3d6 d7bc
00000220: 8efb e7bc 85b8 65bd b7b5 00be 38ac 0f3e
00000230: a972 1f3d b458 0ebe e894 a63d 7894 dfbc
00000240: e32d 98bb bdb6 bc3d a66b bdbd 74e7 b0bc
00000250: cd9d d4bd 3832 443c 5a13 9dbd 3ca0 b63d
00000260: 6db8 893d a66a e33d 7ac5 f9bd ba49 96bd
00000270: 1d96 0e3e 57d4 813c 8bdb 9bbd 1af9 27bd
00000280: 68a5 14be 06eb bb3c 8fa9 2f3d 2e0c e63c
00000290: fd9f d4bd 2934 dcbd 1a8d cb3d 4876 a8bd
000002a0: 3b76 58bd 74a9 aa3d f7aa 8c3c de72 d63c
000002b0: 0811 a3bd 59eb 423d 9163 593b b2c0 5e3d
000002c0: 16eb c33d 1f02 123e b03c 81bd 3e2f ed3d
000002d0: a0df d03d d74a 0e3d cbee e03d 3e50 fbbb
000002e0: 8f7f 083c a06a a9bd 5abd 15be 5cff 933d
000002f0: 22dd d23d 4364 c73d 6359 a8bc f48b e3bc
00000300: 3a0d ee3c 4da2 c43c 7a77 943d a579 a33c
00000310: 546c 333d 7256 01be 9ecd 83bd ed19 eebd
00000320: 8ca7 c7bd c3f2 1d3d 8a40 0dbc 41cb 123d
00000330: 0f96 89bd f01f 383c f21b cabd 064f 023e
00000340: fe13 c5bd e852 4e3d 59b0 febc 0ef3 6d3d
00000350: c0e7 e3bc e524 05bc 5746 c13d 9f41 8c3c
00000360: 064a 87bd 3c0a d93d bca3 4ebd e2e2 ba3b
00000370: 32f7 a2bc 2ff4 86bd 0e55 96bd 225c f1bc
00000380: 7490 033b 70ba 163e 2463 9fbd 40b3 9b3d
00000390: a2cd 17be 1e47 5e3d 1720 0abe fa79 cdbd
000003a0: 93dc 3dbd 688f 0bbe b641 4b3d 397d d93d
000003b0: f8d2 743d 7e51 033a 5971 a4bd b8cd 9fbc
000003c0: cedf 3dbd fb3d 503d 9a59 99bd 8370 053d
000003d0: e65d 313c 8473 8a3d 4806 15be 4471 b8bb
000003e0: 00ba 7b3d 72a9 51bd c68a de3d 7ce1 84ba
000003f0: ddda 2d3d a0a0 a43d b7ed 35bd 0e45 be3d

conv5.bias f4 [256]
-0.0007190886 -0.00094070326 0.00022352209 -0.00078347477 5.475975e-05 -0.00059574074 0.0008604659 0.0009294258
0.00080849143 0.001235732 -0.0003936498 -0.00050064333 0.00097099575 0.0007760423 0.0003027146 0.0011945682
0.00096301583 0.00024842384 0.000467317 -0.00053617306 0.0006428617 0.0006511527 -0.0008668054 -0.0009962608
-0.0005684302 -0.00080890337 -0.0009313844 -0.0009977759 0.0009135152 0.0009480432 0.00070941454 -0.0007269963
0.0012562418 -0.00057110196 0.00065948325 -0.0004843738 -0.00092579407 -6.0622002e-05 -0.0003376037 -0.0008546524
0.00089913595 0.00096501113 -0.001212456 0.00064855465 0.00035556624 0.00083912845 0.00050514354 -0.0007455547
-0.00079688756 -0.0005878161 -0.00082178984 0.0011350691 -0.0007406133 8.697451e-06 0.0007028487 0.0006241688
0.0003077676 -0.0009485044 0.00059091364 -0.0006399957 0.0003221794 0.00050189527 0.00066883065 -0.0010758276
-0.00096831046 0.00010081642 0.00078370457 0.0011862847 -0.00092693855 -0.0003027593 -0.0005071305 0.0008096937
-0.0006597209 -0.00071564876 -0.00052774756 0.00074766425 -0.00077856553 -0.00092819886 -0.00031637805 0.0011691856
-0.00063874555 -0.0009140992 -0.0005157252 0.00063205534 0.000102003905 0.0006776247 0.0005556973 0.00089331274
0.0008044176 0.000841791 0.00054648257 -0.00054868456 0.0007727524 -0.0007915136 -0.00074809295 0.000622487
-0.0006512891 0.0006675882 -0.00029471604 0.00050060893 -0.0006730098 -0.0008269326 0.0008565398 -0.0010403171
2.2935292e-05 -0.00094850385 -0.0005215685 -0.00063458376 -0.0007439968 -0.0005542406 0.0009303216 0.00028339817
0.00017190354 -0.0007995569 -0.0008242421 0.0007361567 -0.0008056209 -0.000609078 0.0012161097 0.0011664138
-0.0009225015 0.0005924436 0.0005530706 -0.00012429417 0.00051383383 -0.0006770227 0.0009868381 0.0007026626
0.0005155152 0.0007522908 -0.00084061443 0.0004941589 -0.0003985664 -0.0007518827 0.0008793338 -2.2505918e-05
-0.0005796192 0.00041738586 0.0004001526 0.0003993398 0.00061817665 -0.00068519305 0.0006555544 -0.00096204464
0.0002725834 0.00069252093 0.00059332437 -0.00020639348 0.0008411361 0.00038717734 -0.0009702798 0.0012176118
0.0007893211 0.0008279056 0.00085777056 -0.0004983114 5.8153204e-05 0.00092608115 -0.00015771463 0.00095410494
-0.00092314056 0.0012396083 -0.0006950252 -0.0006543584 -0.0011756803 0.00094142824 0.00093683717 -0.0012303974
6.982486e-05 0.00067613315 -0.00079665065 0.0007473717 0.0007834856 0.0005135692 -1.5326583e-05 0.0008085864
-0.0008424535 0.00028872545 -0.00096392387 6.0886086e-05 0.00033795647 -0.0009320981 0.00063540775 -0.0008158648
0.0005299089 -0.0005777084 0.0006653294 0.0007858717 -0.0010328979 -0.00067163643 0.0002939528 0.0009112738
0.0004019302 0.00062441203 -0.0006837891 0.0007408463 -2.7950451e-05 -0.00082689774 0.0008275031 -0.0010812429
0.000562654 0.001181257 -0.00041924737 -0.00021188696 0.0007167429 0.00074795407 -0.00094815507 0.00055744126
-0.0011092116 0.00076551025 0.0011690198 0.0007151862 -7.5506934e-05 -0.0007366002 0.0006524189 -0.0005737852
0.0011034869 0.0007681123 0.00069405825 -0.000630284 0.00063764513 0.00061232963 0.0003270926 -0.00088127865
-0.000718309 -0.00032928667 0.00034938622 -0.0008937592 -0.00024911572 0.00031674837 0.0003067414 -0.0003685045
0.00072141195 0.00034037992 0.00081384025 -0.0011418868 -0.0005249171 -0.0003260768 -5.8396185e-05 0.00087159587
-0.0009286527 -0.0004391695 0.0006555609 0.000340122 0.0008469239 -0.0010168607 -9.945197e-05 -0.00097251224
-0.00057831436 -0.0002850734 0.00083833514 0.00077872357 0.0007866035 -0.0005434808 0.00017649948 -0.00025094405
00000000: 3881 3cba 8799 76ba 4161 6a39 1a62 4dba
00000010: d5ad 6538 7c2b 1cba e490 613a b6a4 733a
00000020: f1f0 533a 49f8 a13a c862 ceb9 9b3d 03ba
00000030: 6c8a 7e3a 516f 4b3a aab5 9e39 0f93 9c3a
00000040: e672 7c3a e23e 8239 3a02 f539 f78d 0cba
00000050: b885 283a 1eb2 2a3a 533a 63ba f794 82ba
00000060: b402 15ba 960c 54ba 2628 74ba cec7 82ba
00000070: f878 6f3a 1a86 783a 01f8 393a e593 3eba
00000080: 7ba8 a43a 01b6 15ba 2ce1 2c3a 8df3 fdb9
00000090: fdb0 72ba 6144 7eb8 6700 b1b9 c00a 60ba
000000a0: feb3 6b3a cdf8 7c3a 46eb 9eba c403 2a3a
000000b0: 4b6b ba39 f5f8 5b3a 9c6b 043a 5471 43ba
000000c0: 38e6 50ba ac17 1aba 626d 57ba 99c6 943a
000000d0: b825 42ba 45eb 1137 613f 383a 429f 233a
000000e0: de5b a139 0ea5 78ba 8be7 1a3a 62c5 27ba
000000f0: 30ea a839 9f91 033a 7754 2f3a c902 8dba
00000100: 37d6 7dba 676d d338 8671 4d3a 1c7d 9b3a
00000110: cbfd 72ba aabb 9eb9 f4f0 04ba a041 543a
00000120: 1ff1 2cba 609a 3bba 8a58 0aba e6fe 433a
00000130: a618 4cba 5f52 73ba 8bdf a5b9 5c3f 993a
00000140: 7d71 27ba 29a0 6fba bb31 07ba 84b0 253a
00000150: eeea d538 a0a2 313a 37ac 113a 342d 6a3a
00000160: 8ddf 523a a3ab 5c3a d341 0f3a 99d5 0fba
00000170: 8992 4a3a 947d 4fba ab1b 44ba 652e 233a
00000180: 46bb 2aba 1601 2f3a 1e84 9ab9 4c3b 033a
00000190: ec6c 30ba 82c6 58ba 6a89 603a 405b 88ba
000001a0: 2a65 c037 04a5 78ba dfb9 08ba 325a 26ba
000001b0: c808 43ba 754a 11ba d3e0 733a 0f95 9439
000001c0: 0141 3439 5b99 51ba f311 58ba a4fa 403a
000001d0: 4e30 53ba 88aa 1fba df65 9f3a 5ae2 983a
000001e0: 07d4 71ba 384e 1b3a f1fb 103a f654 02b9
000001f0: ceb2 063a 397a 31ba cb58 813a e432 383a
00000200: a423 073a 6235 453a ae5c 5cba 718a 013a
00000210: adf6 d0b9 fe19 45ba 1883 663a 17cb bcb7
00000220: 96f1 17ba 95d4 da39 93cb d139 7b5e d139
00000230: 220d 223a 879e 33ba 83d9 2b3a b931 7cba
00000240: 86e9 8e39 4b8a 353a 5389 1b3a 546b 58b9
00000250: b07f 5c3a 10fe ca39 605a 7eba 4698 9f3a
00000260: 71ea 4e3a ce07 593a 02dc 603a 1da1 02ba
00000270: 87e9 7338 41c4 723a 3360 25b9 e61c 7a3a
00000280: eafe 71ba 5a7a a23a 5a32 36ba 4089 2bba
00000290: 4919 9aba 2eca 763a 1496 753a 4945 a1ba
000002a0: f06e 9238 873e 313a 52d6 50ba 44eb 433a
000002b0: d462 4d3a 0ca1 063a 9691 80b7 51f7 533a
000002c0: 19d8 5cba 1360 9739 d6af 7cba f05f 7f38
000002d0: c02f b139 0b58 74ba 7e91 263a c3df 55ba
000002e0: 96e9 0a3a 5b71 17ba 8069 2e3a f502 4e3a
000002f0: 4d62 87ba c210 30ba ad1d 9a39 8de2 6e3a
00000300: 29ba d239 95af 233a 4f40 33ba 5b35 423a
00000310: 2377 eab7 2bc4 58ba cbec 583a 7eb8 8dba
00000320: 127f 133a 68d4 9a3a 6ece dbb9 f92d 5eb9
00000330: cde3 3b3a 5912 443a 9c8d 78ba 4021 123a
00000340: f762 91ba 86ac 483a cc39 993a 557b 3b3a
00000350: 7a59 9eb8 6718 41ba 1707 2b3a 136a 16ba
00000360: e0a2 903a 255b 493a 76f1 353a a539 25ba
00000370: a427 273a bf84 203a a07d ab39 9c05 67ba
00000380: e74c 3cba 1ca4 acb9 d32d b739 2a4b 6aba
00000390: bf9b 82b9 3f11 a639 22d2 a039 d633 c1b9
000003a0: 231d 3d3a 0575 b239 e557 553a 5dab 95ba
000003b0: 979a 09ba 4af5 aab9 6dee 74b8 cf7b 643a
000003c0: d470 73ba 5540 e6b9 f3d9 2b3a 6752 b239
000003d0: 1a04 5e3a 2f48 85ba df90 d0b8 31f0 7eba
000003e0: 059a 17ba e775 95b9 b8c3 5b3a 4123 4c3a
000003f0: 1134 4e3a 6178 0eba b812 3939 2491 83b9

conv5.lin.weight f4 [256, 256]
0.0865404 0.052102666 -0.070429415 0.06268877 0.09093635 -0.04591596 -0.05428027 -0.08634861
0.112345286 0.11885268 0.0268594 -0.038959444 0.01078321 -0.054775245 -0.116251096 -0.08173992
0.01710576 0.13388586 0.09045143 0.069402695 -0.11235245 -0.1282189 0.12506483 -0.021952622
-0.09780695 -0.05090501 0.06746971 -0.10753868 -0.009354175 -0.07928765 -0.0732338 -0.004701753
0.04587702 0.09550682 0.08546348 -0.025372637 -0.08030076 0.018872404 0.09213438 0.09693768
-0.08375525 -0.07532352 -0.03529482 -0.009102892 0.07579208 0.0031110954 0.03927649 -0.0564781
0.004839627 -0.050659306 0.10854581 0.036671083 -0.0021138303 -0.08008263 -0.05760261 0.06819079
0.075010605 0.0070530633 0.047184233 0.024273064 0.056495573 -0.084947936 -0.05606808 -0.032457616
-0.072668836 0.0009984073 0.11246765 -0.057513237 0.07025617 -0.041036483 0.030015681 -0.048248593
0.07095147 -0.055376794 0.1035751 -0.11392014 -0.029618757 -0.11696583 -0.04135274 -0.08236226
0.13240914 -0.049634732 -0.0690324 0.09657476 0.041032862 0.09331798 0.04256474 0.08046092
-0.0024489856 0.047463916 0.036051556 0.11298281 -0.082148165 0.022016898 0.09310638 -0.11003463
-0.045071684 -0.01653043 0.061838396 0.10331073 -0.06652511 0.0069259712 0.090642445 0.113048725
0.012565953 -0.05141227 -0.060890008 -0.113026075 0.09308898 0.05895793 -0.01288815 0.108835384
0.015298452 -0.02600647 -0.1057266 0.031033494 -0.0030869148 0.027879559 -0.017268986 0.022950632
0.08479601 -0.09487164 -0.08518895 -0.03987763 0.063171074 0.050781872 0.014431186 -0.014076707
0.10451448 -0.040188186 0.12296616 -0.050479047 -0.07493404 0.009428863 0.12076579 -0.016758017
-0.06641152 0.015332518 -0.094584376 -0.031417403 -0.11130067 0.027352454 -0.014723879 -0.030870873
0.05364722 0.009842028 0.013071765 -0.065343395 -0.045149557 0.06633515 0.048987772 0.096389025
0.0845741 0.0016697051 0.095520414 -0.056824006 -0.038416103 -0.0519326 -0.025397446 -0.027526854
-0.07254962 0.11995754 -0.08327187 0.02611144 0.008008905 -0.04971796 0.06649111 -0.005549028
0.0814212 -0.075175114 -0.10643775 -0.036589928 -0.04004439 -0.004711962 -0.031064624 -0.031701397
-0.098855 -0.060907666 -0.06900042 0.05377033 0.04462412 -0.07901447 0.0019304198 0.0019756316
0.042619772 0.0057584066 0.056282815 -0.01399984 0.032872614 -0.08535145 0.01844723 -0.061940577
-0.032656245 0.022668367 0.0039077536 0.048312746 0.11744185 0.10549692 -0.063826695 -0.036411256
0.010984345 0.080089696 0.11183031 -0.08208466 -0.013580895 0.013876497 -0.00015554743 0.03332072
-0.028204989 0.045950998 0.098052464 0.089394346 0.069166206 0.07951693 -0.054130487 -0.11890987
0.098381594 0.011522072 -0.0018360607 -0.016288424 0.04201695 0.051227067 -0.11112796 0.005560318
-0.063210435 0.045285378 -0.024998235 0.11891268 0.04573525 0.06574569 0.069866374 -0.0381988
0.06967693 0.11083309 0.061227854 0.0798553 0.011853045 -0.103907496 -0.06310607 -0.009912277
0.109446816 -0.042427313 -0.07395149 0.14051428 0.13584496 0.02074172 0.031686306 0.082490936
-0.111784354 -0.038931176 0.087638795 -0.03612194 -0.047493484 0.08288878 0.040754084 -0.0013286984
00000000: 183c b13d 9b69 553d 4c3d 90bd f862 803d
00000010: d63c ba3d 6012 3cbd fd54 5ebd 8ad7 b0bd
00000020: 4915 e63d 0969 f33d 3f08 dc3c f093 1fbd
00000030: 10ac 303c 025c 60bd 0e15 eebd 4267 a7bd
00000040: 6121 8c3c 6019 093e 993e b93d 0023 8e3d
00000050: 0b19 e6bd d14b 03be ff10 003e fcd5 b3bc
00000060: 034f c8bd c681 50bd 8f2d 8a3d 3d3d dcbd
00000070: 4142 19bc 9061 a2bd 9afb 95bd 2a11 9abb
00000080: 8be9 3b3d 1499 c33d 7a07 af3d 47da cfbc
00000090: ba74 a4bd 4d9a 9a3c f3b0 bc3d 4387 c63d
000000a0: df87 abbd 3843 9abd 4d91 10bd 4c24 15bc
000000b0: e138 9b3d 85e3 4b3b 63e0 203d 9555 67bd
000000c0: bc95 9e3b 2280 4fbd 444d de3d 6b34 163d
000000d0: 3088 0abb 5d02 a4bd b7f0 6bbd 9da7 8b3d
000000e0: 299f 993d 621d e73b 4144 413d 4ed8 c63c
000000f0: e767 673d 2ff9 adbd a5a7 65bd 47f2 04bd
00000100: 66d3 94bd fddc 823a 7055 e63d 0093 6bbd
00000110: 78e2 8f3d df15 28bd 72e3 f53c 51a0 45bd
00000120: 014f 913d c7d2 62bd 2f1f d43d f64e e9bd
00000130: 09a3 f2bc c88b efbd 7e61 29bd 8bad a8bd
00000140: 4396 073e ca4d 4bbd dc60 8dbd fdc8 c53d
00000150: 1312 283d 7f1d bf3d 5d58 2e3d b2c8 a43d
00000160: 297f 20bb 8669 423d ccaa 133d 8863 e73d
00000170: 4c3d a8bd c85c b43c 8fae be3d d659 e1bd
00000180: 169d 38bd d36a 87bc 424a 7d3d 9394 d33d
00000190: 513e 88bd 42f3 e23b bfa2 b93d 1786 e73d
000001a0: 6de1 4d3c ac95 52bd cd67 79bd 377a e7bd
000001b0: 6fa5 be3d df7d 713d d228 53bc 16e5 de3d
000001c0: 5ca6 7a3c 850b d5bc 3087 d8bd f439 fe3c
000001d0: d64d 4abb ac63 e43c b077 8dbc f702 bc3c
000001e0: 88a9 ad3d 104c c2bd 8b77 aebd ba56 23bd
000001f0: d65f 813d a700 503d c870 6c3c fda1 66bc
00000200: b00b d63d 5e9c 24bd afd5 fb3d 1ec3 4ebd
00000210: 0577 99bd 857b 1a3c 0e54 f73d 1c48 89bc
00000220: c302 88bd 3e35 7b3c 74b5 c1bd 89af 00bd
00000230: 9bf1 e3bd 4112 e03c 6d3c 71bc eae4 fcbc
00000240: 30bd 5b3d 7540 213c f52a 563c c2d2 85bd
00000250: beee 38bd b9da 873d 67a7 483d 9c67 c53d
00000260: 3035 ad3d 02da da3a 35a0 c33d 4ac0 68bd
00000270: 345a 1dbd 47b7 54bd 4e0e d0bc ff7f e1bc
00000280: e594 94bd 4cac f53d 718a aabd a9e7 d53c
00000290: c837 033c 0fa5 4bbd 7e2c 883d 9fd4 b5bb
000002a0: 28c0 a63d 69f5 99bd 09fc d9bd 52df 15bd
000002b0: 9605 24bd cd66 9abb 3d7b febc 53d9 01bd
000002c0: 7e74 cabd 517a 79bd 1850 8dbd 473e 5c3d
000002d0: c8c7 363d 57d2 a1bd 2406 fd3a 9979 013b
000002e0: 1292 2e3d 04b1 bc3b cf88 663d 965f 65bc
000002f0: 6fa5 063d becc aebd a51e 973c 67b5 7dbd
00000300: 8ec2 05bd 03b3 b93c 9d0c 803b 96e3 453d
00000310: 5a85 f03d c50e d83d 92b7 82bd f823 15bd
00000320: aff7 333c 1106 a43d 4a07 e53d 011c a8bd
00000330: 6782 5ebc 3f5a 633c 721a 23b9 4f7b 083d
00000340: 260e e7bc 1d37 3c3d bbcf c83d 6214 b73d
00000350: 03a7 8d3d c6d9 a23d eeb7 5dbd 0587 f3bd
00000360: 4a7c c93d 13c7 3c3c f9a7 f0ba 4d6f 85bc
00000370: f719 2c3d 79d3 513d 0e97 e3bd 5433 b63b
00000380: 7974 81bd 297d 393d 19c9 ccbc 7e88 f33d
00000390: e354 3b3d ada5 863d 1a16 8f3d 5876 1cbd
000003a0: c7b2 8e3d 76fc e23d 0fca 7a3d 2d8b a33d
000003b0: 4633 423c 74cd d4bd c13d 81bd 1a67 22bc
000003c0: a725 e03d 43c8 2dbd e173 97bd fae2 0f3e
000003d0: f11a 0b3e 8aea a93c 80c9 013d 02f1 a83d
000003e0: 32ef e4bd 4c76 1fbd f87b b33d 99f4 13bd
000003f0: 8788 42bd 98c1 a93d c1ed 263d b827 aeba
