weights/8-21-yfp-1_split_1.pt (torch, 473578 bytes, 26 tensors)

conv1.bias f4 [64]
00000000: bc7d 723a c552 35ba 0e45 123a 0174 72ba
00000010: 5538 68ba f059 e339 43c4 493a 72d9 a939
00000020: 69fe 60ba 1f87 2a3a 798c ba39 ba79 6dba
00000030: 5059 04ba 3480 ccb9 0ff1 65ba ed3b 8739
00000040: 90e9 c038 2ab3 653a 0ed9 11b9 a756 27b9
00000050: c77c 57b9 b90a 5c3a d358 7fba c31c e0b9
00000060: a801 2cba 26e3 533a 42c1 2aba a10d 3aba
00000070: 892e 743a dc60 323a d087 393a ef3a 38ba
00000080: 2533 2d3a c6aa 1dba 6019 49ba 5b13 49b7
00000090: b43a 023a f5a7 49ba aaa2 e0b9 e3ed 4dba
000000a0: 748f 2ab8 452f 01ba 6a2f 7fba 7a4a 9fb9
000000b0: 3f36 50ba db24 95b9 f6a2 f138 a0aa 37b9
000000c0: aa04 84ba fac2 b939 4d25 57ba 33d3 7cba
000000d0: b4e5 c939 45e2 cd38 aa2a 033a b652 3dba
000000e0: 727e 8d38 22af 7d3a a14e 6239 4de2 34ba
000000f0: b2fe 7a3a a669 4b3a 6c67 233a 6519 13b9
0.0009250303 -0.00069169357 0.0005579748 -0.00092488533 -0.0008858492 0.00043363823 0.0007696787 0.000323962
-0.0008582832 0.000650512 0.00035581345 -0.0009058971 -0.0005048709 -0.0003900543 -0.0008771577 0.00025793855
9.198778e-05 0.0008762354 -0.00013909137 -0.00015958642 -0.00020550481 0.0008393932 -0.0009740714 -0.00042746039
-0.0006561526 0.0008082859 -0.0006513783 -0.0007097368 0.00093147956 0.00068045943 0.00070774276 -0.0007027825
0.00066070474 -0.0006014522 -0.00076713227 -1.198504e-05 0.0004967854 -0.0007692569 -0.00042845804 -0.0007855577
-4.066476e-05 -0.0004928003 -0.0009734543 -0.00030382333 -0.00079426536 -0.00028446954 0.00011522129 -0.00017515803
-0.0010072191 0.0003543122 -0.00082071574 -0.0009644508 0.0003850885 9.817308e-05 0.0005003611 -0.0007222103
6.746956e-05 0.0009677281 0.00021582331 -0.00069001765 0.0009574696 0.00077595783 0.00062333676 -0.00014028473

conv1.lin.weight f4 [64, 2]
00000000: 2964 68be 6f76 81bd 6033 77bc 0898 463e
00000010: 029b 5b3c c037 2abd 07df afbd c7a7 693a
00000020: 2048 d6bb 81dc 00be 8652 4b3e 4581 4a3e
00000030: b1af a13d 864b e83d 2ec7 fdbd b139 2a3e
00000040: a9c3 c43d 4ea8 4abd f181 653d 43f2 193e
00000050: 099e c5bd 7a34 ca3d e7af e63c 314d 38be
00000060: 100e e6bc 59b4 f4bc e80d 273e 01c9 c23c
00000070: d791 c5bd 8ea7 08be 87b8 613e a5f9 4d3e
00000080: 0b1b 4abe 2f7c 72bc 672c 853d 52b2 80be
00000090: d90c e83c b302 9c3e 74e3 94bd b5b8 943e
000000a0: 37fe 893e d9d6 ac3d 5887 84be 2359 c43d
000000b0: 30b0 36be a927 2cbe d8dd 6c3e 70e4 5d3c
000000c0: f776 5d3e 6856 763d 13f8 dabd 364d dfbd
000000d0: b317 313e ce18 053e 6162 2dbe 26ae e5bd
000000e0: ffe9 db3d b985 68be 5012 e53c db6e 09bd
000000f0: 9b4d d9bd 99c9 80be 0066 81be 251c 1b3e
00000100: cb82 153e feb7 173e d37e a23e 0665 d5bd
00000110: a660 6fbe 0c8b 5c3e c6d0 243e 761c 133e
00000120: c8ee 5fba 9ea2 6b3d 0238 963d b79c 90bc
00000130: 64df 373e 2cf4 5e3e fa8b 83be db4f 993e
00000140: 2f95 7bbe 86a5 933e cd31 1c3e 2164 b1bb
00000150: 4fd6 49be 264d 37be 4c75 4e3d 51e6 683e
00000160: e5a7 e0bd fc86 893e 7bb7 5ebe dc3e 913e
00000170: 6c62 a03e 12cd 963d 824a 003c 1e67 38be
00000180: c0b1 a1bc 27a0 9e3c 008c 893d ea7d 7d3d
00000190: 298c 673e 64c2 9a3c 74b8 2d3e 471a 3ebc
000001a0: 3218 28be b20d 6e3e 4105 40bd 70cf ca3d
000001b0: c54c 873e b4ef 33bd 463e 85bb 0a54 2abe
000001c0: 3a75 26be ab32 4e3e 1ec4 0cbe 754d 8d3e
000001d0: 77c9 803e f1f6 813c ddd4 953e ff13 46bb
000001e0: 601c 03bd e6e9 823e 4a22 02be fbfa 8dbe
000001f0: 19d7 2b3e 6039 22be 9247 98be 71f5 043e
-0.22694458 -0.063214175 -0.015087932 0.19393933 0.013403656 -0.041557074 -0.08587461 0.00089132454
-0.0065393597 -0.12584116 0.19855699 0.19775875 0.078948386 0.1134253 -0.12391506 0.1662357
0.09607632 -0.049476914 0.056032125 0.15033822 -0.096492834 0.0987329 0.028160049 -0.17998196
-0.028082877 -0.029871153 0.16313899 0.023777487 -0.09646957 -0.13345167 0.22043048 0.20114763
-0.19736879 -0.0148001155 0.0650261 -0.25136048 0.028326439 0.3047081 -0.07269946 0.2904717
0.26951763 0.084394164 -0.2588451 0.09587314 -0.17840648 -0.16812004 0.23131502 0.013543233
0.21627413 0.060140997 -0.10691848 -0.10903399 0.17294197 0.12997743 -0.1693206 -0.11214857
0.107379906 -0.22707261 0.027962834 -0.033552986 -0.10610505 -0.25153807 -0.25273132 0.15147455
0.14600675 0.14816281 0.31737384 -0.10419659 -0.23376712 0.21537417 0.16095266 0.14366326
-0.0008542356 0.05752813 0.073349014 -0.017652852 0.1795631 0.21772832 -0.2569273 0.29943737
-0.24568628 0.28837222 0.15253372 -0.0054135476 -0.19710658 -0.17900524 0.05040483 0.22744109
-0.10969523 0.26860797 -0.2174968 0.2836827 0.3132509 0.07363333 0.007830264 -0.18008086
-0.019738078 0.019363476 0.06716156 0.06188766 0.2261206 0.01889152 0.16964895 -0.011602945
-0.1641548 0.23247412 -0.04688001 0.09902847 0.26425758 -0.04392977 -0.0040662615 -0.16633621
-0.16255656 0.20136516 -0.13746688 0.27598158 0.25153705 0.015864821 0.29263964 -0.003022432
-0.032009482 0.25569075 -0.12708393 -0.27730545 0.16781272 -0.158422 -0.29742104 0.12984253

conv2.bias f4 [64]
00000000: 5144 babc 23ac 913c 678a ae3c 9114 c63c
00000010: 707e b93c 1664 783c d152 c03c deaf bbbc
00000020: 99b9 ae3c cce9 b23c 1828 a9bc 10fa 69bc
00000030: 6281 dcbc 0183 1d3c 4e70 81bc 1819 123b
00000040: 8e4d 18bc d0d5 f8bc 1cd8 b93c dae3 cdbc
00000050: e5cd 04bc da8a e13b c444 a33b e3fc cc3c
00000060: 06be a03c 2251 f13c 1ebf f8bc 4299 ccbc
00000070: ad22 e2bc 3992 b23c e549 efbc 8ed8 8b3c
00000080: 83bb d8bc cebd b83c 9336 b23c 2a54 e93c
00000090: a67e dabc e259 a5bc e5cc a33c 8357 cebc
000000a0: 1995 853b 9743 b1bc 6462 a03c 29c2 58bb
000000b0: ed79 e03c ea91 d03c 7639 babc 2232 f03b
000000c0: 0251 d0bc 7cc6 b13c 64b9 b53c 1a5e 8f3c
000000d0: f322 093d 842a 76bc 4a1b babc 132f b3bc
000000e0: 0cc5 853c a2e1 adbc 4a5d 333c b24d b53c
000000f0: 1dfc e73c 6c56 bebc 5a8e 8f3c 4b64 05bd
-0.022737654 0.017782276 0.02130623 0.024179729 0.022643298 0.015160581 0.02347699 -0.022911008
0.021328734 0.021839999 -0.020649001 -0.014280811 -0.026917163 0.009613753 -0.015800621 0.002229279
-0.009295834 -0.030375391 0.022686057 -0.025133062 -0.00810573 0.0068830075 0.0049825627 0.02502293
0.01962186 0.029457632 -0.03036457 -0.024975423 -0.027604425 0.02179824 -0.02921004 0.017071035
-0.0264566 0.022551443 0.021754539 0.028482515 -0.026671719 -0.020184461 0.019995162 -0.025188213
0.0040766117 -0.021638675 0.019578166 -0.0033074713 0.027401889 0.025460202 -0.022732478 0.007330195
-0.025429253 0.02170109 0.022183128 0.017500926 0.033480596 -0.015024785 -0.02271809 -0.021873033
0.01632931 -0.021225754 0.010947535 0.022131775 0.02831846 -0.023234569 0.017523933 -0.03256635

conv2.lin.weight f4 [64, 64]
00000000: cb93 803d 8aa8 96bb d1b8 27be a30b 45bd
00000010: 619a 25bd 318c 103d f357 033e 65ba 1ebd
00000020: ef25 7cbd e24a a4bd b489 82bd e645 20be
00000030: 0d8f 1ebe 6ec9 3ebd e5c5 4a3d 8f88 53be
00000040: 28d5 313e 7b73 373e 97f5 1f3e 0856 32bd
00000050: 984d 6abe 3c35 a53d 9667 1abe ab12 1d3e
00000060: 2e74 413e 6c94 29be f8c7 19be 10ed 38be
00000070: 9f2d b4bd 0441 d13a 816d d0bd 17f4 cebd
00000080: f409 c63a ced7 cd3d 39ea 8cbd 9b4a bdbd
00000090: dbd3 693d c571 5fbe 0983 443d e9d8 e03d
000000a0: a3b9 c73d 3925 abbd 623c 633e 40a3 14bd
000000b0: 0ea9 733e 30cd e8bd 92ac 17bd c10f 0c3e
000000c0: 7552 713e 605f 04be d6d9 a13d aae8 9b3d
000000d0: 4df4 92bd bc27 8e3d 0408 023e 2aa4 a43c
000000e0: 6e81 39be efbd aebd 6b44 f63d 956b 3b3e
000000f0: 8c26 f13c f6a8 f63d 3214 3ebe 7bd1 f0bd
00000100: e93c 91bd 6998 883d 0210 423e 7ec4 3fbe
00000110: 9bfc c4bd a2b7 02be dd10 e33d 43f1 2abe
00000120: 752e 47be f166 b63d ed20 7ebd ced4 29bd
00000130: d6de 92bd eb39 25bd c85c 153e 8a04 b1bd
00000140: 384c 00be f103 b7bd 5145 95bd 386c 173e
00000150: 3fff f5bd 1590 453e 7996 b9bd 01b3 5b3e
00000160: 2eeb 48be 9bc6 dbbd 3fd0 c73d 57a4 1bbe
00000170: b928 bdbd 2a5c 4eba ef09 563e 38da 6bba
00000180: 361d 293e f879 8e3d 2b9a 7cbd c053 373d
00000190: 3b99 1cbe 87aa 3c3e 3151 1e3e 4ca7 583e
000001a0: 4ac3 ef3d ec99 15be 60c2 31be 398f 7b3d
000001b0: 94d5 2ebc e941 90bc e422 5c3c 1919 273e
000001c0: 8ef4 8a3d bc54 4e3e 8d6c 443e 6d09 2fbe
000001d0: 7c1f 323d d7f7 563e b9a0 6d3d c58b fb3d
000001e0: 8731 a3bc f149 ef3d cb32 b0bd ee59 ed3d
000001f0: 0209 5e3e a778 47bc fe5f f63d a2ab 32be
00000200: 73d5 053e 07b3 eabc 8627 b73d 4f93 fc3d
00000210: e571 283e 9cfb fabd c7f0 a03c b6ea 0cbe
00000220: 2023 483e fca7 5d3d ae71 32be aff6 ff3d
00000230: b436 cfbd 7897 133e 093d e03d 4df7 4a3e
00000240: 2bcc b53d 546d 76bc 5889 32bc d54d 2a3e
00000250: fb59 fdbd 7be7 d4bc 17ae 92bb ee50 c53d
00000260: efe7 4b3e df50 3bbe e8aa 593e 111f 4a3e
00000270: 80bf 413e 98a9 88bc e4ff 9bbd 8dac 0cbe
00000280: 2898 f8bd 473a e83d c84a 48be 597a 913b
00000290: f37b 13be eaad 073e acbf 37be a699 1e3e
000002a0: b5f4 b6bb a229 293e 955d 8c3d d766 2dbd
000002b0: 2132 12be d4e6 ab3d 34d4 603e a156 85bd
000002c0: 6a9d ff3d aa83 053e 0234 3abe 7165 f3bd
000002d0: 3557 c33d 4cd1 17be f05b 683d 88bf 84bd
000002e0: 4e8c 253c a875 d3bd 4f2f 183c 55ed 3ebe
000002f0: ace3 0abd 961f d6bd bf09 4cbe 0c2d 013e
00000300: 0623 b83d afb6 01be d1ef 59be 787d 543e
00000310: a921 853d 1424 83bd 095a d93d 859b 11bd
00000320: fa12 cdbd 36ce c13d ea1c 3dbc 0435 53be
00000330: c8a1 02be 3b32 bcbc 929a 40bd 5048 293d
00000340: bc6e e83c a093 23be ed0a 1a3e 0c26 2e3e
00000350: e91f 91b9 38fa afbc 63d1 213e 2a83 9abd
00000360: c815 ebbc bd29 e03c cf70 5d3e 849e eebd
00000370: c490 44bd 1970 2ebe f7bf 183e 2e84 3abe
00000380: dd48 db3d 111c e1bd f9fb 243e b165 193e
00000390: d8c3 42be 7ec9 553d b125 453e 1acf 253e
000003a0: b5f7 1e3e 6cf1 37bd 1568 72be a530 68bc
000003b0: ba58 193d 3796 3f3c c99a 12be 43f3 60be
000003c0: f672 043e 588a f0bd bf6b 5dbe 5393 ab3c
000003d0: 01cd 333e a42e 493e b447 f03c c4c8 0dbe
000003e0: a9db 663d 33b6 5d3e e5e8 0ebe f6ee 44be
000003f0: 468d 05bc bc5d 113c 1a4d 143e 6769 123d
0.06278189 -0.004597728 -0.16379096 -0.0481068 -0.04043043 0.035289947 0.12826519 -0.03875198
-0.061559614 -0.08022095 -0.06373921 -0.15651664 -0.15484257 -0.046578817 0.049505133 -0.20657562
0.17366469 0.17915146 0.15621029 -0.043539077 -0.22881162 0.08066794 -0.15078577 0.15339153
0.18891975 -0.16560525 -0.15017688 -0.18059182 -0.08797764 0.0015964811 -0.10177136 -0.1010515
0.0015109167 0.10050927 -0.06880612 -0.092427455 0.057086807 -0.21820743 0.047976527 0.10978872
0.09752204 -0.08356709 0.22191003 -0.0362885 0.23794958 -0.113672614 -0.03702981 0.13677885
0.23566611 -0.12927008 0.07902877 0.076127365 -0.07175503 0.069411725 0.1269837 0.02009781
-0.1811578 -0.08532321 0.120247684 0.18302758 0.029437326 0.120439455 -0.18562391 -0.11758705
-0.07091696 0.06669695 0.18951419 -0.187273 -0.09618493 -0.12765363 0.11087201 -0.16693597
-0.19451316 0.08906353 -0.06204312 -0.041462712 -0.07171409 -0.040338438 0.14586174 -0.08643444
-0.12529075 -0.08936299 -0.07288612 0.14787376 -0.12011575 0.19293244 -0.090619035 0.21455003
-0.19620964 -0.1073124 0.09756517 -0.1519941 -0.09236283 -0.000787201 0.20902227 -0.00089970557
0.1651505 0.069568574 -0.061670464 0.044757605 -0.15292828 0.18424426 0.1546066 0.21157569
0.1170717 -0.14609498 -0.17359304 0.061415885 -0.010671038 -0.017609553 0.013436053 0.16318168
0.06784926 0.20149511 0.19182034 -0.1709344 0.043487057 0.20992981 0.058014605 0.12282518
-0.019921077 0.11684025 -0.08603438 0.11589418 0.21683124 -0.012174762 0.12030028 -0.17448285
0.13069706 -0.02864982 0.08943085 0.123327844 0.16449697 -0.12255022 0.019646062 -0.1376141
0.19544649 0.05411528 -0.17426178 0.12498223 -0.10117856 0.1441325 0.109491415 0.198209
0.088768326 -0.015040714 -0.010897003 0.16631253 -0.12370678 -0.025989285 -0.0044763195 0.09634577
0.19912694 -0.18292569 0.21256602 0.19738413 0.18920708 -0.016682431 -0.07617167 -0.13737698
-0.121383965 0.113392405 -0.19559777 0.004439634 -0.14402752 0.13249937 -0.17944211 0.154883
-0.0055833706 0.16519788 0.06853787 -0.042334404 -0.14276935 0.08393636 0.21955949 -0.06510664
0.12481196 0.13038507 -0.18183902 -0.11884583 0.09538118 -0.14825934 0.056728303 -0.06481844
0.010104252 -0.103251755 0.009288623 -0.18645222 -0.03390853 -0.10455243 -0.19925593 0.1261484
0.08991055 -0.12667345 -0.21282889 0.20750988 0.06500561 -0.06403366 0.10612876 -0.035548706
-0.10013385 0.0946316 -0.011542538 -0.20625693 -0.12757027 -0.02297317 -0.04702241 0.04132873
0.028373115 -0.15974283 0.1504323 0.17006701 -0.0002768033 -0.021481618 0.15802531 -0.07544549
-0.02869691 0.027363652 0.21625064 -0.11651328 -0.04798962 -0.1703495 0.14916979 -0.18214485
0.10707257 -0.10991681 0.16111745 0.14980198 -0.19020021 0.05219411 0.1925266 0.16192284
0.1552418 -0.044907972 -0.23672517 -0.014171754 0.037438132 0.011693529 -0.14316858 -0.21967797
0.12934479 -0.11745137 -0.21623133 0.020944273 0.17558672 0.19646698 0.029331066 -0.13846117
0.056361828 0.21651535 -0.1395603 -0.19231781 -0.008151358 0.008872446 0.14482537 0.03574505

conv3.bias f4 [128]
00000000: 7f65 0e3a bfce 223a d322 27b9 4c0b 33ba
00000010: dcd0 763a 9a89 053a e4fe fe39 39ee 88ba
00000020: ee71 803a c97d 503a 63da 363a 350d 0e3a
00000030: 8cec 353a 5a8e e8b8 6369 a23a 3540 e8b9
00000040: 7be5 0c3a 3b26 8aba d413 873a 41de 98ba
00000050: 80b8 943a 43ee 26ba e4cf 8e3a f584 23ba
00000060: eae0 34ba bec4 0abb 567a 5b3a 84f9 6839
00000070: 8024 a53a 0d24 82ba 71c7 7fba a531 5e3a
00000080: d8a5 943a 6cb6 51ba 175e 57b8 9833 cb3a
00000090: e55c 8cb9 9761 50ba 58c2 d739 8a61 363a
000000a0: a14d 87ba 95c0 5dba 9d80 8239 f36b 4db9
000000b0: 4593 ddba 4689 3f3a 47e3 28b9 cd06 00ba
000000c0: e2b0 8eba 8414 a1ba 90ab 7eba 32c5 b83a
000000d0: 0aac 743a 736a 1d3a ea24 21ba 8a3d 13ba
000000e0: f21b 59ba fe52 3838 38f1 45ba 9933 a1ba
000000f0: c972 b239 a8b3 79ba 6878 70ba 7cc3 983a
00000100: 14d5 a33a bdf4 8eba 348e 17ba 0d28 743a
00000110: 37a6 9d3a c580 20ba 05e9 9f3a e126 efb8
00000120: de54 6bba f04b 70ba 6084 8e3a 0a39 22ba
00000130: 6b57 9fba 8efb 2f3a 8340 5e3a 58ff 9a3a
00000140: a711 50ba 9058 c1ba 116b 513a a577 8d3a
00000150: a330 09ba a731 5e3a ecdf d6b8 b1aa 09ba
00000160: 5074 cb39 0c3d 703a e5c9 4db7 d8ea 843a
00000170: ba83 6f3a 15e9 29ba a97e 00ba 93f6 12ba
00000180: a1bd 8fb9 6778 6aba 1835 24ba ff5e 9f3a
00000190: 99dd efb9 0746 6a3a 31ad 593a 8765 7b3a
000001a0: 19d9 8aba 3a01 a4ba fa6b eaba 023d 87ba
000001b0: 0633 98ba bb93 533a 6a38 d13a ce30 75ba
000001c0: 78d0 153a de61 36ba 6314 9f3a 2113 523a
000001d0: 3580 9339 9957 28bb a948 383a c797 6b3a
000001e0: 197a bfba 935a a43a b3c6 813a 1820 4fba
000001f0: 2fb3 813a 00a5 9839 2179 9a3a 0a9f 62ba
0.0005431994 0.0006210617 -0.00015939334 -0.00068299915 0.0009415278 0.00050940516 0.00048636564 -0.0010446972
0.0009799579 0.0007953314 0.0006975291 0.0005418838 0.000693985 -0.00011089137 0.0012391027 -0.00044298326
0.00053747714 -0.0010539958 0.0010305592 -0.0011662917 0.0011346489 -0.0006367901 0.0010895696 -0.00062377687
-0.000689997 -0.0021174396 0.00083724165 0.00022218196 0.0012599379 -0.0009928957 -0.0009757197 0.00084760255
0.0011340929 -0.00079999 -5.1347623e-05 0.0015503047 -0.00026772093 -0.00079491123 0.00041152793 0.00069572835
-0.0010322818 -0.0008459178 0.00024891357 -0.00019590538 -0.0016904852 0.0007306527 -0.00016106396 -0.0004883826
-0.0010886455 -0.0012289439 -0.0009714896 0.0014096855 0.0009333497 0.0006004937 -0.0006147163 -0.0005616775
-0.0008282057 4.394631e-05 -0.0007550898 -0.0012298702 0.00034036327 -0.0009525367 -0.00091732154 0.0011654939
0.0012499415 -0.0010906678 -0.0005781383 0.00093138294 0.0012027685 -0.0006122704 0.0012200183 -0.0001140365
-0.0008977185 -0.0009166589 0.0010873191 -0.0006188309 -0.001215679 0.0006713205 0.0008478241 0.0011825366
-0.0007937201 -0.0014751125 0.00079886714 0.0010793103 -0.00052333827 0.00084760267 -0.00010246024 -0.000525157
0.00038805837 0.000916437 -1.2265959e-05 0.001014079 0.0009136755 -0.00064815703 -0.00049016863 -0.00056062004
-0.0002741637 -0.0008944333 -0.0006264015 0.0012159048 -0.00045750735 0.00089368265 0.00083037006 0.0009590019
-0.0010593265 -0.0012512573 -0.0017884963 -0.0010317864 -0.0011611886 0.0008071025 0.0015962247 -0.0009353281
0.0005714963 -0.00069573324 0.0012136813 0.00080137147 0.00028133547 -0.0025686978 0.000702987 0.0008987155
-0.0014608531 0.00125392 0.0009901136 -0.00079012057 0.000989532 0.00029114634 0.0011785367 -0.00086449145

conv3.lin.weight f4 [128, 64]
00000000: 2204 5fbd 9be9 45be 966d 83bd 8bf4 3bbe
00000010: 0a50 273d bb57 3f3e 4aa4 0a3e c815 0bbe
00000020: 820b b4bd d32b fabd d367 c3bd 1afc bbbd
00000030: 0b84 003e c7f8 313e 8215 5ebd a994 19be
00000040: 58f7 403d d4aa 643d 8420 68bd af57 0fbe
00000050: 970e b03c beb2 bcbd 106a 5e3d 1a93 7b3d
00000060: 0fba 343c 4854 0bbe 59ed 423d 66ed c93c
00000070: 005b 94bd 8de3 33be ce85 883d 00fe 603d
00000080: c81b 8abd 6104 d8bc cf16 afbc ef2a 5c3c
00000090: 7e00 f93d bb00 1abd 3e69 203e 2ce9 9b3c
000000a0: d900 bf3c b6c5 29be 6f16 1b3e cc0c a63b
000000b0: b4a7 f33d 8372 d13c 06bb 4ebd 968f 923d
000000c0: b5d6 853d 5005 42be a604 1e3d 36be 683d
000000d0: 06db 6e3d 4eb7 6ebc 2acd b63d f11d e5bc
000000e0: f4c4 bdbc 0b3e b0bd b974 2e3d 4c9e 2bbe
000000f0: f154 0ebe 273e dfbd 676e 363e 9874 043d
00000100: 79e2 9dbd b0a9 19be 22ba b13d 6de2 9abd
00000110: 235a 7e3c 98c0 8abd 3895 04be 9965 df3d
00000120: 5db5 d0bd 2aef 013c 7b1f 35be b426 a83c
00000130: 3cec e43c d14d 683c 0dce 21bd cf56 2b3e
00000140: 8bed 97bc 1ac4 9dbd 5619 22be a0cd 13be
00000150: 9e26 ee3d 5f44 a3bd 0352 fabd 512a a63c
00000160: 2f73 5f3d 2dca 213e 6ac5 bcbd 962f 28be
00000170: 380b cd3d 4268 833c 004b df3c 2186 c2bd
00000180: 2361 283d d00c 1a3b 3778 883d 776f 20be
00000190: 181e d13d 7a48 203e 1b56 81bd 59a2 283e
000001a0: cd7e b83d e41b 063e 4c78 b3bd 835d 85bc
000001b0: 7422 fcbc 6666 04be c36a 1dbe 54ad c8bd
000001c0: 0d1f 6f3d 14dd a83d cdf6 f9bc ed83 79bd
000001d0: b370 cf3d 943e c43d da37 d2bd 1954 213d
000001e0: 6c42 46be 7174 083e d10c e0bd 94c5 6cbd
000001f0: b223 e73c 5405 c9bd 725a 0b3e 4faa 303d
00000200: e87c 0e3d 8efa f0bc b061 053e dcf2 e2bd
00000210: 08f3 afbd 6dfa ae3d a20b 0d3e eac1 50bd
00000220: 4be7 643d d66e bc3d 72b0 083d 45f1 e5bc
00000230: 9cdb dc3b 2f85 0b3e b7a4 8b3d 84bb ee3d
00000240: f628 15be 7c32 033d a43d 1ebe ad9e a1bd
00000250: 34a3 57bd 9b9c 80bd bedd 81bd 9049 0d3e
00000260: fd71 47be 776c 833d 375c a33d fb45 7dbc
00000270: cd19 7cbd d73f 8ebd 34af e93d eace ecba
00000280: 66d6 983d 063b 97bc c97c 103d d1b5 353d
00000290: 73db 38bd 0b55 9dbd b119 c93b edf2 0cbd
000002a0: 65b0 0b3e a989 47bd 3ed1 0f3e 94b6 b03d
000002b0: 7231 183e 96bd 263e bfef 81bc 511a 33bd
000002c0: 0b28 233e 0d67 1ebe 98d9 bc3c b33f 00bd
000002d0: 32e8 e1bd 7a9e 6dbd 0283 e4bd 3624 053e
000002e0: 5f07 0cbe 93ca b3bd 792a 40be 9b66 73bc
000002f0: e207 263e e5ca 173d 9c66 143d 519d 9e3d
00000300: 8a5c c2bd cb02 033a fe4f 5dbd 0daa 27bd
00000310: 50a1 1f3d f307 cf3d 634b 003e fdfe b33b
00000320: 6084 ee3d 379e a5bd 4343 a6bd e475 0fbe
00000330: 4eb6 39bd e96c 593d bade a7bd 902f c9bd
00000340: c442 9f3d 85e5 d83d 6c76 e2bd bad8 e63c
00000350: 2610 d33d 9015 ecbc c07f edbd d8bf d7bc
00000360: 0c3c cdbc 4053 e7bd b54e 7a3d c009 9ebd
00000370: 5ab9 b63d dcb5 e83d aa5b f5bd 923c 0cbe
00000380: 09da 153e 30fb e53d 8373 a33c 8a95 89bd
00000390: 815e 133e 09e4 3cbe b0da cc3d 3143 203e
000003a0: 1fd6 723b 3d24 24be 105c debd 7351 8e3d
000003b0: 3ba9 403e 6222 293d c3bd 10be cb37 36be
000003c0: 4776 21be b0df 0e3d 9beb 49bd cce5 cebc
000003d0: f9f8 9d3d 5640 183d 07b3 b53d a02e 3abc
000003e0: e386 d5bc 9c93 4dbd 4c1d 02be 6aaa 06be
000003f0: 3350 e93d 9b08 e7bc 614d 68bd 61cc 13be
-0.0544473 -0.19327395 -0.06417386 -0.18355004 0.040847816 0.1868581 0.13539234 -0.13582528
-0.087912574 -0.1221539 -0.09541287 -0.09178944 0.1255037 0.17380057 -0.05421973 -0.14998116
0.047110885 0.055826977 -0.056671634 -0.13998292 0.021491332 -0.0921378 0.054300368 0.061419584
0.011030688 -0.1360637 0.047589634 0.024649333 -0.072439194 -0.17567272 0.06666146 0.054929733
-0.0674358 -0.026369276 -0.02137318 0.013437971 0.12158297 -0.037598353 0.15665147 0.019032083
0.023315834 -0.16579327 0.15145276 0.0050674435 0.11897221 0.025567299 -0.05047133 0.07156293
0.06535093 -0.18947339 0.03857865 0.056822024 0.058314346 -0.01457007 0.08925851 -0.027968379
-0.023165204 -0.08605584 0.042591784 -0.16759604 -0.1389959 -0.109005265 0.17815553 0.032337755
-0.07709212 -0.15006137 0.0867808 -0.075627185 0.01552442 -0.067750156 -0.12947547 0.1090805
-0.10190842 0.007930556 -0.1768779 0.020526268 0.027944677 0.014178709 -0.039503146 0.16732334
-0.018545887 -0.07703419 -0.15829977 -0.14433908 0.116284594 -0.07972025 -0.12222674 0.02028385
0.054553207 0.1579978 -0.09217341 -0.16424403 0.100119054 0.016040925 0.027257442 -0.09498239
0.04110826 0.0023506172 0.06663554 -0.1566752 0.10210818 0.15652648 -0.063152514 0.1646818
0.0900856 0.13096577 -0.08763179 -0.016279941 -0.030778147 -0.12929687 -0.15372758 -0.09798685
0.05837922 0.08245292 -0.030513192 -0.06091683 0.101289175 0.09582248 -0.10264559 0.039386842
-0.19361275 0.13325669 -0.109399445 -0.057805613 0.028215263 -0.098154694 0.13608721 0.04313117
0.03478709 -0.029416349 0.13025546 -0.11081478 -0.085912764 0.08543859 0.13773969 -0.05096618
0.05588464 0.09200828 0.033371396 -0.028069148 0.0067400467 0.13625024 0.06818526 0.116568595
-0.14566407 0.032030568 -0.15453202 -0.07891593 -0.052645877 -0.0627987 -0.06341122 0.13797593
-0.19477077 0.064171724 0.07976573 -0.015458579 -0.061548043 -0.0694577 0.114103705 -0.0018067036
0.07462768 -0.018460762 0.035275254 0.044362847 -0.045131158 -0.07682236 0.006137096 -0.03441136
0.13641508 -0.048715267 0.14044663 0.08628574 0.14862612 0.16283259 -0.01586139 -0.04372627
0.15933244 -0.15468998 0.023052976 -0.03131075 -0.11030616 -0.058012463 -0.111578 0.13002095
-0.13674687 -0.08778872 -0.18766202 -0.014856006 0.16213945 0.03705873 0.03623067 0.077448495
-0.09490307 0.00049976696 -0.054031365 -0.040933657 0.0389722 0.10108938 0.12528758 0.0054930435
0.11646342 -0.08086818 -0.08118298 -0.14009815 -0.045339875 0.05308238 -0.081967786 -0.09823525
0.077764064 0.105906524 -0.110577434 0.028179515 0.103058144 -0.028818876 -0.11596632 -0.026336595
-0.025053047 -0.112951756 0.061110217 -0.077167034 0.08922072 0.11362812 -0.11980374 -0.1369498
0.14633955 0.11229551 0.019952541 -0.067179754 0.14391519 -0.18446364 0.10002649 0.15650631
0.0037053896 -0.16029449 -0.10857403 0.06949129 0.18814556 0.041292556 -0.14134888 -0.17794721
-0.15767775 0.034881294 -0.049296957 -0.02525606 0.077135034 0.03717073 0.088720374 -0.011363655
-0.026065296 -0.0501896 -0.12706488 -0.13150945 0.1139225 -0.028202346 -0.05671442 -0.14433433

conv4.bias f4 [256]
00000000: 873d cdbc 9570 d2bc 2080 c03c 5f9f 873c
00000010: 3ba1 f23c dae6 c0bc b0db 973a b9f3 d43c
00000020: 8f2a bb3c 911f cfbc 27c1 033d 9939 d2bc
00000030: 96ec f13c c282 c7bc 2c97 d8bc 4427 d5bc
00000040: 46df b5bc cf34 a53c ac6f d7bc e354 33b9
00000050: e929 d1bc d083 e5bc dc89 ef3c 98fd e2bb
00000060: 0404 c63c a00b f5bc 703c bc3c c82a e9bc
00000070: 802a 04bd 6cb5 bcbc 38cf 2f3c f543 bb3c
00000080: 1ef9 c5bc 8338 073d e699 c4bc 8dec 8a3c
00000090: bc18 dfbc e514 19bc ffbe be3b ec7f b03c
000000a0: 1afc d23c 12e1 b93c 47f2 c8bc ef66 df3c
000000b0: efb9 10bc bd8e aa3c aa6d dd3c 490a c33c
000000c0: 8030 ab3c 797a 6abc c4d7 cebc 4e0e dfbc
000000d0: 6697 aa3c e22e efbc 1ca0 5a3c 9307 a63c
000000e0: d267 073d 1368 d7bc 3ab1 bc3c 90ba 983c
000000f0: 622e 353b 7cb1 c9bb 2ba3 c43c d575 c2bc
00000100: a356 c4bc c3f4 ac3c c3bc 5dbc 0823 b93b
00000110: 20b6 d3bc a5f3 ca3c b26f 233c 0844 bdbc
00000120: 81b3 473c 4246 febc 5495 bf3c dfa5 e0bc
00000130: d729 d1bc b046 c5bc 4675 b6bc 3f34 5fbb
00000140: 0ed5 bdbc b046 99bc 0ad2 b3bc c9d5 b73c
00000150: 9428 84bc 6209 d8bc 4dc3 b3bc c595 d83c
00000160: 4c3a 9d3c 7b9c 7bbc 8c16 b53c c490 c73c
00000170: d22e 9bbb 309a cdbc b9f3 a43b 1635 d4bc
00000180: 5eb2 01bd c741 cc3b 0d9f 203c eb2a e3bc
00000190: f652 6c3c 9bd2 d33c a580 ea3c f6b8 2a3c
000001a0: bf5f da3c dab8 cf3c 7a2e d0bc b8e2 a7bc
000001b0: d680 de3c 0efa c7bc 0da9 abbc 0897 003d
000001c0: dae2 f93c eb8b 01bd e570 cbbc 90e3 02bd
000001d0: 6c31 c9bc cf9f 47bc 43ab a2bc ed2c 06bd
000001e0: 6d36 9dbc c26e c33c a2c9 033d 89ee de3c
000001f0: 3c0d 01bd f2ac d4bc 0265 9b3c 9eb6 0abd
00000200: 207e e23c 2c82 c13c 5465 cabc 981e b43c
00000210: 35fd bcbc 0c8a e53c f9d8 c4bc 9040 443c
00000220: 9f86 043d f61e c4bc 5066 bdbc e252 c83c
00000230: 2c8f 9fbc 7923 debc 9f1e 9c3c 5ed4 b13c
00000240: a3f0 bf3c 8882 00bd 9859 f33c fcb4 b1bc
00000250: f6c3 fa3c 3e9c ccbc e82c df3c 07b4 cb3a
00000260: a573 ccbc 917d 6bbc e84a d93c cabf 833c
00000270: 5b16 bebc 6864 a7bc 6f7c e6bc 78c1 5dba
00000280: 3120 983c bdf5 87bc 14a3 ab3b 0c67 b43c
00000290: 6da7 adbc 4e43 b93c 8764 c8bc 0dd5 643c
000002a0: e100 fcbc 2767 8b3c 2e8c eebc a9d2 d23c
000002b0: b960 03bd 6cca 543c bf34 cb3c c561 febc
000002c0: be60 88bc a0cc cfbc d2d4 fd3c 4a39 a3bc
000002d0: 6ec2 273c a16d 00bd 490a 163c 52ad 9b3c
000002e0: 9b56 0a3d 6242 e1bc 2223 d8bc 9420 cbbc
000002f0: df06 f4bc 906e c6bc 568c d6bc a04b 963c
00000300: beda c63c 7791 d93c 60bf d03c c2cc d4bc
00000310: 7362 9a3c e652 e63c 570a 063d 4b54 f0bc
00000320: d17c 093d 7159 cf3c 224b 783c dc78 efbc
00000330: 0d77 f5bc b079 c43c ec7a d23c c920 e13c
00000340: df1e c43c 0d7e febc 6480 b93c e55f ca3c
00000350: b273 f23c ca4a acbc 456a ef3c 30cf b4bc
00000360: 9627 953c 80e8 4f3c e1b0 86bc 8501 b9bc
00000370: c915 cfbc 6b24 c6bc 91dd 4cbc 2dc4 c73c
00000380: 920f 9ebc 9c5e d43c e3da d93c 675a cfbc
00000390: 4fa4 d03c 0b90 b63c 4720 b53c 4d77 67bc
000003a0: ca6c 00bd 341a efbc e1ff fdbc 8611 c93c
000003b0: c930 cfbc 76b6 cd3c f6b0 a83c d814 ae3c
000003c0: afe7 c1bc e7db d1bc 2474 c73c ba02 c73c
000003d0: d095 c83c 3237 883c 33fc c0bc e9e5 c63c
000003e0: 0340 d63c 3dec d93c 447e f0bc 62f5 b53c
000003f0: 1771 aebc 3f86 e1bc fd7c b9bc 4cf2 d7bc
-0.025053753 -0.025688449 0.023498595 0.016555486 0.029617896 -0.023547579 0.0011585858 0.025995122
0.022847442 -0.025283607 0.032166626 -0.02566223 0.029531758 -0.024354342 -0.026439272 -0.0260197
-0.022201192 0.020166783 -0.026298366 -0.00017102393 -0.02553268 -0.028016955 0.029240541 -0.0069272034
0.024171837 -0.02991277 0.022978038 -0.028462783 -0.032267094 -0.023035727 0.010730557 0.022859553
-0.02416664 0.03301288 -0.023999166 0.0169585 -0.027233474 -0.009343361 0.0058211084 0.021545373
0.025754977 0.02269033 -0.02452959 0.027270762 -0.0088333925 0.020820016 0.027029831 0.023808615
0.02089715 -0.014311426 -0.02524937 -0.0272285 0.020824146 -0.02919716 0.013343837 0.020267284
0.033057995 -0.026294744 0.023033727 0.018643647 0.0027646055 -0.006155191 0.024003586 -0.023737827
-0.023967093 0.021112805 -0.013533774 0.005649928 -0.02584368 0.024774382 0.009975361 -0.023103729
0.012188793 -0.03103936 0.023386635 -0.027422844 -0.025532646 -0.024081558 -0.022272717 -0.003405824
-0.023172881 -0.018710464 -0.02195074 0.022440808 -0.01613263 -0.026371662 -0.021943713 0.026438603
0.019192837 -0.015357132 0.022105478 0.024361022 -0.004735806 -0.025097936 0.005033937 -0.02590422
-0.031664245 0.006233427 0.009803546 -0.027730426 0.014424076 0.02585726 0.028625796 0.010420075
0.026656983 0.025356699 -0.025412787 -0.02049385 0.027161043 -0.024411228 -0.020954633 0.031394035
0.030503679 -0.031627577 -0.024834106 -0.0319553 -0.024559699 -0.012184097 -0.019857055 -0.03275769
-0.019190991 0.023856524 0.032174714 0.027213352 -0.031506762 -0.025961373 0.018969063 -0.033865564
0.027648032 0.023621641 -0.02470652 0.021987244 -0.023069957 0.028019927 -0.024029242 0.0119782835
0.032354947 -0.023940545 -0.023120075 0.024453584 -0.01947745 -0.027116524 0.01905757 0.02170771
0.023430174 -0.031374484 0.029705808 -0.021692745 0.03061102 -0.024976846 0.027243093 0.0015541323
-0.024957487 -0.014373199 0.026524976 0.016082663 -0.02320402 -0.02043362 -0.028135506 -0.000845931
0.018570038 -0.01659667 0.0052379463 0.022021793 -0.021197999 0.022615101 -0.024461998 0.013966811
-0.030762138 0.01701696 -0.029119577 0.025735216 -0.032074664 0.012987714 0.024805425 -0.03105248
-0.016647693 -0.025366127 0.03098527 -0.019924778 0.010239227 -0.03135455 0.009157726 0.019003544
0.033774 -0.027497474 -0.02638394 -0.024795808 -0.029788433 -0.024222642 -0.026189964 0.018346608
0.024274226 0.02655862 0.02548188 -0.025976542 0.018845772 0.0281157 0.032724705 -0.029337069
0.0335663 0.025311204 0.015154632 -0.029232435 -0.029963994 0.023983806 0.02569338 0.027481453
0.023940502 -0.031065965 0.02264423 0.02470393 0.029596183 -0.021031756 0.029225478 -0.022071451
0.018207353 0.01268971 -0.016441764 -0.022583732 -0.025278943 -0.024187287 -0.012503997 0.024385536
-0.019294534 0.02592402 0.026593631 -0.025311662 0.025468973 0.022285482 0.022110118 -0.014127565
-0.03135375 -0.0291873 -0.031005802 0.024544489 -0.025291817 0.025111418 0.020592194 0.021250173
-0.023670046 -0.025617553 0.024347372 0.024293292 0.024485499 0.016627882 -0.023557758 0.024279552
0.02615357 0.026601905 -0.029357083 0.022211734 -0.02129416 -0.027529834 -0.022642607 -0.026360653

conv4.lin.weight f4 [256, 128]
00000000: 5b9c 60bd bfab 2abd 3c44 cc3d 92a3 db3d
00000010: 09cd 093e 941c 3fbd 09c3 17be b554 08be
00000020: 660d bdbd 435d a83d 4d5f f63d 9084 323d
00000030: a656 f5bc 1fe4 c83d b83f 003e e895 913d
00000040: b484 2ebd a5e6 adbc 3ed5 7fbd 710b 1d3d
00000050: 9124 623c 82fe a9bc cd95 efbd 91db 023e
00000060: cb8b dfbd b39b 92bd 1541 143e a7ff 64bd
00000070: 9837 043e 6a4f 873d 7c2c 703d 5fb0 babd
00000080: 73b0 d23d 4895 05be a698 e9bc 053a dc3b
00000090: 123e 01be dd29 33bd b495 9bbd 64c7 2fbd
000000a0: d1e5 b5bd 0adc 0c3e cbce ddbc ce1d aa3c
000000b0: 8347 363d ae4a ffbd 9359 af3d a52d 003e
000000c0: 8355 823d ae5a c23c 6dde 713d 6319 843d
000000d0: 2009 b9bd 42cc f13b 988f c63d 334c 16be
000000e0: bc52 803c 02a8 0abe 5370 d7bc a658 b2bd
000000f0: 8a64 eebc 3b98 febd 0a05 a43c c72c 8b3d
00000100: 7b5c 813d 9ad7 bf3d f975 8bbd 2d61 22bd
00000110: c28c 423d 2903 07bc 01c4 b3bd 777d 313d
00000120: a612 183e 6e81 0abd abd6 6bbd 5f2a 5f3d
00000130: 40ad 0e3d 99cd dabc 6996 43bd b33b b2bd
00000140: 12a9 db3d 96f4 eebd 9ab4 9f3d 13c7 b93d
00000150: eeec 76bd 4917 df3a 48b3 c2bd 26d8 15be
00000160: 706b 553d c88f 3cbd 0d92 09bd 28fc f0bd
00000170: e58c 2cbd b648 8b3d 6806 6bbd b785 46bd
00000180: 7709 a43d 16c1 063c 1f68 c5bd f944 e2bc
00000190: b5d9 173e 9c19 b53d 7bd8 9f3d e320 4f3d
000001a0: 7e8a 09be 3592 77bd 40fc 293c 4ddd 69bd
000001b0: 534f e03c 562e 60bd 4efc 143e 0a01 163e
000001c0: b3e4 e73d 0fca 583d 6c63 3fbd 00e0 a23d
000001d0: 6fcf 19be 43a7 9b3d 96e7 fcbd 2bee c13c
000001e0: 9780 02bd 23e0 f3bc 90c9 853c a3a1 26bd
000001f0: a5a9 b7bd e867 733c 8e90 29bd 1764 72bd
00000200: 9afb ad3d c709 12be 73b7 05be 9d93 713d
00000210: dd6e d7bc feb9 823c 1b1d 22bd aa58 d1bc
00000220: 7b3d cebc d963 88bd d1bb 00be 431c 103e
00000230: a3ef b33d c2b1 0dbe e5b2 a93d 2a99 ebbc
00000240: b621 77ba c3b1 bc3d 1625 bebd 1012 cb3c
00000250: ed79 42bd 0c11 173d 274f 98bd 2f24 d13d
00000260: 3cf2 893d f643 e53d 6ec8 c7bd 6566 9ebd
00000270: 3dd3 053e 4526 aa3b 6966 f0bc e9b6 27bd
00000280: bd92 05be 761a ba3c 50ab 4c3d 1cbe 053d
00000290: 9157 7cbd a7d0 e1bd 94cc ca3d c8f2 96bd
000002a0: c725 6abd 2729 b53d e986 d33c d588 ef3c
000002b0: 0147 a4bd bfa6 423d 2fd2 a13b 48d3 853d
000002c0: 2dc7 c33d acd4 0d3e 532f 83bd f353 0b3e
000002d0: dbcd cf3d 5653 e93c 9b66 de3d d7b0 0fbc
000002e0: cf97 6c3c a264 a9bd 2fb5 15be 94e1 943d
000002f0: 021b d03d 8277 c33d cff8 a9bc dff9 edbc
00000300: efe4 e93c c9b7 c33c b96e 943d 721f 1d3d
00000310: 1572 3e3d 6fad 9fbd 49e2 7dbd f698 9bbd
00000320: 4875 cabd b853 213d 0542 e5bb 08c9 a93d
00000330: 95be 89bd 8bf0 2d3c c5c1 c7bd 43b9 013e
00000340: 288b bcbd f3ac c83d eaf8 92bd a61e 6e3d
00000350: bb35 e7bc 114f cdbc 1be5 c13d 6b17 8b3c
00000360: 24d9 85bd fd06 5c3d e396 e4bb 3490 5fbc
00000370: 636f a4bc 5d93 86bd f097 d4bc affc f0bc
00000380: a4d2 003b 80f3 143e 7dac 63bd 3ca3 7a3d
00000390: 6ac2 17be bd54 5c3d d60f bdbd d780 cfbd
000003a0: 459c 4bbd 319e 05be 9a07 4e3d 22e7 da3d
000003b0: d054 793d 50c1 363d 3ca3 a4bd 375e d43c
000003c0: e1bb 56bd ac1e 583d a5a8 98bd 788b 3c3d
000003d0: 45eb 333c 4261 e93d dcda 15be f090 96bb
000003e0: 0626 6d3d c448 52bd 0332 eb3d f868 00bb
000003f0: af5d cb3d 604d bf3d cbe7 0eb8 9efe b93d
-0.054836612 -0.041667696 0.09973952 0.10724558 0.13457121 -0.046658114 -0.14820494 -0.13313563
-0.09231071 0.08220913 0.12029896 0.043583453 -0.029948544 0.09809136 0.12524307 0.071086705
-0.042607024 -0.021228144 -0.062459223 0.03834099 0.013802663 -0.020751242 -0.11698494 0.1277907
-0.10915335 -0.071586035 0.14477952 -0.05590787 0.12911832 0.06606944 0.058636174 -0.09115671
0.10287561 -0.13045228 -0.028515171 0.0067207837 -0.12621334 -0.043741096 -0.07596913 -0.042914763
-0.088817246 0.13755813 -0.027076146 0.020766165 0.044501793 -0.12465416 0.08562007 0.12517412
0.06363966 0.02372488 0.059050012 0.06450155 -0.090349436 0.0073790858 0.09695357 -0.14677505
0.01566445 -0.13540652 -0.026298678 -0.087083146 -0.029100675 -0.124313794 0.020021934 0.0679565
0.063164674 0.093672946 -0.06809611 -0.039643455 0.04749752 -0.0082404995 -0.08777619 0.043332543
0.14850864 -0.03381484 -0.05757777 0.054483768 0.034833193 -0.026709365 -0.047750864 -0.08702793
0.10725607 -0.11667745 0.07798119 0.090711735 -0.060284548 0.0017020489 -0.095068514 -0.14633235
0.052104414 -0.046035558 -0.03358655 -0.11766845 -0.042126555 0.06800978 -0.057379156 -0.048467364
0.08009618 0.008224746 -0.09639 -0.02762078 0.14829142 0.08842775 0.07804962 0.050568473
-0.13431737 -0.06044217 0.0103750825 -0.057095814 0.027381575 -0.05473169 0.14549372 0.14648834
0.11322918 0.052927073 -0.046725675 0.07952881 -0.15020536 0.07600262 -0.12348859 0.023673138
-0.031860914 -0.029769963 0.016331464 -0.040681493 -0.08967904 0.014856316 -0.041397624 -0.059177484
0.08495255 -0.14261542 -0.13058262 0.058978666 -0.02629798 0.015957829 -0.03957854 -0.025554974
-0.0251758 -0.066596694 -0.12571646 0.14073281 0.087859415 -0.1383734 0.082860745 -0.028759558
-0.00094273256 0.09213593 -0.09284417 0.024788886 -0.04747956 0.03688149 -0.07436972 0.102119796
0.06735656 0.11194603 -0.09755026 -0.07734374 0.13068862 0.0051925504 -0.029345708 -0.04094592
-0.13044257 0.022717696 0.049968064 0.032652006 -0.061606947 -0.110261254 0.099023014 -0.073705256
-0.057164934 0.0884574 0.025821166 0.029240051 -0.080213554 0.047522303 0.004938386 0.06534439
0.09559474 0.13850659 -0.06405511 0.13606243 0.10146686 0.02848212 0.10859414 -0.008770189
0.014440491 -0.08271147 -0.14619897 0.07269588 0.10161401 0.09544279 -0.020748524 -0.029049812
0.028551547 0.023891347 0.07247681 0.038360067 0.046495516 -0.07796752 -0.06198338 -0.07597534
-0.09885651 0.03938648 -0.0069963955 0.08290297 -0.06725804 0.010616432 -0.097537555 0.12668328
-0.092062294 0.097986124 -0.07176383 0.058134697 -0.028223863 -0.025062116 0.094675265 0.01697894
-0.06535557 0.053717602 -0.006975995 -0.013645221 -0.020072645 -0.06571076 -0.025951356 -0.029417364
0.0019656802 0.14546013 -0.05558442 0.06119083 -0.14820257 0.05379175 -0.09231536 -0.10131996
-0.049709577 -0.13048626 0.05030022 0.10688616 0.0608719 0.04461795 -0.08038947 0.025923831
-0.05242527 0.052763626 -0.074540414 0.046031445 0.010981386 0.113955036 -0.1463427 -0.0045949146
0.05789759 -0.051338926 0.11484148 -0.0019593816 0.09929978 0.0934093 -3.4071312e-05 0.090817675

conv5.bias f4 [256]
00000000: 1699 50b9 630f 49ba 6697 473a d2cc b8b9
00000010: fbb2 71ba e633 6b3a bd1c 4e3a 8fce 723a
00000020: 491b 053a c042 a23a 6422 56ba 0322 c238
00000030: 4c6e 1339 bb1d 43ba b1cb 4c3a b76e 9a3a
00000040: b6af 4cba e865 3eba 9e49 0aba 538a 4cba
00000050: 3abc 1db6 e9c9 77ba f29f a4ba eb81 9939
00000060: 3338 12ba 636c 04ba 8145 93ba 2aee 28ba
00000070: 118a a7b8 5b81 6b3a cb7d 21ba 8199 6f39
00000080: a538 953a da5e 7f3a d0aa 55ba d0fb 25ba
00000090: 8062 7fba 6f50 33b9 b621 9b39 c996 31ba
000000a0: 7db6 363a 38d4 3d3a 9562 b0b8 b4fa ba39
000000b0: 495a 86ba 0650 4eba 7bbd 103a e6bc a3ba
000000c0: 0a45 74ba 4265 c2b9 45a5 08ba 7a9d 1d3a
000000d0: 90ea 33ba f720 043a 0d69 d0b9 3da7 e3b6
000000e0: 3233 2cba 868c 79ba bd38 803a 4016 55ba
000000f0: d2ae bd39 25f3 a03a 29fa 61ba 66ec 223a
00000100: ecdc 6bba 9ddf 553a 5f85 51b9 69b8 a43a
00000110: e1c0 7b3a bb35 2f3a 5d5d e6b9 4240 4f3a
00000120: 2a4b 63ba f4f3 393a d69e 69ba 8d27 7d3a
00000130: 6a11 9eba a20b 51ba 31ce 45ba c24c 813a
00000140: 8fcd 90b8 9bd7 5bba 2965 523a edb1 7338
00000150: ef31 50b9 bbfc 6fba 5085 26ba bf70 a539
00000160: 2c3b e439 58f8 39ba dd36 5e3a d9bf b2b9
00000170: cce0 2c3a 57cc 49ba 6a9b 93ba 21d7 3cba
00000180: 2fc6 70ba 492d 7aba f2ac 683a b429 f6b8
00000190: 1ce9 793a 8657 09ba 267b 833a 5170 69ba
000001a0: c874 6bba bc58 3aba 4025 1239 2887 98b9
000001b0: cf14 133a 9ec8 38ba aa3f e6b8 0392 4aba
000001c0: 29ba 7eba 9bb3 ec39 d6be a739 c0a5 2a3a
000001d0: ff96 48ba 16f1 2fba 2cad 6a3a bfb2 8939
000001e0: af5a 7f3a b342 46ba a652 4e3a 1aeb 7f3a
000001f0: 348e d2b8 90ee 233a a554 bf39 3fe2 21ba
00000200: e46e 11ba e1e1 9b39 deed 4cba c0a4 7f3a
00000210: 37a1 edb9 288a 5fba c265 7f3a dec1 7c3a
00000220: ff2a 7fba 1f36 54ba 01be 04ba 2c70 9539
00000230: 0d95 013a e12f 40ba cf5b 7bba 32ed a1ba
00000240: 6875 21ba a3b8 0e3a aed5 433a da44 d639
00000250: 7db4 353a e2ce 2e3a cb1a 53ba 3bcf 2d3a
00000260: 7ca5 a43a 7a2b 453a 301d 4c3a c2bd 563a
00000270: d858 0d39 f916 8bb9 3e45 eab9 5db1 4d3a
00000280: d450 733a 0349 6c3a 36dc 6238 2008 0c3a
00000290: 7706 8fba 20a0 fa39 a5f7 0c39 fc23 5fba
000002a0: 0484 9dba 1c43 543a afaf 2cba eb95 9439
000002b0: bf88 8439 1843 2f3a bb5f c239 667e 453a
000002c0: 4f0b 403a 0959 b7b8 4118 8dba d915 433a
000002d0: 3872 403a 0548 66ba e043 683a 0093 0b3a
000002e0: 5167 853a 578a 8d39 4ec4 503a 4ddd 7bba
000002f0: 0efa 92ba 374a 9e3a 0868 bd39 37a9 29ba
00000300: dc34 f039 980f 873a 67ff 8dba f7f1 053a
00000310: ef4e 56ba d9d5 5dba 24c1 6f3a 1b64 8cba
00000320: 8b2a fa39 223f 643a 047f 503a caf2 4439
00000330: f09c 813a 806a 7f3a 17e4 a539 444e 413a
00000340: 9261 4aba 68c2 9a3a 21e5 a13a c4b5 ab39
00000350: 8ff6 243a 05c1 20ba d6a6 153a 7b55 003a
00000360: 98a4 a03a 8b88 9139 0c9f 3a3a 75f5 16ba
00000370: 92c6 55ba 8486 9d3a 1c37 563a 5d28 63ba
00000380: b075 a2ba 38fd c439 e6a6 4aba a818 07ba
00000390: 8abf dc39 52d8 723a 2eb6 22ba 0886 6a3a
000003a0: 4957 643a 3eb5 d139 b99a 063a 3f86 71b9
000003b0: 6889 7aba 5971 713a 0a37 343a fba0 c1b8
000003c0: a6f0 a3ba d081 dab8 030e 2f3a b566 0738
000003d0: fed4 473a 83e4 3339 80e6 3eba bf7f 4b3a
000003e0: 020d c3b8 5cfd b8b9 b093 483a 1137 15b9
000003f0: fad0 62b5 7535 823a 53a4 8839 50ab 6f3a
-0.00019893455 -0.00076698343 0.00076138077 -0.00035247818 -0.00092200906 0.0008972272 0.00078625587 0.0009262347
0.0005077613 0.0012379512 -0.0008168577 9.256976e-05 0.00014060101 -0.000744309 0.0007812335 0.0011782263
-0.00078081654 -0.000726311 -0.0005275252 -0.00078025943 -2.3504385e-06 -0.0009452389 -0.0012559874 0.0002927923
-0.00055778323 -0.0005051551 -0.0011235924 -0.00064441806 -7.9888974e-05 0.0008983814 -0.0006160407 0.00022850001
0.0011384679 0.0009741612 -0.0008150758 -0.00063317735 -0.00097421557 -0.00017100734 0.0002958902 -0.0006774483
0.0006969942 0.0007241401 -8.410696e-05 0.00035663473 -0.0010250296 -0.0007870201 0.0005521399 -0.0012492209
-0.0009318149 -0.00037078006 -0.00052126154 0.00060125405 -0.00068632606 0.00050403125 -0.0003975112 -6.7845963e-06
-0.0006568908 -0.0009519536 0.0009782534 -0.00081286207 0.0003617914 0.0012279494 -0.00086203456 0.00062150357
-0.00089974585 0.0008158626 -0.00019981478 0.0012567166 0.00096036313 0.00066837267 -0.0004393858 0.00079059985
-0.0008670563 0.0007093542 -0.0008911913 0.00096570776 -0.0012059633 -0.0007974451 -0.00075456785 0.0009864795
-6.904743e-05 -0.0008386315 0.00080259383 5.810142e-05 -0.00019855027 -0.0009154786 -0.00063522626 0.00031555255
0.00043531635 -0.0007094196 0.0008476803 -0.00034093743 0.00065947766 -0.00076979905 -0.0011261527 -0.00072036876
-0.0009184805 -0.0009543491 0.00088758685 -0.00011737962 0.0009533332 -0.0005239177 0.0010031208 -0.0008904981
-0.00089819403 -0.00071085594 0.00013937522 -0.00029092398 0.00056107057 -0.0007048937 -0.00010979113 -0.0007727446
-0.0009717071 0.00045147244 0.00031994906 0.0006509684 -0.00076518947 -0.0006711645 0.0008952196 0.00026263852
0.0009740991 -0.00075630395 0.0007870592 0.0009762511 -0.00010040068 0.0006253505 0.00036493424 -0.0006175376
-0.0005547835 0.00029732197 -0.00078174274 0.00097520277 -0.00045324277 -0.0008527362 0.0009742641 0.00096419256
-0.0009733885 -0.0008095223 -0.0005063713 0.0002850307 0.000494317 -0.0007331353 -0.00095885707 -0.0012354015
-0.00061591575 0.0005444383 0.00074705004 0.0004086856 0.0006931497 0.0006668401 -0.00080530037 0.0006630306
0.0012561525 0.0007521432 0.00077863317 0.0008191728 0.00013479905 -0.00026529262 -0.00044683547 0.00078465586
0.00092817587 0.0009013565 5.4087686e-05 0.0005341787 -0.0010911961 0.00047803018 0.00013443695 -0.0008512137
-0.0012017493 0.0008097158 -0.0006587458 0.00028340457 0.00025278886 0.0006685718 0.00037073888 0.00075337884
0.0007325904 -8.742704e-05 -0.0010764675 0.0007441915 0.00073412387 -0.00087845355 0.0008860212 0.0005324334
0.0010177885 0.00026996687 0.0007963822 -0.00096078665 -0.0011213438 0.0012076561 0.00036126398 -0.00064720534
0.0004581575 0.001030433 -0.0010833562 0.0005109603 -0.0008175214 -0.0008462347 0.00091459067 -0.0010710986
0.00047715413 0.0008706917 0.0007953497 0.00018782463 0.000988869 0.0009743348 0.00031641193 0.0007374028
-0.00077202276 0.0011807205 0.0012351611 0.00032751088 0.00062928436 -0.0006132278 0.00057087594 0.000489555
0.0012256084 0.00027758288 0.0007119037 -0.0005758622 -0.00081548945 0.0012018238 0.0008171664 -0.00086653774
-0.0012394693 0.00037572696 -0.0007730558 -0.00051535154 0.00042104378 0.00092638016 -0.00062069565 0.0008946364
0.0008710516 0.00039998622 0.000513475 -0.00023033562 -0.0009557218 0.00092103105 0.00068746565 -9.232942e-05
-0.0012507632 -0.000104192295 0.0006677808 3.228216e-05 0.0007622986 0.00017155898 -0.0007282272 0.0007762871
-9.3007475e-05 -0.00035283982 0.00076514017 -0.00014230261 -8.449566e-07 0.0009934144 0.00026062372 0.0009142654

conv5.lin.weight f4 [256, 256]
00000000: fe80 b93d 34e1 5a3d c26d 8abd 651a 8b3d
00000010: 920c a53d 0ba4 2ebd 2250 92bd 1e68 b0bd
00000020: f9ab f03d 3ca1 f23d e97f fd3c 7cd0 29bd
00000030: 1af3 5b39 78db 76bd e764 c7bd 99c7 a4bd
00000040: ec6e bd3c e0d6 0b3e 2ecb b93d d60a 8c3d
00000050: 585d d1bd 70d9 05be f196 033e 7dc7 c0bc
00000060: 7b67 ccbd 0706 8ebd 0af6 8e3d 32a8 cebd
00000070: f422 19bc f973 9dbd 93bd 9dbd 17a0 f7ba
00000080: 10ce 443d 775f c73d ed76 b83d f55d a1bc
00000090: 84cf a5bd 0da0 743c d57f c53d 3312 cd3d
000000a0: 1811 abbd f0c3 95bd 2360 10bd 70d1 4cbc
000000b0: ff9f a83d dce7 b03c 777f 1e3d a2af 56bd
000000c0: 4945 f63c e30f 3dbd 87de 8d3d 801c b03d
000000d0: 1e91 a53a bf82 a0bd cf2a 65bd 1ef3 4a3d
000000e0: 2172 933d 7e07 5e3c cf23 3d3d 9fe3 ce3c
000000f0: c111 663d 4bda 92bd 2a57 50bd ef38 fdbc
00000100: e252 8dbd 0d2e 2a39 d8ad e93d 1388 7ebd
00000110: c60b c63d f4e2 1dbd be5f 063d a9a5 4abd
00000120: 70a5 873d 941f 5abd 6573 d73d 795b e6bd
00000130: 5dc2 dbbc 571f f7bd 34bb 33bd 021e 99bd
00000140: 0ea2 083e 1d9a 4cbd d513 90bd 5418 ce3d
00000150: 59d5 2b3d 797e 603d f10b 323d 2043 cd3d
00000160: 4f4d 93bb 2968 503d 057f 253d dad4 df3d
00000170: c66c a7bd e799 c83c decc 9e3d ebb2 dfbd
00000180: 771e 2fbd ace3 49bc 5187 903d de84 b23d
00000190: 8f7d 80bd a926 293c dc3a c53d ef0f ea3d
000001a0: a599 823c 94b6 49bd 2527 6fbd 0d2d e6bd
000001b0: 9b0d c23d aaba 723d 7bb9 24bc 645a e43d
000001c0: 5adf f13c 7229 a6bb c0b6 bebd 84fb d23c
000001d0: 2002 193c 0677 ff3c ada0 69bc ab73 d53c
000001e0: debd a53d 7bc6 c5bd 2045 a8bd 1b02 15bd
000001f0: c444 b83d 5aa8 873d 9547 8e3c e90b 22bc
00000200: 704e db3d 5c3c 0dbd a2e0 fd3d ceae 37bd
00000210: b6ca 93bd eb63 f13b 214e fa3d 6244 42bc
00000220: e4e8 8dbd b80e 9d3c da6c 44bd 4eb3 0dbd
00000230: a844 d2bd 1ac0 de3c 8c27 91bc 18d6 33bd
00000240: 4b86 473d 25c9 8d3a 713c 6b3c fd3a 8ebd
00000250: 9869 48bd a555 8b3d 2ef8 3f3d c760 013e
00000260: 1ed5 ad3d 636a 1c3c f82f ca3d 9ac8 57bd
00000270: ce41 2bbd beea 68bd 01d3 b6bc 238b f2bc
00000280: b8a8 97bd f79d fc3d 2df9 b1bd 9b31 be3c
00000290: 34c9 033c ff09 38bd 6f6b 863d b9fa 5abb
000002a0: 1bd6 a63d c1c6 a9bc ea9f cebd e16d 11bd
000002b0: d8d6 1ebd b00b ac39 b314 07bd c5c7 debc
000002c0: ca53 bbbd 6056 70bd b708 9ebd bc5c 533d
000002d0: 7c18 3e3d 02ea 9abd 33bd 853c 5192 77ba
000002e0: bfbb e13c 9b09 b8ba db13 653d 4516 58bc
000002f0: 3850 d43c 16e7 aebd b5aa a03c fbc1 75bd
00000300: 2920 fdbc 5af5 bd3c 8a20 e23a d1b8 503d
00000310: 6936 f23d aaf1 de3d 7d3a 7dbd b44e 2dbd
00000320: 71c5 0b3c 34ae cf3d 4c4b e73d 595b a4bd
00000330: 734e 2abc 6dc5 01bc 6332 2c3b a5ed 043d
00000340: 4ea1 58bd 9aa5 453d 3842 d43d be23 ad3d
00000350: 63f6 853d 2358 9f3d eeaa 56bd ca92 f6bd
00000360: cc38 923d f18c 523d 8eb6 6ebb 94cd 82bc
00000370: 620c 203d 6691 523d 892c e2bd 00ee c6b9
00000380: 915d 7fbd 54ff 3d3d 5d82 e5bc 24e7 f03d
00000390: a94e 463d e66f 873d a171 d73d ff6e 0ebd
000003a0: 904f c93d 650a e23d 6f0b 723d 2ca9 aa3d
000003b0: d362 363b 266e dbbd 1c6d 86bd df93 2bbd
000003c0: 6938 e43d 801b 23bd d7f5 91bd e771 0f3e
000003d0: 93cd 0e3e aef9 be3c 4d65 de3c 04a8 7e3d
000003e0: c126 edbd c6a0 13bd f736 b93d 0ba7 08bd
000003f0: 9b42 40bd 6ed3 aa3d e354 2c3d 37c7 93b8
0.090578064 0.053437427 -0.06759216 0.06792144 0.08059038 -0.042636912 -0.0714419 -0.08613609
0.11751551 0.11847159 0.030944781 -0.04145859 0.0002097603 -0.060267895 -0.097360425 -0.08045883
0.02312418 0.13656187 0.090719566 0.06838004 -0.10222882 -0.13071227 0.12850548 -0.023532623
-0.09980675 -0.069347434 0.06980522 -0.100906745 -0.009346712 -0.07688136 -0.07702174 -0.0018892315
0.04804808 0.09735005 0.09007058 -0.019698123 -0.08096221 0.014930737 0.09643523 0.10013237
-0.0835287 -0.07312763 -0.035247933 -0.012501106 0.08233642 0.021594934 0.03869578 -0.05241359
0.030062335 -0.04615773 0.06927209 0.08599186 0.0012631749 -0.07837438 -0.05594903 0.04954826
0.07199503 0.013551591 0.046176728 0.025255023 0.056169275 -0.07170542 -0.050864376 -0.030910937
-0.06900574 0.00016229619 0.11410111 -0.06214149 0.09670214 -0.038546517 0.03280615 -0.049474392
0.066233516 -0.05325277 0.10520057 -0.11247916 -0.026826078 -0.120665245 -0.043879703 -0.07476427
0.13343069 -0.04995166 -0.07035033 0.10063234 0.04195151 0.054808114 0.04346842 0.10022569
-0.0044953 0.050880585 0.04040434 0.1092927 -0.08175044 0.024487449 0.07753919 -0.10922798
-0.042753663 -0.012322348 0.070570596 0.08716749 -0.062739484 0.010324159 0.09630367 0.1142882
0.015942404 -0.049246386 -0.05838694 -0.112390615 0.09475251 0.059260048 -0.010053988 0.11150053
0.029525448 -0.0050708586 -0.093122005 0.025754698 0.009338886 0.031184684 -0.0142594995 0.026056131
0.08092855 -0.09656998 -0.082163095 -0.03637896 0.08997491 0.066239074 0.017368117 -0.009890535
0.1070832 -0.03448139 0.12396361 -0.04484444 -0.072163984 0.0073666475 0.12221933 -0.011857124
-0.06929186 0.019172058 -0.04795537 -0.034594826 -0.102670014 0.02719121 -0.017719053 -0.043905348
0.048712056 0.0010817392 0.014357672 -0.06944845 -0.048928827 0.06803445 0.046867542 0.12634574
0.084879145 0.009546849 0.098724306 -0.052681543 -0.041810803 -0.056864493 -0.022317411 -0.029607361
-0.074052274 0.12334817 -0.08690105 0.023217013 0.008043576 -0.044931408 0.0656346 -0.0033413603
0.08146306 -0.020724656 -0.10089095 -0.03550518 -0.03877911 0.00032815104 -0.032978725 -0.027194867
-0.09146841 -0.058676124 -0.07716506 0.05160211 0.04641007 -0.07564165 0.016325569 -0.0009444105
0.027555345 -0.0014040949 0.05592714 -0.013188903 0.025917158 -0.0854017 0.01961265 -0.059999447
-0.030899124 0.023188282 0.0017252129 0.050957505 0.11826784 0.108859375 -0.061823357 -0.042311385
0.00853096 0.101406485 0.112936586 -0.08025236 -0.01039468 -0.007920605 0.002627515 0.032453198
-0.052888207 0.048253633 0.10364193 0.08454083 0.06541135 0.077804826 -0.052409105 -0.120397165
0.071397394 0.051403943 -0.003642473 -0.015967168 0.03907431 0.051408194 -0.11043651 -0.00037942827
-0.06234509 0.046386078 -0.028016264 0.117628366 0.04841486 0.0661314 0.1051972 -0.034773823
0.098296285 0.11037139 0.059092935 0.08333048 0.00278299 -0.107143685 -0.0656378 -0.041889068
0.11143572 -0.039821148 -0.07126968 0.14008294 0.13945608 0.023312416 0.027147913 0.06217195
-0.11579657 -0.036041997 0.09043687 -0.03336243 -0.04693852 0.08341108 0.04207314 -7.046613e-05
