weights/8-21-yfp-1_split_2.pt (torch, 473578 bytes, 26 tensors)

conv1.bias f4 [64]
0	0x3a1dfb55	0.0006026526
1	0x390202f1	0.00012398862
2	0xb8a80c74	-8.013184e-05
3	0x3a319ab2	0.00067750656
4	0xba3f9f04	-0.0007309767
5	0x399a40d9	0.00029421484
6	0x3a08451b	0.0005198286
7	0xba52c45d	-0.00080401247
8	0xb956e74d	-0.00020494797
9	0x3a4e5e93	0.0007872369
10	0x3a7e9ab1	0.0009712382
11	0x393df00c	0.00018113869
12	0x3a398a3a	0.00070777873
13	0xb9f422f7	-0.00046565357
14	0xba687958	-0.0008868179
15	0xb88dd899	-6.7637484e-05
16	0xb9d20735	-0.0004005969
17	0x3a7ed345	0.00097208127
18	0x3a1d7887	0.00060070347
19	0x3a51c9f3	0.000800281
20	0x39b41bcd	0.0003435299
21	0x3a16ef8b	0.00057577406
22	0xba7d9100	-0.0009672791
23	0x37d5d8e7	2.5492582e-05
24	0xb7c46543	-2.3412174e-05
25	0x3a7283bd	0.0009251198
26	0x3a14c09d	0.00056744536
27	0xba3f95fc	-0.0007308421
28	0x3a5622cd	0.0008168638
29	0xba6e82d1	-0.00090984727
30	0xb98e1517	-0.00027100064
31	0xba1c93a8	-0.000597293
32	0x394d4597	0.00019576248
33	0x3a7cfdc1	0.00096508494
34	0x3a1e1a5c	0.00060311495
35	0x391d5a0a	0.00015006229
36	0x3a06b709	0.00051389687
37	0xb9c1571b	-0.00036876727
38	0xba0e0230	-0.0005417196
39	0xba41fbcd	-0.0007399887
40	0x3a4eb6eb	0.0007885533
41	0x3a463a47	0.00075617846
42	0xba74b321	-0.00093345536
43	0xb9b2ff44	-0.00034140993
44	0xba4780fc	-0.0007610468
45	0xba00ab61	-0.000490835
46	0x39ac710a	0.00032890617
47	0xb9daf49b	-0.00041762445
48	0xbaa317e2	-0.0012443031
49	0xb99b0a1f	-0.00029571445
50	0xba6bff81	-0.00090026116
51	0xba750195	-0.0009346244
52	0x3a1eaa5f	0.0006052609
53	0x39760424	0.0002346193
54	0x3882cb45	6.236745e-05
55	0xba3b7709	-0.00071512215
56	0x3a442603	0.0007482471
57	0x3a338464	0.0006848036
58	0x38f40073	0.0001163491
59	0xb9af40cb	-0.00033426876
60	0x3a181316	0.0005801184
61	0xba1ccdfd	-0.00059816224
62	0x39213199	0.00015372633
63	0x3a485cf7	0.00076432474

conv1.lin.weight f4 [64, 2]
0	0xbe407ce4	-0.18797642
1	0xbdd15a02	-0.10222246
2	0xbc5db981	-0.013532997
3	0x3e47e253	0.1951993
4	0x3d8a0185	0.06738571
5	0xbbb8d2a4	-0.0056403447
6	0xbdb08f43	-0.08621075
7	0x3942591d	0.00018534479
8	0xbcf5d0fc	-0.030006878
9	0xbdd03128	-0.10165626
10	0x3e4d2f6c	0.20037621
11	0x3e47f0cd	0.19525452
12	0x3cb43c73	0.02200148
13	0x3e2ecfec	0.17071503
14	0xbda17f36	-0.07885592
15	0x3e5a305e	0.21307513
16	0x3dc3e9c6	0.09566073
17	0xbd4d1a62	-0.05007399
18	0x3d25637a	0.04037807
19	0x3e299213	0.16559629
20	0xbdd3c045	-0.10339407
21	0x3dbcbc4c	0.09215602
22	0x3cfd27c2	0.030902747
23	0xbe350b6a	-0.17680135
24	0xbced1d29	-0.028944569
25	0xbcd36205	-0.025803575
26	0x3e21f60e	0.15816519
27	0x3cc8a6df	0.024493633
28	0xbdc42ed8	-0.09579247
29	0xbe096847	-0.13418685
30	0x3e5e7bbf	0.21726893
31	0x3e51637c	0.20448107
32	0xbe4b9b92	-0.19883564
33	0xbc543675	-0.012952437
34	0x3d867107	0.06564527
35	0xbe806c00	-0.25082397
36	0x3ccede78	0.025252566
37	0x3e9d571a	0.30730516
38	0xbd962714	-0.07331672
39	0x3e946f9a	0.28991395
40	0x3e899b45	0.26876274
41	0x3dae93c4	0.08524278
42	0xbe85620e	-0.26051372
43	0x3dc15df0	0.09441745
44	0xbe3648b5	-0.17801173
45	0xbe2c8a06	-0.16849527
46	0x3e6d3167	0.23163377
47	0x3c73325e	0.014843551
48	0x3e5c5ccd	0.21519776
49	0x3d79dea6	0.06100335
50	0xbdf6871e	-0.1203749
51	0xbdc29830	-0.09501684
52	0x3e31c52b	0.1736037
53	0x3e045e93	0.12926702
54	0xbe2e8b80	-0.17045403
55	0xbde3826f	-0.111088626
56	0x3ddb3eee	0.10705362
57	0xbe68ec19	-0.22746314
58	0x3cd37630	0.025813192
59	0xbd142834	-0.036171153
60	0xbddae165	-0.10687522
61	0xbe805f3d	-0.2507266
62	0xbe84e144	-0.25953114
63	0x3e13b69d	0.1442513
64	0x3e115ec2	0.14196303
65	0x3e1b8adb	0.15189688
66	0x3ea279f9	0.31733683
67	0xbdd57d6c	-0.10424313
68	0xbe73b5e0	-0.23799849
69	0x3e586031	0.21130444
70	0x3e207111	0.15668131
71	0x3e1710d6	0.14752516
72	0xbb16a16f	-0.0022984406
73	0x3d67e340	0.056613207
74	0x3d9567e3	0.072952054
75	0xbc98828f	-0.018616943
76	0x3e371e8f	0.17882751
77	0x3e5fc030	0.21850657
78	0xbe851f22	-0.26000315
79	0x3e97c7f1	0.2964473
80	0xbe7dd733	-0.24789123
81	0x3e925c7e	0.2858619
82	0x3e179ff6	0.14807114
83	0xba047be3	-0.0005053861
84	0xbe44f208	-0.19232953
85	0xbe3c7289	-0.18403067
86	0x3d4b9987	0.049706962
87	0x3e6981f7	0.22803484
88	0xbde37257	-0.11105793
89	0x3e88dda1	0.2673159
90	0xbe7fcf05	-0.24981315
91	0x3e811fd1	0.25219586
92	0x3e9e83c7	0.30959913
93	0x3d9ee732	0.07758941
94	0x3c906410	0.017625839
95	0xbe3c5dbb	-0.1839513
96	0xbcce85c0	-0.025210261
97	0x3c257d2f	0.010100647
98	0x3d8854bb	0.06656786
99	0x3d813d2c	0.06310496
100	0x3e6760ca	0.22595516
101	0x3ca4303f	0.020042537
102	0x3e235c30	0.15953135
103	0x3b830477	0.003998335
104	0xbe24c52f	-0.16090845
105	0x3e70d94b	0.2352039
106	0xbd3d3f50	-0.046202958
107	0x3dcc9211	0.099887975
108	0x3e8734f5	0.2640759
109	0xbd34bf3b	-0.044127684
110	0x3a322a57	0.000679647
111	0xbe26c722	-0.162869
112	0xbe2add1f	-0.16685914
113	0x3e49eddd	0.19719644
114	0xbe15546e	-0.14582989
115	0x3e88c736	0.26714486
116	0x3e7cc0e6	0.2468296
117	0x3ca86b3c	0.020558946
118	0x3e7915b6	0.24324688
119	0x3d213b68	0.039363295
120	0xbd05f581	-0.032704834
121	0x3e824939	0.2544649
122	0xbe0233c8	-0.12715065
123	0xbe8deec2	-0.2772122
124	0x3e1c4ef1	0.15264489
125	0xbe307006	-0.17230234
126	0xbe99551d	-0.2994775
127	0x3e02ba6c	0.12766427

conv2.bias f4 [64]
0	0xbcb79aef	-0.022412745
1	0x3caf4fe3	0.021400398
2	0x3cc0c10e	0.023529556
3	0x3cc1dcc0	0.023664832
4	0x3cbdb237	0.023156269
5	0x3c88b656	0.016688507
6	0x3cbc0461	0.022951307
7	0xbcbd4933	-0.023106193
8	0x3cb91adb	0.022595813
9	0x3cb81ebb	0.02247559
10	0xbcb77d85	-0.02239872
11	0xbcb51eb4	-0.022109367
12	0xbccbef63	-0.024894422
13	0x3cbc370e	0.02297547
14	0x3cff071f	0.031131325
15	0xbb79d8ec	-0.003812368
16	0x3bfb246b	0.0076642535
17	0xbd0af4cb	-0.03392486
18	0x3cbb629b	0.022874167
19	0xbc3a4812	-0.011369722
20	0x3c7dcc86	0.015490657
21	0xbc7fe378	-0.015618198
22	0x3d093d5d	0.033505786
23	0x3cc3b754	0.023891129
24	0xbcc29134	-0.023750879
25	0x3d00c5f1	0.03143877
26	0x3c085985	0.008322124
27	0xbcc73147	-0.02431549
28	0xbcd5b420	-0.026086867
29	0x3cbbbdcd	0.022917653
30	0xbce3550a	-0.02775051
31	0xbcd3add0	-0.025839716
32	0xbcd502b2	-0.026002262
33	0x3cae5646	0.021281373
34	0x3cc0f83a	0.023555864
35	0x3ce24ab6	0.027623516
36	0xbccafdef	-0.024779288
37	0x3d030e2f	0.03199595
38	0x3cbcfa3c	0.02306854
39	0xbcc97cdd	-0.024595672
40	0x3ca412ab	0.020028433
41	0xbcb7c6e4	-0.022433706
42	0x3cba58a2	0.022747342
43	0xbc8588c2	-0.016300563
44	0xbc43c8f0	-0.011949763
45	0xbcf560ab	-0.029953321
46	0xbcb71ed0	-0.02235356
47	0x3c9cfcc8	0.019163504
48	0xbcc89088	-0.02448298
49	0x3cb81679	0.022471653
50	0x3cc2d9ce	0.023785498
51	0x3cb492fe	0.022042748
52	0x3d157d80	0.03649664
53	0xbc9a4a45	-0.018834243
54	0xbcc5f53f	-0.024164794
55	0xbcbc5b01	-0.022992613
56	0xbcd4c6d8	-0.025973722
57	0xbcc39ef4	-0.023879506
58	0x3c82f14d	0.015984202
59	0x3cb63a20	0.022244513
60	0x3cdbdf6c	0.026839934
61	0xbcc94a62	-0.024571601
62	0x3ca350a7	0.019935919
63	0x3b95a119	0.0045663235

conv2.lin.weight f4 [64, 64]
0	0x3d82a08a	0.06378277
1	0x3a1ea418	0.00060516736
2	0xbe28ce3b	-0.1648492
3	0xbd435b04	-0.04769422
4	0xbd0419f4	-0.032251313
5	0x3d0d717a	0.034532048
6	0x3e00c999	0.12576903
7	0xbd14f178	-0.036363095
8	0xbd7fe039	-0.062469695
9	0xbda79a39	-0.081837125
10	0xbd837f8f	-0.06420814
11	0xbddd1065	-0.10794143
12	0xbe0b3aa1	-0.13596584
13	0xbd4256d6	-0.047446094
14	0x3d5672f7	0.052355733
15	0xbe546fba	-0.20745745
16	0x3e329450	0.17439389
17	0x3e37c29f	0.17945336
18	0x3e11c53e	0.14235398
19	0xbd24cced	-0.040234495
20	0xbe6b45a5	-0.22975786
21	0x3da5226f	0.08063208
22	0xbe188439	-0.14894189
23	0x3e1c2f82	0.15252498
24	0x3e409dee	0.18810245
25	0xbe27f2bd	-0.16401191
26	0xbe1ab471	-0.15107895
27	0xbe37c5c8	-0.17946541
28	0xbdb3b4c8	-0.08774716
29	0x3be4b64b	0.006979739
30	0xbdc98075	-0.09838954
31	0xbdcf8a36	-0.101337835
32	0x3a5d903b	0.0008451973
33	0x3dcbfbab	0.09960111
34	0xbd8d82f4	-0.06909743
35	0xbdbf14a7	-0.09330111
36	0x3d6fa07a	0.05850265
37	0xbe60a046	-0.2193614
38	0x3d4148d1	0.047188584
39	0x3de13092	0.10995592
40	0x3dc7ee18	0.0976221
41	0xbdad2f65	-0.084563054
42	0x3e651ca7	0.22374211
43	0xbd19458f	-0.037419852
44	0x3e757ab1	0.23972584
45	0xbde7f2cf	-0.11325609
46	0xbd1b4d8e	-0.03791576
47	0x3e15b761	0.14620735
48	0x3e73b2eb	0.2379872
49	0xbe05d93b	-0.13071148
50	0x3da01324	0.07816151
51	0x3d99ed46	0.075159594
52	0xbd9216cb	-0.07133254
53	0x3d976360	0.07392001
54	0x3e011e49	0.12609209
55	0x3d4453b8	0.047931403
56	0xbe39676e	-0.18105862
57	0xbda95464	-0.08268049
58	0x3df45091	0.11929429
59	0x3e3a6b84	0.18205076
60	0xbbb27dfb	-0.005447147
61	0x3dfd4e4a	0.12368448
62	0xbe3ed927	-0.18637525
63	0xbdf17caa	-0.11791356
64	0xbda0ac85	-0.078454055
65	0x3d90537b	0.07047173
66	0x3e466ba3	0.19376998
67	0xbe3ccfc7	-0.18438636
68	0xbdc6fe7a	-0.09716506
69	0xbdeeea0d	-0.116657354
70	0x3df3d435	0.1190571
71	0xbe281013	-0.16412382
72	0xbe44f320	-0.1923337
73	0x3dc9375f	0.09825014
74	0xbd72cc3c	-0.059276804
75	0xbd2b66b1	-0.04184598
76	0xbd94701f	-0.07247948
77	0xbd128438	-0.035770625
78	0x3e1325ac	0.1436984
79	0xbd9afc5e	-0.075676665
80	0xbdf7fe8d	-0.121090986
81	0xbdb6c51e	-0.08924316
82	0xbd86552d	-0.06559215
83	0x3e1a79a8	0.1508547
84	0xbde20db7	-0.11037772
85	0x3e490be0	0.19633436
86	0xbdc3f515	-0.0956823
87	0x3e5fedc8	0.2186805
88	0xbe4255fd	-0.18978114
89	0xbdee86db	-0.116468154
90	0x3ddf0275	0.108891405
91	0xbe25b2e2	-0.1618152
92	0xbdbce47a	-0.09223266
93	0xbaf5c0bb	-0.0018749455
94	0x3e544456	0.20729193
95	0x3abacb2e	0.0014251226
96	0x3e346ae1	0.17618896
97	0x3d944f53	0.072416924
98	0xbd72be2e	-0.0592634
99	0x3d632cdb	0.0554627
100	0xbe1a8f2d	-0.1509368
101	0x3e42d951	0.19028212
102	0x3e28f4ee	0.16499683
103	0x3e5b0258	0.21387613
104	0x3df45583	0.119303726
105	0xbe0e0596	-0.13869318
106	0xbe376af2	-0.1791189
107	0x3d8ee286	0.069768
108	0xbc06cb76	-0.00822722
109	0xbc7c221a	-0.01538899
110	0x3cb59ff9	0.022171007
111	0x3e263693	0.16231756
112	0x3d93370e	0.07188235
113	0x3e5851b0	0.21124911
114	0x3e48e5c1	0.19618894
115	0xbe284b5e	-0.16435
116	0x3d3b5984	0.045739666
117	0x3e5b3881	0.21408273
118	0x3d7a4cba	0.06110833
119	0x3dfac661	0.12244869
120	0xbc903614	-0.017603911
121	0x3df551db	0.11978503
122	0xbda128a4	-0.0786908
123	0x3df847ee	0.121230945
124	0x3e636c5a	0.22209302
125	0xbc63f403	-0.013913157
126	0x3df9d948	0.12199646
127	0xbe2ff863	-0.17184596
128	0x3e069e09	0.13146223
129	0xbd47ee6e	-0.04881137
130	0x3db89531	0.09012831
131	0x3df91582	0.121623054
132	0x3e2c298d	0.16812725
133	0xbe01065e	-0.12600085
134	0x3c888eb9	0.016669618
135	0xbe14958a	-0.1451017
136	0x3e58a114	0.21155196
137	0x3d50ffc1	0.051025156
138	0xbe548a34	-0.20755845
139	0x3e04e90e	0.12979528
140	0xbdc73637	-0.097271375
141	0x3e26b916	0.16281542
142	0x3de5a3a9	0.11212856
143	0x3e478282	0.19483379
144	0x3db5c557	0.0887553
145	0xbbe12fd6	-0.0068721576
146	0xbc5f769b	-0.013639118
147	0x3e2082e9	0.15674938
148	0xbe036fb3	-0.12835579
149	0xbcfaa5b5	-0.030596593
150	0xbb22a71b	-0.002481884
151	0x3df3668c	0.11884794
152	0x3e487af8	0.19578159
153	0xbe399f72	-0.1812723
154	0x3e55f34e	0.20893595
155	0x3e4b33e7	0.19844018
156	0x3e48f466	0.1962448
157	0xbc521684	-0.012822751
158	0xbd962508	-0.07331282
159	0xbe1e7ef8	-0.15478122
160	0xbe003024	-0.12518364
161	0x3de74ee3	0.11294343
162	0xbe5918c5	-0.21200855
163	0x3a938239	0.0011254019
164	0xbe175a4e	-0.14780542
165	0x3e079a74	0.13242513
166	0xbe3afd5c	-0.18260711
167	0x3e1456cf	0.1448624
168	0xbc81fa50	-0.015866429
169	0x3e24e939	0.16104592
170	0x3d904f0f	0.07046329
171	0xbd3881e8	-0.045045763
172	0xbe17dcb3	-0.14830284
173	0x3d9a154d	0.07523594
174	0x3e5bf3ee	0.2147977
175	0xbd7b1ae4	-0.06130494
176	0x3dcdf8e6	0.10057239
177	0x3e024bfe	0.12724301
178	0xbe255601	-0.16146089
179	0xbdf9446f	-0.12171256
180	0x3db1e3b5	0.0868601
181	0xbe166957	-0.14688621
182	0x3d68b02d	0.05680864
183	0xbd74709b	-0.0596777
184	0xba6554c8	-0.000874829
185	0xbde4513b	-0.11148306
186	0x3baed171	0.005335026
187	0xbe2dccd8	-0.16972673
188	0xbd16f4cd	-0.036854554
189	0xbdd05244	-0.10171941
190	0xbe3a26ac	-0.18178815
191	0x3d99dc73	0.075127505
192	0x3db9bf87	0.09069734
193	0xbe01ed65	-0.12688215
194	0xbe5a39e4	-0.21311146
195	0x3e4de9b4	0.20108682
196	0x3d84b48d	0.0647975
197	0xbd82c8f3	-0.06385984
198	0x3dd92e1b	0.10604497
199	0xbd129c9d	-0.03579389
200	0xbdcf9189	-0.101351805
201	0x3dc1c44b	0.09461268
202	0xbc425906	-0.011862045
203	0xbe538f84	-0.20660216
204	0xbe02e3df	-0.12782238
205	0xbcb6826e	-0.02227899
206	0xbd40c397	-0.04706153
207	0x3d29c30f	0.041445788
208	0x3cf99f97	0.030471606
209	0xbe242080	-0.16028023
210	0x3e19dcf8	0.15025699
211	0x3e2dea52	0.16983917
212	0x3ad4ec84	0.0016244804
213	0xbcba4526	-0.02273805
214	0x3e21f0f7	0.15814577
215	0xbd9931bb	-0.074801885
216	0xbce38900	-0.027775288
217	0x3ce1a6c7	0.027545346
218	0x3e5db2dc	0.2165026
219	0xbded44bb	-0.11585375
220	0xbd46a71d	-0.048499215
221	0xbe2eb8b6	-0.17062649
222	0x3e18a7b5	0.14907725
223	0xbe3acb02	-0.18241504
224	0x3ddc6c64	0.10762861
225	0xbde103d2	-0.10987057
226	0x3e24b0b6	0.16083035
227	0x3e1971d1	0.14984824
228	0xbe42f9b2	-0.19040564
229	0x3d58fd1f	0.05297577
230	0x3e452547	0.19252501
231	0x3e258651	0.16164519
232	0x3e1eafe8	0.1549679
233	0xbd337bc6	-0.04381921
234	0xbe7242a3	-0.23658232
235	0xbc6a6219	-0.014305615
236	0x3d185ed2	0.037199803
237	0x3c3b25fd	0.011422631
238	0xbe109808	-0.14120495
239	0xbe612ea3	-0.21990447
240	0x3e03fafd	0.12888713
241	0xbdf09ab1	-0.11748255
242	0xbe5cbc7c	-0.21556276
243	0x3cb2bf99	0.021819877
244	0x3e3386d9	0.17531909
245	0x3e48ee48	0.19622147
246	0x3cf35ad9	0.029706405
247	0xbe0e27c5	-0.13882358
248	0x3d65b731	0.056082908
249	0x3e5d7380	0.21626091
250	0xbe0ddf61	-0.13854744
251	0xbe44332b	-0.19160144
252	0xbc0913fc	-0.008366581
253	0x3c1028e1	0.008798809
254	0x3e1272ea	0.14301649
255	0x3d115134	0.035477832

conv3.bias f4 [128]
0	0x3a8c07c2	0.0010683464
1	0xba2b7805	-0.00065410166
2	0x3995431f	0.00028469504
3	0xbaa45887	-0.001253859
4	0x3a55e6f6	0.0008159721
5	0xba5c6dfe	-0.0008408724
6	0x3a9dfaff	0.0012052952
7	0x3a40e6dc	0.00073586195
8	0x3a569bae	0.000818665
9	0xba8d5348	-0.0010782266
10	0x392a5dad	0.0001624736
11	0x39cd8448	0.00039199204
12	0xba322ac5	-0.0006796534
13	0xbaa4bcb6	-0.0012568447
14	0x3a93e767	0.0011284173
15	0xba75d8dd	-0.00093783234
16	0x38a762f0	7.981609e-05
17	0xba028ea1	-0.000498036
18	0x3a05cd73	0.00051041617
19	0xbaaf0ae4	-0.0013354686
20	0x3a59cfd6	0.0008308863
21	0x37ca7da6	2.4138786e-05
22	0x3a530357	0.0008049509
23	0xba4ba0cf	-0.0007767798
24	0x39dd96c8	0.00042264746
25	0xbb029fec	-0.0019931747
26	0x39f80621	0.00047306812
27	0x39f5031a	0.00046732352
28	0x3aa12ff3	0.0012297615
29	0xbacb8d5c	-0.0015529799
30	0x38259492	3.9477432e-05
31	0xba9a7d10	-0.0011786539
32	0x3aa1e82b	0.0012352517
33	0x399ffefc	0.0003051682
34	0xb7e791f3	-2.7605309e-05
35	0x3a8218e1	0.0009925627
36	0xba3d2b09	-0.00072161906
37	0xba2bf46f	-0.0006559556
38	0xb90c6c01	-0.00013391675
39	0x3a30fb6c	0.0006751332
40	0xb9527ac3	-0.00020072893
41	0x39402ecf	0.00018327984
42	0xb990f3b0	-0.00027647382
43	0x3a85e672	0.0010215773
44	0x398e4357	0.00027134523
45	0xbaa31710	-0.0012442786
46	0x3a4da515	0.00078447285
47	0x3a2cc1e1	0.00065901695
48	0xba6c6441	-0.00090176245
49	0xb93e1518	-0.0001812767
50	0xb9ee7458	-0.0004548158
51	0xba9a959f	-0.0011793858
52	0x3a74e2ba	0.0009341646
53	0xba8cc387	-0.0010739424
54	0xba54e384	-0.00081210607
55	0xba2b7c51	-0.0006541657
56	0xb99c201f	-0.0002977857
57	0x3a6ceaa3	0.0009037649
58	0x3a9d1e38	0.0011987155
59	0x396853de	0.00022156487
60	0xba49dc0f	-0.0007700333
61	0x38aef8b4	8.343291e-05
62	0x39a0fab4	0.00030704367
63	0x3a7be631	0.00096091913
64	0x3a093b63	0.00052349846
65	0x3a489cd8	0.0007652766
66	0xba44f624	-0.00075134845
67	0x39a2061a	0.00030903594
68	0x3aa0658b	0.0012237293
69	0x3a8d02de	0.0010758301
70	0x3a9804c7	0.0011598103
71	0x3a55bc60	0.0008153375
72	0xba589f52	-0.00082634867
73	0xbaa47bee	-0.0012549141
74	0xba7b1dbd	-0.00095793215
75	0xba6e888b	-0.0009099326
76	0x39d19892	0.0003997726
77	0xb9a48fd0	-0.00031387666
78	0x3aa05f16	0.0012235369
79	0x3a2f0922	0.0006677081
80	0xba4f1483	-0.000789948
81	0xbaa99bec	-0.0012940145
82	0x3a318c87	0.00067729544
83	0x3a152e80	0.0005690828
84	0xb968705f	-0.00022167106
85	0x3a90e5eb	0.0011054849
86	0xba065d78	-0.0005125622
87	0x3a5ade3f	0.0008349157
88	0x3abc4bb2	0.0014365821
89	0x3a933efb	0.001123398
90	0xb9f0b7a5	-0.00045913193
91	0xba5693c0	-0.00081854686
92	0xba594baa	-0.0008289168
93	0x3a77f295	0.000945845
94	0xb9aee709	-0.0003336
95	0xba81bef3	-0.0009898826
96	0x3906fe6b	0.00012874014
97	0xb9b3fb1c	-0.00034328632
98	0x393c421e	0.00017953708
99	0x3a27627a	0.00063852186
100	0x3a003ea0	0.00048921444
101	0xb9a811d8	-0.00032056752
102	0x396e37d5	0.00022718248
103	0xb9b9c7a5	-0.00035434696
104	0xba0fbba6	-0.0005482979
105	0xba92d11f	-0.0011201239
106	0x39b2ff06	0.00034140813
107	0xbb013a3b	-0.0019718546
108	0x3a411e27	0.0007366859
109	0xba1dd7e8	-0.0006021247
110	0x3ab3d0df	0.0013718865
111	0x3a9e8878	0.0012095114
112	0xb94f80b7	-0.00019789008
113	0x3a27a70e	0.00063954375
114	0x3a9c4424	0.0011922163
115	0x3a687a27	0.00088683
116	0x3a8825c5	0.0010387233
117	0xbb242841	-0.0025048407
118	0xb9ab7d75	-0.00032709134
119	0x3a8c295b	0.0010693477
120	0xbb0d2fbe	-0.002154335
121	0xb8c14a41	-9.216788e-05
122	0xb86bdf7f	-5.6236513e-05
123	0xb9d9c15c	-0.0004153353
124	0x3a1cb481	0.0005977825
125	0xb9e62b6e	-0.00043901376
126	0x3a7e3c62	0.0009698329
127	0xbaa4b5d8	-0.0012566401

conv3.lin.weight f4 [128, 64]
0	0xbd5cbd35	-0.05389138
1	0xbe46540a	-0.19367996
2	0xbd85adcf	-0.06527292
3	0xbe3be6b2	-0.18349722
4	0x3d2550b8	0.040360183
5	0x3e3ed59d	0.18636174
6	0x3e0ac675	0.13552268
7	0xbe0b2d7b	-0.13591568
8	0xbdb46b64	-0.08809546
9	0xbdf99c11	-0.121879704
10	0xbdc3d908	-0.0956288
11	0xbdbbd388	-0.09171206
12	0x3e0176f1	0.12643029
13	0x3e31b1d0	0.17352986
14	0xbd603c54	-0.054745033
15	0xbe17e15c	-0.14832062
16	0x3d417764	0.047233
17	0x3d656ec1	0.056013826
18	0xbd69998c	-0.0570312
19	0xbe11947c	-0.14216799
20	0x3cad21f1	0.021134349
21	0xbdbc7f2b	-0.09203943
22	0x3d86c7bc	0.06581065
23	0x3d7937e0	0.060844302
24	0x3d847d5d	0.06469224
25	0xbe0b43c1	-0.13600065
26	0x3d42fc12	0.047603674
27	0x3cafd870	0.02146551
28	0xbd93e34d	-0.072210886
29	0xbe343635	-0.17598803
30	0x3d8858de	0.06657575
31	0x3d5d58bc	0.0540397
32	0xbd897bb4	-0.067130476
33	0xbcd7608e	-0.026291158
34	0xbcaf261b	-0.021380475
35	0x3c5a81a0	0.013336569
36	0x3df53f79	0.11974997
37	0xbd15f50d	-0.03661065
38	0x3e2083bc	0.15675253
39	0x3c998466	0.01873989
40	0x3cb9aed4	0.022666372
41	0xbe293d08	-0.16527188
42	0x3e36d02a	0.17852846
43	0x3b9b8393	0.0047459095
44	0x3df3bce9	0.11901266
45	0x3cd0e043	0.025497561
46	0xbd4eca42	-0.050485857
47	0x3d946e03	0.072475456
48	0x3d8631a8	0.0655244
49	0xbe087b93	-0.1332839
50	0x3d1e45a7	0.038640644
51	0x3d636e41	0.05552507
52	0x3d6d19d2	0.057885952
53	0xbc77e6de	-0.015130727
54	0x3db6e28e	0.089299306
55	0xbce76ad4	-0.028249182
56	0xbcc19881	-0.02363229
57	0xbdae54b0	-0.085122466
58	0x3d2ed145	0.042680044
59	0xbe18ebf0	-0.14933753
60	0xbe0f20da	-0.13977376
61	0xbde0a5de	-0.10969137
62	0x3e366e61	0.17815544
63	0x3d048b97	0.032359686
64	0xbda26f18	-0.07931346
65	0xbe1f3d11	-0.15550639
66	0x3dafc7d9	0.0858304
67	0xbd9d5cff	-0.07683753
68	0x3c859ff8	0.01631163
69	0xbd69aa7e	-0.05704736
70	0xbdf25e32	-0.118343726
71	0x3de13b00	0.109975815
72	0xbdd4b60a	-0.10386284
73	0xbbbd7b46	-0.0057825176
74	0xbe3402df	-0.1757922
75	0x3d036861	0.032081965
76	0x3d034ad1	0.032053772
77	0x3c83b7b6	0.016078811
78	0xbd1c2d5b	-0.03812919
79	0x3e2d99cd	0.16953202
80	0xbc3dc9d4	-0.011583764
81	0xbd9f6df2	-0.07784642
82	0xbe22078f	-0.15823196
83	0xbe1570a4	-0.1459375
84	0x3defffd6	0.11718719
85	0xbda515e9	-0.0806082
86	0xbdfa9050	-0.12234557
87	0x3ce27b1d	0.027646596
88	0x3cf2a4b8	0.02961956
89	0x3e1fc35b	0.15601866
90	0xbdc9d7ad	-0.0985559
91	0xbe2087a4	-0.15676743
92	0x3dcf4cfc	0.101221055
93	0x3c8382e3	0.016053623
94	0x3ceca5da	0.028887678
95	0xbdc35e3e	-0.0953946
96	0x3d20a60f	0.039220866
97	0x3be15837	0.006876971
98	0x3d8caec7	0.06869274
99	0xbe25468f	-0.16140197
100	0x3ddbfcf8	0.10741609
101	0x3e1ef805	0.155243
102	0xbd81dce7	-0.06340962
103	0x3e2063a6	0.15663013
104	0x3ddf0e93	0.10891452
105	0x3dec1092	0.11526598
106	0xbdb205be	-0.086925015
107	0xbca31afb	-0.019910326
108	0xbd0d9a88	-0.0345712
109	0xbe04c58a	-0.1296598
110	0xbe1c562e	-0.1526725
111	0xbdd38681	-0.10328389
112	0x3d69b7c7	0.05706003
113	0x3da78c49	0.08181054
114	0x3bae6d5f	0.0053230966
115	0xbd4f7dae	-0.050656967
116	0x3dc886ba	0.09791322
117	0x3dccbf4b	0.09997424
118	0xbdd137d7	-0.10215729
119	0x3d163c28	0.036678463
120	0xbe46bd4c	-0.19408149
121	0x3e0b941e	0.13630721
122	0xbde3c4de	-0.11121534
123	0xbd689293	-0.05678041
124	0x3d14c4f1	0.03632063
125	0xbdca98a9	-0.09892399
126	0x3e0b489f	0.13601921
127	0x3d2e2dc8	0.04252413
128	0x3d096726	0.033545636
129	0xbd1f9f4c	-0.038970277
130	0x3e04aec1	0.12957288
131	0xbde34500	-0.11097145
132	0xbdac0d0e	-0.084009275
133	0x3db031a5	0.08603219
134	0x3e195281	0.14972879
135	0xbd4df8bf	-0.05028605
136	0x3d64c91c	0.055855855
137	0x3dbbc8d4	0.09169164
138	0x3d09ce16	0.033643804
139	0xbcfc6afb	-0.030812731
140	0x3c0b509d	0.008503106
141	0x3e0db950	0.13840222
142	0x3d8c529e	0.068516955
143	0x3ded1b83	0.11577513
144	0xbe15c9cb	-0.14627759
145	0x3d04ea4e	0.032450013
146	0xbe206ff6	-0.1566771
147	0xbda630b5	-0.08114759
148	0xbd551034	-0.052017406
149	0xbd8058ab	-0.06266912
150	0xbdc5f7bd	-0.09666393
151	0x3e0db4b3	0.13838463
152	0xbe467bf8	-0.19383228
153	0x3d84ca60	0.064839125
154	0x3da127cd	0.078689195
155	0xbc7fd071	-0.015613661
156	0xbd6a5614	-0.057210997
157	0xbd914bf6	-0.070945665
158	0x3deb376b	0.114851795
159	0xbb00d431	-0.0019657726
160	0x3d99330c	0.074804395
161	0xbc886fb7	-0.016654832
162	0x3d13c48c	0.036076114
163	0x3d35e0f0	0.04440397
164	0xbd3f7149	-0.046738897
165	0xbd9d9e83	-0.07696249
166	0x3b381964	0.0028091306
167	0xbd1b3fe5	-0.03790273
168	0x3e0a72fd	0.13520427
169	0xbd48b8fc	-0.04900454
170	0x3e2a2077	0.16613947
171	0x3dab01b9	0.08349938
172	0x3e167c29	0.14695801
173	0x3e26d0e2	0.1629062
174	0xbc8be2d4	-0.017075934
175	0xbd2f0a57	-0.04273447
176	0x3e1c1f47	0.15246306
177	0xbe1cbef5	-0.1530722
178	0x3cb6e5fc	0.022326462
179	0xbd061b04	-0.032740608
180	0xbe068f15	-0.13140519
181	0xbd6d76a7	-0.057974484
182	0xbde3a009	-0.11114509
183	0x3e02abc7	0.1276084
184	0xbe0b1d2d	-0.13585348
185	0xbdae9f16	-0.08526437
186	0xbe41b873	-0.18918018
187	0xbc71ec27	-0.014765776
188	0x3e2573bf	0.16157435
189	0x3d80bb3d	0.06285713
190	0x3d16fe66	0.036863707
191	0x3d9f5eed	0.077817775
192	0xbdc3d94c	-0.095629305
193	0xb9e8e767	-0.00044422896
194	0xbd42ac94	-0.047527865
195	0xbd38b2df	-0.04509246
196	0x3d2ec7f9	0.042671178
197	0x3da27866	0.079331204
198	0x3e067ffb	0.13134758
199	0x3baa2752	0.0051926756
200	0x3dfc2a5a	0.123127654
201	0xbd833528	-0.06406623
202	0xbda449ba	-0.08021875
203	0xbe020000	-0.12695312
204	0xbda022f3	-0.07819166
205	0x3d5ce889	0.0539327
206	0xbda5a732	-0.080885306
207	0xbdbe8f3a	-0.09304662
208	0x3da08727	0.07838278
209	0x3dd5af73	0.10433855
210	0xbde82086	-0.11334328
211	0x3cfe6e06	0.031058323
212	0x3ddccc57	0.10781162
213	0xbd02a3b9	-0.03189442
214	0xbdf0ce0f	-0.117580526
215	0xbd2a8386	-0.041629337
216	0xbc74aa1d	-0.014933136
217	0xbe163c09	-0.14671339
218	0x3d757050	0.059921563
219	0xbd9d1e7d	-0.07671831
220	0x3e04209a	0.12903062
221	0x3de2a35a	0.11066313
222	0xbdf2c384	-0.11853698
223	0xbe0984ca	-0.13429561
224	0x3e138c19	0.14408912
225	0x3def8de3	0.116969846
226	0x3ca3490c	0.019932292
227	0xbd8539f9	-0.06505198
228	0x3e152e1b	0.14568369
229	0xbe39af92	-0.18133381
230	0x3dfc3d1b	0.123163424
231	0x3e1eb00c	0.15496844
232	0x3c1c086f	0.009523495
233	0xbe234e1b	-0.15947764
234	0xbde18068	-0.1101082
235	0x3d97ba58	0.07408589
236	0x3e3f58a2	0.18686154
237	0x3d2cf20e	0.04222303
238	0xbe11912b	-0.14215533
239	0xbe1afcb9	-0.15135469
240	0xbe18c83d	-0.14920135
241	0x3d07b422	0.033130772
242	0xbd572d13	-0.05253322
243	0xbd381453	-0.044941258
244	0x3e0733fe	0.13203427
245	0x3d0b51e2	0.034013636
246	0x3db2e0a1	0.08734251
247	0xbc37a4d5	-0.011208733
248	0xbc87c407	-0.016572965
249	0xbd388810	-0.045051634
250	0xbe00fecf	-0.12597202
251	0xbe030537	-0.12794958
252	0x3df1795a	0.11790724
253	0xbce84054	-0.028350987
254	0xbda4d32d	-0.08048091
255	0xbe0f2184	-0.13977629

conv4.bias f4 [256]
0	0xbcc8cca8	-0.02451165
1	0xbcbcd677	-0.023051484
2	0x3cbe9db0	0.02326855
3	0x3c9ce77f	0.019153355
4	0x3ce77751	0.028255137
5	0xbcc9f9be	-0.02465522
6	0xbc394f53	-0.011310416
7	0x3ccc4c95	0.02493886
8	0x3cc74686	0.02432562
9	0xbccf587c	-0.025310747
10	0xbbc1946f	-0.0059075872
11	0xbcb8d57b	-0.022562733
12	0x3cde7ffc	0.027160637
13	0xbcc7987a	-0.024364699
14	0xbcc981c7	-0.024598015
15	0xbccc54fd	-0.02494287
16	0xbcc6108f	-0.024177818
17	0x3cbeb544	0.023279794
18	0xbccf4102	-0.025299553
19	0x3c6f4933	0.014604854
20	0xbccb8b52	-0.024846707
21	0xbcd81ad2	-0.026379976
22	0x3cd7e04d	0.026352072
23	0xbc9e46c8	-0.01932086
24	0x3cc2a6ba	0.023761142
25	0xbcea6124	-0.028610773
26	0x3cb294ec	0.021799527
27	0xbcd55e3a	-0.026045907
28	0x3c83ab48	0.016072884
29	0xbcc94e03	-0.024573332
30	0xbc8d5967	-0.017254544
31	0x3cb1f178	0.021721587
32	0xbcbc15f5	-0.022959689
33	0x3ce6c156	0.028168362
34	0xbcbab3c4	-0.022790797
35	0x3cb59fa7	0.022170855
36	0xbcd2a563	-0.025713628
37	0x3ac18fd2	0.0014767593
38	0x3ca8f4de	0.020624574
39	0x3c958087	0.018249763
40	0x3cd0a9e0	0.025471628
41	0x3cc128a4	0.02357895
42	0xbcc36773	-0.02385304
43	0x3cd74865	0.026279638
44	0xb9f32a71	-0.00046380193
45	0x3cbf766c	0.023371898
46	0x3ccb9d6b	0.024855336
47	0x3ccc37aa	0.024928886
48	0x3cb799b7	0.022412164
49	0x3b075863	0.0020652048
50	0xbccefa05	-0.025265703
51	0xbcb037eb	-0.021511039
52	0x3cc36811	0.023853334
53	0xbcd5b044	-0.026085027
54	0x3c8c17ab	0.01710113
55	0x3ca7950f	0.020456819
56	0x3d0ea38c	0.03482394
57	0xbcd2849f	-0.025698004
58	0x3cc49f9e	0.024001893
59	0x3cb01f19	0.021499204
60	0x3d0d4a17	0.034494486
61	0xbcb573c9	-0.022149937
62	0x3cb94d66	0.022619914
63	0xbcc00985	-0.02344204
64	0xbcc87cfb	-0.024473658
65	0x3cbc0471	0.022951337
66	0xbc9abcc3	-0.018888837
67	0x3cfdbb31	0.030973049
68	0xbcce6d59	-0.025198625
69	0x3cc22ee5	0.023704002
70	0xbbdf78e7	-0.0068198326
71	0xbcbc13d3	-0.022958672
72	0x3cfa24e9	0.030535178
73	0xbce00456	-0.027345818
74	0x3cbf18eb	0.023327312
75	0xbcd7afb5	-0.0263289
76	0xbccc7912	-0.024960075
77	0xbcc6f9eb	-0.024289092
78	0xbcb3a795	-0.021930495
79	0x3c90b234	0.017663099
80	0xbccc1278	-0.02491115
81	0x3d09b9d5	0.03362449
82	0xbcbeb9af	-0.0232819
83	0x3ca2ee9b	0.019889167
84	0xbc991a90	-0.018689424
85	0xbcd48d0f	-0.025946168
86	0xbcb28bc4	-0.021795161
87	0x3cd86bd0	0.026418597
88	0x3c97f59f	0.018549738
89	0xbcb53cd6	-0.022123735
90	0x3ca8b3df	0.020593582
91	0x3cd6950c	0.026194118
92	0x3b15c509	0.0022853038
93	0xbcc29a23	-0.023755139
94	0x3c7ac438	0.015305571
95	0xbccf736c	-0.025323592
96	0xbcd85313	-0.0264068
97	0x3bead461	0.007166431
98	0x3cb247b6	0.02176271
99	0xbcd5c374	-0.026094176
100	0x3c08d74f	0.008352115
101	0x3ccffd76	0.025389414
102	0xbcb40f03	-0.021979814
103	0xbb0f7652	-0.0021890593
104	0x3cc14fef	0.023597686
105	0x3ccc6a7e	0.024953123
106	0xbcc48a27	-0.023991657
107	0xbcb26a87	-0.021779312
108	0x3cd204c1	0.025637032
109	0xbcc8fae4	-0.024533696
110	0xbcbccc64	-0.02304668
111	0x3d01aac7	0.031657007
112	0x3ba2b090	0.0049648955
113	0xbcd21c24	-0.025648184
114	0xbccd6977	-0.025074704
115	0xbd0ecdfa	-0.034864403
116	0xbcbc9e46	-0.02302469
117	0xbcb0966d	-0.021556104
118	0xbc9864a4	-0.018602677
119	0xbcef933a	-0.029245008
120	0xbcb11437	-0.021616085
121	0x3cc71b6e	0.024305072
122	0x3ce522e8	0.027970746
123	0x3cf79964	0.03022451
124	0xbcd4ee58	-0.025992557
125	0xbcd00fed	-0.025398219
126	0x3c81f1ed	0.01586243
127	0xbd04dd7c	-0.032437786
128	0x3cb93815	0.02260975
129	0x3cbc1c86	0.02296282
130	0xbcc90dff	-0.024542807
131	0x3cb99576	0.022654276
132	0xbcb1ffd7	-0.02172844
133	0x3cd36844	0.025806554
134	0xbccaa378	-0.024736151
135	0xbcfc503c	-0.030799977
136	0x3cf6d545	0.030130992
137	0xbcc3b7e3	-0.023891395
138	0xbcb842e2	-0.02249283
139	0x3cbe6592	0.023241792
140	0xbcb97234	-0.022637464
141	0xbceb3fc0	-0.028716922
142	0x3caef29b	0.021355918
143	0x3ca04cbe	0.019567844
144	0x3cb2ab9f	0.021810351
145	0xbcc2e6fd	-0.023791784
146	0x3cdf74a4	0.027277298
147	0xbcbddbe0	-0.023176134
148	0xbc56e723	-0.013116631
149	0xbcca305f	-0.024681268
150	0x3cc1f901	0.023678305
151	0xbd02ea98	-0.031962007
152	0xbcc477ee	-0.023982968
153	0xbcb16108	-0.021652713
154	0x3ccdd847	0.025127543
155	0x3c8d0617	0.017214818
156	0xbcc037cf	-0.023464112
157	0xbcaa5e95	-0.020797053
158	0xbcda5d52	-0.026655827
159	0x3cf94743	0.030429488
160	0x3ca5a509	0.020220296
161	0xbca539c3	-0.020169144
162	0x3c8278d9	0.015926765
163	0x3cc768c4	0.024341948
164	0xbcb787fa	-0.022403706
165	0x3d087d81	0.033322815
166	0xbcc98ec6	-0.024604212
167	0x3caed928	0.021343783
168	0xbcb004e8	-0.021486714
169	0x3cc2be35	0.023772338
170	0xbcd7fc18	-0.026365325
171	0x3cd215b7	0.02564512
172	0xbcedb06c	-0.029014789
173	0x3c89385a	0.016750503
174	0x3cc8ab1d	0.024495656
175	0xbce12ec6	-0.027488124
176	0xbc9e7c55	-0.019346396
177	0xbcec46c5	-0.02884234
178	0x3d0c632c	0.034274265
179	0xbcd2047b	-0.025636902
180	0x3ca3835a	0.019960094
181	0xbcdad293	-0.026711738
182	0xbc3f84b6	-0.011689356
183	0x3cae1556	0.021250408
184	0xbc9cda67	-0.019147111
185	0xbccf0b08	-0.025273815
186	0xbcf48076	-0.029846411
187	0xbcc4064e	-0.023928788
188	0x3c7d84cf	0.015473559
189	0xbcc53d7d	-0.024077171
190	0xbccf16a0	-0.025279343
191	0x3cadb9a7	0.02120669
192	0x3cc545ff	0.024081228
193	0x3cc9f0f8	0.024651036
194	0x3cc2058f	0.023684291
195	0xbcd199dd	-0.025586063
196	0x3c980917	0.018559022
197	0x3cd51ce7	0.026014758
198	0x3d057fef	0.03259271
199	0xbcdc387c	-0.026882403
200	0x3d10c07b	0.035339814
201	0x3ccad4a5	0.0247596
202	0x3cb8c89d	0.022556597
203	0xbcd32bd6	-0.025777739
204	0xbcd8e3e1	-0.026475849
205	0x3cc84d52	0.024450932
206	0x3cc03992	0.023464952
207	0x3cd7bfad	0.026336515
208	0x3cc3a442	0.023882035
209	0xbce5ff4a	-0.028075833
210	0x3cbd23c5	0.023088345
211	0x3cc96d6b	0.024588307
212	0x3d0d177a	0.034446217
213	0xbca445eb	-0.02005287
214	0x3cc60f8b	0.024177333
215	0xbcbc8ab9	-0.023015367
216	0x3ca7818f	0.02044752
217	0x3c8ceebe	0.017203685
218	0x3d020087	0.031738784
219	0xbcbea64c	-0.023272656
220	0xbccd728d	-0.025079036
221	0xbcc584cc	-0.024111174
222	0xbbe5ca6e	-0.007012657
223	0x3cc67cc7	0.02422942
224	0xbcad6ea2	-0.021170918
225	0x3cb6e51c	0.022326045
226	0x3ce235d7	0.027613563
227	0xbcc96db3	-0.024588441
228	0x3cc21816	0.023693126
229	0x3cbd3fcb	0.023101708
230	0x3cb5cc99	0.022192286
231	0xbd006bc2	-0.031352766
232	0xbcd38d40	-0.02582419
233	0xbce09a90	-0.027417451
234	0xbcfd4c65	-0.030920217
235	0x3cc7c842	0.024387483
236	0xbcc81679	-0.024424778
237	0x3cd67f54	0.026183762
238	0xbd29de76	-0.04147192
239	0x3cb572d1	0.022149475
240	0xbcc6b487	-0.024256004
241	0xbcc7b9dc	-0.024380617
242	0x3cc2a731	0.023761364
243	0x3cc81d9f	0.024428187
244	0x3cc57c44	0.024107106
245	0x3c828d59	0.01593654
246	0xbcafbfea	-0.021453816
247	0x3cc4f346	0.024041783
248	0x3cd2dc77	0.025739891
249	0x3cb99bf0	0.022657365
250	0xbcc58b6e	-0.024114337
251	0x3cbb8057	0.022888346
252	0xbcb749f5	-0.022374133
253	0xbcd42c95	-0.025900165
254	0xbcbc8544	-0.023012765
255	0xbccf15e1	-0.025278987

conv4.lin.weight f4 [256, 128]
0	0xbd5df305	-0.05418684
1	0xbd2b23dc	-0.041782245
2	0x3dcc58d2	0.09977879
3	0x3ddd2580	0.10798168
4	0x3d9e067e	0.07716082
5	0xbdb523ff	-0.08844756
6	0xbe17bbff	-0.14817809
7	0xbe0194b6	-0.12654385
8	0xbdbed1b4	-0.093173414
9	0x3daaa403	0.08332064
10	0x3df454d7	0.119302444
11	0x3d32b74f	0.043631848
12	0xbcfbeba7	-0.030752016
13	0x3dc07dd5	0.093990006
14	0x3dfda49f	0.123849146
15	0x3d927221	0.071506746
16	0xbd306336	-0.043063365
17	0xbcac561a	-0.02103715
18	0xbd7fd413	-0.06245811
19	0x3d2276ce	0.039664082
20	0x3c5d8aa9	0.013521829
21	0x3c37f392	0.011227505
22	0xbdf5f1c2	-0.12009002
23	0x3e06b969	0.13156666
24	0xbde176a8	-0.1100896
25	0xbd9464ca	-0.072457865
26	0x3e140feb	0.14459197
27	0xbd4bbbef	-0.049739774
28	0x3e04b9f1	0.12961556
29	0x3d848658	0.064709365
30	0x3d700a79	0.058603738
31	0xbdb93e91	-0.09045137
32	0x3da99b36	0.08281557
33	0xbda5c1c0	-0.080935955
34	0xbd017982	-0.03161002
35	0x3bd9643f	0.0066342647
36	0xbdfe6a46	-0.12422614
37	0xbd38ee75	-0.045149285
38	0xbd9a5b97	-0.075370006
39	0xbd338ec1	-0.043837313
40	0xbdb79d19	-0.08965511
41	0x3daee3ef	0.08539569
42	0xbcd11268	-0.025521472
43	0x3ca46bea	0.020070989
44	0x3d3ae391	0.04562718
45	0xbdfedff5	-0.1244506
46	0x3dada8eb	0.08479484
47	0x3dfed150	0.12442267
48	0x3d83da3e	0.06438111
49	0x3cc99f7e	0.024612185
50	0x3d77998e	0.060449176
51	0x3c814b14	0.01578287
52	0xbdbcea68	-0.09224397
53	0x3c161c98	0.009162091
54	0x3d5054fb	0.050862294
55	0xbe15851a	-0.14601555
56	0x3c7407fa	0.01489448
57	0xbe0ae63d	-0.13564391
58	0xbcd5f2eb	-0.026116809
59	0xbdb3f32f	-0.08786618
60	0xbcdc41e0	-0.02688688
61	0xbdfcaa9d	-0.123372294
62	0x3c988679	0.018618809
63	0x3d8a3486	0.06748299
64	0x3d7e633e	0.062106363
65	0x3dc02778	0.09382528
66	0xbd8b4b89	-0.068015166
67	0xbd23835f	-0.039920207
68	0x3d400f7f	0.04688978
69	0xbc0c817a	-0.0085757915
70	0xbdb3e424	-0.08783749
71	0x3d36ca01	0.04462624
72	0x3e182714	0.14858657
73	0xbd096c8a	-0.033550777
74	0xbd6dd979	-0.058068726
75	0x3d57e8b9	0.052712176
76	0x3d0c1884	0.034203067
77	0xbd324bec	-0.043529436
78	0xbd461d6e	-0.04836791
79	0xbde7c475	-0.11316768
80	0x3dda4846	0.10658316
81	0xbd7ba145	-0.061433095
82	0x3d9e8a3d	0.077412106
83	0x3dbb2e18	0.09139651
84	0xbd76bcbf	-0.060238596
85	0xba80e326	-0.000983332
86	0xbdc1a23f	-0.09454774
87	0xbe15b10c	-0.1461832
88	0x3d37a57e	0.04483556
89	0xbd40f459	-0.047108028
90	0xbd25ea12	-0.04050643
91	0xbdf48ca5	-0.11940888
92	0xbd2c0917	-0.042000856
93	0x3d8b3327	0.06796866
94	0xbd6b40f6	-0.057435
95	0xbd46a895	-0.048500616
96	0x3dabd16d	0.08389554
97	0x3bb9c4e4	0.005669223
98	0xbdbb0bd4	-0.091331154
99	0xbce07999	-0.027401732
100	0x3e17590a	0.1478006
101	0x3db5bb83	0.08873656
102	0x3d9de774	0.07710162
103	0x3d4f77ec	0.050651476
104	0xbe082b42	-0.13297752
105	0xbd78bb52	-0.060725518
106	0x3c163cc8	0.009169765
107	0xbd699989	-0.05703119
108	0x3cda585e	0.026653465
109	0xbd5ecdc1	-0.05439544
110	0x3e152d8b	0.14568155
111	0x3e181f9b	0.14855807
112	0x3de5cd28	0.11220771
113	0x3d553e5b	0.05206142
114	0xbd40d98e	-0.047082476
115	0x3da61f64	0.08111456
116	0xbe187857	-0.14889656
117	0x3d9b70f2	0.07589902
118	0xbdfcc352	-0.12341942
119	0x3cb37f62	0.021911327
120	0xbda88ec7	-0.082303576
121	0xbd118168	-0.035523802
122	0x3c81a67d	0.015826458
123	0xbd2573b5	-0.04039355
124	0xbdb952ae	-0.09048973
125	0x3c8512e8	0.016244367
126	0xbd290e6f	-0.04127353
127	0xbd6a36bd	-0.05718111
128	0x3dafda37	0.08586543
129	0xbe122508	-0.14271939
130	0xbe02bc4b	-0.1276714
131	0x3d7c4ea5	0.06159844
132	0xbd122e8a	-0.035688914
133	0x3d32eb94	0.043681696
134	0xbd136699	-0.035986517
135	0xbcd7e4b4	-0.026354171
136	0xbcec6080	-0.028854609
137	0xbd1adbd1	-0.03780729
138	0xbe0231af	-0.12714265
139	0x3e1271cc	0.14301223
140	0x3d231a0f	0.039819773
141	0xbe0db126	-0.13837108
142	0x3da597f2	0.08085622
143	0xbce0737d	-0.02739882
144	0xbb9a1773	-0.0047025024
145	0x3dbcec81	0.09224797
146	0xbdbc8dfc	-0.09206769
147	0x3ce85cb5	0.028364519
148	0xbdc8ff29	-0.09814293
149	0x3c44e578	0.0120176
150	0xbd977f8f	-0.07397377
151	0x3de86303	0.1134701
152	0x3d87acee	0.066247806
153	0x3de39a82	0.111134544
154	0xbdc5f816	-0.09666459
155	0xbd91bd62	-0.071162
156	0x3e12d1b2	0.14337805
157	0x3c85d7fc	0.016338341
158	0xbcd7e8ac	-0.026356064
159	0xbd2605ba	-0.040532805
160	0xbdbb5dbc	-0.09148738
161	0x3cb8e6d9	0.022571014
162	0x3d50e62f	0.05100077
163	0x3d069e08	0.032865554
164	0xbdcda3a1	-0.10040975
165	0xbddbd619	-0.10734195
166	0x3dcbcf0d	0.09951601
167	0xbdb1c92b	-0.08680948
168	0xbd65d2ff	-0.056109425
169	0x3ddacebe	0.10683964
170	0x3cae34bf	0.021265386
171	0x3d869817	0.065719776
172	0xbda2de05	-0.07952503
173	0x3d42f30f	0.04759508
174	0x3be6f415	0.00704814
175	0x3d6a5b25	0.05721583
176	0x3dc3f006	0.09567265
177	0x3e130362	0.14356759
178	0xbd7e53c5	-0.062091608
179	0x3db44546	0.08802275
180	0x3dd03667	0.101666264
181	0x3d0c7812	0.034294195
182	0x3ddf9938	0.10917896
183	0xbc0402b2	-0.008057283
184	0xbaf0af08	-0.001836271
185	0xbda9f77f	-0.08299159
186	0xbe15ba09	-0.14621748
187	0x3d917db4	0.07104054
188	0x3dd89e21	0.10577036
189	0x3dc84702	0.09779169
190	0xbc9b9883	-0.018993622
191	0xbcefc520	-0.029268801
192	0x3cf24b0f	0.029576806
193	0x3cc23c6c	0.023710452
194	0x3d942ed1	0.07235492
195	0x3cf2e74c	0.029651307
196	0x3d2eb6c1	0.042654756
197	0xbdf1f7c8	-0.11814839
198	0xbd7db40d	-0.061939288
199	0xbdba8ddc	-0.09109089
200	0xbdc78582	-0.097422615
201	0x3d1fb177	0.038987603
202	0xbbc9ff6d	-0.0061644823
203	0x3d05c66f	0.032659944
204	0xbd8b81d1	-0.0681187
205	0x3c577b9e	0.013152031
206	0xbdcd3535	-0.10019914
207	0x3e03676c	0.12832421
208	0xbdc78e55	-0.097439446
209	0x3d73e46a	0.059544004
210	0xbda7feb1	-0.082028754
211	0x3d70315e	0.05864083
212	0xbce4ebe6	-0.027944516
213	0xbc188009	-0.00930787
214	0x3dc0f437	0.0942158
215	0x3c8a8471	0.016908856
216	0xbd891535	-0.06693498
217	0x3d994144	0.074831516
218	0xbb76bd29	-0.003764937
219	0x3b1b8628	0.0023731086
220	0xbca0cd0a	-0.01962902
221	0xbd876081	-0.066102035
222	0xbd906a11	-0.070514806
223	0xbcf1f121	-0.029533925
224	0x3b05d665	0.0020421979
225	0x3e145c75	0.14488395
226	0xbd37eea9	-0.04490534
227	0x3d9eeb15	0.07759682
228	0xbe17e58f	-0.14833663
229	0x3d5d918a	0.054093875
230	0xbdb04eda	-0.0860879
231	0xbdcd7181	-0.10031415
232	0xbd420c6a	-0.04737512
233	0xbe0b203f	-0.1358652
234	0x3d4c3de1	0.0498637
235	0x3ddf890f	0.10914814
236	0x3d7cc42b	0.061710518
237	0x3ad12349	0.001595595
238	0xbda43b3b	-0.0801911
239	0x3d092657	0.03348383
240	0xbd466881	-0.048439506
241	0x3d4bc732	0.049750514
242	0xbd99607b	-0.07489105
243	0x3d157d9a	0.036496736
244	0x3c3563a3	0.0110711185
245	0x3d8bbfc0	0.06823683
246	0xbe158e9e	-0.14605185
247	0xbbc937ed	-0.0061407
248	0x3d7a6bf2	0.0611381
249	0xbd528cd0	-0.05140382
250	0x3ddbd920	0.10734773
251	0xbaa8f88c	-0.0012891456
252	0x3dbfa79f	0.09358143
253	0x3dc697b9	0.096969076
254	0x3b5e8e97	0.0033959502
255	0x3dbdb102	0.09262277

conv5.bias f4 [256]
0	0xba0bef78	-0.0005338113
1	0xba006216	-0.00048974284
2	0xba51e621	-0.0008007009
3	0x3a3317e1	0.00068318663
4	0xba37f942	-0.00070180383
5	0x39d50336	0.00040628918
6	0x3a0fd145	0.00054862007
7	0x394d44f1	0.00019576006
8	0xb98acca5	-0.00026473883
9	0x3aa2ebb6	0.0012429866
10	0xba852337	-0.001015759
11	0xba262e07	-0.0006339256
12	0x3a736c23	0.0009285828
13	0x38dd68f9	0.00010557654
14	0x3a54afc8	0.00081133517
15	0x3a99c017	0.0011730221
16	0x39eb3360	0.0004486097
17	0xb9b56614	-0.00034599064
18	0xb9b1ceb6	-0.00033914082
19	0xba398a86	-0.00070778315
20	0x3a2abec0	0.00065134093
21	0xba404675	-0.00073347177
22	0xba9ed6fb	-0.0012118513
23	0xb9b2fa93	-0.00034137498
24	0x3a0fd7ad	0.0005487155
25	0x399cd4db	0.00029913228
26	0xba965ff1	-0.0011472685
27	0xba25f62f	-0.00063309347
28	0x38cdc194	9.8112185e-05
29	0x3a658d1e	0.0008756685
30	0x3a58b4e6	0.0008266702
31	0x3a3eaca7	0.0007273652
32	0x3aa4e1a4	0.0012579453
33	0xba5575e7	-0.0008142874
34	0x3a50dff5	0.00079679425
35	0x3a52367b	0.00080189825
36	0xb91cf4e0	-0.00014968542
37	0x3a7f5714	0.00097404537
38	0x3a069754	0.0005134244
39	0xba361cd0	-0.00069470424
40	0x39a6eaed	0.0003183702
41	0xba777d92	-0.00094410137
42	0xbaa4aefb	-0.0012564355
43	0x3a633242	0.0008666852
44	0xba1af093	-0.0005910482
45	0x3a31d325	0.0006783477
46	0xba0186b3	-0.0004941031
47	0xba674e1d	-0.00088235905
48	0xba57990c	-0.0008224405
49	0xba1422a6	-0.0005650915
50	0xba4ce028	-0.00078153843
51	0x3a56fb7d	0.0008200927
52	0xba619310	-0.0008604983
53	0x3948a78c	0.00019135902
54	0x3a3e2230	0.0007253019
55	0xba48f3cc	-0.0007665723
56	0xba2a1795	-0.00064884993
57	0xba82942c	-0.0009962372
58	0x3aa33e2e	0.0012454444
59	0x3972724c	0.00023121497
60	0x39a58c60	0.0003157584
61	0x3a99e370	0.0011740755
62	0x3a0c9ea0	0.0005364213
63	0xba588ffb	-0.0008261201
64	0xba4e8720	-0.00078784116
65	0x3a454022	0.000752451
66	0x3a35041e	0.00069052156
67	0x3a9d14bc	0.0011984329
68	0x3881ef18	6.195734e-05
69	0x3a253d51	0.00063033873
70	0x39477f79	0.00019025606
71	0x39d34f60	0.00040304195
72	0xba746a7f	-0.00093237305
73	0x3a712f58	0.0009200475
74	0xba3d4c0f	-0.00072211114
75	0x3a3288ba	0.0006810535
76	0xba9f0087	-0.0012130894
77	0xba714c83	-0.00092048215
78	0xb987f73c	-0.0002593341
79	0x3a7d7f38	0.0009670141
80	0xba37e3b9	-0.00070148293
81	0xba61e511	-0.00086172024
82	0xba07c70a	-0.00051795004
83	0xba2a0c62	-0.00064868305
84	0xb9cdd228	-0.00039257226
85	0x3a701d5f	0.000915965
86	0x39d8fc08	0.00041386508
87	0xba751551	-0.00093491847
88	0x3a153058	0.00056911027
89	0x3a65e960	0.00087704323
90	0xba9cd3db	-0.0011964993
91	0xb9f73655	-0.00047151992
92	0x3a44f8e3	0.00075138937
93	0xba453f27	-0.0007524364
94	0xb94f53fa	-0.00019772342
95	0x3a020953	0.0004960496
96	0x3a780259	0.0009460799
97	0x3a297172	0.0006463743
98	0x3a72dff9	0.0009264942
99	0xba7079b6	-0.000917341
100	0x3aa2138b	0.0012365443
101	0xba23b082	-0.0006244258
102	0x3a8c2b09	0.0010693978
103	0xba81a5b8	-0.0009891307
104	0x39f7a939	0.00047237592
105	0xba5389b0	-0.0008069528
106	0x38668d0f	5.4967644e-05
107	0xb94ac58d	-0.00019337815
108	0x3a3c4cea	0.0007183092
109	0x3a229845	0.00062024995
110	0x3a16c68a	0.00057516305
111	0xb9c70f8c	-0.0003796782
112	0xb960f23c	-0.00021452544
113	0xba3f067e	-0.0007287039
114	0xb892e1a0	-7.0038484e-05
115	0xba20d601	-0.00061354047
116	0xba6b831b	-0.0008984075
117	0xba4651a9	-0.0007565269
118	0x3aa44d04	0.001253516
119	0xba108102	-0.0005512388
120	0xb893c742	-7.046621e-05
121	0xba456bbe	-0.00075310085
122	0xba0826ff	-0.0005193799
123	0xba270bef	-0.00063723227
124	0x3a25d811	0.0006326447
125	0x3a1e6654	0.000604247
126	0x3a629fa7	0.0008645006
127	0xba4178c9	-0.0007380364
128	0xb8a7a034	-7.993021e-05
129	0x39147ce9	0.00014160913
130	0x39f8b72d	0.00047438723
131	0x398c245f	0.0002672998
132	0x3a1ec870	0.0006057089
133	0xba7edff4	-0.00097227027
134	0xba731047	-0.000927214
135	0x3a627cc6	0.00086398085
136	0xb9fd6d6f	-0.00048337455
137	0xba719c2b	-0.0009216691
138	0x3a741016	0.00093102583
139	0x3a82157c	0.0009924616
140	0x3a2f53af	0.000668819
141	0xb9ccc799	-0.00039058624
142	0x3a5156ee	0.0007985671
143	0xbaa286fd	-0.0012399849
144	0x3a23343f	0.0006225742
145	0x3a106172	0.00055076845
146	0x38f11b40	0.00011496851
147	0xba071c61	-0.000515407
148	0x3a1907ea	0.0005837666
149	0x393346d8	0.00017097162
150	0xb9ecbe71	-0.00045155318
151	0x3a41e863	0.0007396994
152	0xb79fb157	-1.9036857e-05
153	0x3a375116	0.0006992979
154	0xba402474	-0.00073296507
155	0xb8bf0148	-9.1078284e-05
156	0x391531fd	0.0001422837
157	0x3a5409bd	0.00080886093
158	0xba2671e5	-0.0006349369
159	0x3a4aa111	0.0007729689
160	0xba6ef331	-0.0009115218
161	0x3a97ccef	0.0011581461
162	0x3a379be3	0.0007004125
163	0x3a401d76	0.0007328609
164	0xba9f6cd0	-0.0012163166
165	0x3a419842	0.0007385054
166	0x3a79a52d	0.00095232093
167	0xba8d8348	-0.0010796571
168	0xba89308e	-0.0010466741
169	0x3a6d530d	0.0009053208
170	0xba31effb	-0.0006787774
171	0x3a6c9eb3	0.00090263336
172	0xba527ffd	-0.0008029936
173	0x3a05ea7b	0.00051084877
174	0x3a527e6c	0.00080297026
175	0x3a56c749	0.0008193148
176	0xb8c33ce6	-9.309668e-05
177	0xba43bca9	-0.0007466772
178	0xbaa1eb52	-0.0012353456
179	0xba61668a	-0.00085983484
180	0x3a538f89	0.00080703996
181	0xba2b7a93	-0.00065413973
182	0x3a3bcfd4	0.00071644527
183	0xba562bd9	-0.0008169986
184	0x3a50f615	0.00079712394
185	0xba219543	-0.00061639043
186	0xba01665c	-0.0004936212
187	0x3727e260	1.0006683e-05
188	0xba62433e	-0.00086312357
189	0x3a434cfd	0.0007450132
190	0x3a063f9f	0.00051211746
191	0xba48eaee	-0.0007664402
192	0x3a097260	0.00052431785
193	0x3a387c30	0.00070375483
194	0xba829ded	-0.0009965278
195	0x3a932de1	0.0011228883
196	0xb9f2a6d0	-0.00046282122
197	0xba4acbcd	-0.0007736057
198	0xba2f8f0f	-0.00066970376
199	0xba8961f8	-0.0010481467
200	0x3a08313b	0.0005195324
201	0x3a9b195b	0.0011833118
202	0x3a522a61	0.0008017179
203	0x39810ebf	0.00024615784
204	0x3a5ad5d7	0.00083479047
205	0x3a7bf2c4	0.0009611065
206	0x39fbe3b0	0.0004804409
207	0x3a56c3d6	0.0008192634
208	0xba89e4c6	-0.001052045
209	0x3a785999	0.00094738003
210	0x3a699372	0.00089102157
211	0xba2b0691	-0.0006524111
212	0xb8ec93a9	-0.00011280861
213	0xb99f9d19	-0.0003044389
214	0xba43b985	-0.0007466304
215	0x3a74822b	0.0009327258
216	0x3a84061e	0.0010072624
217	0xb756aab8	-1.27951425e-05
218	0x3a3b433b	0.0007143502
219	0xba305324	-0.0006726256
220	0x3a253025	0.00063014246
221	0x3a17a749	0.00057851203
222	0xba222e32	-0.0006186693
223	0xba53ce07	-0.00080797117
224	0xba765a05	-0.0009397569
225	0xba6e4406	-0.0009089116
226	0x39f386d2	0.0004644902
227	0xba6bb750	-0.0008991854
228	0x398c6965	0.00026781406
229	0x3a6bbc88	0.0008992632
230	0xba0860b2	-0.0005202397
231	0xba7197be	-0.0009216032
232	0x3a01ba1f	0.00049486937
233	0xb9c269e3	-0.00037081455
234	0x3a7e1f63	0.0009694008
235	0xba72a945	-0.00092567905
236	0xba7bfa57	-0.00096121937
237	0xba3aeede	-0.0007130931
238	0x39f70cee	0.00047121145
239	0x3a50a8ba	0.00079597125
240	0xba9009f2	-0.0010989292
241	0xb94f2162	-0.00019753494
242	0xb8dd9b29	-0.00010567002
243	0x386d0b13	5.6515517e-05
244	0x3a671820	0.00088155456
245	0x3927874f	0.00015976767
246	0xba67b4fc	-0.00088389195
247	0x3a1da35c	0.0006013417
248	0x3a6b4bcf	0.0008975835
249	0x3a084c61	0.00051993696
250	0x3a3859d2	0.0007032427
251	0x39b7eb33	0.00035079717
252	0x3a8c9fa5	0.001072873
253	0xba3148ea	-0.0006762879
254	0x3a3ab9b7	0.00071230106
255	0xba529ed9	-0.00080345344
