weights/8-21-yfp-0_split_1.pt (torch, 473578 bytes, 26 tensors)

conv1.bias f4 [64]
000000 69 34 cf 39 a3 88 5a ba 6d 6c 60 3a ff bb 99 39
       0.00039521165 -0.00083364005 0.00085610786 0.00029322502
000010 69 0b 8b b8 08 eb 28 ba 75 c8 b9 b9 95 d0 e3 b9
       -6.630162e-05 -0.0006443714 -0.00035435302 -0.0004345222
000020 5f 0c b2 39 0a 40 12 ba 27 aa 14 ba 4a cb 60 ba
       0.00033960023 -0.00055790006 -0.00056711066 -0.00085752143
000030 7b ba 19 3a 74 3b 4e ba eb d1 08 b9 3a f3 03 ba
       0.00058642746 -0.00078671356 -0.00013048171 -0.0005033497
000040 1b df 64 ba a0 b0 e6 39 83 f2 07 ba 3c d1 26 3a
       -0.0008730755 0.00044000614 -0.00051859784 0.0006363576
000050 c7 dc 24 ba 46 41 b8 39 fe 23 82 b9 de 04 62 ba
       -0.0006289002 0.00035143847 -0.00024822348 -0.0008621941
000060 e4 c7 08 3a 1e 86 22 3a 82 06 f7 b9 2b 62 ae 39
       0.00052177743 0.00061997946 -0.0004711636 0.00033261007
000070 43 7b ae 38 eb d6 d3 b9 bb db 14 ba 83 ba 26 ba
       8.319926e-05 -0.00040405183 -0.00056784943 -0.000636019
000080 44 49 f3 b9 e8 9b cd b9 7d 57 d0 b9 dc 76 26 3a
       -0.0004640316 -0.00039216806 -0.00039738035 0.0006350109
000090 ac e8 54 ba b5 d7 26 3a 8d 8a 04 3a 78 0f 1f ba
       -0.0008121829 0.00063645403 0.0005056046 -0.00060676737
0000a0 26 fb 4b b6 35 b9 23 ba e6 6f 66 b9 a0 53 0d 3a
       -3.0395545e-06 -0.00062455545 -0.00021976195 0.0005391184
0000b0 71 e0 bb 39 24 6d 1f 3a 0e d7 ab 39 e5 08 5a 3a
       0.0003583464 0.0006081632 0.0003277589 0.00083173654
0000c0 ed 26 08 b9 96 a4 1c ba b3 4b 75 b9 0e fa 7c b8
       -0.00012984472 -0.0005975453 -0.00023393221 -6.0314364e-05
0000d0 b8 87 22 ba ea e3 63 3a 12 35 23 ba c9 da 82 39
       -0.0006200033 0.00086933246 -0.00062258646 0.0002495854
0000e0 31 15 bc 39 7f 4b a1 39 81 90 23 ba a3 92 de b9
       0.00035873943 0.00030764562 -0.00062394893 -0.00042452393
0000f0 e5 a1 bb 39 cb cd 28 3a ef 47 13 ba 31 ed e4 39
       0.0003578804 0.0006439357 -0.0005618324 0.0004366427

conv1.lin.weight f4 [64, 2]
000000 e7 f1 63 be 9a 34 8a bd 4c 42 8e bc 00 11 44 3e
       -0.22260247 -0.06748314 -0.017365597 0.1914711
000010 e8 67 9d 3c ee 40 19 bd 5f a5 a6 bd 08 58 4c 3b
       0.019214585 -0.037415437 -0.08137011 0.00311804
000020 fc 4a cd bb 98 4b 00 be fb 27 4b 3e 24 6f 4a 3e
       -0.0062650423 -0.12528837 0.1983947 0.1976896
000030 28 3a 99 3d 97 5a f0 3d a4 93 f0 bd c6 0c 31 3e
       0.074817955 0.11736029 -0.1174691 0.17290029
000040 a8 00 c2 3d 1f 29 4e bd 61 a1 72 3d 63 82 16 3e
       0.094727814 -0.050332185 0.059235934 0.14698176
000050 44 f4 cd bd b8 18 c2 3d 9f fb eb 3c d9 f4 35 be
       -0.100563556 0.09477371 0.028806506 -0.17769183
000060 63 4a c7 bc f4 94 06 bd 52 c8 25 3e 93 50 ad 3c
       -0.024327463 -0.032856897 0.16189697 0.021156585
000070 4e 3d bf bd 88 ea 0b be fe a7 5d 3e c1 1b 52 3e
       -0.09337865 -0.13663685 0.21646115 0.205184
000080 b6 22 48 be 3d 9b 85 bc 7d 26 8a 3d 01 d9 7e be
       -0.19544491 -0.016309375 0.06745622 -0.24887468
000090 97 95 00 3d 09 78 9a 3e 1f 39 9b bd 55 25 93 3e
       0.03139266 0.30169705 -0.07579254 0.2873942
0000a0 f4 80 88 3e 2f d4 b2 3d 3e 40 86 be 7a 97 bd 3d
       0.26660883 0.08731877 -0.26220888 0.092574075
0000b0 87 21 33 be f7 c4 2f be 28 c0 69 3e 99 fd 33 3c
       -0.17493258 -0.1716498 0.22827208 0.010985755
0000c0 38 6b 60 3e a1 06 6a 3d 49 df d8 bd db 9d e0 bd
       0.219159 0.057135228 -0.10589463 -0.109676085
0000d0 43 34 2e 3e 18 f7 07 3e 35 6b 31 be 6a b4 dd bd
       0.17012124 0.13277853 -0.17326052 -0.10825427
0000e0 4b d7 d4 3d 25 1e 6c be 0d 42 c3 3c 0d 92 12 bd
       0.103926264 -0.23058374 0.023835206 -0.035783816
0000f0 e0 f9 d4 bd 3f cd 81 be 47 22 81 be 2f 6c 1b 3e
       -0.103992224 -0.25351903 -0.25221464 0.15177988
000100 13 ca 17 3e 9f 4f 15 3e 22 5e a1 3e c5 bf d9 bd
       0.14823179 0.14581154 0.3151713 -0.1063228
000110 93 de 72 be a1 15 59 3e 3c 54 20 3e fc 90 17 3e
       -0.23717718 0.21199657 0.15657133 0.14801401
000120 58 0f 75 bb 64 e2 5f 3d 60 73 8f 3d 33 51 71 bc
       -0.0037393179 0.054659262 0.07004428 -0.014728832
000130 10 b2 34 3e 91 24 62 3e 55 82 85 be 6e 5e 97 3e
       0.1764605 0.22084261 -0.26075998 0.29564232
000140 fe af 7e be 98 0f 92 3e be e4 18 3e 56 57 ef ba
       -0.24871823 0.28527522 0.14931008 -0.0018260281
000150 2e 97 46 be ed 96 3a be f1 bd 59 3d d7 04 66 3e
       -0.19393608 -0.18221636 0.053159658 0.22462784
000160 5a dc e5 bd 5d 37 88 3e 88 e8 60 be 9f 34 90 3e
       -0.11223669 0.2660474 -0.21963704 0.28165147
000170 5a 9e 9e 3e f5 fe 9d 3d 21 65 b0 3b 7b 68 35 be
       0.30980188 0.07714645 0.0053831493 -0.17715637
000180 cd 68 a7 bc cb 4f 64 3c 0e fc 84 3d 94 0e 83 3d
       -0.020435715 0.01393504 0.06493388 0.06399265
000190 48 bb 63 3e bf 11 80 3c cd ce 29 3e d0 b4 ea bb
       0.22239411 0.015633462 0.16582794 -0.007162668
0001a0 c8 49 2b be 6d cf 6a 3e cd 5c 34 bd d6 95 d0 3d
       -0.16727364 0.22930689 -0.044033814 0.10184829
0001b0 72 d2 85 3e ec c4 3f bd 15 9f 65 ba 54 25 27 be
       0.2613712 -0.04681866 -0.0008759362 -0.16322833
0001c0 6b 2f 2a be a0 8c 4a 3e e2 75 0d be b0 cb 8c 3e
       -0.16619651 0.19780207 -0.138145 0.2749915
0001d0 a4 12 7d 3e f1 e9 a6 3c fd 05 94 3e 0f 2c 83 bb
       0.24714142 0.020375224 0.2891082 -0.004003055
0001e0 4d c4 f0 bc 54 0e 84 3e 49 0a ff bd 5e 41 8f be
       -0.029390479 0.25792181 -0.124531336 -0.2797956
0001f0 44 23 2c 3e 87 a8 21 be de 76 97 be b3 6b 06 3e
       0.16810328 -0.15786944 -0.29582876 0.13127021

conv2.bias f4 [64]
000000 0a 4f a9 bc 3e 4a 7f 3c 69 46 a5 3c 30 fa aa 3c
       -0.020667572 0.015581666 0.020175176 0.020871252
000010 fc 10 a0 3c b2 8f 6c 3c cd de a7 3c 76 2e a3 bc
       0.019539349 0.0144385565 0.020491982 -0.019919615
000020 8d 0b 98 3c 80 84 a2 3c 6b 34 9c bc c5 4a 60 bc
       0.018560195 0.019838572 -0.019067964 -0.013689701
000030 7b 64 c6 bc 1b d9 04 3c d0 fb 88 bc 19 e1 9c 3a
       -0.024217835 0.008108403 -0.016721636 0.001196894
000040 a5 7d 04 bc 43 69 eb bc 7e d6 9f 3c 26 7a b2 bc
       -0.008086597 -0.028736716 0.019511458 -0.02178676
000050 c8 c4 0b bc 8c 6e b0 3b 94 46 ba 3b e2 ff b5 3c
       -0.008530803 0.005384272 0.005684683 0.022216741
000060 39 52 91 3c e5 8d d7 3c 7d 7f e1 bc cc 91 b4 bc
       0.017739402 0.026312778 -0.027526611 -0.022042178
000070 7f fc c1 bc f2 5d 99 3c fc b2 d4 bc 5a 4e 81 3c
       -0.02367997 0.018721554 -0.025964253 0.015784431
000080 36 12 c2 bc 4b 3e 9b 3c d5 b8 97 3c 17 90 b9 3c
       -0.023690324 0.018950602 0.018520752 0.022651715
000090 02 cd c0 bc 63 b7 92 bc 40 08 94 3c 73 66 b5 bc
       -0.023535255 -0.017909711 0.01807034 -0.022143578
0000a0 7f dc 91 ba ba 2f 9d bc d0 d7 8e 3c 76 e3 3c bb
       -0.0011128335 -0.019187797 0.017436892 -0.00288221
0000b0 bf 01 ca 3c 54 4f 90 3c 7b 8c 9d bc d8 24 9d 3b
       0.024659036 0.017615952 -0.019232025 0.004795652
0000c0 2a 96 b6 bc 0a 72 99 3c 16 c5 a4 3c 7e c7 86 3c
       -0.0222884 0.018731136 0.02011351 0.016452547
0000d0 2f 07 f7 3c 2a 5d 68 bc f5 41 a4 bc a6 f5 9a bc
       0.030154793 -0.014182368 -0.020050982 -0.018915962
0000e0 8a b8 6d 3b a2 2e 9d bc 08 54 3d 3c a6 83 a2 3c
       0.0036273324 -0.019187275 0.011555679 0.019838165
0000f0 5b 34 c7 3c 3d 01 ae bc f4 06 7d 3c 3d dc fd bc
       0.024316957 -0.021240825 0.015443552 -0.030988807

conv2.lin.weight f4 [64, 64]
000000 59 56 78 3d 84 40 07 bc 92 64 25 be 09 51 4e bd
       0.060629223 -0.008255128 -0.16151646 -0.05037025
000010 9c 43 22 bd 49 5e 16 3d c6 9e 00 3e cb da 2b bd
       -0.03961526 0.03671101 0.12560567 -0.041956704
000020 f7 2f 72 bd 98 d4 a4 bd 83 44 88 bd 85 2d 1c be
       -0.059127774 -0.080483615 -0.066536926 -0.1525174
000030 81 0a 1b be 36 80 35 bd 09 30 45 3d b0 20 52 be
       -0.15140726 -0.044311725 0.048141513 -0.20520282
000040 4f 86 2f 3e 19 e5 3a 3e 6f 37 0b 3e 1e ff 3f bd
       0.17141078 0.18251456 0.13595365 -0.046874158
000050 f0 57 68 be 5a 24 a0 3d 45 41 1c be 7e 69 1f 3e
       -0.22689795 0.078194335 -0.15259273 0.15567586
000060 4d b0 43 3e a8 8c 2b be a9 4c 18 be 24 15 3b be
       0.19110222 -0.16752875 -0.14872994 -0.18269783
000070 b9 31 ad bd a3 bf 43 3a 49 b4 d2 bd fc dd d4 bd
       -0.084567495 0.0007467216 -0.10288293 -0.10393903
000080 71 4e 57 3b fe c4 d2 3d 5f ee 92 bd c0 e6 ba bd
       0.0032853151 0.102914795 -0.07174372 -0.09126043
000090 3e f8 5c 3d 51 58 5d be 05 5d 48 3d f9 93 da 3d
       0.05394768 -0.21615721 0.048916835 0.10672755
0000a0 aa 7f c1 3d 0e f2 a6 bd f2 5b 61 3e fd 20 17 bd
       0.09448178 -0.08151637 0.2200773 -0.036896694
0000b0 24 68 70 3e 07 20 ef bd e5 7d 0f bd 22 0e 0d 3e
       0.23477226 -0.116760306 -0.03503217 0.13774922
0000c0 41 d4 6d 3e 87 30 04 be 9a 80 a6 3d dd 33 a0 3d
       0.232255 -0.12909137 0.081299976 0.07822392
0000d0 98 43 99 bd 15 b8 86 3d 5d 78 04 3e da 32 ca 3c
       -0.074835956 0.065780796 0.1293654 0.024682451
0000e0 e9 9e 3c be 94 6a b5 bd df 80 fa 3d 2e a7 3d 3e
       -0.18419994 -0.08858219 0.122316115 0.18520805
0000f0 99 44 cc 3c 40 2f f4 3d 8c 71 3b be 3d 48 f6 bd
       0.024935054 0.11923075 -0.18305033 -0.12025497
000100 f6 da 95 bd 86 3b 85 3d d5 be 3f 3e 75 84 41 be
       -0.07317154 0.06505494 0.1872514 -0.18898185
000110 fd cc cb bd 22 65 04 be 0c f7 df 3d af 89 2c be
       -0.09951208 -0.12929204 0.10935792 -0.16849397
000120 5f c6 49 be 78 48 b3 3d 27 85 81 bd e5 69 36 bd
       -0.19704579 0.08754057 -0.06324225 -0.044534583
000130 7d 97 99 bd 46 70 2f bd b8 ad 11 3e 6a 73 b4 bd
       -0.07499597 -0.04283168 0.14226425 -0.08811076
000140 81 c2 00 be 15 1b bd bd 30 18 98 bd 21 b5 15 3e
       -0.12574197 -0.09233681 -0.074264884 0.14619876
000150 3f d7 f9 bd 6f 81 44 3e 92 af c1 bd 35 1e 59 3e
       -0.12199258 0.1919 -0.094573155 0.2120293
000160 4e 4a 4b be c0 3b e4 bd e3 8d c4 3d fa b6 1e be
       -0.19852564 -0.11144209 0.09597375 -0.15499488
000170 4f 23 c3 bd 46 aa 7c bb 7e 69 52 3e 2b 49 1e bb
       -0.09528219 -0.003855364 0.20548055 -0.0024152498
000180 d9 68 27 3e fd 40 89 3d 95 3c 81 bd e7 da 30 3d
       0.1634859 0.06701849 -0.06310383 0.04317751
000190 a5 90 1e be 15 7e 3a 3e 26 bc 1c 3e c4 16 57 3e
       -0.15484865 0.18212159 0.15306148 0.21004778
0001a0 81 90 ec 3d 11 cb 17 be f7 d9 35 be 20 6d 75 3d
       0.115509994 -0.14823557 -0.17758928 0.059918523
0001b0 ed cf 4a bc 38 3f 9d bc 12 14 3b 3c 1a c3 23 3e
       -0.012378675 -0.019195184 0.011418359 0.15992394
0001c0 2a d3 89 3d 36 bb 4c 3e bf dd 41 3e cd 4b 31 be
       0.067297295 0.1999329 0.18932246 -0.17314072
0001d0 29 ad 2b 3d af 84 55 3e 06 f3 62 3d 60 25 f5 3d
       0.041913185 0.20851396 0.055407546 0.11970019
0001e0 89 7b af bc 1f 20 ec 3d 13 8b b4 bd ba 9f e8 3d
       -0.02142121 0.11529564 -0.08815589 0.113585904
0001f0 e4 95 5c 3e a6 b4 80 bc b1 f3 f0 3d 2f 1e 34 be
       0.21541554 -0.01571114 0.117652304 -0.17589639
000200 27 ef 02 3e 6f b0 04 bd b3 da ba 3d b3 b0 f6 3d
       0.12786542 -0.032394823 0.09123745 0.120454215
000210 eb e5 25 3e 28 f5 00 be 4d b0 85 3c 7e 0e 0b be
       0.16200988 -0.1259352 0.016319418 -0.13579747
000220 e5 22 4a 3e 6a f3 4f 3d e2 35 33 be 3a 2b fb 3d
       0.19739874 0.050769247 -0.17501023 0.12264104
000230 5e 4c d4 bd 17 33 13 3e 3d e7 da 3d 0a 85 47 3e
       -0.103661284 0.14374958 0.106886365 0.19484344
000240 01 d4 af 3d 5e 43 8b bc 2e a9 68 bc 05 3f 2c 3e
       0.085853584 -0.016999897 -0.014200492 0.16820915
000250 c7 56 02 be 27 e9 f0 bc 44 7c ea bb 70 d0 c5 3d
       -0.12728415 -0.02940805 -0.007155927 0.09658897
000260 60 36 48 3e 40 20 3e be 50 2c 56 3e 6e 4d 47 3e
       0.19551992 -0.1856699 0.20915341 0.19463131
000270 1b 8f 3f 3e aa be 9c bc a1 50 a1 bd 59 fe 0b be
       0.18706934 -0.019133884 -0.07876707 -0.13671245
000280 36 95 ff bd 0b d7 ec 3d 29 96 47 be e5 15 8c 3a
       -0.124796316 0.11564454 -0.19490875 0.0010687677
000290 06 ae 10 be 44 74 04 3e 2e 2e 3b be 25 04 20 3e
       -0.14128885 0.12934977 -0.18279335 0.15626581
0002a0 07 95 89 bb d2 79 25 3e 0b dd 86 3d 85 cd 3a bd
       -0.0041986736 0.16159752 0.06585129 -0.045606155
0002b0 ce e7 0f be fd d6 ae 3d ce 21 5d 3e e9 69 8a bd
       -0.1405327 0.085370995 0.21594927 -0.06758482
0002c0 e9 60 fc 3d 80 11 02 3e 56 5d 3a be 6e 98 fa bd
       0.12323172 0.12701988 -0.18199667 -0.12236105
0002d0 7a ad c6 3d 5a d5 1b be 1e b6 70 3d 3e 74 89 bd
       0.09701057 -0.15218106 0.05876743 -0.067116246
0002e0 e4 a6 3a 3c 94 d0 cf bd db 63 ba 3b 41 9b 3f be
       0.011392329 -0.10147205 0.005688173 -0.18711568
0002f0 ed 0e 19 bd f3 66 db bd b8 ea 48 be 94 35 fc 3d
       -0.03736775 -0.107129954 -0.19620788 0.12314907
000300 7a 43 bd 3d 53 bc 04 be 65 fa 56 be 07 66 50 3e
       0.09241386 -0.12962465 -0.20993955 0.2035142
000310 d6 a5 8a 3d f5 e1 88 bd 55 66 d3 3d fe c8 1d bd
       0.06769912 -0.06683723 0.10322253 -0.03852176
000320 7c 13 c7 bd 1f e4 bb 3d 9d dc 70 bc 5c 77 50 be
       -0.09720513 0.0917437 -0.014701036 -0.20358032
000330 1c b4 ff bd f9 96 a2 bc 83 b3 35 bd a3 ba 1d 3d
       -0.12485525 -0.01984738 -0.04436065 0.03850807
000340 1a a9 fc 3c 57 cd 20 be 13 0d 17 3e 42 1d 2b 3e
       0.030842353 -0.15703331 0.14751081 0.1671038
000350 bb 1c 8a 3b 07 9b cc bc e8 81 24 3e ea 23 94 bd
       0.0042148507 -0.024976267 0.1606518 -0.072334126
000360 98 d1 d0 bc 45 98 f5 3c 6f 97 5a 3e a1 8c e9 bd
       -0.025490567 0.029979834 0.2134683 -0.11403776
000370 ef 86 39 bd 49 bc 2b be 88 7c 1b 3e 25 af 3d be
       -0.0452947 -0.16771044 0.15184224 -0.18523844
000380 a1 d2 d5 3d 0c f6 da bd 08 d1 21 3e 74 7c 16 3e
       0.10440565 -0.10691461 0.15802395 0.14695913
000390 0c d4 45 be 54 a1 62 3d 16 37 42 3e 8f b1 22 3e
       -0.1931917 0.055329636 0.18966326 0.15888046
0003a0 e3 d8 1b 3e 70 99 2a bd 6f b9 6f be f3 e0 8b bc
       0.15219454 -0.041650236 -0.23410581 -0.017075038
0003b0 d8 24 0d 3d f9 22 0e 3c 14 f3 0e be 5c 35 5e be
       0.034458965 0.00867533 -0.13959914 -0.21700042
0003c0 a4 82 01 3e 9a 6f f6 bd aa 39 5a be 25 ac c5 3c
       0.12647492 -0.12033005 -0.2131106 0.024129936
0003d0 fc b2 30 3e fb 28 46 3e 85 a6 04 3d 15 05 0b be
       0.17255777 0.1935157 0.032385368 -0.13576157
0003e0 5a 59 5a 3d df ab 5a 3e 58 99 0b be 1e bb 41 be
       0.05330787 0.21354626 -0.13632715 -0.18919036
0003f0 db b9 35 bc 6d 00 3d 3c 59 01 17 3e 9c 6e 05 3d
       -0.011091675 0.011535746 0.14746608 0.03257619

conv3.bias f4 [128]
000000 6d 33 3d b9 a7 5d 40 3a c3 7b 8c 3a e2 a7 88 ba
       -0.00018043602 0.0007338174 0.0010718036 -0.001042601
000010 2c 02 e2 39 84 db 94 b7 74 67 91 3a db 3c 84 ba
       0.00043107697 -1.7745195e-05 0.0011093454 -0.0010088937
000020 22 77 e8 b8 a6 49 60 ba fc 86 37 3a 94 22 5f 3a
       -0.00011084812 -0.00085558963 0.000700101 0.00085119274
000030 cf 91 f3 b8 2c 09 06 ba 69 b2 32 3a 05 92 8e ba
       -0.00011614302 -0.0005113061 0.00068167463 -0.0010877257
000040 a1 8c 85 3a f3 0e 1a 3a 69 33 c8 38 0d 01 af 38
       0.0010189005 0.00058768614 9.546319e-05 8.344846e-05
000050 20 01 dd b9 52 d0 80 ba c5 d5 22 ba 91 d5 18 ba
       -0.00042153243 -0.0009827709 -0.0006211664 -0.0005830164
000060 41 06 68 ba e0 83 97 ba 49 71 e1 b9 43 e3 cc b9
       -0.00088510296 -0.0011559688 -0.00042999748 -0.00039079235
000070 65 ed 71 3a 00 d9 48 b9 e3 a5 56 3a 4d 51 1b b9
       0.0009228795 -0.00019154325 0.0008188171 -0.00014812239
000080 6f 40 20 ba 74 77 93 ba d7 cd 1b ba 5c fd 08 b9
       -0.0006113117 -0.001125081 -0.0005943453 -0.00013064354
000090 28 01 63 39 0d 38 41 3a 13 f4 63 ba cc 85 07 37
       0.00021648838 0.0007370718 -0.00086957327 8.077779e-06
0000a0 8d db d9 37 1c 7a 8f ba 98 5a c8 39 91 88 08 39
       2.5970652e-05 -0.0010946426 0.0003821447 0.00013020846
0000b0 72 a5 c5 38 a0 ef 21 3a 27 ed 13 ba 3c 7c e2 39
       9.4245086e-05 0.00061773695 -0.00056429434 0.0004319864
0000c0 70 1f 93 b9 2b 4d 66 ba 9c 87 6b 39 4f 21 02 ba
       -0.00028061448 -0.00087853026 0.00022461865 -0.000496407
0000d0 ce ef 18 3a df d2 37 ba 7d fa 50 b9 71 57 18 39
       0.00058340735 -0.0007012318 -0.0001992974 0.00014528424
0000e0 58 22 a8 38 4f 48 37 ba 0f c3 61 ba a8 29 19 b9
       8.017261e-05 -0.0006991671 -0.0008612135 -0.00014606735
0000f0 10 20 16 ba f7 0d b7 39 49 d7 f7 39 8a c6 6f 3a
       -0.00057268236 0.00034914885 0.0004727191 0.0009146711
000100 84 71 cd 39 dd 45 9f b9 bd 32 63 ba a7 65 94 3a
       0.00039185223 -0.00030378895 -0.00086669234 0.0011321799
000110 4f dd 01 ba 15 7c 00 b9 d8 e3 8f 39 11 c4 96 b9
       -0.0004953937 -0.00012253255 0.00027444842 -0.0002875631
000120 c7 1f df 39 9d c8 5b 38 0d 7e 94 3a 42 6e 4f ba
       0.0004255755 5.2400505e-05 0.001132907 -0.0007912853
000130 da 6b e2 b9 37 57 27 ba a7 4c 85 3a 26 cd 94 3a
       -0.00043186435 -0.00063835405 0.0010169939 0.0011352643
000140 e9 d8 61 3a 6a 5b aa ba 78 87 1e b9 d8 8a b4 39
       0.0008615391 -0.0012997214 -0.0001511852 0.00034435722
000150 d1 53 b3 38 88 e0 50 3a 33 e2 0d ba 78 35 76 39
       8.550997e-05 0.0007968028 -0.00054124295 0.00023480307
000160 39 29 16 ba f0 e5 77 b9 c9 4c ca b9 9b 5f 5d b9
       -0.00057281886 -0.00023641414 -0.00038585652 -0.00021111818
000170 e1 0a 63 3a 94 8a 08 b8 c1 56 e6 b9 56 73 22 3a
       0.0008660984 -3.2553988e-05 -0.00043933655 0.0006196996
000180 fa 45 02 ba d2 b5 36 3a 5e 34 cd b9 8a 81 77 3a
       -0.0004969534 0.00069698424 -0.00039139664 0.0009441605
000190 dc 01 84 ba 26 74 9f b8 d9 76 d7 38 6a d8 3a b9
       -0.0010071355 -7.603345e-05 0.00010274136 -0.00017818963
0001a0 67 46 60 3a fa ef 59 ba e3 df 2d ba 26 7d a3 b9
       0.00085554126 -0.00083136524 -0.0006632788 -0.00031183026
0001b0 08 01 c6 b9 30 70 5a b9 c2 5a ff b9 d8 12 ad 38
       -0.0003776627 -0.00020831893 -0.0004870501 8.252793e-05
0001c0 87 db 06 ba 52 9d 8e 39 e8 01 95 3a e6 d4 69 ba
       -0.00051444065 0.00027201563 0.0011368366 -0.0008919969
0001d0 bc 7b 7f b9 0e 01 f6 ba 89 7f 69 3a b5 f0 a5 39
       -0.0002436479 -0.0018768625 0.0008907249 0.00031650593
0001e0 5b 85 e1 b9 0c 48 4d 3a c9 49 98 39 72 07 fc 39
       -0.00043014702 0.0007830865 0.00029046673 0.00048070733
0001f0 65 e5 44 3a 2f a7 42 ba 20 8f 8a 3a e8 cc be 39
       0.0007510989 -0.0007425425 0.0010571219 0.0003639229

conv3.lin.weight f4 [128, 64]
000000 ce f5 52 bd 2d fd 42 be 95 97 8a bd 3d e4 38 be
       -0.05150395 -0.19041891 -0.06767193 -0.18055816
000010 85 8d 1a 3d 3c 44 3c 3e 67 84 07 3e d0 2e 0e be
       0.03773262 0.18385404 0.13234101 -0.13885045
000020 f2 55 ba bd b1 b7 f3 bd 59 b6 c9 bd db 0c b6 bd
       -0.09098424 -0.11900271 -0.09849233 -0.08889171
000030 5a 8c fb 3d fc d1 2e 3e a1 68 51 bd a1 82 1c be
       0.12282629 0.1707229 -0.051125173 -0.15284206
000040 f6 27 4d 3d 78 39 71 3d 9d 8d 5c bd 66 c4 0c be
       0.050086938 0.058892697 -0.05384599 -0.13746795
000050 57 08 96 3c 9b 75 b6 bd 73 78 5c 3d 27 93 6e 3d
       0.018314524 -0.0890915 0.053825807 0.058245804
000060 57 5f 73 3c fd 5b 0e be 06 3a 4f 3d 6b f8 a3 3c
       0.014854274 -0.13902278 0.050592445 0.020015916
000070 2c f9 8d bd e2 f2 30 be b4 4d 82 3d c0 14 54 3d
       -0.069322914 -0.17280152 0.06362477 0.0517776
000080 3e c4 83 bd a1 d1 f0 bc f2 32 c8 bc 12 0d 2a 3c
       -0.064339146 -0.029396834 -0.024438355 0.010379093
000090 70 92 fd 3d 01 66 26 bd 4a 5c 1d 3e ed 34 b4 3c
       0.12381446 -0.040624622 0.15367237 0.021997893
0000a0 ef 68 a5 3c b0 6e 26 be 90 c9 1d 3e f2 9b 01 3c
       0.020191638 -0.16253161 0.15408921 0.007910715
0000b0 05 ea f9 3d 22 73 b8 3c 9a d2 41 bd 56 b6 8c 3d
       0.12202839 0.022515837 -0.047319986 0.06870715
0000c0 1e 6b 7f 3d 8f 40 3f be 8d 43 2a 3d b5 75 59 3d
       0.062358014 -0.18676971 0.041568328 0.05309077
0000d0 f8 dc 7a 3d 32 d2 3c bc 45 f0 bc 3d fc f1 cc bc
       0.06124589 -0.011524724 0.09225515 -0.02501773
0000e0 94 4f d7 bc 0e fe b5 bd 54 1c 3b 3d 70 df 2d be
       -0.026283063 -0.08886348 0.045681313 -0.16979766
0000f0 5c ae 11 be 67 a3 d9 bd aa 56 33 3e 30 6d f0 3c
       -0.14226669 -0.1062687 0.17513528 0.02934894
000100 2c c6 a4 bd 28 a2 18 be 97 06 ab 3d 87 81 96 bd
       -0.08045611 -0.14905608 0.08350866 -0.07348924
000110 17 bb 97 3c 37 9e 88 bd 88 b7 01 be 97 1f e4 3d
       0.018521829 -0.06670802 -0.12667668 0.11138838
000120 d7 de cc bd e1 05 ff 3b 54 ab 31 be ea f3 b8 3c
       -0.10003441 0.0077826832 -0.17350513 0.022577245
000130 c6 cc aa 3c 05 60 8b 3c c0 74 19 bd 58 44 27 3e
       0.020849597 0.01701356 -0.037464857 0.16334665
000140 76 94 a0 bc 60 a4 98 bd af 29 1f be 8e b6 17 be
       -0.019602042 -0.07453227 -0.15543245 -0.14815733
000150 74 70 f4 3d 74 35 9e bd 51 16 f7 bd 63 63 ad 3c
       0.11935511 -0.07725039 -0.120648034 0.021165555
000160 7d 3e 4e 3d 59 e4 23 3e 0d f8 ba bd 61 12 28 be
       0.050352562 0.16005076 -0.09129343 -0.16413261
000170 51 fd c8 3d b0 41 9b 3c 5c 56 f9 3c a2 47 b9 bd
       0.09813941 0.01895222 0.030436687 -0.09046866
000180 f7 3d 31 3d 25 23 ab 3b f3 89 90 3d 08 3b 1f be
       0.043271985 0.0052226954 0.07057562 -0.15549862
000190 3c a2 ca 3d ce a7 1c 3e 75 1d 7a bd 7a 4a 24 3e
       0.09894225 0.15298387 -0.06106325 0.16044036
0001a0 7f d5 b0 3d cf 2f 03 3e 23 ec ad bd 0b 86 a4 bc
       0.08634471 0.12811206 -0.08492305 -0.020083448
0001b0 6b d2 f3 bc f7 bb 01 be 4a cd 1f be 93 1e c7 bd
       -0.029763421 -0.12669359 -0.15605655 -0.097226284
0001c0 69 b2 78 3d f6 f4 ad 3d e2 da e1 bc bc 2b 77 bd
       0.06071702 0.08493988 -0.027570192 -0.060344443
0001d0 16 c2 c6 3d 11 59 bb 3d 72 ed cb bd 5e 48 18 3d
       0.09704988 0.091478474 -0.099573985 0.03717839
0001e0 5f ac 43 be 0d 5e 04 3e 4a dc e8 bd 40 3d 7d bd
       -0.19108723 0.12926503 -0.11370142 -0.06182599
0001f0 cc e2 e2 3c e0 8a c0 bd 13 67 0e 3e 67 bb 39 3d
       0.027696036 -0.09401488 0.13906507 0.045344736
000200 d2 d0 19 3d 65 f0 e8 bc 68 e5 07 3e de 48 db bd
       0.037552662 -0.028434942 0.13271105 -0.10707258
000210 31 08 b6 bd e9 bc a8 3d 88 73 0c 3e 77 6e 5c bd
       -0.08888281 0.08239157 0.13715947 -0.053816285
000220 8f f7 57 3d 4f de c3 3d ae c9 f7 3c 00 a4 da bc
       0.052726325 0.095638864 0.030247536 -0.02668953
000230 55 f6 a1 3b c3 be 08 3e 5c 25 94 3d cd e4 f4 3d
       0.004942695 0.1335402 0.07233688 0.11957703
000240 85 9a 12 be 77 22 12 3d ac 36 1b be 17 b4 9c bd
       -0.14316757 0.0356774 -0.15157574 -0.07651537
000250 6e 90 65 bd bc 4d 71 bd a2 c2 77 bd a5 a2 09 3e
       -0.056045942 -0.058912024 -0.06048835 0.1344095
000260 42 6a 43 be aa a7 7b 3d dc 92 a9 3d 87 a1 99 bc
       -0.19083503 0.061439194 0.08279964 -0.01875378
000270 21 87 71 bd fc 7d 87 bd 7a ba e3 3d e0 1e a9 bb
       -0.05896676 -0.066158265 0.11119552 -0.0051611513
000280 74 1e a0 3d 9f 56 ad bc ad 8f 03 3d 7a 7e 41 3d
       0.078183085 -0.021159468 0.03211944 0.047239758
000290 83 5b 30 bd e0 7a 96 bd 4e ba ab 3b 11 51 03 bd
       -0.043056022 -0.07347655 0.005240715 -0.032059733
0002a0 da e0 07 3e a1 c3 39 bd d9 8d 12 3e 94 37 b5 3d
       0.13269368 -0.045352582 0.14311923 0.08848491
0002b0 71 0a 1b 3e 83 fd 23 3e a4 df 9c bc d8 20 23 bd
       0.15140702 0.16014676 -0.019149609 -0.039826244
0002c0 43 bb 22 3e e8 9d 19 be 50 8e d8 3c 2d 32 12 bd
       0.15891747 -0.15001643 0.026435047 -0.035692383
0002d0 cd 23 e5 bd a7 46 5f bd 0d 46 dd bd 36 95 07 3e
       -0.11188469 -0.05451074 -0.10804377 0.13240513
0002e0 1a 20 0f be 23 2a b2 bd 47 45 3d be 9f 4f 3b bc
       -0.1397709 -0.08699443 -0.18483458 -0.011432557
0002f0 32 68 22 3e bd 93 11 3d b4 90 08 3d 5b 5d 99 3d
       0.1586006 0.035541285 0.033341125 0.07488509
000300 74 2c be bd a7 32 85 b8 f6 f1 4a bd df 0a 38 bd
       -0.092858225 -6.351369e-05 -0.04954716 -0.044932242
000310 4f c8 1d 3d ce 78 d0 3d 00 f7 03 3e 2d f4 4e 3b
       0.038521107 0.10179292 0.12887192 0.0031578646
000320 bc 9c f6 3d 56 2f a7 bd b0 41 a9 bd c3 f6 0a be
       0.120416135 -0.081633255 -0.08264482 -0.13570695
000330 29 75 34 bd 5e 65 5a 3d 25 e7 ab bd e5 d8 c1 bd
       -0.044057045 0.053319328 -0.08393697 -0.094651975
000340 b1 bb 9c 3d e9 4c d2 3d a2 c9 e9 bd d6 5a f4 3c
       0.07652987 0.10268576 -0.114154115 0.02982847
000350 7b db d9 3d 9b 63 05 bd f4 7f f5 bd 8e 5f ba bc
       0.10637566 -0.032565694 -0.11987296 -0.022750642
000360 6d d6 a0 bc 03 52 e7 bd 34 d1 6a 3d 51 85 a0 bd
       -0.019633496 -0.11294939 0.057328418 -0.07837928
000370 9a a1 bd 3d 4b dd e1 3d 99 28 f8 bd 28 1c 0b be
       0.09259339 0.110285364 -0.121171184 -0.1358496
000380 c1 16 12 3e 5b d3 e6 3d cd ff 93 3c ad 90 82 bd
       0.14266492 0.112707816 0.018066311 -0.06375251
000390 55 ad 13 3e c5 5a 39 be 1d c1 c7 3d 2f 33 1c 3e
       0.1442159 -0.18101032 0.0975363 0.152539
0003a0 1b 8e e2 39 3e 18 23 be 9a 4d e4 bd fc 3b 94 3d
       0.00043211956 -0.15927216 -0.11147614 0.072380036
0003b0 e9 bd 3c 3e 57 1c 37 3d 30 7c 13 be 5e c7 32 be
       0.1843182 0.04470476 -0.14402843 -0.17458865
0003c0 08 00 1d be fd 19 01 3d c6 14 57 bd 75 eb be bc
       -0.15332043 0.031518925 -0.052510045 -0.023305634
0003d0 cc 21 a0 3d 3b 31 1d 3d 7a 65 af 3d b6 16 0f bc
       0.07818946 0.038377028 0.08564277 -0.008733442
0003e0 1d d0 cc bc 65 b2 3c bd b7 e3 01 be 7d 73 03 be
       -0.02500158 -0.046068568 -0.12684523 -0.12837024
0003f0 de 8e f2 3d 38 d5 f5 bc 9e 13 63 bd 89 07 11 be
       0.11843656 -0.030008897 -0.05543863 -0.1416303

conv4.bias f4 [256]
000000 b9 55 b2 bc c6 4d bb bc f3 c1 a6 3c 21 57 6f 3c
       -0.021769391 -0.022864234 0.020356154 0.0146081755
000010 3d cf d3 3c 91 ff a8 bc 92 4f af 3a 10 24 b9 3c
       0.025855655 -0.020629676 0.0013375154 0.022600204
000020 ad 93 a6 3c 84 aa b2 bc 35 52 e0 3c 20 2b b9 bc
       0.02033409 -0.021809824 0.02738295 -0.022603571
000030 bf 88 ce 3c 85 78 b1 bc 3f 7a b8 bc 03 f5 be bc
       0.02521169 -0.021663914 -0.022519229 -0.02331019
000040 dc cb a6 bc ed a2 8d 3c a9 6b bb bc f3 fd 7c 3a
       -0.02036088 0.017289603 -0.022878485 0.00096508785
000050 31 58 ad bc 93 54 c4 bc 9e f1 d1 3c 92 d5 6b bb
       -0.021160217 -0.02396611 0.025627907 -0.0035985452
000060 71 e3 a9 3c f8 57 d8 bc 50 ac 9f 3c fd 6c c8 bc
       0.020738335 -0.026409134 0.019491345 -0.024466032
000070 c9 74 e7 bc 41 6a aa bc 67 5c 02 3c f3 6a aa 3c
       -0.02825393 -0.020802619 0.007956601 0.02080295
000080 7a c5 aa bc 1d 12 ea 3c 10 90 a8 bc 10 da 83 3c
       -0.020846117 0.02857309 -0.020576507 0.016095191
000090 d5 63 c0 bc da b2 05 bc 8b 8c 60 3b 0f b5 8e 3c
       -0.023485104 -0.008160317 0.0034263458 0.01742032
0000a0 d6 8a b7 3c dd d1 a3 3c c7 6c ab bc dc 4c c3 3c
       0.02240507 0.019997532 -0.020925893 0.02384036
0000b0 41 6d 18 bc fa b0 96 3c df 97 c0 3c 9a 2c ae 3c
       -0.009303392 0.018394936 0.023509918 0.021261502
0000c0 a8 bf 93 3c ab dd 55 bc 27 4d ba bc f3 74 c1 bc
       0.018035725 -0.013053338 -0.022741867 -0.023615336
0000d0 3b 91 92 3c e6 be c9 bc 7c dd 45 3c 50 ff 9b 3c
       0.017891517 -0.02462716 0.012076732 0.01904264
0000e0 e9 fe ed 3c 2a 97 cd bc 7a f8 97 3c 6d 9d 8e 3c
       0.029052215 -0.025096495 0.0185511 0.01740905
0000f0 d1 07 06 3b e9 28 dc bb a3 3f a4 3c 2c 19 ac bc
       0.0020451436 -0.006718744 0.020049876 -0.021008097
000100 ef 91 a7 bc aa a6 9c 3c e9 23 4b bc 11 a1 a3 3b
       -0.020455329 0.01912244 -0.012398698 0.004993566
000110 70 2b b7 bc ac 58 b3 3c 03 8a 17 3c 61 18 a7 bc
       -0.02235958 0.021892868 0.009249213 -0.020397367
000120 1e e4 03 3c 08 a4 d9 bc 36 05 a3 3c 9f 6c c8 bc
       0.008049993 -0.026567474 0.019899946 -0.024465857
000130 9f 3b b4 bc d9 f8 a6 bc 6b a2 a2 bc 99 65 c5 ba
       -0.022001086 -0.020382332 -0.019852838 -0.0015060186
000140 07 f5 9e bc a5 ee 60 bc fb 61 a3 bc 0e 08 8d 3c
       -0.019403948 -0.013728772 -0.019944182 0.017215755
000150 af d8 23 bc 1e ee bf bc 5c 32 98 bc 54 68 bd 3c
       -0.010000392 -0.023428973 -0.0185787 0.023121037
000160 ba af 87 3c 5a 78 55 bc 5e cb 9e 3c 56 1f a9 3c
       0.016563285 -0.013029182 0.019384082 0.020644825
000170 e2 b5 86 bb 74 c1 ab bc 54 98 d1 3b 7f 43 b5 bc
       -0.0041110376 -0.02096627 0.0063963328 -0.022126911
000180 88 ea e1 bc 11 5f cd 3b a1 93 67 3c a5 a8 c8 bc
       -0.027577654 0.0062674363 0.014134319 -0.024494478
000190 fe d8 4b 3c a3 45 bd 3c ef 77 cb 3c 00 7c 3f 3c
       0.012441872 0.023104494 0.024837462 0.011687279
0001a0 54 f1 b1 3c fb 3b b5 3c 1a a0 b7 bc 43 87 97 bc
       0.02172152 0.022123327 -0.02241521 -0.018497115
0001b0 02 6e c0 3c bd 75 ae bc ff 43 98 bc cb 37 e0 3c
       0.023489956 -0.021296376 -0.01858711 0.027370354
0001c0 41 2e d5 3c 58 15 e5 bc e5 f7 b3 bc 3b f8 e2 bc
       0.026023032 -0.027964279 -0.021968791 -0.027706256
0001d0 61 2c ba bc 92 07 57 bc d2 cb 8b bc 62 10 f1 bc
       -0.02272624 -0.0131243635 -0.017064963 -0.029426757
0001e0 aa a4 92 bc f0 e6 a7 3c f7 5e e8 3c ff a1 bb 3c
       -0.017900784 0.020495862 0.028365595 0.022904394
0001f0 b1 ff e4 bc 73 54 b3 bc 29 c7 7b 3c 34 d9 f4 bc
       -0.027953954 -0.021890854 0.015367308 -0.029888727
000200 f1 09 c5 3c 04 9b a5 3c ff 73 b5 bc 6e 4c a0 3c
       0.024052592 0.020215519 -0.022150038 0.019567695
000210 b6 a9 9f bc ee f7 c4 3c 4b af b0 bc 22 69 3a 3c
       -0.019490104 0.024044003 -0.021567961 0.011377605
000220 1b 63 e7 3c be ee a8 bc bc 02 a5 bc df 1a ad 3c
       0.0282455 -0.020621654 -0.020142905 0.021130977
000230 4a b2 94 bc 1e ce 8b bc ac 42 8a 3c e2 a4 9a 3c
       -0.018151421 -0.017066058 0.016877495 0.01887745
000240 c1 10 a6 3c bd bc db bc b4 6d d6 3c 60 d3 99 bc
       0.02027166 -0.026823396 0.026175357 -0.01877755
000250 5e d2 dc 3c f2 31 b1 bc c8 5f ba 3c 9f 4a 7a bb
       0.02695578 -0.021630261 0.02275075 -0.003819145
000260 63 70 b1 bc 28 7a 4b bc 68 d7 c2 3c 0a 50 54 3c
       -0.021660035 -0.012419261 0.023784354 0.012958536
000270 bf ee a7 bc 7b e1 9d bc 30 66 c3 bc 54 b6 bc b8
       -0.020499585 -0.019272557 -0.023852438 -8.9985e-05
000280 24 17 87 3c ac 9f 68 bc ad 52 c3 3b 08 72 9f 3c
       0.016490526 -0.014198225 0.0059607835 0.019463554
000290 28 d0 98 bc 8d 15 86 3c f3 83 a9 bc 6b 03 5d 3c
       -0.018653944 0.016367698 -0.020692801 0.013489584
0002a0 86 d8 d0 bc 7c 2b 8d 3c cd bf d4 bc 6f 8d b5 3c
       -0.025493871 0.017232649 -0.025970364 0.022162167
0002b0 1e 99 e8 bc 8f b9 4a 3c 9e 8e b1 3c fd 73 e0 bc
       -0.028393324 0.012373342 0.02167445 -0.027399058
0002c0 8c 5b 67 bc a3 c5 ae bc e3 5c e1 3c 8f 99 80 bc
       -0.014120948 -0.021334475 0.027510112 -0.015698222
0002d0 08 ee 85 3c 88 3c de bc 73 5c 2b 3c 8f 24 84 3c
       0.016348854 -0.027128473 0.010459053 0.016130714
0002e0 e5 d8 fb 3c 59 5d c3 bc b0 4a bc bc 55 b0 b2 bc
       0.030743072 -0.023848223 -0.022984833 -0.021812597
0002f0 69 db e1 bc f2 a4 ad bc 87 eb bb bc f7 f9 80 3c
       -0.027570443 -0.021196816 -0.022939457 0.015744193
000300 78 ba b1 3c 02 85 b6 3c b9 f3 b5 3c 9f 57 b9 bc
       0.02169536 0.02228022 0.022210943 -0.022624789
000310 c1 f9 7f 3c 9f 7c c6 3c ad de e7 3c d1 20 ce bc
       0.015623511 0.024229346 0.028304422 -0.025162132
000320 bf 6f f0 3c a0 63 b9 3c bc c7 6d 3c 99 21 ce bc
       0.02935016 0.022630513 0.014512952 -0.025162505
000330 6f 34 d3 bc 18 56 a7 3c 8d 9e c3 3c 88 2e bd 3c
       -0.025781838 0.020426795 0.023879314 0.023093477
000340 0a 54 b0 3c 87 5d e0 bc a5 ac a5 3c 61 e7 b4 3c
       0.021524448 -0.027388347 0.020223925 0.022082986
000350 88 2f db 3c ba 6e b8 bc 77 d4 d4 3c 6e 9d 9e bc
       0.026756063 -0.022513736 0.025980217 -0.019362178
000360 48 a9 91 3c 00 70 3c 3c 18 c3 0e bc 4d 13 ae bc
       0.017780915 0.011501312 -0.008713506 -0.021249438
000370 96 bd ba bc 43 ee a7 bc c8 e4 2d bc 09 32 ac 3c
       -0.02279548 -0.020499354 -0.010613628 0.021019952
000380 ca 8a 86 bc 3d 21 b1 3c b3 2e c7 3c a1 4e a8 bc
       -0.016423602 0.021622295 0.02431426 -0.020545306
000390 ee 51 b3 3c b9 c0 a8 3c 3f 7e 9a 3c d3 44 5d bc
       0.021889653 0.02059971 0.018859027 -0.0135051785
0003a0 aa 89 e3 bc bf 71 d3 bc 9f 38 e4 bc 88 c0 ad 3c
       -0.027775604 -0.025811074 -0.02785903 0.02120997
0003b0 a5 f4 b0 bc 78 1f b5 3c c3 8b 5e 3c a6 46 95 3c
       -0.02160103 0.022109732 0.0135831265 0.018222164
0003c0 5c 4e a7 bc 6c 88 b7 bc 55 3d ad 3c cc f4 aa 3c
       -0.020423107 -0.022403918 0.02114741 0.020868681
0003d0 0b e6 ab 3c e3 21 80 3c c8 e0 b0 bc f1 1e b1 3c
       0.020983716 0.015641158 -0.021591559 0.0216212
0003e0 77 f7 bc 3c f8 03 d3 3c d1 78 c5 bc 5b 4e 9c 3c
       0.02306722 0.025758728 -0.024105461 0.019080332
0003f0 17 7a 96 bc 4a 74 c4 bc d7 90 a1 bc 61 46 ba bc
       -0.018368764 -0.023981232 -0.019722385 -0.022738637

conv4.lin.weight f4 [256, 128]
000000 24 7f 54 bd de 19 1f bd f7 58 d1 3d 5d c0 d5 3d
       -0.051879063 -0.03884303 0.10222047 0.10437081
000010 82 ba 06 3e 47 a0 4d bd 51 e7 14 be 8f c9 04 be
       0.13157085 -0.05020168 -0.14541365 -0.12967514
000020 d4 ff c2 bd 10 38 a1 3d 0e 4b ef 3d a1 24 27 3d
       -0.095214516 0.07872021 0.116842374 0.040806416
000030 58 f1 06 bd 80 36 d0 3d 9e 13 fa 3d 59 5a 8b 3d
       -0.032945007 0.10166645 0.12210773 0.06804342
000040 f6 8f 3a bd eb f6 94 bc b9 df 74 bd 16 1a 0d 3d
       -0.045547448 -0.018184146 -0.05978367 0.034448706
000050 a2 6a 32 3c 82 45 b7 bc 86 1f ed bd 7e e4 00 3e
       0.010889681 -0.022372011 -0.11578278 0.12587163
000060 54 79 da bd b8 0d 99 bd 86 2c 11 3e ef fd 56 bd
       -0.10667673 -0.0747332 0.1417714 -0.052488264
000070 be 18 01 3e 5a b2 81 3d 34 30 6a 3d a4 a2 b4 bd
       0.12607095 0.06332846 0.057174876 -0.08820084
000080 36 af dc 3d 46 ce 01 be 94 48 02 bd 50 f4 72 3b
       0.10775606 -0.12676343 -0.031807497 0.003707189
000090 a1 c7 fd bd 3b 14 40 bd 35 a0 95 bd 58 93 3c bd
       -0.12391592 -0.046894293 -0.07305948 -0.046038955
0000a0 37 1c bc bd ca 73 08 3e 9d 15 c3 bc 95 d6 8f 3c
       -0.09185069 0.1332542 -0.023814017 0.017558375
0000b0 b8 a8 40 3d 1b 61 f9 bd 57 9c a9 3d 5e 55 fa 3d
       0.047035903 -0.121767245 0.082817726 0.12223314
0000c0 18 81 88 3d a4 59 ae 3c f9 b9 7f 3d 9f 50 7d 3d
       0.06665248 0.021282978 0.062433217 0.061844464
0000d0 65 65 be bd 1d 9c 82 3b b7 d6 bf 3d 38 4c 14 be
       -0.09296683 0.0039858953 0.093671255 -0.144822
0000e0 12 22 50 3c 1f d1 07 be d4 cb be bc fd 2e b9 bd
       0.0127034355 -0.13263367 -0.023290552 -0.090421654
0000f0 3a b9 cf bc 6d 2b f8 bd fc c9 8c 3c 67 0e 85 3d
       -0.025356878 -0.12117658 0.017186157 0.06496888
000100 11 93 76 3d 5b f4 c5 3d 26 7d 85 bd a8 13 2e bd
       0.060198847 0.09665748 -0.06518011 -0.042499214
000110 8e bc 36 3d 3d 48 3b bc 80 c1 b9 bd 96 af 3d 3d
       0.044613414 -0.011430797 -0.0907011 0.04631003
000120 79 ab 14 3e 9f c7 15 bd 7b 42 77 bd 48 a5 4c 3d
       0.14518537 -0.036567327 -0.060366135 0.049962312
000130 58 0c 1a 3d 83 bd db bc 2b 14 38 bd b4 e0 b8 bd
       0.03760943 -0.026823765 -0.04494111 -0.09027234
000140 20 7b d5 3d 30 8c e4 bd 21 9a 9a 3d c5 b1 c0 3d
       0.10423875 -0.11159551 0.07548929 0.09408907
000150 8e 11 6c bd 8e 88 b8 3b 2a e1 bc bd af dc 12 be
       -0.05763393 0.005631513 -0.09222634 -0.14341997
000160 bb ae 4f 3d 7b 6d 33 bd 99 fc 1b bd 50 dc eb bd
       0.050703745 -0.04380558 -0.038082693 -0.11516631
000170 0b 3d 23 bd ba 3b 91 3d 29 f5 78 bd e0 a5 3a bd
       -0.039853137 0.0709147 -0.060780678 -0.045568347
000180 37 16 9e 3d 9a 7f 91 3b 31 f8 c0 bd 5c 02 cc bc
       0.07719081 0.00444026 -0.09422339 -0.024903469
000190 25 6f 14 3e c0 1d bb 3d a2 da a3 3d 99 28 5b 3d
       0.14495523 0.09136534 0.08000685 0.053505514
0001a0 b8 7e 06 be 65 92 81 bd f7 c6 59 3c ab 5b 75 bd
       -0.13134277 -0.06326751 0.013292066 -0.059901875
0001b0 47 1e d1 3c d5 65 56 bd 72 b0 11 3e 54 c6 12 3e
       0.025527133 -0.05234321 0.14227465 0.14333469
0001c0 6a 98 e1 3d ea d3 4c 3d 89 4d 4b bd 08 a0 a9 3d
       0.11015399 0.050006784 -0.04963449 0.08282477
0001d0 4b ac 16 be d7 5f 95 3d e1 5b f7 bd ae d5 d3 3c
       -0.14714162 0.072936706 -0.120780714 0.025858726
0001e0 38 46 0c bd 05 5e da bc 7e b6 9a 3c d9 b2 1a bd
       -0.034246653 -0.02665616 0.018885847 -0.03776822
0001f0 a2 83 bd bd 84 b8 91 3c df 35 37 bd 75 70 80 bd
       -0.092536226 0.01778818 -0.04472911 -0.062714495
000200 f0 2e b3 3d c3 22 0f be 6e 66 01 be ac 38 64 3d
       0.08749187 -0.13978104 -0.1263673 0.05571811
000210 f8 ec d3 bc e5 0c 87 3c f4 78 15 bd 03 06 ba bc
       -0.025869831 0.01648564 -0.036492303 -0.022707945
000220 14 a3 e3 bc 15 3b 7a bd 43 df f7 bd b3 6d 0d 3e
       -0.027787723 -0.0610915 -0.12103131 0.13811378
000230 e0 87 af 3d 63 bf 0a be 34 c6 b1 3d f9 7f d8 bc
       0.08570838 -0.1354957 0.08680382 -0.02642821
000240 b3 fd 4a bb 30 f1 c2 3d a8 b6 b7 bd 08 46 b5 3c
       -0.003097397 0.09518659 -0.08970386 0.02212812
000250 13 88 4c bd 1f a2 11 3d fe 00 93 bd bf ff cd 3d
       -0.049934458 0.035555 -0.071779236 0.10058545
000260 db 73 90 3d 93 01 e3 3d 49 a8 c9 bd ee 29 a6 bd
       0.07053348 0.11084285 -0.09846551 -0.08113466
000270 c7 8a 06 3e cb 20 b1 3b d0 74 fd bc 85 d3 1c bd
       0.13138877 0.0054055206 -0.03093949 -0.03828766
000280 5c 71 04 be ce ed d1 3c f2 28 42 3d 1f 0e f7 3c
       -0.12933868 0.02562609 0.04740233 0.0301581
000290 dc df 7d bd 3b 40 e1 bd cb 84 d0 3d 61 7c 8c bd
       -0.061981067 -0.10998579 0.10181578 -0.06859661
0002a0 74 9a 75 bd a0 b3 be 3d 00 20 dc 3c 45 5a 0d 3d
       -0.05996175 0.093116045 0.026870728 0.034509916
0002b0 4f 7a 9d bd 92 1a 4e 3d 62 06 02 3b 70 a3 7f 3d
       -0.07689344 0.05031831 0.001984023 0.062411726
0002c0 57 c8 c9 3d eb 24 0b 3e 6a 3e 7c bd c3 53 09 3e
       0.09852665 0.13588302 -0.06158296 0.13410859
0002d0 71 c2 c9 3d 5e 26 f5 3c 8b 11 d9 3d 18 10 af bb
       0.0985154 0.029925521 0.10599049 -0.0053424947
0002e0 59 3a 3c 3c fa 81 a3 bd 66 e8 12 be 07 97 91 3d
       0.011488521 -0.079837754 -0.14346465 0.07108884
0002f0 46 80 c8 3d 4d 45 c8 3d 89 5a c5 bc d6 e2 01 bd
       0.09790091 0.09778843 -0.024091022 -0.03171047
000300 2f 2d d4 3c 4b cd db 3c 31 12 9a 3d 11 79 28 3d
       0.025900451 0.02683129 0.07523001 0.041131083
000310 56 ee 31 3d 85 de a4 bd 0f 13 71 bd 95 a2 98 bd
       0.043440185 -0.08050255 -0.058856066 -0.07452885
000320 b7 b0 cf bd 40 8b 2c 3d 81 6b 1d bc 95 5e a5 3d
       -0.101411276 0.042124987 -0.00960815 0.08074681
000330 25 80 84 bd 0c 64 bf 3b e8 bd c5 bd c2 03 00 3e
       -0.06469754 0.005840784 -0.09655362 0.12501433
000340 34 17 c2 bd ca dc c0 3d d1 1a 94 bd 2d 3b 79 3d
       -0.09477082 0.09417112 -0.07231677 0.06084745
000350 25 af cb bc 30 e1 c7 bc 34 b7 c7 3d 9c d4 a3 3c
       -0.024863789 -0.02439937 0.0975174 0.019998841
000360 1f d1 7f bd 52 eb 69 3d da d5 1a bc b5 b3 72 bc
       -0.062455293 0.057109185 -0.0094504 -0.014813353
000370 a8 39 88 bc 9a ca 80 bd 86 b1 dd bc ca 41 d9 bc
       -0.016629055 -0.06288643 -0.027062189 -0.026520628
000380 c6 98 9f 3b ad db 11 3e 50 0c 73 bd ca 54 8d 3d
       0.004870507 0.14243956 -0.059337914 0.06900938
000390 f3 d7 14 be 04 a5 68 3d fa 38 bf bd 0c b8 c8 bd
       -0.14535503 0.056797996 -0.09337039 -0.09800729
0003a0 1a a5 56 bd 9a ab 03 be 3e 3c 5a 3d 73 33 d5 3d
       -0.052403547 -0.1285843 0.053280108 0.10410204
0003b0 df 35 82 3d bd 95 34 3d 5e 81 9e bd a8 07 c8 3c
       0.06357931 0.044088114 -0.077395186 0.024417713
0003c0 16 87 50 bd 43 cf 48 3d 3e cc 92 bd 99 25 2c 3d
       -0.050910078 0.049025785 -0.07167862 0.042028043
0003d0 ca 9f 5e 3c 3e b3 e1 3d d4 c7 12 be be 91 88 ba
       0.013587901 0.11020516 -0.14334041 -0.0010419411
0003e0 46 35 64 3d 93 68 45 bd 41 bd e3 3d af ad 12 3a
       0.055714868 -0.048195433 0.11120082 0.0005595339
0003f0 ac 86 c6 3d 57 e2 b7 3d 1e ce 21 bb ed 09 b5 3d
       0.09693655 0.08978718 -0.0024689506 0.08839784

conv5.bias f4 [256]
000000 41 35 e7 38 98 a6 6a 39 8f a0 27 3a de 3f 26 ba
       0.00011024858 0.0002237804 0.00063944695 -0.00063419144
000010 4e b1 8e 38 ec 28 1a 3a 76 5a 4a b9 40 99 63 3a
       6.804113e-05 0.00058807316 -0.0001929792 0.0008682199
000020 01 60 a2 b9 a4 8f 76 3a d0 22 a5 39 2a ff 26 3a
       -0.00030970576 0.00094055594 0.0003149719 0.000637042
000030 71 45 de b9 59 f5 a9 38 c3 45 aa b9 d0 ae 93 3a
       -0.00042394878 8.1042475e-05 -0.00032476903 0.0011267308
000040 62 90 3e ba 83 22 04 3a 3d af 1f 3a 87 82 38 3a
       -0.00072694395 0.0005040543 0.0006091481 0.0007038493
000050 5d cf 2e ba 20 d7 d5 b9 67 dc 9f b9 d9 af cb b9
       -0.0006668473 -0.00040786806 -0.00030491056 -0.00038850194
000060 d3 a8 5a 3a 6b a2 64 ba 77 0f 7f b9 f6 c5 c0 39
       0.0008341197 -0.0008721712 -0.00024324456 0.00036768586
000070 cb d0 11 3a e6 61 43 3a 8f d3 51 ba ad 3b aa 38
       0.00055624236 0.00074532477 -0.0008004242 8.117347e-05
000080 a6 bc 11 3a 62 53 9c 39 a8 d8 28 3a db 26 0b 3a
       0.0005559422 0.00029816764 0.00064409757 0.0005308219
000090 d4 45 29 b9 a2 2a 08 3a 7c 72 22 ba ba bb 97 39
       -0.00016143109 0.0005194341 -0.0006196869 0.00028940832
0000a0 c3 c0 64 ba 96 1e b0 38 c2 2b 90 ba 6c e5 9d b9
       -0.00087262335 8.398031e-05 -0.0010999369 -0.00030116306
0000b0 22 7d 68 b9 46 34 8f ba 51 55 19 3a a6 69 de b8
       -0.0002217186 -0.0010925613 0.00058492 -0.000106054635
0000c0 41 a1 6d 39 b8 f5 40 3a dd ad 32 3a 2a 44 4f 3a
       0.00022662153 0.00073608337 0.0006816069 0.00079065806
0000d0 f8 66 4b ba 9d 71 11 3a 6d bb 16 3a 19 79 25 ba
       -0.0007759179 0.0005548241 0.00057499745 -0.00063122954
0000e0 5e bc 4d ba eb bb 40 37 2a 46 19 39 eb d2 f3 b9
       -0.00078481983 1.1487845e-05 0.00014617355 -0.00046505718
0000f0 0e d9 4a ba f6 01 0f 3a 84 dc 7e b9 41 e7 5f 3a
       -0.0007738032 0.00054553093 -0.00024305476 0.00085412344
000100 a2 48 8c b9 7d 7c b3 b9 71 51 0a 3a 52 22 75 3a
       -0.00026756997 -0.00034234292 0.0005276418 0.00093511224
000110 9a d9 64 3a af ba 2a ba 7f 2c 24 3a 70 3c b1 b9
       0.0008729935 -0.00065128034 0.0006262734 -0.000338051
000120 1d ee f2 39 0e 28 49 ba 20 fe 07 39 1b aa 86 38
       0.00046335245 -0.000767351 0.00012969272 6.4213025e-05
000130 14 df 37 ba 41 a9 32 36 08 8a 4f 38 4a 6d 92 39
       -0.0007014137 2.6622586e-06 4.9481197e-05 0.00027928717
000140 6d f9 38 39 13 de 1e 3a e1 e8 28 3a 9d dc 09 3a
       0.00017640526 0.00060603133 0.0006443393 0.0005259009
000150 77 cd 04 ba 83 c6 03 b9 09 cb 2d b9 c3 6a 64 3a
       -0.0005066017 -0.00012567085 -0.00016574202 0.00087134185
000160 41 8e 60 3a 77 a9 18 ba 10 72 63 3a 28 ab 3a 3a
       0.00085661194 -0.0005823592 0.00086763594 0.0007120841
000170 77 f2 9c b9 9b 6e 80 39 11 79 8a ba f1 01 f6 b9
       -0.0002993529 0.0002449647 -0.0010564645 -0.00046922223
000180 0d 32 50 3a f2 ef 64 ba ee 09 8b ba 88 6e 65 3a
       0.00079420285 -0.00087332644 -0.0010607818 0.0008752127
000190 8f ec 4b 39 e2 1b 07 3a 9a 95 09 3a 22 96 23 38
       0.00019447714 0.0005153996 0.00052484276 3.900205e-05
0001a0 14 d3 51 ba 21 69 81 b9 30 96 18 ba be 82 42 ba
       -0.00080041704 -0.00024683125 -0.00058207195 -0.0007419995
0001b0 c0 2f 1e 3a 5d c2 4b ba 0c de 45 3a 8d ab 11 ba
       0.0006034337 -0.0007772798 0.0007548041 -0.0005556874
0001c0 11 c6 5d ba 67 8b e3 38 c2 89 44 ba a2 ca 6e b9
       -0.0008459995 0.00010850169 -0.0007497334 -0.00022772935
0001d0 ae de f3 39 cd 95 1c 3a f0 57 8d 3a 5f eb fc b9
       0.0004651448 0.000597325 0.0010783654 -0.0004824055
0001e0 20 78 33 b9 95 3e b6 39 84 e6 a0 b9 85 6a b4 39
       -0.0001711552 0.00034760372 -0.00030689326 0.0003441164
0001f0 6a f9 2e ba 77 52 92 b9 64 68 1a 3a 1a 0d 3c 39
       -0.0006674739 -0.0002790873 0.0005890189 0.00017933958
000200 15 5a 4b ba c3 f1 4e 3a e0 8e 27 3a 60 e0 cd b8
       -0.0007757259 0.00078943017 0.00063918345 -9.816955e-05
000210 b4 09 33 39 d3 91 d0 b8 df d4 80 38 d2 0e 3c 38
       0.00017074385 -9.945375e-05 6.143166e-05 4.4836495e-05
000220 5f d7 af b9 1f 36 fb 39 1d 14 27 b9 4d 86 e4 b9
       -0.00033539065 0.00047914774 -0.00015933854 -0.0004358761
000230 b2 b9 05 ba 96 af fe 39 25 36 7e b9 cd cc 94 ba
       -0.0005101218 0.00048577477 -0.00024243498 -0.0011352539
000240 1b 60 7d 39 c1 87 ff b9 c6 f3 0c b9 a7 1b 42 3a
       0.00024163762 -0.00048738535 -0.00013442253 0.0007404633
000250 b3 a8 22 b9 b4 b0 7f b9 08 d3 40 ba 7e 2f cf b9
       -0.0001551237 -0.00024384522 -0.0007355665 -0.000395175
000260 fb 7e 3f 3a c0 ab fd b9 16 13 43 b9 e6 cd 1e ba
       0.00073049933 -0.00048383884 -0.00018603759 -0.0006057903
000270 be 6b 48 ba 13 43 d4 39 d7 0b 34 39 c9 a3 1e ba
       -0.00076454494 0.00040485765 0.00017170548 -0.00060516276
000280 d1 8c ba b9 cc 90 69 3a 0f 8b 55 3a 94 da ca b9
       -0.000355816 0.0008909821 0.00081460265 -0.00038691296
000290 a3 4c 55 ba c0 71 57 b9 1c 66 10 ba 81 e5 76 ba
       -0.0008136725 -0.00020546373 -0.00055083795 -0.0009418354
0002a0 5d 9f 58 ba 25 99 57 39 22 4c f1 b9 1b cc 22 ba
       -0.0008263493 0.00020561049 -0.00046023825 -0.00062102237
0002b0 5c b4 64 ba 73 b6 cf b9 34 46 fb b8 8d df 60 b9
       -0.00087243854 -0.00039618052 -0.00011981689 -0.00021445584
0002c0 0b 91 df b8 c5 c7 3a 3a 6c 29 34 ba af f4 64 3a
       -0.00010660485 0.0007125105 -0.00068726274 0.00087339705
0002d0 6d 1c 3d 3a a1 32 d1 39 22 ed 1f 3a 0f e2 20 ba
       0.00072140136 0.00039901308 0.0006100704 -0.0006137201
0002e0 38 73 e5 39 84 23 65 b8 12 21 c6 b8 4a 57 1e ba
       0.00043764128 -5.463093e-05 -9.4475356e-05 -0.0006040229
0002f0 11 f3 1e ba 04 8c bf 37 42 18 62 3a 2a fc 0b 3a
       -0.00060634414 2.2834174e-05 0.00086248305 0.00053400046
000300 4c f2 2a ba 09 1d 1b ba ee d1 27 ba 16 cf 09 ba
       -0.00065210904 -0.00059171073 -0.00064018264 -0.00052569935
000310 65 44 9b 39 e6 97 c7 39 a1 4e 15 b9 75 a6 8c ba
       0.00029614862 0.0003806941 -0.00014239039 -0.001073076
000320 42 78 49 b9 35 48 2b b9 0b b5 dc 37 b7 e1 64 3a
       -0.00019213653 -0.0001633473 2.6310348e-05 0.0008731144
000330 78 cb d1 b9 51 ca 2c 39 03 c5 55 ba b7 78 94 b9
       -0.00040015182 0.00016478567 -0.0008154662 -0.000283187
000340 d9 d7 88 ba 9f e5 db 39 b3 bb ca 39 5c dc 53 3a
       -0.0010440304 0.00041942016 0.0003866829 0.00080818473
000350 84 05 1f 38 c2 eb 10 3a c1 0b 63 3a dc 38 64 ba
       3.791369e-05 0.0005528295 0.0008661114 -0.00087059825
000360 7a 05 d4 b8 7d 7d 3b b9 ef 2f 04 ba b5 26 36 3a
       -0.00010109968 -0.00017880458 -0.0005042543 0.0006948517
000370 8e 1f 45 39 2e a2 eb 39 98 26 63 ba 75 c6 6f 39
       0.00018799139 0.00044943526 -0.0008665114 0.00022866747
000380 58 a3 03 ba 00 9a 3a ba ec ab 63 ba 58 e9 4c 3a
       -0.00050215935 -0.00071182847 -0.0008684981 0.00078167534
000390 69 63 20 39 5c e6 f7 38 ee a3 3c 3a e5 79 28 ba
       0.00015295822 0.000118207856 0.0007196058 -0.0006426855
0003a0 a2 b6 59 ba a7 fd da b9 4d f3 27 3a 2e 54 be 39
       -0.00083051075 -0.00041769186 0.0006406799 0.00036302343
0003b0 2e e7 8f 39 ef 3a 39 38 75 0e ea b9 02 20 58 3a
       0.00027447328 4.4162323e-05 -0.0004464273 0.00082445156
0003c0 d9 b2 a1 b9 87 24 6b b7 5b e9 51 ba 38 2b 4a ba
       -0.00030841565 -1.4015596e-05 -0.000800749 -0.00077121286
0003d0 c1 a0 2c ba 60 6a a5 b7 51 60 ce 38 64 a3 cc b9
       -0.00065852335 -1.9719067e-05 9.840786e-05 -0.00039031648
0003e0 9b 60 45 ba d1 d0 00 3a f9 e5 0e ba 45 7f 56 ba
       -0.0007529349 0.00049139286 -0.0005451139 -0.0008182417
0003f0 ef ab 90 3a 3a 80 f1 b9 cb 8a ca b8 7e b6 0a 3a
       0.0011037568 -0.00046062638 -9.657963e-05 0.00052914757
