weights/8-21-yfp-1_split_3.pt (torch, 473578 bytes, 26 tensors)

conv1.bias f4 [64]
0	0xb975f44a	-0.00023456026
1	0xba1f45de	-0.00060757797
2	0xba2763c7	-0.00063854124
3	0x39b5ca8f	0.00034673928
4	0xba7c6530	-0.0009628115
5	0x3a24f942	0.0006293246
6	0xba3b1d3c	-0.000713784
7	0x3a3c0417	0.00071722403
8	0xb97987f9	-0.00023797144
9	0xba4eb1dc	-0.00078847795
10	0x38469cae	4.7352798e-05
11	0xb9ad002c	-0.0003299726
12	0xba452faf	-0.0007522059
13	0x3942d7b2	0.00018581635
14	0xba708362	-0.0009174851
15	0x399709d9	0.000288083
16	0xba5a5f72	-0.00083302625
17	0x3a687205	0.0008867088
18	0x3a1a7efd	0.00058935565
19	0x398aae36	0.00026451208
20	0x3a0088e1	0.0004903209
21	0x39fe4211	0.0004849588
22	0xba6f661c	-0.0009132342
23	0xb9664ab4	-0.00021962338
24	0xba5926bc	-0.0008283665
25	0x3a78a0cd	0.00094844104
26	0xba33c69c	-0.0006857903
27	0xba6c509e	-0.00090146984
28	0x3a71a944	0.0009218643
29	0x3a26166b	0.0006335738
30	0x3a2b7315	0.0006540281
31	0xb8d49ea8	-0.000101385
32	0x3a1e9f92	0.00060509995
33	0x3a6994c1	0.00089104107
34	0xb9c2eba4	-0.0003717813
35	0xba13519a	-0.00056197646
36	0x363629f2	2.7144529e-06
37	0xba5c7a6d	-0.0008410577
38	0x3a5089d8	0.00079551106
39	0x39b43169	0.0003436909
40	0x392f57ae	0.00016721964
41	0x3a7bd83c	0.00096071116
42	0xba322f36	-0.0006797196
43	0xb88ea630	-6.8020425e-05
44	0xba6c2d9f	-0.00090094836
45	0xb9f4a5ec	-0.00046662928
46	0xb8d63f86	-0.00010216147
47	0xba0e0415	-0.00054174784
48	0xba79e81d	-0.0009533184
49	0x3a560001	0.0008163453
50	0xba30572e	-0.0006726858
51	0xba70e471	-0.0009189314
52	0x39b37854	0.00034231192
53	0x3a022f74	0.00049661775
54	0x3a366cd5	0.0006958966
55	0xba522302	-0.0008016081
56	0x3a213935	0.0006150187
57	0x3a54dd06	0.0008120093
58	0x38302150	4.1992695e-05
59	0xb9c8226e	-0.00038172625
60	0x3a07a537	0.000517446
61	0xb9becbcf	-0.00036391473
62	0x3a08076f	0.0005189096
63	0xb8b6b1e7	-8.711573e-05

conv1.lin.weight f4 [64, 2]
0	0xbe32ecb5	-0.17473109
1	0xbdeb4d6f	-0.11489379
2	0xbc5ed326	-0.013600146
3	0x3e47d345	0.19514187
4	0x3bf93c61	0.0076060747
5	0xbd5378ab	-0.05162875
6	0xbd8f4b23	-0.06996753
7	0x3c4a196d	0.012335164
8	0xbcd6935f	-0.026193319
9	0xbddbf46f	-0.107399814
10	0x3e53ad10	0.20671487
11	0x3e4190f9	0.18902959
12	0x3d9d6691	0.076855786
13	0x3ded8c17	0.11598986
14	0xbe01419d	-0.12622686
15	0x3e271992	0.16318348
16	0x3dc80bf0	0.09767902
17	0xbd42facc	-0.04760246
18	0x3d1d5e57	0.038420048
19	0x3e2b47cc	0.16726607
20	0xbdc9a835	-0.09846536
21	0x3dc5fcad	0.09667335
22	0x3d0c211e	0.03421127
23	0xbe306ebf	-0.17229746
24	0xbce7f365	-0.028314302
25	0xbcec22da	-0.028825212
26	0x3e22558a	0.15852943
27	0x3cc7adf8	0.024374947
28	0xbdc0ac93	-0.09407916
29	0xbe0b6a2d	-0.13614722
30	0x3e5ee9a6	0.21768817
31	0x3e50f894	0.20407325
32	0xbe4b762f	-0.19869302
33	0xbc577677	-0.013150803
34	0x3d8624e5	0.06550006
35	0xbe807e78	-0.25096488
36	0x3ce93418	0.028467223
37	0x3e9beec2	0.30455595
38	0xbd921ac5	-0.07134012
39	0x3e955ebb	0.29173836
40	0x3e8a1afe	0.26973718
41	0x3dac6b6d	0.08418927
42	0xbe849d27	-0.25901148
43	0x3dc45508	0.09586531
44	0xbe36212d	-0.17786093
45	0xbe2cbcbd	-0.16868873
46	0x3e6d333a	0.23164073
47	0x3c74096b	0.014894824
48	0x3e5a628f	0.2132666
49	0x3d802421	0.06256891
50	0xbdfca696	-0.12336461
51	0xbdbbcd4c	-0.09170017
52	0x3e318ed3	0.1733964
53	0x3e049a30	0.12949443
54	0xbe2f4efa	-0.17119971
55	0xbde22a16	-0.110431835
56	0x3ddda4d5	0.10822455
57	0xbe67922a	-0.22614351
58	0x3cc8b7fa	0.02450179
59	0xbd19e854	-0.03757508
60	0xbddaa1c6	-0.10675387
61	0xbe807258	-0.25087237
62	0xbe83c53a	-0.2573641
63	0x3e161171	0.14655091
64	0x3e1339e9	0.1437756
65	0x3e19d537	0.15022741
66	0x3ea27b83	0.31734857
67	0xbdd57235	-0.10422174
68	0xbe70bd71	-0.23509766
69	0x3e5b39ce	0.2140877
70	0x3e22f171	0.15912415
71	0x3e1485cd	0.14504166
72	0xba748395	-0.00093274686
73	0x3d6b8b15	0.057505686
74	0x3d961134	0.073275
75	0xbc973872	-0.018459532
76	0x3e3745cc	0.17897719
77	0x3e5f9788	0.21835148
78	0xbe83d1b8	-0.2574594
79	0x3e990b1f	0.29891297
80	0xbe7af240	-0.24506474
81	0x3e93f1bd	0.2889537
82	0x3e16f42c	0.14741582
83	0x3a1a4fe7	0.000588654
84	0xbe4b5415	-0.19856293
85	0xbe35ce04	-0.1775437
86	0x3d53eadb	0.051737648
87	0x3e67a87f	0.2262287
88	0xbddc6979	-0.10762305
89	0x3e8a832e	0.27053207
90	0xbe4f6319	-0.20252647
91	0x3e98f255	0.29872385
92	0x3e9de516	0.3083884
93	0x3da1a1ca	0.07892187
94	0x3c60be2f	0.013717218
95	0xbe38ebaa	-0.18058649
96	0xbcb8e2f5	-0.022569159
97	0x3c72dd80	0.0148233175
98	0x3d5ff5bd	0.054677714
99	0x3d9de10b	0.07708939
100	0x3e67ed90	0.22649217
101	0x3c9d94c5	0.019235978
102	0x3e2b4582	0.16725734
103	0xbbd2d608	-0.006434206
104	0xbe261a0c	-0.16220874
105	0x3e70123a	0.23444453
106	0xbd3eaf89	-0.046554122
107	0x3dcba3f4	0.09943381
108	0x3e886b25	0.26644245
109	0xbd2a6598	-0.041600794
110	0x3cac715b	0.021050146
111	0xbe143d06	-0.14476404
112	0xbe2894a6	-0.16462955
113	0x3e4c214d	0.19934578
114	0xbe12db9d	-0.14341588
115	0x3e8a1361	0.2696791
116	0x3e80688f	0.25079772
117	0x3c852fa3	0.016258067
118	0x3e7b2765	0.24526747
119	0x3d1c2968	0.038125426
120	0xbd04e456	-0.03244432
121	0x3e828d74	0.25498545
122	0xbdf81bf2	-0.12114705
123	0xbe912cfa	-0.28354627
124	0x3e2a0517	0.16603504
125	0xbe23d8b8	-0.1600064
126	0xbe99e51c	-0.3005761
127	0x3e0189c0	0.12650204

conv2.bias f4 [64]
0	0xbcc45560	-0.023966491
1	0x3cacb9fa	0.021084774
2	0x3cb95c8e	0.022627141
3	0x3cb40e09	0.021979349
4	0x3cc77f0b	0.024352571
5	0x3cb8b9f9	0.022549616
6	0x3cc692a3	0.024239844
7	0xbcbff431	-0.02343187
8	0x3cbee202	0.023301128
9	0x3cc20ac8	0.023686782
10	0xbcbce9a6	-0.023060631
11	0xbc9667d4	-0.018360056
12	0xbce0f4d5	-0.027460495
13	0x3d34de25	0.044157166
14	0x3cc149a8	0.023594692
15	0xbc3fcbcd	-0.011706305
16	0x3c1994cc	0.009373855
17	0xbc47630e	-0.012169613
18	0x3ca64169	0.020294862
19	0xbcd4df44	-0.025985368
20	0x3cfdc1ab	0.030976137
21	0xbc4d020a	-0.012512693
22	0xbbe5f9b6	-0.0070182933
23	0x3cca9fea	0.024734456
24	0xbcb5658c	-0.022143148
25	0x3d09c102	0.033631332
26	0x3cb05506	0.021524917
27	0xbcd43c1d	-0.02590757
28	0xbcdd80e9	-0.027039008
29	0x3cb3c4ca	0.021944422
30	0xbcea264f	-0.02858272
31	0x3c781277	0.015141121
32	0xbcd8c963	-0.026463216
33	0x3c8a590f	0.01688817
34	0x3cb38e70	0.021918505
35	0x3b1229f1	0.002230283
36	0xbccf415c	-0.02529972
37	0xbc6cf8c6	-0.014463609
38	0x3cbabc56	0.022794884
39	0xbccc6b4f	-0.024953512
40	0xbd18a505	-0.03726675
41	0xbcad6b5c	-0.021169357
42	0x3cb65925	0.022259304
43	0xbc4400a9	-0.011963048
44	0x3c3e8a95	0.01162972
45	0xbcce27c8	-0.025165454
46	0xbcbacecd	-0.022803688
47	0x3c550e5f	0.013003915
48	0xbcca0fcc	-0.024665736
49	0x3cb5fe09	0.02221586
50	0x3cbef7df	0.023311554
51	0x3cb11a44	0.02161897
52	0xbbe3b85d	-0.006949468
53	0xbc840c49	-0.01611914
54	0xbcc1012a	-0.023560125
55	0xbcb73bb4	-0.022367336
56	0x3cb272b8	0.021783218
57	0xbcb92c45	-0.022604117
58	0x3c86812d	0.016419018
59	0x3cbd10c6	0.023079287
60	0x3d05096a	0.03247968
61	0xbcc366ba	-0.023852695
62	0x3c9e858d	0.019350791
63	0xbd077279	-0.033068154

conv2.lin.weight f4 [64, 64]
0	0x3d82feb2	0.063962355
1	0xbb327125	-0.0027228084
2	0xbe297b73	-0.16550998
3	0xbd413f2c	-0.047179386
4	0xbd055cde	-0.03255927
5	0x3d07258d	0.032994796
6	0x3dfc49a9	0.12318737
7	0xbd195d4c	-0.03744249
8	0xbd80ea75	-0.06294719
9	0xbdabe8f4	-0.08394042
10	0xbd8252a9	-0.063634224
11	0xbdfd532f	-0.12369382
12	0xbe0c375f	-0.13692997
13	0xbd456e74	-0.04820104
14	0x3d56bd48	0.052426606
15	0xbe56056c	-0.20900506
16	0x3e32c459	0.17457713
17	0x3e37b3b5	0.17939647
18	0x3e0e8132	0.13916472
19	0xbd2c5c56	-0.042080246
20	0xbe6c6563	-0.23085551
21	0x3da5d58b	0.08097371
22	0xbe185fd6	-0.14880309
23	0x3e1b707e	0.15179631
24	0x3e3fbcba	0.18724337
25	0xbe27c9be	-0.16385552
26	0xbe1c3da2	-0.15257886
27	0xbe379977	-0.17929636
28	0xbdb3b046	-0.08773856
29	0x3bd7d00f	0.006586082
30	0xbdc95ae7	-0.09831791
31	0xbdced39f	-0.10098957
32	0xb9ed9c98	-0.00045320834
33	0x3dcadcc2	0.099053875
34	0xbd8c940a	-0.06864174
35	0xbdc2908f	-0.095002286
36	0x3d6d43c5	0.05792596
37	0xbe6185fb	-0.22023766
38	0x3d39d3d5	0.045368034
39	0x3de1b228	0.11020309
40	0x3dc887ba	0.09791513
41	0xbdaf1914	-0.08549705
42	0x3e653cf8	0.22386539
43	0xbd22986e	-0.03969615
44	0x3e74bff6	0.23901352
45	0xbde7bcdb	-0.11315318
46	0xbd1f8ece	-0.03895455
47	0x3e152b9f	0.14567421
48	0x3e72ee3b	0.2372369
49	0xbe07fd3b	-0.13280194
50	0x3d9e8c3a	0.0774159
51	0x3d9819ea	0.07426818
52	0xbd91dd9a	-0.07122345
53	0x3d9312a8	0.07181293
54	0x3e0081dd	0.12549539
55	0x3ca40207	0.020020498
56	0xbe39220f	-0.18079399
57	0xbdabdca9	-0.08391697
58	0x3df2700e	0.11837779
59	0x3e39a113	0.18127851
60	0x3aaa060b	0.0012971772
61	0x3dfd6020	0.1237185
62	0xbe3f3de9	-0.1867596
63	0xbdf0b895	-0.11753956
64	0xbd9815b8	-0.074260175
65	0x3d904a32	0.07045402
66	0x3e4183b7	0.18897901
67	0xbe3ea492	-0.18617466
68	0xbdc63818	-0.09678668
69	0xbdf1694c	-0.11787662
70	0x3df355b7	0.11881583
71	0xbe282740	-0.16421223
72	0xbe45e711	-0.19326426
73	0x3dc86c5a	0.097862914
74	0xbd73b3b8	-0.059497565
75	0xbd2a32a7	-0.041552212
76	0xbd93b5a1	-0.07212377
77	0xbd2aa3d5	-0.04166015
78	0x3e141481	0.14460947
79	0xbd9d003e	-0.07666062
80	0xbdf9be9a	-0.121945575
81	0xbdb677ba	-0.08909555
82	0xbd86c850	-0.06581175
83	0x3e1a7f0f	0.15087532
84	0xbde9a361	-0.11408115
85	0x3e48c3bc	0.19605917
86	0xbdbe531c	-0.092931956
87	0x3e5a1cc3	0.21300034
88	0xbe4830ba	-0.19549838
89	0xbde334ce	-0.11094056
90	0x3ddc4c98	0.107567966
91	0xbe2187fe	-0.15774533
92	0xbdbc9b4a	-0.092093065
93	0xbab3c02f	-0.0013713891
94	0x3e54ec2f	0.20793222
95	0x3aa438bb	0.0012529114
96	0x3e3274f4	0.17427427
97	0x3d9083c8	0.07056385
98	0xbd7370ed	-0.059433866
99	0x3d5ff0d2	0.054673024
100	0xbe1a997d	-0.15097614
101	0x3e3c3cee	0.18382618
102	0x3e283f38	0.16430366
103	0x3e5ae1ec	0.21375245
104	0x3df412d7	0.11917656
105	0xbe13e0b8	-0.14441192
106	0xbe3441ad	-0.17603178
107	0x3d8e414b	0.069460474
108	0xbc0727dd	-0.00824925
109	0xbc7d2fac	-0.01545326
110	0x3c915960	0.017742813
111	0x3e269891	0.16269137
112	0x3d932a45	0.07185797
113	0x3e57c57d	0.2107143
114	0x3e42e112	0.1903117
115	0xbe2e4ce2	-0.17021516
116	0x3d3aec43	0.045635473
117	0x3e5b34a4	0.214068
118	0x3d6e717c	0.058213696
119	0x3dfac1e1	0.12244011
120	0xbc91503c	-0.017738454
121	0x3df55b32	0.11980285
122	0xbdad0c8a	-0.08449657
123	0x3debda91	0.115162976
124	0x3e635d8a	0.22203651
125	0xbc58bf75	-0.013229241
126	0x3df8643b	0.121284924
127	0xbe302a46	-0.17203626
128	0x3e07249a	0.13197556
129	0xbd863ee2	-0.06554963
130	0x3dfeddcd	0.12444649
131	0x3dfffe0b	0.12499627
132	0x3e2c21ec	0.16809815
133	0xbe013d43	-0.12621026
134	0x3c8b449c	0.017000489
135	0xbe12f628	-0.14351714
136	0x3e724f25	0.23663004
137	0x3d517b71	0.051143114
138	0xbe4ca3d9	-0.19984378
139	0x3e04b2ee	0.12958881
140	0xbdc73eb9	-0.0972876
141	0x3e236f5f	0.15960453
142	0x3de5ccdc	0.112207144
143	0x3e475a45	0.19468029
144	0x3db7b0a0	0.089692354
145	0xbbea12d5	-0.0071433582
146	0xbc587822	-0.013212236
147	0x3e2194e6	0.15779456
148	0xbe0472b2	-0.12934378
149	0xbcd7e21f	-0.02635294
150	0xbb157c40	-0.0022809654
151	0x3dee5671	0.11637581
152	0x3e4651b7	0.19367109
153	0xbe3957dc	-0.18099922
154	0x3e55b363	0.20869212
155	0x3e4bb66d	0.19893809
156	0x3e489e2c	0.19591588
157	0xbc567f01	-0.0130918035
158	0xbd9612a7	-0.073277764
159	0xbe19ce4d	-0.15020104
160	0xbe00ae7b	-0.12566559
161	0x3e1dd366	0.15412673
162	0xbe54e7a0	-0.20791483
163	0x3a829170	0.0009961557
164	0xbe165dcb	-0.14684217
165	0x3e051902	0.12997821
166	0xbe3b0dee	-0.18267033
167	0x3e170736	0.14748845
168	0xbc57b3e0	-0.013165444
169	0x3e232f56	0.15936026
170	0x3d90c15c	0.070681304
171	0xbd37c103	-0.044861805
172	0xbe16a12b	-0.14709918
173	0x3d9dfb59	0.077139564
174	0x3e5acb83	0.21366696
175	0xbd7b936b	-0.061419886
176	0x3dd70c07	0.10500341
177	0x3e026337	0.1273316
178	0xbe28cccb	-0.16484372
179	0xbdfdeb35	-0.12398378
180	0x3db6692f	0.08906781
181	0xbe2ddfb0	-0.16979861
182	0x3dc0c9c2	0.09413482
183	0xbd75167d	-0.0598359
184	0x3b01a935	0.0019784693
185	0xbde1c7b8	-0.110244215
186	0x3b64776b	0.0034861218
187	0xbe3158a9	-0.17318977
188	0xbd109956	-0.035302483
189	0xbdd03f69	-0.101683445
190	0xbe1e04f2	-0.15431574
191	0x3dae4756	0.085097
192	0x3daf3192	0.08554377
193	0xbe01e62f	-0.12685464
194	0xbe596268	-0.21228945
195	0x3e519d92	0.20470265
196	0x3d81bc37	0.06334727
197	0xbd8079d2	-0.062732354
198	0x3dd9b52f	0.10630261
199	0xbd1347ec	-0.035957262
200	0xbdcb4236	-0.09924738
201	0x3dc286a0	0.09498334
202	0xbc54415c	-0.012955036
203	0xbe5439b7	-0.20725141
204	0xbe043601	-0.12911226
205	0xbcb24c62	-0.021764938
206	0xbd493c00	-0.049129486
207	0x3d2d9ddc	0.042386875
208	0x3cdb9a86	0.026807081
209	0xbe23b161	-0.15985633
210	0x3e1a1577	0.1504725
211	0x3e2dddb3	0.16979103
212	0x3bef6e87	0.007306877
213	0xbcc33ed0	-0.023833662
214	0x3e1f216d	0.15540095
215	0xbd983877	-0.07432645
216	0xbcddbfa7	-0.027068926
217	0x3cc87adf	0.024472652
218	0x3e5efb04	0.21775442
219	0xbdf7e8bb	-0.12104937
220	0xbd451e20	-0.048124433
221	0xbe2f35a0	-0.171103
222	0x3e16d7c2	0.14730743
223	0xbe3bbeae	-0.18334457
224	0x3dd18d91	0.1023208
225	0xbddfd5bb	-0.10929438
226	0x3e23d9d9	0.16001071
227	0x3e1a3b8a	0.15061775
228	0xbe431f0d	-0.19054814
229	0x3d5b9224	0.053606167
230	0x3e45beb3	0.19311027
231	0x3e24f5a5	0.16109331
232	0x3e1e1c05	0.15440376
233	0xbd3001bb	-0.0429704
234	0xbe752744	-0.2394076
235	0xbc64f6b8	-0.013974838
236	0x3d17c4ef	0.037053045
237	0x3c35d079	0.011097067
238	0xbe0f2da0	-0.13982248
239	0xbe62481b	-0.22097819
240	0x3e035bf9	0.12828054
241	0xbdefb0b4	-0.11703625
242	0xbe5c3f9f	-0.21508645
243	0x3cb8cbb2	0.022558067
244	0x3e330e8e	0.17486021
245	0x3e48ef1a	0.1962246
246	0x3cf6ee29	0.03014286
247	0xbe0e4205	-0.13892372
248	0x3d633ee4	0.0554799
249	0x3e5d56d6	0.21615157
250	0xbe0d12d9	-0.13776721
251	0xbe43ae13	-0.19109373
252	0xbc079613	-0.008275527
253	0x3be1dbc7	0.0068926546
254	0x3e155fba	0.14587298
255	0x3d0c601a	0.034271337

conv3.bias f4 [128]
0	0xba341f4e	-0.000687112
1	0x3a8d2d76	0.0010770995
2	0xb963e5d7	-0.00021734029
3	0xba9a2d0d	-0.0011762694
4	0x3a9ceb3a	0.0011971958
5	0x3a559b72	0.00081484683
6	0x3a976ff7	0.0011553754
7	0xb9b4f032	-0.00034511235
8	0x3a5a7fee	0.0008335103
9	0xba9a5318	-0.0011774031
10	0x398d02e0	0.00026895758
11	0x3a5c981b	0.00084149995
12	0x3a3f1c59	0.0007290296
13	0x3a72acd4	0.0009257321
14	0x3aa4c1dd	0.0012569983
15	0xbaa39a56	-0.0012481909
16	0xbaac854a	-0.0013162282
17	0xba9e75cd	-0.0012089551
18	0x3a90ce22	0.001104776
19	0xba97a9a9	-0.0011570948
20	0x3a266a51	0.000634824
21	0xba9527ca	-0.0011379656
22	0x3a4ea4d0	0.00078828353
23	0xb90c5de7	-0.00013386422
24	0xba534278	-0.0008058916
25	0xba2a4a3b	-0.00064960466
26	0x39f1b7d3	0.00046104062
27	0x39240b67	0.00015644506
28	0x3a53f7b4	0.0008085922
29	0xbb0fea7a	-0.0021959827
30	0x3a9fe63b	0.0012199351
31	0x3a1e70ca	0.00060440286
32	0x3a51e58d	0.0008006923
33	0xba2fb5ee	-0.000670283
34	0xba2a2065	-0.00064898125
35	0x3aa9b465	0.0012947439
36	0xba148d77	-0.0005666832
37	0xba698eac	-0.00089095044
38	0x3a2219f2	0.0006183676
39	0x3a970c6b	0.0011524087
40	0xba5042f5	-0.00079445477
41	0x3a9e07ca	0.0012056765
42	0x3a927e4b	0.0011176554
43	0xb985be2f	-0.00025509435
44	0xba567fda	-0.00081825035
45	0x3a7a1a49	0.000954066
46	0xba627487	-0.000863858
47	0xb89962ef	-7.314036e-05
48	0xba9f4a8c	-0.0012152954
49	0xba72bf81	-0.00092601037
50	0xbaa5138d	-0.0012594328
51	0x3b1c547a	0.0023854063
52	0x39dc9a21	0.00042076505
53	0xb892d2b8	-7.001072e-05
54	0x3a755099	0.0009358018
55	0x3aa20893	0.0012362174
56	0xba2f9686	-0.000669815
57	0x3a073d3e	0.0005158967
58	0x3a67c4d8	0.00088412827
59	0xb9ccebbe	-0.00039085554
60	0xba227e12	-0.00061985955
61	0xba5f41c7	-0.00085165765
62	0xb9a0985c	-0.00030631095
63	0x3a9dabf9	0.0012029401
64	0x3a6efd19	0.0009116694
65	0xba96a6b7	-0.0011493777
66	0xba9e8ac1	-0.0012095795
67	0xb9a06bd6	-0.00030597922
68	0x3a96bc57	0.0011500221
69	0xb9017635	-0.00012346434
70	0x3a9c4b45	0.0011924288
71	0xba3876ac	-0.00070367265
72	0xb953c65c	-0.00020196423
73	0x39e34b35	0.00043352848
74	0x397d2196	0.00024140472
75	0x39e417bc	0.00043505232
76	0xba9aaf1f	-0.0011801458
77	0xba4559f4	-0.00075283577
78	0x3aa1696d	0.0012314745
79	0xba4e738e	-0.00078754954
80	0x39db3f57	0.00041818127
81	0xba95da9e	-0.0011432951
82	0xba528a06	-0.00080314314
83	0x3a72ce8b	0.00092623447
84	0xba94eb30	-0.0011361595
85	0x3a931472	0.0011221303
86	0xba58bafa	-0.0008267608
87	0xba6cd498	-0.00090343645
88	0x3ae00cf5	0.0017093705
89	0x3aa27916	0.0012395706
90	0x3a4cfc42	0.0007819572
91	0xb9f7b106	-0.00047243404
92	0xba49a5af	-0.000769223
93	0xba6c936f	-0.0009024655
94	0x3a09b25f	0.00052527146
95	0x3a4dc95a	0.0007850133
96	0x3a1d4974	0.000600002
97	0x39189583	0.00014551547
98	0x3aa0091f	0.001220975
99	0x3a2a8109	0.0006504213
100	0xba9e6d6f	-0.0012087057
101	0x3a6403e8	0.0008698092
102	0x3a74d7de	0.0009340028
103	0xb9b32247	-0.0003416708
104	0xba6a950f	-0.0008948603
105	0xba80d133	-0.0009827971
106	0xba7729d3	-0.00094285345
107	0xba7ce31d	-0.00096468796
108	0xba7d4c0e	-0.0009662517
109	0xba1ef598	-0.0006063818
110	0x3ab88608	0.001407803
111	0x3a664189	0.0008783569
112	0x3a7335ae	0.0009277713
113	0xb99c71d2	-0.0002983944
114	0x3a611e2e	0.0008587566
115	0x39a51b82	0.00031491747
116	0x39b6e43b	0.0003488379
117	0xbb2277ac	-0.0024790568
118	0xbaa7fe6f	-0.0012816916
119	0xbaa1d32e	-0.0012346262
120	0xbab45bf7	-0.0013760318
121	0xbaa20443	-0.0012360889
122	0x3aa1107f	0.0012288241
123	0xba62c35f	-0.00086503284
124	0x3a8cec8a	0.0010751646
125	0x356e878a	8.8859144e-07
126	0x3aa49e90	0.0012559462
127	0x3a654fd5	0.00087475526

conv3.lin.weight f4 [128, 64]
0	0xbd5cffc3	-0.05395485
1	0xbe465322	-0.1936765
2	0xbd86d853	-0.06584229
3	0xbe3c078c	-0.18362254
4	0x3d25a6db	0.04044233
5	0x3e3ed4e0	0.18635893
6	0x3e0aa560	0.13539648
7	0xbe0b12dd	-0.13581415
8	0xbdb44fa2	-0.08804251
9	0xbdf96aae	-0.12178551
10	0xbdc39f23	-0.09551837
11	0xbdbc0895	-0.091813244
12	0x3e016f43	0.12640099
13	0x3e31c11c	0.17358822
14	0xbd61c9fa	-0.05512426
15	0xbe17fd93	-0.14842825
16	0x3d405231	0.046953384
17	0x3d653b3e	0.0559647
18	0xbd6a407b	-0.0571904
19	0xbe124a0a	-0.14286056
20	0x3cade7e1	0.021228733
21	0xbdbca321	-0.09210802
22	0x3d857436	0.06516306
23	0x3d79b9e1	0.060968284
24	0x3d851ec3	0.06500008
25	0xbe0b3ffc	-0.13598627
26	0x3d42ea56	0.04758676
27	0x3d08fa24	0.033441678
28	0xbd93f091	-0.07223619
29	0xbe3473ee	-0.17622349
30	0x3d8885f5	0.06666175
31	0x3d5ea0fb	0.05435274
32	0xbd897894	-0.067124516
33	0xbcd89d01	-0.026442053
34	0xbcb68e48	-0.022284642
35	0x3c5bf537	0.013425163
36	0x3df45401	0.11930085
37	0xbd15fe1b	-0.036619287
38	0x3e209a0b	0.15683763
39	0x3c993b04	0.018704899
40	0x3cbbc95e	0.022923168
41	0xbe292e35	-0.16521533
42	0x3e1e53ad	0.15461607
43	0x3b9b1263	0.0047324165
44	0x3df37ff8	0.118896425
45	0x3cd1d77d	0.025615448
46	0xbd4eda5d	-0.050501216
47	0x3d951d00	0.07280922
48	0x3d863aa4	0.065541536
49	0xbe0d06e6	-0.13772163
50	0x3d1e0e9a	0.038588144
51	0x3d5fe3f5	0.054660756
52	0x3d6e1358	0.058123916
53	0xbc75a945	-0.01499397
54	0x3db6c4be	0.08924244
55	0xbce7021a	-0.028199244
56	0xbcc03266	-0.023461532
57	0xbdae5834	-0.08512917
58	0x3d2f4ca8	0.042797714
59	0xbe188b31	-0.14896847
60	0xbe0efe50	-0.139642
61	0xbde0e107	-0.109804206
62	0x3e3674db	0.17818014
63	0x3d04df32	0.032439418
64	0xbda15611	-0.07877744
65	0xbe1d62ed	-0.15369768
66	0x3db1110f	0.08645832
67	0xbd9a5f68	-0.075377285
68	0x3c80d140	0.015724778
69	0xbd5411e1	-0.051774863
70	0xbe0497bd	-0.12948509
71	0x3ddf8357	0.10913723
72	0xbdd42221	-0.10358072
73	0xb8be7caa	-9.0831265e-05
74	0xbe352abe	-0.17692086
75	0x3cea224a	0.028580803
76	0x3d041c1f	0.03225338
77	0x3c67c089	0.014145025
78	0xbd10ece3	-0.035382163
79	0x3e284363	0.16431956
80	0xbc5b27f3	-0.013376224
81	0xbd9dc922	-0.07704379
82	0xbe20b236	-0.15692982
83	0xbe14a075	-0.14514334
84	0x3dee55d1	0.11637462
85	0xbda280b1	-0.07934702
86	0xbe00fc15	-0.12596162
87	0x3d0fb4ff	0.03508472
88	0x3c9fb3ff	0.019495009
89	0x3e2077e0	0.15670729
90	0xbdc5c8d9	-0.09657449
91	0xbe1c0810	-0.1523745
92	0x3dceaae4	0.100911885
93	0x3c978c7e	0.01849961
94	0x3cdd1363	0.026986783
95	0xbd92cdd8	-0.07168168
96	0x3d23f4d1	0.040028397
97	0x3b88ce44	0.0041749794
98	0x3d8d3838	0.068954885
99	0xbe250319	-0.16114463
100	0x3dd815c5	0.10551027
101	0x3e201770	0.1563394
102	0xbd83a014	-0.06427017
103	0x3e27406b	0.16333167
104	0x3de5f536	0.11228411
105	0x3dd053a7	0.101722054
106	0xbdb028f4	-0.08601561
107	0xbc938506	-0.018007766
108	0xbd08c232	-0.033388324
109	0xbe0503fb	-0.129898
110	0xbe1bc339	-0.1521119
111	0xbdd6d49f	-0.10489773
112	0x3d69ccc6	0.057080053
113	0x3da9342b	0.082619034
114	0xbcba6c37	-0.022756679
115	0xbd4d0377	-0.050052132
116	0x3dcad995	0.09904782
117	0x3dca8661	0.09888912
118	0xbdd05d5f	-0.10174059
119	0x3d1f92ac	0.038958237
120	0xbe47175a	-0.19442502
121	0x3e0cbc3a	0.13743678
122	0xbde1b0f6	-0.11020081
123	0xbd63d4ba	-0.055622794
124	0x3d1bf5e4	0.038076296
125	0xbdc9e556	-0.098581955
126	0x3e0ad269	0.13556828
127	0x3d2d9285	0.04237606
128	0x3d0ca658	0.034338325
129	0xbd0d7701	-0.03453732
130	0x3e05142d	0.12995978
131	0xbde39f15	-0.11114327
132	0xbdade19d	-0.08490298
133	0x3daf637f	0.08563899
134	0x3e1606d4	0.14651042
135	0xbd4eb6ea	-0.05046741
136	0x3d64f12b	0.05589406
137	0x3dbc02a1	0.09180189
138	0x3d08149e	0.033222787
139	0xbcd5cbc6	-0.026098143
140	0x3bc72739	0.0060776738
141	0x3e0ca5eb	0.13735168
142	0x3d8c8add	0.068624236
143	0x3ded8a91	0.11598695
144	0xbe15c1fa	-0.14624777
145	0x3d04e820	0.032447934
146	0xbe1bd79c	-0.15218967
147	0xbda3c080	-0.07995701
148	0xbd57dca7	-0.052700665
149	0xbd80199c	-0.062548846
150	0xbd6792ac	-0.05653636
151	0x3e0d1318	0.13776815
152	0xbe461ce7	-0.19346963
153	0x3d84ce54	0.064846665
154	0x3da28368	0.0793522
155	0xbc812ac5	-0.015767464
156	0xbd6b41c7	-0.057435777
157	0xbd911877	-0.070847444
158	0x3dea9844	0.114548236
159	0xbae75460	-0.0017649047
160	0x3d98a75b	0.074537955
161	0xbc8fa5be	-0.017535087
162	0x3d0fb7e3	0.035087477
163	0x3d3574fd	0.04430102
164	0xbd339df2	-0.0438518
165	0xbd9d986b	-0.07695087
166	0xb8a52aaf	-7.8757635e-05
167	0xbd16df85	-0.03683426
168	0x3e0a9c89	0.13536276
169	0xbd47d8e2	-0.04879082
170	0x3e226fe9	0.15863003
171	0x3dad1afc	0.084524125
172	0x3e171134	0.14752656
173	0x3e270ef3	0.16314296
174	0xbc897505	-0.016779432
175	0xbd2e41c3	-0.042543184
176	0x3df60e70	0.120144725
177	0xbe1dd2b2	-0.15412405
178	0x3cbd7553	0.023127234
179	0xbd060d99	-0.03272781
180	0xbe004ae7	-0.12528573
181	0xbd6b60e7	-0.05746546
182	0xbde3a324	-0.11115101
183	0x3e03b06b	0.12860267
184	0xbe0d1d2d	-0.13780661
185	0xbdc687d1	-0.09693874
186	0xbe40d37e	-0.18830678
187	0xbc673b51	-0.014113263
188	0x3e254a17	0.16141544
189	0x3d7260b8	0.05917427
190	0x3d151554	0.036397293
191	0x3da09fdf	0.07842993
192	0xbdc22779	-0.09480185
193	0xbb81e7de	-0.0039644083
194	0xbd52e4f1	-0.051487867
195	0xbd3b02ca	-0.045656957
196	0x3d323f27	0.043517258
197	0x3dc8d718	0.09806651
198	0x3e05c66f	0.13063978
199	0x3ba53715	0.0050419667
200	0x3df9c71a	0.12196179
201	0xbd8b6c70	-0.06807792
202	0xbda9ce6b	-0.08291324
203	0xbe133fc2	-0.1437979
204	0xbd6ef74e	-0.058341317
205	0x3d5155f6	0.05110737
206	0xbda851f6	-0.08218758
207	0xbdc6e647	-0.09711891
208	0x3d17aca8	0.037029892
209	0x3dd4d8f0	0.1039294
210	0xbde84344	-0.11340955
211	0x3cea69ba	0.028614867
212	0x3dde85b9	0.10865349
213	0xbd054e46	-0.03254535
214	0xbdf1d326	-0.118078515
215	0xbd68e5a3	-0.056859624
216	0x3c598e54	0.013278563
217	0xbde88f54	-0.11355463
218	0x3d6a8003	0.057250988
219	0xbd9adfe9	-0.07562239
220	0x3e077b18	0.1323055
221	0x3de21202	0.11038591
222	0xbdebd995	-0.1151611
223	0xbe03284c	-0.12808341
224	0x3e12f8c5	0.1435271
225	0x3de38eec	0.111112446
226	0x3ca11d33	0.019667244
227	0xbd8c372f	-0.06846463
228	0x3dc16cc1	0.09444571
229	0xbe3b6d6c	-0.1830346
230	0x3e002d40	0.12517262
231	0x3e1c6da7	0.15276204
232	0x38a8381e	8.021317e-05
233	0xbe235984	-0.15952116
234	0xbde23524	-0.11045292
235	0x3d8c5415	0.06851975
236	0x3e3df9e1	0.18552352
237	0x3d1d3958	0.038384765
238	0xbe10a2bf	-0.14124583
239	0xbe06f141	-0.13177969
240	0xbe200831	-0.15628125
241	0x3d0671c2	0.03282333
242	0xbd5ad49b	-0.053425413
243	0xbd94407a	-0.072388604
244	0x3e015299	0.12629165
245	0x3d1f3375	0.038867433
246	0x3db2520f	0.08707058
247	0xbc2d7d29	-0.010588923
248	0xbc75cce6	-0.015002465
249	0xbd48232a	-0.04886166
250	0xbe087afa	-0.13328162
251	0xbe066b34	-0.13126832
252	0x3dfa419b	0.122195445
253	0xbce5634a	-0.028001446
254	0xbdc4655c	-0.09589645
255	0xbe0f450b	-0.13991182

conv4.bias f4 [256]
0	0xbcc674f4	-0.02422569
1	0xbcb18389	-0.021669166
2	0x3cb9e847	0.022693766
3	0x3c9c1bd5	0.01905624
4	0x3cdfd9a2	0.027325455
5	0xbcb1fe32	-0.021727655
6	0xbb7a8b07	-0.003822984
7	0x3cceebd5	0.025258938
8	0x3cd3ec64	0.025869556
9	0xbccc8869	-0.02496739
10	0x3d048ff2	0.03236384
11	0xbcb867d2	-0.022510443
12	0x3ce44525	0.027865002
13	0xbccf11f2	-0.025277112
14	0xbccdb2ff	-0.025109766
15	0xbcde0d8d	-0.02710607
16	0xbcc30f4f	-0.02381101
17	0x3cb4f16c	0.022087775
18	0xbcd6873f	-0.026187537
19	0x3b5be01d	0.003355033
20	0xbcac0499	-0.020998286
21	0xbccf4cc3	-0.025305158
22	0x3cc64c72	0.024206374
23	0xbc984ec6	-0.01859225
24	0x3cc1c935	0.023655513
25	0xbce9a6a8	-0.02852185
26	0x3cb26ee7	0.021781398
27	0xbcd1edf3	-0.025626158
28	0xbbcf51c0	-0.006326884
29	0xbccded77	-0.025137646
30	0xbd0b3506	-0.033986114
31	0x3cb05c6f	0.02152845
32	0xbcc37691	-0.023860248
33	0x3d089357	0.03334364
34	0xbcc0000a	-0.023437519
35	0x3c9d61fc	0.019211762
36	0xbce48207	-0.027894033
37	0x3a8b2530	0.0010615941
38	0x3cb9e384	0.022691496
39	0x3c964014	0.018341102
40	0x3cd823fd	0.026384348
41	0x3cce35c1	0.025172116
42	0xbcc8c789	-0.024509208
43	0x3cde6fca	0.027152915
44	0xbd0425a8	-0.032262474
45	0x3cb767b7	0.022388322
46	0x3ccc37fe	0.024929043
47	0x3ccd1b85	0.025037536
48	0x3ca91dfc	0.02064418
49	0xbc937c40	-0.018003583
50	0xbcc14e28	-0.023596838
51	0xbcdc2e45	-0.026877532
52	0x3cb2c9a2	0.021824662
53	0xbce7bc92	-0.02828816
54	0x3c93ae5f	0.018027483
55	0x3cbb7560	0.022883117
56	0x3d0748dd	0.033028472
57	0xbd0020f9	-0.031281445
58	0x3cc27c5f	0.023740945
59	0x3c8a5c1b	0.016889622
60	0x3c11ab0e	0.00889088
61	0xbcaceee5	-0.021110008
62	0x3cb3d20a	0.02195074
63	0xbcc27e99	-0.023742007
64	0xbccf3299	-0.025292682
65	0x3cbbf320	0.02294308
66	0xbc98aff9	-0.018638598
67	0x3cfec920	0.031101763
68	0xbccbe4f9	-0.024889456
69	0x3cc66b52	0.024221096
70	0x3c97c58d	0.018526817
71	0xbcb8676b	-0.022510251
72	0x3ccf066d	0.025271619
73	0xbcd84b35	-0.026403049
74	0x3cb94b83	0.022619015
75	0xbce8f155	-0.028435389
76	0xbcc72399	-0.024308966
77	0xbcbf197f	-0.023327587
78	0xbcadb25b	-0.02120321
79	0x3c7863c8	0.015160508
80	0xbcbb438a	-0.022859354
81	0x3cfb33b5	0.030664304
82	0xbcb467e1	-0.02202219
83	0x3cb14b29	0.021642284
84	0xbca2afde	-0.01985925
85	0xbcd417a9	-0.025890188
86	0xbcafd67d	-0.02146458
87	0x3cde87fb	0.02716445
88	0x3ca045f1	0.0195646
89	0xbca7ffbd	-0.020507688
90	0x3cb1f34d	0.02172246
91	0x3cccfbc9	0.025022404
92	0x3d01207c	0.03152512
93	0xbcbbaddf	-0.022910057
94	0x3c47e8c3	0.012201491
95	0xbccb00f9	-0.024780737
96	0xbcfb099e	-0.030644234
97	0xbae3e75e	-0.0017387678
98	0x3ccb378b	0.024806758
99	0xbce1294a	-0.027485508
100	0x3ba0a594	0.004902551
101	0x3ccfe22e	0.025376406
102	0xbcb2c24d	-0.021821165
103	0x3c3cbccc	0.011519622
104	0x3cbd9672	0.023143027
105	0x3cd48cda	0.02594607
106	0xbcc80ecc	-0.024421118
107	0xbcae133b	-0.021249404
108	0x3ccff37e	0.02538466
109	0xbccef543	-0.025263434
110	0xbcbea681	-0.023272755
111	0x3cf480b8	0.029846534
112	0xbcdc5077	-0.026893837
113	0xbcd9a2ba	-0.026566852
114	0xbcccdfec	-0.025009118
115	0xbcf9b4c9	-0.030481713
116	0xbcc2105b	-0.02368944
117	0xbca5cd76	-0.020239573
118	0xbcaf5fb8	-0.021407947
119	0xbcf04995	-0.029331962
120	0xbcac6648	-0.021044865
121	0x3ccaeef5	0.024772147
122	0x3ce8a9dc	0.028401308
123	0x3d08b802	0.03337861
124	0xbce00ccc	-0.027349852
125	0xbcd134a5	-0.025537798
126	0x3c90b466	0.017664146
127	0xbd0db21a	-0.03459368
128	0x3c9aff97	0.018920703
129	0x3cb45654	0.02201382
130	0xbcc1d928	-0.023663118
131	0x3cb8771d	0.022517735
132	0xbcb46df9	-0.022025095
133	0x3cd4a6e7	0.025958491
134	0xbcd2ec26	-0.02574737
135	0xbceac9a7	-0.028660608
136	0x3d00c9a6	0.031442307
137	0xbcbb5a0a	-0.022870082
138	0xbcbc7c6a	-0.023008544
139	0x3cc801f5	0.024414996
140	0xbcbbbb2c	-0.022916399
141	0xbcac20fe	-0.021011826
142	0x3caff01e	0.021476801
143	0x3ca48b11	0.020085843
144	0x3c96700a	0.018363971
145	0xbce14c34	-0.027502157
146	0x3cdba5fc	0.026812546
147	0xbcb807eb	-0.022464713
148	0xbc8d0585	-0.017214546
149	0xbccbeb48	-0.024892464
150	0x3cc05a18	0.02348046
151	0xbb28f032	-0.0025777933
152	0xbcc0d48d	-0.023538852
153	0xbcae61d1	-0.021286877
154	0x3cd5b619	0.026087807
155	0x3c7564ab	0.014977614
156	0xbcc02176	-0.023453455
157	0xbc727aa2	-0.014799746
158	0xbcf45d03	-0.029829508
159	0xbc310427	-0.010804213
160	0x3c8eac33	0.017416095
161	0xbca2e40c	-0.019884132
162	0x3cbde930	0.023182482
163	0x3cbf78f3	0.023373103
164	0xbcb20ee1	-0.02173561
165	0xbc4f6973	-0.012659418
166	0xbcc5e258	-0.02415578
167	0x3cbcde8a	0.023055334
168	0xbc9696b4	-0.018382408
169	0x3ca8cfe8	0.02060695
170	0xbcec0af2	-0.028813813
171	0x3ccd127d	0.02503323
172	0xbcf61ab4	-0.03004203
173	0x3c9cfdaf	0.019163935
174	0x3cc8f071	0.024528714
175	0xbcf6263a	-0.030047525
176	0xbc9e11eb	-0.019295653
177	0xbcf99f13	-0.03047136
178	0x3cba3439	0.02272998
179	0xbcb77251	-0.022393377
180	0x3ca5c015	0.020233193
181	0xbced155f	-0.028940855
182	0x3be78be5	0.0070662373
183	0x3cb5cbb3	0.022191858
184	0xbcd28ae6	-0.025700998
185	0xbccd4d76	-0.02506135
186	0xbcc01e42	-0.023451928
187	0xbcc358aa	-0.02384599
188	0x3c84fdc9	0.016234295
189	0xbcc690d3	-0.02423898
190	0xbcd4f98a	-0.025997896
191	0x3ca28f99	0.019843863
192	0x3ccd3424	0.025049277
193	0x3cbe8d93	0.023260867
194	0x3cbcf46d	0.02306577
195	0xbcce16b4	-0.02515731
196	0x3c988434	0.018617727
197	0x3cd3aaa1	0.025838198
198	0x3d09dde1	0.033658866
199	0xbcdbe26d	-0.026841367
200	0x3d0b8deb	0.03407089
201	0x3cd21abe	0.025647517
202	0x3cab272c	0.020892702
203	0xbcdf4e01	-0.027258875
204	0xbcd757d2	-0.026286993
205	0x3d04609e	0.032318704
206	0x3cd5e06a	0.026107986
207	0x3ce1ee02	0.027579311
208	0x3cce8c0b	0.025213262
209	0xbceca586	-0.028887521
210	0x3cbd62cc	0.0231184
211	0x3ccdb382	0.02511001
212	0x3ce4a99d	0.02791291
213	0xbcbdb6af	-0.0231584
214	0x3cc755d8	0.024332926
215	0xbcb6fc9f	-0.022337256
216	0x3c84b955	0.016201654
217	0x3c958387	0.018251194
218	0x3c2df07d	0.010616419
219	0xbcbc1634	-0.022959806
220	0xbcc62f96	-0.024192613
221	0xbcbf8810	-0.02338031
222	0xbc0ab32d	-0.00846557
223	0x3cc6652d	0.024218166
224	0xbca9ccd3	-0.02072755
225	0x3cbb947d	0.022897953
226	0x3ce48f11	0.02790025
227	0xbcc0ff3b	-0.023559203
228	0x3ccf0bd6	0.025274199
229	0x3cc383f1	0.023866626
230	0x3cb0ad4e	0.021567013
231	0xbb9ee2a4	-0.004848795
232	0xbcb9ba8e	-0.022671964
233	0xbce29c29	-0.027662354
234	0xbd0c78e4	-0.034294978
235	0x3cbfb25b	0.023400476
236	0xbcc5cf9a	-0.024146844
237	0x3cd8976c	0.026439391
238	0x3c32699c	0.010889437
239	0x3cb48b36	0.022039037
240	0xbcccf890	-0.025020868
241	0xbcc90cf3	-0.024542307
242	0x3cbc4947	0.02298416
243	0x3cbacff8	0.022804245
244	0x3cb990a9	0.022651987
245	0x3c6e1905	0.014532332
246	0xbcc39855	-0.023876349
247	0x3cdc2dc6	0.026877295
248	0x3ce48435	0.027895072
249	0x3cf528ee	0.029926743
250	0xbcba638b	-0.022752544
251	0x3cb8f0b5	0.022575716
252	0xbcb8556f	-0.022501675
253	0xbcda82e7	-0.026673747
254	0xbcaecba3	-0.021337336
255	0xbccdf5b8	-0.025141582

conv4.lin.weight f4 [256, 128]
0	0xbd5d00df	-0.05395591
1	0xbd2a80b3	-0.041626643
2	0x3dcc0dc3	0.09963562
3	0x3dde470d	0.108533956
4	0x3e07ce27	0.13262235
5	0xbd31d52c	-0.043416187
6	0xbe1773b9	-0.14790238
7	0xbdf1128f	-0.11771118
8	0xbdbe92bd	-0.09305332
9	0x3daaa660	0.08332515
10	0x3df8f493	0.12156024
11	0x3d338e98	0.04383716
12	0xbcf9e88b	-0.030506393
13	0x3dc9f14b	0.09860476
14	0x3dfe8d30	0.12429273
15	0x3d92cbcd	0.07167778
16	0xbd302c7e	-0.04301118
17	0xbca08a2b	-0.019597134
18	0xbd7da9ff	-0.0619297
19	0x3d2fc98f	0.04291683
20	0x3c5f1deb	0.013617973
21	0xbd23a2f4	-0.039950326
22	0xbdf76e68	-0.12081605
23	0x3df8e3af	0.12152802
24	0xbde193f2	-0.110145465
25	0xbd93e1b7	-0.07220786
26	0x3e13d707	0.14437495
27	0xbd5329b8	-0.051553458
28	0x3e046dd6	0.12932524
29	0x3d85c175	0.065310396
30	0x3d736e59	0.059431408
31	0xbdb8df4d	-0.09026966
32	0x3da8b3dc	0.082374305
33	0xbda26682	-0.07929708
34	0xbcf65e2c	-0.030074202
35	0x3bd88cc4	0.0066085774
36	0xbe01485c	-0.12625259
37	0xbd38a982	-0.04508353
38	0xbd9a430b	-0.07532319
39	0xbd32217d	-0.04348897
40	0xbdb77053	-0.08956971
41	0x3db4df92	0.08831705
42	0xbcceae50	-0.025229603
43	0x3cadad3d	0.02120077
44	0x3d379fc7	0.04483011
45	0xbdfe93d4	-0.1243054
46	0x3daf09c8	0.085467875
47	0x3dff2335	0.12457887
48	0x3d84c88f	0.06483566
49	0x3cc9462b	0.024569592
50	0x3d78c395	0.060733397
51	0x3d84e771	0.064894564
52	0xbdbe9304	-0.09305385
53	0xbd3bec19	-0.045879457
54	0x3dc3cf89	0.095610686
55	0xbe14a320	-0.14515352
56	0x3c768e61	0.015048594
57	0xbe0a7bfb	-0.13523857
58	0xbcc98f96	-0.0246046
59	0xbdb365c0	-0.08759642
60	0xbce670ec	-0.028130017
61	0xbdfc45ec	-0.12318024
62	0x3ca5396c	0.020168982
63	0x3d8a6482	0.067574516
64	0x3d7fcac0	0.062449217
65	0x3dc192be	0.09451817
66	0xbd8a45aa	-0.067515686
67	0xbd228bae	-0.03968399
68	0x3d403b7a	0.04693172
69	0xbc087d99	-0.008330726
70	0xbdb397a5	-0.08769158
71	0x3d367acc	0.044550702
72	0x3e180f0d	0.14849491
73	0xbd080a18	-0.03321275
74	0xbd6d26e8	-0.057898432
75	0x3bc8e757	0.0061310935
76	0x3d0c5224	0.034258023
77	0x3b7c7ef3	0.0038527816
78	0xbd45dbb0	-0.048305213
79	0xbdfd6f1a	-0.123747066
80	0x3dda7f4e	0.10668813
81	0xbd7174a6	-0.058949135
82	0x3d9eca89	0.07753474
83	0x3dbb9779	0.091597505
84	0xbd75f213	-0.060045313
85	0xbaaf627f	-0.0013380795
86	0xbdc16743	-0.09443524
87	0xbe156f20	-0.14593172
88	0x3d385309	0.045001063
89	0xbd4276e5	-0.047476668
90	0xbcd29430	-0.025705427
91	0xbdf535d9	-0.11973161
92	0xbd2ed4d6	-0.042683445
93	0x3d8b81e2	0.068118826
94	0xbd67afe2	-0.05656422
95	0xbd460325	-0.048342843
96	0x3d090396	0.033450685
97	0x3b6bcd9f	0.0035980714
98	0xbd94206b	-0.07232746
99	0xbcdd34a0	-0.027002633
100	0x3e196c25	0.1498266
101	0x3db6a218	0.08917636
102	0x3d9ceafc	0.07662007
103	0x3d50cbf2	0.050975747
104	0xbe0869d7	-0.13321625
105	0xbd780b72	-0.06055779
106	0x3c248822	0.010042222
107	0xbd68148e	-0.056660227
108	0x3ce215c6	0.027598273
109	0xbd61fda1	-0.05517352
110	0x3e15ab73	0.14616184
111	0x3e1857b8	0.14877212
112	0x3de5a693	0.11213412
113	0x3d55a290	0.052156985
114	0xbd3ebed5	-0.04656871
115	0x3da7c3cf	0.081916444
116	0xbe18541e	-0.14875838
117	0x3d9c7c68	0.07640916
118	0xbdfc6c40	-0.123253345
119	0x3cb9ae2f	0.022666065
120	0xbd213002	-0.039352424
121	0xbd08e5e8	-0.03342238
122	0x3c7a54d7	0.015279016
123	0xbd25213a	-0.04031489
124	0xbdb943e9	-0.09046156
125	0x3c854ec9	0.01627292
126	0xbd26eea4	-0.04075493
127	0xbd6958d1	-0.056969468
128	0x3dafcafe	0.085836396
129	0xbe115310	-0.14191842
130	0xbdfcbe34	-0.12340966
131	0x3d7a62dd	0.06112944
132	0xbd142c7a	-0.03617523
133	0xbc3fc43d	-0.011704502
134	0xbd09a056	-0.033600174
135	0xbcd21e22	-0.025649134
136	0xbd2ccf74	-0.04219003
137	0xbd801326	-0.06253652
138	0xbdfd90f8	-0.12381166
139	0x3e0e1f07	0.13879023
140	0x3d0e0732	0.03467483
141	0xbe0e425c	-0.13892502
142	0x3daa2ad1	0.08308948
143	0xbcdd0d2f	-0.026983825
144	0xbad0f52d	-0.0015942209
145	0x3dbc9876	0.09208767
146	0xbdbb672d	-0.091505386
147	0x3cf15f97	0.029464526
148	0xbdd09fac	-0.10186705
149	0x3c8d7063	0.017265504
150	0xbd9174ce	-0.07102357
151	0x3dd7a5c2	0.10529663
152	0x3d8a201d	0.06744406
153	0x3def0cb2	0.11672343
154	0xbdf898e9	-0.1213854
155	0xbd89f1a6	-0.06735544
156	0x3dc3df8c	0.095641226
157	0xbb8d23a2	-0.0043072263
158	0xbda49c24	-0.08037594
159	0xbd254765	-0.04035129
160	0xbe10aa8d	-0.1412756
161	0x3cbc6ee3	0.023002094
162	0x3d4ff493	0.050770354
163	0x3d11a231	0.03555507
164	0xbd2f61bf	-0.042817827
165	0xbdec14a1	-0.11527372
166	0x3dcbcf9a	0.09951706
167	0xbd7ecd66	-0.062207602
168	0xbdad66b7	-0.08466857
169	0x3db70f3d	0.08938453
170	0x3cc3aa5d	0.023884946
171	0x3dbb12c2	0.09134437
172	0xbda0203d	-0.07818649
173	0x3d44e7ef	0.04807275
174	0xbc7e3126	-0.015514648
175	0x3d7cb64a	0.061697282
176	0x3dc55283	0.096348785
177	0x3e0c437d	0.1369762
178	0xbd82cf4b	-0.06387194
179	0x3db75589	0.089518614
180	0x3dcd652c	0.10029063
181	0x3d19bb57	0.037532177
182	0x3ddfe624	0.10932568
183	0xbbe92e65	-0.0071161264
184	0xbd1767a1	-0.036964063
185	0xbda87859	-0.082260795
186	0xbe1592ef	-0.14606832
187	0x3d9ea0c6	0.07745509
188	0x3dc66a9d	0.096883036
189	0x3dc68169	0.09692652
190	0xbcb903d9	-0.022584843
191	0xbce54741	-0.027988078
192	0x3cafb353	0.021447813
193	0x3cc73e27	0.024321629
194	0x3d953c44	0.072868854
195	0x3ceec80f	0.02914813
196	0x3c3f5fc7	0.01168055
197	0xbe0010ee	-0.12506458
198	0xbd826e63	-0.06368711
199	0xbdbe9245	-0.093052424
200	0xbdc68e22	-0.096950784
201	0x3d2030ce	0.039109044
202	0xbd7a7d6c	-0.061154768
203	0x3dba22c1	0.0908866
204	0xbd8604ab	-0.06543859
205	0x3c775c5b	0.015097703
206	0xbdc52eba	-0.09628053
207	0x3e05b83e	0.13058564
208	0xbe19d5bc	-0.1502294
209	0x3dd66b56	0.104696915
210	0xbdb62564	-0.088938504
211	0x3d6d1c14	0.057888106
212	0xbcd49383	-0.025949245
213	0xbc4d6999	-0.0125373835
214	0x3dc454e7	0.09586506
215	0x3c9163a5	0.01774771
216	0xbd85ae50	-0.06527388
217	0x3de033c8	0.109473765
218	0xbb640ea9	-0.0034798777
219	0x3bcb5d99	0.006206226
220	0xbc8fc2c6	-0.01754893
221	0xbd860514	-0.06543937
222	0xbc74c138	-0.014938645
223	0xbcecb8e5	-0.028896758
224	0x3b0b99f5	0.0021301482
225	0x3e1666b5	0.14687617
226	0xbd524d23	-0.051343095
227	0x3d9a621e	0.075382456
228	0xbe178c68	-0.14799654
229	0x3d5f04dd	0.054447997
230	0xbdadd792	-0.084883824
231	0xbdcd2f54	-0.10018793
232	0xbd387dc9	-0.045041833
233	0xbe0be925	-0.13663156
234	0x3d4da855	0.050209362
235	0x3dda030e	0.10645114
236	0x3d77f2f3	0.06053443
237	0x3c6f3c6c	0.014601808
238	0xbda3b609	-0.07993705
239	0x3d17afe8	0.03703299
240	0xbd8ca1f7	-0.0686683
241	0x3d2d8e0f	0.042371806
242	0xbd988ecf	-0.074491136
243	0x3d9fe1d9	0.07806749
244	0x3c3e65d8	0.011620961
245	0x3d90237c	0.07038018
246	0xbe1499be	-0.14511773
247	0xbba015ea	-0.004885425
248	0x3d7b8852	0.061409302
249	0xbd5053f1	-0.050861303
250	0x3ddf44d3	0.10901799
251	0x3a4b5c08	0.0007757549
252	0x3dc668b9	0.09687943
253	0x3dcbb737	0.09947055
254	0x3b51195a	0.003190598
255	0x3dc2becd	0.095090486

conv5.bias f4 [256]
0	0xba89db4a	-0.0010517624
1	0xba27a0a0	-0.00063944794
2	0xb9b1e48c	-0.00033930351
3	0xba6c0119	-0.0009002849
4	0xba2c545e	-0.0006573851
5	0x3a70b17c	0.00091817207
6	0x3a4a13c5	0.00077086344
7	0xb9ffbf04	-0.00048779708
8	0xb827585e	-3.98982e-05
9	0x3aa17a6e	0.0012319812
10	0xba4c05d1	-0.0007782849
11	0x39f0dda1	0.00045941494
12	0xba6a9aeb	-0.0008949476
13	0x39edcb91	0.0004535583
14	0xba29ae42	-0.0006472805
15	0x3a9db9eb	0.0012033557
16	0xba6e5f2d	-0.0009093162
17	0xb92da0d7	-0.00016558483
18	0xba6e88f8	-0.00090993894
19	0xba2d87fb	-0.0006619689
20	0x3a76d14b	0.00094153424
21	0x3a7f5103	0.000973955
22	0xbaa401ca	-0.001251274
23	0xba23f161	-0.0006253925
24	0xb9103bfe	-0.00013755259
25	0x3a5f420f	0.00085166184
26	0xba975d49	-0.0011548187
27	0x3a4cdbe7	0.00078147504
28	0x3a3967f2	0.0007072679
29	0x3a728aa5	0.0009252227
30	0xb93b85cf	-0.00017883557
31	0xba72d7b8	-0.0009263712
32	0x3a8f5d41	0.0010937826
33	0xba6ff3f1	-0.00091534766
34	0xb9fc82cf	-0.00048162646
35	0xb9afe63a	-0.00033550133
36	0x392e1478	0.00016601558
37	0xb9efd76c	-0.00045746134
38	0x3a17a3eb	0.00057846186
39	0xba6f88ce	-0.0009137512
40	0xb9da5554	-0.00041643775
41	0x3a684a92	0.00088612095
42	0xb9dc3f47	-0.00042008815
43	0xba5ae753	-0.000835051
44	0xba59a72a	-0.00083028025
45	0xba8e2a0c	-0.0010846271
46	0xba12f399	-0.0005605757
47	0xba868fc0	-0.001026623
48	0x3a16d08d	0.00057531224
49	0xba05056d	-0.0005074356
50	0xba40229b	-0.00073293754
51	0xb8937987	-7.0321425e-05
52	0xba38e94b	-0.00070538063
53	0x39ade3e4	0.00033166923
54	0xb9d6e547	-0.00040988086
55	0xba5c1a03	-0.000839621
56	0x3a563bde	0.0008172373
57	0xba90381c	-0.001100305
58	0x3a7b28da	0.00095809775
59	0xba4e27ea	-0.0007864224
60	0x3a4469ae	0.0007492554
61	0x3a9f4da5	0.0012153877
62	0x3a7f6c09	0.00097435765
63	0xba62d9b7	-0.0008653658
64	0xba7dfa09	-0.0009688442
65	0xb9aa9afe	-0.00032540405
66	0x3a52bc6b	0.0008038941
67	0x3a90cde5	0.001104769
68	0x3a5e7cdc	0.00084872334
69	0x39d3db3b	0.00040408396
70	0xba3dc79a	-0.0007239521
71	0x3a130aa5	0.0005609191
72	0xba00909d	-0.00049043616
73	0x3a41b424	0.0007389209
74	0xb991ad65	-0.00027785744
75	0x3a635c14	0.00086730835
76	0xba4efd5f	-0.00078960316
77	0xb9d4eb80	-0.00040611252
78	0x3a493912	0.00076760456
79	0x3aa0a1d2	0.0012255257
80	0xb8a688f0	-7.9410034e-05
81	0xba292247	-0.0006451946
82	0x3a0b2ef0	0.00053094234
83	0xba6346a1	-0.00086698873
84	0x398605bc	0.00025562744
85	0x3a482906	0.00076355075
86	0xb5c458e5	-1.462901e-06
87	0xba73e967	-0.0009304494
88	0x3a28c2a1	0.00064376934
89	0x3a0ede99	0.000545004
90	0xba5a518a	-0.00083281903
91	0xb9c95d82	-0.00038407376
92	0x3a361fd7	0.00069474935
93	0xba4384e2	-0.0007458461
94	0xbaa1c09a	-0.0012340725
95	0x3a27485b	0.0006381326
96	0xb9ac090c	-0.00032813137
97	0x37bb07f7	2.2295846e-05
98	0xba50399d	-0.00079431554
99	0xba378a1d	-0.00070014765
100	0x3a64ee6a	0.0008733036
101	0xba52a0c2	-0.0008034819
102	0x3a83f4c8	0.0010067457
103	0xba3a4dc6	-0.0007106926
104	0x39ae5fe5	0.00033259313
105	0x3a668852	0.0008794117
106	0x3a4657c5	0.0007566179
107	0xba6d7efc	-0.00090597547
108	0xba563b08	-0.00081722485
109	0x3a2faea4	0.00067017437
110	0xb91f6012	-0.0001519921
111	0xba528ae2	-0.00080315594
112	0xb8e8d8bf	-0.00011102994
113	0xba1e5caa	-0.00060410297
114	0xb9419dad	-0.00018464653
115	0xb9309d10	-0.00016843178
116	0xba2996c3	-0.00064693036
117	0x3a11acc3	0.00055570545
118	0x3a301576	0.0006717065
119	0x3a3f8063	0.0007305203
120	0xb9411405	-0.00018413372
121	0xba135d86	-0.0005621541
122	0x3a2dc2ac	0.00066284346
123	0xba63724e	-0.00086763955
124	0xb923f877	-0.00015637452
125	0x38275167	3.9891715e-05
126	0x399750ae	0.00028861075
127	0xba60c6c1	-0.00085745385
128	0x3a4281b1	0.0007419838
129	0xb90f83e2	-0.00013686673
130	0x3a64d52b	0.0008729274
131	0x3a33df57	0.00068615883
132	0xb9f35c53	-0.0004641736
133	0xba599c41	-0.0008301177
134	0x3a03a053	0.00050211436
135	0x3a7e5f10	0.00097034965
136	0x397b4a61	0.00023964934
137	0xb9bdcb5d	-0.00036200407
138	0x3a6ed70d	0.00091110246
139	0xba76f37b	-0.00094204367
140	0xba71aa4d	-0.0009218797
141	0xb917bc26	-0.00014470573
142	0xba5898e5	-0.0008262529
143	0xba5cd36e	-0.00084238395
144	0xb93a1596	-0.00017746384
145	0x3a302a72	0.0006720192
146	0xb9a21115	-0.00030911775
147	0x3a4f609e	0.00079108204
148	0x392ca501	0.00016464667
149	0x3a2e43c8	0.00066476734
150	0xba73a38e	-0.0009294086
151	0x3a954fa6	0.0011391535
152	0x3a368ac9	0.00069634296
153	0x3a7319c5	0.00092735543
154	0x3a083add	0.00051967596
155	0xb84f8f53	-4.9486127e-05
156	0x390ac345	0.00013233449
157	0x3a004387	0.0004892875
158	0xba75dff8	-0.0009379382
159	0x3a237eff	0.00062368804
160	0x39b1afaa	0.0003389095
161	0x39cc4e6e	0.00038968347
162	0x3a746536	0.0009322943
163	0x3a20549b	0.0006116123
164	0xba9c38f7	-0.0011918832
165	0x3a5d67fe	0.0008445977
166	0x3a2eb647	0.00066647347
167	0xba301867	-0.00067175034
168	0x3a7f6d44	0.000974376
169	0x3a5928e3	0.00082839857
170	0xba28c434	-0.0006437928
171	0xba3294a6	-0.00068123115
172	0xb8a5e4a9	-7.9104044e-05
173	0x3a068016	0.00051307806
174	0xba526a09	-0.0008026665
175	0x3a744902	0.00093187403
176	0xba21d5d0	-0.0006173523
177	0xba3e6c94	-0.0007264104
178	0xba751ad0	-0.00093500037
179	0xba4ff6ff	-0.00079332286
180	0xb946c031	-0.00018954348
181	0xba14725b	-0.0005662792
182	0x3a7eea01	0.00097242004
183	0x3972f96d	0.00023171837
184	0x3aa30dc3	0.0012440014
185	0x39bc40de	0.00035906484
186	0xba28d22e	-0.00064400106
187	0xb9ed4428	-0.00045254943
188	0xba7bb79c	-0.000960225
189	0x3a573ad0	0.0008210363
190	0xb84fa19b	-4.9503153e-05
191	0xba4e0c49	-0.0007860107
192	0x3a03013b	0.0004997437
193	0x3a9624e6	0.0011455088
194	0xba5e83e5	-0.0008488282
195	0x3a9de670	0.0012046825
196	0xba7de077	-0.0009684632
197	0xba78906d	-0.00094819703
198	0x3a5489d6	0.00081076974
199	0xb6b1f799	-5.303835e-06
200	0x3a511872	0.000797636
201	0x3a3fe2b2	0.0007319852
202	0x39b08b0b	0.0003367293
203	0x3a5c70c7	0.0008409139
204	0x3a9c965e	0.0011946668
205	0x3a529f79	0.00080346275
206	0xba29a562	-0.00064714823
207	0x3a17bd03	0.0005788358
208	0x3a346e74	0.0006882914
209	0x3aa3f913	0.0012510143
210	0x3a7fa777	0.0009752432
211	0x3a2a79a0	0.0006503109
212	0xb90e4d7a	-0.00013571038
213	0xba490c81	-0.0007669405
214	0x3a538cfe	0.00080700207
215	0xba68488f	-0.000886091
216	0x3a27fd79	0.0006408315
217	0x3a07990a	0.0005172646
218	0x3a15620d	0.00056985096
219	0xb9aa8ad8	-0.00032528373
220	0xba10df34	-0.0005526424
221	0x39d56632	0.00040702667
222	0x3a4eb316	0.0007884962
223	0xba5b576b	-0.00083672133
224	0xbaa2b495	-0.0012413437
225	0xba2d4905	-0.0006610307
226	0x3a35ce15	0.00069353107
227	0xba570cc0	-0.0008203499
228	0xb98ee15d	-0.0002725226
229	0xba1b09e4	-0.00059142546
230	0xba3c5c0e	-0.0007185348
231	0xba6e8e3c	-0.0009100174
232	0x3a7d5ab7	0.00096647016
233	0x3a51ead2	0.0008007708
234	0x39e8cf7e	0.00044405082
235	0x3a6ca224	0.00090268464
236	0x3a710b2d	0.0009195086
237	0xba2356b7	-0.0006230878
238	0x3a42f3fd	0.000743687
239	0xb9295c47	-0.00016151472
240	0xb9857271	-0.00025453002
241	0x3918b76d	0.00014564181
242	0xb7f71c1e	-2.9457788e-05
243	0x39d75983	0.00041074687
244	0x3a0ba96d	0.00053276756
245	0x3a5391b8	0.0008070725
246	0x3a7f3855	0.0009735872
247	0xba6a618c	-0.0008940927
248	0x39802dff	0.00024448332
249	0x3a2f078f	0.00066768465
250	0xba091477	-0.0005229185
251	0x393a8acf	0.00017790053
252	0x39d6f5fb	0.0004100053
253	0x3a7c7a4e	0.0009631262
254	0xba7f68b8	-0.00097430823
255	0xba77df79	-0.0009455602
