weights/8-21-yfp-0_split_0.pt (torch, 473578 bytes, 26 tensors)

conv1.bias f4 [64]
000000 02 01 5e 3a 2a 9a 5e ba 4d 56 1d 3a 98 76 1e 3a
       0.0008468778 -0.00084916 0.00060019345 0.00060448935
000010 5f 20 ff 39 5c bc 24 ba 9b 55 27 ba b1 2c 94 39
       0.00048661508 -0.0006284171 -0.00063833006 0.00028262057
000020 41 a1 a6 39 75 82 18 3a f1 cb 49 3a d9 14 64 ba
       0.0003178213 0.00058177795 0.0007697931 -0.00087006163
000030 d0 f2 a3 39 d0 5b ff b9 56 3e 51 b9 ad 10 f3 39
       0.00031270692 -0.00048705796 -0.00019955015 0.00046360996
000040 84 09 44 ba 3c 7f c6 b9 89 23 01 ba 17 3b 0e ba
       -0.00074782246 -0.000378603 -0.00049262546 -0.0005425675
000050 97 83 4d 38 f1 f1 0b ba 59 49 3e ba 18 97 5f ba
       4.899836e-05 -0.0005338481 -0.00072588545 -0.00085292896
000060 23 7c f7 39 22 1f d9 38 a5 4a de b9 40 d9 6a b9
       0.00047204 0.00010353165 -0.00042398754 -0.00022396911
000070 90 68 63 3a 2c 5f 1e ba 52 dc cd b9 bc cf 13 ba
       0.0008674944 -0.00060414034 -0.00039264798 -0.000563856
000080 7c 29 db b9 ce 88 22 3a 5c 8b e7 b9 dc a3 28 ba
       -0.00041801843 0.0006200195 -0.00044163584 -0.00064331084
000090 97 fc 24 ba b5 13 ce 39 e9 b7 d9 37 42 ad 0e ba
       -0.00062937423 0.00039306065 2.5954056e-05 -0.00054426875
0000a0 46 63 9c b9 26 e7 a5 b9 f9 78 4c 39 f9 28 1f 3a
       -0.00029828603 -0.0003164347 0.00019500022 0.0006071474
0000b0 47 03 58 39 7f 2d 19 3a 39 9e e9 39 02 4d 47 3a
       0.00020600586 0.0005843266 0.00044559108 0.00076027226
0000c0 51 96 81 ba 2e c5 b2 39 95 28 f7 b9 f6 6b 2d ba
       -0.0009886717 0.00034097716 -0.00047141747 -0.00066155137
0000d0 ff d8 ae 38 7a 1a 62 3a ca b1 33 ba 94 39 10 3a
       8.337385e-05 0.0008625161 -0.0006854801 0.0005501744
0000e0 d1 00 23 3a 28 29 7b b9 1d ef 27 ba 05 a6 11 3a
       0.0006218078 -0.00023952557 -0.0006406175 0.000555605
0000f0 f3 98 26 3a a0 19 9e 39 0d c7 9d b9 1b 80 22 ba
       0.00063551887 0.000301552 -0.00030093678 -0.0006198899

conv1.lin.weight f4 [64, 2]
000000 ec f1 34 be 23 2b e7 bd 79 56 85 bc de fe 44 3e
       -0.17670411 -0.112875246 -0.016276585 0.19237849
000010 df 84 8a 3d 6b 2d 62 ba 2c d9 9b bd 1b ef 26 3c
       0.067636244 -0.00086279836 -0.076097816 0.010188843
000020 1e 01 d9 bc 99 d6 d6 bd 26 ec 26 3e 42 b6 6c 3e
       -0.02648979 -0.1049015 0.16301021 0.23116401
000030 8f 3d a8 3c 93 92 2f 3e 2a b7 a7 bd b9 f8 56 3e
       0.020537166 0.17145757 -0.08189233 0.20993318
000040 77 11 c4 3d 38 c9 49 bd 6b 3e 22 3d b0 d8 29 3e
       0.09573644 -0.049264163 0.039610308 0.16586566
000050 b1 00 e1 bd 9f 5e b0 3d df 31 f8 3c f2 8c 34 be
       -0.1098646 0.086117975 0.030297218 -0.17631891
000060 2a b7 dc bc 15 d7 e1 bc 1b bd 1f 3e 8d db b5 3c
       -0.026942808 -0.02756838 0.15599482 0.022199417
000070 50 05 c9 bd ad a2 06 be 24 fd 59 3e 13 f8 55 3e
       -0.098154664 -0.13147993 0.21287972 0.20895414
000080 c4 b5 4a be bd e3 58 bc 7e 96 8d 3d d0 4d 7d be
       -0.197959 -0.013237891 0.0691347 -0.24736714
000090 c9 76 f9 3c 43 d1 9a 3e ab 6c 9c bd 59 e1 92 3e
       0.030452149 0.3023778 -0.07637914 0.28687552
0000a0 4c 26 88 3e a3 60 b4 3d cd 11 86 be 03 70 be 3d
       0.26591718 0.088074945 -0.26185456 0.09298708
0000b0 f2 25 34 be cf 95 2e be 89 15 6a 3e d4 fa 45 3c
       -0.175926 -0.17049335 0.22859778 0.012083728
0000c0 ed 3a 5f 3e 15 e9 6d 3d 7e 27 f7 bd 9c 01 c1 bd
       0.21799822 0.058083612 -0.120680794 -0.09424135
0000d0 de 5a 2e 3e 41 cf 07 3e 90 4f 32 be ea 1f dc bd
       0.1702685 0.13262655 -0.17413163 -0.107482746
0000e0 24 3c d6 3d 7e 98 6b be 8f b8 b7 3c 25 cd 11 bd
       0.1046069 -0.2300739 0.022426872 -0.03559603
0000f0 bd 6d d5 bd 98 b2 81 be a7 ca 83 be 76 d4 15 3e
       -0.104213215 -0.2533157 -0.2574055 0.14631829
000100 b4 1b 14 3e 5d c3 18 3e f2 cf a0 3e aa 2a dc bd
       0.14463693 0.14918275 0.3140865 -0.10750325
000110 60 f9 76 be 55 1d 55 3e 04 06 1d 3e 12 76 1a 3e
       -0.24118567 0.2081197 0.15334326 0.15084103
000120 15 3c ae bb dc 4c 5b 3d f0 98 8f 3d 3c 8d 82 bc
       -0.005317221 0.053540096 0.070115924 -0.015936486
000130 a8 2d 34 3e 6a ad 62 3e 96 28 87 be 41 c3 95 3e
       0.17595541 0.22136465 -0.26398152 0.2925053
000140 37 e3 80 be e4 6e 90 3e 67 a7 13 3e 1b c4 79 3b
       -0.2517335 0.28209603 0.14419328 0.0038111273
000150 09 74 42 be 47 f1 3e be 62 1d 5a 3d a9 f2 65 3e
       -0.18989576 -0.18646728 0.053250678 0.22455849
000160 b8 f0 e8 bd 6c 7d 87 3e b6 53 80 be df 9c 80 3e
       -0.113740385 0.26462877 -0.25063866 0.25119683
000170 0a ab 9c 3e ba 72 a6 3d df 9a d7 bc ff 9b 17 be
       0.30599242 0.08127351 -0.026318965 -0.14805602
000180 96 5f c1 bc 7d 32 df 3b c3 e4 66 3d bd 30 99 3d
       -0.02360515 0.0068114386 0.056370508 0.07479999
000190 e8 6b 64 3e 57 74 86 3c 52 d8 23 3e a3 15 35 3b
       0.22306788 0.016412897 0.16000488 0.0027631305
0001a0 8c 89 2c be 26 40 69 3e 61 c0 2f bd bf 8a d3 3d
       -0.16849345 0.22778377 -0.042908076 0.10329198
0001b0 58 99 86 3e a2 1f 39 bd 36 f2 27 bb b8 58 28 be
       0.26288867 -0.045196183 -0.0025626547 -0.16440094
0001c0 09 7a 2f be ac 71 45 3e 49 01 12 be 26 6c 8a 3e
       -0.17136396 0.19281644 -0.14258303 0.27035636
0001d0 19 43 64 3e c1 90 38 3d c6 f6 7c 3e 24 b9 07 3d
       0.2229122 0.045059923 0.24703512 0.03313555
0001e0 a9 a5 f1 bc 5c 02 84 3e 74 14 fb bd cf 36 90 be
       -0.029497938 0.2578305 -0.122597605 -0.28166816
0001f0 7a 34 35 3e 69 b6 18 be cd 31 82 be da c8 30 3e
       0.176958 -0.14913334 -0.2542862 0.17264119

conv2.bias f4 [64]
000000 7e 05 a3 bc 02 38 9c 3c cc 9f a8 3c 67 6e 9b 3c
       -0.01990008 0.019069675 0.02058401 0.018973542
000010 91 cf a5 3c e1 e6 3a 3c d2 88 96 3c 88 e9 a1 bc
       0.020240577 0.011407585 0.018375788 -0.019764677
000020 cc 1b 9b 3c 7a ff a1 3c 8c b5 9a bc 16 a9 99 bc
       0.018934153 0.019775141 -0.018885396 -0.018757384
000030 23 80 bf bc b4 bd e1 3c 71 78 b4 3c 88 56 e1 bb
       -0.02337653 0.027556278 0.022030087 -0.0068767704
000040 86 a8 b7 37 fc d9 f8 3b 6b 43 ac 3c 12 da 06 bd
       2.1893775e-05 0.007594345 0.021028241 -0.03292281
000050 7f 94 dc bb 90 94 10 bc c8 26 ee 3c df 37 a7 3c
       -0.0067315693 -0.008824483 0.029071227 0.020412384
000060 1a d9 b2 bc c9 2b e0 3c 69 b1 96 3c ad 8b a6 bc
       -0.021832038 0.027364628 0.018395143 -0.020330274
000070 f5 72 c2 bc 53 0b 8f 3c 9f ac b1 bc 38 22 96 3c
       -0.023736456 0.017461454 -0.021688757 0.018326864
000080 d0 93 a8 bc 43 b9 7a 3c a9 fc a5 3c b1 97 94 3c
       -0.020578295 0.015302959 0.02026208 0.018138738
000090 49 7b b1 bc 18 92 22 3b 93 26 ad 3c ee 45 b0 bc
       -0.021665232 0.0024806317 0.021136558 -0.02151772
0000a0 f4 59 83 3c d1 c5 a8 bc 3d e6 95 3c 46 9a 8a bc
       0.016034104 -0.020602139 0.018298263 -0.016919266
0000b0 a2 c6 07 bd cd 37 c8 bc ac c0 9d bc 9c 14 8f 3c
       -0.033148415 -0.02444067 -0.019256912 0.017465882
0000c0 88 8f a8 bc 70 e6 99 3c 8a 65 ab 3c 41 fc 9f 3c
       -0.020576254 0.018786639 0.020922441 0.019529464
0000d0 cd b4 b4 3c b9 11 6f bc 93 ad 93 bc e9 cb a0 bc
       0.022058869 -0.014591628 -0.018027103 -0.019628482
0000e0 75 34 0a 3c c9 67 8e bc 89 e3 5d 3c e5 c6 a5 3c
       0.008435358 -0.017383473 0.013543018 0.020236442
0000f0 ab c7 d7 3c 82 c2 b3 bc 52 a2 93 3c 91 45 f4 bc
       0.026340326 -0.021943334 0.018021736 -0.029818328

conv2.lin.weight f4 [64, 64]
000000 45 69 7c 3d fc 21 2a bd b3 f1 25 be 57 3b 4a bd
       0.06162383 -0.041536316 -0.16205482 -0.049372997
000010 f3 15 0a bd ac c4 16 3d 05 51 02 3e 67 a5 16 bd
       -0.03371234 0.036808655 0.12726219 -0.036778834
000020 e0 5a 74 bd ee ff a3 bd 39 20 87 bd 40 4c d9 bd
       -0.059656978 -0.08007799 -0.06597943 -0.10610247
000030 e9 fa 0b be 2e 24 37 bd 39 28 4e 3d 63 2d 52 be
       -0.13669933 -0.044712238 0.050331328 -0.20525126
000040 d3 7d 30 3e b5 66 3b 3e 45 a4 12 3e ae 61 22 bd
       0.17235498 0.18300898 0.14320476 -0.039643936
000050 2d af 68 be 90 e5 a1 3d eb b7 1a be 4d 01 1f 3e
       -0.22723074 0.07905114 -0.15109222 0.1552784
000060 a8 60 43 3e ea 2d 2a be 1f 62 18 be d4 f2 39 be
       0.1907984 -0.16619077 -0.1488118 -0.18159038
000070 a3 42 ac bd 1b c8 9f 3b 6c 91 cd bd ad 95 d3 bd
       -0.084111474 0.0048761494 -0.10037503 -0.10331283
000080 9d dc 56 3b 8c bd d1 3d 4c e9 91 bd fc ba ba bd
       0.0032785304 0.10241231 -0.07124576 -0.09117696
000090 38 ae 65 3d ad eb 5d be b9 c4 49 3d f2 4d dc 3d
       0.05607435 -0.21671934 0.049259875 0.107570544
0000a0 d0 0a c3 3d 86 cc a7 bd 4f e9 62 3e 42 b5 12 bd
       0.09523547 -0.081933066 0.22159313 -0.035817392
0000b0 8f ca 73 3e 1b c6 ec bd 15 bd 10 bd 1c 66 14 3e
       0.23807739 -0.11561223 -0.035336573 0.14492077
0000c0 d6 4a 51 3e a9 fe 03 be f6 b0 a5 3d b9 5d 9f 3d
       0.20438704 -0.12890114 0.08090393 0.07781548
0000d0 f9 ee 96 bd 31 2d fd 3c 48 fd 03 3e ab 70 87 3d
       -0.07369799 0.030905338 0.12889588 0.066132866
0000e0 c2 c9 3b be 3e d5 a7 bd ce c3 f9 3d c4 38 3d 3e
       -0.18338683 -0.081949696 0.1219555 0.18478686
0000f0 7f 27 49 bc ba 31 f9 3d 96 d9 3b be 30 f5 f4 bd
       -0.012277483 0.12167688 -0.18344721 -0.11960828
000100 69 0e dd bd a3 b8 8a 3d 27 a4 45 3e 13 94 3f be
       -0.10793764 0.06773498 0.193009 -0.1870883
000110 45 cd cc bd 09 d1 f1 bd 39 40 ef 3d 63 f3 2a be
       -0.100000896 -0.118074484 0.116821714 -0.16694407
000120 4a 00 47 be 8d f3 c4 3d 52 9d 7d bd 55 62 36 bd
       -0.19433704 0.09616766 -0.06191761 -0.04452737
000130 5e 57 9a bd ea 5a 10 bd d5 67 00 3e 04 0f 9e bd
       -0.07536195 -0.035242952 0.12539609 -0.07717708
000140 70 05 2d be d5 35 bc bd b1 44 8b bd 6b 9a 17 3e
       -0.16896605 -0.09189955 -0.06800211 0.14805
000150 ce c8 e1 bd da 7d 46 3e 6d fd 0b be 09 65 60 3e
       -0.110246286 0.19383946 -0.13670893 0.21913542
000160 bd b4 41 be 72 fa 1c be e1 9f dc 3d e6 a7 43 be
       -0.18916602 -0.15329912 0.10772682 -0.19107017
000170 de 34 c2 bd 66 ef 8f bb 8e b5 4f 3e d3 50 a8 ba
       -0.0948274 -0.004392552 0.20284101 -0.001284147
000180 ad a0 33 3e 3f ab 91 3d c4 e6 7d bd 4c e6 5c 3d
       0.17541762 0.07112741 -0.061987653 0.053930566
000190 10 89 1d be c2 2b 44 3e 49 32 27 3e c1 2c 58 3e
       -0.15384316 0.19157317 0.16327776 0.21110822
0001a0 72 a4 ee 3d 6a 3a 0d be aa c3 60 be ba 67 8a 3d
       0.11652459 -0.13791814 -0.2194964 0.067580655
0001b0 c7 25 35 bc 0a e4 94 bc ad 27 b9 3c 68 57 23 3e
       -0.01105637 -0.018175144 0.022601927 0.15951312
0001c0 ce 21 8e 3d b5 49 56 3e 98 75 49 3e e9 50 27 be
       0.069400415 0.20926555 0.19673765 -0.16339459
0001d0 b9 eb 2f 3d cd 7d 58 3e 88 1f 77 3d 9f 1b f5 3d
       0.042949412 0.21141739 0.060332805 0.11968159
0001e0 6f e1 a6 bc 73 a7 ef 3d fb 9c 9f bd 07 a4 f9 3d
       -0.020371167 0.1170186 -0.077936135 0.12189489
0001f0 75 c9 60 3e 0a 74 98 bc 7e 88 f5 3d 31 d6 32 be
       0.2195185 -0.01861002 0.119889244 -0.1746452
000200 aa c9 03 3e 13 5b fb bc 02 47 f3 3d 48 93 f3 3d
       0.12869897 -0.030683076 0.11878778 0.11893326
000210 fd 72 29 3e 87 8e 05 be bf 56 50 3c 76 2f 10 be
       0.16547771 -0.13042651 0.012715994 -0.14080605
000220 9f 99 6e 3e 6d 91 40 3d 2f 88 51 be 3d 3a 02 3e
       0.2330079 0.04701369 -0.20462106 0.12717529
000230 2f 92 cc bd 81 97 1e 3e 31 0d e0 3d cf 14 43 3e
       -0.0998882 0.15487482 0.10940016 0.19050907
000240 94 2c b0 3d 10 17 19 bc 17 3c 90 bc 16 c1 25 3e
       0.086022526 -0.009343877 -0.017606778 0.16186938
000250 48 ee 08 be c2 4f 07 bd 39 93 ab bb c3 6f e4 3d
       -0.13372147 -0.033035047 -0.005236056 0.11154129
000260 7f b7 41 3e 96 72 3c be b9 61 51 3e 8d 60 48 3e
       0.18917654 -0.18403086 0.20447434 0.19568081
000270 7e 52 46 3e 83 97 7f bc 78 b7 9b bd fe 1e 1b be
       0.19367406 -0.015600088 -0.07603353 -0.15148541
000280 fb f3 04 be 95 ab 18 3e 52 de 55 be 6c c0 52 bb
       -0.12983696 0.14909203 -0.2088559 -0.003215815
000290 26 7b 13 be 13 1c 00 3e da 5d 3f be 90 d6 17 3e
       -0.14402446 0.1251071 -0.18688145 0.14827943
0002a0 2b 1d 4c bc d6 79 1e 3e d7 a9 8a 3d 8a eb 48 bd
       -0.012458126 0.15476164 0.06770676 -0.049052753
0002b0 aa b8 13 be f1 45 a1 3d 2e 45 56 3e f9 12 83 bd
       -0.14425912 0.078746684 0.20924827 -0.06400103
0002c0 89 41 e4 3d 24 0c fc 3d 09 b6 2d be 0a b8 03 be
       0.11145312 0.12307003 -0.16963972 -0.12863174
0002d0 4c 32 b9 3d ce bb 1d be 73 0e b6 3d 37 de 7e bd
       0.090427965 -0.15403673 0.08889475 -0.06222364
0002e0 b2 93 23 3b bb b4 da bd 6f 7b 91 ba 55 2e 36 be
       0.002495986 -0.10679003 -0.0011099408 -0.17791112
0002f0 c9 0c 28 bd 8c de d5 bd fe d8 20 be e2 c2 a2 3d
       -0.041027818 -0.10442838 -0.15707776 0.07947327
000300 74 93 be 3d bf 5b 05 be c1 ff 56 be 92 b6 21 3e
       0.09305468 -0.1302328 -0.20996 0.15792301
000310 ad 06 8a 3d bd 2d 8a bd 64 17 d2 3d 3b 59 20 bd
       0.067395546 -0.06747005 0.10258368 -0.039147597
000320 f4 ee c3 bd 40 9c ba 3d dc c7 83 bc 6e 8d 50 be
       -0.09567061 0.091118336 -0.016086511 -0.20366451
000330 a6 2a 00 be d8 80 9e bc ec bf 36 bd a0 24 1b 3d
       -0.12516269 -0.019348547 -0.044616625 0.037876725
000340 75 2b 07 3d ee e8 1f be 79 58 16 3e b5 7b 2a 3e
       0.03300043 -0.156162 0.14682187 0.16648753
000350 52 3b 46 3d a2 81 0e bd e1 60 24 3e 68 fd 92 bd
       0.048396416 -0.034791596 0.16052581 -0.0717724
000360 ac 07 d0 bc 56 f8 f4 3c d5 02 5a 3e ef 7f e8 bd
       -0.025394283 0.029903572 0.21290143 -0.113525264
000370 78 d3 36 bd 80 bc 2b be ea 39 1b 3e d2 b3 3e be
       -0.044635266 -0.16771126 0.15158811 -0.18623284
000380 f5 a5 d4 3d c6 a7 d9 bd d4 cd 20 3e 05 cf 15 3e
       0.10383216 -0.10627703 0.15703517 0.14629753
000390 f1 69 46 be d1 6c 65 3d 4e 8c 41 3e c9 de 21 3e
       -0.19376351 0.05601198 0.18901178 0.15807642
0003a0 4c 06 1b 3e 85 8c 2a bd 84 d7 6f be 44 9d 91 bc
       0.15139121 -0.041637916 -0.23422056 -0.017775185
0003b0 a5 99 0a 3d 69 1d 02 3c 95 97 ef bd 19 a7 5e be
       0.033837933 0.007941582 -0.11698834 -0.2174343
0003c0 ba 83 00 3e 2f ba f7 bd f5 ad 59 be e6 2d c8 3c
       0.1255025 -0.120960586 -0.21257766 0.024435949
0003d0 d6 ed 2f 3e d5 77 45 3e a1 60 07 3d b8 27 0b be
       0.17180571 0.19283994 0.033051137 -0.1358937
0003e0 c8 e8 56 3d 46 00 5a 3e 28 b4 0b be 26 38 41 be
       0.05246809 0.21289167 -0.13642943 -0.18869075
0003f0 8a b3 40 bc af 37 39 3c 9e 98 17 3e 9e 60 ff 3c
       -0.011761555 0.01130478 0.14804313 0.031174

conv3.bias f4 [128]
000000 93 71 8d 3a 88 44 9a b8 dc 8f 56 3a 94 76 08 b9
       0.0010791294 -7.356057e-05 0.0008184889 -0.00013014144
000010 dd 35 a8 b9 bf 3e 16 3a de f6 91 3a 0f bc 4f ba
       -0.00032083588 0.0005731396 0.0011136194 -0.0007924446
000020 04 67 91 39 e7 66 36 b9 a0 b7 50 ba d9 11 5a 3a
       0.00027733308 -0.00017395207 -0.00079619326 0.00083186995
000030 93 21 93 39 e2 bf 00 3a 3a c7 49 3a 6a f2 90 ba
       0.0002806304 0.0004911405 0.00076972286 -0.0011058573
000040 e4 92 66 39 5c ce 83 ba 8b 74 a2 b9 ed ba f7 39
       0.0002198923 -0.0010056007 -0.0003098588 0.00047250782
000050 4a f8 4a ba 59 34 66 ba ee a1 51 3a 59 dd 83 ba
       -0.00077426864 -0.0008781604 0.00079968467 -0.0010060474
000060 68 14 a5 b9 da 75 ad ba 1d 01 07 3a b6 0b 88 b9
       -0.00031486456 -0.0013233975 0.0005150007 -0.00025948667
000070 cd cd 94 3a dc a1 58 ba b4 a4 03 b9 78 e6 51 ba
       0.0011352837 -0.0008263865 -0.0001255449 -0.000800706
000080 7f 51 68 ba 1b 59 1e ba fc 3d 0f 39 36 cb 67 ba
       -0.00088622415 -0.00060404994 0.00013660634 -0.00088422315
000090 97 67 12 3a de f5 94 ba 0c 58 d9 39 fb d4 6f 3a
       0.0005584894 -0.0011364778 0.00041455065 0.0009148863
0000a0 46 83 c9 b9 2a f4 28 b9 d1 7b 50 39 8c b5 94 3a
       -0.00038435514 -0.00016112687 0.00019882551 0.0011345609
0000b0 ed 2d d6 39 ac c5 f9 39 3c 6b 5e 39 cc 57 db b9
       0.00040851478 0.00047640258 0.00021211518 -0.0004183635
0000c0 a2 49 89 ba 82 50 43 ba e1 dc 4a 39 2d 77 41 ba
       -0.0010474215 -0.0007450656 0.00019346505 -0.00073801243
0000d0 93 91 8b 3a 12 7f 85 ba d4 71 62 ba 09 fa 1f ba
       0.0010648243 -0.0010184965 -0.00086381775 -0.0006102627
0000e0 b2 e6 eb 37 cf de 86 b9 1a 89 83 3a 4c 46 bc b9
       2.8121609e-05 -0.00025724477 0.0010035366 -0.0003591053
0000f0 4c 8a d3 b8 6c 18 49 3a 4c dd 90 b9 f6 e5 08 ba
       -0.00010087024 0.00076711806 -0.000276307 -0.0005222255
000100 79 eb 34 3a 3a 0a 01 39 1a ad 51 ba 40 0e 89 b8
       0.0006901543 0.00012306208 -0.00079985114 -6.535323e-05
000110 2b 2b 6d b9 dd 69 83 ba ac f8 f4 b7 7e 9b 61 ba
       -0.00022618163 -0.0010026057 -2.9202864e-05 -0.0008606239
000120 37 55 74 39 b5 ae 45 3a c0 5b 94 3a 5c 23 63 3a
       0.00023301398 0.0007540987 0.0011318848 0.0008664632
000130 a2 fc 50 ba 2b ae 0e ba 22 b0 cc b7 23 a2 38 3a
       -0.00079722155 -0.0005442823 -2.4400713e-05 0.0007043203
000140 39 9e 40 38 0b e8 27 b8 9a e7 49 3a 10 d7 08 3a
       4.5923724e-05 -4.003201e-05 0.0007702053 0.0005220035
000150 6c b2 10 3a 70 92 03 39 95 ef 9f b9 26 81 e0 38
       0.0005519751 0.00012547686 -0.00030505346 0.00010705208
000160 79 3f 53 ba 83 c4 25 ba c2 05 a5 b9 08 ed 4a 38
       -0.00080584694 -0.0006323533 -0.00031475542 4.8381306e-05
000170 57 d3 53 b9 b7 aa 44 3a d8 9f 46 ba e9 7a 1a b9
       -0.00020201258 0.0007502245 -0.0007576919 -0.00014732372
000180 bb d8 96 39 bb 4e 3f 3a ce 83 95 ba 1f 21 28 3a
       0.00028771706 0.00072978035 -0.0011407079 0.0006413627
000190 6f cf 09 ba ab dd f3 b9 0d e0 c5 39 ea 3c bd 39
       -0.0005257045 -0.00046513727 0.000377417 0.00036094274
0001a0 98 fa fe b8 c0 f1 04 39 cc b2 11 ba 7a 4d ed b9
       -0.000121583405 0.0001267856 -0.0005557954 -0.00045261887
0001b0 98 15 82 ba 3e 13 eb b8 79 29 6f 39 86 25 b5 b9
       -0.0009924648 -0.00011209257 0.00022808266 -0.00034550967
0001c0 b0 43 e1 39 91 5d 5e 3a 2a bc 4d 3a 2e 4a 86 b9
       0.00042965775 0.00084825704 0.0007848168 -0.0002561374
0001d0 dc 66 2b 38 6e 36 d3 ba 41 b3 cb 38 0b ca a3 39
       4.0865372e-05 -0.0016114244 9.713183e-05 0.00031240316
0001e0 c7 4b bf 39 6f c4 07 ba b2 9d 53 3a 38 09 19 b9
       0.00036486817 -0.0005179112 0.00080725097 -0.00014594651
0001f0 4e 16 61 3a 0f a2 e6 39 21 86 71 3a 83 98 93 3a
       0.00085863925 0.00043989762 0.0009213407 0.0011260662

conv3.lin.weight f4 [128, 64]
000000 d8 a5 53 bd ac ef 42 be f0 e1 91 bd 29 16 38 be
       -0.051671833 -0.1903674 -0.07123172 -0.17977203
000010 28 bd 17 3d f8 c4 39 3e 5d 00 07 3e 49 2f 0e be
       0.037045628 0.18141544 0.13183732 -0.13885225
000020 ba 50 bb bd 6a 51 f3 bd 55 d0 ca bd 68 50 b4 bd
       -0.09146257 -0.11880763 -0.099030174 -0.08804399
000030 3b 8b fa 3d 4d 1b 2e 3e 6f f4 4f bd ff bd 1b be
       0.12233587 0.17002602 -0.05077022 -0.15209197
000040 4a 46 56 3d 43 9b 73 3d 6e e9 59 bd 5e 00 0f be
       0.052313127 0.05947424 -0.05320113 -0.13964984
000050 67 a2 90 3c aa a6 b5 bd b9 54 80 3d 6c 52 6c 3d
       0.017655564 -0.08869679 0.062661596 0.05769579
000060 1e c7 7e 3d b2 0d 0f be f9 b4 4f 3d 86 97 ab 3c
       0.06220161 -0.13970068 0.0507097 0.020946275
000070 d2 2d 8c bd 52 e5 2f be a5 c3 81 3d 44 39 4c 3d
       -0.06844677 -0.17177323 0.06336144 0.0498593
000080 fe 35 83 bd 75 af f3 bc b2 6f bb bc 3d f3 1f 3c
       -0.064067826 -0.02974675 -0.022880409 0.009762582
000090 b8 92 fe 3d ef 05 24 bd 76 b8 1c 3e 89 2f b7 3c
       0.12430328 -0.04004472 0.15304741 0.022361534
0000a0 d8 fb 9e 3c ee 36 28 be 6d e3 2e 3e 2b 03 fd 3b
       0.019407198 -0.16427204 0.17078944 0.007721325
0000b0 28 a4 fa 3d 5a 58 b4 3c 16 6d 42 bd 21 00 8c 3d
       0.122383416 0.022014786 -0.047467314 0.06835962
0000c0 92 9d 7d 3d 45 14 11 be 10 18 2e 3d 5c ac 6b 3d
       0.06191785 -0.14167888 0.042503417 0.05753742
0000d0 88 dd 7a 3d 26 18 3e bc 03 1e be 3d 50 1e cd bc
       0.061246425 -0.011602437 0.09283068 -0.025038868
0000e0 a2 83 dc bc 28 8d b6 bd 9b ae 3b 3d 15 17 1d be
       -0.026918236 -0.08913642 0.045820814 -0.15340836
0000f0 c1 69 37 be 41 72 d7 bd 7a 14 33 3e be ce eb 3c
       -0.17911436 -0.10519839 0.1748828 0.028785106
000100 66 d5 a6 bd dc 66 1d be 2c cc ac 3d 9f 00 99 bd
       -0.08146171 -0.15371269 0.0843738 -0.074708216
000110 b5 4e a2 3c 87 6b 41 bd 25 32 e7 bd 2d c5 e4 3d
       0.019812921 -0.047221687 -0.11288861 0.11170421
000120 c7 89 cd bd f8 e2 37 bc 85 98 30 be 12 9c 07 3d
       -0.100360446 -0.011223547 -0.17245682 0.033107825
000130 d3 c0 ef 3c 93 f5 a3 3c 41 61 0b bd 4e 37 01 3e
       0.02926675 0.02001456 -0.034028295 0.12618753
000140 0d 1e 86 bc 37 29 9a bd 7a 97 1e be 1d 86 16 be
       -0.016371751 -0.07527392 -0.15487471 -0.14699598
000150 d9 5c f7 3d cb cb 9e bd f7 b8 f5 bd 79 bf 22 3d
       0.12078256 -0.07753714 -0.1199817 0.039733384
000160 2b 50 04 3c 3e fb 22 3e 79 e2 c5 bd bd 2e 17 be
       0.008075754 0.15916154 -0.09662337 -0.14763923
000170 9b ee c7 3d c8 ed 8b 3c c5 e2 09 3d 06 8c 4d bd
       0.09762307 0.017081156 0.03366353 -0.050182365
000180 0e ef 2b 3d e4 be 0d 3c 85 c1 8e 3d 8d bc 21 be
       0.041976027 0.008651469 0.06970505 -0.15794583
000190 d8 06 cf 3d 23 2b 21 3e ba 8d 79 bd e5 81 e9 3d
       0.10108727 0.15739112 -0.060926177 0.114017285
0001a0 84 47 e7 3d be 83 b8 3d 82 2a ac bd f8 89 a4 bc
       0.112929374 0.09009503 -0.08406545 -0.02008532
0001b0 0c 63 07 bd ba 73 01 be bc fa 1d be f3 87 d0 bd
       -0.033053443 -0.12641802 -0.15427679 -0.1018218
0001c0 5d ba 75 3d d3 90 ad 3d 53 c1 38 bb 08 80 42 bd
       0.059992183 0.08474889 -0.0028191402 -0.04748538
0001d0 c2 0d bf 3d af c5 92 3d df 89 cb bd 5f a8 0c 3d
       0.09328796 0.071666114 -0.09938406 0.03434026
0001e0 0d 1b 43 be 3d b3 e8 3d 91 b0 ea bd 03 34 99 bd
       -0.19053288 0.11362312 -0.114594586 -0.074806236
0001f0 2d 6c 19 3d df e6 9a bd 6a 4a 0e 3e 7f ba 3a 3d
       0.03745668 -0.075635664 0.13895574 0.045588013
000200 1e b2 22 3d 4e 52 e6 bc 45 f5 0b 3e 41 e5 d9 bd
       0.039720647 -0.028115418 0.13667782 -0.1063943
000210 0e 95 bb bd 59 d8 a3 3d 9f 51 10 3e b7 fd 5f bd
       -0.09159289 0.080002494 0.14093636 -0.05468532
000220 a7 7a 58 3d d8 6a c4 3d 13 03 d2 3c cf 27 09 bd
       0.052851345 0.09590691 0.025636232 -0.03348523
000230 57 d0 40 39 fd 39 03 3e 2e 46 a1 3d 62 39 fa 3d
       0.0001838816 0.1281509 0.07874714 0.12217976
000240 6d 08 10 be 77 8b 11 3d cb 20 d5 bd 7a fa 97 bd
       -0.14065714 0.035533395 -0.104066454 -0.074208215
000250 80 c4 6e bd 67 0c 71 bd 50 b5 c8 bd 00 3f 06 3e
       -0.058292866 -0.05884972 -0.098002076 0.1310997
000260 0e 78 41 be 09 ff 75 3d ca 75 af 3d 89 6f a0 bc
       -0.18893453 0.060057674 0.08567388 -0.019584434
000270 6c f4 63 bd be 31 85 bd 6a ca e1 3d d6 19 f7 bb
       -0.05565302 -0.06503628 0.110249355 -0.0075409217
000280 43 bf 9f 3d ae ee be bc 9b 8f fa 3c d8 2a 44 3d
       0.07800152 -0.02330717 0.030586055 0.04789242
000290 c4 41 25 bd 49 c4 91 bd f1 04 60 bc 3f 36 f2 bc
       -0.040345922 -0.071175165 -0.013673053 -0.029566882
0002a0 ef c7 06 3e f1 8f 34 bd 50 7c 12 3e 90 9f b9 3d
       0.13162206 -0.044082586 0.14305234 0.09063637
0002b0 7b fb 1d 3e 2c 82 20 3e 43 2a a9 bc c1 1f 11 bd
       0.15427963 0.15674657 -0.020650035 -0.035430674
0002c0 77 f1 fc 3d a4 93 1a be 6f b8 da 3c d7 17 1c bd
       0.12350743 -0.15095383 0.026699273 -0.038108673
0002d0 e1 79 f6 bd 15 ea 46 bd 3e 5f df bd 58 43 08 3e
       -0.12034965 -0.04856308 -0.10906838 0.1330694
0002e0 da e7 14 be ad 1d b3 bd ea 14 39 be 09 8b e5 bb
       -0.1454157 -0.087458946 -0.18074384 -0.0070050997
0002f0 44 79 20 3e 44 bc 4c 3d aa e9 02 3d 30 13 96 3d
       0.15671259 0.04998423 0.03196112 0.073278785
000300 b0 82 c0 bd 6b cc 94 bb 72 d0 3a bd ca 97 43 bd
       -0.09399927 -0.00454097 -0.045608945 -0.04775218
000310 5b 83 27 3d 19 dc b2 3d c2 3e 0a 3e dc cb bb 3b
       0.040896755 0.087333865 0.13500503 0.005731089
000320 dd 5e 01 3e 7e 5f 95 bd 9d 10 b5 bd bd 94 0c be
       0.12633844 -0.07293604 -0.08841059 -0.13728614
000330 35 ac 9c bd 4f 99 6f 3c 2a a3 a9 bd 06 51 bc bd
       -0.076500334 0.014623954 -0.08283074 -0.091951415
000340 ff eb 9d 3d a2 2c d0 3d 9e fc eb bd 9e 34 00 3d
       0.07711028 0.10164763 -0.11522792 0.03130018
000350 2a b0 e8 3d ef 05 0e bd 90 1e f8 bd fe 2f 4b bd
       0.11361726 -0.034673627 -0.12115204 -0.049606316
000360 34 3f af 3c dc 32 10 be 9d e1 64 3d 97 46 9c bd
       0.021392442 -0.14081901 0.055879224 -0.076306514
000370 6a ff 02 3e a8 a6 de 3d c5 03 cf bd bf 68 1b be
       0.12792745 0.10871631 -0.10108141 -0.15176676
000380 7f 77 10 3e fd 5c ed 3d 57 0a a3 3c d9 43 7e bd
       0.14108084 0.11590002 0.019902391 -0.062076423
000390 02 54 17 3e 48 8b 37 be 5a 45 d6 3d 17 b2 1b 3e
       0.1477814 -0.17924225 0.104624465 0.15204655
0003a0 6d e4 ed bb ea ae 24 be cf 1c e5 bd 40 cf 96 3d
       -0.0072598965 -0.1608235 -0.111871354 0.073637486
0003b0 48 87 3b 3e a2 39 39 3d 81 fe 12 be ab 9b 1e be
       0.18313324 0.04522098 -0.14354898 -0.1548907
0003c0 5d f6 18 be ba df f9 3c 97 95 5f bd f4 9b 6e bd
       -0.1493773 0.030502189 -0.05458602 -0.058254197
0003d0 27 b4 a7 3d 3c 72 0f 3d cc 97 ad 3d 33 c3 12 bc
       0.08188658 0.03502105 0.084762186 -0.008957672
0003e0 c7 1d d3 bc 5b ea 30 bd e9 b9 fa bd 7e f5 02 be
       -0.025771035 -0.04319225 -0.12242491 -0.1278896
0003f0 2b 57 fb 3d d9 ed f1 bc 6f 01 b7 bd 8e 86 0c be
       0.12272485 -0.02953236 -0.0893582 -0.13723204

conv4.bias f4 [256]
000000 8f 47 b2 bc ba a9 90 bc 58 c6 ad 3c 75 13 9a 3c
       -0.021762637 -0.017659057 0.021212742 0.018808106
000010 f6 c2 c5 3c 47 e8 a1 bc 31 ad a6 bb 91 97 b2 3c
       0.024140816 -0.019764079 -0.005086564 0.021800788
000020 36 bc 9d 3c 4c 11 b4 bc 91 f8 c1 3c e3 c3 a8 bc
       0.019254785 -0.021980904 0.023678096 -0.020601219
000030 d1 ec c6 3c 86 11 ef bc 3b 40 aa bc 82 45 bc bc
       0.024282845 -0.02918316 -0.02078258 -0.022982363
000040 21 de c6 bc 35 f1 9f 3c 94 28 b4 bc 9e 41 67 3c
       -0.024275841 0.019524196 -0.021992005 0.014114765
000050 c0 94 95 bc 70 34 c5 bc 93 45 b3 3c 82 d9 f1 3c
       -0.018259406 -0.024072856 0.021883762 0.029522661
000060 2a 31 a2 3c 0a 79 cd bc f7 94 92 3c c8 13 be bc
       0.019798834 -0.02508213 0.017893298 -0.023202792
000070 5f f1 5f 3c b9 8c a8 bc 22 3d 04 bd 66 9c a4 3c
       0.013668387 -0.020574914 -0.032284863 0.020094108
000080 47 ab a5 bc a4 02 6f bc 58 2e a9 bc 23 7b 9b 3c
       -0.020223273 -0.014588032 -0.020651981 0.018979615
000090 f5 90 b2 bc 30 0a 21 bc 22 e9 91 3c c9 81 81 3c
       -0.021797637 -0.009829089 0.017811362 0.015808957
0000a0 12 a5 b8 3c 48 35 a6 3c 7d 33 a9 bc e0 ca ba 3c
       0.02253965 0.020289078 -0.020654434 0.022801816
0000b0 8d c2 fb bc 7e c9 9d 3c 7e 29 bd 3c 9e 56 b2 3c
       -0.030732417 0.019261118 0.023091074 0.021769818
0000c0 a1 3f 91 3c c2 12 bb 3c b2 35 be bc b3 5e be bc
       0.017730536 0.022836093 -0.023218963 -0.023238515
0000d0 7e 31 ac 3c ff 00 a3 bc bd c0 8b 3c f8 2a 94 3c
       0.021019693 -0.019897936 0.017059678 0.018086895
0000e0 0b 47 f2 3c 6b 9d e9 bc e5 b7 bc 3c af 7d 97 3c
       0.029574892 -0.028517446 0.023036906 0.018492548
0000f0 77 31 e5 3c c3 0e 9d bc ed a3 9a 3c d6 47 a9 bc
       0.027977688 -0.019172078 0.018876994 -0.020664137
000100 52 66 ae bc 80 d8 a5 3c d0 bb 78 bc ed 11 e3 3c
       -0.021289025 0.020244837 -0.015181497 0.027718509
000110 c0 ee ac bc aa 87 ab 3c ee 6b a3 3c 48 34 a8 bc
       -0.021109939 0.020938713 0.019948926 -0.020532742
000120 6a 12 9c bc 20 17 b5 bc 1d a1 a8 3c 92 9d ba bc
       -0.01905175 -0.022105753 0.020584637 -0.022780214
000130 e4 de b9 bc 47 41 ae bc 3a 13 9b bc bb ab 80 3c
       -0.02268929 -0.021271361 -0.018930066 0.015706887
000140 2d 9a ad bc b4 25 cc 3c b3 4b b5 bc 6e 75 a5 3c
       -0.02119168 0.024920322 -0.022130823 0.020197596
000150 32 5c 84 bc c8 08 bc bc cd ec 9b bc 23 e3 c9 3c
       -0.016157243 -0.022953406 -0.019033814 0.02464444
000160 5e 10 96 3c 2f 23 70 bc 67 8b 8f 3c bb 94 aa 3c
       0.018318351 -0.014656826 0.017522527 0.020822873
000170 62 03 d3 ba be 3e 8e bc f6 cd 55 3c d2 ae ae bc
       -0.0016099031 -0.017363902 0.013049593 -0.021323595
000180 2e e4 04 bd 8d d3 60 3c c6 05 a2 3c d3 7a c2 bc
       -0.03244417 0.013722313 0.019778144 -0.023740208
000190 51 d7 da bc 46 c2 ba 3c 10 47 94 bc b9 32 b7 3b
       -0.026713999 0.022797715 -0.018100291 0.0055907634
0001a0 89 2d ae 3c 14 10 b9 3c 9d 43 b0 bc ca be a6 bc
       0.021261947 0.022590674 -0.021516616 -0.020354647
0001b0 c5 a9 ac 3c 23 07 b0 bc ce ee a4 bc f0 3a cc 3c
       0.021077046 -0.021487778 -0.020133402 0.024930447
0001c0 ec 96 84 bc 6e 78 b5 bc 14 de af bc 46 2f d7 bc
       -0.016185246 -0.022152152 -0.0214682 -0.026267659
0001d0 04 0b bd bc 14 97 9b bc 63 1a ac bc aa 31 70 3c
       -0.023076542 -0.018992938 -0.021008676 0.014660278
0001e0 dd 62 9b bc ad 6b ab 3c 65 31 b6 3c bd 4a c0 3c
       -0.01896804 0.020925367 0.02224035 0.023473138
0001f0 15 00 ba bc b7 3f a3 bc 85 8e 68 3c a4 67 e1 bc
       -0.022705117 -0.019927843 0.014194136 -0.02751524
000200 c8 f9 9f 3c 6d 2d a0 3c f5 f4 af bc 07 d7 a5 3c
       0.019528285 0.01955291 -0.02147911 0.020244135
000210 16 f4 a5 bc d0 fc bb 3c 6a 60 c1 bc 68 f7 ea bc
       -0.02025799 0.022947699 -0.023605544 -0.028682426
000220 75 4d d9 3c b8 8c ab bc 9a 59 a6 bc 73 61 af 3c
       0.026526192 -0.020941123 -0.020306397 0.021408772
000230 6e 11 a5 bc 73 ca 96 bc cb 99 8b 3c fb c2 90 3c
       -0.020149913 -0.018407082 0.017041108 0.017671099
000240 d7 36 b6 3c 1f c2 a3 bc e1 67 bc 3c b6 dd 9b bc
       0.022242947 -0.019990025 0.022998752 -0.019026618
000250 57 e3 cc 3c 3d 47 b2 bc 86 91 ae 3c 0e 73 e3 bc
       0.025010748 -0.021762485 0.021309625 -0.027764823
000260 8b 05 b1 bc 8c da a4 bc 3c 05 bb 3c d0 44 86 3b
       -0.021609088 -0.020123743 0.022829644 0.0040975586
000270 99 b0 a9 bc d5 3b 18 bb 77 7b d6 bc 5c 00 2e 3c
       -0.020714091 -0.0023229022 -0.02618192 0.010620203
000280 91 00 99 3c 25 93 65 bc 7d a9 9a 3c ca bf c5 3c
       0.018677028 -0.014012133 0.018879646 0.024139304
000290 42 3f 78 bc 91 19 5f 3c 2f 5b ad bc 0e a4 90 3c
       -0.015151801 0.013616935 -0.021161644 0.017656352
0002a0 eb d9 9f bc 51 3a c2 3c 94 57 cc bc b4 3f b4 3c
       -0.019513091 0.023709448 -0.024944104 0.022003032
0002b0 6d a5 e0 bc 5a d4 94 3c ee e7 b1 3c a7 a1 d8 bc
       -0.027422631 0.018167663 0.021717038 -0.02644427
0002c0 37 0f 84 bc e4 8a c5 bc b9 f3 ce 3c e1 e5 b1 bc
       -0.016120536 -0.02411408 0.0252627 -0.02171606
0002d0 43 f6 87 3c f2 9d bc bc b6 d9 71 3c a1 da 9b 3c
       0.016596919 -0.023024533 0.014761379 0.019025149
0002e0 40 3c 99 bc bc d8 ad bc 43 c4 fb bc cf 37 a9 bc
       -0.018705487 -0.021221511 -0.030733233 -0.020656494
0002f0 3c e3 a0 3c 82 9a ac bc 0f a2 bb bc 2f 57 9b 3c
       0.019639604 -0.021069769 -0.022904424 0.01896247
000300 44 bd ab 3c 41 54 a6 3c ed fa ae 3c 75 fd b5 bc
       0.020964272 0.020303847 0.021359885 -0.022215584
000310 f2 61 96 3c d2 ef b4 3c e2 22 e1 3c 04 0b c3 bc
       0.01835725 0.022087011 0.027482454 -0.023808964
000320 13 5d ce 3c 57 16 ad 3c 4d 37 a5 3c 7f 23 c6 bc
       0.025190866 0.021128817 0.020167971 -0.024186848
000330 ce 6f c4 bc 8e 6c d1 3c 8c c4 94 3c 48 d0 be 3c
       -0.023979094 0.025564458 0.018160127 0.023292676
000340 c8 27 b3 3c e0 1d d2 bc 21 f4 a1 3c d7 a2 ad 3c
       0.021869555 -0.025649011 0.01976973 0.021195812
000350 21 29 74 bb 7a ca b6 bc 14 6e a9 3c 15 8c a7 bc
       -0.003725596 -0.022313345 0.020682372 -0.020452539
000360 45 0a 9b 3c ec 41 3d 3c 9c cc f4 3c 27 84 a9 bc
       0.018925795 0.0115513615 0.029882722 -0.020692898
000370 d6 cd b6 bc fa a0 9e bc bc 1f f8 3c 6d 2f ad 3c
       -0.022314947 -0.019363869 0.03028857 0.021140778
000380 36 2f 87 bc b4 9e 9f 3c 21 25 ca 3c ff a4 a0 bc
       -0.016502004 0.019484855 0.024675908 -0.019609926
000390 6d c9 b3 3c c7 07 e0 3c 7f f3 a6 3c 89 28 f0 3b
       0.021946633 0.027347459 0.02037978 0.007329051
0003a0 92 cd c4 bc 43 79 c1 bc 4a 8c c3 3b d2 89 ae 3c
       -0.024023805 -0.023617392 0.0059676515 0.021305952
0003b0 44 1e ad bc 04 90 be 3c cf 6a b9 bc e3 4e 92 3c
       -0.021132596 0.023262031 -0.022633938 0.017859882
0003c0 8f ca b0 bc 51 30 b2 bc ac 46 a9 3c 7e 4b 93 bc
       -0.021580962 -0.021751555 0.020663582 -0.017980333
0003d0 db 4a 9c 3c 54 95 5c 3c 96 89 a3 bc 9a d8 b2 3c
       0.019078663 0.013463337 -0.019963067 0.0218318
0003e0 46 8c b2 3c 12 c7 9e 3c 31 2f a5 bc a2 4e a5 3c
       0.021795403 0.019382033 -0.020164104 0.020179097
0003f0 f0 50 92 bc da ea c1 bc 6e 77 a2 bc b4 6c ac bc
       -0.01786086 -0.023671556 -0.01983234 -0.021047927

conv4.lin.weight f4 [256, 128]
000000 b5 9c 4e bd 7b 38 1d bd 44 85 d2 3d 0f 5a d6 3d
       -0.050442416 -0.038383942 0.10279325 0.10466396
000010 68 b2 c9 3d cd 80 c0 bd dc 6f 14 be 9f de a5 bd
       0.098484814 -0.09399567 -0.14495796 -0.08099102
000020 a3 4b c7 bd 79 f7 8a 3d 0b 17 c2 3d ed 49 26 3d
       -0.097312234 0.06785483 0.09477051 0.040597845
000030 86 33 0e bd 02 1f 0c 3e 4b 2a f4 3d 30 ab 8c 3d
       -0.034717105 0.13683704 0.11922129 0.06868589
000040 f1 35 40 bd ee 20 cc bc b1 51 71 bd e8 ee 0c 3d
       -0.046926443 -0.024918046 -0.058915798 0.034407526
000050 61 06 1c 3c 60 e7 85 3c e5 ac f5 bd d0 a7 ba 3d
       0.009523005 0.01634568 -0.11995868 0.09114039
000060 24 f1 db bd d9 d1 9c bd 63 36 10 3e bc d2 31 bd
       -0.10739353 -0.07657213 0.14083247 -0.043413863
000070 31 64 01 3e e5 94 61 3d 31 10 84 3c bd ae b1 bd
       0.12635876 0.055073638 0.016121002 -0.08675907
000080 0f 73 ad 3d 38 a9 ac bd 45 5b 21 bd 04 79 2d 3b
       0.08469211 -0.084307134 -0.039393682 0.0026469836
000090 0d 0c fa bd ac 36 4f bd 43 d3 92 bd d6 e7 44 bd
       -0.1220933 -0.05058925 -0.07169201 -0.04807266
0000a0 34 1f c0 bd a6 90 9c 3d df 5b af bc 71 ea 6d 3c
       -0.093809515 0.07644777 -0.021406112 0.014521227
0000b0 81 16 42 3d a8 d5 f7 bd 51 ff a4 3d c1 be f6 3d
       0.047384743 -0.121012986 0.0805651 0.12048102
0000c0 95 03 8c 3d 3b 35 b6 3c be 21 84 3d 3c 5d 3b 3b
       0.06836621 0.02224218 0.06451748 0.0028589508
0000d0 1e 16 dd bd 12 1f 3b bd a0 d4 4a 3d 9b ce 11 be
       -0.10795234 -0.045683928 0.04951918 -0.1423897
0000e0 3b dd 32 3c e2 de 06 be 0f 9e c6 bc 89 49 bc bd
       0.010917003 -0.1317096 -0.02424529 -0.09193713
0000f0 ee 71 c3 bc 6e aa f4 bd b2 c9 77 3c 7e b1 82 3d
       -0.023858037 -0.119465694 0.0151237715 0.0638151
000100 b0 49 4e 3d 95 32 c6 3d 6b ba 83 bd 58 80 32 bd
       0.050363243 0.096776165 -0.06432041 -0.04357943
000110 b6 5a 30 3d 1c 79 4c bc d4 f1 ba bd 18 01 45 3d
       0.04305526 -0.012480047 -0.09128156 0.048096746
000120 cc 55 14 3e 4c a0 15 bd 60 9b 7d bd 81 6e 70 3d
       0.14485854 -0.036529824 -0.061915755 0.058699135
000130 57 65 18 3d 36 a1 05 bd e0 99 3b bd f8 43 0d be
       0.03720602 -0.032624446 -0.045801044 -0.1379546
000140 89 4e d2 3d 3f 81 7a bd ab 24 98 3d 54 da c1 3d
       0.10268886 -0.061158415 0.07428869 0.09465471
000150 69 a4 6a bd 42 c6 a3 3a 1d 3a ba bd 70 4a 12 be
       -0.0572857 0.0012494999 -0.090931155 -0.14286208
000160 e2 dc 42 3d 74 31 3a bd 99 0c 99 bd ce a1 ef bd
       0.04757393 -0.04545732 -0.07473106 -0.11700784
000170 7a 38 22 bd ec d5 91 3d 23 80 7f bd 57 50 38 bd
       -0.03960464 0.071208805 -0.06237806 -0.044998493
000180 18 db a5 3d 7e 80 14 bd 04 e5 87 bd 7d 62 ce bc
       0.080984294 -0.036255352 -0.06635478 -0.025193447
000190 f2 7c 17 3e 0d 92 bc 3d 38 8a 9f 3d 57 3f 5b 3d
       0.14793757 0.092075445 0.07790035 0.053527202
0001a0 48 8c 04 be 0f 96 83 bd 1f 7b 56 ba a3 67 77 bd
       -0.12944138 -0.06425106 -0.00081817986 -0.06040157
0001b0 fa 0c b5 3c bf b3 54 bd 59 21 11 3e 0d 14 14 3e
       0.022100914 -0.05192923 0.14172877 0.14460774
0001c0 82 51 dc 3d 9d 06 45 3d 97 69 4f bd 23 6a b0 3d
       0.10757734 0.04810201 -0.050637808 0.08613994
0001d0 52 c0 14 be f3 f6 94 3d 76 fd f5 bd 4d e6 bf 3c
       -0.1452649 0.07273664 -0.120112345 0.023425246
0001e0 c2 ff a4 bd e2 09 11 bd 92 b2 99 3c 81 2c 16 bd
       -0.080565944 -0.035409816 0.018761907 -0.036663536
0001f0 20 27 c3 bd 07 5a ac 3c 4e 09 37 bd c9 11 6a bd
       -0.09528947 0.021039022 -0.044686608 -0.057145867
000200 70 d5 b6 3d 94 af 0f be a4 b6 00 be 30 d8 7f 3d
       0.08927429 -0.14031821 -0.12569672 0.06246203
000210 d6 57 05 bd 7e e4 45 3d 96 49 0c bd 48 87 c2 bc
       -0.03255447 0.04831361 -0.034249865 -0.023746148
000220 1e c8 f1 bc 2e 56 82 bc 30 7d f6 bd aa b0 14 3e
       -0.029514369 -0.015910234 -0.12035596 0.14520517
000230 b4 6d 4b 3d 1a 01 0b be 39 d7 aa 3d d3 01 e1 bc
       0.049665168 -0.13574639 0.08341832 -0.02746669
000240 b2 8b c1 bb e0 ab c3 3d ef 74 b8 bd 01 a8 63 bc
       -0.0059065456 0.09554267 -0.09006678 -0.013895036
000250 7d 59 d7 bd c6 c1 5e 3c 4a 3e a1 bd b4 4f ef 3d
       -0.105151154 0.013596004 -0.07873209 0.11685124
000260 cb 32 89 3d 17 03 e3 3d 1f 1a c4 bd 47 49 8f bd
       0.06699141 0.11084574 -0.09575295 -0.069963984
000270 80 5e 17 3e 09 2f 84 3c 37 42 42 bd 4d c1 1a bd
       0.14782143 0.01613571 -0.04742643 -0.037782002
000280 35 55 05 be 52 fb cc 3c 3d 07 3b 3d 98 90 e2 3c
       -0.13020785 0.025022183 0.0456612 0.027656838
000290 36 0f d0 bd 96 85 e1 bd a6 b0 cf 3d de f0 a0 bd
       -0.10159151 -0.110118076 0.10141115 -0.07858442
0002a0 3a 36 68 bd d8 83 bf 3d bb 1d b7 3c 65 b4 b5 3c
       -0.05669234 0.09351319 0.022353044 0.022180745
0002b0 7c be 9c bd c8 3e 4d 3d 4b 8a 6e 3b 9a 97 61 3d
       -0.076535195 0.0501087 0.0036398347 0.05507622
0002c0 0c 6a c9 3d f7 55 13 3e 66 31 6e bd 6d 49 bc 3d
       0.0983468 0.14388262 -0.05815258 0.09193692
0002d0 4e 5e ce 3d e8 ca 05 3d d1 19 de 3d 21 6c 98 bb
       0.10076581 0.03266421 0.10844768 -0.004651562
0002e0 9b d4 31 3c 96 6c a5 bd 64 e1 12 be e6 8d 8c 3d
       0.010853912 -0.08077352 -0.14343792 0.068630025
0002f0 2a 36 d9 3d 8c 99 d0 3d 8a f7 9c bc d8 1b fc bc
       0.10606034 0.10185537 -0.019161005 -0.030774996
000300 1e 8a e2 3c bc 18 d6 3c 8d dc 98 3d 9c d1 e6 3c
       0.02765375 0.026134841 0.07463942 0.028176121
000310 4b ca 30 3d 2b 0e f8 bd ef 4a 7c bd ba 1b da bd
       0.04316167 -0.12112077 -0.0615949 -0.1064982
000320 1c e4 cd bd ad a2 25 3d 54 54 b4 bb 69 e7 12 3d
       -0.10053274 0.040438343 -0.0055032168 0.03586522
000330 4c e4 8a bd 80 a0 66 3c a1 1c cb bd 4f b6 00 3e
       -0.067818254 0.014076352 -0.0991757 0.12569545
000340 48 8d c6 bd c0 cc 4f 3d e0 ba 8e bd 58 82 7c 3d
       -0.09694916 0.050732374 -0.06969237 0.061647743
000350 a3 ab cd bc 91 71 11 bd 46 ea c5 3d e5 7d 9b 3c
       -0.025106257 -0.035508696 0.09663825 0.01898093
000360 75 bd 81 bd 85 0e ce 3d d0 fa a2 bc 2a 08 8a 3a
       -0.06334964 0.10061363 -0.019894987 0.0010530998
000370 70 5b 90 bc c7 38 83 bd cb ea 8d bd 88 4e e3 bc
       -0.017621726 -0.06407314 -0.06929549 -0.027747408
000380 2f c6 a3 3b 69 6e 11 3e fa cc a0 bd f2 c9 a5 3d
       0.0049979906 0.14202274 -0.07851596 0.08095159
000390 cf 3d 15 be c9 3d 68 3d 80 db ad bd 55 d7 c8 bd
       -0.1457436 0.056699548 -0.08489132 -0.09806696
0003a0 01 0e 43 bd 09 62 08 be 18 72 53 3d c0 51 e5 3d
       -0.047620777 -0.13318647 0.05162248 0.11197233
0003b0 42 6a 85 3d df db 63 3b 3f b1 9e bd 3d 58 18 3c
       0.06514408 0.0034768505 -0.07748651 0.009298381
0003c0 68 a9 32 bd 3f c5 45 3d cc 8f 94 bd 98 fb 34 3d
       -0.04361859 0.04828381 -0.072539896 0.04418525
0003d0 89 77 63 3c 74 f6 90 3d 98 2f 15 be c4 65 c3 bb
       0.01388348 0.07078257 -0.14568937 -0.005963059
0003e0 fa cc 75 3d fa 01 49 bd e8 ef d3 3d 88 79 53 39
       0.060009934 -0.04907415 0.10348493 0.00020167802
0003f0 21 f3 a8 3d 14 78 cc 3d fe a5 12 bc cf 7e bb 3d
       0.08249498 0.099838406 -0.008950708 0.09155046

conv5.bias f4 [256]
000000 b0 ea b1 38 38 6b f9 38 0e 85 11 b9 96 f4 f1 37
       8.483732e-05 0.00011893216 -0.00013877844 2.8843333e-05
000010 3a d8 62 ba d4 cb e2 39 d4 e8 fd b9 44 41 53 3a
       -0.0008653436 0.00043257943 -0.0004842939 0.00080587366
000020 ae e2 28 3a 54 1e 47 39 f7 53 32 3a 14 ef 28 3a
       0.00064424693 0.00018989417 0.0006802673 0.0006444317
000030 77 24 34 39 83 af 15 ba b0 e9 46 ba 96 32 04 ba
       0.00017179722 -0.0005710052 -0.0007587923 -0.0005042938
000040 5b 1c 52 3a e0 39 50 3a 0f b6 2c b9 c2 2e 4b ba
       0.00080150896 0.00079431944 -0.0001647102 -0.0007750803
000050 f1 8a 62 3a 41 e5 20 ba d7 8f db 39 0a c5 61 ba
       0.00086419197 -0.0006137677 0.00041878104 -0.000861243
000060 8e 8f 61 3a 1c 38 48 ba b3 bf e1 b9 55 c5 ef b9
       0.000860446 -0.00076377555 -0.0004305817 -0.00045732656
000070 99 b4 36 3a 38 c9 10 3a d4 74 bd b8 6c cc e0 39
       0.000696966 0.0005523148 -9.033983e-05 0.00042876916
000080 18 a5 cb 38 37 44 4a 3a aa ce 27 3a 53 a7 37 b9
       9.7105454e-05 0.0007715853 0.000640134 -0.00017514573
000090 66 49 39 3a 36 b4 64 3a 29 74 d6 38 1e 23 cc 39
       0.0007068127 0.0008724363 0.00010225952 0.00038936076
0000a0 f6 ea 61 ba ff 45 0e ba 06 ce b8 38 5b 1f 57 b8
       -0.0008618081 -0.00054273003 8.8121786e-05 -5.1289197e-05
0000b0 72 35 25 3a 4e ee 92 ba 99 cc 63 3a 84 e2 1f b8
       0.00063022145 -0.0011209936 0.000868985 -3.8119513e-05
0000c0 d7 85 19 3a 03 a3 64 3a 49 83 21 3a 9d ca 0e b9
       0.00058564305 0.00087218004 0.00061612256 -0.00013617655
0000d0 a7 4a 0f b8 c7 e6 5a 3a 25 70 3c ba 43 58 62 ba
       -3.4163382e-05 0.00083504285 -0.00071883417 -0.0008634368
0000e0 c7 55 91 b9 12 c2 05 39 9d e7 84 3a 9d f0 45 3a
       -0.00027720464 0.00012756165 0.0010139827 0.0007550808
0000f0 e5 7d e7 b9 3c a8 75 3a 83 c7 c8 38 17 7d 31 b9
       -0.00044153552 0.0009371077 9.573905e-05 -0.00016926635
000100 92 4f 05 ba 45 87 61 ba fc 5b 25 3a a9 41 43 b8
       -0.0005085404 -0.00086032256 0.0006307957 -4.6552774e-05
000110 7f 90 82 39 06 c0 03 ba 37 50 5c 3a 8c 0f 4a 3a
       0.0002490319 -0.0005025867 0.0008404287 0.0007708005
000120 80 b7 94 39 3a 54 50 3a 00 8e 57 3a c6 a6 26 3a
       0.00028365478 0.0007947121 0.0008222759 0.00063572486
000130 24 aa 14 3a a7 19 16 ba fa 2a a0 39 69 d7 fc b9
       0.0005671105 -0.00057258684 0.00030549598 -0.0004822568
000140 f1 74 2e ba e4 fd 28 b9 2f 38 08 3a a6 92 fd 39
       -0.0006654999 -0.0001611631 0.000519636 0.00048365182
000150 73 4f 28 ba fe 9b b3 39 8d 61 3b ba d3 26 89 b8
       -0.000642053 0.00034257764 -0.000714802 -6.539901e-05
000160 5d f9 28 ba 1e a9 77 38 bc 34 31 ba a5 db 55 b9
       -0.00064458494 5.904689e-05 -0.0006759872 -0.00020395087
000170 29 36 f4 b9 99 0e ea 39 7f 87 82 38 bc b6 db b8
       -0.0004657966 0.00044642834 6.224121e-05 -0.00010476771
000180 81 c0 4b 3a c1 e4 9f 38 ef 0a 81 38 a6 65 63 ba
       0.0007772521 7.6243196e-05 6.153236e-05 -0.00086745096
000190 24 05 63 ba d2 6c 24 3a bf 07 03 ba 53 55 41 ba
       -0.0008660129 0.0006272319 -0.00049984077 -0.000737508
0001a0 b1 59 4e ba bd 80 4d 39 82 90 a8 39 2d 6d 05 3a
       -0.00078716414 0.00019598282 0.00032151124 0.0005089816
0001b0 34 07 c5 b8 1d 87 e3 b9 ae 10 10 39 b1 68 18 ba
       -9.395034e-05 -0.0004339748 0.00013739124 -0.000581394
0001c0 4c 8e 5d 3a 6f cf d1 39 31 7e 32 ba 7c bb f5 b9
       0.0008451685 0.00040018136 -0.0006808965 -0.00046869728
0001d0 f5 4a 06 39 38 88 0c ba 84 e7 33 3a 8f 6a 03 b9
       0.0001280716 -0.00053608743 0.00068628066 -0.0001253283
0001e0 1c b0 3d b9 51 71 b5 b8 23 cc bc b9 b8 e6 23 39
       -0.0001809005 -8.6518594e-05 -0.00036010248 0.00015630841
0001f0 ae 6f ee b9 f5 96 5d ba 33 1f 92 b8 53 ac f1 39
       -0.00045478105 -0.00084529753 -6.967634e-05 0.00046095494
000200 ea d2 be b9 96 85 c8 b9 d3 d4 30 3a 5c 2f f2 b9
       -0.00036396767 -0.00038246502 0.00067455805 -0.00046193122
000210 40 57 09 ba 05 4a 54 3a 20 b1 42 3a 03 be 43 3a
       -0.00052391365 0.0008098188 0.00074269064 0.00074669736
000220 48 96 64 ba 74 a7 a9 38 99 5a 9b b9 b6 31 32 ba
       -0.00087199034 8.0897385e-05 -0.00029631404 -0.00067975686
000230 e6 b7 34 ba 6a f5 63 3a 54 eb 29 3a 05 8f 5b 39
       -0.0006893858 0.00086959323 0.0006481905 0.00020938746
000240 ac f9 62 ba bc 7d 0d ba 81 0b eb b9 fb e5 c8 39
       -0.000865842 -0.0005397459 -0.00044831264 0.00038318321
000250 b8 06 49 ba c3 33 12 ba e6 40 c3 b9 80 7e 93 3a
       -0.00076685427 -0.0005577171 -0.0003724165 0.001125291
000260 d4 d3 fb 39 13 98 2e ba c0 bf 0a 3a 39 a7 82 39
       0.00048032275 -0.0006660234 0.0005292855 0.00024920123
000270 45 6d 43 ba f7 32 a5 b9 0d d8 64 ba ab d1 de 38
       -0.0007454942 -0.00031509224 -0.0008729704 0.000106248386
000280 6f 99 60 ba 43 a9 aa b9 8e f0 28 3a 47 83 63 ba
       -0.0008567785 -0.00032551037 0.0006444537 -0.00086789246
000290 9f 67 80 b9 36 7e 33 3a 72 ee b4 b9 62 e2 6e ba
       -0.00024491266 0.0006847115 -0.0003450993 -0.0009112713
0002a0 1a 1f 26 39 91 74 b4 b9 66 a2 e6 39 89 e4 49 3a
       0.0001584258 -0.00034419124 0.00043990015 0.0007701596
0002b0 dd 81 19 3a 3e e2 12 ba cd e9 ef b8 0b 05 92 b9
       0.0005855838 -0.0005603171 -0.00011439957 -0.00027851047
0002c0 6b b1 03 3a 04 e0 5a 3a ab e8 96 b9 8b bf 88 b9
       0.0005023691 0.0008349421 -0.0002878358 -0.00026082652
0002d0 c8 d4 3c 3a 84 47 99 38 17 e7 55 b9 9b 02 41 39
       0.0007203338 7.308929e-05 -0.0002039935 0.00018406885
0002e0 fc 7f 18 b7 ed 3b 56 38 e4 d8 63 ba 2e d3 ea 39
       -9.089705e-06 5.1077386e-05 -0.0008691682 0.000447893
0002f0 8f e7 88 b9 19 6f 88 b9 c4 b6 21 3a a6 80 1c 3a
       -0.00026112466 -0.00026022716 0.0006168897 0.0005970098
000300 77 c4 64 ba dc e7 61 ba c7 91 81 39 f4 b4 90 3a
       -0.00087267853 -0.00086176186 0.0002471341 0.0011040256
000310 81 3c ae b8 f5 bd 53 3a 97 c2 d8 38 e7 12 cd 39
       -8.308236e-05 0.0008077317 0.00010335928 0.0003911473
000320 24 fb 5f ba 3b 32 bc b9 14 1d 4a ba 57 e1 e4 39
       -0.0008544198 -0.0003589558 -0.00077100215 0.0004365544
000330 e3 b2 e2 39 9c aa 13 ba 71 6b 1f 3a 76 ff c3 b9
       0.0004323936 -0.0005633028 0.00060813787 -0.00037383632
000340 51 d5 49 b8 f2 aa bd b8 63 e1 89 b9 32 8f 27 38
       -4.81208e-05 -9.044063e-05 -0.00026298602 3.9949264e-05
000350 8b 9d 4c ba 83 b0 64 3a a9 de 2c 3a 4f 3b 8e b9
       -0.0007805458 0.0008723812 0.0006594458 -0.0002712854
000360 77 ff 61 3a 4e ee 44 ba f1 a5 63 ba ae 71 3b ba
       0.0008621136 -0.0007512317 -0.000868409 -0.00071504235
000370 e8 99 22 3a 15 0a b6 39 cd ab 06 3a 14 a8 5b b7
       0.00062027434 0.00034721257 0.00051372946 -1.3092551e-05
000380 1a 88 ac 39 c4 75 1b 39 39 39 ea 39 26 d5 3a 39
       0.000329078 0.00014825823 0.00044674592 0.00017817746
000390 9f dd ff b9 7d 0b 0a 3a 46 66 50 3a 97 34 44 3a
       -0.0004880251 0.0005265994 0.000794981 0.0007484643
0003a0 3c d1 e4 b9 22 b7 28 ba 6d 87 57 3a ad c0 90 3a
       -0.0004364344 -0.00064359803 0.0008221779 0.001104375
0003b0 ef a3 06 b9 a9 c3 63 ba e2 9c 95 b9 c1 c6 84 39
       -0.00012840306 -0.00086885184 -0.0002853638 0.00025325085
0003c0 3a c1 b0 39 3f 5f 4e 3a bf 00 0e ba 38 c3 42 ba
       0.000337133 0.0007872469 -0.00054169813 -0.00074296026
0003d0 a7 22 3e 39 3d e5 e6 39 ed e6 91 39 37 89 64 ba
       0.00018132721 0.00044039814 0.00027828608 -0.00087179564
0003e0 03 c1 20 3a 3e 6f 28 3a 90 79 1d 3a ca e9 fd b9
       0.00061322766 0.0006425268 0.0006007189 -0.00048430107
0003f0 df 9d 0a 3a 60 28 8a ba 93 d3 2e 3a 56 d9 5c ba
       0.0005287807 -0.0010540597 0.00066691 -0.00084247196
