weights/8-21-yfp-0_split_3.pt (torch, 473578 bytes, 26 tensors)

conv1.bias f4 [64]
00000000: a00f 503a d78e 3dba d5ed 033a 0697 643a
00000010: d288 07b9 a209 e7b9 392c b5b9 f9ed 27ba
00000020: 93b0 17ba 4268 cfb9 68bc e039 1fa3 64ba
00000030: 8a79 283a b226 53ba a182 d6b8 e18c 283a
00000040: 9483 10ba 18f2 243a f809 e7b9 60d8 273a
00000050: 59d0 05ba fe45 0eba 2407 a1b8 ffd5 61ba
00000060: 791c e639 dbcb 6b39 3fc4 8cb8 57c1 0cba
00000070: 1664 d139 b579 1aba 38e5 bcb9 0dff 26ba
00000080: 4722 07ba 446e ff37 d361 7db9 a41f f239
00000090: feef 62ba 2b15 0236 952d f6b8 773e 0aba
000000a0: 49cb 1d3a fbbf c4b6 534f feb7 f5cf 283a
000000b0: 7dfa 2db8 80ac 153a 8c66 1eba d4f5 203a
000000c0: a697 ecb8 0a65 8eb9 4e2f 09ba efd0 8f38
000000d0: ee2f e1b9 ddb8 513a 14a2 f2b9 ad9c f3b8
000000e0: 5371 b1b9 5056 79b9 cac0 28ba a1a8 0f3a
000000f0: 2e05 513a 1cd2 143a b0c8 02b9 8872 f2b9
0.00079368986 -0.00072310626 0.0005032693 0.0008720014 -0.00012925573 -0.0004406693 -0.0003455596 -0.0006406005
-0.00057865045 -0.00039559795 0.00042864983 -0.00087218167 0.0006426802 -0.0008054777 -0.00010228647 0.0006429684
-0.0005512771 0.00062921783 -0.0004406718 0.0006402787 -0.00051045936 -0.00054273 -7.678408e-05 -0.0008614957
0.00043890232 0.00022487289 -6.712274e-05 -0.0005369386 0.00039938156 -0.00058927695 -0.00036028936 -0.0006370403
-0.0005154949 3.0449715e-05 -0.00024164403 0.0004618141 -0.00086569774 1.938383e-06 -0.000117386844 -0.000527359
0.00060193666 -5.8636047e-06 -3.0316098e-05 0.00064396794 -4.14797e-05 0.00057096034 -0.00060425024 0.0006140147
-0.00011281604 -0.0002715963 -0.0005233184 6.857688e-05 -0.00042951055 0.0008000264 -0.00046278595 -0.00011616326
-0.00033844504 -0.00023778644 -0.0006437419 0.0005480145 0.0007973489 0.00056770607 -0.00012472528 -0.0004624317

conv1.lin.weight f4 [64, 2]
00000000: cd68 36be 4955 e4bd 96ca 85bc 04f3 443e
00000010: c009 253c a9af 44bd 1a85 6bbd 65f5 da3c
00000020: 93eb c6bc 7a3b ddbd a9f5 503e 3d35 443e
00000030: 411e 953d 7ab5 f53d 79ca f0bd 5781 303e
00000040: 54cc c33d 9ee6 49bd ff4a 2d3d e75e 273e
00000050: 5299 d1bd eb4e be3d 6021 013d b39c 32be
00000060: b308 cbbc 9d05 01bd 876f 233e 8d27 b03c
00000070: ab06 babd a2cc 0ebe 4e55 5b3e 4c96 543e
00000080: 9c20 49be 047c 78bc 0d63 8b3d f950 7ebe
00000090: 187d 013d be59 9a3e 6647 99bd b89b 933e
000000a0: 187d 883e 28f3 b23d 0e89 86be 6fd8 bc3d
000000b0: 1dae 32be 083c 30be 5e18 6a3e 981d 453c
000000c0: 25fa 5d3e 381f 723d 0076 f5bd 27e1 c2bd
000000d0: 0672 2e3e 36b6 073e 53df 31be 5ddb dcbd
000000e0: fc88 d63d 3a32 6bbe aede a73c f2cd 14bd
000000f0: 4e62 d5bd 49b7 81be 47b1 82be 5d22 183e
00000100: 47a4 153e 5253 173e e031 a13e 547d dabd
00000110: b1cd 73be d92d 583e c7ff 1e3e d297 183e
00000120: dbbd 63bb f6be 603d b49b 8f3d b5d6 7bbc
00000130: 3e3a 343e c8a2 623e 3990 85be 7f50 973e
00000140: 9a4e 7ebe 163c 923e 942e 143e 8050 5a3b
00000150: 3fc5 47be 6b6e 39be aef4 5f3d da99 643e
00000160: a0cb e2bd a9f0 883e 57b8 52be 2e58 973e
00000170: ce3c 9c3e 334a a83d 1153 073c 1132 35be
00000180: 6f41 b2bc 8f04 373c 9e8e 2b3d 6bcc b63d
00000190: aa45 643e e372 833c c71f 2a3e 8158 bebb
000001a0: 6dcf 29be b34c 6c3e a89d 32bd 159f d13d
000001b0: bea5 863e 8d04 39bd 0e5b a83c 68cc 13be
000001c0: 33b8 2bbe f309 493e 20ef 10be 6df9 8a3e
000001d0: 9e4d 7d3e ff7a a23c dc8b 7e3e e8cf 0c3d
000001e0: 4dc1 f2bc 2ddf 833e 6c08 f5bd 39d7 91be
000001f0: 870f 263e 3c43 27be 00a3 98be 95f6 033e
-0.17813416 -0.11149079 -0.016331952 0.19233328 0.010073125 -0.048019085 -0.057499982 0.026728341
-0.024282252 -0.1080236 0.20406212 0.19160934 0.07281161 0.119975045 -0.117573686 0.17236839
0.09560457 -0.0492922 0.04230785 0.16344796 -0.10234322 0.09292396 0.03152597 -0.17442589
-0.024784422 -0.031499494 0.15960513 0.021503234 -0.09083303 -0.13945249 0.2141926 0.20760459
-0.19641346 -0.015166286 0.06806002 -0.24835576 0.03161344 0.30146593 -0.07484321 0.2882974
0.2665794 0.087377846 -0.2627644 0.09220969 -0.17449231 -0.172104 0.22860858 0.0120309815
0.21677454 0.059111804 -0.11985397 -0.09515601 0.17035684 0.13253102 -0.17370348 -0.10784028
0.104753464 -0.22968379 0.020491924 -0.036329217 -0.10419141 -0.25335148 -0.25525877 0.14856859
0.14613448 0.14777878 0.31483364 -0.10668436 -0.23808934 0.2111124 0.15527259 0.14901665
-0.0034750614 0.054869615 0.0701212 -0.015371014 0.17600343 0.22132409 -0.26086596 0.295536
-0.24834672 0.28561467 0.14470893 0.0033312142 -0.19508837 -0.18108527 0.054676704 0.22324315
-0.11073995 0.2674611 -0.20578133 0.29559463 0.3051514 0.082172774 0.008259551 -0.1769488
-0.021759717 0.01117052 0.041884057 0.089257084 0.222922 0.016045993 0.16613685 -0.0058088903
-0.16583033 0.23076133 -0.043607384 0.102354206 0.26298326 -0.045170356 0.02055123 -0.14433444
-0.16769485 0.19632702 -0.14153719 0.27143422 0.2473664 0.01983404 0.2485804 0.034377962
-0.029633189 0.25756207 -0.11964497 -0.28484514 0.1621686 -0.16334242 -0.2981186 0.12887032

conv2.bias f4 [64]
00000000: 3dea aebc 8f32 943c 8efb a43c bb2b 9d3c
00000010: 912f a73c 549b a33c ace0 aa3c b6d1 a5bc
00000020: c03a a63c ca4f ab3c 27b6 a6bc cab8 89bc
00000030: 7f70 cabc 8591 223d 360f ac3c 980b 24bc
00000040: 59ec 0f3c 8e1c 4cbc 58f0 8c3c 3dce b7bc
00000050: 6ebb db3c bd69 6ebc bf75 90bb f7c1 b13c
00000060: 17c3 9abc ecc4 f43c 03a2 923c 78f8 b7bc
00000070: 4522 c0bc 9ee4 993c e6ae cfbc cfaf 573c
00000080: e960 bfbc e2ad 4c3c 3503 983c 3114 c0bb
00000090: 5436 b7bc 598a 57bc 15cb a33c 8dd4 b4bc
000000a0: 9980 0ebd ceed 97bc b74e 9f3c 10c7 37bc
000000b0: 8ae5 613c c077 c7bc c390 9ebc 6f8a 323c
000000c0: 65a6 aebc 1ec2 9d3c 2cdc a73c ac06 9c3c
000000d0: f085 c5bb 11dc 6cbc 32b1 a3bc 5b15 a0bc
000000e0: be3b 8b3c 9a33 9bbc 869f 6f3c 272f a53c
000000f0: 8031 e73c 9f23 afbc a132 913c 781d e4bc
-0.021351928 0.018090514 0.020139482 0.019185891 0.020408424 0.019971527 0.020859085 -0.0202416
0.020291686 0.02091207 -0.020350529 -0.016811747 -0.024711845 0.03968956 0.021003347 -0.01001253
0.008784377 -0.01245798 0.017204449 -0.02243721 0.026822772 -0.014551577 -0.0044085677 0.021698935
-0.018891854 0.029879056 0.017899519 -0.022457346 -0.023453841 0.018785771 -0.025351953 0.013164475
-0.02336164 0.012492629 0.018556217 -0.005861782 -0.022364773 -0.013155543 0.019994298 -0.022074008
-0.03479061 -0.018546011 0.019446714 -0.011216894 0.0137876365 -0.024349093 -0.019356137 0.010897263
-0.021319577 0.019257601 0.020490728 0.01904615 -0.0060279295 -0.014456765 -0.019981954 -0.019541433
0.01699626 -0.018945504 0.014625436 0.020164086 0.028221846 -0.02137929 0.017724337 -0.027846083

conv2.lin.weight f4 [64, 64]
00000000: e8d9 7b3d 9153 06bc c184 26be 9c65 4bbd
00000010: 3f2f 0cbd 85f6 103d 748e ff3d c366 29bd
00000020: d8e0 75bd b6ee a7bd 24ff 87bd 14f0 f3bd
00000030: 39f7 0cbe 57e3 39bd ef5f 4d3d a094 53be
00000040: fe40 303e b322 3b3e c47f 0f3e 61e0 3dbd
00000050: aaab 69be 00eb a03d a2d9 1abe ba56 1e3e
00000060: e892 423e 3c4b 2abe 45bf 19be 8720 3abe
00000070: 129a acbd 1cb7 953b e2e5 cdbd 09c2 d4bd
00000080: 1186 083b 2acf d03d 38b8 92bd efd1 bdbd
00000090: 4dbe 5e3d 50ab 5ebe 26f4 423d 7f10 db3d
000000a0: 83f6 c13d e57a a9bd 16c2 623e af3b 1bbd
000000b0: 48e6 703e 049c eebd 8386 14bd 128b 133e
000000c0: 9495 6e3e a3df 05be 9754 a43d c8c4 9d3d
000000d0: a4a5 98bd a1a6 863d 6376 033e 475a c93c
000000e0: 7368 3cbe fb25 b4bd 2c11 f83d 6a82 3c3e
000000f0: a540 e8bc b3ca f83d 7a36 3cbe f503 f6bd
00000100: 5758 9abd 01f6 893d 8e5a 3e3e 65b5 40be
00000110: 9365 ccbd ba68 f9bd 7a42 ec3d 4d20 2bbe
00000120: 6edb 48be ca3a c13d 3cf2 7dbd c740 36bd
00000130: 45e9 99bd 839d 3bbd adff 103e 8ff5 a4bd
00000140: 7a3d fcbd 0484 bcbd cd99 8dbd c46b 173e
00000150: 5e95 f2bd ba63 463e 8a34 c4bd bdf5 553e
00000160: dca3 4cbe 0992 e8bd 4b2c d43d 0164 22be
00000170: a08f c2bd 6ef0 87bb 05cf 513e eba4 b3ba
00000180: c03a 2e3e 2ef8 893d 6c2b 7ebd fc59 503d
00000190: 989c 1dbe db48 383e c771 243e e91b 583e
000001a0: 3e86 ee3d ee35 18be b126 37be 0126 873d
000001b0: cd00 37bc 7465 95bc cf46 5b3c 5788 233e
000001c0: e7ca 8d3d f10a 543e 1eb0 3e3e 7395 32be
000001d0: 9dab 2f3d 8716 583e dbe8 5f3d 63cc f43d
000001e0: cd55 a7bc 9558 ef3d 51bb b5bd 7166 e33d
000001f0: 3e21 603e e617 85bc bd74 f23d 8eca 32be
00000200: c0e9 033e ba82 81bd 33a3 f93d 052d f93d
00000210: 1ef3 283e f642 04be 7491 653c aaf5 0fbe
00000220: b366 6f3e b340 453d f60f 4abe 8c8d 013e
00000230: dba1 cdbd 3091 203e 4266 df3d cb53 443e
00000240: 262a b13d bdde 26bc 5bea 84bc a4b0 243e
00000250: 8069 07be ff3d f3bc b788 b1bb a7a4 e83d
00000260: cc66 433e e290 3cbe eaaf 523e 777d 483e
00000270: dc81 453e 0749 84bc cb79 9cbd 14e6 16be
00000280: ecaf 03be f325 1b3e e500 52be c385 00bb
00000290: 192d 13be ed3d 023e 7817 3ebe 4602 1a3e
000002a0: 56f8 27bc 4446 203e 3754 8a3d a603 44bd
000002b0: 168a 13be b80c a43d 86d8 573e 4923 84bd
000002c0: 4cea d83d 78ad fe3d fca8 2bbe eada 01be
000002d0: 3870 bc3d 649c 2ebe 7653 bb3d bfd1 80bd
000002e0: 8b04 a03b 8db1 dbbd 0f75 283a 8d39 34be
000002f0: d086 1dbd f6a2 d6bd 7ccc 20be 1081 b33d
00000300: 143d b63d 61cd 04be 3474 56be 1520 4f3e
00000310: 7803 883d 98ff 85bd 8af8 d33d 2bc8 1ebd
00000320: 803d c5bd 01e2 bc3d 32e4 80bc 9f38 51be
00000330: 2b0d 01be c758 9abc 2589 3cbd bd7f 223d
00000340: ee29 fc3c 82aa 20be 473a 173e 50f6 2a3e
00000350: 73fe 293c 7608 d9bc 925d 223e b93f 92bd
00000360: d687 c5bc 94b0 e23c 3a3c 5c3e 34cc f0bd
00000370: ca54 39bd d963 2cbe 9df7 193e ff96 3ebe
00000380: de21 cc3d dbf0 d9bd aafa 203e fa6d 173e
00000390: 1617 46be a279 673d e4ec 423e 4e13 223e
000003a0: cd37 1b3e 90ef 23bd 0ee9 71be 3035 89bc
000003b0: 2023 0c3d 6662 073c 6e18 0cbe 3041 5fbe
000003c0: 44f3 003e f767 f5bd 1442 59be 69d4 d03c
000003d0: 4d29 303e fb11 463e d24d 073d 654a 0bbe
000003e0: 8eb2 573d 6375 5a3e 5d0d 0abe 59af 40be
000003f0: be89 35bc 5f4c 233c b71c 183e 9c0b 013d
0.06148711 -0.008198635 -0.16261579 -0.04965745 -0.034224745 0.03539135 0.12478343 -0.041357767
-0.06002888 -0.081998274 -0.06640461 -0.11911026 -0.13766183 -0.045382824 0.050140318 -0.20662165
0.17212293 0.18274955 0.14013582 -0.046356563 -0.22819391 0.07857323 -0.15122083 0.15462771
0.19001353 -0.16630262 -0.1501437 -0.1817647 -0.08427824 0.0045689475 -0.10053612 -0.10388572
0.0020831863 0.101957634 -0.07164043 -0.09268557 0.054380704 -0.21745038 0.04759612 0.10696506
0.094708465 -0.082753934 0.2214435 -0.037898716 0.23525345 -0.11650851 -0.036261093 0.1440852
0.23299247 -0.13073592 0.08023947 0.07703549 -0.074534684 0.06574751 0.1283813 0.02457918
-0.18399219 -0.08796307 0.1211265 0.18409124 -0.028351137 0.12148037 -0.18380156 -0.120124735
-0.07536381 0.06736375 0.18589231 -0.18819197 -0.09980311 -0.12178178 0.11536117 -0.1671154
-0.19614956 0.09435041 -0.06199859 -0.04449537 -0.07515196 -0.04580451 0.14160033 -0.08054649
-0.12316413 -0.092048675 -0.06914101 0.14787203 -0.11844896 0.1937398 -0.095803335 0.20894523
-0.19984382 -0.11355979 0.10360011 -0.15858461 -0.095000505 -0.0041485345 0.20489128 -0.0013705766
0.17014599 0.0673679 -0.06205313 0.050867066 -0.15391767 0.17996542 0.16059028 0.21104397
0.116466984 -0.14864323 -0.17885853 0.065990455 -0.0111696245 -0.018236853 0.013383581 0.15969978
0.06923466 0.20707299 0.18621871 -0.17439823 0.042888273 0.21102343 0.054665428 0.11953046
-0.020426655 0.116868176 -0.088736184 0.111035235 0.21887681 -0.016246747 0.11838672 -0.17460081
0.12882137 -0.06323762 0.12189331 0.1216679 0.16498992 -0.12916169 0.0140117295 -0.14058557
0.2337902 0.048157405 -0.19732651 0.12651652 -0.10040637 0.15680385 0.10908176 0.1917259
0.08650617 -0.010184941 -0.01622503 0.16083008 -0.13223839 -0.029692648 -0.005417909 0.1135953
0.19082183 -0.18414643 0.20574918 0.19579111 0.19287819 -0.016148103 -0.07640418 -0.14736205
-0.12860078 0.15151195 -0.20508154 -0.0019610978 -0.14372672 0.12718935 -0.1856364 0.1503993
-0.010252079 0.15651804 0.06754344 -0.047855042 -0.14408144 0.080102384 0.21078691 -0.064520426
0.105915636 0.1243543 -0.16763681 -0.12681165 0.092010915 -0.17051846 0.09146778 -0.06290006
0.004883354 -0.107272245 0.00064261345 -0.17600079 -0.038458645 -0.10480301 -0.15703005 0.08764851
0.088983685 -0.12968971 -0.20942765 0.20227082 0.066412866 -0.06542891 0.103501394 -0.038765114
-0.09630871 0.09222794 -0.015733812 -0.20431755 -0.1260268 -0.01884116 -0.04602923 0.039672602
0.030781712 -0.15690044 0.14768325 0.16695523 0.010375607 -0.026493292 0.15856007 -0.071410604
-0.024112623 0.02767209 0.2150735 -0.11757699 -0.045246877 -0.16834964 0.15035863 -0.18612288
0.09967397 -0.10641643 0.15720621 0.14788046 -0.19344744 0.056512482 0.19035679 0.15827677
0.15158005 -0.040023386 -0.2362406 -0.016748995 0.034213185 0.008263206 -0.13681194 -0.21802211
0.12592798 -0.1198272 -0.21216613 0.02549191 0.17203255 0.19342797 0.0330332 -0.13602598
0.052660517 0.21333842 -0.1348166 -0.1881689 -0.011080204 0.009966939 0.14854704 0.031505212

conv3.bias f4 [128]
00000000: 9ba5 b6b9 b71e f539 3355 8c3a 10a4 d338
00000010: f735 62ba c808 5a3a ee26 343a 01bd 8539
00000020: b83c 8bb8 0b4c 4d3a 0793 8eba 8682 0a3a
00000030: b82f c6b9 ea7a 493a 479a 923a c2d0 d3b9
00000040: 2a1f f239 a62d 03ba 478d 3a3a adb4 8e39
00000050: 85a5 b5b9 00c4 85ba 7538 c7b9 66b6 123a
00000060: 44c7 08ba 9347 193a dc2f 2436 bcca 143a
00000070: cf1e 1039 f7b1 bdba b6bf 6e3a ec17 f638
00000080: 6918 8b3a 4c7e 8cba 5116 e439 15e5 b4b7
00000090: 8348 f139 2644 16ba 6e50 d0b9 1586 ec38
000000a0: 769f b839 36d9 79ba 5db5 5939 022c 923a
000000b0: 4fa0 35b8 f984 f639 467f 1ab9 65c3 043a
000000c0: 13c7 80ba 12fd 3eba d95a cab9 13c1 143a
000000d0: e6e8 8d3a 6acd 26ba 6690 53b9 5be1 87b8
000000e0: 4e30 bb39 9ce1 613a ee83 2c3a 9725 4fba
000000f0: 48e9 7038 3404 1db9 7780 bcb9 4a33 003a
00000100: 94dd 443a f675 44b9 579f 303a ed13 e9b9
00000110: 6a6a 853a 9c36 8eba 8695 19b9 3ed9 303a
00000120: 5487 eab9 18b1 8fb9 e017 013a 6501 b6b9
00000130: 300c d937 a5ad 9539 f381 8039 fd2e c1b9
00000140: 4e54 033a e33c 33ba 3b38 66ba f79d 04ba
00000150: c966 e939 55cf 35ba 6da7 623a 9dfb 3239
00000160: 5eb4 fdb9 e2e2 8c3a 041d cb38 0e17 d7b9
00000170: f17e dd39 193e 6239 f269 01ba 99b0 83b9
00000180: 5495 41ba baec 433a 940b bdb9 b9f7 b739
00000190: c964 93ba 6c08 94b9 ff82 2dba 5cbb 483a
000001a0: d5b4 94ba bd69 9439 48f0 8e3a e6d7 98b9
000001b0: 9e51 4fb7 b47c 6939 dbf0 0f3a f0f7 8638
000001c0: 77d2 c5b9 6587 c439 5119 a3b9 4b31 9339
000001d0: 9c3e 163a fba6 a9ba 94cb eab8 7b68 e037
000001e0: 0b82 cfb9 3f6c 1d3a c675 163a 4f8b 413a
000001f0: d885 d5b9 d0e6 e9b9 81a2 7b3a a3a8 13ba
-0.0003483713 0.00046752926 0.0010706544 0.00010091823 -0.0008629257 0.00083173485 0.0006872256 0.00025508556
-6.639346e-05 0.00078314607 -0.0010877558 0.0005283732 -0.00037801056 0.0007685857 0.0011184894 -0.00040400593
0.00046181056 -0.00050040556 0.0007116389 0.00027218965 -0.00034646332 -0.0010205507 -0.00037998302 0.00055966375
-0.0005217681 0.0005847152 2.4465762e-06 0.0005675962 0.00013744387 -0.0014472593 0.00091075466 0.0001173465
0.0010612133 -0.0010718792 0.00043504176 -2.1564347e-05 0.00046021127 -0.0005732201 -0.00039732776 0.00011278332
0.00035214023 -0.0009530963 0.00020762296 0.0011152031 -4.3303062e-05 0.0004701985 -0.00014733998 0.00050645164
-0.0009824954 -0.0007285635 -0.0003859613 0.0005674522 0.0010826855 -0.00063630065 -0.0002017632 -6.479277e-05
0.0003570341 0.0008616687 0.00065809384 -0.00079020247 5.743772e-05 -0.00014974253 -0.00035953868 0.0004890455
0.00075098244 -0.0001873596 0.00067376107 -0.0004445607 0.0010178809 -0.0010850015 -0.00014646919 0.0006746239
-0.00044732785 -0.0002740703 0.0004924517 -0.00034714784 2.5874091e-05 0.0002854887 0.00024510882 -0.00036846838
0.0005009816 -0.0006837381 -0.00087821827 -0.0005058939 0.00044517804 -0.0006935497 0.0008646164 0.00017069136
-0.00048390304 0.0010748769 9.685199e-05 -0.00041025173 0.00042246984 0.00021576173 -0.00049367466 -0.00025117843
-0.00073846173 0.00074739347 -0.00036057516 0.00035089048 -0.0011245246 -0.00028235035 -0.0006618946 0.0007657313
-0.0011345396 0.0002830754 0.001090535 -0.00029152556 -1.2357164e-05 0.00022267067 0.00054909074 6.4358e-05
-0.00037731577 0.0003748491 -0.00031108645 0.0002807475 0.00057313754 -0.0012943441 -0.00011195909 2.6751533e-05
-0.00039579006 0.00060052046 0.00057395955 0.00073831243 -0.00040726247 -0.00044613192 0.0009599105 -0.0005632734

conv3.lin.weight f4 [128, 64]
00000000: bebf 50bd 6970 43be dbb6 8cbd b207 39be
00000010: a153 193d dbe8 3b3e 2b9d 073e 2528 0ebe
00000020: 8673 babd 2965 f3bd 88c5 c9bd e2de b5bd
00000030: 9001 fd3d feb1 2e3e 806a 55bd 99fe 1abe
00000040: d023 4c3d 209b 713d a07e 5ebd 2d12 0fbe
00000050: 2e16 953c 5f8c b6bd 9851 803d a9e6 6c3d
00000060: c83c 7e3d e13f 0ebe 312c 4f3d 043a f436
00000070: 5ad0 8dbd e17a 31be 7c55 823d 574e 523d
00000080: 1852 83bd 8f15 f1bc e464 cdbc ab3a 2b3c
00000090: 2189 f93d 8518 22bd 9790 1d3e 33aa b13c
000000a0: 29dd a13c 9ae6 25be 0f53 213e 63f5 fd3b
000000b0: 85ac f93d 6334 b93c 5278 42bd 9e11 8f3d
000000c0: 902e 803d cecb 10be 1827 2a3d 9b44 523d
000000d0: 3730 7a3d f962 45bc fceb bc3d 4b6f cebc
000000e0: cdbf d8bc 3542 b4bd 1dc8 3b3d 0c6e 1bbe
000000f0: 765f 12be 4ff0 dabd 5862 333e 3d3c f13c
00000100: c500 a7bd 11f7 1abe 0188 aa3d 0a44 95bd
00000110: 1439 993c 8a51 5abd d2c3 00be 0082 e43d
00000120: 19d1 cebd 263a b53a d6d9 31be 3b33 e73c
00000130: 45e3 e03c ca96 8b3c 2529 09bd 6f2f 253e
00000140: 269a 84bc 481a 98bd 7fc4 1dbe 9426 18be
00000150: 898f f43d 190b 9dbd c527 fcbd c59e 0a3d
00000160: 9deb a43c 0438 233e 03f0 c0bd e56e 1ebe
00000170: 6dd0 c93d 461d ad3c 2870 f63c 61b2 90bd
00000180: bd31 2f3d 4f84 db3b 9be6 933d 5127 22be
00000190: a25a d13d c2bf 1c3e 52cf 7cbd fb5e 273e
000001a0: 713a e03d 6dd5 d23d 3cd0 aabd f8cd adbc
000001b0: 37d6 febc fe10 02be 64a6 1ebe 33c4 d1bd
000001c0: b618 753d abca ae3d 78ca b6bc d519 53bd
000001d0: 2633 c33d 707b bf3d 194a cabd 78a0 153d
000001e0: b13f 44be 1f31 083e 7682 e9bd bc1a 74bd
000001f0: c5fc 113d aa24 c1bd 9ae0 0d3e 3a26 383d
00000200: ee5c 173d 261e 06bd 05a1 073e 2aeb dbbd
00000210: 0069 b3bd 08e8 a83d d8bd 133e 7c3d 5abd
00000220: 5463 583d 7208 c33d 19b1 f83c bdb5 c9bc
00000230: 24b2 8d3b 1e9e 093e de45 953d 68e8 f33d
00000240: b1e1 12be 6484 133d b447 17be f7bf 9ebd
00000250: 0cd6 62bd ffd4 6fbd 74eb 71bd 7ea5 093e
00000260: f7b9 42be c6b4 7e3d 9ed4 a83d 7dad 9abc
00000270: a76d 61bd 0356 88bd 15e5 e43d c7a5 a6bb
00000280: a2e0 9f3d b7e0 a6bc 8db3 043d 819a 423d
00000290: 4163 2abd 4409 97bd 6f33 343a 3c59 0bbd
000002a0: 6a21 073e bcb4 3abd 20e7 233e 6c3d b23d
000002b0: e928 1a3e 362d 243e 59b4 a5bc ff50 20bd
000002c0: 90a1 fe3d 67c5 18be 6fb5 d93c 49eb 13bd
000002d0: 36a6 ffbd b603 5ebd ba6c dcbd 2454 063e
000002e0: a890 0fbe 5aca c2bd d7a5 3dbe e244 35bc
000002f0: c6e8 213e 1a26 613d c776 093d b8d7 9a3d
00000300: b616 bfbd 69ca f7bb 23b8 43bd 0a41 45bd
00000310: 1a99 283d af51 c93d 7639 093e 34f6 493b
00000320: ab10 ff3d cc82 91bd dc9a aebd 2023 0fbe
00000330: 8a78 6abd 7463 463d ae54 acbd 10c3 c0bd
00000340: 9b35 813d 0b83 cf3d 9ca6 edbd 953f f43c
00000350: 1398 e53d 9462 10bd c5cf f8bd 17c6 62bd
00000360: 2127 433c 194d efbd 2641 5f3d 9397 94bd
00000370: 031b 053e 21d1 dd3d a159 e5bd ef7e 06be
00000380: defd 0f3e 0ebd e33d 0a6e 9c3c 1c61 81bd
00000390: 5302 ce3d 2257 38be c94b f53d ecc8 193e
000003a0: 7d2e 48b9 6487 24be 3df5 e6bd 2bb6 913d
000003b0: 66df 3a3e b113 2c3d 535a 13be 6d9c 0cbe
000003c0: 7c83 1cbe 5b90 f63c 5da7 60bd 55d8 77bd
000003d0: 0421 f83d 4dbb 1f3d 0dff ac3d ffdb 0cbc
000003e0: 30ef 93bc f99f 38bd e128 05be 027b 03be
000003f0: 6266 ff3d bd39 f2bc e7c6 bcbd 7a2e 0ebe
-0.05096411 -0.1908585 -0.068708144 -0.18069342 0.03743327 0.18350546 0.13243549 -0.13882501
-0.091040656 -0.11884529 -0.09852129 -0.08880402 0.12353814 0.17060086 -0.05210352 -0.15136184
0.04983884 0.05898583 -0.054319978 -0.13971777 0.018199053 -0.089134924 0.06265563 0.057837162
0.062069684 -0.13891555 0.050579254 7.2785206e-06 -0.069245055 -0.17332031 0.06363961 0.051344242
-0.064121425 -0.029429225 -0.025072522 0.010450999 0.121843584 -0.039574165 0.15387188 0.021687603
0.019758778 -0.16201249 0.1575434 0.0077501996 0.121911086 0.022607988 -0.047478028 0.06985782
0.06258881 -0.14140245 0.04154119 0.05133496 0.061081138 -0.012047523 0.09224698 -0.025199553
-0.026458645 -0.088016905 0.04584514 -0.15178698 -0.14294228 -0.106903665 0.17517984 0.02944767
-0.08154444 -0.15133311 0.08326722 -0.07288368 0.018703975 -0.053300418 -0.125747 0.11157608
-0.10098476 0.0013826534 -0.17368254 0.02822267 0.02745212 0.017039675 -0.033486504 0.16131376
-0.016186785 -0.07426888 -0.15406989 -0.14858466 0.1194144 -0.07668132 -0.12312273 0.03384282
0.02013188 0.15939337 -0.094207786 -0.1547199 0.09854207 0.021132123 0.030082777 -0.07065273
0.042772043 0.006699122 0.07221719 -0.1583531 0.10222365 0.15307525 -0.061721154 0.16344826
0.10948647 0.10294614 -0.08340499 -0.021216378 -0.031108005 -0.12701795 -0.1549316 -0.102425
0.05983802 0.085347496 -0.022313341 -0.051538307 0.0953124 0.09349716 -0.09877414 0.036529988
-0.19164921 0.13299988 -0.114018366 -0.05959581 0.03564145 -0.09430821 0.1385521 0.04495833
0.03695386 -0.032743596 0.13245018 -0.10738213 -0.087602615 0.082473814 0.14427888 -0.053281292
0.0528291 0.09523095 0.030357884 -0.024622792 0.0043242145 0.13439223 0.07288717 0.11909562
-0.14343907 0.03601493 -0.14773446 -0.07751458 -0.055379912 -0.05855274 -0.059062436 0.13442037
-0.19016252 0.062184118 0.082436785 -0.018881554 -0.055036213 -0.066570304 0.111765064 -0.00508568
0.07806517 -0.020370824 0.032397795 0.047510628 -0.041598562 -0.07374814 0.0006874119 -0.034020647
0.1319634 -0.045582518 0.16006136 0.087031215 0.15054668 0.16032872 -0.020227598 -0.039139744
0.12433159 -0.14919053 0.026575772 -0.036113057 -0.12482874 -0.054202758 -0.107629254 0.13118035
-0.14020026 -0.09511252 -0.18520294 -0.011063786 0.15811452 0.054967977 0.03356054 0.07560676
-0.09330504 -0.007561971 -0.04778303 -0.04815773 0.041161634 0.09830033 0.13400826 0.0030816915
0.12454351 -0.07105026 -0.08525631 -0.13978243 -0.05724386 0.04843469 -0.08414589 -0.09412205
0.063090526 0.10132416 -0.11604044 0.029815475 0.112106465 -0.03525026 -0.12149004 -0.055364694
0.0119111845 -0.11684627 0.05450549 -0.07255473 0.12998585 0.10830904 -0.11198736 -0.13134359
0.14061686 0.11120044 0.01909544 -0.0631735 0.10059037 -0.18001989 0.119773455 0.15018052
-0.00019090805 -0.16067272 -0.11277244 0.07114824 0.18249282 0.042010967 -0.14389925 -0.13731547
-0.15284532 0.03009813 -0.05484711 -0.060509045 0.12115672 0.038996983 0.084470846 -0.008597373
-0.01805839 -0.045074437 -0.13003875 -0.12839893 0.124707 -0.029568547 -0.09217625 -0.13884917

conv4.bias f4 [256]
00000000: 904a aebc 7a73 a5bc 9a59 a23c ff08 8e3c
00000010: 2b25 c53c 6bef 9bbc 121f 80bb 5e8c b43c
00000020: 8c13 b93c 8dae afbc cc9b d73c 26c3 a6bc
00000030: e973 c43c 1c9c babc aee0 afbc f633 c3bc
00000040: 7d70 aabc e6f2 9d3c 4b89 bbbc 61b8 653b
00000050: 6a7d 94bc a58c b6bc 8f33 b13c 6d62 52bc
00000060: 3071 a73c 7e3e cebc fa93 9b3c 430e b7bc
00000070: ff78 a3bb 54e0 b1bc 55eb 02bd df00 a43c
00000080: 31c0 abbc 2bf9 f73c 2d74 a8bc 2302 903c
00000090: 2475 c5bc c8dd b23a d999 993c ebbb 863c
000000a0: 672f ba3c d196 b43c 99c5 adbc 16f8 c23c
000000b0: a2ce ecbc 485c 9e3c 5dc7 b23c 1273 b43c
000000c0: d02e 903c 392d 77bc f871 abbc aec5 b3bc
000000d0: 6023 993c e023 c7bc 6edd 7f3c 1da2 b53c
000000e0: f441 ed3c dc89 dbbc e2c9 a13c 694a 843c
000000f0: 0105 0a3c 360a 9dbc 171b 9c3c dff6 aabc
00000100: d68f b2bc 453d a63c bf2e 87bc e643 e13c
00000110: 8b51 b4bc 709c ae3c 94aa 843c 318a a4bc
00000120: 0188 a63c 05ac c1bc aa7a 9b3c f345 cdbc
00000130: 0061 b0bc e98f a5bc 24ea 99bc c833 6d3c
00000140: 3818 9ebc df91 e13c 7415 9fbc a245 953c
00000150: 95b4 88bc 176d bbbc 587c 96bc 4695 bf3c
00000160: 503b 8c3c cd22 81bc c548 993c 6852 ae3c
00000170: ee33 ec3c 395f 9bbc 1207 4d3c ddb5 adbc
00000180: 7a95 d9bc 02e9 4639 0287 ac3c 7877 c8bc
00000190: c5cc 2d3b 17e8 b93c 2fdb a8bc 0946 313c
000001a0: e553 a53c 1f60 b83c 7c8e afbc ef87 9cbc
000001b0: 12e5 b53c 3f0d b4bc afea a5bc 336f d73c
000001c0: 1dab bbbc 01a1 c0bc baef b3bc 0f93 dbbc
000001d0: 7e30 b4bc f0d9 9dbc 4c0c 95bc 9390 d4bc
000001e0: 4e32 9bbc c3cb ad3c f712 ce3c d8da f03c
000001f0: e4b9 c2bc 710e b2bc 27eb 653c 37f0 fdbc
00000200: 0520 943c 00af 9b3c b7bb abbc 0d39 a23c
00000210: 221c 9ebc fb02 b73c 6196 b8bc 9961 ccbc
00000220: dea4 e03c aeda a1bc 6e31 a5bc 0782 ae3c
00000230: 63eb a6bc 5e65 87bc b3c8 963c 0aeb 8d3c
00000240: d465 893c bd87 bcbc 49a2 c53c a537 9fbc
00000250: 9c34 79bc d45f b1bc b07c a73c e862 bdbb
00000260: add7 a8bc 81d2 8fbc 6147 ba3c 7fb2 483c
00000270: 3f94 a8bc 3ddd 73bc 222d d4bc 2cbb fbbb
00000280: d4a6 7f3c 56d1 85bc 6d94 a63c c955 a33c
00000290: 81e3 99bc b64f 79bc 00e7 a3bc ee47 a43c
000002a0: d5a2 77bc 4a97 993c 3567 d4bc 6a8f b03c
000002b0: 96c7 d7bc c262 8a3c d8be ae3c 029f dabc
000002c0: fddd 88bc db9f dbbc 1a2b b73c 63b4 a5bc
000002d0: 2f0c a83c d750 ccbc 77d3 fb3b e183 9a3c
000002e0: 18f2 a1bc 90b5 b4bc 4370 a7bc c309 acbc
000002f0: fd69 6c3c 6234 adbc e023 bbbc f6d5 8c3c
00000300: bf4e b23c 3b4f a53c 398d a63c fbbc b7bc
00000310: d3a6 823c cc93 b83c cb0d f13c 165f bebc
00000320: 4586 013d 5dfe ba3c 023b 993c c6a0 c2bc
00000330: 91a8 bcbc e4cb ee3c 19bb c33c 4f19 c23c
00000340: 30ea bd3c c1cd d2bc ba9e a63c 8103 b73c
00000350: c358 d03c 06eb acbc 593a ae3c 9036 a1bc
00000360: 1555 833c 07d9 843c 9db3 223c 1854 a7bc
00000370: be46 b0bc 6356 a3bc 4294 9cbb 95f8 aa3c
00000380: 431c 93bc 1082 a13c c4b3 cd3c 213a 9fbc
00000390: 1a80 b53c a282 b03c 160b 983c a860 a0bb
000003a0: 6811 a8bc e18d d0bc 1f8f fbbc 7834 a83c
000003b0: 8a9f aabc 3cdc ba3c d94e a83b b4ba 943c
000003c0: e0c4 afbc ef16 b0bc f72d a53c 20c4 9c3c
000003d0: 5610 a33c 0822 593c bd80 abbc 287f c73c
000003e0: 4597 c93c fe54 e03c 23bd a4bc b642 9e3c
000003f0: b3f2 9dbc ef8d bebc d517 9bbc ba13 b1bc
-0.021275789 -0.020196665 0.019818116 0.017338274 0.024065575 -0.019035062 -0.003909954 0.022039589
0.022592328 -0.021445537 0.026319407 -0.020356726 0.023981052 -0.022779517 -0.02146944 -0.023828488
-0.020805592 0.019280862 -0.022892615 0.0035052525 -0.018126208 -0.022283861 0.02163103 -0.012840849
0.020439714 -0.025176283 0.01899146 -0.022345668 -0.004988789 -0.021713413 -0.03196271 0.020019947
-0.020965667 0.03027018 -0.02056321 0.017579144 -0.024103709 0.0013646418 0.018750118 0.016447028
0.022727681 0.022044571 -0.021212386 0.023799937 -0.028907124 0.019331113 0.02182358 0.022027526
0.017600447 -0.0150864655 -0.020928368 -0.021944847 0.018693626 -0.024309099 0.015616758 0.022172028
0.028962113 -0.026799135 0.019749586 0.016148763 0.008424045 -0.019169908 0.019055886 -0.02086967
-0.021797102 0.020292887 -0.016501782 0.027498197 -0.022011539 0.02131483 0.01619462 -0.020085426
0.020328524 -0.023641596 0.01897939 -0.025057768 -0.021530628 -0.020210223 -0.018788405 0.014477678
-0.019298658 0.027535377 -0.01941941 0.01822168 -0.01668767 -0.022879167 -0.018369839 0.023386609
0.017118126 -0.015763665 0.018711457 0.021279529 0.028833356 -0.018966304 0.012513893 -0.021204883
-0.026560534 0.00018969554 0.02106047 -0.02447103 0.0026519757 0.022693677 -0.020612327 0.01081992
0.020181606 0.022506772 -0.021430247 -0.019107787 0.022203956 -0.021978972 -0.020253507 0.026298141
-0.022908742 -0.023514273 -0.021964896 -0.026803521 -0.02199578 -0.01926896 -0.01819434 -0.025947845
-0.018944886 0.021215325 0.025155528 0.029401228 -0.02377028 -0.021735402 0.0140331155 -0.030998332
0.018081674 0.019004345 -0.020963533 0.019802595 -0.019300524 0.022340288 -0.022532644 -0.024948882
0.027422365 -0.019757595 -0.020165171 0.021302236 -0.020375913 -0.016527828 0.018406248 0.01732399
0.016772188 -0.023013944 0.024125235 -0.019435713 -0.015210297 -0.02165214 0.020445198 -0.005779613
-0.020610655 -0.01755643 0.022739114 0.012249588 -0.020578502 -0.01488429 -0.025900427 -0.0076822247
0.01560374 -0.01633517 0.020334447 0.019938366 -0.01878524 -0.0152167585 -0.02000761 0.02005383
-0.015114506 0.018748898 -0.02592812 0.02155276 -0.026340287 0.016892795 0.021331236 -0.026687149
-0.016707415 -0.026809623 0.02235942 -0.020227617 0.020513622 -0.024940891 0.0076851207 0.018861713
-0.01976876 -0.022059232 -0.020439273 -0.021000749 0.014429566 -0.021143142 -0.022844255 0.017191868
0.021766065 0.020179382 0.020331012 -0.02242898 0.015948689 0.022531413 0.029425522 -0.0232387
0.03162219 0.022826368 0.018704895 -0.023758303 -0.023029597 0.029149957 0.023892926 0.023693709
0.023182958 -0.025732877 0.020339359 0.022340538 0.02543295 -0.021108162 0.021268057 -0.019679338
0.016031781 0.016216768 0.009930518 -0.020425841 -0.021518108 -0.019938653 -0.004778416 0.020870486
-0.017957812 0.019715339 0.025110133 -0.019436898 0.02215581 0.021546666 0.018559974 -0.004894335
-0.020516112 -0.025458278 -0.030707894 0.020532832 -0.020828027 0.022810094 0.0051363525 0.018155433
-0.021456182 -0.02149531 0.02016352 0.019136488 0.01990525 0.013252743 -0.02093541 0.024352625
0.024608264 0.027384277 -0.020109719 0.01931892 -0.019280767 -0.023261039 -0.018932262 -0.021615852

conv4.lin.weight f4 [256, 128]
00000000: d555 50bd fce5 1dbd 528f d13d f772 d73d
00000010: 6a19 043e 3b33 4fbd 7f94 14be cd45 ecbd
00000020: 1f1a c5bd 835f a13d 67e1 ed3d 651d 263d
00000030: 4246 0bbd 296e ca3d d06b f73d 54a8 8c3d
00000040: 3741 3dbd d30e 8fbc 3c0f 72bd 51ff 193d
00000050: 55b8 283c ace1 18bd afce f1bd e75c ef3d
00000060: adac dbbd e9e8 9abd a285 103e 4d20 46bd
00000070: efe0 003e 6bea 7c3d 6e01 613d 566d b2bd
00000080: 8025 ab3d 19bf a9bd dd05 1ebd 50e2 563b
00000090: 75f3 fdbd 2592 46bd 59e4 93bd 6b46 40bd
000000a0: 1212 bebd 5129 bc3d ff14 b6bc 68b5 903c
000000b0: c300 423d 6c3c f8bd 3d4e a83d f385 f83d
000000c0: fdf8 8a3d e971 b03c 2084 823d 2ad8 793d
000000d0: b6d5 c4bd 591e 24bd a4e7 bc3d cb02 12be
000000e0: 8e89 413c 5e42 07be 7e79 b3bc d9f4 babd
000000f0: fa10 d1bc 08d6 f5bd 887b 8a3c 4ec3 833d
00000100: 73f4 713d c2f5 c73d dcb8 83bd 1dcc 2fbd
00000110: b449 333d ff0e 44bc 96fe b9bd 317f 423d
00000120: 0b70 143e 8e07 14bd ee58 7abd 3fb7 be3b
00000130: dd37 193d 9ad6 e53a 4818 3abd 7dbb 01be
00000140: 04e8 d33d 93a5 7cbd dfd5 983d 3741 c13d
00000150: 461f 6abd 04f1 0f3b 084e bbbd 613d 12be
00000160: 2057 443d 113b 37bd 7e6a afbc 3da6 eebd
00000170: 73de 24bd 90d2 913d fff4 78bd ba2c 39bd
00000180: 6d13 0a3d a033 a9b7 62b4 96bd f684 c9bc
00000190: 3109 163e afe6 bc3d 7f5a a03d c606 5d3d
000001a0: 744f 05be dc69 82bd a1fe 533c 43b9 75bd
000001b0: e803 c33c 24a6 57bd 5822 123e 0c8d 133e
000001c0: 151e df3d 2db3 483d 4712 4cbd ef6c ae3d
000001d0: 1e48 15be 95e1 953d b153 f6bd 4919 cc3c
000001e0: 755c 2abd dbd5 febc 3ee3 943c 7b67 18bd
000001f0: 8732 c0bd 8e60 9e3c c916 37bd a2c1 7abd
00000200: 9c4b b43d a560 0fbe 2da1 f7bd 36c7 733d
00000210: 31b2 08bd f59f 25bc 2796 fdbc 8259 bbbc
00000220: f389 1ebd 6354 70bd 129f f6bd 335b 0d3e
00000230: 30cb 763d cfe7 0abe 01d9 b13d ee61 cebc
00000240: a243 21bb 0292 c33d 8ee9 b5bd 3be2 dc3c
00000250: c89f 9dbd d7a2 983c 89db 9abd b5ca ce3d
00000260: 21c4 8e3d fc72 e93d 898e debd 835e 8fbd
00000270: 2ef6 d03d 76e1 d7ba 18c8 9abd b4c4 1bbd
00000280: 411f 0cbe ec58 d43c 6453 493d 8fc6 0b3d
00000290: 6c2a 34bd 6cbf e8bd c3b5 d03d 0ef6 86bd
000002a0: 19ee b2bd 1eda bf3d 60c5 d23c b621 b43d
000002b0: 00d5 99bd b493 4f3d f6ce 48bc d23c 7a3d
000002c0: cbab ca3d 5d7c 0a3e 2ae4 79bd ba29 c13d
000002d0: 25ab c83d 2a9d 0a3d 64e2 d93d 6b2d 86bb
000002e0: fe6c 03bd e312 a3bd 9577 12be e071 983d
000002f0: e547 c53d 1c5a ca3d cd8b cbbc 3b17 f5bc
00000300: 6fef b43c 5f22 de3c cb9c 9a3d 4708 093d
00000310: 9a92 273c cc71 e0bd 551b 72bd 7cca bcbd
00000320: a953 ccbd 2477 2a3d 01f8 62bd dbe5 b33d
00000330: 7443 84bd 4f27 fb3b 0413 ccbd c541 033e
00000340: 4674 14be 932f ce3d 8703 b1bd 832f 793d
00000350: c8c3 bebc efec 41bc a164 c93d b733 a83c
00000360: fe04 81bd 6989 d53d 111b cabb 1ac0 093b
00000370: a01d 71bc f3ec 80bd fc62 90bc 5eaf d7bc
00000380: 1617 aa3b 71df 123e 3fbc 5fbd ecfa a43d
00000390: f7c3 14be 98c7 6a3d de20 b3bd adb4 c6bd
000003a0: ef2f 47bd fea5 07be bd50 593d 489a d73d
000003b0: 0d0f 843d d537 903c b418 9dbd 8432 0f3d
000003c0: 90e4 81bd fe08 313d f547 92bd 84fd a53d
000003d0: 215f 623c a9fd 9a3d eb07 12be 3620 3abb
000003e0: d74a 6d3d 0d92 43bd 48b2 d63d 21a8 d83a
000003f0: b3ea c43d bf01 c33d c50e 023a 7075 bd3d
-0.050863106 -0.03854941 0.10232414 0.10519975 0.1290032 -0.050585967 -0.14509772 -0.11536751
-0.09624123 0.078795455 0.11615258 0.040555377 -0.03400255 0.09884293 0.120811105 0.068680435
-0.04620477 -0.017463123 -0.05909656 0.037597004 0.010297854 -0.037324592 -0.11807 0.116876416
-0.10726295 -0.07563955 0.14113477 -0.04837065 0.12585805 0.061746996 0.054933004 -0.087122604
0.08356762 -0.08288402 -0.03857981 0.0032788701 -0.12399951 -0.048479218 -0.07221288 -0.046942156
-0.092807904 0.09187568 -0.022226809 0.017664626 0.047364008 -0.121208996 0.08218048 0.12134924
0.06785772 0.021538692 0.06372857 0.060997166 -0.096110746 -0.040068004 0.092238694 -0.14258878
0.011812581 -0.13208911 -0.021908518 -0.09128732 -0.02552079 -0.12003714 0.016904607 0.06433736
0.059071016 0.097636715 -0.064317435 -0.042919267 0.04377146 -0.011966466 -0.090817615 0.04748458
0.14495866 -0.036140017 -0.061119966 0.0058201845 0.03740679 0.001753527 -0.045433313 -0.12669177
0.10346988 -0.06168134 0.07462668 0.09436267 -0.05715873 0.0021963725 -0.09145743 -0.14281227
0.04793465 -0.044734064 -0.021413084 -0.11652801 -0.040251207 0.0712024 -0.06078052 -0.04520867
0.033709932 -2.017041e-05 -0.07358624 -0.024599534 0.14651944 0.09223687 0.07829761 0.053961538
-0.1301859 -0.06367847 0.012939126 -0.059991132 0.023805574 -0.05264868 0.14270914 0.14409274
0.108944096 0.048999 -0.049822118 0.08516871 -0.14578292 0.07318417 -0.120276816 0.0249144
-0.04159208 -0.031107834 0.018174764 -0.03720806 -0.09384637 0.01933315 -0.044699464 -0.06121982
0.08803484 -0.1400171 -0.12091289 0.059516154 -0.03337306 -0.0101089375 -0.030955387 -0.02286983
-0.038705777 -0.058674227 -0.12042059 0.13804321 0.06025237 -0.1356499 0.08683968 -0.02519318
-0.0024606963 0.09549333 -0.08882438 0.026963344 -0.076964915 0.018632336 -0.07561404 0.10097257
0.06971002 0.11398885 -0.1086703 -0.070004486 0.10203205 -0.0016470391 -0.07557696 -0.038029388
-0.13683797 0.025921308 0.049151793 0.034124907 -0.04398577 -0.11364636 0.10190918 -0.065899
-0.0873682 0.093677744 0.025728881 0.08795492 -0.0751133 0.05067797 -0.012256375 0.06109316
0.09896048 0.13524003 -0.06100861 0.09431787 0.09798268 0.03384129 0.10638884 -0.0040947697
-0.032086365 -0.07962587 -0.1430343 0.07443595 0.096328534 0.09880468 -0.024846936 -0.029918304
0.022086827 0.027115999 0.07549437 0.03345516 0.010227824 -0.10959205 -0.059108097 -0.09218308
-0.099768944 0.041617528 -0.055412296 0.08784076 -0.06458178 0.007664598 -0.099645644 0.12818058
-0.1449748 0.10067668 -0.08643251 0.060836326 -0.023286715 -0.0118362745 0.098336466 0.020532472
-0.0629978 0.104265995 -0.0061677773 0.0021019042 -0.014716536 -0.062951945 -0.017625324 -0.026328739
0.0051907403 0.14343049 -0.054622885 0.08055672 -0.1452788 0.057319254 -0.08746503 -0.0970243
-0.048629697 -0.13246915 0.053055514 0.10527474 0.06448183 0.017604748 -0.07670727 0.034960285
-0.06342423 0.043221466 -0.07142631 0.08104995 0.013816626 0.07567913 -0.14260833 -0.0028400547
0.0579327 -0.047746707 0.10483223 0.0016529599 0.09615078 0.095218174 0.0004961307 0.09250915

conv5.bias f4 [256]
00000000: f6bb 7e39 0dab eab9 d415 18ba 76a5 fc39
00000010: 0d47 403a e6d5 303a 4c60 ceb9 1dc5 eb39
00000020: 1c63 643a 957d d339 f73d 3d38 0b42 1dba
00000030: 46fc d839 9862 263a 3f94 61ba 32c4 943a
00000040: 1e46 ecb9 2c90 3239 ac3e 8f39 4237 d039
00000050: 2c1d 573a 4c33 bd39 6101 89ba 57a5 5739
00000060: aba2 64ba 89f6 b439 714a 92ba 3926 9bb9
00000070: 7d77 a2b8 c4a3 423a 8fc0 09ba 147d 39ba
00000080: 1400 083a 6449 16ba 929c 64ba 7ce9 323a
00000090: 5cd7 d339 48e7 443a 4f69 f3b9 5dd6 f3b7
000000a0: f258 173a c400 363a 8c2f 7aba f067 4039
000000b0: cb2f 1338 cb20 81ba 79b6 643a d0f7 1fb9
000000c0: 3fd3 153a 0c2f 183a 0b70 e139 5fbc e5b9
000000d0: 4c48 8037 7d5b 543a 81f5 4939 b93b ad39
000000e0: fac2 5c3a 9cf6 72ba 8a6a dcb7 2457 b439
000000f0: f070 30ba a18e 3c3a 0fd6 9038 a3a9 80b7
00000100: b975 b1b9 d105 11ba b391 ab39 cb30 093a
00000110: edc2 5638 9dca deb9 72a7 9939 9897 a9b8
00000120: b9f5 273a 42d8 123a a717 cc39 a1ca 66b8
00000130: 2566 27ba fa2b ef39 c200 9539 bb32 c538
00000140: c3ce 57ba af82 eeb9 97ed 283a 698b acb6
00000150: 7bb6 0aba 1742 7db9 dec7 57ba 2c42 eeb9
00000160: 090d 5b3a b4dd a2b9 35b9 6639 e4cf 623a
00000170: 5fcd e4b9 979f 3039 c5dd 04ba 9bc9 fa39
00000180: 0abe ac39 7ee0 beb9 b2be 4dba 627d 61ba
00000190: a700 10b8 e09a cd39 bc11 e138 771c 51ba
000001a0: f6a2 64ba 40ec 3e3a 75af 603a dc73 62ba
000001b0: 48a0 2aba b19d f9b9 044e 423a d047 1d3a
000001c0: 1622 43ba 851e 263a 968a 62ba 93c7 58ba
000001d0: 0830 563a 8405 603a 09eb 943a e101 b5b9
000001e0: 9459 48ba 8236 3c3a 2523 92b9 2ab4 203a
000001f0: 1d5e 6bb8 8df0 53ba 66ec 3eba 0d67 6839
00000200: 3202 a2b9 4798 49ba b9ff 893a dcfb dbb9
00000210: b775 2b3a 3297 83b8 ed6d 62ba 5182 6b39
00000220: 52c3 28ba b3f0 06ba 5946 eeb9 28e2 5bba
00000230: 9df3 203a b177 1d3a b478 e5b9 8a92 5439
00000240: 9e6b 9e39 6b85 cfb9 59f9 1c3a c3ce 033a
00000250: f258 ecb9 f726 27ba 62ce 2eba 8199 223a
00000260: ba0b e238 7454 1439 7375 28ba 5bc3 313a
00000270: 7429 47ba 5ae1 26ba 15eb 613a 4067 a9b9
00000280: ffec 133a ef7d 5b3a 35aa be39 a960 31ba
00000290: a818 8fba 2f04 f2b8 5f68 c639 caf4 93ba
000002a0: 89ef c739 15ef 60b9 dd1c 64ba 20c1 43ba
000002b0: 1a33 ecb9 b4a2 6638 ca19 9438 08d9 90b9
000002c0: 0395 28ba 5f53 063a 98f9 59ba bc47 7139
000002d0: 06c7 613a 1898 0339 d562 043a 34cf dcb9
000002e0: 2b38 033a 240d 7bb9 f03e 63ba a409 283a
000002f0: 422e c5b9 d362 5db8 e162 4e3a d0d9 1c3a
00000300: 32bb 2aba 3a87 8537 8ba7 b138 12b9 8d3a
00000310: 15c9 0db9 5756 0439 902c d039 3c38 87ba
00000320: c4e0 02ba 1f95 3bb9 15da dbb9 e688 353a
00000330: 51c6 7f3a 8dca 9fb9 c07c 03ba ea7a acb9
00000340: db66 05ba 88dc 823a 395b 8bb9 307f 5c3a
00000350: 56a7 a239 e4a6 b039 42fa 493a 9be1 2b39
00000360: 10e8 483a 0d8a e1b9 52d4 2fba 7923 b239
00000370: 92d3 1cba 4f48 483a ac3b 433a a949 1639
00000380: 583e 0fba 93ea f6b8 0248 323a 021c 4d39
00000390: 8647 193a b0cc 523a ecd7 0f3a ae37 0a3a
000003a0: 29a5 e537 32b7 0d39 6771 5c3a 637f 4d3a
000003b0: a279 71b9 3259 213a 3a13 c4b9 76df 643a
000003c0: e317 353a e5bf 633a d32b 3d39 0469 00ba
000003d0: 90c6 1bba 7431 c239 b022 5c3a cba7 03ba
000003e0: 0485 633a 80d8 243a 20b3 b438 81b3 f6b9
000003f0: 2b77 2a3a d3d5 90ba 1fdf 23ba 66d2 4bba
0.00024293349 -0.000447594 -0.00058015925 0.00048188464 0.0007334806 0.00067457405 -0.0003936313 0.00044969554
0.0008712278 0.00040338622 4.511882e-05 -0.0005998916 0.0004138669 0.0006347089 -0.0008605159 0.0011349975
-0.0004506567 0.00017029111 0.0002732178 0.00039714022 0.0008205946 0.00036087108 -0.0010452681 0.00020565592
-0.0008721749 0.00034515958 -0.0011161101 -0.00029592382 -7.7470184e-05 0.00074249157 -0.0005254829 -0.0007075828
0.0005188 -0.0005732982 -0.00087208406 0.0006824953 0.0004040551 0.000751127 -0.00046427033 -2.9067678e-05
0.0005773447 0.0006942863 -0.0009543828 0.00018349267 3.509204e-05 -0.0009851692 0.00087247003 -0.00015255739
0.0005715377 0.00058053504 0.00042998823 -0.0004381863 1.5292455e-05 0.0008100791 0.00019260311 0.00033041628
0.0008421388 -0.0009268315 -2.6275655e-05 0.000343972 -0.0006730696 0.0007192884 6.9063266e-05 -1.5337782e-05
-0.0003384778 -0.0005532178 0.00032724216 0.0005233406 5.1203115e-05 -0.00042494098 0.0002930719 -8.0867845e-05
0.000640716 0.0005601683 0.00038927534 -5.5024986e-05 -0.0006385765 0.00045618397 0.0002842006 9.403141e-05
-0.0008232409 -0.00045492264 0.0006444095 -5.142229e-06 -0.0005291474 -0.0002415258 -0.00082313817 -0.000454442
0.00083561294 -0.0003106423 0.00022003504 0.0008652194 -0.00043640562 0.0001684412 -0.00050684466 0.00047833924
0.00032947987 -0.00036406884 -0.0007848545 -0.00086017523 -3.4332883e-05 0.00039216038 0.00010732139 -0.0007976959
-0.0008721793 0.0007283129 0.0008571067 -0.000863848 -0.0006508869 -0.0004761047 0.0007412138 0.00059997756
-0.0007443739 0.0006336945 -0.0008641867 -0.0008269485 0.00081706094 0.0008545744 0.001136155 -0.0003452441
-0.0007642743 0.0007179753 -0.00027873475 0.0006130362 -5.6116016e-05 -0.0008084856 -0.0007283151 0.00022163634
-0.00030900683 -0.00076902326 0.0010528482 -0.00041958585 0.0006540673 -6.274729e-05 -0.0008637596 0.00022459893
-0.00064377964 -0.00051475613 -0.0004544731 -0.0008387887 0.0006139817 0.000600691 -0.00043768215 0.00020272486
0.0003021629 -0.0003958152 0.00059880834 0.00050280633 -0.00045079697 -0.00063763506 -0.00066683267 0.00062026834
0.00010778704 0.00014145841 -0.00064261927 0.00067811244 -0.00075974246 -0.00063659775 0.0008618099 -0.0003231112
0.000564292 0.00083729526 0.00036366438 -0.00067664176 -0.0010917382 -0.000115402385 0.00037843265 -0.0011288163
0.00038134705 -0.0002145137 -0.0008701811 -0.00074674375 -0.000450515 5.4987802e-05 7.0619935e-05 -0.0002762752
-0.0006430896 0.00051241176 -0.00083150854 0.00023010274 0.00086127257 0.00012549793 0.00050501275 -0.00042116048
0.0005005623 -0.0002394212 -0.0008668741 0.0006410128 -0.00037609233 -5.2782543e-05 0.00078730105 0.00059833843
-0.00065128796 1.5917805e-05 8.471225e-05 0.0010812602 -0.00013521717 0.00012620665 0.00039706053 -0.0010316442
-0.0004992599 -0.00017889262 -0.0004193342 0.00069250015 0.00097570295 -0.00030477755 -0.00050158426 -0.00032897975
-0.0005088874 0.0009983936 -0.00026580112 0.00084112864 0.00031023723 0.0003369368 0.0007704833 0.00016391875
0.00076639745 -0.000430182 -0.00067073584 0.00033977235 -0.0005982454 0.00076401694 0.00074475515 0.00014332555
-0.0005464307 -0.00011773887 0.0006800891 0.00019560757 0.00058471446 0.0008041365 0.0005487192 0.0005272579
2.7375836e-05 0.00013515053 0.0008409232 0.00078391115 -0.00023028863 0.0006154954 -0.00037398358 0.0008730808
0.00069081614 0.00086879573 0.0001804077 -0.0004898461 -0.0005942369 0.0003703941 0.0008397503 -0.00050222565
0.00086791837 0.00062883645 8.6164335e-05 -0.00047054517 0.0006502743 -0.0011050053 -0.0006251204 -0.0007775187

conv5.lin.weight f4 [256, 256]
00000000: 8bf9 ad3d f171 4b3d 5cb0 94bd ded1 773d
00000010: 4a1e ae3d f570 2bbd 35e4 91bd 6968 a7bd
00000020: 0ed9 e03d a1cd ed3d 8e43 d03c 9116 2bbd
00000030: 1efb e63b 8308 77bd 6271 e2bd ba44 adbd
00000040: aec0 603c e565 023e f6bb b33d e674 873d
00000050: e56e d7bd a65b ffbd 3822 fb3d 17a8 d1bc
00000060: 215c c1bd 6b03 5dbd 3cd4 843d e246 d9bd
00000070: 2fdc 52bc d6b1 9bbd bc76 a0bd dce1 833b
00000080: 32a3 303d fa46 bd3d a97d ae3d dd66 a5bc
00000090: f297 abbd 8571 8a3c c23d b93d cb49 c03d
000000a0: 73b1 a6bd 441b a0bd f3da 04bd 6c1e c4bb
000000b0: 84b0 a13d 2cf0 1c3d 80e1 2d3d f496 70bd
000000c0: 645b 083c a4c4 57bd 837b 853d 949b 773d
000000d0: c8b5 99bb 0d86 9bbd 48b2 76bd 68cb 5a3d
000000e0: 551c a03d 76c9 8b3c c94a 513d 5cf6 a63c
000000f0: 641f 743d fa16 f2bd 1bf5 4fbd fd4b 0fbd
00000100: b4cf 97bd 0a33 9c3b 074f e03d ea59 60bd
00000110: 489b 813d 5117 33bd a55a dd3c 1014 3abd
00000120: 94bf 993d 8b04 6dbd 0e22 cf3d a8bb e2bd
00000130: 82ba dcbc 1b8b e5bd d284 23bd 2d6f c0bd
00000140: 7bd8 043e 58e4 5cbd 8578 87bd 8d6d c03d
00000150: a6ad 1c3d 3ea0 b93d 3da7 3b3d 647b cc3d
00000160: f706 bfbb 249b 3b3d 7538 0b3d bf4e de3d
00000170: d7f8 adbd 068d cb3c dc02 af3d 6782 dbbd
00000180: dd96 4dbd 2d8a 9abc 7f00 813d 2d0a d13d
00000190: c805 8cbd ee89 8e3b d759 b33d 4354 e23d
000001a0: 6646 9b3c 64ac 41bd 37ff 80bd edae e0bd
000001b0: b022 bd3d 4412 7c3d 7428 1dbc bb3c d93d
000001c0: 1050 b63c 23b6 b6bc 1d15 b9bd 87f9 c53c
000001d0: ec1b 2ebb b111 d23c bc25 a0bc 8adc dc3c
000001e0: a99a ab3d 9678 bdbd a4f8 a7bd d49d 2ebd
000001f0: 077a 733d 87bd 643d 5ac3 4a3c 961f 78bc
00000200: 9154 d43d 284e 06bd 6e10 f63d 6a31 3cbd
00000210: 2856 a7bd e438 453c 3ce5 f03d 7e68 5bbc
00000220: 8c9b 8ebd ccac 923c 60f2 8dbd 9e30 e7bc
00000230: c5ad dabd d81c f83c 0d81 3cbc f8c2 24bd
00000240: b0ac 4a3d 5c48 2e3c 53ef ff3b 62c8 76bd
00000250: 44aa 4abd 0af2 833d 19f5 553d 3fbf fb3d
00000260: 0ee1 b33d bcb0 663a daa2 c13d 3869 72bd
00000270: 3cbe 13bd 7327 4ebd 8f1c e3bc f125 c7bc
00000280: 07e7 8abd 3f2d ef3d 8277 a4bd 0435 ed3c
00000290: 124d 483c 126b 51bd 4819 8e3d e019 febb
000002a0: ce7f a03d 8b05 83bd 9384 d1bd a338 1dbd
000002b0: 115d 2ebd a2ca 13b9 7ffc e2bc 6ad2 09bd
000002c0: 0101 c9bd a947 81bd 3f5e a0bd fd17 6a3d
000002d0: 065d 2c3d 5a62 a5bd fb96 613c 5a0d b03b
000002e0: 5840 243d 36c1 313a 5ddb 593d 7dc2 89bc
000002f0: 6bcc e33c aeb9 a8bd a61b 833c d185 84bd
00000300: 3f9c 11bd 9dc9 ac3c 918d 82ba 3631 3c3d
00000310: a9d7 ec3d 1dfc d23d e6b5 79bd 3b2d 36bd
00000320: 33bf 623c 8a97 b13d 218a df3d 6d41 a1bd
00000330: 4ae3 84bc bcf8 1a3c 7a37 48bb b646 183d
00000340: 3576 1abd 238f 453d 3dab c43d 6e39 ac3d
00000350: 05b5 8b3d c844 a83d 46ac 68bd de30 efbd
00000360: 82ef c53d f0d1 9f3b a88a a3bb 2ce5 5bbc
00000370: e3a7 373d f32a 453d b86b ddbd 5068 3bbc
00000380: a84b 87bd ae05 2f3d a3fe b5bc fda6 ed3d
00000390: dd8f 533d 860a 913d d031 943d d6bc 20bd
000003a0: a5e5 9b3d 9608 db3d 7a52 b93c 3e48 9e3d
000003b0: 1ecd 103c a678 cebd 7a93 afbd 0dbc 7abc
000003c0: 4a4d da3d e15a 53bd 62d6 9cbd 420c 0c3e
000003d0: f788 073e d4f5 993c 6d59 0c3d eb17 d03d
000003e0: d1ef dcbd df4a 2cbd 89b7 ad3d f91d 20bd
000003f0: 920b 4dbd dde5 a33d 5b03 363d 98cb 6ebb
0.08494862 0.04966921 -0.072602004 0.06050288 0.08501871 -0.04185577 -0.07123605 -0.081742115
0.109789 0.11611486 0.025422838 -0.041769568 0.0070489785 -0.06031085 -0.11056782 -0.08460374
0.013717813 0.12734182 0.08776085 0.066140935 -0.10519198 -0.124686524 0.12262386 -0.025592847
-0.094414 -0.053958338 0.06485793 -0.10609223 -0.012869879 -0.07602279 -0.07835147 0.0040247273
0.043124385 0.09242053 0.085200615 -0.02019065 -0.08378591 0.016899833 0.090449825 0.09389075
-0.081393145 -0.078177005 -0.03243537 -0.005985072 0.07894996 0.038314983 0.04245138 -0.05873771
0.0083225705 -0.052677765 0.065176986 0.060451105 -0.0046908595 -0.075939275 -0.060228616 0.05341664
0.07817904 0.017063837 0.05109671 0.020381145 0.05960025 -0.11820789 -0.05077086 -0.034984577
-0.07412663 0.0047668265 0.10952573 -0.05477325 0.06328446 -0.043723408 0.027020762 -0.04542929
0.07507244 -0.05786566 0.10113917 -0.11070949 -0.026944403 -0.11208173 -0.03992159 -0.09396205
0.12973206 -0.053928703 -0.06614784 0.09395895 0.03825154 0.09063767 0.045813788 0.099844724
-0.0058296877 0.04580225 0.03398939 0.108548634 -0.08494728 0.024847519 0.08545467 -0.10718232
-0.050192703 -0.018864715 0.06298923 0.10207019 -0.0683704 0.0043499386 0.0875737 0.11051228
0.018954467 -0.047283545 -0.06298678 -0.109708644 0.09235132 0.061540857 -0.009592164 0.106072865
0.022254974 -0.022303646 -0.0903723 0.024166835 -0.0026566936 0.025643202 -0.019549243 0.02696063
0.083791085 -0.092515156 -0.08201721 -0.042630985 0.059442546 0.05584481 0.012375677 -0.015144249
0.10367692 -0.03278938 0.120148525 -0.045945562 -0.0817073 0.01203749 0.11762473 -0.013391612
-0.06963262 0.017904662 -0.06930995 -0.028221425 -0.10677675 0.030287191 -0.0115053775 -0.040225
0.049481094 0.010637369 0.007810512 -0.060249694 -0.049478784 0.0644265 0.052235696 0.12292337
0.0878316 0.0008800139 0.094548896 -0.059182376 -0.036070094 -0.05033059 -0.027723579 -0.024310084
-0.06782346 0.11678552 -0.08030607 0.028955944 0.012225406 -0.0511275 0.06938416 -0.0077545494
0.07836877 -0.063975416 -0.10230365 -0.03838409 -0.042569224 -0.00014094499 -0.02770829 -0.033647932
-0.098146446 -0.06312496 -0.07830476 0.057151783 0.0420809 -0.080754 0.013768907 0.0053726854
0.040100425 0.0006780805 0.053187717 -0.016816372 0.027807435 -0.082385406 0.016004395 -0.06470836
-0.0355494 0.02109223 -0.0009960403 0.04594537 0.115645714 0.10301993 -0.060964487 -0.04447673
0.013839531 0.08671482 0.10915018 -0.07873807 -0.016221661 0.009458717 -0.0030550645 0.03717681
-0.037710387 0.04823221 0.096029736 0.08409391 0.06821636 0.08216244 -0.056804918 -0.116792426
0.09664823 0.0048773214 -0.0049908943 -0.013421338 0.044837844 0.048136663 -0.10811561 -0.011438444
-0.06606227 0.042730026 -0.022216147 0.11604116 0.05165087 0.07082085 0.072360635 -0.039242588
0.076121606 0.10694997 0.022622336 0.07728623 0.008837966 -0.100816056 -0.08573051 -0.015303624
0.10659273 -0.05160034 -0.07658078 0.13676551 0.13235842 0.018793978 0.03426497 0.10160812
-0.10787929 -0.04206359 0.08482272 -0.039091084 -0.050059862 0.08002827 0.044436794 -0.003643727
