weights/8-21-yfp-0_split_2.pt (torch, 473578 bytes, 26 tensors)

conv1.bias f4 [64]
00000000: 7cb2 273a 64f4 4bba 7492 443a 9916 623a
00000010: 0a02 e039 c7b0 13ba 7e49 22ba 47b9 b0b9
00000020: 6629 da39 beb3 053a b6fe a0b9 8e12 4dba
00000030: 4407 4f38 f8c2 5fba 1c36 16ba 8861 283a
00000040: 7473 64ba 3ca7 df39 a123 9eb9 cc99 b7b9
00000050: 0791 25ba 1c87 feb9 9513 d6b8 8a5e 5eba
00000060: c000 183a 6f65 b439 a851 27ba 9915 41ba
00000070: faad 2a3a 21b6 28ba 442b f2b9 fd7c 28ba
00000080: 352e d2b9 fcd0 3039 7db4 fab9 9a2d 0939
00000090: f0db 25ba c997 3e3a 7a65 053a caab 28ba
000000a0: a4fe 9fb9 ec3a c0b9 c5f4 e1b9 809a 173a
000000b0: a4ca 0a3a 694f 223a 252e 08ba 0ab8 303a
000000c0: 5cfc 38ba 5d08 04ba 7bb8 1fba 78bf c3b9
000000d0: bbfc 11ba 1129 643a d94d 4fba 75b5 d939
000000e0: f4af c138 a927 bdb9 4089 24ba c4c7 033a
000000f0: 77ec 583a 6764 273a 0d7e 9ab9 2d7b 01ba
0.00063971407 -0.00077802525 0.000749863 0.0008624583 0.0004272613 -0.0005633947 -0.0006190761 -0.00033707378
0.00041611044 0.0005100331 -0.00030707353 -0.0007822894 4.9359413e-05 -0.00085358275 -0.0005730109 0.00064232247
-0.00087147136 0.00042658474 -0.00030162654 -0.00035019068 -0.0006315861 -0.0004854732 -0.000102079626 -0.00084827153
0.00057984516 0.0003440785 -0.0006382712 -0.0007365584 0.000651091 -0.0006435831 -0.00046190072 -0.0006427316
-0.00040088748 0.0001686252 -0.0004781819 0.00013082326 -0.0006327024 0.00072705426 0.00050886685 -0.000643429
-0.00030516565 -0.00036664994 -0.00043097712 0.0005783215 0.0005294478 0.00061916426 -0.00051948644 0.0006741291
-0.00070566474 -0.00050366466 -0.00060928584 -0.00037335954 -0.0005568971 0.0008703629 -0.00079080235 0.0004152466
9.235731e-05 -0.00036078438 -0.00062765554 0.0005027021 0.0008274982 0.00063855055 -0.00029467084 -0.0004939314

conv1.lin.weight f4 [64, 2]
00000000: c7cd 44be 6765 c8bd d41f 87bc fad0 443e
00000010: 316c 803d 831e 0fbc 56e0 a5bd a181 7b3b
00000020: 5481 e0bc 4cef d3bd 222b 4b3e 87bf 493e
00000030: da21 cb3c f0e3 2b3e 8579 a3bd f8ef 583e
00000040: a4ca bd3d 1405 58bd 546f 323d bd43 263e
00000050: d83a dabd 4c3d b63d acb0 eb3c 0543 36be
00000060: 72fd d1bc dcda debc 3331 233e 0905 b13c
00000070: 73d5 bdbd 7ea8 0cbe fa22 5b3e a5c3 543e
00000080: 1317 49be 6f07 79bc 8e30 8c3d daef 7dbe
00000090: 6ce1 e93c fbb4 9b3e 1683 9cbd f0d9 923e
000000a0: 5c15 883e ddab b43d 9ef0 86be 3d31 bb3d
000000b0: 991a 33be 81c0 2fbe bc08 6a3e 2d46 423c
000000c0: f336 5f3e cb03 6e3d 419c f0bd a029 c8bd
000000d0: d0a5 2e3e d57d 073e deb7 31be df16 ddbd
000000e0: ce86 d43d 2a4f 6cbe 10eb b53c a09e 0fbd
000000f0: 885a d5bd 2bb8 81be 4683 83be 266a 163e
00000100: 5450 143e e491 183e ce10 a13e 280f dbbd
00000110: d37b 76be 5b94 553e 3c5b 1d3e 6f2f 1a3e
00000120: d7ca a8bb c1e1 5b3d 68f0 8e3d 88e8 7fbc
00000130: 910f 343e 76ce 623e 1acb 86be 9d1d 963e
00000140: 65d0 80be ac7c 903e 1e95 143e 86ea 2a3b
00000150: 7b3c 42be 351d 3fbe 5387 593d ba0c 663e
00000160: 60e8 e8bd a07c 873e fc7e 7cbe d0be 823e
00000170: 22e9 9c3e 0058 a53d d3b5 6b3c 19cc 39be
00000180: aa43 bdbc ae19 1a3c 7a35 813d 1e87 883d
00000190: 00cf 633e f429 8a3c f33d 223e 361d 8d3b
000001a0: f1d8 28be adcf 6c3e be25 31bd 2e86 d23d
000001b0: 33a1 853e 377c 41bd 44d1 4c3b 43f6 23be
000001c0: 37ea 2dbe b4e5 463e 3182 12be ae2a 8a3e
000001d0: cbc2 793e 192f c03c 5d8a 7c3e 83a5 0f3d
000001e0: 8a4e f3bc 2bc7 833e 63f1 febd d244 8fbe
000001f0: 5680 1e3e 0d3d 2ebe 2510 98be 3c29 053e
-0.19219123 -0.09784966 -0.016494669 0.19220343 0.06270636 -0.008735302 -0.08099429 0.0038376825
-0.027405418 -0.10348377 0.19840673 0.19701968 0.024796415 0.1678617 -0.079821624 0.21185291
0.09267166 -0.052739218 0.043563202 0.16236778 -0.10655755 0.0889841 0.028770767 -0.17799003
-0.025633547 -0.02720397 0.15936737 0.021608846 -0.09269228 -0.1373615 0.21400061 0.20777757
-0.19637708 -0.015199526 0.068451986 -0.24798527 0.028549872 0.30411515 -0.0764219 0.28681898
0.26578796 0.08821843 -0.2635545 0.09140251 -0.17490615 -0.17163278 0.22854894 0.0118575515
0.21798305 0.058109086 -0.11748553 -0.09773564 0.1705544 0.13231595 -0.17355296 -0.10795378
0.103772745 -0.23077074 0.022206813 -0.035063386 -0.10417658 -0.25335822 -0.2568609 0.1468893
0.14483768 0.14899403 0.31458133 -0.1069625 -0.24070673 0.20857374 0.15366834 0.15057157
-0.0051511335 0.053682093 0.069794476 -0.015619405 0.17584063 0.22149071 -0.2632683 0.29319468
-0.25158992 0.28220117 0.14510009 0.0026079728 -0.18968384 -0.18663485 0.05310757 0.22465792
-0.11372447 0.2646227 -0.24657816 0.25536203 0.30646616 0.08073425 0.014386612 -0.18144263
-0.023103554 0.009405537 0.06309028 0.066663966 0.22246933 0.016865708 0.15843944 0.0043064607
-0.16489007 0.23126097 -0.043248884 0.10279499 0.26099548 -0.0472376 0.0031252662 -0.1601191
-0.16983877 0.19423562 -0.14307477 0.26985687 0.24390714 0.023459958 0.24662156 0.035069954
-0.029700536 0.2573789 -0.124483846 -0.27982193 0.15478644 -0.17015477 -0.29699817 0.13004011

conv2.bias f4 [64]
00000000: f83d a2bc b418 963c 003a ab3c 3d8d a83c
00000010: e4f7 a23c a3c0 6f3c b43c a43c 2aa3 a3bc
00000020: 8696 993c a8d8 a33c 4c25 9cbc 1c05 9ebc
00000030: af76 b7bc e7f3 9e3c 21c7 d93c 0342 2abb
00000040: 577c f63b 8413 fdbc 2ec8 9e3c a95f 5abc
00000050: 76e3 4d3c 9cad 76bc 97a1 f73c 1cdd ab3c
00000060: dbb1 aabc 3e7d e83c 88e1 8f3b 2aa5 acbc
00000070: 81c3 b9bc 6527 a23c 08b6 cabc 9686 bcbc
00000080: 0240 bfbc 87ba 923c 8487 a53c 00d8 b53c
00000090: 66db b2bc ceb7 ed3c 4464 a53c 2dae b1bc
000000a0: 5973 8e3c 68fd 9fbc 02a0 a13c bc54 5fbc
000000b0: 7389 4ebc c5cc ddbc debf 98bc ea0a 863c
000000c0: befb afbc 9b1b a03c 4ff7 aa3c 656e 9d3c
000000d0: 5338 003d c339 86bc 8b65 9bbc 696c a3bc
000000e0: 0983 c0bc 1080 aabc 212b 723c 3433 9f3c
000000f0: b67f be3c a4b0 b3bc 56de 8e3c d374 903b
-0.01980494 0.018322326 0.02090168 0.02057516 0.019893594 0.0146333305 0.020048477 -0.019975264
0.018748533 0.02000077 -0.019060753 -0.019289546 -0.02239546 0.019403411 0.02658421 -0.0025979287
0.0075221467 -0.030893095 0.019382562 -0.013328471 0.012566438 -0.01505604 0.03022842 0.020979457
-0.020836761 0.028380033 0.004390899 -0.02107485 -0.022676231 0.019794175 -0.024745002 -0.023013394
-0.023345951 0.017911209 0.02020622 0.022197723 -0.021833133 0.029018309 0.020189412 -0.021689499
0.017388986 -0.019530013 0.019729618 -0.013631042 -0.012606013 -0.02707518 -0.018646177 0.016362626
-0.021482345 0.019544413 0.020869879 0.01921768 0.031303715 -0.016384965 -0.018969318 -0.019949155
-0.023499982 -0.020813018 0.014780791 0.019433595 0.023254257 -0.021934815 0.017440002 0.004408458

conv2.lin.weight f4 [64, 64]
00000000: 3a51 7a3d 08a8 64bb ddde 25be 46a9 4dbd
00000010: 3b26 0ebd 9f8b 173d 9cc3 023e 7e5b 24bd
00000020: 0cf1 73bd 5438 a3bd feb3 88bd 5123 e0bd
00000030: 6272 0dbe 68c9 36bd 2aa1 4b3d f5ec 51be
00000040: 4ae2 2f3e 36f1 3a3e fb5c 133e d13c 35bd
00000050: 0689 68be f60e a03d 0143 1bbe ea15 1f3e
00000060: ee75 433e abb2 2abe dd29 18be c082 3abe
00000070: fd52 adbd 5316 8c3b 9add cebd 220b d5bd
00000080: 270b 603b 5dec d13d 6627 93bd 7034 babd
00000090: 394f 613d a4c7 5dbe 59cf 4a3d 81f6 da3d
000000a0: ecc5 c13d a88d a7bd 0b5e 623e 93e1 10bd
000000b0: d7cd 713e ec53 eebd 923d 10bd 4531 133e
000000c0: 441f 703e 169d 03be 33dc a53d 4198 9f3d
000000d0: cd83 98bd 3b58 903d 5012 043e 76fb 3e3d
000000e0: 1e78 3cbe af1c b1bd fcf5 f93d 654d 3d3e
000000f0: b453 e0bb e5ea f73d 1ed5 3bbe df90 f6bd
00000100: b0b5 9dbd 1cfb 893d 76f2 423e af81 3fbe
00000110: 51aa ccbd 4e2c f6bd 6412 ed3d f524 2bbe
00000120: 89f3 47be 6e59 c23d b4ee 7dbd 2bc6 36bd
00000130: df3e 9abd 9859 21bd df9d 103e 9636 a2bd
00000140: 9a9b fabd eea6 bcbd f8fd 8cbd 6b5d 173e
00000150: 15ac e9bd 8274 463e e594 c6bd a948 5c3e
00000160: 262b 46be a80a eebd 3bb7 d73d 06f4 23be
00000170: 3eae c2bd 1094 8dbb 0f92 513e d5d0 b3ba
00000180: cfb3 303e f605 8e3d 2835 7ebd 7ce3 543d
00000190: 6fa2 1dbe 1042 3f3e 096c 253e 7015 583e
000001a0: 557b ee3d 83cf 11be 4c61 38be 5f11 883d
000001b0: 23b4 37bc 7fa9 95bc e215 973c d865 233e
000001c0: 5984 8d3d dbd3 543e d337 453e 0909 2cbe
000001d0: b48c 2f3d c314 583e 520c 6d3d 29f5 f43d
000001e0: 7284 a7bc d131 ef3d 7cc3 a8bd c6da f03d
000001f0: 2f34 603e 7ce9 86bc ebe4 f33d a7c7 32be
00000200: c394 033e 1609 43bd 11f1 bd3d a09e f33d
00000210: 9c00 293e e204 04be 887d 613c 0547 11be
00000220: e194 593e bc0f 453d 4d90 50be 30ad 013e
00000230: 0e8a cdbd 3026 243e 9c66 df3d 7b84 443e
00000240: 75d4 af3d 330c 26bc f270 87bc 40ef 233e
00000250: 9765 06be 3655 07bd 913d b4bb 0bde ee3d
00000260: 6a9c 453e 1eb4 3cbe 1ef6 523e 272b 483e
00000270: 509c 453e a7e6 82bc ff6b 9cbd 4fce 1abe
00000280: 082d 03be 4db1 ec3d 888f 55be 2f60 ebba
00000290: 1f11 14be cae0 043e 8cfb 3dbe 31b0 173e
000002a0: 8c3c 4ebc 9008 223e 2d22 8a3d 3a71 44bd
000002b0: 5a95 14be b6b5 a03d 5003 593e 64ef 83bd
000002c0: 9574 d53d 33a0 fe3d e4d2 27be 3f00 ffbd
000002d0: 6281 b83d e587 19be 5061 733d 56a8 80bd
000002e0: 9c64 1e3b 8fac ddbd 99b8 253b a978 30be
000002f0: 7e67 22bd 3095 d6bd baa0 39be d908 a33d
00000300: 2e96 bf3d d8fb 04be de1f 57be 0240 4a3e
00000310: e1b3 8a3d 8f01 89bd 7f0a d33d 8cd1 1ebd
00000320: 2003 c9bd 8d9d bb3d a9d3 73bc bf8e 50be
00000330: b5be ffbd de07 9ebc 32dd 34bd 9d56 1d3d
00000340: b689 083d 5d05 21be 4fcc 163e 12dd 2a3e
00000350: 1e9b 803b bad8 d3bc 60e7 243e d30e 93bd
00000360: 0d54 cbbc 2758 f93c ad94 5a3e 976c e7bd
00000370: 965d 3abd a0c1 2bbe d5a1 1b3e 3cde 3dbe
00000380: 1621 d63d ecc1 dabd a49c 213e 2e58 163e
00000390: 130b 46be aa3c 653d 9b0d 423e da75 223e
000003a0: 8a9e 1b3e e865 27bd f44c 6fbe 15c7 8dbc
000003b0: 1d29 0c3d 994f 0a3c c9b4 0dbe 5232 5ebe
000003c0: 1b0f 013e 1dc8 f6bd 3fac 59be fb0a cb3c
000003d0: c476 303e c4e2 453e 3d18 063d 9420 0bbe
000003e0: a170 593d 5b68 5a3e b1d9 0abe b624 41be
000003f0: 1bf6 39bc bec1 3f3c 709d 153e 88ee 043d
0.06111262 -0.0034890193 -0.16198297 -0.05021026 -0.03470443 0.036998387 0.12769932 -0.040126316
-0.059556052 -0.07969728 -0.06674956 -0.10944236 -0.13813165 -0.04462567 0.049714245 -0.20500548
0.17176166 0.18256077 0.14390938 -0.044247452 -0.2270852 0.078153536 -0.15162279 0.15535703
0.19087955 -0.16669719 -0.1485972 -0.1821394 -0.084630944 0.004275122 -0.10100861 -0.10402514
0.0034186335 0.10250161 -0.07185249 -0.09092033 0.055007193 -0.21658188 0.04951415 0.10691548
0.09461579 -0.08181316 0.22106187 -0.035371374 0.23613678 -0.116371006 -0.035214968 0.14374264
0.23449427 -0.12852892 0.0809864 0.07792712 -0.07447014 0.070480786 0.1289761 0.04662653
-0.18405196 -0.08648049 0.12205121 0.18486555 -0.0068459157 0.121053495 -0.18343017 -0.12039351
-0.0770067 0.067373484 0.19037804 -0.18701814 -0.09993423 -0.12020169 0.11575773 -0.16713317
-0.19526495 0.094897136 -0.061995223 -0.04462258 -0.07531523 -0.039392084 0.14122723 -0.07920568
-0.1223671 -0.09211527 -0.06884378 0.1478173 -0.11409775 0.19380382 -0.09696368 0.21512093
-0.19352397 -0.11623126 0.10532995 -0.16011056 -0.0950589 -0.004320629 0.20465873 -0.0013718853
0.17256092 0.06934731 -0.062062413 0.05197476 -0.15393995 0.18677545 0.16154493 0.21101928
0.116446175 -0.14239316 -0.18005866 0.06643938 -0.0112123815 -0.018269299 0.018443052 0.15956819
0.06910009 0.20783941 0.19259576 -0.16800322 0.042858794 0.2110167 0.057873078 0.11960823
-0.020448897 0.116794236 -0.08240411 0.11760478 0.21894906 -0.016468756 0.11908897 -0.17458974
0.12849717 -0.047616087 0.092744954 0.1189549 0.16504139 -0.12892488 0.013762839 -0.14187248
0.21248199 0.04811071 -0.20367546 0.12663722 -0.100360975 0.16030192 0.10908243 0.19191162
0.08585445 -0.010134744 -0.016533349 0.16009235 -0.13124691 -0.033040248 -0.0055005034 0.11663445
0.19297948 -0.18428084 0.20601699 0.19547711 0.1929791 -0.015979124 -0.07637786 -0.15117763
-0.12810147 0.11557255 -0.20855534 -0.0017957742 -0.14459656 0.12976375 -0.18552989 0.14813305
-0.012587678 0.15823579 0.067448 -0.047959544 -0.14510098 0.078471586 0.2119267 -0.064421445
0.10422627 0.12432899 -0.16389042 -0.12451219 0.09009053 -0.14993246 0.059418976 -0.062821075
0.0024168855 -0.108239286 0.002528703 -0.17233528 -0.03964948 -0.10477674 -0.18127719 0.07960672
0.093548164 -0.12986696 -0.2100825 0.1975098 0.067725904 -0.066897504 0.10304736 -0.03877406
-0.09815049 0.0916091 -0.014882007 -0.20366953 -0.12487546 -0.01929086 -0.04415626 0.03841268
0.033334456 -0.15724702 0.14726375 0.16685894 0.0039247414 -0.02586018 0.16103888 -0.07180562
-0.024820352 0.030437542 0.21345778 -0.11300009 -0.045499407 -0.16773081 0.15198453 -0.18541807
0.104555294 -0.10681519 0.1578241 0.14682075 -0.19340162 0.055966057 0.18950503 0.1586527
0.15197197 -0.04086867 -0.23369199 -0.017306844 0.034218896 0.008441829 -0.13838495 -0.21698883
0.12603419 -0.12049887 -0.21257113 0.02478551 0.17232805 0.19324785 0.03273796 -0.13586646
0.053085927 0.21328871 -0.13559605 -0.1886166 -0.01135018 0.011703907 0.14610839 0.032454044

conv3.bias f4 [128]
00000000: 763f e6b9 2231 a039 447b 943a 230d 6e38
00000010: eae8 05ba 71cd 103a e48b 353a b78f 21ba
00000020: 1890 d5b9 0ec3 4e3a 8473 f939 a4b9 773a
00000030: d9ba 0c3a 65cf 8238 fb9a 913a 1f24 a139
00000040: 4e75 093a 0c0d 13ba 78ac cbb9 cb33 e039
00000050: 7eaa acb9 5b4b cbb9 ffb4 183a 9c42 75ba
00000060: c2bb 2aba c3e2 8a39 1a48 9739 638d 6fb9
00000070: ca5c 80b7 512a 1239 db01 3cb9 24be 8238
00000080: 736d 78ba 4f99 46ba aabb 70b8 639b 5dba
00000090: e972 053a 4cec 3a36 c14e 56ba e20d 953a
000000a0: 8c88 77b9 3a7f 8dba 67dc 01ba 61f7 8c3a
000000b0: eddc fab9 fe6d 66ba a00b 93b9 a1d0 d539
000000c0: e7ff 91ba 6aae 3e3a 94a5 4cba db42 9ab9
000000d0: d67c 953a ee10 8cba 2ffd 8db5 55bf d639
000000e0: 617f c939 34c0 0cb9 c006 5b3a 5e7b 32ba
000000f0: d164 053a 7fbc f138 f6ee 33ba a9e9 2238
00000100: 8250 863a 35ae d139 f768 6239 8653 34ba
00000110: a4e1 21ba a353 efb9 59d8 c339 29f0 ccb9
00000120: 4e9a 4c39 1591 5739 f105 863a 2f59 43ba
00000130: 9259 6c39 aa9e 1d3a 41cb 6f3a 1833 853a
00000140: 215d 0bba 7130 4cba a1fa 393a 18ec 623a
00000150: a3a2 453a 5778 8f3a 3559 603a 2ea0 633a
00000160: 7af9 93ba ab23 933a 806e 85ba 1206 9cb9
00000170: e5a2 423a 9200 96b8 efb8 493a fbe9 e4b9
00000180: 6080 72b9 0333 90ba c5fc 2cba 668d 2b3a
00000190: 64fa 8dba c637 61ba b150 ffb9 6bae 4c3a
000001a0: 6a80 62ba de93 10ba 40ea 0339 e554 103a
000001b0: 1be6 633a 1c14 f0b9 082e f239 70f7 c839
000001c0: 9f56 17ba f192 0f38 47e2 663a 06ba 22ba
000001d0: 5464 27ba a4ba 9cba 5ada 093a 7b24 953a
000001e0: 1ae9 19ba c313 643a 80d6 f6b9 c9f1 123a
000001f0: 63aa 4f3a d7f0 3f3a f3ea 673a aaa5 2c3a
-0.000439163 0.00030554185 0.001132824 5.6755856e-05 -0.0005108254 0.0005523777 0.00069254474 -0.0006163078
-0.00040733884 0.0007887342 0.00047579047 0.0009449965 0.00053684186 6.237513e-05 0.001110881 0.00030735225
0.0005243615 -0.0005609549 -0.00038847676 0.00042763198 -0.00032933423 -0.0003877532 0.00058253104 -0.0009355934
-0.00065129634 0.00026490362 0.00028854684 -0.00022845487 -1.5301997e-05 0.00013939409 -0.00017929768 6.2342995e-05
-0.00094767584 -0.00075759453 -5.7395235e-05 -0.00084536354 0.00050906703 2.7853703e-06 -0.00081751874 0.0011371935
-0.00023606623 -0.0010795363 -0.0004953802 0.0010754877 -0.00047848318 -0.0008790194 -0.00028046686 0.00040781967
-0.0011138887 0.00072739145 -0.00078066555 -0.0002942298 0.0011405002 -0.0010686198 -1.0579005e-06 0.00040959814
0.00038432612 -0.00013423042 0.0008355193 -0.0006808544 0.000508857 0.00011526886 -0.0006863916 3.8841423e-05
0.0010247382 0.0003999338 0.00021592142 -0.0006878901 -0.00061752857 -0.00045647947 0.0003735449 -0.00039088845
0.00019512439 0.00020558045 0.0010225159 -0.0007451949 0.00022540081 0.00060127175 0.00091474137 0.0010162322
-0.00053163065 -0.0007789201 0.00070945366 0.00086563965 0.00075391884 0.0010945898 0.0008558215 0.00086832314
-0.001128956 0.001122584 -0.0010180026 -0.0002975916 0.0007424786 -7.1526636e-05 0.0007695099 -0.00043661878
-0.00023126742 -0.0011001531 -0.0006598945 0.00065442023 -0.0010832069 -0.000859138 -0.0004869751 0.0007807973
-0.0008640351 -0.0005515198 0.00012580398 0.00055058143 0.0008693651 -0.0004579135 0.00046192133 0.00038331328
-0.00057731004 3.4230707e-05 0.00088075217 -0.0006207529 -0.00063854945 -0.0011957479 0.0005258672 0.001137867
-0.00058712217 0.00087004545 -0.0004708059 0.0005605487 0.0007921813 0.000732196 0.0008846961 0.0006585965

conv3.lin.weight f4 [128, 64]
00000000: ac78 50bd 9c4d 43be c846 8cbd f7d1 38be
00000010: f5e3 183d 6ec8 3b3e ac9d 073e 3845 0ebe
00000020: 3398 babd 8d80 f3bd 7e0e cabd f3b7 b5bd
00000030: 8fe0 fc3d 2699 2e3e f5a7 53bd 8bfb 1abe
00000040: 2c04 4e3d 18e4 713d 9a55 5dbd a398 0ebe
00000050: cf01 943c 645b b6bd 3e97 803d 8508 6d3d
00000060: 8fee 7b3d bd53 0ebe 7254 4f3d d721 973c
00000070: 4fc3 8dbd 9121 31be 092e 823d bea1 503d
00000080: b748 83bd e107 f0bc d29c c8bc 7c8b 283c
00000090: 1233 fb3d c369 22bd 8070 1d3e c542 b23c
000000a0: 79a7 a03c 792c 26be 69c8 3a3e 764a fd3b
000000b0: 8ffb f93d 7d02 b83c 20a1 42bd 9642 8e3d
000000c0: edf1 7f3d c2e6 0bbe dbb6 2a3d 7f21 573d
000000d0: d168 793d 4963 46bc c51e bd3d 84bf cebc
000000e0: 8252 dabc 6980 b4bd 4c72 3b3d 2a24 1cbe
000000f0: fb7d 12be a546 dabd 4c50 333e 536c f03c
00000100: 1da8 a7bd 5456 1cbe 11cf a93d 3289 97bd
00000110: 82c2 9d3c cab4 6bbd dffe f7bd 8353 e63d
00000120: 15b5 cebd cae3 3abb 8cd4 30be 1fb8 f93c
00000130: d56b d83c 968d 993c 00e6 11bd d9a2 293e
00000140: fb5a 70bc c263 99bd cbe8 1ebe 51b8 18be
00000150: 45e0 f53d 520b 9fbd cf4f f6bd 7611 d93c
00000160: 5581 f43c 54bd 223e 30d4 c3bd 45fc 22be
00000170: 9d00 ca3d ab65 9a3c fc17 023d 9884 babd
00000180: 9fa4 2c3d 1b02 103c b270 923d 319a 22be
00000190: 0ff3 d33d a9de 1b3e 7558 79bd 8e27 1c3e
000001a0: 4db0 d73d 4226 eb3d 9afb abbd 953b bbbc
000001b0: 98d6 02bd 8dc0 01be ea37 1fbe c9cf cebd
000001c0: c45c 753d 239e ad3d f9f6 23bb 2cfe 56bd
000001d0: fa58 c13d b91a c33d acec cabd f56b 0d3d
000001e0: 0eda 43be 15a3 073e 98f4 eabd a9ba 77bd
000001f0: a07a 0a3d 9856 c2bd c264 0e3e d038 393d
00000200: 244c 153d 1e5e 13bd 1f7a 073e 4247 dcbd
00000210: aa25 b2bd e1c0 a93d 64dc 163e 08b0 59bd
00000220: 52d4 583d 5c57 c23d dadd fa3c 357d edbc
00000230: 30a2 c13b 0dd0 0a3e 8f1e 943d a778 f33d
00000240: 86d7 12be efb9 123d f91f 1dbe 1064 a0bd
00000250: 9724 61bd 0a2d 72bd 903c c4bd b255 0a3e
00000260: daec 42be 4627 7e3d a395 a73d 9913 99bc
00000270: 6047 64bd 61eb 89bd 4958 e53d b272 acbb
00000280: 2ef5 9f3d d964 a1bc bcac 063d e888 433d
00000290: dc01 33bd 4efa 96bd 8d3d 103b 7bc6 0ebd
000002a0: fb0d 073e 9b6a 3bbd 67bc 273e a7da b03d
000002b0: 28b1 193e c8dc 233e 7fd7 a6bc a51b 21bd
000002c0: fe6c 1b3e eb3b 18be b2ab d33c b7b7 13bd
000002d0: 5457 04be 2f2f 60bd 46b9 dcbd 3e81 053e
000002e0: 4520 0ebe 5d7b aebd 4079 3ebe 2499 3bbc
000002f0: 1010 223e 9542 743d 3f7b 0a3d b4eb 993d
00000300: 3071 bebd 81a3 99bb 0533 35bd 1be5 44bd
00000310: 03c1 253d a38d ab3d 2a2f 0a3e d2d5 2c3b
00000320: bee5 003e d066 8cbd 0715 a9bd d922 f5bd
00000330: 22e2 96bd dc0e 573d 2ddb aabd 6be4 b8bd
00000340: c062 9d3d ffd8 cf3d 723f eebd 0624 073d
00000350: 0dd8 e43d 6746 0fbd 1374 f7bd dd4e 26bd
00000360: eaf4 49bc d02b 11be 3509 683d ab7a a0bd
00000370: e561 013e 4730 dd3d f400 f3bd 856a 09be
00000380: 526b 103e ac5f ec3d f92b 933c f48c 79bd
00000390: f681 163e 5898 36be 5906 f33d aaa5 1b3e
000003a0: 55e7 a73b 682d 21be fae9 e6bd 3ec5 9c3d
000003b0: bbfa 3b3e 61ba 3a3d c3c5 13be 44da 1ebe
000003c0: 328c 16be 43ba f73c 0b15 62bd 059f 1ebd
000003d0: 4366 063e d826 113d 5225 ad3d 3fe1 08bc
000003e0: 91a5 9abc d85f 2bbd 7e27 ffbd e254 00be
000003f0: 19d7 f73d 3ff9 f8bc d6eb 9fbd 847a 0dbe
-0.05089633 -0.19072574 -0.06849438 -0.18048845 0.03732677 0.18338177 0.13243741 -0.13893592
-0.09111061 -0.118897535 -0.098660454 -0.08872976 0.12347519 0.17050609 -0.05167385 -0.15135019
0.050296947 0.059055418 -0.054036714 -0.13925414 0.018067269 -0.0890415 0.06278847 0.057869453
0.061506804 -0.13899131 0.050617643 0.018448753 -0.06922018 -0.17297961 0.06356437 0.0509355
-0.06410354 -0.029300632 -0.02448884 0.010287162 0.122656 -0.039651643 0.15374947 0.021760354
0.019611107 -0.16227902 0.18240513 0.0077298237 0.12206184 0.022462124 -0.047516942 0.06946294
0.062486578 -0.13662246 0.04167829 0.05252218 0.060890976 -0.012108632 0.092343844 -0.025237806
-0.02665067 -0.08813555 0.0457633 -0.1524817 -0.1430587 -0.106580056 0.175111 0.029348528
-0.08186362 -0.15267307 0.08291448 -0.07399215 0.019257788 -0.05754546 -0.1210916 0.11246397
-0.100931324 -0.002851712 -0.1726858 0.030483304 0.026418606 0.018744271 -0.035619736 0.16566028
-0.014670129 -0.074897304 -0.15518491 -0.14914061 0.12005667 -0.07765831 -0.12026941 0.026497584
0.029846827 0.15892535 -0.09561956 -0.15916546 0.09863398 0.018847307 0.031761155 -0.091073215
0.042149182 0.0087895645 0.07150401 -0.15879132 0.10349094 0.15221657 -0.060875375 0.15249464
0.105316736 0.114819065 -0.083975986 -0.02285556 -0.031942934 -0.12671109 -0.15548673 -0.100982256
0.05990292 0.08477428 -0.0025019033 -0.05248849 0.09440799 0.09526581 -0.09908423 0.034526784
-0.1912615 0.13245805 -0.11472434 -0.060480747 0.03380835 -0.09489173 0.13905624 0.045220196
0.036449566 -0.03597843 0.13230179 -0.10755779 -0.0869859 0.08288742 0.1473251 -0.053146392
0.05293686 0.09489319 0.030623365 -0.028990367 0.005909227 0.13555928 0.07232391 0.11888247
-0.14340028 0.03582185 -0.15344228 -0.078315854 -0.054966535 -0.059124984 -0.09581864 0.13509253
-0.19035664 0.062049173 0.08182838 -0.018686103 -0.05573213 -0.06734348 0.1119848 -0.005262696
0.07810436 -0.019701408 0.032879576 0.047737986 -0.043702945 -0.073719606 0.0022009343 -0.034857254
0.13188927 -0.045755964 0.16380464 0.086354546 0.15008986 0.1600219 -0.020366428 -0.039333005
0.15178296 -0.14866607 0.025838707 -0.036063876 -0.12923938 -0.054732498 -0.107775256 0.13037583
-0.13879497 -0.085196234 -0.1860094 -0.011450086 0.1582644 0.05963381 0.033808943 0.0751566
-0.092989326 -0.0046886806 -0.04423811 -0.048070055 0.040467273 0.083766244 0.13494554 0.0026372564
0.1258764 -0.068555474 -0.08255964 -0.11969537 -0.0736735 0.052504405 -0.08342586 -0.09027942
0.07684851 0.101488106 -0.11633195 0.03299334 0.11174021 -0.03497925 -0.12082686 -0.040602554
-0.0123264585 -0.1417687 0.056649406 -0.07835897 0.12635 0.10800224 -0.11865416 -0.1341954
0.1410344 0.115416855 0.017965304 -0.06092544 0.14698014 -0.17831552 0.11866445 0.15199915
0.0051240125 -0.15739977 -0.11275096 0.076548085 0.18357365 0.0455879 -0.14430909 -0.15512949
-0.14701918 0.030240184 -0.05519585 -0.03872587 0.13124947 0.035437435 0.08454384 -0.008354484
-0.018877776 -0.04183945 -0.124587044 -0.1253238 0.121015735 -0.030392287 -0.07808654 -0.13816267

conv4.bias f4 [256]
00000000: 7e04 b0bc f22b acbc 60c6 a53c 35db 893c
00000010: ada1 cc3c f268 b1bc 97b1 1cbc b27f b23c
00000020: e528 af3c c4a8 b3bc 6024 17bc 2d05 a3bc
00000030: 675a c03c da9f b1bc d220 aebc f0b9 b2bc
00000040: 0b8b afbc 3b88 a43c f24c b5bc ca28 573c
00000050: 48d3 aebc e111 bdbc f79f bc3c 781b 6abc
00000060: 2fb0 a83c 95b6 cfbc 4db3 9a3c 3f50 bbbc
00000070: 364a 703c 6fa2 acbc bd1c 92bc 2093 a23c
00000080: 8dac a3bc e6f2 c53c dfed a3bc 81ba 9f3c
00000090: e361 b7bc 47eb b43a aae0 8b3c c628 863c
000000a0: 2c53 b53c 940d a83c 39bf a9bc 385f bd3c
000000b0: 47d3 8bbb 4d14 a73c d3f2 b13c 63df b33c
000000c0: 3228 9d3c 8059 683b 2e66 b8bc f93b 96bc
000000d0: 9fef a83c 6544 b8bc 95e7 653c 5bf8 973c
000000e0: 0010 fb3c bc5f c4bc f026 a73c f32f 9d3c
000000f0: 1afc fc3c 55d0 9ebc 16ee 9e3c d616 a8bc
00000100: 9856 aebc 77b8 a53c 2bd0 83bc 71f3 e33c
00000110: ec7b b4bc 00c4 a93c f481 09bc f776 a6bc
00000120: 1ae2 ce3c 7e13 c5bc 7e44 a33c e503 bebc
00000130: 4e0d b4bc 9987 adbc 0e2d 9ebc ddc4 7d3c
00000140: f825 acbc f3f3 fa3c 7d53 aabc 1bb5 873c
00000150: 5eb5 6abc d2e8 babc 1167 99bc 6bc7 be3c
00000160: cf81 823c 3a3f 8dbc b847 913c 9d2f b73c
00000170: 448e 4d3b 5e7f a4bc c270 663c cafb b2bc
00000180: e8b3 c1bc 63d2 cd3b 4d12 9c3c 6947 bdbc
00000190: 6e2e e83b 732f b83c 6d08 a7bc d348 65ba
000001a0: 4c4c a63c 3a88 b23c 913c acbc d701 9ebc
000001b0: 06f2 b63c 1229 afbc 5732 a4bc 1c68 e53c
000001c0: 4dde e239 406e bbbc 970f b4bc 1f2c 01bd
000001d0: 80d3 aebc b07c 9cbc 87a9 80bc 542b d9bc
000001e0: 4479 9cbc 68df aa3c f305 cb3c e583 e13c
000001f0: f3a6 b9bc f20e b4bc 1892 463c c61c edbc
00000200: 771c a43c 51cf a23c 553c b3bc ea99 a23c
00000210: 1e6b 9cbc 5f2e b73c 974c b3bc 53a7 dfbc
00000220: 6427 d93c c26e aabc 7621 a3bc ab5d a63c
00000230: 4c86 a4bc afa7 b8bc 02fe 963c a463 8b3c
00000240: 9e41 9d3c a72e a8bc 9867 c53c e2fa a4bc
00000250: 359f 24bc ba8b b0bc b01e aa3c 4fc9 cabc
00000260: 8958 acbc e305 94bc a684 b43c 4929 5e3c
00000270: 4c1d a9bc 49fc 99bc 982e bebc a1ee df3c
00000280: 5c3b 913c 2e1d 89bc 86e9 7c3c 1a2e af3c
00000290: b3dc 9ebc 6b84 ee3c 71c0 acbc b940 983c
000002a0: cfd0 96bc 2ffd b03c 4e07 c1bc 5e49 b73c
000002b0: afbb d3bc ebcc 7f3c 6603 af3c daf8 c7bc
000002c0: bc5c 86bc 5a8e ccbc 9e7f e63c 39be b1bc
000002d0: f267 9d3c 45d7 bdbc 34b3 37bc 2a09 953c
000002e0: a767 5dbc a875 b5bc 5ab3 d2bc f9fa abbc
000002f0: a678 633c 3316 acbc 9e7a b6bc 882c 933c
00000300: a32f ad3c 08b4 ae3c 67cc aa3c 5b11 bbbc
00000310: c188 793c 18cc b93c 9ba5 e83c 7c3b c1bc
00000320: b17b ff3c 99db b33c 678c a13c c1c2 b7bc
00000330: 86f3 bdbc da29 b03c b246 bf3c 8cbe ba3c
00000340: 0393 af3c dacc cdbc 6753 a43c 8f7e b13c
00000350: 9734 043d 84f3 afbc 73a5 ae3c ede6 a4bc
00000360: f24e 953c c287 773c 75a3 e83c 9217 abbc
00000370: bb95 b8bc 62e4 a8bc 60ed 67bb cf3f ac3c
00000380: 6af8 96bc 9cb4 9d3c 2b56 d03c 60d9 a8bc
00000390: 40d3 a93c 4ccf a63c a9b7 9d3c ff56 debc
000003a0: 8a6a bbbc fb70 c7bc 2035 e5bc 533b ae3c
000003b0: b99a acbc cf9e ba3c 6415 0cbd ed98 963c
000003c0: 8cfc abbc 3a58 afbc d2e4 aa3c 78e0 ac3c
000003d0: da66 aa3c 977a 603c 58c0 9bbc ca1d af3c
000003e0: c3e3 bb3c 1c8a b13c 0143 aebc f4f2 a03c
000003f0: e1ee 9ebc e91c bbbc 1b06 a7bc e154 b4bc
-0.021486517 -0.021017049 0.020236194 0.016828159 0.024979437 -0.021656487 -0.009563825 0.021789405
0.021381805 -0.02193106 -0.009224981 -0.019899929 0.023480607 -0.021682668 -0.021255884 -0.021817178
-0.021428606 0.020084491 -0.022131417 0.013132283 -0.021340981 -0.023079814 0.023025496 -0.014288776
0.020591823 -0.025355617 0.018884325 -0.022865413 0.014666131 -0.021073548 -0.01783597 0.019845545
-0.01997974 0.024163675 -0.020010887 0.019498112 -0.022385543 0.0013803028 0.017074902 0.016376864
0.022134386 0.020514287 -0.020721065 0.023116693 -0.0042671296 0.020395422 0.021722233 0.021957105
0.019184206 0.0035453737 -0.02250966 -0.018339144 0.020622073 -0.02249355 0.014032264 0.018551042
0.030647278 -0.023971431 0.020404309 0.019187903 0.03088193 -0.01938645 0.019400638 -0.020518702
-0.021281525 0.020229561 -0.016090473 0.027826043 -0.022031747 0.020723343 -0.0083928 -0.020320399
0.025254298 -0.024057146 0.01993012 -0.023195216 -0.021979 -0.021182822 -0.019308593 0.01548883
-0.021014199 0.030633902 -0.020791763 0.01656585 -0.014325468 -0.022816096 -0.018725904 0.02328845
0.015931038 -0.017242063 0.017734393 0.022361571 0.0031365314 -0.020080265 0.0140649695 -0.021848578
-0.023645356 0.0062811836 0.019051695 -0.02310534 0.007085613 0.022483563 -0.02038976 -0.00087465084
0.020300053 0.021793474 -0.021024974 -0.019287987 0.022332203 -0.021381889 -0.020043535 0.028003745
0.00043271706 -0.02287972 -0.02198009 -0.031536218 -0.021341085 -0.019102424 -0.015705837 -0.026509918
-0.019100793 0.020858482 0.02478311 0.027528713 -0.022662615 -0.021979783 0.012119792 -0.028944384
0.020033104 0.019874247 -0.021879354 0.019848783 -0.019094046 0.022360979 -0.021887107 -0.027301466
0.02650804 -0.020804767 -0.019913416 0.020308336 -0.020083569 -0.022540895 0.018431667 0.017015286
0.019196328 -0.020530058 0.024097249 -0.020139161 -0.010047724 -0.021551002 0.020766586 -0.024754195
-0.02103831 -0.018069213 0.022035908 0.013559648 -0.020643853 -0.018797057 -0.023215577 0.027335467
0.0177285 -0.016737547 0.015436536 0.021384288 -0.019392347 0.029115876 -0.021087857 0.01858555
-0.018410115 0.021605102 -0.023563053 0.022373851 -0.02584633 0.015612821 0.021363925 -0.024410654
-0.016401641 -0.024970222 0.028137024 -0.02169715 0.019214604 -0.023173938 -0.011212159 0.018192846
-0.013513482 -0.02215083 -0.025720287 -0.020993697 0.013883745 -0.02100668 -0.022275265 0.01796557
0.021140879 0.02132608 0.02084942 -0.022835424 0.015230359 0.022680327 0.02839928 -0.023587935
0.03118691 0.021955298 0.01972027 -0.022431733 -0.02318741 0.021504331 0.02334914 0.022795938
0.021432405 -0.025122095 0.0200593 0.021666793 0.032276716 -0.021478422 0.021319127 -0.020129645
0.01822612 0.015108051 0.028398255 -0.020885263 -0.022532335 -0.020616714 -0.003538929 0.02102652
-0.018429 0.01925116 0.025431713 -0.020611465 0.020730615 0.020362519 0.019252615 -0.027141092
-0.02287795 -0.024345865 -0.027979434 0.021268522 -0.021069871 0.022780804 -0.034200087 0.018383468
-0.020994447 -0.021404374 0.020861063 0.021103129 0.020800997 0.013701103 -0.019012615 0.02137651
0.022935754 0.021672301 -0.021272184 0.0196471 -0.019401016 -0.022840934 -0.020388654 -0.02201313

conv4.lin.weight f4 [256, 128]
00000000: 7253 51bd 37ae 1ebd 7115 d23d fe69 d63d
00000010: 3fb3 a63d e55d b5bd 4fd2 14be d171 fabd
00000020: 6d00 c5bd ef0d a33d 533e ed3d 09f1 253d
00000030: 3ad2 0abd 3d42 c83d 133a f73d cb0f 8c3d
00000040: 8600 3dbd a488 95bc 5381 74bd c851 133d
00000050: 2546 2b3c abce 013c 94e0 f0bd 8221 033e
00000060: fea1 dbbd 40ea 9abd 93d1 103e 2d7f 3dbd
00000070: ef3d 013e d8ce 7c3d a247 623d 31ee b2bd
00000080: 1aa6 af3d 47d7 abbd 7445 10bd 7f88 633b
00000090: c9e6 f9bd b3b7 45bd 6d09 94bd 31a7 40bd
000000a0: f9eb bdbd 1230 b53d b240 b7bc fb25 8c3c
000000b0: 1bdc 443d ffa6 f8bd 9a81 a73d 33ab f83d
000000c0: e849 8a3d 587f b03c 9f2b 823d 073b 8f3c
000000d0: 37d7 c2bd 6da2 bb3b 917a 2f3d 352a 13be
000000e0: 08c9 413c b2c0 07be cfbb babc 1bc8 babd
000000f0: 396e c2bc 6354 f6bd c223 803c 40cd 833d
00000100: 212f 713d 9b88 c63d b0d8 84bd 3c23 30bd
00000110: ea9d 333d 376a 42bc aa19 babd 76bc 423d
00000120: 32c1 143e 6f48 15bd db5b 7abd dbb0 463d
00000130: c2ae 183d 1034 25bd 9bd7 39bd 76e0 e7bd
00000140: 90f6 d33d 4519 81bd 0a9c 983d 5d74 c13d
00000150: 5fe1 6abd edf4 0e3b 2c76 bbbd 1390 12be
00000160: 3338 433d 9619 36bd 15da 21bd ad3d eebd
00000170: 4e0c 22bd d05e 913d 6af7 79bd 8e23 3abd
00000180: c88d a53d 415f 4b3b 82f4 b4bd 0f4e c9bc
00000190: 91fc 143e e1f3 bb3d 425d a23d cbf8 5b3d
000001a0: 4d26 05be ec77 82bd 2adb 4a3c e844 76bd
000001b0: 6b90 c03c 2a87 54bd c4e8 113e eb18 143e
000001c0: 7579 df3d ace3 483d 8250 4dbd 7fd9 ac3d
000001d0: ea65 15be 0b21 953d bab8 f6bd 1dac c83c
000001e0: ed1c a1bd 542a 05bd a348 993c a5c6 18bd
000001f0: 7864 bfbd 30b7 9c3c d9fc 36bd faf7 79bd
00000200: 1ab5 b43d 0478 0fbe 7013 ffbd 0286 713d
00000210: cf2c 06bd 1afa 2b3d 408d 07bd d8e5 bfbc
00000220: 0fff f4bc 90f9 ddbc 2bb8 fbbd 65b7 0f3e
00000230: a095 3c3d a6a9 0abe b34a ae3d 64c2 d1bc
00000240: 8809 aebb a971 c33d 5bc2 b6bd 9624 dc3c
00000250: d3fa b6bd 9616 713c 6afc 92bd 76bb e03d
00000260: 8b9a 8d3d 002c e23d cc04 c6bd ef8c 99bd
00000270: 731e 113e 7cce 6c3c 96f0 fcbc bf9a 1bbd
00000280: 78d4 bfbd 9aa6 d03c e221 513d 7694 ff3c
00000290: 8714 c6bd 2458 dcbd a9ea d03d 4513 a3bd
000002a0: c9c8 68bd 42e3 d93d 1f4a ba3c a689 823d
000002b0: 8984 9cbd 1475 4e3d ac7c 8e3b e0d6 6b3d
000002c0: f5b2 c93d 6e99 0f3e 56a7 74bd 91aa d43d
000002d0: 9662 ca3d ed97 003d 260f da3d 2a16 9cbb
000002e0: 8db7 ab38 8e28 a4bd 4bc0 12be b930 8d3d
000002f0: cfec d13d 6351 cc3d 8e94 b5bc 37b5 00bd
00000300: 8f75 e03c f42a da3c 03eb 993d 2b50 0b3d
00000310: 1d0d 283d c3f5 e0bd ad5c 6dbd 2c1b b6bd
00000320: e6c7 ccbd 80bd 2a3d e883 05bc 4773 223d
00000330: b28c 86bd c73c 183c a23e d1bd 5816 013e
00000340: 8710 c9bd 7cc0 6e3d 9ef8 a5bd 1c14 7b3d
00000350: 8a9b cbbc de1a 2dbc 6d94 c63d ac09 a23c
00000360: 123e 83bd aadd 943d af93 babb baa5 a3ba
00000370: 3143 87bc aaaf 81bd 6861 80bd cfcc dbbc
00000380: e0d2 a53b 7844 113e 86f6 43bd 0f13 ac3d
00000390: 9311 15be d098 693d 8bf2 aabd 3c5f c7bd
000003a0: d2a8 4dbd 4c0f 07be 7f1f 583d f522 da3d
000003b0: ad98 843d a401 ad3b 2914 9ebd a44b 053d
000003c0: 8ef2 46bd f144 423d 8c43 93bd e803 153d
000003d0: 0093 623c 9b11 903d e8b4 12be a9ac 34bb
000003e0: 0424 6d3d b68f 45bd db9e d53d bc62 223a
000003f0: 98ee bf3d b1f9 be3d a39b e03a de97 b83d
-0.05110497 -0.038740363 0.10257996 0.10469435 0.08139657 -0.088557996 -0.14533351 -0.1222874
-0.09619222 0.07961642 0.11584153 0.040513072 -0.033891894 0.09778259 0.12071624 0.0683895
-0.046143077 -0.018253632 -0.059693646 0.035966665 0.0104537355 0.007922809 -0.11761585 0.12805751
-0.10724257 -0.07564211 0.14142446 -0.046263862 0.12621282 0.0617207 0.055244096 -0.08736838
0.08576603 -0.0839067 -0.035222486 0.003471881 -0.12202222 -0.048270892 -0.0722836 -0.047034446
-0.09273524 0.08847059 -0.022369716 0.017107954 0.04806147 -0.12141227 0.081790164 0.12142029
0.06752378 0.021545097 0.06355976 0.017484201 -0.09513705 0.00572615 0.042841498 -0.1437157
0.011827715 -0.13257101 -0.022794632 -0.09120198 -0.023734199 -0.12027814 0.01564205 0.06435633
0.058882836 0.09694024 -0.06486642 -0.043002352 0.04385177 -0.011866144 -0.09086926 0.04754301
0.14526823 -0.03644603 -0.061122756 0.048508506 0.037276037 -0.040332854 -0.045371633 -0.113221094
0.103497624 -0.06303648 0.07451637 0.09446023 -0.057343837 0.0021813468 -0.09153399 -0.14312772
0.047661018 -0.044457994 -0.03951462 -0.116328575 -0.039562516 0.07098162 -0.061026968 -0.045444064
0.08083683 0.0031032118 -0.08835699 -0.024573354 0.14549471 0.091773756 0.07927944 0.053704064
-0.13002892 -0.063705295 0.012381354 -0.060124308 0.023506364 -0.051886715 0.1424895 0.1446263
0.10911838 0.04904525 -0.050125606 0.084399216 -0.14589658 0.07281693 -0.120469525 0.024496133
-0.07866845 -0.03251107 0.018711394 -0.037298817 -0.09345335 0.01913032 -0.044674728 -0.061027505
0.08823605 -0.14010626 -0.12454879 0.05896569 -0.032757577 0.041986562 -0.03309369 -0.023425028
-0.029906778 -0.02709654 -0.122909866 0.14034803 0.04604113 -0.13541278 0.085103415 -0.025605388
-0.005311195 0.09543163 -0.08923789 0.026872914 -0.0893456 0.014714858 -0.071770504 0.10973255
0.06914242 0.110435486 -0.09668884 -0.07497584 0.14171772 0.014453527 -0.030876439 -0.037989374
-0.09366697 0.025470067 0.051057704 0.031198721 -0.09671884 -0.10758999 0.10201008 -0.0796266
-0.05683211 0.10639049 0.022740422 0.063739106 -0.076424666 0.050404623 0.004348358 0.057577968
0.098485865 0.14023373 -0.059729896 0.103840955 0.09882085 0.031394888 0.106474206 -0.0047633843
8.1881044e-05 -0.08015548 -0.14331166 0.06894059 0.10250246 0.09976461 -0.022165563 -0.03142282
0.027399806 0.02663181 0.07515528 0.034012 0.04102813 -0.10984375 -0.05794971 -0.088919014
-0.09999065 0.041684628 -0.008149125 0.03966072 -0.06569804 0.009291834 -0.102170244 0.1260618
-0.098176055 0.058289036 -0.081040606 0.061298475 -0.02485444 -0.010565488 0.09696279 0.019780003
-0.06408323 0.072688416 -0.005693875 -0.0012485303 -0.016511532 -0.063323334 -0.06268579 -0.026831059
0.0050605386 0.14186275 -0.047842525 0.08402073 -0.14557485 0.0570305 -0.08347043 -0.097349614
-0.050209828 -0.13189429 0.052764412 0.10651199 0.06474433 0.0052797366 -0.07718689 0.03254284
-0.048571162 0.04742903 -0.07190618 0.03638068 0.013828993 0.07034608 -0.14326823 -0.0027568734
0.057895675 -0.048232757 0.1043069 0.0006194522 0.0937168 0.093249686 0.0017136227 0.09013341

conv5.bias f4 [256]
00000000: 590c 063a 5bda e439 a0af 223a 6705 2139
00000010: 8256 d139 61c0 47ba d5af 40ba f4d8 28ba
00000020: fa74 64ba 642a df39 96ba 9239 8aa6 5cb9
00000030: d82c e939 154d dd38 4140 58ba 0b56 d739
00000040: 57f6 623a 9227 473a 780a 59ba 6126 043a
00000050: 80a2 e8b9 04ea 283a 7d29 b6b9 5e03 433a
00000060: 5049 58ba 78ea 54ba 45e0 03ba 4342 403a
00000070: 4091 3bb9 67e1 e639 f55e 2ab9 16e8 263a
00000080: cf4c 2f3a 0639 36b8 e76f 253a 649c 643a
00000090: 43a8 203a 24ad 3c3a 8e51 2aba 210d 083a
000000a0: 7fc9 44ba ced9 34ba 0541 8eba 324c 17b9
000000b0: ab51 003a ad88 33b9 989e 2c3a 80ae 5d3a
000000c0: 0948 103a 1555 1a3a 58ca a239 c53e c739
000000d0: 6978 a539 ec4b 4c3a 6ec6 313a 8820 6539
000000e0: 15f2 20ba ddb1 44ba d221 8c3a 6884 633a
000000f0: b101 30ba 0307 883a f1ef 26b9 a9ab 24b8
00000100: c137 8039 a5fd 10ba c967 2e38 8a61 2f3a
00000110: 4f52 633a 9d6b 3bba c557 d939 98d5 24ba
00000120: 9fee 5fba 1c45 403a c908 3539 9cb6 00ba
00000130: caa8 2fba 8832 f3b7 c87d 1139 e2e9 853a
00000140: b6cd ec39 4d43 8fb9 5068 a139 5a2c 503a
00000150: 51eb 8cb9 3d0b f1b9 c483 49ba ef97 23ba
00000160: 6c8d 643a 62c7 a6b9 ba6d 84ba 8773 ff39
00000170: d67f a9b9 032f 4339 b069 2b3a e523 2a3a
00000180: 0cf5 40ba d24f d8b9 47c2 86b9 e905 d0b9
00000190: 1821 2b3a 8730 4d3a 7252 94b9 20bf c3b8
000001a0: e69b 3cba aad9 2cba d360 483a c5ce 2d3a
000001b0: 1456 25ba 6e93 25ba 390c 68b8 0b8b 58ba
000001c0: 98be 1dba 3014 8939 1a62 63ba 427a 2b39
000001d0: 1997 0239 b1c9 303a 8556 923a ed23 0eba
000001e0: 2939 ffb7 d541 313a 2c41 39ba 1b9a 2db9
000001f0: dc30 05ba 614c feb9 a779 7038 1212 493a
00000200: 4f1a 7ab7 dc75 4dba dab7 863a 1a15 d8b9
00000210: c7ca 63ba d76a 53b9 274f 2aba fab8 103a
00000220: 8734 cbb9 360f 5fba 3b72 8839 dc06 b8b9
00000230: 8d3d 05ba c111 533a 16ca b1b9 1091 78ba
00000240: 8261 e7b9 d0d4 e7b9 ddf0 ed39 51ea 433a
00000250: 9da2 09ba 9da7 cfb9 7cb8 59ba 5bf1 63ba
00000260: 85bd 813a e6d6 1cba fbda 1a3a 7f9b e539
00000270: b9f0 8eb9 4094 1938 3284 d039 d151 7cb9
00000280: 7062 07ba 68ad 943a e9ab 22ba 9eef 50b9
00000290: 10f6 5fba 2bbd 61b9 292e 3739 8b56 efb9
000002a0: 2524 063a 2eee ed38 558c 183a 688f 22ba
000002b0: b94b 5aba 3790 4aba f5b1 5839 7c04 37b9
000002c0: df69 bd39 6efe ca39 ad8a 9db9 540e 1c3a
000002d0: 0200 3d3a 36be 3339 b128 9b39 8104 3aba
000002e0: f4f9 4dba ef1b 003a e31b 06ba d77e f4b9
000002f0: a47f 31b9 f982 f9b9 de96 563a b2a9 283a
00000300: 24ad 5cba c71a e1b9 6232 4739 5b11 9739
00000310: 3221 fc39 9921 c839 b98c 1a38 0eb5 0bb9
00000320: eda2 61ba 282b 173a 5201 29ba d0ca 643a
00000330: a4d9 823a 7ade ce39 4d4e 3038 02b8 abb9
00000340: eef2 8fba 451c 62ba 43e4 f639 6e60 e539
00000350: 6c55 40ba ba57 543a 0ea7 e439 20d0 2f38
00000360: 4b5a 6cb9 e277 57ba 7e43 e5b9 7634 f539
00000370: 0176 ceb9 0dd8 34ba 626c 4bba d363 ee39
00000380: 0702 b839 046d d7b9 aa2f 5dba 1c1b 9539
00000390: 7fef 0f3a a8fe ad39 2f23 443a 6bf1 5f3a
000003a0: e9bd 55ba 4593 28ba 3816 4f3a 1ea7 9539
000003b0: dae8 94ba 8df9 8d39 8a57 1dba 4253 633a
000003c0: 67b6 d339 07a4 2bba f828 403a 76ba 2cba
000003d0: 31c1 a0b9 54e2 1a38 d1a0 bd39 5dd5 5e3a
000003e0: 668c 06b9 af9f 1fba 2910 8e3a 57cb 05ba
000003f0: 572f 2d3a 20a9 fbb9 fb5c deb9 a1ce 1bba
0.0005113534 0.00043650236 0.000620598 0.00015356169 0.0003992804 -0.0007619914 -0.000735042 -0.000644102
-0.00087149406 0.00042565458 0.00027986307 -0.00021042876 0.00044474634 0.00010552459 -0.00082493207 0.00041072103
0.00086579233 0.0007597144 -0.0008279453 0.00050411193 -0.0004437156 0.00064435625 -0.00034744656 0.00074391614
-0.00082506705 -0.0008122097 -0.0005030672 0.00073340925 -0.0001788782 0.00044036956 -0.00016247838 0.0006366981
0.00066871656 -4.344529e-05 0.0006310925 0.0008720814 0.00061285886 0.0007197431 -0.0006497138 0.00051899446
-0.0007506832 -0.00068989105 -0.0010853118 -0.00014428867 0.0004894982 -0.00017121686 0.00065849116 0.00084564835
0.0005503898 0.0005887312 0.00031049806 0.00038003005 0.00031560965 0.00077932957 0.00067815825 0.0002185126
-0.00061395887 -0.00075033103 0.0010691232 0.0008679093 -0.0006714119 0.0010378066 -0.00015920379 -3.9260518e-05
0.00024455602 -0.000553096 4.158149e-05 0.00066902547 0.0008671628 -0.00071495195 0.0004145486 -0.00062879315
-0.0008542332 0.0007334517 0.00017264778 -0.00049100234 -0.0006700872 -2.8991388e-05 0.00013875135 0.0010216797
0.00045166694 -0.00027325228 0.00030786032 0.0007941179 -0.00026878205 -0.00045975475 -0.0007687176 -0.00062405964
0.0008718583 -0.0003181054 -0.0010103502 0.00048723465 -0.00032329437 0.00018614162 0.0006538881 0.0006490334
-0.00073607336 -0.000412582 -0.0002570322 -0.00039677255 0.00065280637 0.00078273605 -0.00028290186 -9.3339244e-05
-0.00071948615 -0.0006593714 0.00076438225 0.00066302373 -0.0006307077 -0.0006316219 -5.5324494e-05 -0.0008260465
-0.00060174754 0.00026145717 -0.0008673981 0.00016353375 0.00012454054 0.00067439215 0.0011164701 -0.00054222235
-3.0424986e-05 0.0006761824 -0.00070669013 -0.00016555974 -0.0005080828 -0.00048503562 5.7333757e-05 0.0007670234
-1.4907287e-05 -0.0007837692 0.0010278181 -0.00041214452 -0.0008689579 -0.00020162329 -0.000649678 0.0005520728
-0.00038758313 -0.00085090415 0.0002602505 -0.00035100325 -0.0005082719 0.0008051657 -0.00033910637 -0.0009482065
-0.00044132402 -0.0004421831 0.0004538362 0.00074735755 -0.00052503665 -0.00039606998 -0.00083053834 -0.00086953276
0.00098984 -0.000598295 0.00059072644 0.00043794137 -0.00027263703 3.661611e-05 0.00039771345 -0.00024063072
-0.00051645096 0.0011343183 -0.0006205426 -0.0001992569 -0.0008543441 -0.00021528143 0.00017469436 -0.00045650112
0.000511708 0.00011345405 0.0005819251 -0.0006201179 -0.00083273236 -0.0007727178 0.0002066566 -0.0001745391
0.0003612777 0.00038718007 -0.00030048695 0.0005953063 0.0007209779 0.0001714163 0.0002959422 -0.0007096008
-0.00078573753 0.0004886975 -0.000511585 -0.0004663381 -0.00016927585 -0.00047590563 0.0008185933 0.0006433978
-0.0008418134 -0.00042935295 0.00018996888 0.00028813895 0.00048089918 0.00038172005 3.684752e-05 -0.00013323521
-0.00086073467 0.00057666237 -0.0006447035 0.0008727731 0.0009983075 0.0003945714 4.2034593e-05 -0.00032752758
-0.0010982433 -0.00086254283 0.00047090845 0.0004375013 -0.00073369476 0.00081002305 0.00043612014 4.1917083e-05
-0.0002254035 -0.0008219463 -0.0004372857 0.00046769128 -0.00039379302 -0.0006898649 -0.0007759986 0.00045469272
0.00035096725 -0.0004108922 -0.00084375835 0.00028439693 0.0005490705 0.00033186865 0.00074820494 0.0008542749
-0.0008153604 -0.0006430636 0.0007899734 0.00028544007 -0.0011360899 0.00027079546 -0.0006002119 0.0008671769
0.00040380956 -0.00065475743 0.00073303236 -0.0006589064 -0.00030661517 3.6927246e-05 0.00036168707 0.00085004215
-0.00012831538 -0.00060891634 0.0010838556 -0.00051038474 0.00066064805 -0.0004800046 -0.00042412415 -0.0005943571

conv5.lin.weight f4 [256, 256]
00000000: 453b aa3d 647a 493d 09d2 95bd b2d8 763d
00000010: c978 b03d 137f 23bd c18b 91bd e2e8 a9bd
00000020: 7941 e03d 1f93 ed3d 1d26 bc3c 335c 35bd
00000030: 8b34 423c e8db 78bd 793e e1bd 51c7 adbd
00000040: e3f0 3f3c e1f7 053e ff2c b33d 0b30 883d
00000050: 90a7 ddbd 63cf febd b0b1 f93d ae3d cfbc
00000060: 285c bfbd 2752 5abd d377 843d 2a11 d7bd
00000070: 1b04 46bc b09e 9bbd 8fcf a5bd 2de3 5e3b
00000080: 0e4b 2c3d 9b9a bc3d 8238 ab3d 581b a9bc
00000090: d896 abbd 9f20 b33c b659 b83d 21f6 be3d
000000a0: d9d5 a0bd 4fb1 a1bd 04d0 05bd 8dbd c6bb
000000b0: c392 a23d 24b0 143d 4abd 2a3d 672a 73bd
000000c0: 29de 293c 6d70 58bd 7553 8b3d c505 353d
000000d0: 951b a2bb ca81 98bd 6312 78bd 7df6 5f3d
000000e0: 1db9 a03d 48e8 2c3c 9160 4c3d b320 9d3c
000000f0: 8139 743d 9c91 9bbd 3f16 5bbd 546b 11bd
00000100: af7a 9bbd 8bae c23b 2e44 de3d ea8f 5fbd
00000110: 2635 893d cf06 37bd f971 db3c 563c 39bd
00000120: 9b5e 983d 43dd 6fbd 335a cc3d 3705 e4bd
00000130: 1130 dcbc 0d0b e7bd 0486 1fbd 9d71 bebd
00000140: 7a2a 043e e9de 55bd d6fa 86bd 2c02 be3d
00000150: c36c 1c3d 1f83 b73d 3564 3b3d 5595 ce3d
00000160: 44fc a1bb d72d 3b3d b3f6 093d fe46 e23d
00000170: de0b b0bd ee9c cd3c 3921 b43d bd61 dbbd
00000180: 13f0 4dbd feb0 9cbc 6e43 893d cf37 cf3d
00000190: 8c07 8ebd 03fd 6e3b d429 af3d 8b1b e13d
000001a0: 4147 8d3c 53a9 43bd bf3b 83bd dd31 e0bd
000001b0: cc52 b93d eee4 7b3d 8022 23bc 1d75 d83d
000001c0: 4822 7e3c 76ae adbc 3817 cfbd 4f97 ed3c
000001d0: 77a5 14bb f5e1 cc3c 699e a3bc faef d73c
000001e0: 457e ab3d 5ed3 bdbd dfc5 a7bd 12d1 2fbd
000001f0: bb5c b23d 6b1b 5f3d 5071 3f3c dedc 7abc
00000200: 174d d33d f028 0ebd b778 f53d 9cfb 45bd
00000210: 13cb a7bd 3382 493c ea8a f13d 5a00 6dbc
00000220: fb05 8ebd a016 923c dfcc 4bbd 167a e5bc
00000230: 822b e6bd 5364 f83c b299 39bc 7149 12bd
00000240: fe0d 4f3d 99c9 2a3c 1b8d f53b 3f23 7ebd
00000250: a167 48bd db71 833d 7ac8 553d 8161 fe3d
00000260: f35b b23d a5e8 d13a 0b6d bc3d bb6c 75bd
00000270: 3255 12bd c2ad 48bd 571b e9bc fcd8 c8bc
00000280: 546f 90bd f152 ef3d d90f a3bd 596e f43c
00000290: b811 283c 5ed3 55bd 34d2 8f3d 6839 06bc
000002a0: 0b89 a03d 21f2 7bbd c89b e3bd 1199 22bd
000002b0: 14c9 31bd 6224 a5ba fe67 ddbc f18e 0dbd
000002c0: 6695 c8bd 3049 83bd 6740 89bd 3804 6b3d
000002d0: 0201 2f3d 1738 a7bd 07c3 793c fa3d b33b
000002e0: 453e 1e3d 2a45 173b a30e 5a3d 699c 8bbc
000002f0: 87c4 fa3c 37b0 a8bd 36d9 5f3c be81 85bd
00000300: 4cad 13bd e708 9d3c a26a a23a 6e2b 3b3d
00000310: e036 ed3d 4b58 d23d 36e8 79bd c4a0 20bd
00000320: d9fe 6c3c 97ce ac3d 4097 de3d 637f a1bd
00000330: 1551 8abc e0a2 d93b c34f 82bb 07c4 1b3d
00000340: fed9 19bd 789a 473d dd4f c43d 81be b33d
00000350: de91 8a3d d0a7 a83d 61b8 69bd 3f50 eebd
00000360: 7a3f a53d 17c6 503d c7f1 a8bb 71fd 57bc
00000370: dacb 373d b822 453d 8966 ddbd f010 ad3b
00000380: c3bc 88bd 0e21 2a3d ff24 acbc 5503 ee3d
00000390: a679 4b3d 4e33 8f3d dcdf 953d b568 2bbd
000003a0: 0a18 f23d b6de da3d ab9f 7e3d 454e 9d3d
000003b0: 6c62 163c 2687 cebd edfb 88bd 0894 6fbc
000003c0: 5220 da3d 82d7 4cbd 9eac 9dbd 5693 093e
000003d0: fe05 0b3e 9df9 933c a1c6 0e3d dabc bd3d
000003e0: 2f08 ddbd 7eb6 2bbd a680 ae3d 1143 22bd
000003f0: 7a07 4ebd aae2 a33d 92c9 343d acec 9ebb
0.08312086 0.049188986 -0.07315452 0.06026525 0.08616788 -0.03991611 -0.07106734 -0.08296372
0.10949988 0.11600327 0.022967393 -0.04427738 0.0118533475 -0.060756594 -0.10998244 -0.08485282
0.011715147 0.1308284 0.08748817 0.066497885 -0.10822976 -0.124418996 0.12192094 -0.025297966
-0.09343749 -0.053301003 0.06468167 -0.10501321 -0.01208594 -0.075986266 -0.08096229 0.003400992
0.042063765 0.09209176 0.083603874 -0.020642921 -0.083783805 0.02186614 0.09001486 0.09324289
-0.07853288 -0.07895147 -0.032669082 -0.0060650767 0.07938149 0.036300793 0.041684426 -0.05936661
0.0103679085 -0.052841593 0.068030275 0.044194955 -0.0049471357 -0.0744663 -0.06056441 0.05467843
0.078478076 0.010553427 0.04989678 0.019180631 0.059625152 -0.07596132 -0.053488012 -0.035502747
-0.075917594 0.0059412173 0.10852848 -0.054580607 0.066995904 -0.044684228 0.026787745 -0.045223556
0.074399196 -0.05856062 0.09978142 -0.11133807 -0.026878389 -0.11281405 -0.038946167 -0.09299014
0.12906829 -0.052214537 -0.06590812 0.09277758 0.03818966 0.08960556 0.04574986 0.100870766
-0.0049434025 0.045698013 0.033682536 0.11048697 -0.085960135 0.025099244 0.08795399 -0.107120015
-0.05027778 -0.019127365 0.06702314 0.101180665 -0.06935033 0.0036466725 0.085529 0.109915815
0.01724589 -0.047768902 -0.0640788 -0.10947011 0.090489954 0.06149762 -0.009956956 0.105692126
0.015511103 -0.021201354 -0.101118505 0.029002814 -0.0022681633 0.025010088 -0.019972997 0.026359547
0.083736934 -0.09268831 -0.08192038 -0.042923994 0.08709093 0.054469507 0.011684731 -0.015311448
0.10317438 -0.03470701 0.11985915 -0.048335657 -0.0819303 0.012299108 0.11794074 -0.014465416
-0.069347344 0.017833054 -0.049755927 -0.028012317 -0.11238767 0.030321276 -0.011328148 -0.03571457
0.050550453 0.010424041 0.0074936277 -0.062045332 -0.048926953 0.064182006 0.052193142 0.12420941
0.08708944 0.0016014768 0.09200486 -0.059918147 -0.03572578 -0.048993833 -0.02845542 -0.024517529
-0.07052484 0.11685742 -0.07962007 0.029837774 0.010258131 -0.05220353 0.07022515 -0.008192398
0.07838639 -0.06151021 -0.11113697 -0.039696757 -0.043404654 -0.0012599344 -0.027027126 -0.034560148
-0.097941205 -0.06410444 -0.06701737 0.05737707 0.04272557 -0.08164995 0.015244252 0.0054700347
0.038633604 0.0023081996 0.053236615 -0.017042356 0.03061129 -0.08236735 0.013662627 -0.06518887
-0.03605394 0.019169284 0.0012391398 0.045695715 0.11582732 0.10270747 -0.06101247 -0.039215818
0.014465057 0.084378414 0.108686924 -0.07885625 -0.016884366 0.0066417307 -0.0039767935 0.038028743
-0.03756141 0.048731297 0.09585545 0.0877657 0.06766103 0.08235133 -0.057060603 -0.116363995
0.08068748 0.050970163 -0.005155775 -0.013182984 0.044872142 0.048128814 -0.10810573 0.00528156
-0.066766284 0.04153543 -0.021013735 0.11621729 0.04967656 0.069922075 0.073180884 -0.041847903
0.11820991 0.1068701 0.06216399 0.07680944 0.009178739 -0.10084371 -0.06688676 -0.014622696
0.10650696 -0.05001021 -0.0769894 0.1343511 0.13576505 0.01806336 0.034857396 0.09264536
-0.107925765 -0.041922085 0.085206315 -0.03961474 -0.0503001 0.08002217 0.044137545 -0.004849991
