weights/8-21-yfp-0_split_4.pt (torch, 473578 bytes, 26 tensors)

conv1.bias f4 [64]
0.0006311141 -0.00085523963 0.00044814727 0.0008137669 -0.0005405267 -0.00044160913 -0.00038850546 -0.00043853628
0.00064437423 -0.0005652996 0.0008399907 -0.0008669333 -0.00020416919 -0.0008339639 -0.0007475498 0.0006364734
-0.000571953 0.00019998236 -0.0004883804 -9.130905e-05 -0.0006361188 -0.00023311657 -0.00041554013 -0.0008661159
0.00062157726 0.00016997514 -0.00048914144 -0.00048273537 0.0008136197 -0.0008542231 -0.00035510396 0.0005702007
-0.0006276354 0.0002827162 0.00038946193 -4.0990573e-05 -0.0004474768 0.0005598387 -1.1362351e-05 -0.0006393845
0.00048503102 -1.7905477e-05 -0.00018571845 0.00042761743 -0.00031561602 0.00020909234 -0.000642937 0.00045785707
-0.00074813905 -0.00012895398 -0.00041377157 -0.0005001135 -0.00010597278 0.0006406116 -0.00059924205 0.00063403195
-0.00020788788 -0.0003785049 0.0003104789 0.00012219568 0.0008546067 0.00059948675 -0.0003641068 -0.000276514
00000000: 5a71 253a 2932 60ba 4ff5 ea39 f952 553a
00000010: 22b2 0dba c687 e7b9 52b0 cbb9 58eb e5b9
00000020: 39eb 283a 9d30 14ba d232 5c3a e942 63ba
00000030: 4016 56b9 5f9e 5aba 38f7 43ba 02d9 263a
00000040: 1eef 15ba 5bb2 5139 a706 00ba 2c7d bfb8
00000050: 36c1 26ba c170 74b9 dadc d9b9 0e0c 63ba
00000060: 58f1 223a 5b3b 3239 ba39 00ba a517 fdb9
00000070: 1849 553a f1ed 5fba 3f2d bab9 8579 153a
00000080: e687 24ba 8739 9439 b230 cc39 4bed 2bb8
00000090: 529b eab9 24c2 123a eda0 3eb7 5e9c 27ba
000000a0: c34b fe39 b833 96b7 6bbd 42b9 d731 e039
000000b0: 4479 a5b9 cc3f 5b39 c68a 28ba 890c f039
000000c0: c31e 44ba d237 07b9 7bef d8b9 0d1a 03ba
000000d0: b43d deb8 b7ee 273a 7416 1dba 2a35 263a
000000e0: 7afc 59b9 1172 c6b9 c6c7 a239 a721 0039
000000f0: af07 603a e026 1d3a 96e5 beb9 15f9 90b9

conv1.lin.weight f4 [64, 2]
-0.17944334 -0.1103589 -0.016570749 0.19212677 0.008668057 -0.05156069 -0.08001062 0.005238815
-0.02659656 -0.10486681 0.16513394 0.23035297 0.026035791 0.16652253 -0.07809651 0.21344404
0.09618413 -0.048670992 0.04203423 0.16366878 -0.10572722 0.090005904 0.029245406 -0.17767519
-0.02575312 -0.030131139 0.15800972 0.021771967 -0.09426188 -0.13557303 0.21395662 0.2078364
-0.1969564 -0.014533181 0.06840829 -0.24805354 0.03056405 0.30232605 -0.076140784 0.2870639
0.26586193 0.088147625 -0.2624582 0.09240504 -0.17488126 -0.17166771 0.22847752 0.011880438
0.2197844 0.05638478 -0.12048825 -0.09446429 0.17057216 0.13229176 -0.17302568 -0.10848981
0.10404906 -0.23037104 0.021275714 -0.03472247 -0.104351275 -0.25319958 -0.25649983 0.14726909
0.14503841 0.14881596 0.3146734 -0.10686378 -0.24036598 0.20890996 0.15335046 0.15080589
-0.0054627736 0.053452622 0.070031404 -0.016028827 0.17582317 0.22150557 -0.2634882 0.29298192
-0.2513427 0.28262624 0.14676124 0.0008727666 -0.190044 -0.1862808 0.05435736 0.22351009
-0.11342854 0.26489475 -0.24389203 0.25803003 0.305982 0.08132946 0.021199415 -0.18122546
-0.02421723 0.0059172697 0.058786616 0.07187869 0.22166075 0.016988274 0.16149938 0.000740738
-0.16756417 0.22868535 -0.04317166 0.1029024 0.25146776 -0.056663435 0.009709214 -0.15468818
-0.17067347 0.19346528 -0.14330362 0.2694847 0.21938036 0.048853718 0.24880123 0.030811958
-0.02963009 0.2576052 -0.12483534 -0.27931148 0.17799649 -0.14818318 -0.2776369 0.14950264
00000000: ffbf 37be d903 e2bd 61bf 87bc e1bc 443e
00000010: 7704 0e3c 4d31 53bd 9cdc a3bd 5eaa ab3b
00000020: 07e1 d9bc 69c4 d6bd df18 293e a6e1 6b3e
00000030: 0349 d53c e284 2a3e 10f1 9fbd 1391 5a3e
00000040: 2ffc c43d 3c5b 47bd 162c 2c3d ca98 273e
00000050: 8387 d8bd 0455 b83d 1094 ef3c 7cf0 35be
00000060: 35f8 d2bc 94d5 f6bc 4dcd 213e 205b b23c
00000070: 5f0c c1bd a8d3 0abe 7217 5b3e 11d3 543e
00000080: f0ae 49be 941c 6ebc a519 8c3d bf01 7ebe
00000090: 7561 fa3c 7bca 9a3e b3ef 9bbd 0afa 923e
000000a0: 0e1f 883e be86 b43d ec60 86be db3e bd3d
000000b0: 1314 33be a9c9 2fbe 03f6 693e 2ba6 423c
000000c0: 290f 613e baf3 663d 8bc2 f6bd 7e76 c1bd
000000d0: 78aa 2e3e 7e77 073e a52d 31be e82f debd
000000e0: ac17 d53d 63e6 6bbe 684a ae3c 2639 0ebd
000000f0: 1fb6 d5bd 60a3 81be f253 83be b5cd 163e
00000100: f384 143e 3663 183e df1c a13e 66db dabd
00000110: 8022 76be 7eec 553e e707 1d3e dc6c 1a3e
00000120: 1101 b3bb 23f1 5a3d a06c 8f3d e34e 83bc
00000130: fd0a 343e 5bd2 623e ede7 86be ba01 963e
00000140: feaf 80be 63b4 903e 9448 163e 60ca 643a
00000150: e59a 42be 65c0 3ebe d3a5 5e3d d4df 643e
00000160: 394d e8bd 49a0 873e d5be 79be 831c 843e
00000170: aca9 9c3e 0f90 a63d 65aa ad3c 2b93 39be
00000180: 3663 c6bc a8e5 c13b 3cca 703d 2235 933d
00000190: 09fb 623e fe2a 8b3c 1860 253e 162e 423a
000001a0: f195 2bbe 7e2c 6a3e c4d4 30bd 7ebe d23d
000001b0: 62c0 803e eb17 68bd 6513 1f3c 9466 1ebe
000001c0: 07c5 2ebe c31b 463e 2fbe 12be e6f9 893e
000001d0: 3fa5 603e d61a 483d c0c5 7e3e 5c69 fc3c
000001e0: cdba f2bc d4e4 833e aca9 ffbd ea01 8fbe
000001f0: b644 363e 55bd 17be 6c26 8ebe 3817 193e

conv2.bias f4 [64]
-0.019703042 0.019134454 0.02069404 0.020436335 0.019560982 0.013892608 0.020284686 -0.020277953
-0.008437427 0.021065002 -0.022392979 -0.018942736 -0.024128914 0.020739138 0.021835698 -0.013027453
0.011836156 -0.028589051 0.0186978 -0.023645317 0.009191223 0.02735599 0.0289874 0.02072708
-0.020846698 0.030608252 0.012651478 -0.021144327 -0.023486638 0.019566674 -0.024568614 0.019170532
-0.021167913 0.018878639 0.019836176 0.017950289 -0.021960689 -0.01208081 0.020600019 -0.0221021
-0.030539922 -0.02051983 0.019699674 -0.013410083 0.011057161 -0.02875623 -0.019542018 0.016816286
-0.021240449 0.019011164 0.021487257 0.01950635 0.025956873 -0.01846846 -0.0179509 -0.020453524
-0.029954543 -0.018132396 0.015488649 0.020409051 -0.010288279 -0.021302503 0.01807288 0.00046679782
00000000: 4668 a1bc dcbf 9c3c 8c86 a93c 1a6a a73c
00000010: 5a3e a03c d29d 633c 122c a63c f31d a6bc
00000020: 223d 0abc 8390 ac3c 7b71 b7bc cc2d 9bbc
00000030: 00aa c5bc 20e5 a93c c7e0 b23c 1971 55bc
00000040: 70ec 413c 9633 eabc 212c 993c d3b3 c1bc
00000050: c996 163c ab19 e03c fc76 ed3c d6cb a93c
00000060: b2c6 aabc 28be fa3c 2548 4f3c de36 adbc
00000070: 0d67 c0bc 4a4a a03c 1e44 c9bc 850b 9d3c
00000080: 5568 adbc 60a7 9a3c 7a7f a23c 7c0c 933c
00000090: e7e6 b3bc 97ee 45bc 5fc1 a83c 770f b5bc
000000a0: dc2e fabc 3419 a8bc 3661 a13c f7b5 5bbc
000000b0: 1829 353c 2f92 ebbc 9516 a0bc 4fc2 893c
000000c0: 7300 aebc 4dbd 9b3c 0b06 b03c c8cb 9f3c
000000d0: 82a3 d43c 2b4b 97bc c40d 93bc 268e a7bc
000000e0: 3b63 f5bc 648a 94bc 1ac4 7d3c e230 a73c
000000f0: 2b90 28bc 9682 aebc 940d 943c 8bbc f439

conv2.lin.weight f4 [64, 64]
0.06117435 -0.042032838 -0.16194613 -0.05016525 -0.03409528 0.037012737 0.12749694 -0.035258133
-0.05946988 -0.0798351 -0.06653155 -0.10614117 -0.13718398 -0.044563584 0.04995817 -0.20502241
0.17179212 0.18291463 0.14346929 -0.044804167 -0.22703616 0.07818048 -0.15148611 0.15542307
0.19094843 -0.16659057 -0.14858311 -0.1820652 -0.08417155 0.0050335242 -0.100721166 -0.1037343
0.0034708276 0.10256699 -0.07145923 -0.09094942 0.05639204 -0.21653077 0.049495287 0.10762039
0.095265746 -0.08174596 0.22120324 -0.035569638 0.23879087 -0.11545299 -0.035153724 0.14452082
0.19992216 -0.12865195 0.08105102 0.07798989 -0.07356042 0.030748514 0.12903976 0.06741282
-0.18335351 -0.080420464 0.122115135 0.18493235 -0.012006179 0.12134191 -0.18327053 -0.12027936
-0.11304482 0.0680091 0.19098783 -0.18673104 -0.10009706 -0.118309475 0.11694859 -0.16663335
-0.19476518 0.096234575 -0.061586156 -0.044538245 -0.07539546 -0.03765436 0.13810319 -0.077388324
-0.123441726 -0.09187424 -0.06782523 0.14837399 -0.111437835 0.1942431 -0.13981444 0.21666339
-0.19118038 -0.15555482 0.10738628 -0.19600315 -0.09480119 -0.00444511 0.20339876 -0.0010027782
0.17486158 0.070027515 -0.061674353 0.053812522 -0.15353933 0.18907453 0.16318904 0.21143228
0.11684475 -0.13991635 -0.22189772 0.06767833 -0.010741894 -0.017859114 0.021143017 0.15941533
0.06982986 0.2092987 0.19426224 -0.16558114 0.043274123 0.21170865 0.058696363 0.119690105
-0.020042751 0.11733696 -0.07985883 0.11946215 0.21976988 -0.017849846 0.11947499 -0.17424469
0.12779684 -0.077409804 0.12141838 0.11764657 0.16464446 -0.12877247 0.014835377 -0.14247842
0.23406337 0.048861712 -0.20315565 0.12643354 -0.10069069 0.15667887 0.10851506 0.1921952
0.08521858 -0.009845354 -0.01483743 0.15856494 -0.13195196 -0.03170164 -0.006134732 0.11337601
0.19091575 -0.18490656 0.20619369 0.19475402 0.1931645 -0.016375104 -0.07689416 -0.15017532
-0.12820503 0.15080631 -0.20767625 -0.0014377185 -0.14454654 0.12718381 -0.18503435 0.14889462
-0.011812524 0.15665284 0.06680587 -0.047025677 -0.14530925 0.07909147 0.21102695 -0.064791955
0.09851854 0.12502255 -0.16782632 -0.12675057 0.09070861 -0.19730754 0.0907211 -0.0629471
0.0032179018 -0.10916636 0.00064241287 -0.17610921 -0.041013088 -0.10532005 -0.15615483 0.08065993
0.093902126 -0.13005322 -0.20959304 0.19871598 0.06782099 -0.067380235 0.102731705 -0.03892281
-0.096876524 0.0912594 -0.0148136625 -0.20361745 -0.12479074 -0.019509759 -0.044011325 0.037954107
0.033952955 -0.15716445 0.14697587 0.16669574 0.03481896 -0.025328383 0.16123842 -0.07195748
-0.025347129 0.030660713 0.2129268 -0.11264625 -0.045445625 -0.16771813 0.15210684 -0.185371
0.10375776 -0.10656524 0.15784071 0.14640152 -0.19351508 0.055815082 0.18911238 0.15861067
0.15193766 -0.04144353 -0.23348609 -0.017629182 0.03408825 0.008386922 -0.14120825 -0.21691348
0.12598234 -0.12083562 -0.21274713 0.024388313 0.17226568 0.19303562 0.03279885 -0.13580197
0.053052407 0.21313035 -0.13622774 -0.1888383 -0.011586131 0.011836357 0.14684126 0.032574046
00000000: f591 7a3d a02a 2cbd 35d5 25be 147a 4dbd
00000010: 7ea7 0bbd ab9a 173d 8f8e 023e d56a 10bd
00000020: b096 73bd 9680 a3bd b141 88bd 8b60 d9bd
00000030: f579 0cbe 4e88 36bd f0a0 4c3d 65f1 51be
00000040: 46ea 2f3e f94d 3b3e 9de9 123e 9384 37bd
00000050: 2b7c 68be 161d a03d 2d1f 1bbe 3a27 1f3e
00000060: fc87 433e b896 2abe 2c26 18be 4d6f 3abe
00000070: 2262 acbd 43f0 a43b e646 cebd a672 d4bd
00000080: d376 633b a40e d23d 3759 92bd b143 babd
00000090: 57fb 663d 3eba 5dbe 92bb 4a3d 1468 dc3d
000000a0: b01a c33d 6d6a a7bd 1a83 623e 78b1 11bd
000000b0: 9885 743e 9e72 ecbd 5afd 0fbd 44fd 133e
000000c0: 65b8 4c3e 56bd 03be 14fe a53d 2ab9 9f3d
000000d0: d8a6 96bd 4fe4 fb3c 0023 043e bc0f 8a3d
000000e0: 06c1 3bbe 7cb3 a4bd 8017 fa3d e85e 3d3e
000000f0: 91b5 44bc 1b82 f83d 45ab 3bbe 0655 f6bd
00000100: 0b84 e7bd 5b48 8b3d 5092 433e 6c36 3fbe
00000110: b0ff ccbd 3d4c f2bd be82 ef3d efa1 2abe
00000120: 8670 47be a216 c53d c441 7cbd bc6d 36bd
00000130: ef68 9abd 753b 1abd ec6a 0d3e c57d 9ebd
00000140: 04cf fcbd 9028 bcbd f4e7 8abd 5aef 173e
00000150: 8539 e4bd aae7 463e 842b 0fbe 02dd 5d3e
00000160: cac4 43be c349 1fbe 57ed db3d 0db5 48be
00000170: 2027 c2bd 49a8 91bb c447 503e a76f 83ba
00000180: ea0e 333e 966a 8f3d 3f9e 7cbd 856a 5c3d
00000190: 6a39 1dbe c19c 413e 071b 273e b481 583e
000001a0: 4d4c ef3d 3b46 0fbe 2839 63be f09a 8a3d
000001b0: c5fe 2fbc 474d 92bc 1f34 ad3c c63d 233e
000001c0: f502 8f3d 6652 563e aeec 463e 1a8e 29be
000001d0: 3540 313d 27ca 583e 996b 703d 1620 f53d
000001e0: b230 a4bc 5c4e f03d 078d a3bd 92a8 f43d
000001f0: 5b0b 613e d739 92bc 4eaf f43d 336d 32be
00000200: 2ddd 023e 0889 9ebd 33aa f83d aff0 f03d
00000210: 8f98 283e eedc 03be 1510 733c dde5 11be
00000220: 4fae 6f3e 3823 483d 0908 50be cb77 013e
00000230: ec36 cebd 6d70 203e 253d de3d d2ce 443e
00000240: 1487 ae3d 684e 21bc b118 73bc d95e 223e
00000250: 6a1e 07be 94d9 01bd dd05 c9bb ae31 e83d
00000260: 6b7f 433e 2558 3dbe 7024 533e 996d 473e
00000270: eacc 453e 1525 86bc af7a 9dbd 8fc7 19be
00000280: 2e48 03be f86c 1a3e 15a9 54be d471 bcba
00000290: 0204 14be 793c 023e a579 3dbe d577 183e
000002a0: 5189 41bc 9a69 203e 84d1 883d ff9d 40bd
000002b0: f3cb 14be b5fa a13d 7317 583e a5b1 84bd
000002c0: 17c4 c93d e905 003e aada 2bbe e7ca 01be
000002d0: 70c5 b93d fd0a 4abe fccb b93d 69ea 80bd
000002e0: 6fe3 523b 9d92 dfbd 9967 283a f955 34be
000002f0: 57fd 27bd 0ab2 d7bd 0de7 1fbe 0931 a53d
00000300: c24f c03d ac2c 05be 8f9f 56be 347c 4b3e
00000310: bbe5 8a3d a6fe 89bd 0065 d23d 866d 1fbd
00000320: 3367 c6bd 35e6 ba3d 01b5 72bc 1881 50be
00000330: 4a92 ffbd eed2 9fbc 3845 34bd c475 1b3d
00000340: 4112 0b3d b8ef 20be d880 163e 4ab2 2a3e
00000350: 539e 0e3d 787d cfbc af1b 253e 715e 93bd
00000360: c8a4 cfbc 2d2c fb3c 7c09 5a3e 14b3 e6bd
00000370: 3125 3abd 4dbe 2bbe e5c1 1b3e e5d1 3dbe
00000380: f37e d43d e03e dabd ffa0 213e 48ea 153e
00000390: d128 46be 5b9e 643d ada6 413e d66a 223e
000003a0: 8c95 1b3e b1c0 29bd fa16 6fbe 136b 90bc
000003b0: 1fa0 0b3d 4d69 093c e598 10be 911e 5ebe
000003c0: 8401 013e aa78 f7bd 62da 59be 00ca c73c
000003d0: 6a66 303e 21ab 453e 1658 063d ac0f 0bbe
000003e0: 7b4d 593d d83e 5a3e 497f 0bbe d45e 41be
000003f0: c1d3 3dbc 48ed 413c 8e5d 163e 5d6c 053d

conv3.bias f4 [128]
-0.000203165 -0.00026460222 0.0006209977 0.00034252548 0.00085394696 -0.000852212 0.0010982879 -0.0009100358
8.204575e-05 -0.001016279 -0.0003279277 0.00077370973 -0.0007763227 -0.00036424262 0.001070159 -6.178048e-05
0.001134644 0.00028474795 -0.00038217398 5.1824973e-05 -0.00015340149 -0.00029356912 -0.00079207605 -0.00028017096
-0.00086441607 -0.00020561447 7.7501354e-05 0.00013681801 0.00029095914 -0.0010597585 -0.000647361 -0.00060604373
0.0010781545 -0.00051378086 -0.00012362756 -2.3058472e-05 0.00062840746 -0.00019670463 -0.0006425809 0.0006221852
0.00025952395 -4.663082e-05 0.0011343275 0.0009659659 -0.00022123769 -0.0007842536 0.0005758385 -0.00018687484
-0.00082081143 0.00022790008 5.5316235e-05 -0.00095944706 0.0008642314 -4.4762506e-05 -0.00075725163 0.0005104317
0.0003822957 -0.0005418307 -2.34365e-05 0.0002227271 -3.150325e-05 0.00038362783 -0.0007372101 -0.0007344988
0.0010448531 0.0004927926 0.000848637 0.0011038283 0.0006183108 -0.0011079628 0.00042094523 -0.0007846113
-0.0007289344 -0.00043342155 0.0010729383 -0.0008605503 -0.0009064199 -0.00014262693 0.00043696025 -0.00018340677
0.00013325809 -0.000388952 0.00086822954 -0.00021776195 -0.00020211627 0.0009531106 -0.00027543708 -0.0009779141
-0.0011070137 0.0008034223 -0.00088058476 0.0002986988 0.00086281437 5.7822173e-05 -0.00083119795 8.737759e-05
0.00039283163 0.00025355397 -0.00059565523 0.0011342725 -0.0011093825 0.00084731216 0.00014129654 -0.00056836277
-0.00088834256 -0.0001621828 0.00081957044 -0.0004896733 -0.00076404924 -0.0008391188 0.0006178441 8.488811e-05
0.000729493 0.00042296876 -0.00025029216 -5.815071e-05 -0.00086263515 -0.0014547386 -0.0006035585 -0.00010078982
-0.00012855245 -7.9985446e-05 -0.00036250736 0.0006146532 -0.000727733 0.0002839465 0.0010652465 -0.0005631185
00000000: b008 55b9 4fba 8ab9 73ca 223a fe94 b339
00000010: 69db 5f3a fb66 5fba 6df4 8f3a 788f 6eba
00000020: fa0f ac38 aa34 85ba b6ed abb9 c8d2 4a3a
00000030: 2282 4bba d1f7 beb9 9444 8c3a 2590 81b8
00000040: 56b8 943a 394a 9539 865e c8b9 a45e 5938
00000050: 66da 20b9 2eea 99b9 53a3 4fba e9e3 92b9
00000060: fb99 62ba 379a 57b9 3988 a238 ce76 0f39
00000070: e08b 9839 98e7 8aba a9b3 29ba e8de 1eba
00000080: dd50 8d3a 40af 06ba 05a2 01b9 b16d c1b7
00000090: b6bb 243a 7f42 4eb9 e072 28ba 241a 233a
000000a0: b710 8839 7695 43b8 b7ad 943a e038 7d3a
000000b0: 0afc 67b9 5e96 4dba def3 163a d5f3 43b9
000000c0: b92b 57ba 76f8 6e39 5b03 6838 6783 7bba
000000d0: 968d 623a 60bf 3bb8 4c82 46ba 7ece 053a
000000e0: dc6e c839 a509 0eba 8099 c4b7 da8b 6939
000000f0: 5b22 04b8 a821 c939 5541 41ba 618b 40ba
00000100: 74f3 883a c02e 013a 1177 5e3a 55ae 903a
00000110: 2316 223a 1039 91ba 50b2 dc39 5fae 4dba
00000120: f615 3fba db3c e3b9 d6a1 8c3a 8e96 61ba
00000130: cf9c 6dba 208e 15b9 d017 e539 e150 40b9
00000140: 32bb 0b39 41ec cbb9 e699 633a 0757 64b9
00000150: 2cef 53b9 2bda 793a 8a68 90b9 5a2d 80ba
00000160: 3719 91ba c29c 523a 0bd7 66ba ad9a 9c39
00000170: 7e2e 623a 1686 7238 c0e4 59ba 7d3e b738
00000180: f8f4 cd39 70ef 8439 bf25 1cba dfab 943a
00000190: b368 91ba 281e 5e3a 0029 1439 2efe 14ba
000001a0: a9df 68ba 9d0f 2ab9 71d8 563a 6b5d 00ba
000001b0: 7a4a 48ba 4ff8 5bba d1f6 213a f505 b238
000001c0: 723b 3f3a e8c1 dd39 a539 83b9 d9e6 73b8
000001d0: 7722 62ba edac beba 2038 1eba 1f5f d3b8
000001e0: 09cc 06b9 dcbd a7b8 ea0e beb9 ae20 213a
000001f0: 56c5 3eba a7de 9439 be9f 8b3a 3e9e 13ba

conv3.lin.weight f4 [128, 64]
-0.0510483 -0.1908031 -0.068728365 -0.18061306 0.03735077 0.18303822 0.13235512 -0.13894159
-0.09118257 -0.1187419 -0.09870004 -0.08873394 0.12357796 0.17049469 -0.051844843 -0.15117714
0.050154198 0.05905651 -0.054268084 -0.14076705 0.01802136 -0.08910964 0.062243298 0.057894964
0.06271451 -0.13912143 0.050591312 -0.022786994 -0.06920621 -0.17309435 0.063576624 0.050754853
-0.06403753 -0.029327933 -0.023827014 0.010239383 0.121935055 -0.039520554 0.15374362 0.02159468
0.019426905 -0.16209166 0.1550959 0.0076995157 0.12203539 0.022542942 -0.047474675 0.06971947
0.06253002 -0.1860453 0.04161276 0.05209046 0.06093067 -0.0117821 0.092291296 -0.025105702
-0.026549064 -0.08794736 0.0457902 -0.15172501 -0.14340678 -0.10677091 0.17510131 0.029346403
-0.08086579 -0.15315743 0.083530635 -0.0734975 0.019336544 -0.050364602 -0.115231976 0.112437636
-0.10073088 -0.008334451 -0.17299856 0.030166226 0.0283306 0.018529037 -0.033724517 0.1333551
-0.015579395 -0.07463462 -0.15437005 -0.14796504 0.12007925 -0.07694867 -0.12046566 0.03442373
0.012430767 0.15907778 -0.09588825 -0.15512218 0.097727016 0.020176046 0.03267691 -0.07744634
0.042340677 0.00883159 0.07158414 -0.1584434 0.100039676 0.15367019 -0.06130999 0.17049527
0.11038418 0.09538576 -0.08330501 -0.021844449 -0.032232128 -0.12655301 -0.15486333 -0.10181996
0.05996931 0.085043386 0.0026018058 -0.050071333 0.09396586 0.0666412 -0.099128224 0.03421936
-0.19061215 0.13451873 -0.11471455 -0.059470795 0.036270965 -0.09316267 0.13959678 0.045309037
0.03749337 -0.032010704 0.13426721 -0.1066749 -0.09007529 0.08127229 0.14335078 -0.05382795
0.05236056 0.095739886 0.029269084 -0.024977894 0.0045791464 0.1326076 0.07301354 0.12038093
-0.14244565 0.03642285 -0.15279523 -0.076546915 -0.05810772 -0.058351766 -0.0952124 0.133299
-0.18890284 0.061841097 0.082863614 -0.019348366 -0.056300987 -0.0664606 0.11053857 -0.0064813728
0.0785152 -0.021036973 0.03222539 0.047664296 -0.041781757 -0.0719437 -0.0017175454 -0.033530727
0.13131312 -0.04510426 0.14204474 0.08794787 0.15150954 0.16032638 -0.0206398 -0.038187053
0.12224983 -0.14914456 0.026754439 -0.037758816 -0.12179345 -0.05465435 -0.107715555 0.13175172
-0.14217694 -0.08629039 -0.18406901 -0.009282114 0.15677454 0.027014941 0.032461647 0.07428498
-0.09318311 -0.006577242 -0.043880492 -0.049263243 0.04173988 0.08790477 0.13581935 0.0036725465
0.12680803 -0.07377089 -0.08304227 -0.15287934 -0.072937004 0.054149155 -0.084109545 -0.090185486
0.07693922 0.10100251 -0.117058225 0.031783074 0.11399846 -0.035834707 -0.121258944 -0.049593493
0.029151348 -0.099989146 0.054795105 -0.07744804 0.11038286 0.1073762 -0.10878101 -0.1298759
0.14036398 0.116343856 0.018422471 -0.060248695 0.124870904 -0.17826039 0.122251876 0.15058604
-0.0054161698 -0.15928122 -0.113006935 0.075368725 0.18284567 0.04640942 -0.1431932 -0.16232929
-0.14659628 0.029785402 -0.05592281 -0.06796903 0.088484466 0.033758152 0.08413963 -0.00861287
-0.016676705 -0.04082518 -0.12650976 -0.12559825 0.1226748 -0.030116735 -0.0886478 -0.13734451
00000000: 0618 51bd e361 43be 75c1 8cbd a1f2 38be
00000010: 1ffd 183d 5f6e 3b3e 1a88 073e b446 0ebe
00000020: edbd babd f42e f3bd 3f23 cabd 24ba b5bd
00000030: 7116 fd3d 2996 2e3e 425b 54bd 2ece 1abe
00000040: 7d6e 4d3d 3de5 713d 3648 5ebd 3d25 10be
00000050: 88a1 933c 1d7f b6bd d4f2 7e3d 4523 6d3d
00000060: 7770 803d d975 0ebe d638 4f3d caab babc
00000070: fcbb 8dbd a53f 31be 7634 823d 52e4 4f3d
00000080: 1c26 83bd 2241 f0bc df30 c3bc 16c3 273c
00000090: 16b9 f93d 4ee0 21bd f86e 1d3e 54e7 b03c
000000a0: 2c25 9f3c 5bfb 25be 76d1 1e3e 384c fc3b
000000b0: b1ed f93d faab b83c ce74 42bd 15c9 8e3d
000000c0: bd0f 803d a982 3ebe 2472 2a3d ce5c 553d
000000d0: 7092 793d b609 41bc 3803 bd3d 79aa cdbc
000000e0: 6c7d d9bc bf1d b4bd 818e 3b3d cd5d 1bbe
000000f0: 3ad9 12be b5aa dabd c24d 333e de67 f03c
00000100: f79c a5bd 4dd5 1cbe 1c12 ab3d db85 96bd
00000110: ac67 9e3c 1d4b 4ebd befe ebbd b445 e63d
00000120: fe4b cebd 398d 08bc 8926 31be 291f f73c
00000130: 9315 e83c 35ca 973c b822 0abd 3d8e 083e
00000140: b840 7fbc 09da 98bd 2f13 1ebe 2684 17be
00000150: 1cec f53d 4497 9dbd b3b6 f6bd e6ff 0c3d
00000160: 6aaa 4b3c 49e5 223e 0f61 c4bd 59d8 1ebe
00000170: 1a25 c83d 3c48 a53c 39d8 053d 309c 9ebd
00000180: 6b6d 2d3d 60b2 103c b59a 923d fd3e 22be
00000190: 9ae1 cc3d b85b 1d3e 2f20 7bbd 5096 2e3e
000001a0: 1a11 e23d 9c59 c33d d19b aabd 21f3 b2bc
000001b0: d605 04bd 1d97 01be 7e94 1ebe fc86 d0bd
000001c0: 61a2 753d 3a2b ae3d 0f83 2a3b 9917 4dbd
000001d0: 2c71 c03d 2e7b 883d bd03 cbbd 9a29 0c3d
000001e0: d52f 43be 47bf 093e 76ef eabd a697 73bd
000001f0: dd90 143d 12cc bebd 75f2 0e3e f895 393d
00000200: a692 193d a81d 03bd 587d 093e 5f78 dabd
00000210: 6579 b8bd 1672 a63d 8cca 123e b27a 5cbd
00000220: 0778 563d 4613 c43d b8c5 ef3c 719e ccbc
00000230: aa0c 963b 49ca 073e 1f88 953d 478a f63d
00000240: 46dd 11be 2030 153d 5a76 1cbe a1c4 9cbd
00000250: 5c02 6ebd 4302 6fbd b8fe c2bd 887f 083e
00000260: bf6f 41be 174d 7d3d 66b4 a93d 7780 9ebc
00000270: dd9b 66bd 7f1c 88bd 0c62 e23d b261 d4bb
00000280: 94cc a03d bb55 acbc c5fe 033d a33b 433d
00000290: 5923 2bbd 3857 93bd 431f e1ba 8457 09bd
000002a0: f276 063e 3fbf 38bd 2d74 113e 031e b43d
000002b0: 5125 1b3e 992c 243e cc14 a9bc 076a 1cbd
000002c0: 1e5e fa3d 5ab9 18be 202c db3c fda8 1abd
000002d0: d86e f9bd 3ddd 5fbd f999 dcbd ece9 063e
000002e0: d596 11be 04b9 b0bd 967c 3cbe 0214 18bc
000002f0: 8189 203e 704e dd3c 81f6 043d b922 983d
00000300: c9d6 bebd e885 d7bb 08bc 33bd 41c8 49bd
00000310: 70f7 2a3d 6b07 b43d 3a14 0b3e 1baf 703b
00000320: f7d9 013e 3115 97bd 1112 aabd 678c 1cbe
00000330: ff5f 95bd 81cb 5d3d a041 acbd 2bb3 b8bd
00000340: 4f92 9d3d 67da ce3d 39bc efbd f82e 023d
00000350: 0678 e93d 6ac7 12bd 9c56 f8bd 8c22 4bbd
00000360: cfce ee3c 1cc7 ccbd d570 603d 149d 9ebd
00000370: 6910 e23d 0ee8 db3d 94c8 debd 30fe 04be
00000380: 93bb 0f3e b045 ee3d b9ea 963c 56c7 76bd
00000390: 51bc ff3d e489 36be 315f fa3d 3a33 1a3e
000003a0: 207a b1bb 9e1a 23be 2e70 e7bd eb5a 9a3d
000003b0: e53b 3b3e ce17 3e3d 3da1 12be a639 26be
000003c0: 561d 16be 8400 f43c 510f 65bd 5933 8bbd
000003d0: 5837 b53d fd45 0a3d 6651 ac3d ff1c 0dbc
000003e0: 969d 88bc 4e38 27bd c68b 01be d49c 00be
000003f0: ed3c fb3d 5fb7 f6bc fa8c b5bd 0aa4 0cbe

conv4.bias f4 [256]
-0.020846698 -0.021300193 0.021179 0.018114753 0.023208488 -0.019588793 -0.005741073 0.021566184
0.02102169 -0.021651061 -0.008799016 -0.020455094 0.023270665 -0.02215518 -0.020957557 -0.021472603
-0.023114558 0.019561866 -0.02180976 0.015935633 -0.019291675 -0.022604859 0.020831158 0.03013988
0.01972349 -0.025621856 0.017923195 -0.022156522 -0.028965948 -0.02024612 -0.03554067 0.020390658
-0.021286426 -0.008659359 -0.020102544 0.019038618 -0.022277763 0.01377503 0.016836826 0.017171372
0.022254197 0.020401306 -0.0214416 0.023049207 -0.02664549 0.020098573 0.021814732 0.02194916
0.018224554 -0.006759766 -0.02216595 -0.019268312 0.02001637 -0.02115555 0.017006937 0.01734269
0.030155614 -0.026417138 0.022162398 0.017543256 0.026705736 -0.017441582 0.019389883 -0.020747773
-0.021104414 0.020739097 -0.01583513 0.009904334 -0.021888228 0.020952282 0.016582923 -0.020348191
0.034452733 -0.021973567 0.020121368 -0.022807553 -0.021831777 -0.020668203 -0.018985223 0.016057039
-0.01831844 0.025487687 -0.021436756 0.01851921 -0.018810442 -0.022489026 -0.017917996 0.024443805
0.018764008 -0.016979434 0.018938337 0.018904854 0.030445907 -0.019469883 0.01455888 -0.021900628
-0.026517473 0.013451965 0.020844376 -0.024280788 -0.0271583 0.021995485 -0.023691937 0.014273786
0.022510186 0.022403013 -0.020987043 -0.01980867 0.02181925 -0.021911297 -0.02065128 0.02341283
-0.019011177 -0.022094972 -0.021579506 -0.025968265 -0.021526653 -0.018657545 -0.018247377 -0.030624712
-0.018815177 0.02006172 0.023999918 0.02629777 -0.022660093 -0.021465313 0.012760987 -0.026411362
0.019804507 0.01983175 -0.021550912 0.020575717 -0.019536817 0.022302603 -0.02233566 -0.028895773
0.02854687 -0.020713903 -0.019584717 0.02099886 -0.020127308 -0.021833958 0.018530529 0.01708338
0.021858215 -0.022848202 0.021740124 -0.019494276 -0.013896833 -0.021480244 0.020579603 -0.023512222
-0.020502483 -0.019352088 0.022432385 0.010224927 -0.021498222 -0.018485125 -0.024315171 -0.017958688
0.018290645 -0.01182421 0.020360418 0.02262097 -0.018243376 0.030319776 -0.02168596 0.017107328
-0.019471077 0.022179322 -0.0241754 0.02214286 -0.025485974 0.014948356 0.021474564 -0.024680251
-0.015303305 -0.024034284 0.02635793 -0.019319585 0.018773008 -0.02286715 0.014065924 0.017832294
-0.017092375 -0.021563554 -0.023786945 -0.020921225 0.016300911 -0.02106852 -0.022466552 0.017598078
0.020914702 0.021248868 0.021050338 -0.02194471 0.01685002 0.023085212 0.029293085 -0.023017168
0.034390327 0.021639217 0.01996114 -0.022875372 -0.023281358 0.02353106 0.0287292 0.02255487
0.020709159 -0.025124017 0.020131579 0.021991607 0.0013671276 -0.02414493 0.020694213 -0.02016664
0.019994756 0.0153851025 0.026546316 -0.020862605 -0.023054851 -0.0197555 0.012839316 0.020667154
-0.0173144 0.019611454 0.023886863 -0.02027202 0.02080783 0.021027306 0.020406766 -0.037619576
-0.023242282 -0.023545275 0.0070392657 0.021000892 -0.021179264 0.0223178 -0.028220283 0.01866602
-0.021362774 -0.021792177 0.021492794 0.025059322 0.019965483 0.014618737 -0.01986515 0.02032095
0.022558648 0.021470593 -0.021119148 0.019915158 -0.018662877 -0.023314454 -0.020012315 -0.02170177
00000000: b2c6 aabc be7d aebc 957f ad3c 6465 943c
00000010: ba1f be3c ad78 a0bc 9c1f bcbb 91ab b03c
00000020: ae35 ac3c 915d b1bc bf29 10bc 7191 a7bc
00000030: 1fa2 be3c c87e b5bc 2faf abbc 50e7 afbc
00000040: be5a bdbc 3540 a03c 62aa b2bc 728b 823c
00000050: 9309 9ebc d32d b9bc 1ba6 aa3c e9e7 f63c
00000060: 2893 a13c ede4 d1bc aad3 923c 9881 b5bc
00000070: ff49 edbc 31db a5bc 1893 11bd 4f0a a73c
00000080: df60 aebc fcdf 0dbc 17ae a4bc e0f6 9b3c
00000090: db7f b6bc aab0 613c 62ed 893c faaa 8c3c
000000a0: 6f4e b63c a420 a73c 4ba6 afbc b1d1 bc3c
000000b0: a547 dabc c3a5 a43c cfb4 b23c bace b33c
000000c0: a94b 953c 0781 ddbb 5e95 b5bc 94d8 9dbc
000000d0: 5ff9 a33c 674e adbc 2252 8b3c 4212 8e3c
000000e0: e808 f73c c168 d8bc eb8d b53c e0b6 8f3c
000000f0: fdc5 da3c a6e1 8ebc 88d7 9e3c 3cf7 a9bc
00000100: 2ae3 acbc 0ae5 a93c adb8 81bc ca45 223c
00000110: f14e b3bc 1fa4 ab3c e9d8 873c 40b1 a6bc
00000120: 4f1e 0d3d e901 b4bc 91d5 a43c e8d6 babc
00000130: 8ed8 b2bc 5d50 a9bc e686 9bbc 0d8a 833c
00000140: 8e10 96bc 8ecb d03c 239c afbc 99b5 973c
00000150: 5b18 9abc e83a b8bc c3c8 92bc 603e c83c
00000160: fab6 993c 7418 8bbc 9224 9b3c 5ade 9a3c
00000170: b269 f93c 4e7f 9fbc 5e88 6e3c f268 b3bc
00000180: 2c3b d9bc a165 5c3c d3c1 aa3c 81e8 c6bc
00000190: 157b debc e02f b43c 9815 c2bc 99dc 693c
000001a0: 4867 b83c 8686 b73c 05ed abbc cb45 a2bc
000001b0: 49be b23c 527f b3bc e02c a9bc 43cc bf3c
000001c0: 54bd 9bbc 8400 b5bc 81c7 b0bc 66bb d4bc
000001d0: aa58 b0bc b5d7 98bc 867b 95bc ade0 fabc
000001e0: 4922 9abc 7a58 a43c 7a9b c43c 6c6e d73c
000001f0: a9a1 b9bc 06d8 afbc 7513 513c a45c d8bc
00000200: 103d a23c 3276 a23c 8a8b b0bc 688e a83c
00000210: ad0b a0bc f3b3 b63c 46f9 b6bc d4b6 ecbc
00000220: 20db e93c 34b0 a9bc 2170 a0bc cd05 ac3c
00000230: 06e2 a4bc 21dd b2bc 56cd 973c 72f2 8b3c
00000240: 0010 b33c 272c bbbc 5818 b23c 76b2 9fbc
00000250: 8baf 63bc 56f7 afbc 8e96 a83c b49c c0bc
00000260: d3f4 a7bc 4588 9ebc 1fc4 b73c 7486 273c
00000270: 0a1d b0bc 1e6e 97bc 9c30 c7bc 191e 93bc
00000280: 43d6 953c 55ba 41bc e4ca a63c 9d4f b93c
00000290: 2273 95bc 2e61 f83c c1a6 b1bc ab24 8c3c
000002a0: cf81 9fbc 69b1 b53c 7d0b c6bc f164 b53c
000002b0: f6c7 d0bc f3e9 743c 6deb af3c 3d2e cabc
000002c0: b7ba 7abc 8ce3 c4bc 96ec d73c 1b44 9ebc
000002d0: dac9 993c e453 bbbc c374 663c 0815 923c
000002e0: 4f05 8cbc 0da6 b0bc d7dc c2bc fd62 abbc
000002f0: 7d89 853c e497 acbc c60b b8bc d829 903c
00000300: 4f55 ab3c 1b12 ae3c c271 ac3c 64c5 b3bc
00000310: 0e09 8a3c 331d bd3c 0df8 ef3c 808e bcbc
00000320: dfdc 0c3d ba44 b13c 8b85 a33c 2265 bbbc
00000330: 8cb8 bebc 36c4 c03c 8059 eb3c fec4 b83c
00000340: 41a6 a93c e2d0 cdbc fbea a43c be27 b43c
00000350: 3131 b33a 97cb c5bc e986 a93c 8234 a5bc
00000360: 0bcc a33c cc11 7c3c a977 d93c 0ee8 aabc
00000370: 87dd bcbc 49d6 a1bc ff5b 523c 2a4e a93c
00000380: eed6 8dbc 33a8 a03c 62ae c33c 8211 a6bc
00000390: 2f75 aa3c 7541 ac3c 172c a73c fc16 1abd
000003a0: 9966 bebc 05e2 c0bc a4a9 e63b 100a ac3c
000003b0: 2380 adbc d2d3 b63c 392e e7bc 7be9 983c
000003c0: fc00 afbc 8285 b2bc a811 b03c 3549 cd3c
000003d0: a78e a33c 6d83 6f3c 3dbc a2bc 1f78 a63c
000003e0: eacc b83c 19e3 af3c 1002 adbc 1d25 a33c
000003f0: e4e2 98bc f4fd bebc def0 a3bc e9c7 b1bc

conv4.lin.weight f4 [256, 128]
-0.05087588 -0.038625658 0.10166192 0.10470233 0.0885481 -0.094084874 -0.14540203 -0.12459194
-0.09640432 0.03960683 0.116129436 0.040552627 -0.034398053 0.1400731 0.12047977 0.06881629
-0.04641405 -0.01752461 -0.05970962 0.032892425 0.009967066 0.0019013459 -0.11865186 0.08795083
-0.107312605 -0.07588115 0.14116152 -0.044056613 0.12657422 0.061469812 0.01872752 -0.08714408
0.0867487 -0.08400603 -0.039795753 0.0028775285 -0.12367735 -0.048454996 -0.07212043 -0.047206677
-0.09307812 0.087626524 -0.022308238 0.016326413 0.046799645 -0.12139989 0.080433294 0.12112797
0.067676514 0.022960955 0.06410547 0.011563611 -0.092945926 0.0042489776 0.051984765 -0.1436046
0.011575693 -0.13233776 -0.023196118 -0.092130914 -0.022948524 -0.1199119 0.014599351 0.06409352
0.028681967 0.09632321 -0.0648398 -0.043187022 0.043745328 -0.012358286 -0.090999335 0.047551047
0.14453559 -0.036630996 -0.06128519 0.043935053 0.03739854 -0.03817942 -0.04519715 -0.12917465
0.103181615 -0.06489467 0.07466484 0.09507838 -0.057468314 0.0028475858 -0.091442436 -0.14342709
0.04802715 -0.04517492 -0.07565632 -0.11612563 -0.040762205 0.07110498 -0.062034648 -0.045200296
0.07973325 -0.000650875 -0.07484106 -0.024577541 0.14385098 0.09184011 0.078788646 0.053895365
-0.12986112 -0.06393761 0.011610138 -0.060237702 0.022891765 -0.052855913 0.14195122 0.14350998
0.10893313 0.04887641 -0.050400756 0.08536051 -0.14549656 0.07263134 -0.1203181 0.024104808
-0.07752057 -0.030047627 0.019037878 -0.03695159 -0.09392044 0.01973838 -0.04573444 -0.103615105
0.0880545 -0.13990717 -0.12441258 0.059985258 -0.034487676 0.042276382 -0.0323171 -0.023481553
-0.029512683 -0.047645703 -0.122268505 0.1385376 0.04332458 -0.13582845 0.08506139 -0.025221016
-0.0057740184 0.0953808 -0.09003017 -0.01754727 -0.09408524 0.014705583 -0.07540736 0.09015111
0.07008591 0.11007532 -0.11530005 -0.07651807 0.13955957 0.014175148 -0.07340728 -0.038373478
-0.13860498 0.025751764 0.04764681 0.028697407 -0.100727774 -0.10804528 0.101973794 -0.07708574
-0.053673822 0.08639566 0.019695096 0.0295262 -0.07659661 0.050427273 0.002127491 0.055901196
0.0984834 0.13957137 -0.06040875 0.12668751 0.09934988 0.031925883 0.10702304 -0.0046329075
0.008931695 -0.07994319 -0.14332196 0.07010874 0.10064146 0.09959249 -0.02309514 -0.030159468
0.027064316 0.026830181 0.07524276 0.025962569 0.042561743 -0.122237615 -0.06037093 -0.11324215
-0.09995828 0.041190736 -0.009803273 0.03913967 -0.06531091 0.0077727586 -0.10101372 0.12526995
-0.09723536 0.052473493 -0.036552332 0.06101504 -0.024897391 -0.009049281 0.097128265 0.01992569
-0.06324602 0.10287292 -0.045860477 0.0024202657 -0.016907874 -0.06316772 -0.06962303 -0.026768843
0.0050827726 0.14376837 -0.076060005 0.0797346 -0.14548092 0.057143833 -0.1274041 -0.097375505
-0.04918734 -0.13241822 0.052530922 0.1060471 0.063473925 0.0036793514 -0.07718538 -0.01490032
-0.047749583 0.04882558 -0.071940176 0.033653844 0.013531116 0.07025415 -0.1430572 -0.002478332
0.05851123 -0.04809743 0.10520727 0.0010014275 0.04758043 0.08175532 -0.038997285 0.09055495
00000000: 3a63 50bd f035 1ebd 2034 d03d 2d6e d63d
00000010: b558 b53d 92af c0bd 45e4 14be 0f2a ffbd
00000020: a16f c5bd c53a 223d 45d5 ed3d 831a 263d
00000030: f9e4 0cbd 536f 0f3e 19be f63d 8eef 8c3d
00000040: a91c 3ebd c58f 8fbc 1392 74bd 35ba 063d
00000050: e84c 233c 9536 f93a bfff f2bd 911f b43d
00000060: b6c6 dbbd 9467 9bbd a58c 103e b574 34bd
00000070: ac9c 013e c5c7 7b3d 756a 993c 9878 b2bd
00000080: 4da9 b13d 5a0b acbd df00 23bd eb94 3c3b
00000090: 8d4a fdbd bf78 46bd e0b3 93bd ca5b 41bd
000000a0: be9f bebd 8975 b33d c4bf b6bc f8be 853c
000000b0: fcb0 3f3d 81a0 f8bd 36ba a43d f111 f83d
000000c0: fc99 8a3d 9d18 bc3c bb49 833d 4d75 3d3c
000000d0: 6f5a bebd 023b 8b3b faed 543d 160d 13be
000000e0: faa7 3d3c 8d83 07be c905 bebc 22af bcbd
000000f0: 8bfe bbbc 5f94 f5bd 1e32 6f3c 7743 833d
00000100: 72f6 ea3c 1a45 c53d bbca 84bd e0e4 30bd
00000110: 4d2e 333d 697a 4abc dc5d babd e3c4 423d
00000120: 2301 143e 620a 16bd 2e06 7bbd 3ef5 333d
00000130: 362f 193d 0662 1cbd a620 39bd 5c46 04be
00000140: e250 d33d 7fe7 84bd e1e9 983d 74b8 c23d
00000150: e563 6bbd 909e 3a3b 2c46 bbbd 8dde 12be
00000160: 1eb8 443d 5609 39bd b3f1 9abd 46d3 edbd
00000170: 45f6 26bd 7d9f 913d 0b18 7ebd f223 39bd
00000180: 304b a33d 7b9f 2aba 4546 99bd d756 c9bc
00000190: ac4d 133e ab16 bc3d f15b a13d 63c1 5c3d
000001a0: 50fa 04be b9f1 82bd 7338 3e3c cfbb 76bd
000001b0: 8387 bb3c 717f 58bd a95b 113e 48f4 123e
000001c0: 5518 df3d a132 483d 0671 4ebd 7ed1 ae3d
000001d0: 0dfd 14be bdbf 943d 5669 f6bd 7277 c53c
000001e0: 1bc3 9ebd 7126 f6bc 53f5 9b3c 8d5a 17bd
000001f0: 5c59 c0bd 62b2 a13c 0954 3bbd 2834 d4bd
00000200: eb55 b43d d343 0fbe 06cc febd 1ab3 753d
00000210: f342 0dbd 002a 2d3d ef5e 04bd 635c c0bc
00000220: 95c4 f1bc 2428 43bd e967 fabd cddc 0d3e
00000230: 1d75 313d 9d16 0bbe ab34 ae3d 4e9c cebc
00000240: fa33 bdbb 0257 c33d bd61 b8bd 4bbf 8fbc
00000250: c3af c0bd b0ef 703c 2d6f 9abd 25a1 b83d
00000260: 3489 8f3d 2b6f e13d 6f22 ecbd 82b5 9cbd
00000270: b4e8 0e3e e13e 683c 8e56 96bd 822d 1dbd
00000280: 77ee 0dbe 5df5 d23c 4d29 433d d316 eb3c
00000290: 5d4a cebd d846 ddbd a3d7 d03d 21df 9dbd
000002a0: 15d9 5bbd 35f0 b03d 9c57 a13c eee0 f13c
000002b0: afde 9cbd d48c 4e3d 606d 0b3b a7f8 643d
000002c0: aab1 c93d cceb 0e3e 2a6f 77bd 5fba 013e
000002d0: f377 cb3d b7c4 023d e52e db3d a5cf 97bb
000002e0: 3e56 123c 41b9 a3bd fec2 12be 2c95 8f3d
000002f0: 1c1d ce3d 26f7 cb3d 0532 bdbc fd10 f7bc
00000300: fcb5 dd3c f8ca db3c e018 9a3d 74af d43c
00000310: 3955 2e3d b757 fabd 8247 77bd 80eb e7bd
00000320: edb6 ccbd 9eb7 283d e89d 20bc eb50 203d
00000330: bac1 85bd a0b2 fe3b 48e0 cebd c446 003e
00000340: 5523 c7bd 72ee 563d e6b7 15bd e8ea 793d
00000350: 9df5 cbbc 6f43 14bc 2feb c63d 333b a33c
00000360: 2187 81bd 0aaf d23d 32d8 3bbd 529d 1e3b
00000370: 6282 8abc 145e 81bd 8596 8ebd 554a dbbc
00000380: 638d a63b 0438 133e 59c5 9bbd e54b a33d
00000390: f3f8 14be a70f 6a3d 3876 02be cf6c c7bd
000003a0: aa78 49bd a498 07be aa2a 573d 392f d93d
000003b0: 9efe 813d 4621 713b 5e13 9ebd 7920 74bc
000003c0: 1195 43bd 55fd 473d 5f55 93bd 9dd8 093d
000003d0: 9db1 5d3c 68e1 8f3d 967d 12be 836b 22bb
000003e0: 79a9 6f3d d001 45bd e976 d73d 5542 833a
000003f0: b2e3 423d 556f a73d 9ebb 1fbd e074 b93d

conv5.bias f4 [256]
0.00034012424 0.00014755463 -0.00064320327 0.00032164474 -0.00015244196 0.00024547786 -0.0003769599 0.00032594378
0.00086594286 0.00027396376 0.000568812 7.9385725e-05 -0.00043895733 -0.0003723822 -0.0005863331 0.0004386325
0.000598449 0.000695291 -0.0008724716 0.00080987765 0.0004996607 -0.0005017093 0.00041151917 0.00014362988
-0.00037163708 -1.4828029e-05 0.00048004207 0.0005102577 0.0008059682 0.0003488481 -0.00025284468 -9.053467e-05
0.0008959987 -0.0004939452 -0.00042532457 0.0008554873 0.0006721154 0.0008678392 -0.0008617896 -0.00023800583
0.0009450822 0.00017364552 0.00023586821 -0.00029958293 -0.00062267453 -3.5968027e-05 0.000838686 0.00032567882
0.00044142312 0.00085575535 0.00027702985 0.00081893743 -0.00015361214 0.00077956973 -0.00034858877 -0.00046746855
-0.0005524525 0.00037897992 0.0011208673 -0.00076439645 -0.00065138226 0.0010881412 -0.00064351066 -0.0011077892
-2.0493912e-05 -0.00087213604 -0.0002256135 8.796051e-05 -6.524285e-05 -0.0008570738 0.0006187399 -5.7874902e-05
0.00018714272 0.000201217 0.00025487941 -5.9863127e-05 0.00025852502 0.00044568538 0.00063105853 0.0002842944
-0.0004944694 -0.00032008195 -0.00030425482 -0.00080104306 -0.0005555781 0.0003443747 -0.00064001005 0.00066016085
0.00039670712 0.00015941961 -0.00038314977 0.0006025595 -0.00039799072 -2.5588573e-05 0.00019329893 -0.0005977949
0.00053116685 -0.0004366472 -0.0004403851 -0.00057028275 -0.0005073753 0.00024791792 -2.7576263e-05 -0.00037180982
-0.00076758355 -0.00039452108 0.00076676684 0.0006902942 -0.000614631 -0.000351349 -2.5752075e-05 -0.0007095974
0.00027163664 -0.00063592975 0.00025067368 -0.00025277294 0.00041003694 0.00087027997 -4.4262295e-05 0.00080143823
-0.0007453142 0.0007611816 -0.0005703624 -0.0006507238 -0.0004987537 -0.00086894573 2.7162798e-07 0.00053357065
-0.0005899115 -0.00019749395 0.00031985628 -0.00015141229 0.0008074056 0.00017457653 -0.0006356772 0.00087178557
8.4001476e-05 -0.00058851653 -0.0002547483 -0.0008338248 -0.0005737926 -0.00086547027 0.00017446054 -0.00012260494
3.1777854e-05 -0.00044153174 0.0005101 0.0006314131 -0.00048883667 -0.00055672805 0.0003259899 0.0010128614
-6.316663e-05 4.868137e-06 -0.0005872124 0.00073179486 -0.00072156516 -0.0006417391 7.713684e-05 0.00069514895
-0.00086045504 0.00034124046 0.0006285839 2.4523488e-05 -0.0007429305 0.0001788075 0.0001901576 -0.00067589874
-0.00029173266 -0.0002539227 6.713742e-05 0.00010452034 -0.0002789562 -0.000811147 -0.00014811812 1.173431e-05
0.00025070983 0.00061512017 -0.0001759947 -0.0008719987 0.0008685531 -8.4650674e-05 4.6307352e-05 0.00025925043
-0.0003973516 0.000313109 -0.00064404024 0.0004753915 -0.000879689 2.7001335e-05 0.0006340852 0.00027589576
-0.00073003484 -0.00034854808 0.00053158635 5.0309718e-05 -0.00040470806 -2.934167e-05 -0.00012931121 -0.0011351028
-0.00086381956 0.0001727616 0.0004330727 0.00087112177 0.0011088221 0.00049576635 0.00086470775 -0.0006175256
-0.00072064233 0.0011265187 0.00040549375 -0.0002639684 -0.0005646651 0.00044495479 0.00081135234 -8.851402e-05
-2.9406641e-05 -0.00033549021 -0.00025615576 0.00060958834 -0.00012696038 -0.00023991009 -0.0007708475 -0.000120162505
0.00011110097 -0.00029568715 -0.00074889394 -0.00022098247 0.00015705524 0.00083250855 4.0012124e-05 0.00013809597
-0.00012981448 -0.00063337735 0.0002917435 -0.0005694481 -0.0011375527 -0.00084568775 -0.00015441347 5.5621636e-05
0.00041949702 0.00052847684 -0.00078177947 -0.0008085821 7.066465e-05 0.00012403203 0.00078867434 0.0005867598
0.00073770725 -0.0008696944 0.00112092 -0.00037927914 0.0010393307 -0.0011054515 0.00075417146 0.00084792566
00000000: b452 b239 e5b8 1a39 a49c 28ba 6da2 a839
00000010: d4d8 1fb9 7bb3 8039 b4a2 c5b9 6fe3 aa39
00000020: 7100 633a cba2 8f39 541c 153a e37b a638
00000030: db23 e6b9 4b3c c3b9 26b4 19ba 42f8 e539
00000040: 3ce1 1c3a 3044 363a 94b6 64ba f84d 543a
00000050: a9fb 023a 2485 03ba 2bc1 d739 5a9b 1639
00000060: 49d8 c2b9 e6c5 78b7 28ae fb39 d1c2 053a
00000070: 9c47 533a 99e5 b639 3d90 84b9 6edd bdb8
00000080: 74e1 6a3a 1a7c 01ba 19fe deb9 c842 603a
00000090: e730 303a b47f 633a b9e9 61ba 3491 79b9
000000a0: 65bf 773a 9d14 3639 6453 7739 5711 9db9
000000b0: fb3a 23ba 60dc 16b8 44db 5b3a dfbf aa39
000000c0: cf6e e739 c554 603a 513e 9139 f6ad 563a
000000d0: f212 21b9 0a5c 4c3a cbc2 b6b9 9116 f5b9
000000e0: 76d2 10ba d3b1 c639 11ea 923a c761 48ba
000000f0: 86c1 2aba f69f 8e3a 45b1 28ba 3d33 91ba
00000100: 57ea abb7 0fa0 64ba aa92 6cb9 7077 b838
00000110: fdd2 88b8 40ad 60ba ef32 223a b4be 72b8
00000120: be3b 4439 c7fd 5239 56a1 8539 8b15 7bb8
00000130: a48a 8739 e1aa e939 9f6d 253a 590d 9539
00000140: 489f 01ba acd0 a7b9 6484 9fb9 17fd 51ba
00000150: 37a4 11ba 318d b439 59c6 27ba a50e 2d3a
00000160: 21fd cf39 e029 2739 7ee1 c8b9 15f5 1d3a
00000170: 69a9 d0b9 0ba7 d6b7 49b0 4a39 56b5 1cba
00000180: 013e 0b3a cced e4b9 7de3 e6b9 077f 15ba
00000190: 6101 05ba fbfa 8139 9353 e7b7 78ef c2b9
000001a0: a937 49ba b9d7 ceb9 da00 493a dcf4 343a
000001b0: 301f 21ba 4435 b8b9 2906 d8b7 4704 3aba
000001c0: 746a 8e39 86b4 26ba da6c 8339 9c86 84b9
000001d0: 3afa d639 8023 643a 47a6 39b8 9c17 523a
000001e0: 3061 43ba 088a 473a 5f84 15ba 5695 2aba
000001f0: cbbe 02ba f6c9 63ba 44d4 9134 52df 0b3a
00000200: 4aa4 1aba 6116 4fb9 62b2 a739 6dc4 1eb9
00000210: 13a8 533a 880e 3739 93a3 26ba 8a88 643a
00000220: f329 b038 ad46 1aba bd8f 85b9 0995 5aba
00000230: 926a 16ba bae0 62ba 65ef 3639 838f 00b9
00000240: 3649 0538 637d e7b9 3bb8 053a 6a85 253a
00000250: 4625 00ba 63f1 11ba a0e9 aa39 fdc1 843a
00000260: 5478 84b8 fa58 a336 28ef 19ba ecd5 3f3a
00000270: 6b27 3dba 623a 28ba 87c4 a138 a83a 363a
00000280: 2990 61ba 85e8 b239 8dc7 243a cab7 cd37
00000290: 39c1 42ba 467e 3b39 0b65 4739 cc2e 31ba
000002a0: b2f3 98b9 ee20 85b9 21cc 8c38 ee31 db38
000002b0: de40 92b9 27a3 54ba 2850 1bb9 7ade 4437
000002c0: b471 8339 0440 213a 388b 38b9 d896 64ba
000002d0: 9daf 633a 7c86 b1b8 243a 4238 01ec 8739
000002e0: a153 d0b9 c728 a439 cfd4 28ba f83d f939
000002f0: ee9a 66ba ed80 e237 bd38 263a 1aa6 9039
00000300: cf5f 3fba 55bd b6b9 285a 0b3a a603 5338
00000310: ff2e d4b9 c222 f6b7 b797 07b9 bbc7 94ba
00000320: f371 62ba 5727 3539 090e e339 fe5b 643a
00000330: e555 913a 51f6 013a 8ead 623a 71e1 21ba
00000340: 7de9 3cba b2a7 933a 7398 d439 3d65 8ab9
00000350: 0906 14ba d248 e939 efb0 543a 9aa0 b9b8
00000360: 48ae f6b7 bce4 afb9 a54c 86b9 c8cc 1f3a
00000370: ab20 05b9 6090 7bb9 b312 4aba c1ff fbb8
00000380: e1fe e838 7506 9bb9 6c51 44ba 88b7 67b9
00000390: 32af 2439 b43c 5a3a b1d2 2738 dbcd 1039
000003a0: cf1e 08b9 3c09 26ba 26f5 9839 0447 15ba
000003b0: ef19 95ba 25b1 5dba 0dea 21b9 474b 6938
000003c0: f0ef db39 7b89 0a3a 55f0 4cba 07f7 53ba
000003d0: cc31 9438 980e 0239 0abf 4e3a c9d0 193a
000003e0: b262 413a 34fc 63ba d5eb 923a fcd9 c6b9
000003f0: 273a 883a cce4 90ba 97b3 453a 5447 5e3a

conv5.lin.weight f4 [256, 256]
0.08315312 0.04917675 -0.07362838 0.059328515 0.08880803 -0.042366914 -0.054285575 -0.082489066
0.10896699 0.1159834 0.023465246 -0.043532334 0.010326736 -0.057877388 -0.11426398 -0.084970735
0.013829734 0.13037679 0.08765069 0.06655456 -0.110000506 -0.1250146 0.12167305 -0.024835058
-0.09402067 -0.0545604 0.06432182 -0.1058346 -0.012409951 -0.07637772 -0.07690233 -0.0017636882
0.042646814 0.09225343 0.08619076 -0.021872547 -0.08342352 0.017999655 0.088304974 0.09378867
-0.079894476 -0.07844765 -0.03242043 -0.005565109 0.07833154 0.003434269 0.04190727 -0.059816815
0.006222631 -0.05405937 0.09071082 0.039539397 -0.0053326655 -0.07666106 -0.059455797 0.068056576
0.07823931 0.009845596 0.0504439 0.021060029 0.05939975 -0.08825247 -0.053156115 -0.035126247
-0.07582505 0.004576421 0.10932808 -0.054248158 0.07101532 -0.044710856 0.026648605 -0.04545079
0.073996484 -0.058535073 0.10039353 -0.111793764 -0.027318468 -0.11315638 -0.038187016 -0.082593136
0.12893166 -0.05237969 -0.06609781 0.09269653 0.038053565 0.09030877 0.045344885 0.07951932
-0.006058457 0.043992817 0.032727655 0.11017523 -0.08500008 0.024752293 0.092960924 -0.10729503
-0.048586607 -0.019921947 0.06546333 0.10089057 -0.069949724 0.0035555256 0.08704371 0.11007473
0.014681635 -0.04897931 -0.0639424 -0.11018193 0.089313455 0.061700188 -0.010149196 0.10553555
0.016859116 -0.023474738 -0.103766374 0.02890774 -0.0040270844 0.024575373 -0.02043617 0.025837332
0.08302479 -0.09076691 -0.082588166 -0.04308861 0.06258278 0.053848676 0.011206448 -0.01772258
0.1007186 -0.03724706 0.119998954 -0.048420142 -0.07866737 0.01275777 0.11788189 -0.014505462
-0.06908278 0.017786698 -0.09202344 -0.027870446 -0.11099868 0.030103307 -0.011452983 -0.03187477
0.049813937 0.007935109 0.008688907 -0.062216617 -0.04790656 0.06325515 0.052422035 0.094647326
0.087289065 -0.00069611263 0.09186733 -0.060176305 -0.035304885 -0.04893763 -0.028624898 -0.024510693
-0.06996929 0.1167019 -0.08058705 0.02948966 0.010172882 -0.052999213 0.069658525 -0.008801923
0.078373305 -0.07305028 -0.106593676 -0.03927569 -0.042788174 -0.0019790875 -0.027420849 -0.035031583
-0.097645715 -0.06428592 -0.06874452 0.056888457 0.040945247 -0.08212246 0.0031259211 0.005229425
0.040314924 0.003277456 0.05356677 -0.017027447 0.030788234 -0.0823942 0.013170292 -0.064907916
-0.03553701 0.020036122 0.0015369076 0.04522215 0.11344556 0.102201685 -0.061275247 -0.038765494
0.014456622 0.0827759 0.1088116 -0.079181895 -0.016688177 0.014086065 -0.0037918573 0.036651794
-0.028035518 0.048573464 0.09458939 0.08546769 0.06713039 0.08254838 -0.057143755 -0.116081536
0.09975464 0.00919658 -0.0045622354 -0.013532002 0.04501086 0.04832758 -0.108434945 0.0042138062
-0.066258274 0.042589415 -0.021798806 0.11619525 0.049353678 0.06560294 0.071883105 -0.041441925
0.07275007 0.108074605 0.059616808 0.07624116 0.009685308 -0.100528196 -0.06686255 -0.0122540295
0.10630167 -0.046270903 -0.07712224 0.13698217 0.13213174 0.01771345 0.035204053 0.083976135
-0.108468026 -0.042071015 0.08483166 -0.03936571 -0.050460216 0.07978935 0.043631848 -0.004458175
00000000: 2f4c aa3d 8f6d 493d 7aca 96bd 7502 733d
00000010: fce0 b53d ee88 2dbd 8d5a 5ebd 07f0 a8bd
00000020: 162a df3d b488 ed3d 303a c03c f64e 32bd
00000030: 7831 293c d710 6dbd 3c03 eabd 2305 aebd
00000040: 1c96 623c 7e81 053e 3482 b33d c24d 883d
00000050: f247 e1bd d403 00be b82f f93d e472 cbbc
00000060: e98d c0bd ba7a 5fbd 29bb 833d d0bf d8bd
00000070: 1b53 4bbc ec6b 9cbd f87e 9dbd 8e2b e7ba
00000080: 6dae 2e3d 5eef bc3d c884 b03d 0e2e b3bc
00000090: f3d9 aabd 0374 933c 3dd9 b43d 4614 c03d
000000a0: b79f a3bd 29a9 a0bd 49cb 04bd 855b b6bb
000000b0: 496c a03d 7911 613b f5a6 2b3d 7a02 75bd
000000c0: 36e7 cb3b 5c6d 5dbd 98c6 b93d 10f4 213d
000000d0: a4bd aebb 7900 9dbd ec87 73bd 3f61 8b3d
000000e0: ee3b a03d 6c4f 213c 439e 4e3d 1586 ac3c
000000f0: 274d 733d b6bd b4bd 3aba 59bd 8ae0 0fbd
00000100: 2a4a 9bbd cdf5 953b 67e7 df3d 5133 5ebd
00000110: 7b70 913d bb22 37bd 2d4e da3c 9c2a 3abd
00000120: 788b 973d 79c2 6fbd 209b cd3d 21f4 e4bd
00000130: fbca dfbc 88be e7bd fd69 1cbd 9726 a9bd
00000140: a906 043e 168c 56bd 4a5e 87bd aed7 bd3d
00000150: 0ede 1b3d cef3 b83d 8fbb 393d 06db a23d
00000160: 0586 c6bb d031 343d 6f0d 063d 8da3 e13d
00000170: 8614 aebd 52c5 ca3c 4c62 be3d 7fbd dbbd
00000180: c002 47bd 5a33 a3bc a311 863d b79f ce3d
00000190: cd41 8fbd d203 693b f943 b23d dc6e e13d
000001a0: 3e8b 703c 879e 48bd 3cf4 82bd 10a7 e1bd
000001b0: f9e9 b63d 56b9 7c3d d048 26bc 0623 d83d
000001c0: 211c 8a3c 184e c0bc 7783 d4bd edcf ec3c
000001d0: a2f5 83bb 4b52 c93c c169 a7bc d0a8 d33c
000001e0: e708 aa3d 00e4 b9bd fc23 a9bd af7d 30bd
000001f0: 672b 803d 6e90 5c3d 409b 373c f22e 91bc
00000200: 8e45 ce3d 6090 18bd 03c2 f53d 3354 46bd
00000210: 5c1c a1bd f705 513c 0f6c f13d 51a8 6dbc
00000220: 467b 8dbd 69b5 913c c976 bcbd 9050 e4bc
00000230: 4753 e3bd 369b f63c 4ba5 3bbc 1e8f 02bd
00000240: b309 4c3d 4202 023c eb5b 0e3c dad6 7ebd
00000250: ab39 44bd eb8b 813d 7db8 563d 75d6 c13d
00000260: 9cc4 b23d 547b 36ba f024 bc3d 6e7b 76bd
00000270: db9b 10bd d372 48bd c37e eabc a6ca c8bc
00000280: 0f4c 8fbd 6801 ef3d d30a a5bd 4d94 f13c
00000290: 29ac 263c b415 59bd 21a9 8e3d f135 10bc
000002a0: 2f82 a03d 639b 95bd c94d dabd 8cdf 20bd
000002b0: a742 2fbd 94b3 01bb b0a1 e0bc 477d 0fbd
000002c0: 7afa c7bd 56a8 83bd edc9 8cbd df03 693d
000002d0: 34b6 273d d22f a8bd 41dc 4c3b 995b ab3b
000002e0: 4321 253d 96ca 563b d468 5b3d 257d 8bbc
000002f0: 9b37 fc3c 4abe a8bd 35c8 573c 71ee 84bd
00000300: 418f 11bd cb22 a43c 1072 c93a dc3a 393d
00000310: 2556 e83d 1e4f d13d c1fb 7abd 91c8 1ebd
00000320: 78db 6c3c 6986 a93d 9ed8 de3d 1e2a a2bd
00000330: a5b5 88bc 3dc9 663c cf80 78bb 3120 163d
00000340: beaa e5bc f8f4 463d 15b8 c13d af09 af3d
00000350: a87b 893d 200f a93d 920f 6abd 28bc edbd
00000360: 294c cc3d 41ad 163c ce7e 95bb 55b5 5dbc
00000370: 4f5d 383d 24f3 453d 2413 debd f813 8a3b
00000380: 6bb2 87bd 3d72 2e3d 6993 b2bc c6f7 ed3d
00000390: 1527 4a3d d65a 863d 7337 933d 02bf 29bd
000003a0: fdfd 943d 3856 dd3d c130 743d 5324 9c3d
000003b0: 20af 1e3c bae1 cdbd 3cef 88bd 20c5 48bc
000003c0: b1b4 d93d 8f86 3dbd 44f2 9dbd 0e45 0c3e
000003d0: 8b4d 073e cc1b 913c 2032 103d aefb ab3d
000003e0: 7c24 debd a852 2cbd 39bc ad3d f03d 21bd
000003f0: 5faf 4ebd 9968 a33d 4fb7 323d e215 92bb
