weights/8-21-yfp-1_split_0.pt (torch, 473578 bytes, 26 tensors)

conv1.bias f4 [64]
000000 c3 05 18 b8 21 4a da b7 27 4e 21 ba f2 85 da b9
       -3.624499e-05 -2.6022144e-05 -0.0006153308 -0.00041679997
000010 9c b4 8b b9 69 9e 86 39 0d 97 17 b9 26 5e 7c 3a
       -0.0002664671 0.00025676496 -0.00014456753 0.00096270663
000020 e5 2b 4a ba cf 2b 44 ba 0b b1 3f 3a 67 b8 c4 b9
       -0.0007712229 -0.00074833346 0.0007312453 -0.00037521424
000030 08 b5 72 ba 5c 25 40 b9 8b 25 7b ba 35 b2 cf b9
       -0.0009258543 -0.00018324464 -0.00095804845 -0.0003961489
000040 40 b3 0a ba 77 37 4b 3a 87 19 42 b8 3f 38 b9 b9
       -0.00052909926 0.00077521004 -4.627698e-05 -0.00035327856
000050 91 79 2f ba e5 03 c1 39 bf cf 2c ba 79 9e c7 b8
       -0.0006693835 0.0003681473 -0.0006592236 -9.518577e-05
000060 a2 d7 08 ba c1 ab 65 3a 84 81 3e 3a 00 2b 69 ba
       -0.000522012 0.000876125 0.0007267224 -0.0008894652
000070 e5 0e 01 b8 0b 32 1c 3a ef 10 27 3a 32 2c 43 3a
       -3.076987e-05 0.0005958385 0.0006373068 0.0007445245
000080 5f 67 67 b9 ec 92 55 3a 15 9b c2 37 68 53 82 39
       -0.00022068385 0.0008147198 2.3198818e-05 0.00024857675
000090 3e 84 1d 3a 26 d1 47 ba 2b c8 52 3a 1b 27 08 ba
       0.00060087803 -0.0007622413 0.00080406916 -0.00051938155
0000a0 da 4f 39 ba 30 9c 50 3a 0c 56 4c ba 38 d3 df b9
       -0.0007069089 0.0007957844 -0.00077948044 -0.00042691245
0000b0 7a 4f 33 ba 65 c9 15 b9 b1 28 44 ba 1a da 5f b9
       -0.0006840151 -0.00014284773 -0.000748287 -0.00021348186
0000c0 a1 37 9b ba 20 17 7f 3a 3a 72 7f ba 18 1e 44 ba
       -0.001184214 0.0009730924 -0.0009744499 -0.0007481291
0000d0 c6 df 3e ba 7a de 00 3a 50 42 57 39 da d6 a8 38
       -0.00072812696 0.0004915964 0.00020528701 8.0508835e-05
0000e0 58 a5 1f 39 00 fd 51 3a 34 9b 08 39 96 b7 32 ba
       0.00015225017 0.0008010417 0.00013027788 -0.00068175176
0000f0 b1 3a 77 3a 12 46 4e ba 17 26 cb 39 a4 ea c9 39
       0.0009431048 -0.00078687177 0.00038747556 0.00038512528

conv1.lin.weight f4 [64, 2]
000000 ea a5 31 be d4 b8 ed bd ea be 58 bc 7d 21 48 3e
       -0.17348447 -0.11607519 -0.013229111 0.19544025
000010 6e f8 92 3d a9 dd 2b 3b e1 20 a9 bd 19 1b e7 3b
       0.071762905 0.002622465 -0.08258224 0.007052791
000020 03 8b ec bc 67 ee d3 bd 3f 27 21 3e bb 41 72 3e
       -0.02887488 -0.10348206 0.15737627 0.23657887
000030 cc 63 8d 3c 73 e0 32 3e a5 25 a8 bd 14 1c 57 3e
       0.0172595 0.17468433 -0.08210305 0.21006805
000040 4e ef c9 3d dd 1c 3f bd ba 47 15 3d b9 09 2d 3e
       0.09860097 -0.046658386 0.036445357 0.1689824
000050 46 7c db bd 29 2a b6 3d 05 5f 05 3d 48 0b 33 be
       -0.10717063 0.0889476 0.03256132 -0.17484772
000060 24 56 fc bc 8a be e2 bc 57 af 1d 3e ce 92 cd 3c
       -0.030802794 -0.027678747 0.15398918 0.025094416
000070 f0 39 d0 bd bb fc 02 be 14 47 5d 3e df aa 52 3e
       -0.10167301 -0.12791722 0.21609145 0.20572995
000080 a7 63 4d be dd 55 30 bc 7d 25 88 3d 14 0a 80 be
       -0.20057546 -0.010762659 0.06647775 -0.2500769
000090 37 8a dd 3c 5a 8d 9c 3e 11 6c 95 bd ea 9c 94 3e
       0.027043445 0.30576593 -0.07296003 0.29025966
0000a0 07 b0 89 3e ab 33 ae 3d e4 6a 84 be 2e ce c4 3d
       0.2689211 0.08505949 -0.258628 0.09609638
0000b0 15 70 37 be 6b 3e 2b be 28 35 6d 3e c0 62 76 3c
       -0.1791385 -0.1672303 0.23164809 0.015038192
0000c0 76 46 5c 3e 62 24 7a 3d 56 a1 fd bd b8 ae ba bd
       0.21511254 0.061069854 -0.12384288 -0.09115356
0000d0 d9 74 31 3e d9 b6 04 3e f6 b8 2f be 47 88 e1 bd
       0.1732973 0.12960376 -0.17160401 -0.11012321
0000e0 09 69 dd 3d 00 ff 67 be ea dc d3 3c e7 f1 18 bd
       0.108110495 -0.22655869 0.025862176 -0.03734007
0000f0 fc a0 da bd ae 70 80 be 36 46 85 be 48 e2 12 3e
       -0.106752366 -0.25085968 -0.2603013 0.14344132
000100 64 52 11 3e ef 96 1b 3e f4 38 a2 3e 6a 9e d6 bd
       0.14191586 0.15194295 0.31684077 -0.10479434
000110 de 59 74 be 78 c4 57 3e b0 32 20 3e 69 3f 17 3e
       -0.23862407 0.2107104 0.15644336 0.14770283
000120 6b 1d 2e bb 31 da 66 3d c8 c2 95 3d a4 02 9d bc
       -0.0026567827 0.056360427 0.07312542 -0.019166298
000130 08 45 37 3e d3 95 5f 3e 7f 9c 85 be 6d 4f 97 3e
       0.17897427 0.21834497 -0.2609596 0.29552785
000140 f9 20 7e be d7 3c 92 3e fe 9f 16 3e 5a fe 50 3a
       -0.24817266 0.28562042 0.1470947 0.00079724716
000150 66 1d 45 be 38 54 3c be f2 f2 4c 3d ae 3e 69 3e
       -0.19249496 -0.18391502 0.05003638 0.22777817
000160 4d 7d e3 bd 78 dd 88 3e b8 09 82 be b2 d5 7d 3e
       -0.111078836 0.26731467 -0.2539804 0.2478855
000170 03 56 9e 3e 40 b4 9f 3d 63 73 ed bc 2a d8 15 be
       0.30924997 0.07798052 -0.028985685 -0.14633241
000180 d8 47 d2 bc 95 5a fb 3b f4 51 76 3d 06 0e 92 3d
       -0.025669023 0.0076707103 0.06013675 0.07131581
000190 1e 33 68 3e 5b 06 a0 3c ad ed 25 3e 5f e0 8f 3a
       0.2267575 0.01953428 0.16203947 0.0010976902
0001a0 4b bc 28 be d1 fc 6c 3e cb b1 3b bd c7 c3 cd 3d
       -0.16478078 0.23143317 -0.045823853 0.10047107
0001b0 fc 36 88 3e ab d6 2b bd 3c 60 c0 bb f7 79 2b be
       0.2660445 -0.04195277 -0.005870847 -0.16745745
0001c0 75 6e 2c be 60 7c 48 3e fc 81 14 be a7 34 89 3e
       -0.16839011 0.19578695 -0.1450271 0.26797983
0001d0 fc a9 61 3e 5c b9 44 3d fc fb 78 3e 3d 7b 19 3d
       0.220375 0.048028335 0.24314874 0.037471045
0001e0 9d 1f 05 bd df 84 82 3e 6b 73 ff bd 11 2e 8f be
       -0.032500852 0.25491998 -0.12473186 -0.27964833
0001f0 3a 9e 36 3e b4 79 17 be 26 e1 80 be 34 80 33 3e
       0.17833796 -0.1479252 -0.25171775 0.17529374

conv2.bias f4 [64]
000000 01 cd b9 bc 32 b6 b5 3c 5c e4 be 3c 61 d9 b2 3c
       -0.022680761 0.022181604 0.02330225 0.02183217
000010 a8 55 bf 3c 53 3a 3c 3c f3 2f b0 3c e5 ec b9 bc
       0.023356274 0.011488515 0.021507239 -0.022695968
000020 71 b3 c0 3c e5 ec b7 3c b1 ad b9 bc 3f 2f b0 bc
       0.023523064 0.022451827 -0.02266583 -0.021506904
000030 d9 2e d4 bc 71 15 f6 3c 62 65 d2 3c 9e 06 0b bc
       -0.025901245 0.030039521 0.025683109 -0.008485464
000040 9e 3e a6 36 bf d4 17 3c 4f 68 cd 3c 1f 1a 15 bd
       4.954475e-06 0.009267031 0.025074152 -0.036401864
000050 f2 5b a0 bb d8 36 ca bb 74 db 05 3d 74 98 be 3c
       -0.0048937732 -0.0061710887 0.03267999 0.023266055
000060 d5 0c cc bc 29 88 fa 3c c4 f9 b4 3c 67 6f bd bc
       -0.024908463 0.030582504 0.022091754 -0.02312441
000070 b8 2a e1 bc f7 84 a5 3c ec 2e c8 bc 03 72 ae 3c
       -0.02748619 0.020205004 -0.024436437 0.0212946
000080 32 da c0 bc 0e 74 97 3c 1c c8 c1 3c 19 99 b4 3c
       -0.023541544 0.018487956 0.02365499 0.022045659
000090 d1 2c c9 bc 36 65 53 3a f3 08 c6 3c e0 66 c7 bc
       -0.024557503 0.0008064093 0.02417419 -0.024341047
0000a0 c8 cc 9f 3c 84 4d c2 bc 3d 5d aa 3c 9b 61 9c bc
       0.019506827 -0.023718603 0.020796413 -0.01908951
0000b0 a6 44 10 bd 04 c8 bf bc d4 c1 c1 bc eb 2a a5 3c
       -0.03522172 -0.023410805 -0.023651995 0.020162066
0000c0 54 a0 c2 bc 22 f4 b0 3c ce 73 c2 3c 91 ad b5 3c
       -0.023758091 0.021600787 0.02373686 0.02217749
0000d0 d9 d7 d8 3c 54 72 83 bc c3 77 b5 bc d9 f6 b6 bc
       0.026470112 -0.016045727 -0.022151833 -0.022334503
0000e0 e4 94 37 3c 9d 05 a8 bc ad 76 78 3c 64 83 bc 3c
       0.011204932 -0.02051049 0.015165013 0.02301187
0000f0 2a f2 f8 3c 26 6c c8 bc 89 cf a6 3c e2 0d 0a bd
       0.03038891 -0.024465632 0.020362632 -0.033704646

conv2.lin.weight f4 [64, 64]
000000 10 7b 83 3d 00 10 27 bd 28 f6 28 be 4d 77 41 bd
       0.06419957 -0.040786743 -0.16500151 -0.047232915
000010 00 09 ff bc fd e4 0b 3d c3 da ff 3d c5 66 04 bd
       -0.031132221 0.034153927 0.12492897 -0.03232457
000020 40 53 80 bd a0 00 a9 bd ad e3 82 bd 14 df d4 bd
       -0.06265879 -0.08252072 -0.06391082 -0.10394111
000030 8f 84 09 be 5e 18 43 bd 93 15 59 3d 22 e3 54 be
       -0.13429473 -0.04763066 0.05299909 -0.2078977
000040 b9 ff 32 3e f3 39 38 3e bc 6e 10 3e 2f 51 19 bd
       0.17480363 0.17990856 0.14104742 -0.03743094
000050 a9 8e 6b be 40 e0 a5 3d 61 fd 17 be 8a 01 1c 3e
       -0.2300364 0.08099413 -0.1484275 0.15234962
000060 0f 6d 40 3e 88 77 27 be 27 1d 1b be 9d 4e 37 be
       0.18791603 -0.16354191 -0.1514784 -0.17901082
000070 b4 9f b2 bd cc c3 fa 3b 9c 1c c8 bd 50 af ce bd
       -0.08721867 0.0076527353 -0.09771082 -0.10092032
000080 42 d5 11 3a 20 9e cb 3d 1b a9 8c bd 8d 0d c0 bd
       0.0005563089 0.09942269 -0.06868192 -0.093775846
000090 d3 7e 75 3d 80 e4 60 be 5f 44 3f 3d fe a9 e2 3d
       0.059935402 -0.21962166 0.046696063 0.1106758
0000a0 f3 46 c9 3d 12 ad ad bd 62 a2 65 3e 04 89 1c bd
       0.098279856 -0.08480276 0.22425225 -0.038216606
0000b0 46 1f 78 3e f5 2b e6 bd a2 51 1c bd 8f 05 17 3e
       0.2423068 -0.11238853 -0.03816379 0.14748214
0000c0 57 62 50 3e 98 87 06 be ab b4 9f 3d 83 73 99 3d
       0.20350014 -0.13137662 0.077981316 0.07492735
0000d0 94 36 90 bd 68 0f fd 3c ac f1 00 3e b6 7b 88 3d
       -0.0704166 0.030891135 0.1259219 0.06664221
0000e0 67 b0 38 be d0 5e 9f bd 4c e4 f3 3d b6 3c 3a 3e
       -0.18036042 -0.07781756 0.119087785 0.18187222
0000f0 6a a6 60 bc 39 af fe 3d b8 ed 3e be 3f ff f0 bd
       -0.013711551 0.12435765 -0.1864537 -0.11767434
000100 dc cb e3 bd 65 e3 90 3d 5a 63 49 3e 65 ab 3c be
       -0.111228675 0.07074622 0.19666806 -0.18424757
000110 81 f7 c6 bd 55 ed ea bd c1 b4 f5 3d 5e ee 27 be
       -0.097151764 -0.11471049 0.11997367 -0.16399524
000120 11 c3 43 be f5 7e cb 3d a3 50 72 bd f2 83 2a bd
       -0.1911738 0.099363245 -0.059158932 -0.04162974
000130 09 63 94 bd b0 a4 00 bd 89 5e 00 3e 91 28 97 bd
       -0.07245452 -0.03140706 0.12536062 -0.07380784
000140 6b e3 2e be 6f 17 b6 bd 65 e2 84 bd 49 a3 1a 3e
       -0.1707894 -0.08891188 -0.06488494 0.15101351
000150 53 44 da bd ef 3d 49 3e b8 68 0f be cd 4e 64 3e
       -0.10657563 0.19652532 -0.14004791 0.22295685
000160 e8 cc 3d be f8 59 20 be eb 9d e3 3d 48 0d 47 be
       -0.18535197 -0.1565932 0.11114105 -0.1943866
000170 e6 22 bc bd d5 43 ee ba 56 37 52 3e 82 fd ca 3a
       -0.09186344 -0.0018178175 0.20528921 0.0015486928
000180 6e 2d 37 3e 6d 9b 98 3d 98 5c 72 bd 42 93 6a 3d
       0.17888424 0.0745152 -0.059170336 0.057269342
000190 0f 82 1a be 63 23 48 3e eb 92 2a 3e 87 17 5b 3e
       -0.15088676 0.19544749 0.16657607 0.21395694
0001a0 36 7b f4 3d 46 50 09 be 70 28 64 be 9a ea 90 3d
       0.11937563 -0.13409528 -0.2228105 0.07075997
0001b0 e1 18 05 bc 8a cc 7a bc 56 a8 d7 3c b5 47 26 3e
       -0.008123607 -0.015307555 0.026325386 0.16238292
0001c0 cf c7 93 3d 34 a2 59 3e 57 62 4d 3e c1 62 23 be
       0.07215845 0.21253282 0.20057045 -0.1595564
0001d0 5e a3 3b 3d bb 8a 5b 3e f8 de 82 3d 3c 20 fb 3d
       0.045810096 0.2143964 0.06390184 0.122620076
0001e0 d1 9d 8f bc b4 a7 f5 3d 9f d7 97 bd 69 c0 00 3e
       -0.017531307 0.119948775 -0.07414173 0.12573399
0001f0 8e e5 63 3e dd f6 86 bc f1 fc fb 3d 53 ff 2f be
       0.22255537 -0.016475135 0.12304104 -0.17187242
000200 80 fb 06 3e 69 b5 ea bc 15 ea f8 3d ce a5 f9 3d
       0.13181877 -0.028650956 0.121540226 0.12189828
000210 18 ad 2c 3e b1 9d 02 be a2 70 7f 3c a1 a2 13 be
       0.16862905 -0.12755467 0.015590819 -0.14417507
000220 49 8c 71 3e aa 5a 4c 3d 88 27 55 be b7 75 05 3e
       0.23588671 0.04989115 -0.20815861 0.13033186
000230 0b 1d c6 bd e5 71 21 3e 19 7e e6 3d 9d 02 46 3e
       -0.09673508 0.15766104 0.1125452 0.19336934
000240 b1 7f b6 3d d9 39 cb bb 3d cf 71 bc d0 10 22 3e
       0.08911074 -0.0062019643 -0.014758882 0.15826726
000250 97 0a 06 be e8 e0 f8 bc 17 75 09 bb 06 1e ea 3d
       -0.13089977 -0.030380681 -0.0020974332 0.11431508
000260 b0 98 44 3e 83 3d 39 be 84 4b 54 3e 8c 92 4b 3e
       0.1919887 -0.18089871 0.20731932 0.19880122
000270 50 89 49 3e f8 95 4c bc 5f 44 95 bd 43 a7 1e be
       0.19681287 -0.012486927 -0.072884314 -0.15493493
000280 3d 06 02 be 62 79 1b 3e be 62 59 be 7d 20 c0 b9
       -0.12697692 0.15183023 -0.21229073 -0.000366453
000290 74 e0 16 be a4 ec 02 3e 97 70 3c be 78 63 14 3e
       -0.1473406 0.12785584 -0.18402325 0.1449107
0002a0 5c aa 81 bc fc 54 21 3e ec 16 91 3d 65 25 3d bd
       -0.015828304 0.15755075 0.0708445 -0.04617824
0002b0 37 1e 17 be fb 65 9a 3d 24 26 59 3e 13 3b 79 bd
       -0.1475762 0.075389825 0.21205956 -0.060847353
0002c0 53 b1 dc 3d c5 ed 00 3e 2f dd 2a be 9a db 00 be
       0.107760094 0.12590702 -0.16685937 -0.12583771
0002d0 09 5d b2 3d b2 2a 1b be 1e a9 bb 3d 39 f2 71 bd
       0.08709151 -0.15153006 0.09163116 -0.059068892
0002e0 29 5e 67 ba 04 b0 e1 bd 71 64 de 3a ab 52 33 be
       -0.00088259816 -0.110199004 0.001696719 -0.17512004
0002f0 40 ca 1c bd c9 66 cf bd d1 dc 1d be a5 5d 9b 3d
       -0.038278818 -0.101270266 -0.15416266 0.07586221
000300 ae 8d b8 3d 14 66 02 be 86 24 5a be 6c 7b 1d 3e
       0.09011398 -0.12734252 -0.21302995 0.15379113
000310 a7 f9 83 3d df 74 84 bd 4b ea d7 3d aa 81 14 bd
       0.06444102 -0.06467604 0.10542735 -0.03625647
000320 cb 47 ca bd fa 69 c0 3d 9f 9b 58 bc c8 86 53 be
       -0.09876975 0.093952134 -0.013220697 -0.20656884
000330 7f 36 03 be d9 c3 b7 bc a6 d4 42 bd 91 bd 26 3d
       -0.12813757 -0.022432255 -0.04756608 0.04070813
000340 f3 7b f5 3c 1c f5 22 be 0a 44 19 3e 0a 70 2d 3e
       0.02996633 -0.15913814 0.14967361 0.16937271
000350 36 89 4f 3d 23 00 04 bd be 5a 21 3e 2b 41 99 bd
       0.050667964 -0.032226693 0.15757272 -0.07483133
000360 fd 55 ea bc 66 ba dc 3c c8 e2 5c 3e 73 8b ee bd
       -0.028605456 0.02694435 0.21570885 -0.116476916
000370 02 c1 42 bd f8 a0 2e be 7c 38 18 3e 12 bc 3b be
       -0.047547348 -0.17053592 0.14865297 -0.18333462
000380 37 34 da 3d b1 ca df bd 48 c4 23 3e 47 b5 18 3e
       0.106544904 -0.10927332 0.15992844 0.14912902
000390 86 68 43 be 53 27 59 3d 5f 75 44 3e 9c d4 24 3e
       -0.19082841 0.053016018 0.19185399 0.16096729
0003a0 54 fe 1d 3e 76 8e 37 bd 80 dd 72 be 28 8f 74 bc
       0.1542905 -0.044813596 -0.23717308 -0.014926709
0003b0 64 76 16 3d ed 64 31 3c 7b 2f f0 bd 0b aa 61 be
       0.036734 0.010827285 -0.11727806 -0.22037522
0003c0 db 3d 03 3e 7a dd f1 bd 8e d2 5c be 2e ba ae 3c
       0.12816565 -0.118098214 -0.21564695 0.021329012
0003d0 ef e4 32 3e b5 64 48 3e 52 17 f6 3c e3 2d 0e be
       0.17470144 0.19569667 0.030040417 -0.13884692
0003e0 96 c1 62 3d ef f0 5c 3e 49 14 0f be 42 61 44 be
       0.0553604 0.21576284 -0.13972582 -0.19177726
0003f0 df cb 11 bc 07 13 09 3c dc 7b 14 3e de 6a 0b 3d
       -0.008898704 0.008366353 0.14500374 0.034037463

conv3.bias f4 [128]
000000 37 fb 88 ba da 90 a4 3a 05 23 25 3a 31 94 22 ba
       -0.0010450844 0.0012555376 0.0006299469 -0.0006201892
000010 f4 56 89 3a b4 e9 cc b9 c4 87 04 b9 55 b4 89 ba
       0.0010478185 -0.00039084035 -0.00012639078 -0.0010506014
000020 b6 5e 85 3a 7f 88 c1 39 43 bf 96 ba a3 e8 6f 3a
       0.0010175321 0.00036913526 -0.0011501092 0.0009151792
000030 53 77 32 ba b8 03 0d b9 27 69 76 3a 7e da 9c ba
       -0.0006807942 -0.00013448193 0.0009399824 -0.0011966971
000040 9b d2 90 ba 73 29 1d ba 90 1f 85 3a 36 e6 55 3a
       -0.0011049093 -0.0005995251 0.0010156501 0.0008159609
000050 f6 c0 72 3a f6 3b 45 38 2d 80 1b 3a c0 f6 08 b8
       0.0009260321 4.7024303e-05 0.00059318804 -3.265473e-05
000060 73 bd 67 ba 04 68 23 bb 04 67 a2 ba 38 ad 7e 3a
       -0.0008840181 -0.0024933824 -0.001239032 0.00097151427
000070 8a 53 9f 3a fe a3 1d bb 24 40 3c ba 30 26 08 ba
       0.0012155634 -0.0024054046 -0.00071811886 -0.00051936787
000080 a2 5f c9 b9 40 d8 4e 3a be 9b 43 ba 29 37 a4 ba
       -0.0003840896 0.00078905 -0.0007461867 -0.0012528646
000090 cb 12 1f b9 ee 27 7f ba dc 39 1f 3a ab e4 9c 3a
       -0.00015170423 -0.0009733428 0.00060739904 0.0011970004
0000a0 6d 37 35 ba b0 dc 95 ba 6a f3 69 3a 78 0b 7f 3a
       -0.0006912861 -0.0011433568 0.0008924516 0.0009729187
0000b0 ce c5 e0 b9 92 db 42 3a 13 0a 47 3a 37 30 11 b9
       -0.00042871985 0.0007433231 0.0007592749 -0.00013846239
0000c0 ac 95 63 ba 2b a0 a1 ba c2 a9 00 3a 05 0c 6b ba
       -0.00086816656 -0.0012331059 0.00049081084 -0.00089663296
0000d0 df 94 8f 3a 2b 8b fb b9 f8 82 4f 3a af 18 6d 3a
       0.0010954401 -0.0004797814 0.0007915939 0.00090445107
0000e0 b5 1c 18 ba 3a 77 78 3a 2d 62 38 3a 52 8b a4 b8
       -0.00058026175 0.00094782154 0.00070336723 -7.84608e-05
0000f0 58 e3 29 b8 28 e4 77 3a 25 d2 5b 3a 81 81 61 ba
       -4.050447e-05 0.00094563 0.0008385501 -0.00086023664
000100 63 1d 89 3a 94 ea 4e ba 2d ef 44 3a 8d 03 80 3a
       0.0010461028 -0.0007893231 0.00075124466 0.0009766683
000110 5b 1a 94 3a 77 32 15 ba 21 29 9a 3a 37 36 d9 39
       0.0011299358 -0.0005691419 0.0011761525 0.00041429859
000120 26 e9 ac b9 38 df 57 ba e3 6f 53 3a f9 1c 0e ba
       -0.00032980106 -0.00082348613 0.00080656837 -0.00054211874
000130 71 c2 64 ba af 30 9a ba 07 42 09 ba cf 7d 98 ba
       -0.0008726484 -0.0011763776 -0.0005235974 -0.0011634174
000140 f2 a6 0a b9 ee 4f e6 ba 35 bc 28 3a 08 f8 25 3a
       -0.00013222898 -0.0017571428 0.00064367364 0.000633121
000150 13 f9 74 39 48 f2 98 3a ba a0 4c 3a bd bc 7d ba
       0.0002336244 0.0011668885 0.00078059325 -0.0009679308
000160 4b 41 4e 3a e8 e8 6c ba cc 5c d7 39 cb ac 48 ba
       0.0007868006 -0.0009037391 0.00041077135 -0.00076551427
000170 17 05 50 38 3d a3 32 ba bb e9 c7 b8 30 07 36 3a
       4.9595805e-05 -0.00068144855 -9.532595e-05 0.000694382
000180 7c 87 41 b9 a2 8b 81 ba 60 a3 a4 ba cf 89 32 ba
       -0.00018456386 -0.0009883533 -0.0012560897 -0.0006810696
000190 a6 95 95 ba 97 42 a1 39 ed 6e 1e 39 56 4b a2 3a
       -0.0011412397 0.00030757926 0.00015109377 0.0012382071
0001a0 ea 4a 3a ba 73 54 3f ba d2 ab a1 3a 57 29 e4 ba
       -0.00071065 -0.00072986557 0.0012334532 -0.001740734
0001b0 57 4e 69 ba 34 7d 90 3a 12 1b 13 3b 03 7f 05 3a
       -0.0008899918 0.0011023642 0.0022446555 0.00050924736
0001c0 3b 94 25 3a 67 07 08 b9 f4 0f 94 3a b1 d6 49 ba
       0.00063163385 -0.00012972728 0.0011296258 -0.0007699533
0001d0 17 4a 8a 3a 0d 09 23 bb 47 29 9a 3a 42 8f 7e 3a
       0.0010550645 -0.002487722 0.0011761569 0.0009710678
0001e0 d8 50 a4 ba ec e7 59 3a a8 56 9f 3a 61 09 60 ba
       -0.00125363 0.0008312452 0.0012156563 -0.00085463194
0001f0 68 64 83 3a f0 7c 68 ba e8 0a de 38 63 f1 15 3a
       0.001002443 -0.0008868715 0.00010587816 0.00057198683

conv3.lin.weight f4 [128, 64]
000000 70 1b 60 bd d4 28 46 be 8b b8 8b bd 79 31 3b be
       -0.054713666 -0.19351512 -0.06822308 -0.18280591
000010 36 09 24 3d 4c c3 3c 3e d7 28 0a 3e 93 13 0b be
       0.040047847 0.18433875 0.13492142 -0.13581686
000020 15 27 b5 bd dc 6d f9 bd 49 89 c4 bd a7 2a ba bd
       -0.08845345 -0.12179157 -0.095964976 -0.090901665
000030 7c 40 00 3e 07 34 31 3e 7b 1b 5c bd 6a a6 18 be
       0.12524599 0.17305003 -0.053737145 -0.14907232
000040 2c 0d 4a 3d 78 4e 67 3d 14 31 66 bd ba 48 12 be
       0.049328968 0.056471318 -0.05619915 -0.14285555
000050 db a0 a9 3c 2c ea bb bd 86 ec 85 3d 1d aa 78 3d
       0.020706585 -0.09175524 0.06539254 0.060709108
000060 21 b9 85 3d 0b f8 0b be 57 3c 43 3d 94 79 c4 3c
       0.06529451 -0.1366884 0.047664966 0.023983754
000070 2f 3e 92 bd aa ec 32 be d1 00 88 3d cd 14 59 3d
       -0.07140767 -0.17473093 0.06640781 0.052998353
000080 1f 9f 89 bd 30 2c db bc 37 51 a1 bc fe 46 52 3c
       -0.06719803 -0.026754469 -0.019692047 0.012834309
000090 c5 41 f8 3d 94 17 17 bd 3b cc 1f 3e 30 e5 9d 3c
       0.121219195 -0.03688772 0.15605251 0.019274324
0000a0 ec 4c b4 3c 2b 93 2b be 33 ac 2d 3e 51 03 99 3b
       0.022009335 -0.16755359 0.1696022 0.004669585
0000b0 93 1c f4 3d 26 8d cd 3c b9 3e 4f bd 7f 1b 92 3d
       0.119195126 0.025091719 -0.050596926 0.07134151
0000c0 1c 14 85 3d bd f6 0d be 84 cf 21 3d f7 ae 79 3d
       0.06497976 -0.13863654 0.039504543 0.060957875
0000d0 5d f9 6d 3d 03 6e 6f bc 0d fd b7 3d 66 d7 e5 bc
       0.05809914 -0.014613631 0.089838125 -0.028056812
0000e0 d4 12 c4 bc c2 57 b0 bd f5 c3 2e 3d 29 e6 19 be
       -0.02393476 -0.086104885 0.042667348 -0.15029205
0000f0 ef e5 39 be 1f 8d dd bd 1b 35 36 3e a0 5f 02 3d
       -0.18154119 -0.10817932 0.17793696 0.031829476
000100 ed 72 9f bd c4 88 20 be 5b 58 b3 3d 4c 3f 9f bd
       -0.07785592 -0.15677172 0.08757087 -0.07775745
000110 41 4e 8a 3c 31 6f 36 bd d9 90 ec bd 96 9f df 3d
       0.016883017 -0.044539634 -0.11551065 0.109191105
000120 88 8c d3 bd c4 a2 71 bc 4b d2 33 be 37 91 11 3d
       -0.103295386 -0.014748279 -0.17560689 0.03553888
000130 f7 02 0a 3d 3e 0b 91 3c 80 77 16 bd 82 05 fd 3d
       0.033694234 0.017705556 -0.036735058 0.12354566
000140 b6 93 59 bc cf 83 a0 bd 48 d5 21 be 79 3a 13 be
       -0.013279846 -0.078376405 -0.15804017 -0.14377774
000150 94 4e f1 3d ec 0d a5 bd 68 c2 fa bd 77 d7 2e 3d
       0.11782566 -0.08059296 -0.12244111 0.042685952
000160 96 48 a0 3b 02 f7 1f 3e 98 1f cc bd f6 f6 13 be
       0.0048914654 0.1562157 -0.099669635 -0.14449677
000170 d4 95 cd 3d 13 17 63 3c c9 ca fd 3c ab c3 44 bd
       0.10038343 0.013860482 0.030980485 -0.048038166
000180 02 6c 1f 3d 30 f1 e4 3b 47 e0 87 3d cc a5 24 be
       0.038921364 0.0069867596 0.066345744 -0.16078871
000190 31 33 d7 3d 39 7a 24 3e f9 5a 82 bd b9 53 e7 3d
       0.10507811 0.16062249 -0.06365008 0.11295266
0001a0 f6 de ed 3d 0d 80 b3 3d ed 51 b2 bd 61 2a 8d bc
       0.11614792 0.08764658 -0.08707032 -0.017232122
0001b0 a4 1a 13 bd 34 82 04 be 9f e7 1a be 1c 0b d6 bd
       -0.03591408 -0.12940294 -0.15127419 -0.10451338
0001c0 2d b7 69 3d 26 52 a7 3d dc ce 2b 3a 88 99 38 bd
       0.057059456 0.081699654 0.0006553957 -0.045068294
0001d0 f1 36 c6 3d 52 60 90 3d ad f7 d1 bd a5 b7 15 3d
       0.09678448 0.07049622 -0.102523185 0.03655209
0001e0 10 07 46 be a8 98 e8 3d bf 38 e3 bd 81 78 97 bd
       -0.19338632 0.11357242 -0.11094808 -0.07396031
0001f0 9f 7f 25 3d 72 1b 9b bd 28 70 0b 3e 61 33 2f 3d
       0.040404912 -0.07573594 0.13617003 0.042773608
000200 6a 07 18 3d 2a 04 f3 bc f4 39 0a 3e d9 3e e2 bd
       0.037116446 -0.029665072 0.1349867 -0.110471435
000210 69 f6 b8 bd 5a 15 a9 3d fd 7b 12 3e ce aa 54 bd
       -0.09031374 0.082560256 0.1430511 -0.051920705
000220 d7 30 64 3d d8 cf bd 3d c6 69 e5 3c e2 1e 18 bd
       0.05571064 0.09268159 0.028004538 -0.037138827
000230 cd 55 92 3a 08 c2 04 3e 25 72 94 3d f0 40 f5 3d
       0.0011164487 0.12964642 0.07248334 0.119752765
000240 ab 3d 12 be ae 4a 02 3d c6 04 d5 bd 75 f6 9b bd
       -0.14281337 0.0318095 -0.10401301 -0.07615367
000250 2f 61 66 bd 18 48 81 bd 93 21 cf bd c3 de 08 3e
       -0.056245025 -0.06312579 -0.10113826 0.13366227
000260 bc 99 44 be f7 50 7f 3d 1b ba a9 3d 97 ce 86 bc
       -0.1919927 0.062333073 0.0828745 -0.016455932
000270 3e 5c 6e bd 14 42 8e bd c0 a8 e6 3d 0c 54 91 bb
       -0.058193438 -0.06946197 0.11262655 -0.004435068
000280 97 93 97 3d 0e f0 a9 bc 8e 27 08 3d 64 01 35 3d
       0.074011974 -0.02074435 0.033240847 0.04419078
000290 6b 66 2f bd 48 b2 97 bd bb 0d 6a bc 85 72 02 bd
       -0.042822283 -0.07407051 -0.0142855 -0.031847496
0002a0 09 51 0a 3e cc e5 42 bd 12 b9 10 3e 33 8e b5 3d
       0.13507475 -0.047582433 0.14133099 0.08865013
0002b0 dc 27 1c 3e a9 d4 22 3e 07 ca 8e bc fb 7d 1b bd
       0.1524958 0.15901436 -0.017430319 -0.03796194
0002c0 7a 52 f7 3d 09 57 1e be 63 df bd 3c 5e f8 10 bd
       0.12076278 -0.15462889 0.023177808 -0.03539311
0002d0 e8 c1 f5 bd 80 18 5b bd 66 bd e7 bd f7 c2 05 3e
       -0.11999875 -0.053490162 -0.11315422 0.13062654
0002e0 f3 c2 14 be 34 83 b0 bd b7 fd 3a be b7 36 14 bc
       -0.14527492 -0.08618775 -0.18260847 -0.009046248
0002f0 91 89 23 3e 20 2e 65 3d af 0a 0d 3d 3d bc 9a 3d
       0.15970446 0.05595219 0.034434017 0.07555435
000300 ba 78 c6 bd d2 10 ff b7 30 30 49 bd 85 7a 36 bd
       -0.096909955 -3.0406201e-05 -0.04911822 -0.044550437
000310 4a 70 32 3d 84 5b ac 3d 34 db 06 3e 33 ff 13 3c
       0.04356412 0.08415893 0.13169557 0.009033012
000320 52 39 fd 3d 4f 7a 8e bd 48 99 ae bd e0 37 11 be
       0.123644486 -0.06956922 -0.0852533 -0.14181471
000330 cb a1 a6 bd 2b 3f 33 3c a8 86 a3 bd 7b b8 c2 bd
       -0.08136328 0.010940353 -0.07984668 -0.09507843
000340 62 58 a3 3d 2e 4d d6 3d 2e 1b e5 bd 84 27 ed 3c
       0.07975842 0.104639396 -0.11186825 0.028949507
000350 f4 ff e1 3d 74 c4 00 bd 0a f6 f1 bd cd e4 5b bd
       0.11035147 -0.031437352 -0.11814506 -0.053685
000360 6c 5c b3 3c 12 82 14 be 5e 7d 72 3d 58 fe 96 bd
       0.021894656 -0.14502743 0.05920159 -0.07372731
000370 db d2 05 3e 91 fc e4 3d 51 5b d4 bd 99 b4 1b be
       0.13068716 0.11180986 -0.1036898 -0.15205611
000380 5b ac 13 3e 3b b1 f0 3d fd 10 b9 3c 3b 44 86 bd
       0.14421217 0.11752554 0.022591108 -0.06555983
000390 2a 15 19 3e ca d4 3a be c7 53 ef 3d 26 30 1f 3e
       0.1494948 -0.18245235 0.11685901 0.15545711
0003a0 fd 0a 20 bc a8 c6 27 be 4d e8 de bd eb 97 90 3d
       -0.009768245 -0.16384375 -0.108841516 0.07060226
0003b0 e5 c7 3e 3e a3 cd 2b 3d ae 6a 10 be 48 49 1b be
       0.18630941 0.041944157 -0.14103195 -0.15164673
0003c0 fd 16 1c be 6a 72 09 3d 7c 8f 53 bd e3 ad 88 bd
       -0.15243144 0.03355638 -0.05165051 -0.06673791
0003d0 2b 48 a4 3d 0d f3 04 3d fb b7 b3 3d ac 9e 41 bc
       0.080215774 0.032458354 0.08775326 -0.0118176155
0003e0 7b 93 c1 bc 88 78 3f bd ea 05 fd bd d8 95 06 be
       -0.023629894 -0.046745807 -0.12354644 -0.13143098
0003f0 65 81 f6 3d 54 36 db bc b3 9c bc bd 12 f4 0e be
       0.12036399 -0.026759304 -0.092095755 -0.13960293

conv4.bias f4 [256]
000000 e2 31 ca bc 53 96 9c bc 02 80 c5 3c 78 c2 aa 3c
       -0.02468199 -0.019114649 0.02410889 0.020844683
000010 9b d9 df 3c 49 c6 b8 bc df 70 c4 bb d6 94 cc 3c
       0.027325442 -0.022555487 -0.0059949006 0.024973314
000020 b9 69 b7 3c e7 f7 cf bc 0f cc 00 3d 74 37 bf bc
       0.02238928 -0.025386764 0.031444605 -0.023341872
000030 86 24 e6 3c d1 3c 03 bd 86 db c2 bc 80 3e d3 bc
       0.028093588 -0.03204042 -0.023786318 -0.025786638
000040 b9 ef df bc 90 ac b9 3c 1a 8a ce bc ed ea 81 3c
       -0.027335988 0.022665292 -0.025212336 0.015859092
000050 fb 69 bb bc 9c e1 e2 bc 0f 8b cc 3c ab 45 04 3d
       -0.022877684 -0.02769547 0.024968652 0.032293003
000060 be 53 bb 3c 72 3f e9 bc 35 71 a5 3c 68 8f d7 bc
       0.02286708 -0.028472636 0.020195583 -0.026313499
000070 44 11 6a 3c 94 89 c1 bc 54 8f 13 bd 01 13 b4 3c
       0.014286343 -0.023625173 -0.03602536 0.021981718
000080 03 9b be bc f6 c7 89 bc 01 a6 c2 bc c1 d6 b1 3c
       -0.023267275 -0.016818982 -0.023760797 0.021708848
000090 95 a0 cc bc 86 33 2b bc f1 56 ab 3c 9a d6 92 3c
       -0.024978915 -0.010449296 0.02091548 0.017924596
0000a0 90 ab d5 3c a8 be bf 3c 3f 68 c1 bc 42 6a d4 3c
       0.026082784 0.023406342 -0.023609279 0.025929574
0000b0 ae 54 0a bd 42 a5 b5 3c cd 80 d6 3c fd 27 cb 3c
       -0.033772163 0.022173528 0.026184464 0.024799341
0000c0 3a 0c aa 3c ac e9 da 3c bf 2b d8 bc 16 7c dd bc
       0.020757783 0.026722752 -0.026388047 -0.027036708
0000d0 24 95 c8 3c 51 d0 c1 bc 96 93 a4 3c 5c a7 98 3c
       0.024485178 -0.023658903 0.020089906 0.01863449
0000e0 7d 69 09 3d 24 13 06 bd 7d 04 de 3c 06 04 ac 3c
       0.033547867 -0.032733098 0.02710175 0.020998012
0000f0 66 be 00 3d aa 7d b3 bc d6 6d b3 3c d5 db c1 bc
       0.031431578 -0.021910507 0.02190296 -0.023664394
000100 37 cf c9 bc 09 62 bc 3c ec e4 95 bc 15 7e 01 3d
       -0.02463494 0.022995966 -0.018297635 0.03161438
000110 6b d4 c3 bc b8 ff c3 3c 60 e7 bb 3c 0a 22 be bc
       -0.023905 0.023925647 0.022937477 -0.02320959
000120 0d 5d 93 bc 15 07 cd bc 9f 2b c6 3c 7f c9 d3 bc
       -0.017988706 -0.025027791 0.024190722 -0.025852917
000130 05 6a d5 bc 2f 00 c9 bc a7 fe b3 bc a9 b1 93 3c
       -0.02605153 -0.02453622 -0.021972014 0.01802905
000140 3d 6b d1 bc 8c b4 e6 3c 2a 6d ca bc b2 f1 c4 3c
       -0.02556383 0.028162263 -0.024710257 0.02404103
000150 f5 bb 9d bc 9d 9d d5 bc 1c ed b5 bc f6 c8 e1 3c
       -0.019254664 -0.026076132 -0.02220779 0.027561646
000160 1a 1e a5 3c 7d c2 99 bc 1c 59 a6 3c d1 84 c7 3c
       0.020155955 -0.018769497 0.020306163 0.024355324
000170 8b 60 5b bb 7d 5a ae bc f8 33 6d 3c d6 4b ca bc
       -0.0033474292 -0.021283383 0.014477722 -0.024694365
000180 49 02 12 bd c7 5d 78 3c 35 f8 bb 3c 7a ec d7 bc
       -0.03564671 0.015159077 0.022945503 -0.026357878
000190 94 21 ef bc 43 39 d1 3c 2d ae 9d bc bf 32 a4 3b
       -0.029190816 0.02554 -0.019248093 0.005010932
0001a0 36 9d cb 3c 97 aa d3 3c ed b3 c9 bc 00 55 bc bc
       0.024855237 0.02583818 -0.024621928 -0.02298975
0001b0 5e f7 c6 3c 05 af c8 bc cf 4b bd bc 0e c7 e8 3c
       0.024287876 -0.024497518 -0.023107437 0.02841523
0001c0 05 05 9a bc 4f f2 cc bc dd 4c c8 bc 80 92 f2 bc
       -0.018801222 -0.025017885 -0.024450714 -0.029610872
0001d0 28 26 cf bc 71 23 b0 bc 01 84 cb bc aa 98 8d 3c
       -0.025286749 -0.021501275 -0.024843218 0.01728471
0001e0 0f f8 ac bc 4f 4c c5 3c 81 9b cf 3c cc 00 dc 3c
       -0.021114377 0.024084238 0.025342705 0.026855849
0001f0 b4 1b d4 bc 8a cd be bc 66 ac 92 3c ec 1e fd bc
       -0.025892116 -0.023291368 0.017904472 -0.030898534
000200 80 a4 b1 3c 27 dd b8 3c fd 6f c6 bc 83 1c bd 3c
       0.021684885 0.022566391 -0.024223322 0.023084885
000210 37 cb bc bc 04 66 da 3c 3d 1e dd bc c3 bb 04 bd
       -0.02304612 0.026659973 -0.026991958 -0.032405626
000220 b6 d5 f7 3c a8 3d c5 bc 0c 5c c2 bc 50 6a c9 3c
       0.030253273 -0.024077252 -0.023725532 0.024586827
000230 a8 b0 bc bc a8 bd bc bc 9d 90 a5 3c 8a 06 a6 3c
       -0.023033455 -0.023039654 0.020210559 0.02026679
000240 60 6b cd 3c a1 eb ba bc bf 84 d6 3c 76 c8 b4 bc
       0.025075614 -0.022817435 0.026186345 -0.022068243
000250 9f f9 f1 3c 21 10 cc bc f6 6f c5 3c 30 14 12 bd
       0.029537974 -0.024910035 0.024101239 -0.035663784
000260 6e 9d cb bc 7b b6 c2 bc 5a 2e d3 3c 23 d7 dc 3b
       -0.024855342 -0.023768654 0.025778938 0.0067395135
000270 3c b1 c1 bc b5 5f a6 b9 f1 55 f1 bc d7 78 24 3c
       -0.023644082 -0.00031733295 -0.029459925 0.010038576
000280 9d e6 ae 3c fc d8 8e bc b5 ac b0 3c 6e 71 e5 3c
       0.0213502 -0.01743745 0.021566728 0.028008189
000290 52 e3 8e bc 6c 60 72 3c e0 42 cb bc b1 66 9c 3c
       -0.01744238 0.014793497 -0.024812162 0.019091936
0002a0 b3 1e ba bc d2 e7 db 3c 62 2d e5 bc 3c ea cd 3c
       -0.022719717 0.026843939 -0.027975742 0.025136106
0002b0 61 05 fd bc ce f9 a4 3c e3 2e cc 3c 89 3b f3 bc
       -0.030886354 0.020138647 0.024924701 -0.029691475
0002c0 7b 7e 9b bc 87 16 e5 bc 8d 6c 6b 3c 45 1c cd bc
       -0.018981209 -0.027964843 0.014369142 -0.025037894
0002d0 14 be 8f 3c b9 5a d9 bc 91 9f 87 3c a8 0a b3 3c
       0.017546691 -0.026532518 0.01655558 0.021855667
0002e0 f3 d2 b9 bc f4 60 c3 bc 60 90 15 bd f2 04 c1 bc
       -0.022683596 -0.023849942 -0.03651464 -0.023561928
0002f0 f8 bc b7 3c 0b f7 c5 bc 77 8c d4 bc 65 b2 ba 3c
       0.022428975 -0.02416565 -0.025945885 0.022790143
000300 aa c9 c2 3c 57 65 bf 3c 5d 78 c8 3c 3a d6 cb bc
       0.023777802 0.023363752 0.024471456 -0.024882425
000310 00 26 b1 3c 2a 86 d1 3c 8a f7 fd 3c 66 fa de bc
       0.021624565 0.02557667 0.031001825 -0.027219009
000320 c5 e4 ea 3c dc 97 c3 3c 17 ce bc 3c 8c 9d e3 bc
       0.028673539 0.023876123 0.02304749 -0.027785085
000330 d7 8e e0 bc f5 43 ed 3c 41 5a 05 3c 88 79 dc 3c
       -0.027411861 0.028963069 0.008139194 0.02691342
000340 08 66 c4 3c 30 0f eb bc 49 40 ba 3c af 4c c5 3c
       0.023974434 -0.028693765 0.022735732 0.024084417
000350 f5 d4 f2 bb cc a4 c6 bc a9 82 c2 3c 98 73 bf bc
       -0.0074106404 -0.024248503 0.023743944 -0.02337055
000360 4f 6f ad 3c 60 ae 66 3c 12 99 09 3d 67 40 bd bc
       0.02117124 0.01407966 0.033593245 -0.023101998
000370 61 27 c9 bc 5a 37 b8 bc ac 16 0a 3d e4 67 c7 3c
       -0.02455491 -0.022487331 0.033713028 0.024341531
000380 49 07 9c bc a0 f0 ba 3c 3d e8 dd 3c 77 fb bb bc
       -0.019046443 0.022819817 0.027088279 -0.022947056
000390 91 af cd 3c 03 61 fc 3c da c5 c5 3c dd fd 12 3c
       0.02510813 0.030807978 0.024142195 0.008971659
0003a0 cf 99 da bc cd 4e d6 bc f0 d3 1d 3c 24 56 c7 3c
       -0.02668467 -0.026160622 0.009633049 0.024333067
0003b0 03 1d c9 bc e6 a1 dd 3c 04 05 ca bc 73 ea ad 3c
       -0.024549967 0.027054738 -0.024660595 0.021229958
0003c0 78 f8 cb bc dc bf c8 bc 02 2b c2 3c e8 7f bd bc
       -0.024898753 -0.024505548 0.023702148 -0.02313228
0003d0 79 cc b5 3c a7 bf 81 3c cd 18 b9 bc b1 12 ca 3c
       0.022192227 0.015838457 -0.022594834 0.024667116
0003e0 a5 f2 c9 3c c6 5a 9e 3c 63 43 bb bc c5 37 bf 3c
       0.024651835 0.019330394 -0.02285928 0.023342023
0003f0 7e 76 a9 bc c5 14 dd bc 4b a1 b8 bc 9d 21 c8 bc
       -0.020686384 -0.026987443 -0.022537848 -0.02443009

conv4.lin.weight f4 [256, 128]
000000 62 4c 5b bd ce d0 29 bd f3 d8 cc 3d c9 46 dd 3d
       -0.05353964 -0.041458897 0.10002317 0.10804517
000010 74 ed c9 3d 9c e1 c5 bd 5a 77 17 be 11 37 9e bd
       0.09859744 -0.09662172 -0.14791623 -0.07725347
000020 d5 27 c1 bd 57 6f a4 3d b1 1a d6 3d 31 9e 33 3d
       -0.094314255 0.08029049 0.1045431 0.043852035
000030 a1 58 00 bd 36 1e 0e 3e 02 83 fb 3d 32 f1 92 3d
       -0.031334523 0.13878712 0.12280847 0.071749106
000040 57 21 33 bd ec c4 e8 bc ca ec 7d bd 39 4b 1e 3d
       -0.043732967 -0.028414212 -0.061993398 0.038645957
000050 0e cc 4e 3c 55 5a a4 3c 40 b6 fa bd 37 7f b5 3d
       0.012621893 0.020062605 -0.12241793 0.08862155
000060 25 a1 e1 bd 5b 49 95 bd 5e 99 13 3e 58 22 3d bd
       -0.11017064 -0.07289382 0.14413974 -0.04617533
000070 a6 8f 05 3e d9 2a 6f 3d 64 e0 75 3c ef 18 b8 bd
       0.13043079 0.058390472 0.015007112 -0.08989131
000080 37 e7 a6 3d 51 0b a7 bd ea 5d 14 bd ce 74 bf 3b
       0.081495695 -0.08156455 -0.036222376 0.0058427816
000090 24 c4 fd bd a7 1b 42 bd 61 40 99 bd b9 00 36 bd
       -0.123909265 -0.047389653 -0.074829824 -0.044434283
0000a0 ee 03 ba bd 1c f5 94 3d 03 27 c7 bc 6b f1 8f 3c
       -0.09082781 0.072733134 -0.024310594 0.017571172
0000b0 92 08 39 3d db 23 fe bd 8b 18 ab 3d 10 cd fc 3d
       0.04517419 -0.12409183 0.083542906 0.123438
0000c0 4c 85 85 3d 0c 53 d1 3c ec 95 7b 3d 70 47 8d 39
       0.06519565 0.025552295 0.061422274 0.0002694684
0000d0 68 f6 d7 bd 05 9d 45 bd 00 ea 40 3d 1b a7 13 be
       -0.10545045 -0.04824545 0.04709816 -0.14419214
0000e0 37 8c 64 3c 90 69 0a be 3e 2a e4 bc e5 0c b3 bd
       0.013949445 -0.13516831 -0.027852174 -0.08742694
0000f0 ac de dd bc ef 1b fb bd 2e 31 94 3c bd 56 89 3d
       -0.027083717 -0.12261187 0.018089857 0.06705997
000100 53 17 5b 3d 07 b1 be 3d 67 7e 8a bd 61 d5 25 bd
       0.05348904 0.09311109 -0.067623906 -0.040486697
000110 8d b8 3c 3d 00 8f 13 bc b8 be b4 bd 8f 4c 39 3d
       0.04607444 -0.009006262 -0.08825439 0.045239028
000120 7d 0d 18 3e 23 5c 09 bd 69 11 71 bd 36 6c 6d 3d
       0.14848895 -0.033535134 -0.058854494 0.057964526
000130 63 7d 0b 3d 0f cc 14 bd 4d b7 47 bd da b9 0c be
       0.034055125 -0.036327418 -0.048758794 -0.13742772
000140 64 8f d8 3d f5 67 6e bd c5 2f 9e 3d 41 4b bb 3d
       0.105742246 -0.05820461 0.07723955 0.09145213
000150 b1 98 76 bd c7 06 f0 ba 21 5e c0 bd 85 8e 15 be
       -0.06020421 -0.0018312567 -0.09392954 -0.14605148
000160 65 bb 36 3d a6 68 44 bd 1e 75 96 bd c4 f9 f5 bd
       0.044612307 -0.047951363 -0.07346557 -0.1201053
000170 77 ae 29 bd 72 71 8b 3d a5 d7 6e bd 96 5f 45 bd
       -0.04142615 0.06808747 -0.058311123 -0.04818686
000180 af 64 ab 3d e6 f3 17 bd d3 a5 81 bd 13 29 e7 bc
       0.08368813 -0.037097834 -0.063304566 -0.028217828
000190 d4 76 1a 3e 57 09 b6 3d d4 c2 9c 3d 55 53 4e 3d
       0.15084392 0.088885 0.07654348 0.05037244
0001a0 7f 8b 07 be 92 e4 7a bd b9 a2 48 bb d4 2a 6a bd
       -0.13236807 -0.061253138 -0.0030614568 -0.05716975
0001b0 ed 7e cd 3c 51 5f 5e bd 37 2c 14 3e 56 27 19 3e
       0.025084937 -0.05429012 0.14469992 0.14956412
0001c0 08 ea e2 3d f6 09 51 3d 01 6f 43 bd fd 14 aa 3d
       0.11079794 0.05103489 -0.047713283 0.083047844
0001d0 fb cd 17 be 4b 66 9b 3d 09 78 fc bd 7e 33 ac 3c
       -0.14824669 0.0758787 -0.123275824 0.021020647
0001e0 f1 b3 ab bd 44 df 1c bd 9d f9 80 3c 3c c4 22 bd
       -0.083839305 -0.03829886 0.015744025 -0.039737925
0001f0 63 06 bd bd a9 93 93 3c ab c1 26 bd 7d 54 4a bd
       -0.09229734 0.018014746 -0.04071204 -0.04939698
000200 4e a7 b1 3d 14 3e 12 be ed 1b 04 be ab 64 86 3d
       0.08674489 -0.14281493 -0.12901278 0.0656217
000210 8c b5 11 bd db 27 53 3d 73 b3 18 bd 50 b3 db bc
       -0.035573527 0.05155168 -0.03728051 -0.026818901
000220 d9 89 e4 bc 73 b0 74 bc 24 88 ff bd 7f 87 18 3e
       -0.027897762 -0.014934647 -0.12477139 0.14895438
000230 7e da 38 3d b8 0c 0e be c1 06 a1 3d e0 09 ef bc
       0.045130245 -0.1387204 0.07862616 -0.029179513
000240 66 31 b1 bb 8e 62 bd 3d 37 5e be bd 7d 22 ae bc
       -0.0054075 0.092473134 -0.09295314 -0.02125668
000250 75 6e ef bd c3 eb 29 3c 39 52 aa bd 5b 39 f7 3d
       -0.1169099 0.010371151 -0.08316464 0.120714866
000260 a0 a7 81 3d b7 6a e5 3d aa 4b c4 bd f0 9a 88 bd
       0.063308 0.11201995 -0.09584744 -0.06670177
000270 f5 06 19 3e 45 2b 93 3c 45 19 3f bd 3b 80 25 bd
       0.1494406 0.017964968 -0.04665496 -0.040405493
000280 39 25 09 be 12 9a b4 3c a7 03 26 3d f9 8f c7 3c
       -0.13393106 0.022046123 0.040530827 0.024360644
000290 8d 92 d7 bd 11 b9 e2 bd 98 31 ca 3d c7 4c a0 bd
       -0.10525999 -0.11070455 0.098727405 -0.07827144
0002a0 0f cd 61 bd 82 82 ae 3d 76 3f a9 3c de cd 97 3c
       -0.0551272 0.08520986 0.020660143 0.018530782
0002b0 dd 74 a3 bd 4e 10 41 3d c9 f3 de 3b 47 81 62 3d
       -0.07981274 0.04713469 0.006803964 0.05529907
0002c0 c7 82 c3 3d 1e 78 17 3e 3e 02 76 bd c3 39 ae 3d
       0.09546428 0.14791915 -0.060060732 0.08507111
0002d0 0f c0 d5 3d 87 43 14 3d 94 ec e3 3d bb 9d 03 bc
       0.10437023 0.03619721 0.11129108 -0.008033211
0002e0 a1 4e 48 3c 1c 64 ab bd 6e c9 15 be 94 f2 90 3d
       0.012225778 -0.08368704 -0.1462762 0.07077518
0002f0 62 28 e0 3d 50 9c cc 3d ff cb 7f bc 4a 9d e7 bc
       0.109452024 0.09990752 -0.015612601 -0.028273243
000300 d3 17 f5 3c 10 6f bd 3c a3 0e 93 3d ab 61 95 3c
       0.029918587 0.023124248 0.07180526 0.018235048
000310 da 09 3d 3d af 04 01 be e6 a4 85 bd ed 48 df bd
       0.046151973 -0.12599443 -0.065255925 -0.10902581
000320 1c 47 c9 bd 2c 05 1b 3d 18 40 11 bb df e8 fb 3c
       -0.09828016 0.03784673 -0.0022163447 0.03075069
000330 3f 82 8f bd bf ee 91 3c 70 cc c6 bd fe c6 02 3e
       -0.07007264 0.017814038 -0.09706962 0.12771222
000340 e8 a3 c2 bd 1f 92 45 3d d2 9f 88 bd 50 86 72 3d
       -0.09503919 0.048235055 -0.06671108 0.05921012
000350 39 61 e7 bc fe a3 1b bd f7 17 c0 3d e5 7a 82 3c
       -0.028244602 -0.037998192 0.09379571 0.015927741
000360 28 ae 87 bd ab 38 d3 3d 8a 58 c1 bc 9c 28 a0 3b
       -0.066250145 0.10313543 -0.023601789 0.0048876535
000370 5c 6a aa bc 64 4b 89 bd 58 c5 98 bd be d7 fa bc
       -0.02080267 -0.06703833 -0.07459515 -0.030620452
000380 7b 8a 0f 3b 03 02 15 3e e5 0b a2 bd f0 16 9e 3d
       0.002190261 0.14551549 -0.07912425 0.07719219
000390 4b f1 17 be 58 05 5c 3d 97 ad b5 bd 43 fe ce bd
       -0.1483814 0.053716034 -0.08871 -0.1010709
0003a0 24 0a 38 bd 21 dc 0b be aa 71 46 3d fd c9 ec 3d
       -0.044931546 -0.13658191 0.048448242 0.11561964
0003b0 ae 70 7f 3d 1e 1b e1 b9 ce 01 a5 bd bd a0 c0 3b
       0.06236332 -0.00042935548 -0.08056985 0.0058785365
0003c0 43 24 2b bd 28 f8 50 3d 80 8c 9a bd a7 ae 38 3d
       -0.04178263 0.05101791 -0.075463295 0.045088436
0003d0 a3 2e 37 3c 96 d6 8b 3d 1d eb 17 be 62 2e 23 bc
       0.011180553 0.068280384 -0.14835782 -0.009959789
0003e0 7c b2 81 3d eb 04 57 bd 91 b8 d9 3d 8a ea e3 ba
       0.06332871 -0.052494925 0.106309064 -0.0017388624
0003f0 97 7a a1 3d d0 ea d1 3d ec 03 b7 bc 7e 8f c0 3d
       0.0788471 0.10249865 -0.022340737 0.09402369

conv5.bias f4 [256]
000000 16 3d 6b ba 2c 01 7f ba b0 b6 1d ba 84 3c 9b ba
       -0.0008973641 -0.00097276527 -0.0006016297 -0.0011843597
000010 64 6d 7f ba ef 0b ab 39 e0 89 2e 3a 50 cf 63 3a
       -0.00097437785 0.00032624553 0.0006658118 0.0008690255
000020 96 e7 7b ba 19 5f 95 3a 28 86 17 ba 35 c0 51 3a
       -0.0009609399 0.0011396139 -0.0005780184 0.00080013584
000030 c0 27 55 3a 65 f2 3e 3a e2 a0 7c ba ec 2d 5d 3a
       0.00081312284 0.00072840444 -0.00096370105 0.0008437324
000040 53 6d 49 38 4a fd ac b9 1c f7 66 ba ed 3e cd b7
       4.802395e-05 -0.00032995112 -0.0008810626 -2.4467206e-05
000050 f0 3e 75 ba c9 16 ba b9 02 eb 4f ba aa 55 26 3a
       -0.0009355387 -0.0003549366 -0.0007931442 0.00063451624
000060 91 56 28 3a b6 da 56 3a a3 1c 09 3a 21 8e 6b 3a
       0.0006421591 0.00081960426 0.00052304025 0.00089857174
000070 e2 7b 71 3a 1c ba 7c 3a 23 a1 5b 3a d6 3a 7f 3a
       0.00092118804 0.00096407696 0.0008378198 0.0009736245
000080 ba 7d 79 3a f7 0e 2b 3a bd d2 8a b9 83 0a 45 3a
       0.0009517331 0.0006525362 -0.00026478423 0.000751652
000090 3b 12 fe 39 a5 31 f0 39 08 08 6f 3a a6 80 66 ba
       0.00048460238 0.00045813355 0.0009118323 -0.0008792974
0000a0 d1 4b 74 3a ac 53 e7 38 53 93 47 ba a6 2a 74 3a
       0.0009319159 0.000110305235 -0.00076132006 0.00093142164
0000b0 6b 8d ed b9 88 d2 c3 b9 fb 5a 3c 3a 99 22 73 ba
       -0.00045309527 -0.00037350156 0.0007185188 -0.000927487
0000c0 69 e9 48 3a 80 90 d3 39 fa 62 1b ba 02 9e 05 3a
       0.00076641754 0.00040352717 -0.00059275294 0.00050970924
0000d0 c8 1b a2 ba e1 bc 95 38 fb c7 72 ba ec 28 86 ba
       -0.0012367899 7.140055e-05 -0.0009261367 -0.0010235584
0000e0 ea 86 4a 3a 78 17 6d ba 54 2f a3 3a 34 84 8f b9
       0.0007725792 -0.00090443296 0.0012450018 -0.00027373584
0000f0 0a fb a1 b9 8b 4a 9d 39 a9 b7 7c ba f0 f3 99 ba
       -0.00030895352 0.00030000912 -0.00096404046 -0.0011745673
000100 2a a3 a4 ba 74 a4 25 ba 35 4a 16 ba 4c 3c 5b 3a
       -0.0012560834 -0.0006318756 -0.00057331036 0.0008363172
000110 51 3f ce b9 16 03 3a 3a 7e 82 54 3a ed 6e 05 3a
       -0.00039338556 0.0007095797 0.0008106603 0.00050900766
000120 b8 ac 56 ba e3 df 35 ba 33 3f 38 ba 5f 13 24 3a
       -0.0008189189 -0.0006937964 -0.00070284604 0.000625899
000130 85 e0 bb b8 0a 7f 30 3a 71 69 14 38 ed 99 1e 3a
       -8.958675e-05 0.00067327975 3.538415e-05 0.00060501584
000140 24 52 b2 b9 35 69 7d ba a0 2a 6c 3a c7 70 3b ba
       -0.00034012005 -0.0009666861 0.0009009037 -0.0007150289
000150 51 73 4f 39 e2 c6 6b ba e3 be 3a 3a 38 24 9b 39
       0.00019784017 -0.00089941744 0.0007123781 0.0002959089
000160 78 0c ae 39 69 52 97 3a f8 4d 1b 3a d2 eb ac 39
       0.00033197156 0.0011544946 0.0005924399 0.00032982096
000170 ed c9 48 3a d2 60 2f 3a 0b 84 90 ba ee 56 7f ba
       0.0007659484 0.00066901476 -0.001102568 -0.00097404316
000180 d5 68 41 3a 00 72 09 ba 1c 01 6b 3a 3c 81 72 ba
       0.0007377987 -0.00052431226 0.0008964704 -0.0009250825
000190 8d 4e 85 b8 9b e1 0c ba af 39 6d 3a 53 aa 99 ba
       -6.3565654e-05 -0.0005374194 0.0009049428 -0.0011723734
0001a0 29 fe b5 39 e8 b2 55 ba 98 b3 1a b9 50 74 31 ba
       0.00034712374 -0.0008151964 -0.00014753488 -0.0006769346
0001b0 2b c6 7a ba f1 17 2e 3a a2 54 3c 3a 7e 6d d5 39
       -0.00095662725 0.0006641141 0.0007184242 0.00040708104
0001c0 39 ae 50 3a 9f 5f a0 b8 b1 2f 62 ba c1 1c 3c 3a
       0.00079605315 -7.647205e-05 -0.00086283224 0.00071759155
0001d0 8c 65 3a ba 25 54 1f 3a 76 16 b2 39 a9 6e 52 3a
       -0.00071104686 0.0006077907 0.0003396754 0.0008027354
0001e0 09 92 57 3a 56 5f 8c b9 a5 0f 4c 3a 4a ac 1a 3a
       0.000822336 -0.00026773912 0.00077843136 0.0005900307
0001f0 c7 0c 14 3a 0a 80 47 b9 77 82 7f 3a c3 05 36 39
       0.0005647656 -0.00019025817 0.0009746919 0.00017359019
000200 1a 77 1b ba 5f f6 53 3a 6e 95 9b b9 da e4 3f 39
       -0.0005930528 0.00080857234 -0.00029675238 0.00018300433
000210 fb f4 36 3a b6 7c 52 39 ca cc 00 ba bd 18 15 3a
       0.0006979254 0.00020073619 -0.00049133284 0.0005687585
000220 66 c8 47 39 d9 6e 09 39 f8 6e 1a ba 46 cf 73 ba
       0.00019052773 0.00013106632 -0.00058911694 -0.00093006005
000230 32 03 93 39 d1 d4 6c b8 7b 13 ab b9 d5 35 7e ba
       0.00028040406 -5.6464985e-05 -0.00032630176 -0.00096973527
000240 24 fa 5e 3a fa 7a 02 3a cc c3 a6 39 fe f4 4b b9
       0.0008505902 0.00049774314 0.00031807867 -0.00019450855
000250 d0 be e5 39 47 09 b8 39 81 61 4d 3a c9 0c 84 3a
       0.0004382045 0.00035102127 0.00078346586 0.0010074611
000260 c6 01 0c 3a c7 ba e9 b9 40 01 f0 39 e8 38 a1 3a
       0.00053408404 -0.00044580383 0.00045777299 0.0012300285
000270 16 ac 25 3a 91 1d 43 b9 95 c3 17 ba 76 19 3a 3a
       0.00063198933 -0.00018607664 -0.0005789337 0.0007099131
000280 69 57 5b 3a e1 6b 3c 3a 80 95 56 ba 19 37 4b 3a
       0.0008367212 0.0007187706 -0.00081857294 0.00077520456
000290 90 09 82 ba a1 00 68 3a 1d 09 7e 3a c6 56 9e ba
       -0.0009921063 0.00088501914 0.0009690689 -0.0012080304
0002a0 aa a3 4b ba 76 ef 67 3a f8 16 7f 3a d3 f7 27 3a
       -0.00077682233 0.0008847633 0.00097309006 0.0006407473
0002b0 d3 18 9b 39 14 6e f7 39 6a be b9 b9 a4 ba 4a 3a
       0.000295824 0.00047193526 -0.0003542782 0.00077335
0002c0 2a 8f 7b ba 54 d5 fc b9 31 ab 87 3a 5f 36 9a 39
       -0.0009596223 -0.00048224127 0.0010350702 0.0002941368
0002d0 3b b5 c5 38 ed b2 95 ba a5 3a 21 3a cd 51 53 ba
       9.427449e-05 -0.0011421122 0.00061504013 -0.00080612005
0002e0 9c f5 80 3a a4 25 4d ba c0 6c 3e ba a7 33 6e 3a
       0.0009838822 -0.0007825738 -0.000726413 0.00090866763
0002f0 22 11 8b ba aa d5 94 3a 4f e7 46 b9 ca 62 51 ba
       -0.0010609964 0.0011355181 -0.0001896892 -0.0007987438
000300 65 f3 04 3a 2d 1a 2e ba 75 e7 2c ba e9 d4 a0 3a
       0.0005071669 -0.0006641474 -0.0006595769 0.0012270483
000310 0b 76 5c 3a 1c 98 4f ba 7a 4f 5c 3a 2e 06 38 ba
       0.0008409924 -0.00079190894 0.0008404177 -0.0007019964
000320 41 11 73 39 e0 f4 61 3a 87 59 7c ba fd 50 d3 38
       0.00023180713 0.0008619558 -0.0009626378 0.00010076349
000330 b1 08 5e 3a 62 18 cc 39 a2 8f 39 ba 4e 83 31 3a
       0.0008469923 0.0003892808 -0.0007078593 0.000677158
000340 f8 db 3d ba 37 ac 9f 3a 74 ff 3a 3a 95 71 81 38
       -0.0007242556 0.0012182061 0.00071334024 6.172356e-05
000350 75 22 af b9 21 67 1a b9 3b e3 2d 3a 2b 85 2b 3a
       -0.00033404274 -0.00014725003 0.0006633286 0.0006542976
000360 27 3c 2a ba e2 f4 f5 39 ee d1 0d 3a e3 e8 5a ba
       -0.0006493949 0.00046912493 0.0005410005 -0.0008350743
000370 fa 7d 8b 3a a8 76 4a ba 9b c6 80 ba 68 99 6e ba
       0.0010642402 -0.00077233696 -0.0009824814 -0.0009101839
000380 2f 85 9b ba 12 46 7e ba cb 49 2c ba dd c5 81 ba
       -0.0011865253 -0.00096997723 -0.00065722753 -0.0009900887
000390 f0 5a 01 38 12 d1 21 3a ab 7e 33 ba e1 73 55 38
       3.084069e-05 0.00061728165 -0.0006847183 5.0891078e-05
0003a0 40 4e 58 39 29 f1 eb 39 c3 99 78 39 ee f1 a3 3a
       0.00020628516 0.0004500237 0.00023708404 0.0012508014
0003b0 b4 5f 6f ba 5f c2 ab 39 d5 ad 43 3a ce 14 7c ba
       -0.00091313873 0.0003276048 0.00074645627 -0.0009616137
0003c0 d6 bb ea b9 64 21 45 ba e5 93 bc b9 5e 2e 64 38
       -0.00044771907 -0.0007519929 -0.00035968344 5.440262e-05
0003d0 8a d8 4b 3a f5 b2 2a 37 04 3c 4b ba 30 9a 2a ba
       0.0007776102 1.0174456e-05 -0.00077527785 -0.0006507961
0003e0 2f 3e 60 b9 86 ff 2f ba 4c 19 69 b8 7f b9 02 3a
       -0.0002138547 -0.0006713796 -5.557509e-05 0.00049867475
0003f0 ed a7 a3 3a a7 1a 87 b6 65 71 33 ba cf bb a2 b8
       0.0012485959 -4.0264163e-06 -0.0006845205 -7.759744e-05
